trained_models/step_6_QAT_and_Convert2TFLite/final_qat_model_acc87.46_testacc85_20240418144919/qat_model_0.8_0.85_ratio_acc_93_20240418144919_total_epochs_1000.tflite (tflite, 80048 bytes, 13 tensors)

fuse_attr_8 i1 [22, 3, 3, 15] scale=0.003121067 zero_point=0
0.11860055 0.0 -0.003121067 -0.009363201 0.0 0.06866348 0.024968537 0.009363201
-0.003121067 -0.012484268 -0.003121067 0.0 0.0 0.03121067 0.003121067 0.12484268
0.0 -0.003121067 -0.03433174 0.0 0.06554241 0.015605335 0.0 -0.003121067
-0.02184747 -0.003121067 0.0 0.0 0.015605335 0.003121067 0.10923735 0.0
0.0 -0.03121067 0.0 0.07178454 0.006242134 -0.015605335 0.0 -0.009363201
-0.018726403 0.0 0.0 -0.015605335 -0.006242134 0.14981122 0.0 -0.003121067
-0.015605335 0.0 0.08738988 0.028089603 0.012484268 -0.003121067 -0.009363201 -0.009363201
0.0 0.0 0.028089603 -0.012484268 0.15917443 0.0 0.0 -0.05305814
0.0 0.096753076 0.015605335 -0.003121067 0.0 -0.028089603 -0.003121067 0.0
0.0 0.015605335 0.003121067 0.14981122 0.0 0.0 -0.049937073 0.0
0.10611628 0.006242134 -0.018726403 0.003121067 -0.02184747 -0.012484268 0.0 0.0
-0.02184747 -0.006242134 0.11860055 0.003121067 -0.003121067 -0.040573873 0.0 0.06554241
0.040573873 0.02184747 -0.003121067 -0.015605335 -0.006242134 0.0 0.0 0.006242134
-0.018726403 0.12172162 0.0 0.0 -0.07490561 0.0 0.078026675 0.03433174
0.009363201 0.0 -0.03433174 -0.003121067 0.0 0.0 -0.006242134 -0.006242134
0.115479484 0.0 0.0 -0.07490561 0.0 0.08738988 0.024968537 -0.009363201
0.003121067 -0.03433174 0.0 0.0 0.0 -0.03121067 -0.006242134 -0.015605335
0.0 0.003121067 0.028089603 0.0 -0.006242134 -0.003121067 0.0 0.0
0.012484268 0.0 -0.006242134 0.0 0.0 0.006242134 -0.009363201 0.0
0.003121067 0.024968537 0.0 0.0 0.0 0.0 0.0 0.012484268
-0.003121067 -0.006242134 0.0 0.0 0.003121067 -0.009363201 0.0 0.003121067
0.02184747 0.0 0.0 0.0 0.0 0.0 0.012484268 -0.003121067
-0.006242134 0.0 0.0 0.003121067 -0.006242134 0.0 0.003121067 0.024968537
0.003121067 0.006242134 -0.003121067 0.0 0.0 0.009363201 0.0 -0.003121067
0.0 0.0 0.006242134 0.0 0.0 0.003121067 0.018726403 0.003121067
0.006242134 0.0 0.0 0.0 0.006242134 -0.003121067 0.0 0.0
-0.003121067 0.003121067 0.0 0.003121067 0.003121067 0.018726403 0.003121067 0.006242134
0.0 0.0 0.0 0.009363201 -0.006242134 0.0 0.0 -0.003121067
0.003121067 0.006242134 0.0 0.0 0.0 0.0 0.006242134 0.0
0.003121067 0.0 0.0 0.0 -0.003121067 -0.003121067 0.0 0.006242134
0.009363201 0.0 0.0 0.003121067 0.0 0.006242134 0.003121067 0.003121067
0.003121067 0.0 0.0 -0.003121067 -0.003121067 0.0 0.003121067 0.009363201
00000000: 2600 fffd 0016 0803 fffc ff00 000a 0128
00000010: 00ff f500 1505 00ff f9ff 0000 0501 2300
00000020: 00f6 0017 02fb 00fd fa00 00fb fe30 00ff
00000030: fb00 1c09 04ff fdfd 0000 09fc 3300 00ef
00000040: 001f 05ff 00f7 ff00 0005 0130 0000 f000
00000050: 2202 fa01 f9fc 0000 f9fe 2601 fff3 0015
00000060: 0d07 fffb fe00 0002 fa27 0000 e800 190b
00000070: 0300 f5ff 0000 fefe 2500 00e8 001c 08fd
00000080: 01f5 0000 00f6 fefb 0001 0900 feff 0000
00000090: 0400 fe00 0002 fd00 0108 0000 0000 0004
000000a0: fffe 0000 01fd 0001 0700 0000 0000 04ff
000000b0: fe00 0001 fe00 0108 0102 ff00 0003 00ff
000000c0: 0000 0200 0001 0601 0200 0000 02ff 0000
000000d0: ff01 0001 0106 0102 0000 0003 fe00 00ff
000000e0: 0102 0000 0000 0200 0100 0000 ffff 0002
000000f0: 0300 0001 0002 0101 0100 00ff ff00 0103

fuse_attr_11 i1 [33, 3, 3, 35] scale=0.005694771 zero_point=0
0.0 0.0 0.0 0.0 0.0 0.0 0.0 0.0
0.0 0.0 0.0 0.0 0.0 0.0 0.0 0.0
0.0 0.0 0.0 0.0 0.0 0.0 0.0 0.0
0.0 0.0 0.0 0.0 0.005694771 0.0 0.0 0.0
0.0 0.0 0.0 0.0 0.0 0.0 0.0 0.0
0.0 0.0 0.0 0.0 0.0 0.0 0.0 0.0
0.0 0.0 0.0 0.0 0.0 0.0 0.0 0.0
0.0 0.0 0.0 0.0 0.0 0.0 0.0 0.005694771
0.0 0.0 0.0 0.0 0.0 0.0 0.0 0.0
0.0 0.0 0.0 0.0 0.0 0.0 0.0 0.0
0.0 0.0 0.0 0.0 0.0 0.0 0.0 0.005694771
0.0 0.0 0.0 0.0 0.0 0.0 0.0 0.0
0.0 0.0 0.005694771 0.0 0.0 0.0 0.0 0.0
0.0 0.0 0.0 0.0 0.0 0.0 -0.005694771 0.0
0.0 0.0 0.0 0.005694771 0.0 0.0 0.0 0.0
0.0 0.0 0.005694771 0.0 0.0 0.0 0.0 0.0
0.0 0.0 0.0 0.0 0.0 0.005694771 0.0 0.0
0.0 0.0 0.0 0.0 0.0 0.0 0.0 0.0
0.0 -0.005694771 0.0 0.0 0.0 0.0 0.005694771 0.0
0.0 0.0 0.0 0.0 0.0 0.005694771 0.0 0.0
0.0 0.0 0.0 0.0 0.0 0.0 0.0 0.0
0.005694771 0.0 0.0 0.0 0.0 0.0 0.0 0.0
0.0 0.0 0.0 0.0 -0.005694771 0.0 0.0 0.0
0.0 0.0 0.0 0.0 0.0 0.0 0.0 0.0
0.005694771 0.0 0.0 0.0 0.0 0.0 0.0 0.0
0.0 0.0 0.0 0.005694771 0.0 0.0 0.0 0.0
0.0 0.0 0.0 0.0 0.0 0.0 0.0 0.0
0.0 0.0 0.0 0.0 0.005694771 0.0 0.0 0.0
0.0 0.0 0.0 0.005694771 0.0 0.0 0.0 0.0
0.0 0.0 0.0 0.0 0.0 0.0 0.005694771 0.0
0.0 0.0 0.0 0.0 0.0 0.0 0.0 0.0
0.0 0.0 0.0 0.0 0.0 0.0 0.0 0.005694771
00000000: 0000 0000 0000 0000 0000 0000 0000 0000
00000010: 0000 0000 0000 0000 0000 0000 0100 0000
00000020: 0000 0000 0000 0000 0000 0000 0000 0000
00000030: 0000 0000 0000 0000 0000 0000 0000 0001
00000040: 0000 0000 0000 0000 0000 0000 0000 0000
00000050: 0000 0000 0000 0001 0000 0000 0000 0000
00000060: 0000 0100 0000 0000 0000 0000 0000 ff00
00000070: 0000 0001 0000 0000 0000 0100 0000 0000
00000080: 0000 0000 0001 0000 0000 0000 0000 0000
00000090: 00ff 0000 0000 0100 0000 0000 0001 0000
000000a0: 0000 0000 0000 0000 0100 0000 0000 0000
000000b0: 0000 0000 ff00 0000 0000 0000 0000 0000
000000c0: 0100 0000 0000 0000 0000 0001 0000 0000
000000d0: 0000 0000 0000 0000 0000 0000 0100 0000
000000e0: 0000 0001 0000 0000 0000 0000 0000 0100
000000f0: 0000 0000 0000 0000 0000 0000 0000 0001

fuse_attr_13 i1 [62, 3, 3, 50] scale=0.0057692733 zero_point=0
0.0 0.0 0.0 0.0 0.0 0.0 0.0 0.0
0.0 0.0 0.0 0.0 0.0 0.0 0.0 0.0
0.0 0.0 0.0 0.0 0.0 0.0 0.0 0.0
0.0 0.0 0.0 0.0 0.0 0.0 0.0 0.0
0.0 0.0 0.0 0.0 0.0 0.0 0.0 0.0
0.0 0.0 0.0 0.0 0.0 0.0 0.0 0.0
0.0 0.0 0.0 0.0 0.0 0.0 0.0 0.0
0.0 0.0 0.0 0.0 0.0 0.0 0.0 0.0
0.0 0.0 0.0 0.0 0.0 0.0 0.0 0.0
0.0 0.0 0.0 0.0 0.0 0.0 0.0 0.0
0.0 0.0 0.0 0.0 0.0 0.0 0.0 0.0
0.0 0.0 0.0 0.0 0.0 0.0 0.0 0.0
0.0 0.0 0.0 0.0 0.0 0.0 0.0 0.0
0.0 0.0 0.0 0.0 0.0 0.0 0.0 0.0
0.0 0.0 0.0 0.0 0.0 0.0 0.0 0.0
0.0 0.0 0.0 0.0 0.0 0.0 0.0 0.0
0.0 0.0 0.0 0.0 0.0 0.0 0.0 0.0
0.0 0.0 0.0 0.0 0.0 0.0 0.0 0.0
0.0 0.0 0.0 0.0 0.0 0.0 0.0 0.0
0.0 0.0 0.0 0.0 0.0 0.0 0.0 0.0
0.0 0.0 0.0 0.0 0.0 0.0 0.0 0.0
0.0 0.0 0.0 0.0 0.0 0.0 0.0 0.0
0.0 0.0 0.0 0.0 0.0 0.0 0.0 0.0
0.0 0.0 0.0 0.0 0.0 0.0 0.0 0.0
0.0 0.0 0.0 0.0 0.0 0.0 0.0 0.0
0.0 0.0 0.0 0.0 0.0 0.0 0.0 0.0
0.0 0.0 0.0 0.0 0.0 0.0 0.0 0.0
0.0 0.0 0.0 0.0 0.0 0.0 0.0 0.0
0.0 0.0 0.0 0.0 0.0 0.0 0.0 0.0
0.0 0.0 0.0 0.0 0.0 0.0 0.0 0.0
0.0 0.0 0.0 0.0 0.0 0.0 0.0 0.0
0.0 0.0 0.0 0.0 0.0 0.0 0.0 0.0
00000000: 0000 0000 0000 0000 0000 0000 0000 0000
00000010: 0000 0000 0000 0000 0000 0000 0000 0000
00000020: 0000 0000 0000 0000 0000 0000 0000 0000
00000030: 0000 0000 0000 0000 0000 0000 0000 0000
00000040: 0000 0000 0000 0000 0000 0000 0000 0000
00000050: 0000 0000 0000 0000 0000 0000 0000 0000
00000060: 0000 0000 0000 0000 0000 0000 0000 0000
00000070: 0000 0000 0000 0000 0000 0000 0000 0000
00000080: 0000 0000 0000 0000 0000 0000 0000 0000
00000090: 0000 0000 0000 0000 0000 0000 0000 0000
000000a0: 0000 0000 0000 0000 0000 0000 0000 0000
000000b0: 0000 0000 0000 0000 0000 0000 0000 0000
000000c0: 0000 0000 0000 0000 0000 0000 0000 0000
000000d0: 0000 0000 0000 0000 0000 0000 0000 0000
000000e0: 0000 0000 0000 0000 0000 0000 0000 0000
000000f0: 0000 0000 0000 0000 0000 0000 0000 0000

fuse_attr_9 i1 [19, 3, 3, 22] scale=0.0035558257 zero_point=0
0.0035558257 -0.0035558257 -0.0035558257 -0.0035558257 0.0 0.0 0.0 -0.021334954
0.0 -0.0035558257 0.0 0.0035558257 0.0035558257 -0.028446605 0.0 0.0
0.0035558257 0.017779129 0.0 0.0035558257 0.0 -0.017779129 -0.0071116514 -0.0035558257
-0.0035558257 -0.0071116514 0.0 0.0 0.0 -0.017779129 0.0 -0.0071116514
0.0 0.0035558257 0.0035558257 -0.02489078 -0.0071116514 0.0 0.0 0.014223303
0.0 0.0035558257 0.0 -0.021334954 -0.010667477 -0.0035558257 -0.0035558257 -0.0035558257
0.0 0.0 0.0 -0.014223303 0.0 -0.0035558257 0.0 0.0035558257
0.0035558257 -0.017779129 -0.0035558257 0.0 0.0 0.014223303 0.0 0.0
0.0 -0.017779129 0.05689321 0.0035558257 0.0 -0.0035558257 0.0 0.0
0.0 -0.010667477 0.0071116514 0.0 0.0 0.010667477 0.010667477 -0.021334954
0.0035558257 0.0 0.0 0.053337384 0.0 0.017779129 0.0 -0.0071116514
0.04978156 0.0 0.0 -0.0035558257 -0.0035558257 0.0 0.0 -0.0071116514
0.0035558257 -0.010667477 0.0 0.0071116514 0.010667477 -0.028446605 -0.010667477 0.0
-0.0035558257 0.04978156 0.0 0.017779129 0.0 -0.017779129 0.039114084 0.0
0.0 -0.0071116514 -0.0035558257 0.0 0.0 -0.0035558257 0.0035558257 -0.010667477
0.0 0.0071116514 0.0035558257 -0.021334954 -0.017779129 0.0 -0.0035558257 0.02489078
0.0 0.017779129 0.0 -0.0071116514 0.04978156 0.0035558257 0.0 0.0
-0.0035558257 0.0 0.0 0.0071116514 0.0 0.0 0.0 0.0
0.014223303 -0.017779129 0.0071116514 0.0 0.0 0.060449038 0.0 0.02489078
0.0 -0.021334954 0.04978156 0.0 0.0 0.0 -0.0071116514 0.0
0.0 0.0035558257 -0.0035558257 -0.010667477 0.0 0.0035558257 0.014223303 -0.035558257
-0.0035558257 0.0 0.0 0.08178399 0.0 0.03200243 0.0 -0.039114084
0.042669907 0.0 0.0035558257 -0.0035558257 -0.0035558257 0.0 0.0 0.0035558257
-0.0035558257 -0.017779129 0.0 0.0071116514 0.0035558257 -0.042669907 -0.0071116514 0.0
-0.0035558257 0.06756069 0.0 0.028446605 0.0 -0.028446605 0.0 0.0
0.0 -0.0035558257 -0.0035558257 0.0 0.0 0.0 0.0 0.0
0.0 0.0 0.0 0.0 0.0035558257 0.0 0.0 0.0
-0.0035558257 0.0 0.0 -0.0035558257 0.0 0.0 0.0 0.0
0.0 0.0 0.0 0.0 0.0 0.0 0.0 -0.0035558257
0.0 -0.0035558257 0.0 0.0 -0.0035558257 0.0071116514 -0.0035558257 -0.0035558257
0.0 0.0 -0.0035558257 0.0 0.0 0.0035558257 -0.0035558257 0.0
0.0 0.0 0.0 0.0 0.0 -0.0035558257 0.0 -0.0035558257
00000000: 01ff ffff 0000 00fa 00ff 0001 01f8 0000
00000010: 0105 0001 00fb feff fffe 0000 00fb 00fe
00000020: 0001 01f9 fe00 0004 0001 00fa fdff ffff
00000030: 0000 00fc 00ff 0001 01fb ff00 0004 0000
00000040: 00fb 1001 00ff 0000 00fd 0200 0003 03fa
00000050: 0100 000f 0005 00fe 0e00 00ff ff00 00fe
00000060: 01fd 0002 03f8 fd00 ff0e 0005 00fb 0b00
00000070: 00fe ff00 00ff 01fd 0002 01fa fb00 ff07
00000080: 0005 00fe 0e01 0000 ff00 0002 0000 0000
00000090: 04fb 0200 0011 0007 00fa 0e00 0000 fe00
000000a0: 0001 fffd 0001 04f6 ff00 0017 0009 00f5
000000b0: 0c00 01ff ff00 0001 fffb 0002 01f4 fe00
000000c0: ff13 0008 00f8 0000 00ff ff00 0000 0000
000000d0: 0000 0000 0100 0000 ff00 00ff 0000 0000
000000e0: 0000 0000 0000 00ff 00ff 0000 ff02 ffff
000000f0: 0000 ff00 0001 ff00 0000 0000 00ff 00ff

Xq.1_attr i1 [3, 3] scale=0.007597136 zero_point=0
-0.007597136 0.66095084 -0.45582816 -0.62296516 -0.34946826 0.5925766 0.63056225 -0.31148258
-0.13674845
00000000: ff57 c4ae d24e 53d7 ee

fuse_attr_4 i1 [32, 1, 5, 7] scale=0.006006698 zero_point=0
0.0 0.0 0.0 0.0 0.0 0.0 0.0 0.0
0.0 0.0 0.0 0.0 0.0 0.0 0.0 0.0
0.0 0.0 0.0 0.0 0.0 0.0 0.0 0.0
0.0 0.0 0.0 0.0 0.0 0.0 0.0 0.0
0.0 0.0 0.0 0.17419425 0.15617415 -0.042046886 0.060066983 -0.10812057
0.19221434 -0.054060284 0.09610717 0.13815406 -0.030033492 0.072080374 -0.06607368 0.16818754
-0.060066983 0.042046886 0.12614065 -0.042046886 0.07808708 -0.054060284 0.13214736 -0.07808708
0.036040187 0.15016745 -0.042046886 0.090100475 -0.036040187 0.11412726 -0.06607368 0.072080374
0.22224782 -0.030033492 0.11412726 -0.036040187 0.12614065 -0.06607368 -0.024026792 0.012013396
-0.090100475 -0.024026792 -0.006006698 -0.018020093 -0.120133966 -0.036040187 0.030033492 -0.060066983
-0.006006698 0.012013396 0.0 -0.120133966 -0.048053585 0.042046886 -0.072080374 0.018020093
0.042046886 0.012013396 -0.120133966 -0.018020093 0.090100475 -0.07808708 0.036040187 0.048053585
0.024026792 -0.06607368 0.042046886 0.10812057 -0.072080374 0.024026792 0.024026792 0.048053585
-0.048053585 0.0 0.0 0.0 0.0 0.0 0.0 0.0
0.0 0.0 0.0 0.0 0.0 0.0 0.0 0.0
0.0 0.0 0.0 0.0 0.0 0.0 0.0 0.0
0.0 0.0 0.0 0.0 0.0 0.0 0.0 0.0
0.0 0.0 0.0 0.0 -0.09610717 -0.12614065 0.10812057 -0.072080374
-0.042046886 -0.102113865 0.19221434 -0.07808708 -0.11412726 0.054060284 -0.072080374 -0.10812057
-0.11412726 0.12614065 -0.06607368 -0.12614065 0.036040187 -0.102113865 -0.15016745 -0.10812057
0.11412726 -0.054060284 -0.10812057 0.0 -0.07808708 -0.13815406 -0.08409377 0.11412726
-0.048053585 -0.10812057 0.012013396 -0.06607368 -0.11412726 -0.060066983 0.18620764 0.07808708
0.054060284 -0.16218086 0.024026792 -0.21624114 0.14416075 -0.2522813 0.012013396 -0.030033492
-0.13214736 -0.018020093 -0.2703014 0.07808708 -0.19221434 0.042046886 -0.12614065 -0.16218086
-0.07808708 -0.2823148 -0.018020093 0.0 -0.11412726 -0.18620764 -0.012013396 -0.13214736
-0.16218086 -0.060066983 0.060066983 -0.13214736 -0.21023443 -0.012013396 -0.090100475 -0.072080374
-0.16218086 0.13214736 0.0 0.0 0.0 0.0 0.0 0.0
0.0 0.0 0.0 0.0 0.0 0.0 0.0 0.0
0.0 0.0 0.0 0.0 0.0 0.0 0.0 0.0
0.0 0.0 0.0 0.0 0.0 0.0 0.0 0.0
0.0 0.0 0.0 0.0 0.0 0.0 0.0 0.0
0.0 0.0 0.0 0.0 0.0 0.0 0.0 0.0
00000000: 0000 0000 0000 0000 0000 0000 0000 0000
00000010: 0000 0000 0000 0000 0000 0000 0000 0000
00000020: 0000 001d 1af9 0aee 20f7 1017 fb0c f51c
00000030: f607 15f9 0df7 16f3 0619 f90f fa13 f50c
00000040: 25fb 13fa 15f5 fc02 f1fc fffd ecfa 05f6
00000050: ff02 00ec f807 f403 0702 ecfd 0ff3 0608
00000060: 04f5 0712 f404 0408 f800 0000 0000 0000
00000070: 0000 0000 0000 0000 0000 0000 0000 0000
00000080: 0000 0000 0000 0000 0000 0000 f0eb 12f4
00000090: f9ef 20f3 ed09 f4ee ed15 f5eb 06ef e7ee
000000a0: 13f7 ee00 f3e9 f213 f8ee 02f5 edf6 1f0d
000000b0: 09e5 04dc 18d6 02fb eafd d30d e007 ebe5
000000c0: f3d1 fd00 ede1 feea e5f6 0aea ddfe f1f4
000000d0: e516 0000 0000 0000 0000 0000 0000 0000
000000e0: 0000 0000 0000 0000 0000 0000 0000 0000
000000f0: 0000 0000 0000 0000 0000 0000 0000 0000

fuse_attr_6 i1 [15, 3, 3, 13] scale=0.0027043298 zero_point=0
-0.12439917 0.0 0.027043298 0.056790926 0.010817319 -0.0027043298 0.0 0.0
0.0 0.0 0.032451957 -0.09194721 0.040564947 -0.15955546 0.0 -0.010817319
0.010817319 -0.013521649 -0.013521649 0.0 0.0 0.0 0.0 -0.018930309
-0.051382266 -0.010817319 -0.13521649 0.0 -0.027043298 -0.037860617 -0.024338968 -0.016225979
0.0 0.0 0.0 0.0 -0.040564947 0.029747628 -0.054086596 -0.13792083
0.0 0.018930309 0.040564947 0.008112989 0.0027043298 0.0 0.0 0.0
0.0 0.027043298 -0.10546886 0.024338968 -0.17037278 0.0 -0.016225979 -0.008112989
-0.013521649 -0.018930309 0.0 0.0 0.0 0.0 -0.021634638 -0.054086596
-0.029747628 -0.14062515 0.0 -0.035156287 -0.059495255 -0.024338968 -0.027043298 0.0
0.0 0.0 0.0 -0.040564947 0.029747628 -0.070312575 -0.11899051 0.0
0.013521649 0.029747628 0.010817319 0.0 0.0 0.0 0.0 0.0
0.021634638 -0.08383422 0.016225979 -0.13792083 0.0 -0.018930309 -0.0054086596 -0.010817319
-0.010817319 0.0 0.0 0.0 0.0 -0.024338968 -0.045973606 -0.024338968
-0.10276453 0.0 -0.032451957 -0.048677936 -0.018930309 -0.016225979 0.0 0.0
0.0 0.0 -0.043269277 0.035156287 -0.062199585 0.0 0.0 0.0
0.0 0.0 0.0 0.0 0.0 0.0 0.0 0.0
0.0 0.0 0.0 0.0 0.0 0.0 0.0 0.0
0.0 0.0 0.0 0.0 0.0 0.0 0.0 0.0
0.0 0.0 0.0 0.0 0.0 0.0 0.0 0.0
0.0 0.0 0.0 0.0 0.0 0.0 0.0 0.0
0.0 0.0 0.0 0.0 0.0 0.0 0.0 0.0
0.0 0.0 0.0 0.0 0.0 0.0 0.0 0.0
0.0 0.0 0.0 0.0 0.0 0.0 0.0 0.0
0.0 0.0 0.0 0.0 0.0 0.0 0.0 0.0
0.0 0.0 0.0 0.0 0.0 0.0 0.0 0.0
0.0 0.0 0.0 0.0 0.0 0.0 0.0 0.0
0.0 0.0 0.0 0.0 0.0 0.0 0.0 0.0
0.0 0.0 0.0 0.0 0.0 0.0 0.0 0.0
0.0 0.0 0.0 0.0 0.0 0.0 0.0 0.0
0.0 0.0 -0.024338968 0.0 -0.010817319 -0.008112989 -0.0054086596 -0.0054086596
0.0 0.0 0.0 0.0 -0.010817319 -0.010817319 -0.008112989 -0.024338968
0.0 -0.013521649 -0.008112989 -0.008112989 -0.008112989 0.0 0.0 0.0
00000000: d200 0a15 04ff 0000 0000 0cde 0fc5 00fc
00000010: 04fb fb00 0000 00f9 edfc ce00 f6f2 f7fa
00000020: 0000 0000 f10b eccd 0007 0f03 0100 0000
00000030: 000a d909 c100 fafd fbf9 0000 0000 f8ec
00000040: f5cc 00f3 eaf7 f600 0000 00f1 0be6 d400
00000050: 050b 0400 0000 0000 08e1 06cd 00f9 fefc
00000060: fc00 0000 00f7 eff7 da00 f4ee f9fa 0000
00000070: 0000 f00d e900 0000 0000 0000 0000 0000
00000080: 0000 0000 0000 0000 0000 0000 0000 0000
00000090: 0000 0000 0000 0000 0000 0000 0000 0000
000000a0: 0000 0000 0000 0000 0000 0000 0000 0000
000000b0: 0000 0000 0000 0000 0000 0000 0000 0000
000000c0: 0000 0000 0000 0000 0000 0000 0000 0000
000000d0: 0000 0000 0000 0000 0000 0000 0000 0000
000000e0: 0000 0000 0000 0000 0000 f700 fcfd fefe
000000f0: 0000 0000 fcfc fdf7 00fb fdfd fd00 0000

fuse_attr_7 i1 [15, 3, 3, 15] scale=0.0044366154 zero_point=0
0.11978862 0.0 0.017746462 0.013309846 0.2040843 0.022183077 0.0 0.07985908
-0.0044366154 0.026619691 0.11978862 0.008873231 0.0 0.03992954 0.031056307 0.12422523
0.0 0.031056307 0.0044366154 0.20852092 0.008873231 0.0 0.066549234 -0.0044366154
-0.017746462 0.115352 0.0044366154 0.0 0.057676 0.031056307 0.11978862 0.0
0.035492923 0.013309846 0.19077446 0.0044366154 0.0 0.057676 -0.0044366154 -0.026619691
0.10204215 0.008873231 0.0 0.07542246 0.031056307 0.12866184 0.0 0.013309846
-0.013309846 0.21739416 0.0044366154 0.0 0.07985908 0.0044366154 -0.022183077 0.106478766
0.008873231 0.0 0.044366155 0.013309846 0.13309847 0.0 0.022183077 -0.026619691
0.21295753 -0.013309846 0.0 0.062112615 0.0 -0.062112615 0.110915385 -0.0044366154
0.0 0.057676 0.013309846 0.13753508 0.0044366154 0.022183077 -0.026619691 0.19521108
-0.017746462 0.0 0.057676 0.0 -0.066549234 0.10204215 0.0 0.0
0.062112615 0.013309846 0.13309847 0.0044366154 0.013309846 -0.017746462 0.230704 -0.013309846
0.0 0.08873231 -0.0044366154 -0.057676 0.13309847 0.008873231 0.0 0.031056307
0.0044366154 0.14197169 0.0044366154 0.022183077 -0.031056307 0.22626738 -0.031056307 0.0
0.07985908 -0.0044366154 -0.09760554 0.13753508 -0.008873231 0.0 0.044366155 0.008873231
0.14197169 0.0044366154 0.026619691 -0.035492923 0.21295753 -0.031056307 0.0 0.062112615
-0.0044366154 -0.09760554 0.12422523 0.0044366154 0.0 0.04880277 0.008873231 0.0
0.0 0.0 0.0 -0.0044366154 0.0 0.0 -0.0044366154 0.0
0.0 0.0 0.0 0.0 -0.0044366154 -0.0044366154 0.0 0.0
0.0 0.0 -0.0044366154 0.0 0.0 0.0 0.0 0.0
0.0 -0.0044366154 0.0 -0.0044366154 -0.0044366154 -0.0044366154 0.0 0.0
0.0 -0.0044366154 0.0 0.0 0.0 0.0 0.0 0.0
0.0 0.0 0.0 -0.0044366154 0.0 0.0 0.0 -0.0044366154
-0.0044366154 0.0 0.0 -0.0044366154 0.0 0.0 -0.0044366154 0.0044366154
0.0 -0.0044366154 -0.0044366154 0.0 0.0 0.0 -0.0044366154 -0.0044366154
0.0 0.0 -0.0044366154 0.0 0.0 -0.0044366154 0.0 0.0
-0.0044366154 -0.0044366154 0.0 0.0 0.0 -0.0044366154 -0.0044366154 -0.0044366154
0.0 -0.0044366154 0.0 0.0 -0.0044366154 0.0 0.0 0.0
-0.0044366154 -0.0044366154 0.0 0.0 0.0 0.0 -0.0044366154 0.0
0.0 0.0 0.0 0.0 0.0 0.0 0.0044366154 0.0
-0.0044366154 0.0 0.0 0.0 0.0 -0.0044366154 0.0 0.0
0.0 0.0 0.0 0.0 0.0 0.0044366154 -0.0044366154 -0.0044366154
00000000: 1b00 0403 2e05 0012 ff06 1b02 0009 071c
00000010: 0007 012f 0200 0fff fc1a 0100 0d07 1b00
00000020: 0803 2b01 000d fffa 1702 0011 071d 0003
00000030: fd31 0100 1201 fb18 0200 0a03 1e00 05fa
00000040: 30fd 000e 00f2 19ff 000d 031f 0105 fa2c
00000050: fc00 0d00 f117 0000 0e03 1e01 03fc 34fd
00000060: 0014 fff3 1e02 0007 0120 0105 f933 f900
00000070: 12ff ea1f fe00 0a02 2001 06f8 30f9 000e
00000080: ffea 1c01 000b 0200 0000 00ff 0000 ff00
00000090: 0000 0000 ffff 0000 0000 ff00 0000 0000
000000a0: 00ff 00ff ffff 0000 00ff 0000 0000 0000
000000b0: 0000 00ff 0000 00ff ff00 00ff 0000 ff01
000000c0: 00ff ff00 0000 ffff 0000 ff00 00ff 0000
000000d0: ffff 0000 00ff ffff 00ff 0000 ff00 0000
000000e0: ffff 0000 0000 ff00 0000 0000 0000 0100
000000f0: ff00 0000 00ff 0000 0000 0000 0001 ffff

fuse_attr_14 i1 [3, 1, 1, 62] scale=0.015838725 zero_point=0
0.0 0.14254853 0.015838725 -0.09503235 -0.15838726 0.11087108 -0.047516175 0.0
0.15838726 0.09503235 0.14254853 0.0 0.015838725 0.015838725 -0.17422599 0.20590343
0.0 -0.07919363 -0.1900647 0.14254853 -0.15838726 0.0 0.015838725 0.0
0.015838725 0.015838725 0.0 0.0 0.0 0.0 0.0 0.0
-0.22174215 0.09503235 0.11087108 -0.14254853 -0.28509706 0.0 0.015838725 0.015838725
0.0 0.09503235 -0.11087108 -0.015838725 0.015838725 -0.0633549 0.14254853 0.0
0.0 -0.1267098 -0.15838726 0.09503235 0.0 0.015838725 0.0 0.0
0.0 0.047516175 -0.07919363 0.1900647 0.047516175 0.0 0.0 0.28509706
0.015838725 -0.0633549 -0.03167745 -0.09503235 -0.1267098 0.0 0.30093578 -0.11087108
0.30093578 0.0 0.015838725 0.015838725 0.0 0.17422599 0.0 -0.0633549
0.09503235 0.23758088 0.03167745 0.0 0.015838725 0.015838725 0.015838725 0.015838725
0.0 0.0 0.0 0.015838725 0.0 0.28509706 0.11087108 0.28509706
0.047516175 0.11087108 0.1900647 0.0 0.015838725 0.015838725 0.0 0.23758088
-0.03167745 0.0 0.0 -0.03167745 -0.09503235 0.0 0.0 0.15838726
0.047516175 0.28509706 0.0 0.28509706 0.0 0.0 0.015838725 0.22174215
0.17422599 0.11087108 0.03167745 0.0 0.0 -0.07919363 0.0 0.26925832
0.23758088 0.11087108 0.30093578 0.0 -0.1267098 0.1900647 -0.07919363 -0.015838725
0.0 0.015838725 0.26925832 -0.0633549 0.0 0.1900647 0.07919363 -0.1267098
0.2534196 0.0 0.015838725 0.0 0.0 -0.015838725 0.0 0.0
0.0 0.0 0.0 -0.14254853 0.07919363 -0.0633549 -0.047516175 -0.015838725
0.28509706 0.0 0.0 0.0 0.0 -0.03167745 0.1900647 0.015838725
0.0 0.26925832 0.22174215 0.0 0.0 0.015838725 0.22174215 -0.09503235
0.015838725 -0.015838725 0.0 0.0 -0.015838725 -0.03167745 -0.03167745 -0.0633549
0.0 0.0
00000000: 0009 01fa f607 fd00 0a06 0900 0101 f50d
00000010: 00fb f409 f600 0100 0101 0000 0000 0000
00000020: f206 07f7 ee00 0101 0006 f9ff 01fc 0900
00000030: 00f8 f606 0001 0000 0003 fb0c 0300 0012
00000040: 01fc fefa f800 13f9 1300 0101 000b 00fc
00000050: 060f 0200 0101 0101 0000 0001 0012 0712
00000060: 0307 0c00 0101 000f fe00 00fe fa00 000a
00000070: 0312 0012 0000 010e 0b07 0200 00fb 0011
00000080: 0f07 1300 f80c fbff 0001 11fc 000c 05f8
00000090: 1000 0100 00ff 0000 0000 00f7 05fc fdff
000000a0: 1200 0000 00fe 0c01 0011 0e00 0001 0efa
000000b0: 01ff 0000 fffe fefc 0000

fuse_attr_10 i1 [35, 3, 3, 19] scale=0.0058934954 zero_point=0
0.0 0.0 0.0 0.0 0.0 0.0 0.0 0.0
0.0 0.0 0.0 0.0 0.0 0.0 0.0 0.0
0.0 0.0 0.0 0.0 0.0 0.0 0.0 0.0
0.0 0.0 0.0 0.0 0.0 0.0 0.0 0.0
0.0 0.0 0.0 0.0 0.0 0.0 0.0 0.0
0.0 0.0 0.0 0.0 0.0 0.0 0.0 0.0
0.0 0.0 0.0 0.0 0.0 0.0 0.0 0.0
0.0 0.0 0.0 0.0 0.0 0.0 0.0 0.0
0.0 0.0 0.0 0.0 0.0 0.0 0.0 0.0
0.0 0.0 0.0 0.0 0.0 0.0 0.0 0.0
0.0 0.0 0.0 0.0 0.0 0.0 0.0 0.0
0.0 0.0 0.0 0.0 0.0 0.0 0.0 0.0
0.0 0.0 0.0 0.0 0.0 0.0 0.0 0.0
0.0 0.0 0.0 0.0 0.0 0.0 0.0 0.0
0.0 0.0 0.0 0.0 0.0 0.0 0.0 0.0
0.0 0.0 0.0 0.0 0.0 0.0 0.0 0.0
0.0 0.0 0.0 0.0 0.0 0.0 0.0 0.0
0.0 0.0 0.0 0.0 0.0 0.0 0.0 0.0
0.0 0.0 0.0 0.0 0.0 0.0 0.0 0.0
0.0 0.0 0.0 0.0 0.0 0.0 0.0 0.0
0.0 0.0 0.0 0.0 0.0 0.0 0.0 0.0
0.0 0.0 0.0 0.0058934954 0.0 0.0 0.0 0.0
0.0 0.0 0.0 0.0 0.0 0.0 0.0 -0.047147963
0.011786991 -0.0058934954 0.0 0.0 0.0 0.0 0.011786991 0.0
0.0 0.0 0.0 0.0 0.0058934954 0.0058934954 0.0 0.0
0.0 0.0 -0.047147963 0.0058934954 -0.0058934954 -0.0058934954 0.0 0.0
0.0 0.0058934954 0.0 0.0 0.0 0.0 0.0 0.0058934954
0.0058934954 -0.0058934954 0.0 0.0 0.0 -0.053041458 -0.0058934954 0.0
0.0 0.0 0.0 0.0 0.0 0.0 0.0 0.0
0.0 0.0058934954 -0.0058934954 -0.0058934954 -0.0058934954 0.0058934954 0.0 0.0
-0.047147963 0.011786991 0.0 -0.0058934954 0.0 0.0 0.0 0.0
0.0 0.0 0.0 0.0 0.011786991 -0.0058934954 -0.0058934954 0.0
00000000: 0000 0000 0000 0000 0000 0000 0000 0000
00000010: 0000 0000 0000 0000 0000 0000 0000 0000
00000020: 0000 0000 0000 0000 0000 0000 0000 0000
00000030: 0000 0000 0000 0000 0000 0000 0000 0000
00000040: 0000 0000 0000 0000 0000 0000 0000 0000
00000050: 0000 0000 0000 0000 0000 0000 0000 0000
00000060: 0000 0000 0000 0000 0000 0000 0000 0000
00000070: 0000 0000 0000 0000 0000 0000 0000 0000
00000080: 0000 0000 0000 0000 0000 0000 0000 0000
00000090: 0000 0000 0000 0000 0000 0000 0000 0000
000000a0: 0000 0000 0000 0000 0000 0001 0000 0000
000000b0: 0000 0000 0000 00f8 02ff 0000 0000 0200
000000c0: 0000 0000 0101 0000 0000 f801 ffff 0000
000000d0: 0001 0000 0000 0001 01ff 0000 00f7 ff00
000000e0: 0000 0000 0000 0000 0001 ffff ff01 0000
000000f0: f802 00ff 0000 0000 0000 0000 02ff ff00

fuse_attr_12 i1 [50, 3, 3, 33] scale=0.007017748 zero_point=0
0.0 0.0 0.007017748 0.0 0.0 0.0 0.0 0.0
0.0 0.0 0.0 0.0 0.0 0.0 0.0 0.0
0.0 0.007017748 0.0 0.0 0.0 0.0 0.0 0.0
0.0 0.0 0.0 0.0 0.0 0.0 0.0 0.0
0.0 0.0 0.0 0.0 0.0 0.0 0.0 0.0
0.0 0.0 0.0 0.0 0.0 0.0 0.0 0.0
0.0 0.0 0.0 0.0 0.0 0.0 0.0 0.0
0.0 0.0 0.0 0.0 0.0 0.0 0.0 0.0
0.0 0.0 0.0 0.0 0.0 0.0 0.0 0.0
0.0 0.0 0.0 0.0 0.0 0.0 0.0 0.0
0.0 0.0 0.0 0.0 0.0 0.0 0.0 0.0
0.0 0.0 0.0 0.007017748 0.0 0.0 0.0 0.0
0.0 0.0 0.0 0.0 0.0 0.0 0.0 0.0
0.0 0.0 0.0 0.0 0.0 0.0 0.0 0.0
0.0 0.0 0.0 0.0 0.0 0.0 0.0 0.0
0.0 0.0 0.0 0.0 0.0 0.0 0.0 0.0
0.007017748 0.0 0.0 0.0 0.0 0.0 0.0 0.0
0.0 0.0 0.0 0.0 0.0 0.0 0.0 0.0
0.0 0.0 0.0 0.007017748 0.0 0.0 0.0 0.0
0.0 0.0 0.0 0.0 0.0 0.0 0.0 0.0
0.0 0.007017748 0.0 0.0 0.0 0.0 0.0 0.0
0.0 0.0 0.0 0.0 0.0 0.0 0.0 0.0
0.0 0.0 0.0 0.0 0.0 0.0 0.0 0.0
0.0 0.0 0.0 0.0 0.0 0.0 0.0 0.0
0.0 0.0 0.0 0.0 0.0 0.0 0.0 0.0
0.0 0.0 0.0 0.0 0.0 0.0 0.0 0.0
0.0 0.0 0.0 0.0 0.0 0.0 0.0 0.0
0.0 0.0 0.0 0.0 0.0 0.0 0.0 0.0
0.0 0.0 0.0 0.0 0.0 0.0 0.0 0.0
0.0 0.0 0.0 0.0 0.0 0.0 0.0 0.0
0.0 0.0 0.0 0.0 0.0 0.0 0.0 0.0
0.0 0.0 0.0 0.0 0.0 0.0 0.0 0.0
00000000: 0000 0100 0000 0000 0000 0000 0000 0000
00000010: 0001 0000 0000 0000 0000 0000 0000 0000
00000020: 0000 0000 0000 0000 0000 0000 0000 0000
00000030: 0000 0000 0000 0000 0000 0000 0000 0000
00000040: 0000 0000 0000 0000 0000 0000 0000 0000
00000050: 0000 0000 0000 0000 0000 0001 0000 0000
00000060: 0000 0000 0000 0000 0000 0000 0000 0000
00000070: 0000 0000 0000 0000 0000 0000 0000 0000
00000080: 0100 0000 0000 0000 0000 0000 0000 0000
00000090: 0000 0001 0000 0000 0000 0000 0000 0000
000000a0: 0001 0000 0000 0000 0000 0000 0000 0000
000000b0: 0000 0000 0000 0000 0000 0000 0000 0000
000000c0: 0000 0000 0000 0000 0000 0000 0000 0000
000000d0: 0000 0000 0000 0000 0000 0000 0000 0000
000000e0: 0000 0000 0000 0000 0000 0000 0000 0000
000000f0: 0000 0000 0000 0000 0000 0000 0000 0000

fuse_attr_5 i1 [13, 3, 3, 1] scale=0.020318666 zero_point=0
0.670516 -0.792428 0.081274666 -0.020318666 0.121912 -0.182868 -0.26414266 0.50796664
-0.40637332 0.0 0.0 0.0 0.0 0.0 0.0 0.0
0.0 0.0 -0.081274666 0.020318666 -0.10159333 -0.060956 -0.040637333 -0.060956
-0.081274666 -0.060956 -0.081274666 -0.16254933 0.081274666 -0.020318666 -0.14223066 0.020318666
0.020318666 -0.14223066 0.040637333 -0.020318666 -0.040637333 0.020318666 -0.081274666 -0.040637333
-0.020318666 -0.040637333 -0.060956 -0.040637333 -0.060956 -0.081274666 -0.060956 -0.060956
-0.040637333 -0.040637333 -0.060956 -0.060956 -0.081274666 -0.081274666 0.0 0.0
0.0 0.0 0.0 0.0 0.0 0.0 0.0 0.0
0.0 0.0 0.0 0.0 0.0 0.0 0.0 0.0
0.0 0.0 0.0 0.0 0.0 0.0 0.0 0.0
0.0 0.0 0.0 0.0 0.0 0.0 0.0 0.0
0.0 0.0 -0.10159333 0.020318666 -0.14223066 -0.081274666 -0.060956 -0.10159333
-0.121912 -0.081274666 -0.121912 0.426692 -0.040637333 -0.32509866 0.121912 0.020318666
-0.14223066 -0.020318666 0.0 0.0 0.040637333 -0.243824 0.121912 -0.020318666
-0.121912 0.060956 -0.020318666 -0.081274666 0.0
00000000: 21d9 04ff 06f7 f319 ec00 0000 0000 0000
00000010: 0000 fc01 fbfd fefd fcfd fcf8 04ff f901
00000020: 01f9 02ff fe01 fcfe fffe fdfe fdfc fdfd
00000030: fefe fdfd fcfc 0000 0000 0000 0000 0000
00000040: 0000 0000 0000 0000 0000 0000 0000 0000
00000050: 0000 0000 0000 0000 0000 fb01 f9fc fdfb
00000060: fafc fa15 fef0 0601 f9ff 0000 02f4 06ff
00000070: fa03 fffc 00

fuse_attr_3 i1 [7, 1, 9, 1] scale=0.008624226 zero_point=0
-0.06036958 0.017248452 -0.13798761 -0.3967144 -0.3018479 -0.3708417 -0.18973297 0.12073916
0.07761803 -0.14661184 -0.12073916 -0.08624226 -0.025872678 -0.094866484 -0.17248452 -0.12936339
-0.27597523 -0.34496903 0.22422987 0.20698142 0.16386029 0.112114936 0.034496903 -0.017248452
0.04312113 0.13798761 0.008624226 -0.094866484 -0.25010255 -0.13798761 0.17248452 0.12936339
-0.051745355 -0.112114936 -0.24147832 -0.18110874 0.112114936 0.017248452 0.034496903 0.08624226
0.04312113 0.27597523 0.17248452 -0.34496903 -0.25872678 -0.18973297 -0.27597523 -0.17248452
-0.25872678 -0.31909636 0.112114936 -0.008624226 -0.27597523 -0.08624226 0.27597523 0.31909636
0.24147832 0.18973297 0.17248452 0.112114936 0.10349071 0.28459945 0.29322368
00000000: f902 f0d2 ddd5 ea0e 09ef f2f6 fdf5 ecf1
00000010: e0d8 1a18 130d 04fe 0510 01f5 e3f0 140f
00000020: faf3 e4eb 0d02 040a 0520 14d8 e2ea e0ec
00000030: e2db 0dff e0f6 2025 1c16 140d 0c21 22
