trained_models/step_6_QAT_and_Convert2TFLite/qat_model_acc_93_prunInfo_0.8_0.85_testAcc89_20240418190654.tflite (tflite, 80064 bytes, 13 tensors)

fuse_attr_9 i1 [19, 3, 3, 22] scale=0.010233018 zero_point=0
000000 ef 00 ff fe 00 00 00 f9 02 00 22 03 ff fd 00 00
       -0.1739613 0.0 -0.010233018 -0.020466035 0.0 0.0 0.0 -0.071631126 0.020466035 0.0 0.3479226 0.030699052 -0.010233018 -0.030699052 0.0 0.0
000010 01 fa fa fe 00 fd eb 00 ff fd 00 00 00 fa 01 ff
       0.010233018 -0.061398104 -0.061398104 -0.020466035 0.0 -0.030699052 -0.21489337 0.0 -0.010233018 -0.030699052 0.0 0.0 0.0 -0.061398104 0.010233018 -0.010233018
000020 34 02 ff ff fe 00 00 f5 f9 fa 00 fd e7 ff ff fe
       0.5321169 0.020466035 -0.010233018 -0.010233018 -0.020466035 0.0 0.0 -0.11256319 -0.071631126 -0.061398104 0.0 -0.030699052 -0.25582543 -0.010233018 -0.010233018 -0.020466035
000030 00 00 00 fb 01 00 25 03 ff 00 ff 00 00 f4 fa f9
       0.0 0.0 0.0 -0.05116509 0.010233018 0.0 0.37862164 0.030699052 -0.010233018 0.0 -0.010233018 0.0 0.0 -0.12279621 -0.061398104 -0.071631126
000040 00 fd d8 02 00 01 01 00 00 01 03 03 ee 04 03 ff
       0.0 -0.030699052 -0.4093207 0.020466035 0.0 0.010233018 0.010233018 0.0 0.0 0.010233018 0.030699052 0.030699052 -0.18419431 0.04093207 0.030699052 -0.010233018
000050 05 00 00 05 ff 0f 00 03 e3 02 00 01 01 00 00 03
       0.05116509 0.0 0.0 0.05116509 -0.010233018 0.15349527 0.0 0.030699052 -0.29675752 0.020466035 0.0 0.010233018 0.010233018 0.0 0.0 0.030699052
000060 02 01 dd 04 02 ff 02 00 00 00 01 15 00 04 f7 01
       0.020466035 0.010233018 -0.3581556 0.04093207 0.020466035 -0.010233018 0.020466035 0.0 0.0 0.0 0.010233018 0.21489337 0.0 0.04093207 -0.092097156 0.010233018
000070 00 00 00 00 00 04 02 01 d2 05 01 ff 01 00 ff fc
       0.0 0.0 0.0 0.0 0.0 0.04093207 0.020466035 0.010233018 -0.4707188 0.05116509 0.010233018 -0.010233018 0.010233018 0.0 -0.010233018 -0.04093207
000080 03 19 00 05 de 03 00 04 01 00 00 07 02 07 00 03
       0.030699052 0.25582543 0.0 0.05116509 -0.3479226 0.030699052 0.0 0.04093207 0.010233018 0.0 0.0 0.071631126 0.020466035 0.071631126 0.0 0.030699052
000090 04 01 07 00 01 08 01 0d 00 01 ff 02 00 03 00 00
       0.04093207 0.010233018 0.071631126 0.0 0.010233018 0.08186414 0.010233018 0.13302922 0.0 0.010233018 -0.010233018 0.020466035 0.0 0.030699052 0.0 0.0
0000a0 00 07 01 06 02 04 03 fe 05 00 00 04 02 0c 00 00
       0.0 0.071631126 0.010233018 0.061398104 0.020466035 0.04093207 0.030699052 -0.020466035 0.05116509 0.0 0.0 0.04093207 0.020466035 0.12279621 0.0 0.0
0000b0 1e 01 00 02 00 00 00 06 00 06 00 05 01 fb 03 00
       0.30699053 0.010233018 0.0 0.020466035 0.0 0.0 0.0 0.061398104 0.0 0.061398104 0.0 0.05116509 0.010233018 -0.05116509 0.030699052 0.0
0000c0 00 fe 03 0a 00 00 00 ff 00 00 ff 00 00 00 ff 00
       0.0 -0.020466035 0.030699052 0.10233018 0.0 0.0 0.0 -0.010233018 0.0 0.0 -0.010233018 0.0 0.0 0.0 -0.010233018 0.0
0000d0 00 00 01 00 00 00 00 ff ff ff 00 ff 00 ff 00 01
       0.0 0.0 0.010233018 0.0 0.0 0.0 0.0 -0.010233018 -0.010233018 -0.010233018 0.0 -0.010233018 0.0 -0.010233018 0.0 0.010233018
0000e0 00 00 00 00 ff 01 00 ff 01 00 00 00 00 01 ff fe
       0.0 0.0 0.0 0.0 -0.010233018 0.010233018 0.0 -0.010233018 0.010233018 0.0 0.0 0.0 0.0 0.010233018 -0.010233018 -0.020466035
0000f0 00 00 00 00 00 01 00 00 00 01 ff 00 00 ff 00 ff
       0.0 0.0 0.0 0.0 0.0 0.010233018 0.0 0.0 0.0 0.010233018 -0.010233018 0.0 0.0 -0.010233018 0.0 -0.010233018

fuse_attr_10 i1 [35, 3, 3, 19] scale=0.0062312596 zero_point=0
000000 fb 00 00 00 00 00 fe ff 00 00 ff 00 07 ff 00 ff
       -0.031156298 0.0 0.0 0.0 0.0 0.0 -0.012462519 -0.0062312596 0.0 0.0 -0.0062312596 0.0 0.043618817 -0.0062312596 0.0 -0.0062312596
000010 00 00 00 fd 00 00 00 00 00 ff ff 00 00 ff 00 07
       0.0 0.0 0.0 -0.018693779 0.0 0.0 0.0 0.0 0.0 -0.0062312596 -0.0062312596 0.0 0.0 -0.0062312596 0.0 0.043618817
000020 ff 00 ff 00 00 00 03 00 00 00 00 00 00 ff 00 00
       -0.0062312596 0.0 -0.0062312596 0.0 0.0 0.0 0.018693779 0.0 0.0 0.0 0.0 0.0 0.0 -0.0062312596 0.0 0.0
000030 ff 00 09 ff 00 ff 00 00 00 f9 00 00 00 00 00 01
       -0.0062312596 0.0 0.056081336 -0.0062312596 0.0 -0.0062312596 0.0 0.0 0.0 -0.043618817 0.0 0.0 0.0 0.0 0.0 0.0062312596
000040 01 00 00 03 00 fa 02 01 02 01 00 00 f8 00 00 00
       0.0062312596 0.0 0.0 0.018693779 0.0 -0.037387557 0.012462519 0.0062312596 0.012462519 0.0062312596 0.0 0.0 -0.049850076 0.0 0.0 0.0
000050 00 00 02 01 00 00 04 00 f9 03 02 04 01 00 00 f8
       0.0 0.0 0.012462519 0.0062312596 0.0 0.0 0.024925038 0.0 -0.043618817 0.018693779 0.012462519 0.024925038 0.0062312596 0.0 0.0 -0.049850076
000060 00 00 00 00 00 02 01 00 00 05 00 f9 06 03 06 01
       0.0 0.0 0.0 0.0 0.0 0.012462519 0.0062312596 0.0 0.0 0.031156298 0.0 -0.043618817 0.037387557 0.018693779 0.037387557 0.0062312596
000070 00 00 fe 00 00 00 00 00 fd 01 00 00 00 00 fd 00
       0.0 0.0 -0.012462519 0.0 0.0 0.0 0.0 0.0 -0.018693779 0.0062312596 0.0 0.0 0.0 0.0 -0.018693779 0.0
000080 ff 00 00 00 00 fe 00 00 00 00 00 fe 01 00 00 ff
       -0.0062312596 0.0 0.0 0.0 0.0 -0.012462519 0.0 0.0 0.0 0.0 0.0 -0.012462519 0.0062312596 0.0 0.0 -0.0062312596
000090 00 fd 00 ff 01 00 00 00 01 00 00 00 00 00 fe 00
       0.0 -0.018693779 0.0 -0.0062312596 0.0062312596 0.0 0.0 0.0 0.0062312596 0.0 0.0 0.0 0.0 0.0 -0.012462519 0.0
0000a0 00 00 ff 00 fd 00 ff 01 00 00 00 f5 05 ff 02 00
       0.0 0.0 -0.0062312596 0.0 -0.018693779 0.0 -0.0062312596 0.0062312596 0.0 0.0 0.0 -0.06854385 0.031156298 -0.0062312596 0.012462519 0.0
0000b0 05 f3 0f 01 03 f9 00 f4 01 fc f4 fe ff ff 02 04
       0.031156298 -0.08100638 0.09346889 0.0062312596 0.018693779 -0.043618817 0.0 -0.074775115 0.0062312596 -0.024925038 -0.074775115 -0.012462519 -0.0062312596 -0.0062312596 0.012462519 0.024925038
0000c0 ff 02 00 04 f4 18 00 02 f7 00 f1 00 fc f3 fe ff
       -0.0062312596 0.012462519 0.0 0.024925038 -0.074775115 0.14955023 0.0 0.012462519 -0.056081336 0.0 -0.09346889 0.0 -0.024925038 -0.08100638 -0.012462519 -0.0062312596
0000d0 00 07 04 ff 02 00 04 f7 18 fc 02 fb 00 ed fe ff
       0.0 0.043618817 0.024925038 -0.0062312596 0.012462519 0.0 0.024925038 -0.056081336 0.14955023 -0.024925038 0.012462519 -0.031156298 0.0 -0.11839393 -0.012462519 -0.0062312596
0000e0 f7 fd ff 00 ef 05 ff 01 00 0d f3 06 06 0b fe 00
       -0.056081336 -0.018693779 -0.0062312596 0.0 -0.105931416 0.031156298 -0.0062312596 0.0062312596 0.0 0.08100638 -0.08100638 0.037387557 0.037387557 0.06854385 -0.012462519 0.0
0000f0 f9 00 04 fa ff ff 00 ed 04 ff 02 00 0e f1 09 03
       -0.043618817 0.0 0.024925038 -0.037387557 -0.0062312596 -0.0062312596 0.0 -0.11839393 0.024925038 -0.0062312596 0.012462519 0.0 0.087237634 -0.09346889 0.056081336 0.018693779

fuse_attr_3 i1 [7, 1, 9, 1] scale=0.0091497535 zero_point=0
000000 07 15 f8 ae c9 c1 e2 13 1f d1 ee f5 1d 13 fc fb
       0.064048275 0.19214483 -0.07319803 -0.7502798 -0.5032364 -0.5764345 -0.2744926 0.17384532 0.28364235 -0.43003842 -0.16469556 -0.100647286 0.26534286 0.17384532 -0.036599014 -0.045748767
000010 cd a1 65 6c 29 fc e7 d7 f0 1d f6 fd f3 07 5d 45
       -0.46663743 -0.8692266 0.9241251 0.98817337 0.3751399 -0.036599014 -0.22874384 -0.3751399 -0.14639606 0.26534286 -0.09149753 -0.027449261 -0.1189468 0.064048275 0.85092705 0.631333
000020 fd d8 b5 ac 31 06 13 1e 02 4b 30 c5 f3 03 e8 0f
       -0.027449261 -0.36599013 -0.6862315 -0.7685793 0.4483379 0.054898523 0.17384532 0.2744926 0.018299507 0.6862315 0.43918818 -0.53983545 -0.1189468 0.027449261 -0.21959409 0.1372463
000030 ff de 56 1c b2 fa 07 1b 15 fe ee f5 0f 57 6f
       -0.0091497535 -0.31109163 0.7868788 0.2561931 -0.71368074 -0.054898523 0.064048275 0.24704334 0.19214483 -0.018299507 -0.16469556 -0.100647286 0.1372463 0.79602855 1.0156226

fuse_attr_11 i1 [33, 3, 3, 35] scale=0.0063060303 zero_point=0
000000 00 00 00 00 00 00 00 00 00 00 00 00 00 00 00 00
       0.0 0.0 0.0 0.0 0.0 0.0 0.0 0.0 0.0 0.0 0.0 0.0 0.0 0.0 0.0 0.0
000010 00 00 00 00 00 00 00 00 00 00 00 00 00 00 00 00
       0.0 0.0 0.0 0.0 0.0 0.0 0.0 0.0 0.0 0.0 0.0 0.0 0.0 0.0 0.0 0.0
000020 00 00 00 00 00 00 00 00 00 00 00 00 00 00 00 00
       0.0 0.0 0.0 0.0 0.0 0.0 0.0 0.0 0.0 0.0 0.0 0.0 0.0 0.0 0.0 0.0
000030 00 00 00 00 00 00 00 00 00 00 00 00 00 00 00 00
       0.0 0.0 0.0 0.0 0.0 0.0 0.0 0.0 0.0 0.0 0.0 0.0 0.0 0.0 0.0 0.0
000040 00 00 00 00 00 00 00 00 00 00 00 00 00 00 00 00
       0.0 0.0 0.0 0.0 0.0 0.0 0.0 0.0 0.0 0.0 0.0 0.0 0.0 0.0 0.0 0.0
000050 00 00 00 00 00 00 00 00 00 00 00 00 00 00 00 00
       0.0 0.0 0.0 0.0 0.0 0.0 0.0 0.0 0.0 0.0 0.0 0.0 0.0 0.0 0.0 0.0
000060 00 00 00 00 00 00 00 00 00 00 00 00 00 00 00 00
       0.0 0.0 0.0 0.0 0.0 0.0 0.0 0.0 0.0 0.0 0.0 0.0 0.0 0.0 0.0 0.0
000070 00 00 00 00 00 00 00 00 00 00 00 00 00 00 00 00
       0.0 0.0 0.0 0.0 0.0 0.0 0.0 0.0 0.0 0.0 0.0 0.0 0.0 0.0 0.0 0.0
000080 00 00 00 00 00 00 00 00 00 00 00 00 00 00 00 00
       0.0 0.0 0.0 0.0 0.0 0.0 0.0 0.0 0.0 0.0 0.0 0.0 0.0 0.0 0.0 0.0
000090 00 00 00 00 00 00 00 00 00 00 00 00 00 00 00 00
       0.0 0.0 0.0 0.0 0.0 0.0 0.0 0.0 0.0 0.0 0.0 0.0 0.0 0.0 0.0 0.0
0000a0 00 00 00 00 00 00 00 00 00 00 00 00 00 00 00 00
       0.0 0.0 0.0 0.0 0.0 0.0 0.0 0.0 0.0 0.0 0.0 0.0 0.0 0.0 0.0 0.0
0000b0 00 00 00 00 00 00 00 00 00 00 00 00 00 00 00 00
       0.0 0.0 0.0 0.0 0.0 0.0 0.0 0.0 0.0 0.0 0.0 0.0 0.0 0.0 0.0 0.0
0000c0 00 00 00 00 00 00 00 00 00 00 00 00 00 00 00 00
       0.0 0.0 0.0 0.0 0.0 0.0 0.0 0.0 0.0 0.0 0.0 0.0 0.0 0.0 0.0 0.0
0000d0 00 00 00 00 00 00 00 00 00 00 00 00 00 00 00 00
       0.0 0.0 0.0 0.0 0.0 0.0 0.0 0.0 0.0 0.0 0.0 0.0 0.0 0.0 0.0 0.0
0000e0 00 00 00 00 00 00 00 00 00 00 00 00 00 00 00 00
       0.0 0.0 0.0 0.0 0.0 0.0 0.0 0.0 0.0 0.0 0.0 0.0 0.0 0.0 0.0 0.0
0000f0 00 00 00 00 00 00 00 00 00 00 00 00 00 00 00 00
       0.0 0.0 0.0 0.0 0.0 0.0 0.0 0.0 0.0 0.0 0.0 0.0 0.0 0.0 0.0 0.0

fuse_attr_12 i1 [50, 3, 3, 33] scale=0.007863456 zero_point=0
000000 00 00 02 00 00 ff ff 00 00 00 00 00 00 00 00 00
       0.0 0.0 0.015726913 0.0 0.0 -0.007863456 -0.007863456 0.0 0.0 0.0 0.0 0.0 0.0 0.0 0.0 0.0
000010 ff 02 00 00 00 00 00 00 00 00 fe ff 00 ff 00 00
       -0.007863456 0.015726913 0.0 0.0 0.0 0.0 0.0 0.0 0.0 0.0 -0.015726913 -0.007863456 0.0 -0.007863456 0.0 0.0
000020 01 00 00 01 00 00 ff 00 00 00 00 ff 00 00 00 00
       0.007863456 0.0 0.0 0.007863456 0.0 0.0 -0.007863456 0.0 0.0 0.0 0.0 -0.007863456 0.0 0.0 0.0 0.0
000030 ff 00 01 00 00 00 00 00 00 00 00 fe ff ff ff 00
       -0.007863456 0.0 0.007863456 0.0 0.0 0.0 0.0 0.0 0.0 0.0 0.0 -0.015726913 -0.007863456 -0.007863456 -0.007863456 0.0
000040 00 00 00 00 00 00 00 fe 00 00 00 00 ff 00 00 00
       0.0 0.0 0.0 0.0 0.0 0.0 0.0 -0.015726913 0.0 0.0 0.0 0.0 -0.007863456 0.0 0.0 0.0
000050 00 00 00 00 00 00 00 00 00 00 00 02 ff ff 00 ff
       0.0 0.0 0.0 0.0 0.0 0.0 0.0 0.0 0.0 0.0 0.0 0.015726913 -0.007863456 -0.007863456 0.0 -0.007863456
000060 00 00 00 00 00 00 00 00 fe ff 00 00 00 ff 00 00
       0.0 0.0 0.0 0.0 0.0 0.0 0.0 0.0 -0.015726913 -0.007863456 0.0 0.0 0.0 -0.007863456 0.0 0.0
000070 00 00 02 00 ff 01 00 01 ff 00 00 00 01 fe fe 02
       0.0 0.0 0.015726913 0.0 -0.007863456 0.007863456 0.0 0.007863456 -0.007863456 0.0 0.0 0.0 0.007863456 -0.015726913 -0.015726913 0.015726913
000080 00 00 00 02 00 00 00 00 00 fd fe 00 00 00 ff 00
       0.0 0.0 0.0 0.015726913 0.0 0.0 0.0 0.0 0.0 -0.02359037 -0.015726913 0.0 0.0 0.0 -0.007863456 0.0
000090 00 00 00 02 00 ff 01 00 01 00 00 00 00 00 fd fe
       0.0 0.0 0.0 0.015726913 0.0 -0.007863456 0.007863456 0.0 0.007863456 0.0 0.0 0.0 0.0 0.0 -0.02359037 -0.015726913
0000a0 01 00 00 00 02 00 00 00 00 00 fe ff 00 00 00 ff
       0.007863456 0.0 0.0 0.0 0.015726913 0.0 0.0 0.0 0.0 0.0 -0.015726913 -0.007863456 0.0 0.0 0.0 -0.007863456
0000b0 ff 00 00 00 01 00 ff 01 ff 00 00 00 00 00 01 fe
       -0.007863456 0.0 0.0 0.0 0.007863456 0.0 -0.007863456 0.007863456 -0.007863456 0.0 0.0 0.0 0.0 0.0 0.007863456 -0.015726913
0000c0 fe 01 ff 00 00 01 00 00 00 00 00 00 00 00 00 00
       -0.015726913 0.007863456 -0.007863456 0.0 0.0 0.007863456 0.0 0.0 0.0 0.0 0.0 0.0 0.0 0.0 0.0 0.0
0000d0 01 00 00 00 00 00 00 00 00 00 00 00 00 00 00 00
       0.007863456 0.0 0.0 0.0 0.0 0.0 0.0 0.0 0.0 0.0 0.0 0.0 0.0 0.0 0.0 0.0
0000e0 00 00 00 00 00 00 00 00 00 00 00 00 00 01 00 00
       0.0 0.0 0.0 0.0 0.0 0.0 0.0 0.0 0.0 0.0 0.0 0.0 0.0 0.007863456 0.0 0.0
0000f0 00 00 00 00 00 00 00 00 00 00 00 00 00 00 00 00
       0.0 0.0 0.0 0.0 0.0 0.0 0.0 0.0 0.0 0.0 0.0 0.0 0.0 0.0 0.0 0.0

fuse_attr_14 i1 [3, 1, 1, 62] scale=0.015838725 zero_point=0
000000 00 fc 02 ed ee 14 fb 00 0e 1d 1a f8 02 02 f1 20
       0.0 -0.0633549 0.03167745 -0.30093578 -0.28509706 0.31677452 -0.07919363 0.0 0.22174215 0.45932305 0.41180685 -0.1267098 0.03167745 0.03167745 -0.23758088 0.5068392
000010 f4 f4 e3 15 f1 01 02 01 03 01 fe ff 00 01 ff fc
       -0.1900647 -0.1900647 -0.45932305 0.33261323 -0.23758088 0.015838725 0.03167745 0.015838725 0.047516175 0.015838725 -0.03167745 -0.015838725 0.0 0.015838725 -0.015838725 -0.0633549
000020 e6 12 12 e8 eb ff 02 02 f7 12 f0 fe 01 ff 17 00
       -0.41180685 0.28509706 0.28509706 -0.3801294 -0.33261323 -0.015838725 0.03167745 0.03167745 -0.14254853 0.28509706 -0.2534196 -0.03167745 0.015838725 -0.015838725 0.36429068 0.0
000030 00 f7 ed 11 00 f5 00 00 01 13 f1 1e 07 00 01 23
       0.0 -0.14254853 -0.30093578 0.26925832 0.0 -0.17422599 0.0 0.0 0.015838725 0.30093578 -0.23758088 0.47516176 0.11087108 0.0 0.015838725 0.5543554
000040 01 04 02 f0 02 01 1b f4 22 eb 02 02 0a 1a ee 01
       0.015838725 0.0633549 0.03167745 -0.2534196 0.03167745 0.015838725 0.4276456 -0.1900647 0.53851664 -0.33261323 0.03167745 0.03167745 0.15838726 0.41180685 -0.28509706 0.015838725
000050 07 1b 0e 01 01 01 03 01 ff 01 00 02 00 0b 0e 21
       0.11087108 0.4276456 0.22174215 0.015838725 0.015838725 0.015838725 0.047516175 0.015838725 -0.015838725 0.015838725 0.0 0.03167745 0.0 0.17422599 0.22174215 0.52267796
000060 fa 06 14 00 03 02 ee 1e 05 00 01 05 f0 00 01 1e
       -0.09503235 0.09503235 0.31677452 0.0 0.047516175 0.03167745 -0.28509706 0.47516176 0.07919363 0.0 0.015838725 0.07919363 -0.2534196 0.0 0.015838725 0.47516176
000070 0a 21 00 21 00 01 04 15 13 13 05 01 00 04 00 20
       0.15838726 0.52267796 0.0 0.52267796 0.0 0.015838725 0.0633549 0.33261323 0.30093578 0.30093578 0.07919363 0.015838725 0.0 0.0633549 0.0 0.5068392
000080 19 14 25 ff f0 25 07 f5 ff 03 20 fa ed 27 0d fa
       0.39596814 0.31677452 0.58603287 -0.015838725 -0.2534196 0.58603287 0.11087108 -0.17422599 -0.015838725 0.047516175 0.5068392 -0.09503235 -0.30093578 0.6177103 0.20590343 -0.09503235
000090 1d 00 02 ff 00 fe fe 00 00 00 01 e5 09 0b f9 fd
       0.45932305 0.0 0.03167745 -0.015838725 0.0 -0.03167745 -0.03167745 0.0 0.0 0.0 0.015838725 -0.4276456 0.14254853 0.17422599 -0.11087108 -0.047516175
0000a0 12 00 00 ff f0 0b 23 01 00 24 23 00 ff 0f 14 05
       0.28509706 0.0 0.0 -0.015838725 -0.2534196 0.17422599 0.5543554 0.015838725 0.0 0.5701941 0.5543554 0.0 -0.015838725 0.23758088 0.31677452 0.07919363
0000b0 01 0b 00 ff fe 02 ff f5 00 00
       0.015838725 0.17422599 0.0 -0.015838725 -0.03167745 0.03167745 -0.015838725 -0.17422599 0.0 0.0

fuse_attr_5 i1 [13, 3, 3, 1] scale=0.01990996 zero_point=0
000000 44 b6 01 00 09 06 f4 0e fc 00 00 00 00 00 00 00
       1.3538772 -1.4733369 0.01990996 0.0 0.17918964 0.119459756 -0.23891951 0.27873942 -0.07963984 0.0 0.0 0.0 0.0 0.0 0.0 0.0
000010 00 00 f7 f9 f7 06 06 04 f6 f5 f6 df fa fd c6 1a
       0.0 0.0 -0.17918964 -0.13936971 -0.17918964 0.119459756 0.119459756 0.07963984 -0.1990996 -0.21900955 -0.1990996 -0.6570287 -0.119459756 -0.059729878 -1.1547776 0.51765895
000020 1d ec fd ff fb fb fb 00 ff fe fd ff fd fb f9 fd
       0.5773888 -0.3981992 -0.059729878 -0.01990996 -0.0995498 -0.0995498 -0.0995498 0.0 -0.01990996 -0.03981992 -0.059729878 -0.01990996 -0.059729878 -0.0995498 -0.13936971 -0.059729878
000030 f7 f6 f6 f9 f9 f9 00 00 00 00 00 00 00 00 00 00
       -0.17918964 -0.1990996 -0.1990996 -0.13936971 -0.13936971 -0.13936971 0.0 0.0 0.0 0.0 0.0 0.0 0.0 0.0 0.0 0.0
000040 00 00 00 00 00 00 00 00 00 00 00 00 00 00 00 00
       0.0 0.0 0.0 0.0 0.0 0.0 0.0 0.0 0.0 0.0 0.0 0.0 0.0 0.0 0.0 0.0
000050 00 00 00 00 00 00 00 00 00 00 fe ff fe fa fd f9
       0.0 0.0 0.0 0.0 0.0 0.0 0.0 0.0 0.0 0.0 -0.03981992 -0.01990996 -0.03981992 -0.119459756 -0.059729878 -0.13936971
000060 fc 03 fa 34 03 c7 0f 07 00 fe 03 03 e5 cf 38 fd
       -0.07963984 0.059729878 -0.119459756 1.0353179 0.059729878 -1.1348677 0.2986494 0.13936971 0.0 -0.03981992 0.059729878 0.059729878 -0.5375689 -0.975588 1.1149577 -0.059729878
000070 de 13 f2 ef 02
       -0.6769386 0.37828922 -0.27873942 -0.3384693 0.03981992

fuse_attr_7 i1 [15, 3, 3, 15] scale=0.0063711894 zero_point=0
000000 ff 01 fc f4 01 00 00 fe fe f5 03 0b 00 f7 fc fc
       -0.0063711894 0.0063711894 -0.025484757 -0.076454274 0.0063711894 0.0 0.0 -0.012742379 -0.012742379 -0.07008308 0.019113569 0.07008308 0.0 -0.057340704 -0.025484757 -0.025484757
000010 01 fe f4 fd ff 00 fb fd f6 fc 04 00 f8 fc ff 01
       0.0063711894 -0.012742379 -0.076454274 -0.019113569 -0.0063711894 0.0 -0.03185595 -0.019113569 -0.0637119 -0.025484757 0.025484757 0.0 -0.050969515 -0.025484757 -0.0063711894 0.0063711894
000020 fe f7 ff ff 00 fe fd f8 fc 04 00 fd fd 04 01 fa
       -0.012742379 -0.057340704 -0.0063711894 -0.0063711894 0.0 -0.012742379 -0.019113569 -0.050969515 -0.025484757 0.025484757 0.0 -0.019113569 -0.019113569 0.025484757 0.0063711894 -0.038227137
000030 f3 0a 01 00 01 00 ed f9 0a 00 fd fa 04 01 fb f3
       -0.08282546 0.0637119 0.0063711894 0.0 0.0063711894 0.0 -0.1210526 -0.044598326 0.0637119 0.0 -0.019113569 -0.038227137 0.025484757 0.0063711894 -0.03185595 -0.08282546
000040 04 ff 00 fe fd ee f9 ff 00 01 fa 09 01 fa f3 07
       0.025484757 -0.0063711894 0.0 -0.012742379 -0.019113569 -0.11468141 -0.044598326 -0.0063711894 0.0 0.0063711894 -0.038227137 0.057340704 0.0063711894 -0.038227137 -0.08282546 0.044598326
000050 ff 00 02 fe f2 fa ff 00 05 fb 07 01 f9 f0 12 fc
       -0.0063711894 0.0 0.012742379 -0.012742379 -0.08919665 -0.038227137 -0.0063711894 0.0 0.03185595 -0.03185595 0.044598326 0.0063711894 -0.044598326 -0.10193903 0.11468141 -0.025484757
000060 00 05 fc ec 03 0b 00 f2 fd 07 01 fb ee 0b fa 00
       0.0 0.03185595 -0.025484757 -0.1274238 0.019113569 0.07008308 0.0 -0.08919665 -0.019113569 0.044598326 0.0063711894 -0.03185595 -0.11468141 0.07008308 -0.038227137 0.0
000070 05 fc ec 03 02 00 f4 fd 0b 01 f9 ef 10 fb 00 03
       0.03185595 -0.025484757 -0.1274238 0.019113569 0.012742379 0.0 -0.076454274 -0.019113569 0.07008308 0.0063711894 -0.044598326 -0.10831022 0.10193903 -0.03185595 0.0 0.019113569
000080 fc f0 03 03 00 f6 fd 01 00 fd ff 00 fe 00 ff ff
       -0.025484757 -0.10193903 0.019113569 0.019113569 0.0 -0.0637119 -0.019113569 0.0063711894 0.0 -0.019113569 -0.0063711894 0.0 -0.012742379 0.0 -0.0063711894 -0.0063711894
000090 f4 00 01 00 fc fe 00 00 fd ff 00 fe 00 ff 00 f1
       -0.076454274 0.0 0.0063711894 0.0 -0.025484757 -0.012742379 0.0 0.0 -0.019113569 -0.0063711894 0.0 -0.012742379 0.0 -0.0063711894 0.0 -0.09556784
0000a0 04 ff 00 fc fe 00 00 00 01 ff fd 00 00 00 f9 0b
       0.025484757 -0.0063711894 0.0 -0.025484757 -0.012742379 0.0 0.0 0.0 0.0063711894 -0.0063711894 -0.019113569 0.0 0.0 0.0 -0.044598326 0.07008308
0000b0 00 00 fc fe 00 00 fe 11 00 fd 00 fe 04 f0 01 ff
       0.0 0.0 -0.025484757 -0.012742379 0.0 0.0 -0.012742379 0.10831022 0.0 -0.019113569 0.0 -0.012742379 0.025484757 -0.10193903 0.0063711894 -0.0063711894
0000c0 00 fa fe 01 00 fd 0a 00 fd 00 ff 05 eb 02 ff 00
       0.0 -0.038227137 -0.012742379 0.0063711894 0.0 -0.019113569 0.0637119 0.0 -0.019113569 0.0 -0.0063711894 0.03185595 -0.13379498 0.012742379 -0.0063711894 0.0
0000d0 fd ff 00 00 fd 06 00 fc 00 ff 06 f1 00 fe 00 01
       -0.019113569 -0.0063711894 0.0 0.0 -0.019113569 0.038227137 0.0 -0.025484757 0.0 -0.0063711894 0.038227137 -0.09556784 0.0 -0.012742379 0.0 0.0063711894
0000e0 fe ff 00 00 17 02 fc 00 ff 00 f5 04 ff 00 f9 ff
       -0.012742379 -0.0063711894 0.0 0.0 0.14653735 0.012742379 -0.025484757 0.0 -0.0063711894 0.0 -0.07008308 0.025484757 -0.0063711894 0.0 -0.044598326 -0.0063711894
0000f0 ff 00 00 0d 02 fb 00 00 01 f5 0c 00 00 f8 ff ff
       -0.0063711894 0.0 0.0 0.08282546 0.012742379 -0.03185595 0.0 0.0 0.0063711894 -0.07008308 0.076454274 0.0 0.0 -0.050969515 -0.0063711894 -0.0063711894

fuse_attr_13 i1 [62, 3, 3, 50] scale=0.022632942 zero_point=0
000000 00 00 00 00 00 00 00 00 00 00 00 00 00 00 00 00
       0.0 0.0 0.0 0.0 0.0 0.0 0.0 0.0 0.0 0.0 0.0 0.0 0.0 0.0 0.0 0.0
000010 00 00 00 00 00 00 00 00 00 00 00 00 00 00 00 00
       0.0 0.0 0.0 0.0 0.0 0.0 0.0 0.0 0.0 0.0 0.0 0.0 0.0 0.0 0.0 0.0
000020 00 00 00 00 00 00 00 00 00 00 00 00 00 00 00 00
       0.0 0.0 0.0 0.0 0.0 0.0 0.0 0.0 0.0 0.0 0.0 0.0 0.0 0.0 0.0 0.0
000030 00 00 00 00 00 00 00 00 00 00 00 00 00 00 00 00
       0.0 0.0 0.0 0.0 0.0 0.0 0.0 0.0 0.0 0.0 0.0 0.0 0.0 0.0 0.0 0.0
000040 00 00 00 00 00 00 00 00 00 00 00 00 00 00 00 00
       0.0 0.0 0.0 0.0 0.0 0.0 0.0 0.0 0.0 0.0 0.0 0.0 0.0 0.0 0.0 0.0
000050 00 00 00 00 00 00 00 00 00 00 00 00 00 00 00 00
       0.0 0.0 0.0 0.0 0.0 0.0 0.0 0.0 0.0 0.0 0.0 0.0 0.0 0.0 0.0 0.0
000060 00 00 00 00 00 00 00 00 00 00 00 00 00 00 00 00
       0.0 0.0 0.0 0.0 0.0 0.0 0.0 0.0 0.0 0.0 0.0 0.0 0.0 0.0 0.0 0.0
000070 00 00 00 00 00 00 00 00 00 00 00 00 00 00 00 00
       0.0 0.0 0.0 0.0 0.0 0.0 0.0 0.0 0.0 0.0 0.0 0.0 0.0 0.0 0.0 0.0
000080 00 00 00 00 00 00 00 00 00 00 00 00 00 00 00 00
       0.0 0.0 0.0 0.0 0.0 0.0 0.0 0.0 0.0 0.0 0.0 0.0 0.0 0.0 0.0 0.0
000090 00 00 00 00 00 00 00 00 00 00 00 00 00 00 00 00
       0.0 0.0 0.0 0.0 0.0 0.0 0.0 0.0 0.0 0.0 0.0 0.0 0.0 0.0 0.0 0.0
0000a0 00 00 00 00 00 00 00 00 00 00 00 00 00 00 00 00
       0.0 0.0 0.0 0.0 0.0 0.0 0.0 0.0 0.0 0.0 0.0 0.0 0.0 0.0 0.0 0.0
0000b0 00 00 00 00 00 00 00 00 00 00 00 00 00 00 00 00
       0.0 0.0 0.0 0.0 0.0 0.0 0.0 0.0 0.0 0.0 0.0 0.0 0.0 0.0 0.0 0.0
0000c0 00 00 00 00 00 00 00 00 00 00 00 00 00 00 00 00
       0.0 0.0 0.0 0.0 0.0 0.0 0.0 0.0 0.0 0.0 0.0 0.0 0.0 0.0 0.0 0.0
0000d0 00 00 00 00 00 00 00 00 00 00 00 00 00 00 00 00
       0.0 0.0 0.0 0.0 0.0 0.0 0.0 0.0 0.0 0.0 0.0 0.0 0.0 0.0 0.0 0.0
0000e0 00 00 00 00 00 00 00 00 00 00 00 00 00 00 00 00
       0.0 0.0 0.0 0.0 0.0 0.0 0.0 0.0 0.0 0.0 0.0 0.0 0.0 0.0 0.0 0.0
0000f0 00 00 00 00 00 00 00 00 00 00 00 00 00 00 00 00
       0.0 0.0 0.0 0.0 0.0 0.0 0.0 0.0 0.0 0.0 0.0 0.0 0.0 0.0 0.0 0.0

fuse_attr_8 i1 [22, 3, 3, 15] scale=0.008598149 zero_point=0
000000 fb ef ff fd 00 f9 f5 fd f5 eb fe 00 00 05 fc f8
       -0.042990744 -0.14616853 -0.008598149 -0.025794446 0.0 -0.06018704 -0.09457964 -0.025794446 -0.09457964 -0.18056113 -0.017196298 0.0 0.0 0.042990744 -0.034392595 -0.06878519
000010 fb fe 02 00 f6 f4 fb d8 f5 fc 00 00 00 fd f9 fa
       -0.042990744 -0.017196298 0.017196298 0.0 -0.08598149 -0.103177786 -0.042990744 -0.34392595 -0.09457964 -0.034392595 0.0 0.0 0.0 -0.025794446 -0.06018704 -0.051588893
000020 fd fa 00 f9 f2 f6 b2 fa f8 ff 00 f5 f9 01 11 ff
       -0.025794446 -0.051588893 0.0 -0.06018704 -0.12037408 -0.08598149 -0.6706556 -0.051588893 -0.06878519 -0.008598149 0.0 -0.09457964 -0.06018704 0.008598149 0.14616853 -0.008598149
000030 00 00 ff 04 02 1e 0e fc 00 00 05 f8 00 16 fe 01
       0.0 0.0 -0.008598149 0.034392595 0.017196298 0.25794446 0.12037408 -0.034392595 0.0 0.0 0.042990744 -0.06878519 0.0 0.18915927 -0.017196298 0.008598149
000040 00 fe 03 ff 1d 14 fd 00 00 02 fd 02 0c fe fe 00
       0.0 -0.017196298 0.025794446 -0.008598149 0.24934632 0.17196298 -0.025794446 0.0 0.0 0.017196298 -0.025794446 0.017196298 0.103177786 -0.017196298 -0.017196298 0.0
000050 04 04 f9 1d 0f f9 00 00 f5 fa 0a 02 fd 03 00 fd
       0.034392595 0.034392595 -0.06018704 0.24934632 0.12897223 -0.06018704 0.0 0.0 -0.09457964 -0.051588893 0.08598149 0.017196298 -0.025794446 0.025794446 0.0 -0.025794446
000060 ff 07 29 fa fe 00 00 ff f8 07 02 fd 03 00 ff ff
       -0.008598149 0.06018704 0.3525241 -0.051588893 -0.017196298 0.0 0.0 -0.008598149 -0.06878519 0.06018704 0.017196298 -0.025794446 0.025794446 0.0 -0.008598149 -0.008598149
000070 04 2f f2 fe 00 00 fc fc 07 ff ff 01 00 04 fb ff
       0.034392595 0.404113 -0.12037408 -0.017196298 0.0 0.0 -0.034392595 -0.034392595 0.06018704 -0.008598149 -0.008598149 0.008598149 0.0 0.034392595 -0.042990744 -0.008598149
000080 38 ee ff 01 00 f3 fd 00 00 ff 03 00 00 00 01 fd
       0.48149633 -0.15476668 -0.008598149 0.008598149 0.0 -0.111775935 -0.025794446 0.0 0.0 -0.008598149 0.025794446 0.0 0.0 0.0 0.008598149 -0.025794446
000090 00 00 fe 00 00 01 02 ff ff 02 00 02 01 01 fd 00
       0.0 0.0 -0.017196298 0.0 0.0 0.008598149 0.017196298 -0.008598149 -0.008598149 0.017196298 0.0 0.017196298 0.008598149 0.008598149 -0.025794446 0.0
0000a0 00 fe 00 00 00 02 ff ff ff 00 02 01 01 fe 00 ff
       0.0 -0.017196298 0.0 0.0 0.0 0.017196298 -0.008598149 -0.008598149 -0.008598149 0.0 0.017196298 0.008598149 0.008598149 -0.017196298 0.0 -0.008598149
0000b0 fe 00 00 00 00 00 fe 03 01 02 00 01 fd 00 00 ff
       -0.017196298 0.0 0.0 0.0 0.0 0.0 -0.017196298 0.025794446 0.008598149 0.017196298 0.0 0.008598149 -0.025794446 0.0 0.0 -0.008598149
0000c0 00 00 02 03 00 fe 02 01 03 02 02 fe ff 00 ff 00
       0.0 0.0 0.017196298 0.025794446 0.0 -0.017196298 0.017196298 0.008598149 0.025794446 0.017196298 0.017196298 -0.017196298 -0.008598149 0.0 -0.008598149 0.0
0000d0 00 01 03 00 ff 00 01 02 01 02 00 fe ff 00 00 00
       0.0 0.008598149 0.025794446 0.0 -0.008598149 0.0 0.008598149 0.017196298 0.008598149 0.017196298 0.0 -0.017196298 -0.008598149 0.0 0.0 0.0
0000e0 00 00 ff fe 01 00 02 01 02 fc 00 00 ff ff 01 02
       0.0 0.0 -0.008598149 -0.017196298 0.008598149 0.0 0.017196298 0.008598149 0.017196298 -0.034392595 0.0 0.0 -0.008598149 -0.008598149 0.008598149 0.017196298
0000f0 01 ff ff 02 00 02 02 03 fe ff 00 ff ff 02 01 02
       0.008598149 -0.008598149 -0.008598149 0.017196298 0.0 0.017196298 0.017196298 0.025794446 -0.017196298 -0.008598149 0.0 -0.008598149 -0.008598149 0.017196298 0.008598149 0.017196298

fuse_attr_6 i1 [15, 3, 3, 13] scale=0.007871787 zero_point=0
000000 00 00 ff ff fc fe 00 00 00 00 fe 01 00 fc 00 ff
       0.0 0.0 -0.007871787 -0.007871787 -0.03148715 -0.015743574 0.0 0.0 0.0 0.0 -0.015743574 0.007871787 0.0 -0.03148715 0.0 -0.007871787
000010 fc fb fe 00 00 00 00 fd fd fd fb 00 00 fc fb ff
       -0.03148715 -0.039358936 -0.015743574 0.0 0.0 0.0 0.0 -0.02361536 -0.02361536 -0.02361536 -0.039358936 0.0 0.0 -0.03148715 -0.039358936 -0.007871787
000020 00 00 00 00 fd fe fd fc 00 fb fb 00 fc 00 00 00
       0.0 0.0 0.0 0.0 -0.02361536 -0.015743574 -0.02361536 -0.03148715 0.0 -0.039358936 -0.039358936 0.0 -0.03148715 0.0 0.0 0.0
000030 00 00 fd fe f8 00 fb f7 01 fa 00 00 00 00 00 fb
       0.0 0.0 -0.02361536 -0.015743574 -0.0629743 0.0 -0.039358936 -0.07084608 0.007871787 -0.04723072 0.0 0.0 0.0 0.0 0.0 -0.039358936
000040 f9 f7 00 fa f5 01 f8 00 00 00 00 00 fc fa fc 00
       -0.05510251 -0.07084608 0.0 -0.04723072 -0.08658966 0.007871787 -0.0629743 0.0 0.0 0.0 0.0 0.0 -0.03148715 -0.04723072 -0.03148715 0.0
000050 fd fa fe fb 00 00 00 00 fc fe fc f9 00 fc f8 fe
       -0.02361536 -0.04723072 -0.015743574 -0.039358936 0.0 0.0 0.0 0.0 -0.03148715 -0.015743574 -0.03148715 -0.05510251 0.0 -0.03148715 -0.0629743 -0.015743574
000060 fb 00 00 00 00 fd fb fa fa 00 fd f8 fe fc 00 00
       -0.039358936 0.0 0.0 0.0 0.0 -0.02361536 -0.039358936 -0.04723072 -0.04723072 0.0 -0.02361536 -0.0629743 -0.015743574 -0.03148715 0.0 0.0
000070 00 00 fd fd f9 00 00 00 00 00 00 00 00 00 00 00
       0.0 0.0 -0.02361536 -0.02361536 -0.05510251 0.0 0.0 0.0 0.0 0.0 0.0 0.0 0.0 0.0 0.0 0.0
000080 00 00 00 00 00 00 00 00 00 00 00 00 00 00 00 00
       0.0 0.0 0.0 0.0 0.0 0.0 0.0 0.0 0.0 0.0 0.0 0.0 0.0 0.0 0.0 0.0
000090 00 00 00 00 00 00 00 00 00 00 00 00 00 00 00 00
       0.0 0.0 0.0 0.0 0.0 0.0 0.0 0.0 0.0 0.0 0.0 0.0 0.0 0.0 0.0 0.0
0000a0 00 00 00 00 00 00 00 00 00 00 00 00 00 00 00 00
       0.0 0.0 0.0 0.0 0.0 0.0 0.0 0.0 0.0 0.0 0.0 0.0 0.0 0.0 0.0 0.0
0000b0 00 00 00 00 00 00 00 00 00 00 00 00 00 00 00 00
       0.0 0.0 0.0 0.0 0.0 0.0 0.0 0.0 0.0 0.0 0.0 0.0 0.0 0.0 0.0 0.0
0000c0 00 00 00 00 00 00 00 00 00 00 00 00 00 00 00 00
       0.0 0.0 0.0 0.0 0.0 0.0 0.0 0.0 0.0 0.0 0.0 0.0 0.0 0.0 0.0 0.0
0000d0 00 00 00 00 00 00 00 00 00 00 00 00 00 00 00 00
       0.0 0.0 0.0 0.0 0.0 0.0 0.0 0.0 0.0 0.0 0.0 0.0 0.0 0.0 0.0 0.0
0000e0 00 00 00 00 00 00 00 00 00 00 ff 00 05 04 02 01
       0.0 0.0 0.0 0.0 0.0 0.0 0.0 0.0 0.0 0.0 -0.007871787 0.0 0.039358936 0.03148715 0.015743574 0.007871787
0000f0 00 00 00 00 02 05 f4 02 00 04 ff 03 01 00 00 00
       0.0 0.0 0.0 0.0 0.015743574 0.039358936 -0.09446144 0.015743574 0.0 0.03148715 -0.007871787 0.02361536 0.007871787 0.0 0.0 0.0

Xq.1_attr i1 [3, 3] scale=0.011728299 zero_point=0
000000 b6 c6 b7 e4 53 63 66 e7 e6
       -0.8678941 -0.68024135 -0.8561658 -0.32839236 0.9734488 1.1611016 1.1962864 -0.29320747 -0.30493578

fuse_attr_4 i1 [32, 1, 5, 7] scale=0.009099203 zero_point=0
000000 00 00 00 00 00 00 00 00 00 00 00 00 00 00 00 00
       0.0 0.0 0.0 0.0 0.0 0.0 0.0 0.0 0.0 0.0 0.0 0.0 0.0 0.0 0.0 0.0
000010 00 00 00 00 00 00 00 00 00 00 00 00 00 00 00 00
       0.0 0.0 0.0 0.0 0.0 0.0 0.0 0.0 0.0 0.0 0.0 0.0 0.0 0.0 0.0 0.0
000020 00 00 00 02 fd fa 01 f7 05 ff ff fe ff 00 fc 01
       0.0 0.0 0.0 0.018198406 -0.027297609 -0.054595217 0.009099203 -0.081892826 0.045496017 -0.009099203 -0.009099203 -0.018198406 -0.009099203 0.0 -0.036396813 0.009099203
000030 fe fe f8 ff fe fa 00 fc fe fa ff 00 fa 02 fb 01
       -0.018198406 -0.018198406 -0.072793625 -0.009099203 -0.018198406 -0.054595217 0.0 -0.036396813 -0.018198406 -0.054595217 -0.009099203 0.0 -0.054595217 0.018198406 -0.045496017 0.009099203
000040 fe 01 02 fc ff fa fd fb f0 fc f6 fe f6 fa fe fd
       -0.018198406 0.009099203 0.018198406 -0.036396813 -0.009099203 -0.054595217 -0.027297609 -0.045496017 -0.14558725 -0.036396813 -0.09099203 -0.018198406 -0.09099203 -0.054595217 -0.018198406 -0.027297609
000050 ff fc ff ef fa fa fa 01 fc fc ee fb 01 f7 ff fd
       -0.009099203 -0.036396813 -0.009099203 -0.15468645 -0.054595217 -0.054595217 -0.054595217 0.009099203 -0.036396813 -0.036396813 -0.16378565 -0.045496017 0.009099203 -0.081892826 -0.009099203 -0.027297609
000060 ff fb 01 05 f8 02 00 01 fe 00 00 00 00 00 00 00
       -0.009099203 -0.045496017 0.009099203 0.045496017 -0.072793625 0.018198406 0.0 0.009099203 -0.018198406 0.0 0.0 0.0 0.0 0.0 0.0 0.0
000070 00 00 00 00 00 00 00 00 00 00 00 00 00 00 00 00
       0.0 0.0 0.0 0.0 0.0 0.0 0.0 0.0 0.0 0.0 0.0 0.0 0.0 0.0 0.0 0.0
000080 00 00 00 00 00 00 00 00 00 00 00 00 f3 f6 ef f2
       0.0 0.0 0.0 0.0 0.0 0.0 0.0 0.0 0.0 0.0 0.0 0.0 -0.11828964 -0.09099203 -0.15468645 -0.12738885
000090 f4 fa 00 f1 f5 fa f8 f2 f4 fc f4 f0 fc f4 f1 f3
       -0.109190434 -0.054595217 0.0 -0.13648805 -0.100091234 -0.054595217 -0.072793625 -0.12738885 -0.109190434 -0.036396813 -0.109190434 -0.14558725 -0.036396813 -0.109190434 -0.13648805 -0.11828964
0000a0 fb f5 ed f8 f4 f7 fb f3 f7 ed f5 f3 f3 f9 f1 25
       -0.045496017 -0.100091234 -0.17288487 -0.072793625 -0.109190434 -0.081892826 -0.045496017 -0.11828964 -0.081892826 -0.17288487 -0.100091234 -0.11828964 -0.11828964 -0.063694425 -0.13648805 0.33667052
0000b0 2b d6 f7 c7 0b f4 16 04 e1 ee cd 07 fe f8 e0 d1
       0.39126575 -0.38216653 -0.081892826 -0.5186546 0.100091234 -0.109190434 0.20018247 0.036396813 -0.2820753 -0.16378565 -0.46405935 0.063694425 -0.018198406 -0.072793625 -0.2911745 -0.42766255
0000c0 e0 cc f8 f9 f5 d7 ec d7 ff 02 1e d0 c3 fa d9 15
       -0.2911745 -0.47315857 -0.072793625 -0.063694425 -0.100091234 -0.37306732 -0.18198407 -0.37306732 -0.009099203 0.018198406 0.2729761 -0.43676174 -0.5550514 -0.054595217 -0.35486892 0.19108327
0000d0 fd 4b 00 00 00 00 00 00 00 00 00 00 00 00 00 00
       -0.027297609 0.6824402 0.0 0.0 0.0 0.0 0.0 0.0 0.0 0.0 0.0 0.0 0.0 0.0 0.0 0.0
0000e0 00 00 00 00 00 00 00 00 00 00 00 00 00 00 00 00
       0.0 0.0 0.0 0.0 0.0 0.0 0.0 0.0 0.0 0.0 0.0 0.0 0.0 0.0 0.0 0.0
0000f0 00 00 00 00 00 00 00 00 00 00 00 00 00 00 00 00
       0.0 0.0 0.0 0.0 0.0 0.0 0.0 0.0 0.0 0.0 0.0 0.0 0.0 0.0 0.0 0.0
