trained_models/step_6_QAT_and_Convert2TFLite/qat_model_uec4C_val94.2_tr_82.9_epoch995_prunInfo_0.8_0.85_ds_ver11_20240605145733.tflite (tflite, 76248 bytes, 13 tensors)

fuse_attr_12 i1 [28, 3, 3, 34] scale=0.007852121 zero_point=0
00000000: 0000 fffa 01f0 00fd f502 00e9 00fd 0000
00000010: 0000 fe00 fb00 ff00 03fd 0004 0000 fe00
00000020: 00fb 0000 ff04 00fb 0000 f8fc 00f8 0000
00000030: 0000 0101 ff00 fe02 00fe 01fe 0004 0000
00000040: ff00 00fb 0000 fffe fff5 0000 f9ef 00ed
00000050: 00fc 0000 0000 fe00 fe00 ff00 f9fc 00fc
00000060: 0000 ff00 00fd 0000 fd07 fa07 00ff 07f5
00000070: 0006 00ff ffff fe01 fb00 fef2 fb0e faf8
00000080: ff05 0000 f900 00f7 0000 fc15 fb0a 00f7
00000090: 0108 0008 00fd ffff fe02 f700 0ef6 fc12
000000a0: 0dfe 000e 0000 fb00 00f7 0000 fcfc fafc
000000b0: 00fd 02fc 00fa 00f5 ffff fe02 f700 f9f3
000000c0: fb0a 0c02 000a 0000 f800 00f7 0000 fcfb
000000d0: 02e8 00fe fdff 00fd 0000 ff00 fe00 f800
000000e0: fff6 05ff f2fb 00f8 0000 fe00 00fe 0000
000000f0: fbff 03f8 0001 fefe 00fb 0001 ff00 fe00
0.0 0.0 -0.007852121 -0.047112726 0.007852121 -0.12563394 0.0 -0.023556363
-0.08637334 0.015704243 0.0 -0.1805988 0.0 -0.023556363 0.0 0.0
0.0 0.0 -0.015704243 0.0 -0.039260607 0.0 -0.007852121 0.0
0.023556363 -0.023556363 0.0 0.031408485 0.0 0.0 -0.015704243 0.0
0.0 -0.039260607 0.0 0.0 -0.007852121 0.031408485 0.0 -0.039260607
0.0 0.0 -0.06281697 -0.031408485 0.0 -0.06281697 0.0 0.0
0.0 0.0 0.007852121 0.007852121 -0.007852121 0.0 -0.015704243 0.015704243
0.0 -0.015704243 0.007852121 -0.015704243 0.0 0.031408485 0.0 0.0
-0.007852121 0.0 0.0 -0.039260607 0.0 0.0 -0.007852121 -0.015704243
-0.007852121 -0.08637334 0.0 0.0 -0.054964848 -0.13348606 0.0 -0.1491903
0.0 -0.031408485 0.0 0.0 0.0 0.0 -0.015704243 0.0
-0.015704243 0.0 -0.007852121 0.0 -0.054964848 -0.031408485 0.0 -0.031408485
0.0 0.0 -0.007852121 0.0 0.0 -0.023556363 0.0 0.0
-0.023556363 0.054964848 -0.047112726 0.054964848 0.0 -0.007852121 0.054964848 -0.08637334
0.0 0.047112726 0.0 -0.007852121 -0.007852121 -0.007852121 -0.015704243 0.007852121
-0.039260607 0.0 -0.015704243 -0.109929696 -0.039260607 0.109929696 -0.047112726 -0.06281697
-0.007852121 0.039260607 0.0 0.0 -0.054964848 0.0 0.0 -0.07066909
0.0 0.0 -0.031408485 0.16489455 -0.039260607 0.078521214 0.0 -0.07066909
0.007852121 0.06281697 0.0 0.06281697 0.0 -0.023556363 -0.007852121 -0.007852121
-0.015704243 0.015704243 -0.07066909 0.0 0.109929696 -0.078521214 -0.031408485 0.14133818
0.10207757 -0.015704243 0.0 0.109929696 0.0 0.0 -0.039260607 0.0
0.0 -0.07066909 0.0 0.0 -0.031408485 -0.031408485 -0.047112726 -0.031408485
0.0 -0.023556363 0.015704243 -0.031408485 0.0 -0.047112726 0.0 -0.08637334
-0.007852121 -0.007852121 -0.015704243 0.015704243 -0.07066909 0.0 -0.054964848 -0.10207757
-0.039260607 0.078521214 0.09422545 0.015704243 0.0 0.078521214 0.0 0.0
-0.06281697 0.0 0.0 -0.07066909 0.0 0.0 -0.031408485 -0.039260607
0.015704243 -0.1884509 0.0 -0.015704243 -0.023556363 -0.007852121 0.0 -0.023556363
0.0 0.0 -0.007852121 0.0 -0.015704243 0.0 -0.06281697 0.0
-0.007852121 -0.078521214 0.039260607 -0.007852121 -0.109929696 -0.039260607 0.0 -0.06281697
0.0 0.0 -0.015704243 0.0 0.0 -0.015704243 0.0 0.0
-0.039260607 -0.007852121 0.023556363 -0.06281697 0.0 0.007852121 -0.015704243 -0.015704243
0.0 -0.039260607 0.0 0.007852121 -0.007852121 0.0 -0.015704243 0.0

fuse_attr_5 i1 [13, 3, 3, 1] scale=0.014767597 zero_point=0
00000000: 0000 0000 0000 0000 0000 0000 0000 0000
00000010: 0000 04fd df23 25c9 2219 dde7 f907 bf27
00000020: 35e5 0f19 0511 e0fa fcec 0402 ede6 e2e0
00000030: f3ef ed01 f4ee 35d4 dd67 c4c7 24ed d5f1
00000040: eef1 f3ef f00e 120d e8e3 eaec e6ee eae6
00000050: ecf4 ee09 f8e0 f615 d64b 0506 ff1d 1c11
00000060: e9f2 faea e6ec e9e5 ea02 f9fb f4f1 03bf
00000070: be78 e3f2 1b
0.0 0.0 0.0 0.0 0.0 0.0 0.0 0.0
0.0 0.0 0.0 0.0 0.0 0.0 0.0 0.0
0.0 0.0 0.05907039 -0.04430279 -0.4873307 0.5168659 0.5464011 -0.81221783
0.5020983 0.36918995 -0.5168659 -0.36918995 -0.103373185 0.103373185 -0.9598938 0.5759363
0.78268266 -0.39872512 0.22151396 0.36918995 0.07383799 0.25104916 -0.47256312 -0.08860558
-0.05907039 -0.29535195 0.05907039 0.029535195 -0.28058437 -0.38395754 -0.4430279 -0.47256312
-0.19197877 -0.25104916 -0.28058437 0.014767597 -0.17721117 -0.26581675 0.78268266 -0.6497743
-0.5168659 1.5210625 -0.8860558 -0.84175307 0.5316335 -0.28058437 -0.63500667 -0.22151396
-0.26581675 -0.22151396 -0.19197877 -0.25104916 -0.23628156 0.20674637 0.26581675 0.19197877
-0.35442233 -0.42826033 -0.32488716 -0.29535195 -0.38395754 -0.26581675 -0.32488716 -0.38395754
-0.29535195 -0.17721117 -0.26581675 0.13290837 -0.11814078 -0.47256312 -0.14767598 0.31011954
-0.6202391 1.1075698 0.07383799 0.08860558 -0.014767597 0.42826033 0.41349274 0.25104916
-0.33965474 -0.20674637 -0.08860558 -0.32488716 -0.38395754 -0.29535195 -0.33965474 -0.39872512
-0.32488716 0.029535195 -0.103373185 -0.07383799 -0.17721117 -0.22151396 0.04430279 -0.9598938
-0.9746614 1.7721117 -0.42826033 -0.20674637 0.39872512

fuse_attr_7 i1 [28, 3, 3, 25] scale=0.005038564 zero_point=0
00000000: 0100 eafc 01f5 edf9 f600 fcfc fbff fc17
00000010: faf8 fd04 fcf8 02fb e700 fbf2 e607 f8f3
00000020: f8fb fefc 0400 ecfc 28f8 17fc 0dff fc02
00000030: 13eb 01fa ed02 0cff f0fb fcfd f70e fff0
00000040: fe24 f71b 0012 0300 fb1c f601 08d1 d907
00000050: fd0b fa0d f70d fffb fcfe 07fa f3f8 fef9
00000060: 0cf5 f0f8 fa0b e6df 0b03 fafc 10fd 100b
00000070: fbf0 ff1a f506 0502 f70f f210 fcf3 05ef
00000080: 100c 02e4 f417 fb0d 0eff dbfc 2bee 0a0e
00000090: 0df6 10ee 31f4 0208 fdfa 01fb 0a0a 0103
000000a0: 04f5 0009 04ef 08fc 04f4 01fd 10fc effe
000000b0: 0410 f204 0306 0201 03fd fefa 0608 0208
000000c0: 020e fbfe 0109 19fc f6fe 0e30 0701 f0f4
000000d0: 11fe f8fe 08f4 0317 04fa 1307 fb09 fd2a
000000e0: fe0a 05f8 f911 f810 fe09 fffd 0801 06f8
000000f0: 0a01 fff9 f609 f9fa ef10 f702 0af4 0004
0.005038564 0.0 -0.11084841 -0.020154256 0.005038564 -0.055424206 -0.09573272 -0.03526995
-0.05038564 0.0 -0.020154256 -0.020154256 -0.02519282 -0.005038564 -0.020154256 0.11588697
-0.030231385 -0.040308513 -0.015115692 0.020154256 -0.020154256 -0.040308513 0.010077128 -0.02519282
-0.1259641 0.0 -0.02519282 -0.0705399 -0.13100266 0.03526995 -0.040308513 -0.06550133
-0.040308513 -0.02519282 -0.010077128 -0.020154256 0.020154256 0.0 -0.10077128 -0.020154256
0.20154256 -0.040308513 0.11588697 -0.020154256 0.06550133 -0.005038564 -0.020154256 0.010077128
0.09573272 -0.105809845 0.005038564 -0.030231385 -0.09573272 0.010077128 0.06046277 -0.005038564
-0.080617025 -0.02519282 -0.020154256 -0.015115692 -0.045347076 0.0705399 -0.005038564 -0.080617025
-0.010077128 0.1813883 -0.045347076 0.13604122 0.0 0.09069415 0.015115692 0.0
-0.02519282 0.1410798 -0.05038564 0.005038564 0.040308513 -0.23681252 -0.196504 0.03526995
-0.015115692 0.055424206 -0.030231385 0.06550133 -0.045347076 0.06550133 -0.005038564 -0.02519282
-0.020154256 -0.010077128 0.03526995 -0.030231385 -0.06550133 -0.040308513 -0.010077128 -0.03526995
0.06046277 -0.055424206 -0.080617025 -0.040308513 -0.030231385 0.055424206 -0.13100266 -0.16627261
0.055424206 0.015115692 -0.030231385 -0.020154256 0.080617025 -0.015115692 0.080617025 0.055424206
-0.02519282 -0.080617025 -0.005038564 0.13100266 -0.055424206 0.030231385 0.02519282 0.010077128
-0.045347076 0.07557846 -0.0705399 0.080617025 -0.020154256 -0.06550133 0.02519282 -0.08565559
0.080617025 0.06046277 0.010077128 -0.1410798 -0.06046277 0.11588697 -0.02519282 0.06550133
0.0705399 -0.005038564 -0.18642688 -0.020154256 0.21665825 -0.09069415 0.05038564 0.0705399
0.06550133 -0.05038564 0.080617025 -0.09069415 0.24688964 -0.06046277 0.010077128 0.040308513
-0.015115692 -0.030231385 0.005038564 -0.02519282 0.05038564 0.05038564 0.005038564 0.015115692
0.020154256 -0.055424206 0.0 0.045347076 0.020154256 -0.08565559 0.040308513 -0.020154256
0.020154256 -0.06046277 0.005038564 -0.015115692 0.080617025 -0.020154256 -0.08565559 -0.010077128
0.020154256 0.080617025 -0.0705399 0.020154256 0.015115692 0.030231385 0.010077128 0.005038564
0.015115692 -0.015115692 -0.010077128 -0.030231385 0.030231385 0.040308513 0.010077128 0.040308513
0.010077128 0.0705399 -0.02519282 -0.010077128 0.005038564 0.045347076 0.1259641 -0.020154256
-0.05038564 -0.010077128 0.0705399 0.24185108 0.03526995 0.005038564 -0.080617025 -0.06046277
0.08565559 -0.010077128 -0.040308513 -0.010077128 0.040308513 -0.06046277 0.015115692 0.11588697
0.020154256 -0.030231385 0.09573272 0.03526995 -0.02519282 0.045347076 -0.015115692 0.21161969
-0.010077128 0.05038564 0.02519282 -0.040308513 -0.03526995 0.08565559 -0.040308513 0.080617025
-0.010077128 0.045347076 -0.005038564 -0.015115692 0.040308513 0.005038564 0.030231385 -0.040308513
0.05038564 0.005038564 -0.005038564 -0.03526995 -0.05038564 0.045347076 -0.03526995 -0.030231385
-0.08565559 0.080617025 -0.045347076 0.010077128 0.05038564 -0.06046277 0.0 0.020154256

fuse_attr_4 i1 [32, 1, 5, 8] scale=0.0061797807 zero_point=0
00000000: 0fed 41e4 0409 fee6 efea 46e4 12fd 07e7
00000010: fd00 4ac5 17fe 10e6 03f7 37de 1d02 19e9
00000020: e400 24d0 23ff 0dec f10e 1ed3 1504 0827
00000030: 0cf2 11ff 0d0b ee0f 1ff7 2309 1200 fde3
00000040: 44fa 2d0f f1ee efeb 2b03 4614 0cf2 fdf5
00000050: e4f1 2ccf f8fc f1e9 e0eb 23f5 0607 f5db
00000060: eddb 1ae5 16fa efd1 ead6 1ff9 1409 dfe1
00000070: ead4 3503 0305 e5e1 cada c316 c5e2 e121
00000080: d802 c012 d2df d334 ceff d419 acee cb43
00000090: d5ff dc17 dbd4 e558 d423 cc1c d6ce f662
000000a0: e8f2 ec05 f2fd f4f2 e3f7 e103 f105 f7f4
000000b0: e0fd e0ff eb0c f3fe eb09 ee04 f702 fa14
000000c0: ed05 ed0f fcfe f41f e902 07f7 2224 13e3
000000d0: f0e8 07e3 2c1a 09da e5f9 fcef 0f04 0fdc
000000e0: dc04 ff02 f71b f7f8 f7ed 07ea 041c fbef
000000f0: 2ce2 e94c f9db ece7 19cf ee27 ebed dadd
0.09269671 -0.11741583 0.40168574 -0.17303386 0.024719123 0.055618025 -0.012359561 -0.1606743
-0.10505627 -0.13595517 0.43258464 -0.17303386 0.11123605 -0.018539343 0.043258466 -0.15449452
-0.018539343 0.0 0.45730376 -0.36460707 0.14213495 -0.012359561 0.09887649 -0.1606743
0.018539343 -0.055618025 0.33988795 -0.21011254 0.17921364 0.012359561 0.15449452 -0.14213495
-0.17303386 0.0 0.2224721 -0.2966295 0.21629232 -0.0061797807 0.08033715 -0.12359561
-0.09269671 0.08651693 0.18539342 -0.27809012 0.12977539 0.024719123 0.049438246 0.24101144
0.07415737 -0.08651693 0.10505627 -0.0061797807 0.08033715 0.067977585 -0.11123605 0.09269671
0.1915732 -0.055618025 0.21629232 0.055618025 0.11123605 0.0 -0.018539343 -0.17921364
0.42022508 -0.037078686 0.27809012 0.09269671 -0.09269671 -0.11123605 -0.10505627 -0.12977539
0.26573056 0.018539343 0.43258464 0.12359561 0.07415737 -0.08651693 -0.018539343 -0.067977585
-0.17303386 -0.09269671 0.27191034 -0.30280927 -0.049438246 -0.024719123 -0.09269671 -0.14213495
-0.19775298 -0.12977539 0.21629232 -0.067977585 0.037078686 0.043258466 -0.067977585 -0.22865188
-0.11741583 -0.22865188 0.1606743 -0.16685408 0.13595517 -0.037078686 -0.10505627 -0.29044968
-0.13595517 -0.25955078 0.1915732 -0.043258466 0.12359561 0.055618025 -0.20393276 -0.1915732
-0.13595517 -0.27191034 0.3275284 0.018539343 0.018539343 0.030898903 -0.16685408 -0.1915732
-0.33370817 -0.23483166 -0.37696663 0.13595517 -0.36460707 -0.18539342 -0.1915732 0.20393276
-0.24719122 0.012359561 -0.39550596 0.11123605 -0.2842699 -0.20393276 -0.27809012 0.3213486
-0.30898905 -0.0061797807 -0.27191034 0.15449452 -0.51910156 -0.11123605 -0.3275284 0.4140453
-0.26573056 -0.0061797807 -0.2224721 0.14213495 -0.22865188 -0.27191034 -0.16685408 0.5438207
-0.27191034 0.21629232 -0.3213486 0.17303386 -0.25955078 -0.30898905 -0.061797805 0.60561854
-0.14831474 -0.08651693 -0.12359561 0.030898903 -0.08651693 -0.018539343 -0.07415737 -0.08651693
-0.17921364 -0.055618025 -0.1915732 0.018539343 -0.09269671 0.030898903 -0.055618025 -0.07415737
-0.19775298 -0.018539343 -0.19775298 -0.0061797807 -0.12977539 0.07415737 -0.08033715 -0.012359561
-0.12977539 0.055618025 -0.11123605 0.024719123 -0.055618025 0.012359561 -0.037078686 0.12359561
-0.11741583 0.030898903 -0.11741583 0.09269671 -0.024719123 -0.012359561 -0.07415737 0.1915732
-0.14213495 0.012359561 0.043258466 -0.055618025 0.21011254 0.2224721 0.11741583 -0.17921364
-0.09887649 -0.14831474 0.043258466 -0.17921364 0.27191034 0.1606743 0.055618025 -0.23483166
-0.16685408 -0.043258466 -0.024719123 -0.10505627 0.09269671 0.024719123 0.09269671 -0.2224721
-0.2224721 0.024719123 -0.0061797807 0.012359561 -0.055618025 0.16685408 -0.055618025 -0.049438246
-0.055618025 -0.11741583 0.043258466 -0.13595517 0.024719123 0.17303386 -0.030898903 -0.10505627
0.27191034 -0.18539342 -0.14213495 0.46966332 -0.043258466 -0.22865188 -0.12359561 -0.15449452
0.15449452 -0.30280927 -0.11123605 0.24101144 -0.12977539 -0.11741583 -0.23483166 -0.21629232

fuse_attr_10 i1 [36, 3, 3, 34] scale=0.0049378183 zero_point=0
00000000: 00fc fffb 06f9 f60f ff04 f007 fe04 ff0d
00000010: fbfd 04ed 01fa f4ff 05f0 0107 00ff 020a
00000020: 0903 0003 faf9 ee07 0405 0404 f506 fefd
00000030: fb18 f100 02f9 f4f6 f40c 03f9 fc03 01f7
00000040: 0207 0109 0002 eff9 ecfa fce8 faf9 f9fe
00000050: f4fb f603 fdfa f5fb ecf5 fbf7 04fc f4f8
00000060: f3f4 f9f9 fd0d 0011 0416 fe05 0112 1403
00000070: 07f3 08fe 0702 04fe fe1f 0003 f30c 1202
00000080: 0507 07f8 03fe 0a10 000a 0309 0605 0206
00000090: 110c 0204 0a0a f8fe 0406 f602 fdfd f206
000000a0: 0707 0101 12ff 0b01 0f05 000b 0604 0b07
000000b0: 0301 0d08 0713 0106 f8fd 0004 f80f 0202
000000c0: f4f8 09fc 0f04 13ff 040a 0a09 00fd 04f5
000000d0: eef4 f4ff 05fa fcfc f9f4 f7f7 f6fc fce9
000000e0: f3f9 efee f7f6 fe01 f5f6 f001 03f1 0000
000000f0: 07f2 f1f3 edff 04fc f9fc ffff eef6 f8f9
0.0 -0.019751273 -0.0049378183 -0.024689091 0.02962691 -0.034564726 -0.049378183 0.07406727
-0.0049378183 0.019751273 -0.07900509 0.034564726 -0.009875637 0.019751273 -0.0049378183 0.06419164
-0.024689091 -0.014813455 0.019751273 -0.093818545 0.0049378183 -0.02962691 -0.05925382 -0.0049378183
0.024689091 -0.07900509 0.0049378183 0.034564726 0.0 -0.0049378183 0.009875637 0.049378183
0.044440366 0.014813455 0.0 0.014813455 -0.02962691 -0.034564726 -0.08888073 0.034564726
0.019751273 0.024689091 0.019751273 0.019751273 -0.054316 0.02962691 -0.009875637 -0.014813455
-0.024689091 0.11850764 -0.07406727 0.0 0.009875637 -0.034564726 -0.05925382 -0.049378183
-0.05925382 0.05925382 0.014813455 -0.034564726 -0.019751273 0.014813455 0.0049378183 -0.044440366
0.009875637 0.034564726 0.0049378183 0.044440366 0.0 0.009875637 -0.08394291 -0.034564726
-0.098756365 -0.02962691 -0.019751273 -0.11850764 -0.02962691 -0.034564726 -0.034564726 -0.009875637
-0.05925382 -0.024689091 -0.049378183 0.014813455 -0.014813455 -0.02962691 -0.054316 -0.024689091
-0.098756365 -0.054316 -0.024689091 -0.044440366 0.019751273 -0.019751273 -0.05925382 -0.039502546
-0.06419164 -0.05925382 -0.034564726 -0.034564726 -0.014813455 0.06419164 0.0 0.08394291
0.019751273 0.108632 -0.009875637 0.024689091 0.0049378183 0.08888073 0.098756365 0.014813455
0.034564726 -0.06419164 0.039502546 -0.009875637 0.034564726 0.009875637 0.019751273 -0.009875637
-0.009875637 0.15307237 0.0 0.014813455 -0.06419164 0.05925382 0.08888073 0.009875637
0.024689091 0.034564726 0.034564726 -0.039502546 0.014813455 -0.009875637 0.049378183 0.07900509
0.0 0.049378183 0.014813455 0.044440366 0.02962691 0.024689091 0.009875637 0.02962691
0.08394291 0.05925382 0.009875637 0.019751273 0.049378183 0.049378183 -0.039502546 -0.009875637
0.019751273 0.02962691 -0.049378183 0.009875637 -0.014813455 -0.014813455 -0.06912945 0.02962691
0.034564726 0.034564726 0.0049378183 0.0049378183 0.08888073 -0.0049378183 0.054316 0.0049378183
0.07406727 0.024689091 0.0 0.054316 0.02962691 0.019751273 0.054316 0.034564726
0.014813455 0.0049378183 0.06419164 0.039502546 0.034564726 0.093818545 0.0049378183 0.02962691
-0.039502546 -0.014813455 0.0 0.019751273 -0.039502546 0.07406727 0.009875637 0.009875637
-0.05925382 -0.039502546 0.044440366 -0.019751273 0.07406727 0.019751273 0.093818545 -0.0049378183
0.019751273 0.049378183 0.049378183 0.044440366 0.0 -0.014813455 0.019751273 -0.054316
-0.08888073 -0.05925382 -0.05925382 -0.0049378183 0.024689091 -0.02962691 -0.019751273 -0.019751273
-0.034564726 -0.05925382 -0.044440366 -0.044440366 -0.049378183 -0.019751273 -0.019751273 -0.11356982
-0.06419164 -0.034564726 -0.08394291 -0.08888073 -0.044440366 -0.049378183 -0.009875637 0.0049378183
-0.054316 -0.049378183 -0.07900509 0.0049378183 0.014813455 -0.07406727 0.0 0.0
0.034564726 -0.06912945 -0.07406727 -0.06419164 -0.093818545 -0.0049378183 0.019751273 -0.019751273
-0.034564726 -0.019751273 -0.0049378183 -0.0049378183 -0.08888073 -0.049378183 -0.039502546 -0.034564726

Xq.1_attr i1 [4, 4] scale=0.014249804 zero_point=0
00000000: 8915 1f2a 2d28 9e10 2e26 2699 1c9d 1d2e
-1.6957268 0.2992459 0.44174394 0.5984918 0.6412412 0.5699922 -1.3964808 0.22799687
0.655491 0.5414926 0.5414926 -1.4677298 0.39899454 -1.4107306 0.41324434 0.655491

fuse_attr_8 i1 [32, 3, 3, 28] scale=0.0028933787 zero_point=0
00000000: f4f3 0305 feec 03f2 f1ff 0300 08f6 e700
00000010: f6f1 fc00 fef4 f4ef ee04 f8f8 ef00 f803
00000020: eced 0400 f302 0105 fbf7 e603 0afb fcfd
00000030: f8fc 01f5 f208 fbf3 fafc f905 fefe 03f9
00000040: f708 ff00 fcfb e7ff 0106 02ff fdfa fdfb
00000050: f005 fcfa fffd fa0b d60d faec f706 0bfa
00000060: e701 01fb f5ee fa09 fafb e4f6 e4f8 f412
00000070: 0500 f605 d80d faf6 f70f 0902 e601 00ff
00000080: 0f0c f409 f402 f3fd d802 f812 0405 fafd
00000090: e007 fbf6 ff07 03fe f303 0400 0b0b ef10
000000a0: f20b eefa e8f9 f616 1af7 03fe f2ff fff8
000000b0: fdff 0a0c 0f00 0e02 f0eb f9f7 f7f2 f6f7
000000c0: da0b f95d 18fb fe03 e506 fb04 fd05 0f12
000000d0: 1105 0702 0df6 f2f6 f1fc 02fd d70c fc4e
000000e0: 1705 0cf9 fdfd 010b 010a 100b 1b09 0b03
000000f0: 1402 f0fe ef05 04ff e808 fc39 f1f4 d9fa
-0.034720544 -0.037613925 0.008680136 0.014466894 -0.0057867575 -0.057867575 0.008680136 -0.0405073
-0.043400683 -0.0028933787 0.008680136 0.0 0.02314703 -0.028933788 -0.07233447 0.0
-0.028933788 -0.043400683 -0.011573515 0.0 -0.0057867575 -0.034720544 -0.034720544 -0.049187437
-0.052080818 0.011573515 -0.02314703 -0.02314703 -0.049187437 0.0 -0.02314703 0.008680136
-0.057867575 -0.054974195 0.011573515 0.0 -0.037613925 0.0057867575 0.0028933787 0.014466894
-0.014466894 -0.026040409 -0.07522785 0.008680136 0.028933788 -0.014466894 -0.011573515 -0.008680136
-0.02314703 -0.011573515 0.0028933787 -0.031827167 -0.0405073 0.02314703 -0.014466894 -0.037613925
-0.017360272 -0.011573515 -0.02025365 0.014466894 -0.0057867575 -0.0057867575 0.008680136 -0.02025365
-0.026040409 0.02314703 -0.0028933787 0.0 -0.011573515 -0.014466894 -0.07233447 -0.0028933787
0.0028933787 0.017360272 0.0057867575 -0.0028933787 -0.008680136 -0.017360272 -0.008680136 -0.014466894
-0.04629406 0.014466894 -0.011573515 -0.017360272 -0.0028933787 -0.008680136 -0.017360272 0.031827167
-0.121521905 0.037613925 -0.017360272 -0.057867575 -0.026040409 0.017360272 0.031827167 -0.017360272
-0.07233447 0.0028933787 0.0028933787 -0.014466894 -0.031827167 -0.052080818 -0.017360272 0.026040409
-0.017360272 -0.014466894 -0.0810146 -0.028933788 -0.0810146 -0.02314703 -0.034720544 0.052080818
0.014466894 0.0 -0.028933788 0.014466894 -0.11573515 0.037613925 -0.017360272 -0.028933788
-0.026040409 0.043400683 0.026040409 0.0057867575 -0.07522785 0.0028933787 0.0 -0.0028933787
0.043400683 0.034720544 -0.034720544 0.026040409 -0.034720544 0.0057867575 -0.037613925 -0.008680136
-0.11573515 0.0057867575 -0.02314703 0.052080818 0.011573515 0.014466894 -0.017360272 -0.008680136
-0.09258812 0.02025365 -0.014466894 -0.028933788 -0.0028933787 0.02025365 0.008680136 -0.0057867575
-0.037613925 0.008680136 0.011573515 0.0 0.031827167 0.031827167 -0.049187437 0.04629406
-0.0405073 0.031827167 -0.052080818 -0.017360272 -0.06944109 -0.02025365 -0.028933788 0.06365433
0.07522785 -0.026040409 0.008680136 -0.0057867575 -0.0405073 -0.0028933787 -0.0028933787 -0.02314703
-0.008680136 -0.0028933787 0.028933788 0.034720544 0.043400683 0.0 0.0405073 0.0057867575
-0.04629406 -0.060760953 -0.02025365 -0.026040409 -0.026040409 -0.0405073 -0.028933788 -0.026040409
-0.10994839 0.031827167 -0.02025365 0.26908422 0.06944109 -0.014466894 -0.0057867575 0.008680136
-0.07812122 0.017360272 -0.014466894 0.011573515 -0.008680136 0.014466894 0.043400683 0.052080818
0.049187437 0.014466894 0.02025365 0.0057867575 0.037613925 -0.028933788 -0.0405073 -0.028933788
-0.043400683 -0.011573515 0.0057867575 -0.008680136 -0.118628524 0.034720544 -0.011573515 0.22568354
0.066547714 0.014466894 0.034720544 -0.02025365 -0.008680136 -0.008680136 0.0028933787 0.031827167
0.0028933787 0.028933788 0.04629406 0.031827167 0.07812122 0.026040409 0.031827167 0.008680136
0.057867575 0.0057867575 -0.04629406 -0.0057867575 -0.049187437 0.014466894 0.011573515 -0.0028933787
-0.06944109 0.02314703 -0.011573515 0.16492258 -0.043400683 -0.034720544 -0.11284177 -0.017360272

fuse_attr_6 i1 [25, 3, 3, 13] scale=0.006826398 zero_point=0
00000000: 0000 0aff 08fb 15fc fef8 15f9 0200 0000
00000010: f805 0311 ff01 f010 fef1 0000 03fb 0800
00000020: 0202 06fb 08ff fe00 00f7 fe00 ffee 0601
00000030: f3e9 0400 00ff ee01 f9fd f207 feed f202
00000040: ed00 00f5 fff5 f7e0 08fd f4f3 feed 0000
00000050: 07f5 0704 0802 0efa 0706 fd00 00f2 f905
00000060: feee ff08 f408 04f9 0000 f6fb 05fc f2fd
00000070: 02f8 08ff f700 00fc fd00 fdfd 01fd fffb
00000080: 00ff 0000 fcf9 fdfc fc01 fcfd fbff fa00
00000090: 00f8 f9fd faf6 fffc fdf8 fefb 0000 f9f9
000000a0: 0406 f001 fbfa fafe fb00 00fc f501 06f3
000000b0: 01f9 f7fc fdf6 0000 f8f3 0306 f001 faf9
000000c0: f9fd f400 00fd 01fd fdec 05f6 fcfa f8f5
000000d0: 0000 fffe fdfb ed06 f4fc fdf7 f100 00fe
000000e0: fbfe fdee 07f6 fcfb f9ed 0000 e90f 0001
000000f0: ed00 0eff ebff 1c00 00ef 0ff8 f6df 070c
0.0 0.0 0.06826398 -0.006826398 0.054611184 -0.03413199 0.14335436 -0.027305592
-0.013652796 -0.054611184 0.14335436 -0.047784787 0.013652796 0.0 0.0 0.0
-0.054611184 0.03413199 0.020479195 0.11604877 -0.006826398 0.006826398 -0.10922237 0.10922237
-0.013652796 -0.10239597 0.0 0.0 0.020479195 -0.03413199 0.054611184 0.0
0.013652796 0.013652796 0.04095839 -0.03413199 0.054611184 -0.006826398 -0.013652796 0.0
0.0 -0.06143758 -0.013652796 0.0 -0.006826398 -0.12287516 0.04095839 0.006826398
-0.08874317 -0.15700716 0.027305592 0.0 0.0 -0.006826398 -0.12287516 0.006826398
-0.047784787 -0.020479195 -0.09556957 0.047784787 -0.013652796 -0.12970155 -0.09556957 0.013652796
-0.12970155 0.0 0.0 -0.07509038 -0.006826398 -0.07509038 -0.06143758 -0.21844473
0.054611184 -0.020479195 -0.08191678 -0.08874317 -0.013652796 -0.12970155 0.0 0.0
0.047784787 -0.07509038 0.047784787 0.027305592 0.054611184 0.013652796 0.09556957 -0.04095839
0.047784787 0.04095839 -0.020479195 0.0 0.0 -0.09556957 -0.047784787 0.03413199
-0.013652796 -0.12287516 -0.006826398 0.054611184 -0.08191678 0.054611184 0.027305592 -0.047784787
0.0 0.0 -0.06826398 -0.03413199 0.03413199 -0.027305592 -0.09556957 -0.020479195
0.013652796 -0.054611184 0.054611184 -0.006826398 -0.06143758 0.0 0.0 -0.027305592
-0.020479195 0.0 -0.020479195 -0.020479195 0.006826398 -0.020479195 -0.006826398 -0.03413199
0.0 -0.006826398 0.0 0.0 -0.027305592 -0.047784787 -0.020479195 -0.027305592
-0.027305592 0.006826398 -0.027305592 -0.020479195 -0.03413199 -0.006826398 -0.04095839 0.0
0.0 -0.054611184 -0.047784787 -0.020479195 -0.04095839 -0.06826398 -0.006826398 -0.027305592
-0.020479195 -0.054611184 -0.013652796 -0.03413199 0.0 0.0 -0.047784787 -0.047784787
0.027305592 0.04095839 -0.10922237 0.006826398 -0.03413199 -0.04095839 -0.04095839 -0.013652796
-0.03413199 0.0 0.0 -0.027305592 -0.07509038 0.006826398 0.04095839 -0.08874317
0.006826398 -0.047784787 -0.06143758 -0.027305592 -0.020479195 -0.06826398 0.0 0.0
-0.054611184 -0.08874317 0.020479195 0.04095839 -0.10922237 0.006826398 -0.04095839 -0.047784787
-0.047784787 -0.020479195 -0.08191678 0.0 0.0 -0.020479195 0.006826398 -0.020479195
-0.020479195 -0.13652796 0.03413199 -0.06826398 -0.027305592 -0.04095839 -0.054611184 -0.07509038
0.0 0.0 -0.006826398 -0.013652796 -0.020479195 -0.03413199 -0.12970155 0.04095839
-0.08191678 -0.027305592 -0.020479195 -0.06143758 -0.10239597 0.0 0.0 -0.013652796
-0.03413199 -0.013652796 -0.020479195 -0.12287516 0.047784787 -0.06826398 -0.027305592 -0.03413199
-0.047784787 -0.12970155 0.0 0.0 -0.15700716 0.10239597 0.0 0.006826398
-0.12970155 0.0 0.09556957 -0.006826398 -0.14335436 -0.006826398 0.19113915 0.0
0.0 -0.11604877 0.10239597 -0.054611184 -0.06826398 -0.22527114 0.047784787 0.08191678

fuse_attr_11 i1 [34, 3, 3, 36] scale=0.0046168873 zero_point=0
00000000: 0000 0000 0000 0000 0000 0000 0000 0000
00000010: 0000 0000 0000 0000 0000 0000 0000 0000
00000020: 0000 0000 0000 0000 0000 0000 0000 0000
00000030: 0000 0000 0000 0000 0000 0000 0000 0000
00000040: 0000 0000 0000 0000 0000 0000 0000 0000
00000050: 0000 0000 0000 0000 0000 0000 0000 0000
00000060: 0000 0000 0000 0000 0000 0000 0000 0000
00000070: 0000 0000 0000 0000 0000 0000 0000 0000
00000080: 0000 0000 0000 0000 0000 0000 0000 0000
00000090: 0000 0000 0000 0000 0000 0000 0000 0000
000000a0: 0000 0000 0000 0000 0000 0000 0000 0000
000000b0: 0000 0000 0000 0000 0000 0000 0000 0000
000000c0: 0000 0000 0000 0000 0000 0000 0000 0000
000000d0: 0000 0000 0000 0000 0000 0000 0000 0000
000000e0: 0000 0000 0000 0000 0000 0000 0000 0000
000000f0: 0000 0000 0000 0000 0000 0000 0000 0000
0.0 0.0 0.0 0.0 0.0 0.0 0.0 0.0
0.0 0.0 0.0 0.0 0.0 0.0 0.0 0.0
0.0 0.0 0.0 0.0 0.0 0.0 0.0 0.0
0.0 0.0 0.0 0.0 0.0 0.0 0.0 0.0
0.0 0.0 0.0 0.0 0.0 0.0 0.0 0.0
0.0 0.0 0.0 0.0 0.0 0.0 0.0 0.0
0.0 0.0 0.0 0.0 0.0 0.0 0.0 0.0
0.0 0.0 0.0 0.0 0.0 0.0 0.0 0.0
0.0 0.0 0.0 0.0 0.0 0.0 0.0 0.0
0.0 0.0 0.0 0.0 0.0 0.0 0.0 0.0
0.0 0.0 0.0 0.0 0.0 0.0 0.0 0.0
0.0 0.0 0.0 0.0 0.0 0.0 0.0 0.0
0.0 0.0 0.0 0.0 0.0 0.0 0.0 0.0
0.0 0.0 0.0 0.0 0.0 0.0 0.0 0.0
0.0 0.0 0.0 0.0 0.0 0.0 0.0 0.0
0.0 0.0 0.0 0.0 0.0 0.0 0.0 0.0
0.0 0.0 0.0 0.0 0.0 0.0 0.0 0.0
0.0 0.0 0.0 0.0 0.0 0.0 0.0 0.0
0.0 0.0 0.0 0.0 0.0 0.0 0.0 0.0
0.0 0.0 0.0 0.0 0.0 0.0 0.0 0.0
0.0 0.0 0.0 0.0 0.0 0.0 0.0 0.0
0.0 0.0 0.0 0.0 0.0 0.0 0.0 0.0
0.0 0.0 0.0 0.0 0.0 0.0 0.0 0.0
0.0 0.0 0.0 0.0 0.0 0.0 0.0 0.0
0.0 0.0 0.0 0.0 0.0 0.0 0.0 0.0
0.0 0.0 0.0 0.0 0.0 0.0 0.0 0.0
0.0 0.0 0.0 0.0 0.0 0.0 0.0 0.0
0.0 0.0 0.0 0.0 0.0 0.0 0.0 0.0
0.0 0.0 0.0 0.0 0.0 0.0 0.0 0.0
0.0 0.0 0.0 0.0 0.0 0.0 0.0 0.0
0.0 0.0 0.0 0.0 0.0 0.0 0.0 0.0
0.0 0.0 0.0 0.0 0.0 0.0 0.0 0.0

fuse_attr_9 i1 [34, 3, 3, 32] scale=0.0043575596 zero_point=0
00000000: 0000 0000 0000 0000 0000 0000 0000 0000
00000010: 0000 0000 0000 0000 0000 0000 0000 0000
00000020: 0000 0000 0000 0000 0000 0000 0000 0000
00000030: 0000 0000 0000 0000 0000 0000 0000 0000
00000040: 0000 0000 0000 0000 0000 0000 0000 0000
00000050: 0000 0000 0000 0000 0000 0000 0000 0000
00000060: 0000 0000 0000 0000 0000 0000 0000 0000
00000070: 0000 0000 0000 0000 0000 0000 0000 0000
00000080: 0000 0000 0000 0000 0000 0000 0000 0000
00000090: 0000 0000 0000 0000 0000 0000 0000 0000
000000a0: 0000 0000 0000 0000 0000 0000 0000 0000
000000b0: 0000 0000 0000 0000 0000 0000 0000 0000
000000c0: 0000 0000 0000 0000 0000 0000 0000 0000
000000d0: 0000 0000 0000 0000 0000 0000 0000 0000
000000e0: 0000 0000 0000 0000 0000 0000 0000 0000
000000f0: 0000 0000 0000 0000 0000 0000 0000 0000
0.0 0.0 0.0 0.0 0.0 0.0 0.0 0.0
0.0 0.0 0.0 0.0 0.0 0.0 0.0 0.0
0.0 0.0 0.0 0.0 0.0 0.0 0.0 0.0
0.0 0.0 0.0 0.0 0.0 0.0 0.0 0.0
0.0 0.0 0.0 0.0 0.0 0.0 0.0 0.0
0.0 0.0 0.0 0.0 0.0 0.0 0.0 0.0
0.0 0.0 0.0 0.0 0.0 0.0 0.0 0.0
0.0 0.0 0.0 0.0 0.0 0.0 0.0 0.0
0.0 0.0 0.0 0.0 0.0 0.0 0.0 0.0
0.0 0.0 0.0 0.0 0.0 0.0 0.0 0.0
0.0 0.0 0.0 0.0 0.0 0.0 0.0 0.0
0.0 0.0 0.0 0.0 0.0 0.0 0.0 0.0
0.0 0.0 0.0 0.0 0.0 0.0 0.0 0.0
0.0 0.0 0.0 0.0 0.0 0.0 0.0 0.0
0.0 0.0 0.0 0.0 0.0 0.0 0.0 0.0
0.0 0.0 0.0 0.0 0.0 0.0 0.0 0.0
0.0 0.0 0.0 0.0 0.0 0.0 0.0 0.0
0.0 0.0 0.0 0.0 0.0 0.0 0.0 0.0
0.0 0.0 0.0 0.0 0.0 0.0 0.0 0.0
0.0 0.0 0.0 0.0 0.0 0.0 0.0 0.0
0.0 0.0 0.0 0.0 0.0 0.0 0.0 0.0
0.0 0.0 0.0 0.0 0.0 0.0 0.0 0.0
0.0 0.0 0.0 0.0 0.0 0.0 0.0 0.0
0.0 0.0 0.0 0.0 0.0 0.0 0.0 0.0
0.0 0.0 0.0 0.0 0.0 0.0 0.0 0.0
0.0 0.0 0.0 0.0 0.0 0.0 0.0 0.0
0.0 0.0 0.0 0.0 0.0 0.0 0.0 0.0
0.0 0.0 0.0 0.0 0.0 0.0 0.0 0.0
0.0 0.0 0.0 0.0 0.0 0.0 0.0 0.0
0.0 0.0 0.0 0.0 0.0 0.0 0.0 0.0
0.0 0.0 0.0 0.0 0.0 0.0 0.0 0.0
0.0 0.0 0.0 0.0 0.0 0.0 0.0 0.0

fuse_attr_13 i1 [32, 3, 3, 28] scale=0.005954282 zero_point=0
00000000: 0000 0000 0000 0000 0000 0000 0000 0000
00000010: 0000 0000 0000 0000 0000 0000 0000 0000
00000020: 0000 0000 0000 0000 0000 0000 0000 0000
00000030: 0000 0000 0000 0000 0000 0000 0000 0000
00000040: 0000 0000 0000 0000 0000 0000 0000 0000
00000050: 0000 0000 0000 0000 0000 0000 0000 0000
00000060: 0000 0000 0000 0000 0000 0000 0000 0000
00000070: 0000 0000 0000 0000 0000 0000 0000 0000
00000080: 0000 0000 0000 0000 0000 0000 0000 0000
00000090: 0000 0000 0000 0000 0000 0000 0000 0000
000000a0: 0000 0000 0000 0000 0000 0000 0000 0000
000000b0: 0000 0000 0000 0000 0000 0000 0000 0000
000000c0: 0000 0000 0000 0000 0000 0000 0000 0000
000000d0: 0000 0000 0000 0000 0000 0000 0000 0000
000000e0: 0000 0000 0000 0000 0000 0000 0000 0000
000000f0: 0000 0000 0000 0000 0000 0000 f708 0516
0.0 0.0 0.0 0.0 0.0 0.0 0.0 0.0
0.0 0.0 0.0 0.0 0.0 0.0 0.0 0.0
0.0 0.0 0.0 0.0 0.0 0.0 0.0 0.0
0.0 0.0 0.0 0.0 0.0 0.0 0.0 0.0
0.0 0.0 0.0 0.0 0.0 0.0 0.0 0.0
0.0 0.0 0.0 0.0 0.0 0.0 0.0 0.0
0.0 0.0 0.0 0.0 0.0 0.0 0.0 0.0
0.0 0.0 0.0 0.0 0.0 0.0 0.0 0.0
0.0 0.0 0.0 0.0 0.0 0.0 0.0 0.0
0.0 0.0 0.0 0.0 0.0 0.0 0.0 0.0
0.0 0.0 0.0 0.0 0.0 0.0 0.0 0.0
0.0 0.0 0.0 0.0 0.0 0.0 0.0 0.0
0.0 0.0 0.0 0.0 0.0 0.0 0.0 0.0
0.0 0.0 0.0 0.0 0.0 0.0 0.0 0.0
0.0 0.0 0.0 0.0 0.0 0.0 0.0 0.0
0.0 0.0 0.0 0.0 0.0 0.0 0.0 0.0
0.0 0.0 0.0 0.0 0.0 0.0 0.0 0.0
0.0 0.0 0.0 0.0 0.0 0.0 0.0 0.0
0.0 0.0 0.0 0.0 0.0 0.0 0.0 0.0
0.0 0.0 0.0 0.0 0.0 0.0 0.0 0.0
0.0 0.0 0.0 0.0 0.0 0.0 0.0 0.0
0.0 0.0 0.0 0.0 0.0 0.0 0.0 0.0
0.0 0.0 0.0 0.0 0.0 0.0 0.0 0.0
0.0 0.0 0.0 0.0 0.0 0.0 0.0 0.0
0.0 0.0 0.0 0.0 0.0 0.0 0.0 0.0
0.0 0.0 0.0 0.0 0.0 0.0 0.0 0.0
0.0 0.0 0.0 0.0 0.0 0.0 0.0 0.0
0.0 0.0 0.0 0.0 0.0 0.0 0.0 0.0
0.0 0.0 0.0 0.0 0.0 0.0 0.0 0.0
0.0 0.0 0.0 0.0 0.0 0.0 0.0 0.0
0.0 0.0 0.0 0.0 0.0 0.0 0.0 0.0
0.0 0.0 0.0 0.0 -0.053588536 0.047634255 0.02977141 0.1309942

fuse_attr_3 i1 [8, 1, 9, 1] scale=0.04273874 zero_point=0
00000000: 140c 1a21 09e7 d4e5 f901 02fb e404 ebe3
00000010: 273a ede8 1106 efea 09dc d23a 20ff fff4
00000020: 020c 0105 c9e2 050b 1c12 f202 f5e2 fb10
00000030: 06da 0b39 fed2 f9e1 20f1 ba48 02c0 3e03
00000040: 00f1 f70f 1502 1e31
0.8547748 0.5128649 1.1112072 1.4103785 0.38464865 -1.0684685 -1.8805045 -1.1539459
-0.29917118 0.04273874 0.08547748 -0.2136937 -1.1966847 0.17095496 -0.8975135 -1.2394234
1.6668109 2.4788468 -0.81203604 -1.0257298 0.72655857 0.25643244 -0.72655857 -0.94025224
0.38464865 -1.5385946 -1.965982 2.4788468 1.3676397 -0.04273874 -0.04273874 -0.5128649
0.08547748 0.5128649 0.04273874 0.2136937 -2.3506308 -1.2821622 0.2136937 0.47012612
1.1966847 0.7692973 -0.59834236 0.08547748 -0.47012612 -1.2821622 -0.2136937 0.68381983
0.25643244 -1.6240721 0.47012612 2.436108 -0.08547748 -1.965982 -0.29917118 -1.3249009
1.3676397 -0.6410811 -2.9917119 3.0771892 0.08547748 -2.7352793 2.6498017 0.12821622
0.0 -0.6410811 -0.38464865 0.6410811 0.8975135 0.08547748 1.2821622 2.0941982

fuse_attr_14 i1 [4, 1, 1, 32] scale=0.011050425 zero_point=0
00000000: 01c5 4300 3fff 0d00 001e 10c7 0017 0600
00000010: ff36 0100 2f0a 0510 0005 20c3 ffff 0ec4
00000020: 001e eeff 0300 c300 0113 f10f 012f 1206
00000030: 0001 0001 28be 1629 010e ca0c 0100 240c
00000040: 0105 f200 e401 22ff ff1d 2a12 00e9 431f
00000050: 00ef ffff 3713 bac4 ff26 1610 00ff ff11
00000060: 0006 0e00 fd00 0aff 00d0 2c05 0127 f0c8
00000070: ffda ff00 d70d 1624 00c2 0a0c fcff c407
0.011050425 -0.65197504 0.74037844 0.0 0.69617677 -0.011050425 0.14365552 0.0
0.0 0.33151275 0.1768068 -0.62987417 0.0 0.25415978 0.066302545 0.0
-0.011050425 0.5967229 0.011050425 0.0 0.51936996 0.11050425 0.055252124 0.1768068
0.0 0.055252124 0.3536136 -0.6740759 -0.011050425 -0.011050425 0.15470594 -0.6630255
0.0 0.33151275 -0.19890764 -0.011050425 0.033151273 0.0 -0.6740759 0.0
0.011050425 0.20995806 -0.16575637 0.16575637 0.011050425 0.51936996 0.19890764 0.066302545
0.0 0.011050425 0.0 0.011050425 0.442017 -0.72932804 0.24310935 0.4530674
0.011050425 0.15470594 -0.5967229 0.13260509 0.011050425 0.0 0.3978153 0.13260509
0.011050425 0.055252124 -0.15470594 0.0 -0.30941188 0.011050425 0.37571442 -0.011050425
-0.011050425 0.32046232 0.46411783 0.19890764 0.0 -0.25415978 0.74037844 0.34256315
0.0 -0.18785721 -0.011050425 -0.011050425 0.60777336 0.20995806 -0.7735297 -0.6630255
-0.011050425 0.41991612 0.24310935 0.1768068 0.0 -0.011050425 -0.011050425 0.18785721
0.0 0.066302545 0.15470594 0.0 -0.033151273 0.0 0.11050425 -0.011050425
0.0 -0.53042036 0.4862187 0.055252124 0.011050425 0.43096656 -0.1768068 -0.61882377
-0.011050425 -0.41991612 -0.011050425 0.0 -0.4530674 0.14365552 0.24310935 0.3978153
0.0 -0.6851263 0.11050425 0.13260509 -0.0442017 -0.011050425 -0.6630255 0.07735297
