trained_models/step_6_QAT_and_Convert2TFLite/final_qat_model_lr0.03_testacc89.3_202405062253/qat_model_valacc92.7_tracc_82.9_prunInfo_0.8_0.85_ds_ver4home_20240506225525.tflite (tflite, 79672 bytes, 13 tensors)

fuse_attr_9 i1 [27, 3, 3, 18] scale=0.0036132 zero_point=0
000000 f3 e0 de fe fb ef 1f cf ee f0 fb 00 e9 29 fe 3a
       -0.0469716 -0.1156224 -0.1228488 -0.0072264 -0.018066 -0.0614244 0.1120092 -0.1770468 -0.0650376 -0.0578112 -0.018066 0.0 -0.0831036 0.1481412 -0.0072264 0.20956561
000010 f6 f7 00 06 f3 05 fb e2 29 e1 f9 f0 f1 04 d4 0e
       -0.036132 -0.0325188 0.0 0.0216792 -0.0469716 0.018066 -0.018066 -0.108396 0.1481412 -0.1120092 -0.0252924 -0.0578112 -0.054198 0.0144528 -0.1589808 0.0505848
000020 f2 17 fa fa 10 13 ff f7 fe f1 27 d4 f5 f1 f6 00
       -0.0505848 0.0831036 -0.0216792 -0.0216792 0.0578112 0.0686508 -0.0036132 -0.0325188 -0.0072264 -0.054198 0.1409148 -0.1589808 -0.0397452 -0.054198 -0.036132 0.0
000030 dd e9 ec 0d fb fc e5 fd 00 fd f6 e0 08 26 f9 02
       -0.126462 -0.0831036 -0.072264 0.0469716 -0.018066 -0.0144528 -0.0975564 -0.0108396 0.0 -0.0108396 -0.036132 -0.1156224 0.0289056 0.1373016 -0.0252924 0.0072264
000040 14 0a fe 0e 0c ef 1f 11 f4 ee 0e 03 f0 09 db 4c
       0.072264 0.036132 -0.0072264 0.0505848 0.0433584 -0.0614244 0.1120092 0.0614244 -0.0433584 -0.0650376 0.0505848 0.0108396 -0.0578112 0.0325188 -0.1336884 0.2746032
000050 ee 02 0b 06 08 02 12 fd fb 09 f1 ec 09 fc f2 1e
       -0.0650376 0.0072264 0.0397452 0.0216792 0.0289056 0.0072264 0.0650376 -0.0108396 -0.018066 0.0325188 -0.054198 -0.072264 0.0325188 -0.0144528 -0.0505848 0.108396
000060 d6 35 ef fc f3 e4 24 da 10 07 e2 02 fa 07 e0 ef
       -0.15175441 0.1914996 -0.0614244 -0.0144528 -0.0469716 -0.1011696 0.1300752 -0.1373016 0.0578112 0.0252924 -0.108396 0.0072264 -0.0216792 0.0252924 -0.1156224 -0.0614244
000070 f8 03 ff f9 fb 01 f7 e4 06 f4 02 e6 ff 0d 02 01
       -0.0289056 0.0108396 -0.0036132 -0.0252924 -0.018066 0.0036132 -0.0325188 -0.1011696 0.0216792 -0.0433584 0.0072264 -0.0939432 -0.0036132 0.0469716 0.0072264 0.0036132
000080 ff 04 f4 04 f1 f6 03 21 f9 f5 f5 e3 ea ed 0e 05
       -0.0036132 0.0144528 -0.0433584 0.0144528 -0.054198 -0.036132 0.0108396 0.119235605 -0.0252924 -0.0397452 -0.0397452 -0.104782805 -0.0794904 -0.0686508 0.0505848 0.018066
000090 fe 0a 00 fa 01 11 01 e8 06 08 f4 ef f6 dd df ff
       -0.0072264 0.036132 0.0 -0.0216792 0.0036132 0.0614244 0.0036132 -0.0867168 0.0216792 0.0289056 -0.0433584 -0.0614244 -0.036132 -0.126462 -0.119235605 -0.0036132
0000a0 ef f1 ee ed fc fa fd f7 f0 06 ff fa 08 01 ee f9
       -0.0614244 -0.054198 -0.0650376 -0.0686508 -0.0144528 -0.0216792 -0.0108396 -0.0325188 -0.0578112 0.0216792 -0.0036132 -0.0216792 0.0289056 0.0036132 -0.0650376 -0.0252924
0000b0 ff f9 10 01 f8 ed fd ef f8 f3 f7 ff fb fb 06 01
       -0.0036132 -0.0252924 0.0578112 0.0036132 -0.0289056 -0.0686508 -0.0108396 -0.0614244 -0.0289056 -0.0469716 -0.0325188 -0.0036132 -0.018066 -0.018066 0.0216792 0.0036132
0000c0 f0 f2 ff fa 0a ef f3 f6 f9 ec f5 10 fa fb fd f8
       -0.0578112 -0.0505848 -0.0036132 -0.0216792 0.036132 -0.0614244 -0.0469716 -0.036132 -0.0252924 -0.072264 -0.0397452 0.0578112 -0.0216792 -0.018066 -0.0108396 -0.0289056
0000d0 05 fe 02 06 03 eb ff ef e5 ff f4 fc fc e0 0f 09
       0.018066 -0.0072264 0.0072264 0.0216792 0.0108396 -0.075877205 -0.0036132 -0.0614244 -0.0975564 -0.0036132 -0.0433584 -0.0144528 -0.0144528 -0.1156224 0.054198 0.0325188
0000e0 f8 fb f7 fb f6 f1 f7 01 f7 07 e9 06 fc f3 01 f8
       -0.0289056 -0.018066 -0.0325188 -0.018066 -0.036132 -0.054198 -0.0325188 0.0036132 -0.0325188 0.0252924 -0.0831036 0.0216792 -0.0144528 -0.0469716 0.0036132 -0.0289056
0000f0 00 0b fa fd f6 f8 f9 dc fc fa fd 05 e0 fb fa ef
       0.0 0.0397452 -0.0216792 -0.0108396 -0.036132 -0.0289056 -0.0252924 -0.1300752 -0.0144528 -0.0216792 -0.0108396 0.018066 -0.1156224 -0.018066 -0.0216792 -0.0614244

fuse_attr_12 i1 [41, 3, 3, 34] scale=0.008431192 zero_point=0
000000 00 fa 00 fd fe 01 01 09 ff 0d fc 01 fe 01 05 01
       0.0 -0.050587147 0.0 -0.025293574 -0.016862383 0.008431192 0.008431192 0.07588072 -0.008431192 0.10960549 -0.033724766 0.008431192 -0.016862383 0.008431192 0.04215596 0.008431192
000010 02 f8 00 f6 f1 fe fd 0b 04 01 0c fa 01 f6 fe 02
       0.016862383 -0.06744953 0.0 -0.08431192 -0.12646787 -0.016862383 -0.025293574 0.092743106 0.033724766 0.008431192 0.101174295 -0.050587147 0.008431192 -0.08431192 -0.016862383 0.016862383
000020 fe fa 01 fb 01 fc fe ff 01 ff 02 ff fb 01 fe 00
       -0.016862383 -0.050587147 0.008431192 -0.04215596 0.008431192 -0.033724766 -0.016862383 -0.008431192 0.008431192 -0.008431192 0.016862383 -0.008431192 -0.04215596 0.008431192 -0.016862383 0.0
000030 04 f7 00 f6 01 00 ec fd fa 08 00 ff 09 00 01 ff
       0.033724766 -0.07588072 0.0 -0.08431192 0.008431192 0.0 -0.16862383 -0.025293574 -0.050587147 0.06744953 0.0 -0.008431192 0.07588072 0.0 0.008431192 -0.008431192
000040 fd 01 02 fa 01 fd 00 fe ff 01 fc ff 01 ff fc 02
       -0.025293574 0.008431192 0.016862383 -0.050587147 0.008431192 -0.025293574 0.0 -0.016862383 -0.008431192 0.008431192 -0.033724766 -0.008431192 0.008431192 -0.008431192 -0.033724766 0.016862383
000050 01 01 02 00 fe fb 02 ff 00 fd 04 00 01 00 00 01
       0.008431192 0.008431192 0.016862383 0.0 -0.016862383 -0.04215596 0.016862383 -0.008431192 0.0 -0.025293574 0.033724766 0.0 0.008431192 0.0 0.0 0.008431192
000060 03 ff fd 02 01 ff ff 02 06 fa 03 01 f6 fe fb 01
       0.025293574 -0.008431192 -0.025293574 0.016862383 0.008431192 -0.008431192 -0.008431192 0.016862383 0.050587147 -0.050587147 0.025293574 0.008431192 -0.08431192 -0.016862383 -0.04215596 0.008431192
000070 ff 05 06 03 14 04 00 fa 0a f6 02 01 f5 16 02 0a
       -0.008431192 0.04215596 0.050587147 0.025293574 0.16862383 0.033724766 0.0 -0.050587147 0.08431192 -0.08431192 0.016862383 0.008431192 -0.092743106 0.18548621 0.016862383 0.08431192
000080 02 00 f8 fd 02 08 00 00 01 01 09 fb 03 fd f7 00
       0.016862383 0.0 -0.06744953 -0.025293574 0.016862383 0.06744953 0.0 0.0 0.008431192 0.008431192 0.07588072 -0.04215596 0.025293574 -0.025293574 -0.07588072 0.0
000090 00 01 fc 02 05 02 13 03 01 f6 06 03 02 00 f8 19
       0.0 0.008431192 -0.033724766 0.016862383 0.04215596 0.016862383 0.16019264 0.025293574 0.008431192 -0.08431192 0.050587147 0.025293574 0.016862383 0.0 -0.06744953 0.21077979
0000a0 fe 01 02 01 f6 fc f9 07 02 ff 00 01 05 fa 02 ff
       -0.016862383 0.008431192 0.016862383 0.008431192 -0.08431192 -0.033724766 -0.05901834 0.05901834 0.016862383 -0.008431192 0.0 0.008431192 0.04215596 -0.050587147 0.016862383 -0.008431192
0000b0 fb 00 fe ff f4 04 04 02 16 02 03 fe 02 00 05 03
       -0.04215596 0.0 -0.016862383 -0.008431192 -0.101174295 0.033724766 0.033724766 0.016862383 0.18548621 0.016862383 0.025293574 -0.016862383 0.016862383 0.0 0.04215596 0.025293574
0000c0 f4 18 01 00 02 01 f9 fc 00 0a 00 ff fb f7 f8 01
       -0.101174295 0.20234859 0.008431192 0.0 0.016862383 0.008431192 -0.05901834 -0.033724766 0.0 0.08431192 0.0 -0.008431192 -0.04215596 -0.07588072 -0.06744953 0.008431192
0000d0 02 00 0f fd 01 f2 04 04 f4 00 02 01 03 ff fe fd
       0.016862383 0.0 0.12646787 -0.025293574 0.008431192 -0.11803668 0.033724766 0.033724766 -0.101174295 0.0 0.016862383 0.008431192 0.025293574 -0.008431192 -0.016862383 -0.025293574
0000e0 01 f9 01 03 f9 0e ff 00 01 fe 02 f4 00 fb fc fb
       0.008431192 -0.05901834 0.008431192 0.025293574 -0.05901834 0.11803668 -0.008431192 0.0 0.008431192 -0.016862383 0.016862383 -0.101174295 0.0 -0.04215596 -0.033724766 -0.04215596
0000f0 f8 fd 01 00 0d fe 02 f3 09 00 f2 01 00 01 01 02
       -0.06744953 -0.025293574 0.008431192 0.0 0.10960549 -0.016862383 0.016862383 -0.10960549 0.07588072 0.0 -0.11803668 0.008431192 0.0 0.008431192 0.008431192 0.016862383

fuse_attr_14 i1 [3, 1, 1, 72] scale=0.0072126454 zero_point=0
000000 ce 20 e1 c0 e5 f2 27 b8 d8 09 92 da 06 ec 09 d1
       -0.36063227 0.23080465 -0.22359201 -0.4616093 -0.19474143 -0.10097703 0.28129318 -0.5193105 -0.28850582 0.06491381 -0.793391 -0.27408051 0.04327587 -0.14425291 0.06491381 -0.33899432
000010 25 12 2f d8 81 5e c5 05 d7 dc 23 0f c5 2d d7 0c
       0.26686788 0.12982762 0.33899432 -0.28850582 -0.91600597 0.67798865 -0.42554608 0.036063228 -0.29571846 -0.25965524 0.2524426 0.10818968 -0.42554608 0.32456905 -0.29571846 0.08655174
000020 3f ba 38 b7 07 ee 12 22 36 0a cd f4 d0 ff 0d d3
       0.45439667 -0.5048852 0.40390813 -0.5265231 0.050488517 -0.12982762 0.12982762 0.24522994 0.38948286 0.072126456 -0.3678449 -0.08655174 -0.34620696 -0.0072126454 0.09376439 -0.32456905
000030 c3 f8 d3 d5 13 b0 d5 e8 0c ed 22 2b 33 3c 0f 1c
       -0.43997136 -0.057701163 -0.32456905 -0.31014374 0.13704026 -0.57701164 -0.31014374 -0.17310348 0.08655174 -0.13704026 0.24522994 0.31014374 0.3678449 0.43275872 0.10818968 0.20195407
000040 d5 d0 0b c1 1b 03 f1 28 16 f7 cf ae 1f 1d c2 b3
       -0.31014374 -0.34620696 0.0793391 -0.45439667 0.19474143 0.021637935 -0.10818968 0.28850582 0.1586782 -0.06491381 -0.35341963 -0.5914369 0.22359201 0.20916672 -0.44718403 -0.55537367
000050 be d9 ba 23 19 cf eb cf db f8 f9 cf d1 08 09 0f
       -0.47603458 -0.28129318 -0.5048852 0.2524426 0.18031614 -0.35341963 -0.15146555 -0.35341963 -0.26686788 -0.057701163 -0.050488517 -0.35341963 -0.33899432 0.057701163 0.06491381 0.10818968
000060 25 06 dc 0d 23 e4 20 10 f7 f6 dd aa d7 ba e4 1f
       0.26686788 0.04327587 -0.25965524 0.09376439 0.2524426 -0.20195407 0.23080465 0.115402326 -0.06491381 -0.072126456 -0.2524426 -0.6202875 -0.29571846 -0.5048852 -0.20195407 0.22359201
000070 18 fe b8 0b de 11 f1 0d 19 20 c3 17 11 e5 ec 04
       0.17310348 -0.014425291 -0.5193105 0.0793391 -0.24522994 0.12261497 -0.10818968 0.09376439 0.18031614 0.23080465 -0.43997136 0.16589084 0.12261497 -0.19474143 -0.14425291 0.028850581
000080 ea d1 fd d1 d4 24 14 ed d5 d1 ce f9 cb ca f9 fa
       -0.1586782 -0.33899432 -0.021637935 -0.33899432 -0.3173564 0.25965524 0.14425291 -0.13704026 -0.31014374 -0.33899432 -0.36063227 -0.050488517 -0.38227022 -0.38948286 -0.050488517 -0.04327587
000090 43 da e7 ce f4 c1 bc b4 f4 0e cd 04 e8 0f 10 ff
       0.48324725 -0.27408051 -0.18031614 -0.36063227 -0.08655174 -0.45439667 -0.4904599 -0.54816103 -0.08655174 0.10097703 -0.3678449 0.028850581 -0.17310348 0.10818968 0.115402326 -0.0072126454
0000a0 1f 06 27 3b 0a ed e3 1c d1 dd 14 e0 c8 bc 0a 30
       0.22359201 0.04327587 0.28129318 0.42554608 0.072126456 -0.13704026 -0.20916672 0.20195407 -0.33899432 -0.2524426 0.14425291 -0.23080465 -0.40390813 -0.4904599 0.072126456 0.34620696
0000b0 f0 eb 29 a2 f8 e6 b3 06 02 18 a4 1c 59 ee 34 fa
       -0.115402326 -0.15146555 0.29571846 -0.67798865 -0.057701163 -0.18752877 -0.55537367 0.04327587 0.014425291 0.17310348 -0.6635634 0.20195407 0.64192545 -0.12982762 0.37505755 -0.04327587
0000c0 1c 00 03 cf df a7 c4 ef 18 a0 22 f6 e5 2c df 27
       0.20195407 0.0 0.021637935 -0.35341963 -0.23801729 -0.64192545 -0.43275872 -0.12261497 0.17310348 -0.6924139 0.24522994 -0.072126456 -0.19474143 0.3173564 -0.23801729 0.28129318
0000d0 44 b5 0b ed d6 10 26 09
       0.4904599 -0.5409484 0.0793391 -0.13704026 -0.3029311 0.115402326 0.27408051 0.06491381

fuse_attr_7 i1 [17, 3, 3, 8] scale=0.0049961465 zero_point=0
000000 fb f3 fe 01 04 ee 07 fe fb 04 f4 0e 03 fa 01 fc
       -0.024980733 -0.06494991 -0.009992293 0.0049961465 0.019984586 -0.08993064 0.034973025 -0.009992293 -0.024980733 0.019984586 -0.059953757 0.06994605 0.014988439 -0.029976878 0.0049961465 -0.019984586
000010 fb e0 f7 00 08 fe fc fa 00 e8 0b fb 02 01 1a 00
       -0.024980733 -0.15987669 -0.04496532 0.0 0.039969172 -0.009992293 -0.019984586 -0.029976878 0.0 -0.11990751 0.054957613 -0.024980733 0.009992293 0.0049961465 0.12989981 0.0
000020 ff ec 0a 08 06 09 16 fd fe d7 04 ef 10 06 08 f9
       -0.0049961465 -0.09992293 0.049961466 0.039969172 0.029976878 0.04496532 0.10991523 -0.014988439 -0.009992293 -0.204842 0.019984586 -0.08493449 0.079938345 0.029976878 0.039969172 -0.034973025
000030 05 dc fe 1b 02 fe 28 13 04 e7 03 21 04 04 28 0d
       0.024980733 -0.17986128 -0.009992293 0.13489595 0.009992293 -0.009992293 0.19984587 0.09492678 0.019984586 -0.124903664 0.014988439 0.16487284 0.019984586 0.019984586 0.19984587 0.06494991
000040 03 d6 03 01 0a fd 1f 08 02 f4 0a f2 0b 1c f8 f9
       0.014988439 -0.20983815 0.014988439 0.0049961465 0.049961466 -0.014988439 0.15488054 0.039969172 0.009992293 -0.059953757 0.049961466 -0.06994605 0.054957613 0.1398921 -0.039969172 -0.034973025
000050 00 fd 09 e9 04 07 f6 f7 00 02 05 02 fb f3 ea f4
       0.0 -0.014988439 0.04496532 -0.11491137 0.019984586 0.034973025 -0.049961466 -0.04496532 0.0 0.009992293 0.024980733 0.009992293 -0.024980733 -0.06494991 -0.10991523 -0.059953757
000060 01 ea f9 f8 f5 f7 ff f7 01 d8 ef 05 f0 d4 f9 f4
       0.0049961465 -0.10991523 -0.034973025 -0.039969172 -0.054957613 -0.04496532 -0.0049961465 -0.04496532 0.0049961465 -0.19984587 -0.08493449 0.024980733 -0.079938345 -0.21983045 -0.034973025 -0.059953757
000070 f8 07 ff 08 e7 c0 f0 f5 f9 dd 09 f3 f4 0a 0d fd
       -0.039969172 0.034973025 -0.0049961465 0.039969172 -0.124903664 -0.31975338 -0.079938345 -0.054957613 -0.034973025 -0.17486513 0.04496532 -0.06494991 -0.059953757 0.049961466 0.06494991 -0.014988439
000080 ff d9 f5 d9 f4 ea 06 fa ff e4 ee d9 eb da f7 f8
       -0.0049961465 -0.19484971 -0.054957613 -0.19484971 -0.059953757 -0.10991523 0.029976878 -0.029976878 -0.0049961465 -0.1398921 -0.08993064 -0.19484971 -0.104919076 -0.18985356 -0.04496532 -0.039969172
000090 ff 1a f8 ff f5 ec fd 05 02 16 f8 f0 f8 ed fd 06
       -0.0049961465 0.12989981 -0.039969172 -0.0049961465 -0.054957613 -0.09992293 -0.014988439 0.024980733 0.009992293 0.10991523 -0.039969172 -0.079938345 -0.039969172 -0.09492678 -0.014988439 0.029976878
0000a0 06 19 f6 fa f6 eb ff 08 01 00 fc f0 03 fc fc fd
       0.029976878 0.124903664 -0.049961466 -0.029976878 -0.049961466 -0.104919076 -0.0049961465 0.039969172 0.0049961465 0.0 -0.019984586 -0.079938345 0.014988439 -0.019984586 -0.019984586 -0.014988439
0000b0 00 0a fc e4 08 fd f7 fd 05 0c f8 e8 03 03 fd fd
       0.0 0.049961466 -0.019984586 -0.1398921 0.039969172 -0.014988439 -0.04496532 -0.014988439 0.024980733 0.059953757 -0.039969172 -0.11990751 0.014988439 0.014988439 -0.014988439 -0.014988439
0000c0 fe e9 03 fa 0d 02 fe fc 00 eb fe ed 14 fc f7 fd
       -0.009992293 -0.11491137 0.014988439 -0.029976878 0.06494991 0.009992293 -0.009992293 -0.019984586 0.0 -0.104919076 -0.009992293 -0.09492678 0.09992293 -0.019984586 -0.04496532 -0.014988439
0000d0 fe f9 f9 f8 11 00 f7 fe ff 1b f3 fa 25 e8 f3 fd
       -0.009992293 -0.034973025 -0.034973025 -0.039969172 0.08493449 0.0 -0.04496532 -0.009992293 -0.0049961465 0.13489595 -0.06494991 -0.029976878 0.18485743 -0.11990751 -0.06494991 -0.014988439
0000e0 00 1e e1 f6 24 0e ef fb 01 22 f6 f6 23 20 ee fd
       0.0 0.1498844 -0.15488054 -0.049961466 0.17986128 0.06994605 -0.08493449 -0.024980733 0.0049961465 0.16986898 -0.049961466 -0.049961466 0.17486513 0.15987669 -0.08993064 -0.014988439
0000f0 fd 19 f4 ed 32 f8 f4 fb f1 14 e7 f1 28 1a f0 f9
       -0.014988439 0.124903664 -0.059953757 -0.09492678 0.24980733 -0.039969172 -0.059953757 -0.024980733 -0.0749422 0.09992293 -0.124903664 -0.0749422 0.19984587 0.12989981 -0.079938345 -0.034973025

fuse_attr_5 i1 [10, 3, 3, 1] scale=0.01117002 zero_point=0
000000 7f ad c9 00 ed 08 ff f6 ff 00 00 00 ff ff ff ff
       1.4185926 -0.9271117 -0.6143511 0.0 -0.21223038 0.08936016 -0.01117002 -0.11170021 -0.01117002 0.0 0.0 0.0 -0.01117002 -0.01117002 -0.01117002 -0.01117002
000010 00 ff 22 15 da 17 13 db 08 0a ee 00 00 00 00 00
       0.0 -0.01117002 0.37978068 0.23457043 -0.42446077 0.25691047 0.21223038 -0.41329074 0.08936016 0.11170021 -0.20106037 0.0 0.0 0.0 0.0 0.0
000020 00 00 00 00 13 e3 d8 29 e9 d7 28 f3 e5 00 03 01
       0.0 0.0 0.0 0.0 0.21223038 -0.3239306 -0.44680083 0.45797083 -0.25691047 -0.45797083 0.44680083 -0.14521027 -0.30159056 0.0 0.03351006 0.01117002
000030 fd ff fe fe ff fe ff 01 00 fe ff fe ff ff ff 07
       -0.03351006 -0.01117002 -0.02234004 -0.02234004 -0.01117002 -0.02234004 -0.01117002 0.01117002 0.0 -0.02234004 -0.01117002 -0.02234004 -0.01117002 -0.01117002 -0.01117002 0.07819014
000040 0b 06 05 0b 02 f0 f5 f6 0d 07 05 f0 e8 dd dd b6
       0.12287022 0.06702012 0.055850103 0.12287022 0.02234004 -0.17872033 -0.12287022 -0.11170021 0.14521027 0.07819014 0.055850103 -0.17872033 -0.26808047 -0.3909507 -0.3909507 -0.8265815
000050 51 19 fd df 12 00 e5 e5 01 04
       0.9047716 0.2792505 -0.03351006 -0.36861068 0.20106037 0.0 -0.30159056 -0.30159056 0.01117002 0.04468008

fuse_attr_10 i1 [39, 3, 3, 27] scale=0.0039206683 zero_point=0
000000 f9 00 fc fe fe f5 f8 fe 0c f0 fc fe fd db f9 f9
       -0.027444677 0.0 -0.015682673 -0.007841337 -0.007841337 -0.04312735 -0.031365346 -0.007841337 0.047048017 -0.06273069 -0.015682673 -0.007841337 -0.011762004 -0.14506473 -0.027444677 -0.027444677
000010 02 26 fa fb ec 02 03 f7 f9 fc fc f1 fc eb fd f1
       0.007841337 0.1489854 -0.023524009 -0.019603342 -0.07841337 0.007841337 0.011762004 -0.035286013 -0.027444677 -0.015682673 -0.015682673 -0.058810025 -0.015682673 -0.082334034 -0.011762004 -0.058810025
000020 f2 fa fb 14 f3 fb 0b fa ef fa fa fa 0a fb 01 ec
       -0.054889355 -0.023524009 -0.019603342 0.07841337 -0.050968688 -0.019603342 0.04312735 -0.023524009 -0.06665136 -0.023524009 -0.023524009 -0.023524009 0.039206684 -0.019603342 0.0039206683 -0.07841337
000030 fe ea f2 18 07 fb f2 fe 0a fa 00 e3 f1 04 fb f9
       -0.007841337 -0.0862547 -0.054889355 0.094096035 0.027444677 -0.019603342 -0.054889355 -0.007841337 0.039206684 -0.023524009 0.0 -0.11369938 -0.058810025 0.015682673 -0.019603342 -0.027444677
000040 fa 05 fb dd fd 0c fe f5 07 fe f3 fc 00 f2 17 04
       -0.023524009 0.019603342 -0.019603342 -0.1372234 -0.011762004 0.047048017 -0.007841337 -0.04312735 0.027444677 -0.007841337 -0.050968688 -0.015682673 0.0 -0.054889355 0.09017537 0.015682673
000050 f5 fc 08 f9 08 04 f9 e6 08 07 f3 01 06 01 19 ff
       -0.04312735 -0.015682673 0.031365346 -0.027444677 0.031365346 0.015682673 -0.027444677 -0.101937376 0.031365346 0.027444677 -0.050968688 0.0039206683 0.023524009 0.0039206683 0.09801671 -0.0039206683
000060 ea 04 fc dc e7 ed 15 e1 11 03 f8 f5 fd 08 e8 0f
       -0.0862547 0.015682673 -0.015682673 -0.14114405 -0.09801671 -0.0744927 0.082334034 -0.12154072 0.06665136 0.011762004 -0.031365346 -0.04312735 -0.011762004 0.031365346 -0.094096035 0.058810025
000070 1f f2 f9 fb f5 f9 07 05 fd 03 16 f5 f7 ef 02 0f
       0.12154072 -0.054889355 -0.027444677 -0.019603342 -0.04312735 -0.027444677 0.027444677 0.019603342 -0.011762004 0.011762004 0.0862547 -0.04312735 -0.035286013 -0.06665136 0.007841337 0.058810025
000080 f1 02 dd ff 18 0a 11 e8 09 04 0b 0f fa ed fb eb
       -0.058810025 0.007841337 -0.1372234 -0.0039206683 0.094096035 0.039206684 0.06665136 -0.094096035 0.035286013 0.015682673 0.04312735 0.058810025 -0.023524009 -0.0744927 -0.019603342 -0.082334034
000090 03 02 01 fb f5 0a 1b e3 f8 01 0b fb ff fd f4 18
       0.011762004 0.007841337 0.0039206683 -0.019603342 -0.04312735 0.039206684 0.10585804 -0.11369938 -0.031365346 0.0039206683 0.04312735 -0.019603342 -0.0039206683 -0.011762004 -0.047048017 0.094096035
0000a0 11 10 fd f5 fa ee fe 0f ea 03 ff f5 08 0b 09 09
       0.06665136 0.06273069 -0.011762004 -0.04312735 -0.023524009 -0.070572026 -0.007841337 0.058810025 -0.0862547 0.011762004 -0.0039206683 -0.04312735 0.031365346 0.04312735 0.035286013 0.035286013
0000b0 02 f5 f4 f8 e5 e5 0a 06 06 14 fb 01 df 0b fc f4
       0.007841337 -0.04312735 -0.047048017 -0.031365346 -0.10585804 -0.10585804 0.039206684 0.023524009 0.023524009 0.07841337 -0.019603342 0.0039206683 -0.12938206 0.04312735 -0.015682673 -0.047048017
0000c0 f5 1d 08 f9 fc 00 00 ff 0b f7 09 ff 01 fb 01 f2
       -0.04312735 0.11369938 0.031365346 -0.027444677 -0.015682673 0.0 0.0 -0.0039206683 0.04312735 -0.035286013 0.035286013 -0.0039206683 0.0039206683 -0.019603342 0.0039206683 -0.054889355
0000d0 03 fd 00 fa f7 fb 06 e1 0b 01 01 e7 0d 0e ef ff
       0.011762004 -0.011762004 0.0 -0.023524009 -0.035286013 -0.019603342 0.023524009 -0.12154072 0.04312735 0.0039206683 0.0039206683 -0.09801671 0.050968688 0.054889355 -0.06665136 -0.0039206683
0000e0 fc 01 ff 10 eb 03 03 06 f0 f2 e1 08 f8 ff e6 03
       -0.015682673 0.0039206683 -0.0039206683 0.06273069 -0.082334034 0.011762004 0.011762004 0.023524009 -0.06273069 -0.054889355 -0.12154072 0.031365346 -0.031365346 -0.0039206683 -0.101937376 0.011762004
0000f0 00 0c f0 e5 01 f7 04 ff f1 f3 f8 f6 01 fd 00 f3
       0.0 0.047048017 -0.06273069 -0.10585804 0.0039206683 -0.035286013 0.015682673 -0.0039206683 -0.058810025 -0.050968688 -0.031365346 -0.039206684 0.0039206683 -0.011762004 0.0 -0.050968688

fuse_attr_3 i1 [5, 1, 9, 1] scale=0.02602678 zero_point=0
000000 29 21 f8 78 de bd c8 df 14 42 08 01 fd 07 fc 0f
       1.067098 0.85888374 -0.20821424 3.1232135 -0.8849105 -1.7437942 -1.4574996 -0.85888374 0.5205356 1.7177675 0.20821424 0.02602678 -0.07808034 0.18218745 -0.10410712 0.3904017
000010 25 ed 17 1c d2 02 f3 f5 45 a8 aa f8 f1 d9 26 98
       0.9629909 -0.4945088 0.59861594 0.7287498 -1.1972319 0.05205356 -0.33834815 -0.28629458 1.7958478 -2.2903566 -2.238303 -0.20821424 -0.3904017 -1.0150445 0.9890176 -2.7067852
000020 4c f7 93 7f e9 f3 fc 0e f8 0e de 2b 6b
       1.9780352 -0.23424102 -2.836919 3.305401 -0.59861594 -0.33834815 -0.10410712 0.3643749 -0.20821424 0.3643749 -0.8849105 1.1191515 2.7848654

Xq.1_attr i1 [3, 3] scale=0.014980828 zero_point=0
000000 2f 30 82 84 38 43 3d 92 3e
       0.70409894 0.71907973 -1.8875843 -1.8576227 0.8389264 1.0037155 0.9138305 -1.6478912 0.9288114

fuse_attr_6 i1 [8, 3, 3, 10] scale=0.0030662264 zero_point=0
000000 f5 fe 00 fe f8 fd fd 0b f3 fb f3 fe ff fd f8 fd
       -0.03372849 -0.0061324527 0.0 -0.0061324527 -0.024529811 -0.009198679 -0.009198679 0.03372849 -0.03986094 -0.015331132 -0.03986094 -0.0061324527 -0.0030662264 -0.009198679 -0.024529811 -0.009198679
000010 fd 05 fd fc f4 fe f7 fd f6 fd fd 00 fb f6 e9 ff
       -0.009198679 0.015331132 -0.009198679 -0.0122649055 -0.036794715 -0.0061324527 -0.027596038 -0.009198679 -0.030662265 -0.009198679 -0.009198679 0.0 -0.015331132 -0.030662265 -0.07052321 -0.0030662264
000020 fe ff fb fe fe 0a ea f9 f3 ff fc ff fb fe fe 0f
       -0.0061324527 -0.0030662264 -0.015331132 -0.0061324527 -0.0061324527 0.030662265 -0.06745698 -0.021463584 -0.03986094 -0.0030662264 -0.0122649055 -0.0030662264 -0.015331132 -0.0061324527 -0.0061324527 0.045993395
000030 f5 fb f4 ff f5 ff 08 fe fe fd fb fa f5 ff f2 fe
       -0.03372849 -0.015331132 -0.036794715 -0.0030662264 -0.03372849 -0.0030662264 0.024529811 -0.0061324527 -0.0061324527 -0.009198679 -0.015331132 -0.018397357 -0.03372849 -0.0030662264 -0.04292717 -0.0061324527
000040 fe fe fd 01 f2 fa f7 fe f5 fe fd fe fd 02 f7 fe
       -0.0061324527 -0.0061324527 -0.009198679 0.0030662264 -0.04292717 -0.018397357 -0.027596038 -0.0061324527 -0.03372849 -0.0061324527 -0.009198679 -0.0061324527 -0.009198679 0.0061324527 -0.027596038 -0.0061324527
000050 fd fe f8 fe 04 fe fd 01 fc fe 33 ff ce fe 1c fd
       -0.009198679 -0.0061324527 -0.024529811 -0.0061324527 0.0122649055 -0.0061324527 -0.009198679 0.0030662264 -0.0122649055 -0.0061324527 0.15637754 -0.0030662264 -0.15331131 -0.0061324527 0.08585434 -0.009198679
000060 fd 19 5e 2a 1b 00 fd 01 f5 fe ff 31 30 e9 4d 01
       -0.009198679 0.076655656 0.2882253 0.12878151 0.08278811 0.0 -0.009198679 0.0030662264 -0.03372849 -0.0061324527 -0.0030662264 0.15024509 0.14717886 -0.07052321 0.23609944 0.0030662264
000070 6d 03 96 ff 00 4c e4 f7 d2 ff a7 fe 56 fe ff 82
       0.33421868 0.009198679 -0.32502 -0.0030662264 0.0 0.23303321 -0.08585434 -0.027596038 -0.14104642 -0.0030662264 -0.27289414 -0.0061324527 0.26369548 -0.0061324527 -0.0030662264 -0.38634452
000080 47 3b ff 00 a4 01 f5 ff 01 dd 7d fb b2 02 0b 04
       0.21770208 0.18090735 -0.0030662264 0.0 -0.28209284 0.0030662264 -0.03372849 -0.0030662264 0.0030662264 -0.107317924 0.3832783 -0.015331132 -0.23916566 0.0061324527 0.03372849 0.0122649055
000090 8d 00 03 57 e2 a1 c1 fe d1 fd 34 fd fd a3 2d 12
       -0.35261604 0.0 0.009198679 0.2667617 -0.09198679 -0.2912915 -0.19317226 -0.0061324527 -0.14411265 -0.009198679 0.15944377 -0.009198679 -0.009198679 -0.28515905 0.1379802 0.055192076
0000a0 f8 ff d8 fe c0 fd fe cb 41 f3 ed 00 1c 01 99 fd
       -0.024529811 -0.0030662264 -0.12264906 -0.0061324527 -0.19623849 -0.009198679 -0.0061324527 -0.16251 0.19930471 -0.03986094 -0.058258303 0.0 0.08585434 0.0030662264 -0.31582132 -0.009198679
0000b0 00 0a da d0 cd 00 f2 00 06 01 01 ef 4c 0f e3 00
       0.0 0.030662265 -0.116516605 -0.14717886 -0.15637754 0.0 -0.04292717 0.0 0.018397357 0.0030662264 0.0030662264 -0.05212585 0.23303321 0.045993395 -0.08892056 0.0
0000c0 f2 01 e9 01 01 f6 53 06 2d 00 15 00 69 01 01 f9
       -0.04292717 0.0030662264 -0.07052321 0.0030662264 0.0030662264 -0.030662265 0.25449678 0.018397357 0.1379802 0.0 0.064390756 0.0 0.32195377 0.0030662264 0.0030662264 -0.021463584
0000d0 dc 17 d4 00 e0 00 03 02 01 e7 3a fe e5 00 fd 00
       -0.11038415 0.07052321 -0.13491397 0.0 -0.098119244 0.0 0.009198679 0.0061324527 0.0030662264 -0.076655656 0.17784113 -0.0061324527 -0.08278811 0.0 -0.009198679 0.0
0000e0 fc 01 01 f2 17 f5 fb 00 27 00 7c 01 00 e8 a1 0a
       -0.0122649055 0.0030662264 0.0030662264 -0.04292717 0.07052321 -0.03372849 -0.015331132 0.0 0.11958283 0.0 0.38021207 0.0030662264 0.0 -0.07358943 -0.2912915 0.030662265
0000f0 d3 00 c1 00 de 01 01 ff 32 e8 de 00 fc 00 c1 01
       -0.1379802 0.0 -0.19317226 0.0 -0.1042517 0.0030662264 0.0030662264 -0.0030662264 0.15331131 -0.07358943 -0.1042517 0.0 -0.0122649055 0.0 -0.19317226 0.0030662264

fuse_attr_13 i1 [72, 3, 3, 41] scale=0.0056351395 zero_point=0
000000 02 01 5d f4 fe f5 f9 0a 01 f2 03 dc fe 05 f0 0c
       0.011270279 0.0056351395 0.524068 -0.06762168 -0.011270279 -0.061986536 -0.039445978 0.056351393 0.0056351395 -0.078891955 0.01690542 -0.20286502 -0.011270279 0.028175697 -0.09016223 0.06762168
000010 fe 0e fe 0c 0c fd 17 0a fb ea fe fd 02 fa 00 ff
       -0.011270279 0.078891955 -0.011270279 0.06762168 0.06762168 -0.01690542 0.12960821 0.056351393 -0.028175697 -0.12397307 -0.011270279 -0.01690542 0.011270279 -0.03381084 0.0 -0.0056351395
000020 0d f9 03 01 0d f8 04 fe fc ff ff fd ee fd f8 fb
       0.07325681 -0.039445978 0.01690542 0.0056351395 0.07325681 -0.045081116 0.022540558 -0.011270279 -0.022540558 -0.0056351395 -0.0056351395 -0.01690542 -0.10143251 -0.01690542 -0.045081116 -0.028175697
000030 06 01 fc 0b fd fb 01 ef 07 02 35 fc f5 04 ff fb
       0.03381084 0.0056351395 -0.022540558 0.061986536 -0.01690542 -0.028175697 0.0056351395 -0.095797375 0.039445978 0.011270279 0.2986624 -0.022540558 -0.061986536 0.022540558 -0.0056351395 -0.028175697
000040 00 06 f6 f8 fd 01 f7 ff f5 07 f7 fe fc 0b fb 00
       0.0 0.03381084 -0.056351393 -0.045081116 -0.01690542 0.0056351395 -0.050716255 -0.0056351395 -0.061986536 0.039445978 -0.050716255 -0.011270279 -0.022540558 0.061986536 -0.028175697 0.0
000050 ff fc f9 02 b8 db 0a 03 f3 08 09 18 f1 19 fc fc
       -0.0056351395 -0.022540558 -0.039445978 0.011270279 -0.40573004 -0.20850016 0.056351393 0.01690542 -0.07325681 0.045081116 0.050716255 0.13524336 -0.08452709 0.14087848 -0.022540558 -0.022540558
000060 1a ef 03 36 fe e6 04 f7 e1 fa 13 f0 04 ff ff 02
       0.14651363 -0.095797375 0.01690542 0.30429754 -0.011270279 -0.14651363 0.022540558 -0.050716255 -0.17468932 -0.03381084 0.10706765 -0.09016223 0.022540558 -0.0056351395 -0.0056351395 0.011270279
000070 01 f4 06 f4 f7 05 02 15 ff fe fe fe ff 07 ea 04
       0.0056351395 -0.06762168 0.03381084 -0.06762168 -0.050716255 0.028175697 0.011270279 0.11833793 -0.0056351395 -0.011270279 -0.011270279 -0.011270279 -0.0056351395 0.039445978 -0.12397307 0.022540558
000080 fe 04 03 07 fe 0b d9 e0 08 f7 fd f8 ac ff 00 07
       -0.011270279 0.022540558 0.01690542 0.039445978 -0.011270279 0.061986536 -0.21977045 -0.18032447 0.045081116 -0.050716255 -0.01690542 -0.045081116 -0.47335172 -0.0056351395 0.0 0.039445978
000090 0f 0b 05 f0 00 00 00 00 05 01 04 02 bf fa 08 09
       0.08452709 0.061986536 0.028175697 -0.09016223 0.0 0.0 0.0 0.0 0.028175697 0.0056351395 0.022540558 0.011270279 -0.36628407 -0.03381084 0.045081116 0.050716255
0000a0 05 04 06 ff fe 01 0f 01 02 f2 01 01 00 f5 06 f3
       0.028175697 0.022540558 0.03381084 -0.0056351395 -0.011270279 0.0056351395 0.08452709 0.0056351395 0.011270279 -0.078891955 0.0056351395 0.0056351395 0.0 -0.061986536 0.03381084 -0.07325681
0000b0 f9 23 f1 0b ef d2 fc 0d fd 17 01 00 f9 fe 00 fa
       -0.039445978 0.19722988 -0.08452709 0.061986536 -0.095797375 -0.25921643 -0.022540558 0.07325681 -0.01690542 0.12960821 0.0056351395 0.0 -0.039445978 -0.011270279 0.0 -0.03381084
0000c0 fc 00 fb f4 02 f6 f2 00 fe 04 00 f6 f6 fd 0c fe
       -0.022540558 0.0 -0.028175697 -0.06762168 0.011270279 -0.056351393 -0.078891955 0.0 -0.011270279 0.022540558 0.0 -0.056351393 -0.056351393 -0.01690542 0.06762168 -0.011270279
0000d0 ff ff f3 02 fe 03 f1 f5 f2 0a 09 00 06 09 da fb
       -0.0056351395 -0.0056351395 -0.07325681 0.011270279 -0.011270279 0.01690542 -0.08452709 -0.061986536 -0.078891955 0.056351393 0.050716255 0.0 0.03381084 0.050716255 -0.2141353 -0.028175697
0000e0 ff fd 03 f0 ff f8 00 fc f8 03 01 0f fc 03 24 e7
       -0.0056351395 -0.01690542 0.01690542 -0.09016223 -0.0056351395 -0.045081116 0.0 -0.022540558 -0.045081116 0.01690542 0.0056351395 0.08452709 -0.022540558 0.01690542 0.20286502 -0.14087848
0000f0 fd ee 04 fa 0b fd 00 fc 01 03 ff 02 ff 00 01 00
       -0.01690542 -0.10143251 0.022540558 -0.03381084 0.061986536 -0.01690542 0.0 -0.022540558 0.0056351395 0.01690542 -0.0056351395 0.011270279 -0.0056351395 0.0 0.0056351395 0.0

fuse_attr_11 i1 [34, 3, 3, 39] scale=0.005236347 zero_point=0
000000 0f 0d fa 0c 02 01 11 01 ef 0b 09 fd 06 f8 16 fd
       0.078545205 0.06807251 -0.031418085 0.06283617 0.010472694 0.005236347 0.089017905 0.005236347 -0.089017905 0.05759982 0.047127124 -0.015709043 0.031418085 -0.041890778 0.11519964 -0.015709043
000010 f9 0d f9 fa 08 fd fe fe e5 ed 11 09 1a f5 fc fc
       -0.03665443 0.06807251 -0.03665443 -0.031418085 0.041890778 -0.015709043 -0.010472694 -0.010472694 -0.14138137 -0.0994906 0.089017905 0.047127124 0.13614503 -0.05759982 -0.020945389 -0.020945389
000020 00 00 02 07 0d f8 0e f5 f9 fb 0e 03 fe 13 ff 00
       0.0 0.0 0.010472694 0.03665443 0.06807251 -0.041890778 0.07330886 -0.05759982 -0.03665443 -0.026181735 0.07330886 0.015709043 -0.010472694 0.0994906 -0.005236347 0.0
000030 09 03 ef 02 f4 08 f7 fc 0a 03 ed 02 fc fc fe f2
       0.047127124 0.015709043 -0.089017905 0.010472694 -0.06283617 0.041890778 -0.047127124 -0.020945389 0.05236347 0.015709043 -0.0994906 0.010472694 -0.020945389 -0.020945389 -0.010472694 -0.07330886
000040 fd 05 05 06 f6 fc e9 ff ff 02 08 01 07 0e ff f9
       -0.015709043 0.026181735 0.026181735 0.031418085 -0.05236347 -0.020945389 -0.12043598 -0.005236347 -0.005236347 0.010472694 0.041890778 0.005236347 0.03665443 0.07330886 -0.005236347 -0.03665443
000050 fd 02 07 ed 03 fe 05 0c 1d fe ff fb 02 fa ef 05
       -0.015709043 0.010472694 0.03665443 -0.0994906 0.015709043 -0.010472694 0.026181735 0.06283617 0.15185407 -0.010472694 -0.005236347 -0.026181735 0.010472694 -0.031418085 -0.089017905 0.026181735
000060 04 f1 18 01 fc 01 f5 fa 01 19 1a fa 00 f8 01 fb
       0.020945389 -0.078545205 0.12567234 0.005236347 -0.020945389 0.005236347 -0.05759982 -0.031418085 0.005236347 0.13090868 0.13614503 -0.031418085 0.0 -0.041890778 0.005236347 -0.026181735
000070 03 fe 02 00 04 03 04 f7 09 fc 02 1c 01 ff 04 0b
       0.015709043 -0.010472694 0.010472694 0.0 0.020945389 0.015709043 0.020945389 -0.047127124 0.047127124 -0.020945389 0.010472694 0.14661773 0.005236347 -0.005236347 0.020945389 0.05759982
000080 fc 0b f5 21 f8 f3 05 df f9 03 00 f0 fd ef fa 0b
       -0.020945389 0.05759982 -0.05759982 0.17279945 -0.041890778 -0.06807251 0.026181735 -0.17279945 -0.03665443 0.015709043 0.0 -0.083781555 -0.015709043 -0.089017905 -0.031418085 0.05759982
000090 0a 11 f9 f6 0d 02 00 fe 05 fe f8 09 01 05 f6 06
       0.05236347 0.089017905 -0.03665443 -0.05236347 0.06807251 0.010472694 0.0 -0.010472694 0.026181735 -0.010472694 -0.041890778 0.047127124 0.005236347 0.026181735 -0.05236347 0.031418085
0000a0 04 fd 04 ff 01 00 07 fd 03 01 07 f0 fd 05 f0 f0
       0.020945389 -0.015709043 0.020945389 -0.005236347 0.005236347 0.0 0.03665443 -0.015709043 0.015709043 0.005236347 0.03665443 -0.083781555 -0.015709043 0.026181735 -0.083781555 -0.083781555
0000b0 00 f7 ee f4 f4 fc 03 04 0e 02 fd fe 02 fb 01 02
       0.0 -0.047127124 -0.09425425 -0.06283617 -0.06283617 -0.020945389 0.015709043 0.020945389 0.07330886 0.010472694 -0.015709043 -0.010472694 0.010472694 -0.026181735 0.005236347 0.010472694
0000c0 00 03 0a 00 fd 03 0e 04 fa 0d fc 01 06 03 ff ff
       0.0 0.015709043 0.05236347 0.0 -0.015709043 0.015709043 0.07330886 0.020945389 -0.031418085 0.06807251 -0.020945389 0.005236347 0.031418085 0.015709043 -0.005236347 -0.005236347
0000d0 03 f2 f4 f1 fe 01 01 08 f2 ec 00 f2 06 00 07 05
       0.015709043 -0.07330886 -0.06283617 -0.078545205 -0.010472694 0.005236347 0.005236347 0.041890778 -0.07330886 -0.10472694 0.0 -0.07330886 0.031418085 0.0 0.03665443 0.026181735
0000e0 f9 01 ff fa fa ff f4 fe fb 01 ff 06 eb 02 fe 05
       -0.03665443 0.005236347 -0.005236347 -0.031418085 -0.031418085 -0.005236347 -0.06283617 -0.010472694 -0.026181735 0.005236347 -0.005236347 0.031418085 -0.10996329 0.010472694 -0.010472694 0.026181735
0000f0 0c 00 ff 0e 09 fa 0f f6 13 01 fd 03 fb 05 06 fa
       0.06283617 0.0 -0.005236347 0.07330886 0.047127124 -0.031418085 0.078545205 -0.05236347 0.0994906 0.005236347 -0.015709043 0.015709043 -0.026181735 0.026181735 0.031418085 -0.031418085

fuse_attr_4 i1 [32, 1, 5, 5] scale=0.0060432325 zero_point=0
000000 ec d5 03 08 f7 03 fa 23 fa ee eb d5 10 6d f5 de
       -0.12086465 -0.259859 0.018129697 0.04834586 -0.054389093 0.018129697 -0.036259394 0.21151313 -0.036259394 -0.108778186 -0.12690789 -0.259859 0.09669172 0.6587123 -0.066475555 -0.2054699
000010 f8 2c f7 de e2 f5 09 f2 fc d6 bf 06 0f ce d8 db
       -0.04834586 0.26590222 -0.054389093 -0.2054699 -0.18129697 -0.066475555 0.054389093 -0.084605254 -0.02417293 -0.25381577 -0.3928101 0.036259394 0.09064849 -0.30216163 -0.2417293 -0.2235996
000020 1c 11 c7 f2 dd 17 05 d7 e2 c9 1c 11 d7 ec dc 39
       0.16921051 0.10273495 -0.34446424 -0.084605254 -0.21151313 0.13899435 0.030216163 -0.24777253 -0.18129697 -0.3323778 0.16921051 0.10273495 -0.24777253 -0.12086465 -0.21755637 0.34446424
000030 e1 c8 e7 5d ff e9 1a 0a 38 da d3 28 b5 3c d7 f3
       -0.18734021 -0.33842102 -0.15108082 0.5620206 -0.0060432325 -0.13899435 0.15712404 0.060432326 0.33842102 -0.22964284 -0.27194548 0.2417293 -0.45324245 0.36259395 -0.24777253 -0.07856202
000040 1c c9 2b c9 dc 31 bd 0c d8 e5 2d f0 11 f6 01 0c
       0.16921051 -0.3323778 0.259859 -0.3323778 -0.21755637 0.29611838 -0.4048966 0.07251879 -0.2417293 -0.16316728 0.27194548 -0.09669172 0.10273495 -0.060432326 0.0060432325 0.07251879
000050 f6 1a f6 07 20 ff 22 f7 fd 1a ff 15 f4 f2 0a 08
       -0.060432326 0.15712404 -0.060432326 0.042302627 0.19338344 -0.0060432325 0.2054699 -0.054389093 -0.018129697 0.15712404 -0.0060432325 0.12690789 -0.07251879 -0.084605254 0.060432326 0.04834586
000060 10 ff f3 01 16 30 f9 f7 f0 0d 13 04 f2 e2 00 1e
       0.09669172 -0.0060432325 -0.07856202 0.0060432325 0.13295111 0.29007515 -0.042302627 -0.054389093 -0.09669172 0.07856202 0.11482142 0.02417293 -0.084605254 -0.18129697 0.0 0.18129697
000070 06 fb c8 ee ff e5 09 d6 f5 04 e4 09 eb ef d0 fe
       0.036259394 -0.030216163 -0.33842102 -0.108778186 -0.0060432325 -0.16316728 0.054389093 -0.25381577 -0.066475555 0.02417293 -0.16921051 0.054389093 -0.12690789 -0.10273495 -0.29007515 -0.012086465
000080 1d f2 e0 ee 07 01 0a d7 cd e4 1c 11 db e6 e3 10
       0.17525375 -0.084605254 -0.19338344 -0.108778186 0.042302627 0.0060432325 0.060432326 -0.24777253 -0.30820486 -0.16921051 0.16921051 0.10273495 -0.2235996 -0.15712404 -0.17525375 0.09669172
000090 2d e6 0f e9 05 4b 00 0e 0b f7 f7 f8 fe 15 f8 d8
       0.27194548 -0.15712404 0.09064849 -0.13899435 0.030216163 0.45324245 0.0 0.084605254 0.066475555 -0.054389093 -0.054389093 -0.04834586 -0.012086465 0.12690789 -0.04834586 -0.2417293
0000a0 f7 f5 eb 13 fa e9 e5 d5 09 0b da f3 f5 fb 33 fc
       -0.054389093 -0.066475555 -0.12690789 0.11482142 -0.036259394 -0.13899435 -0.16316728 -0.259859 0.054389093 0.066475555 -0.22964284 -0.07856202 -0.066475555 -0.030216163 0.30820486 -0.02417293
0000b0 f5 f3 ed f9 3d 34 32 dd d6 2f 32 38 ef e3 2b 13
       -0.066475555 -0.07856202 -0.11482142 -0.042302627 0.36863717 0.31424809 0.30216163 -0.21151313 -0.25381577 0.28403193 0.30216163 0.33842102 -0.10273495 -0.17525375 0.259859 0.11482142
0000c0 13 fe cf fb ef e5 fc f6 c7 e8 ec 32 f6 cf e4 ea
       0.11482142 -0.012086465 -0.29611838 -0.030216163 -0.10273495 -0.16316728 -0.02417293 -0.060432326 -0.34446424 -0.14503758 -0.12086465 0.30216163 -0.060432326 -0.29611838 -0.16921051 -0.13295111
0000d0 1b 09 c5 de d1 f7 12 cd d7 e5 07 2c f9 05 0a f9
       0.16316728 0.054389093 -0.35655072 -0.2054699 -0.28403193 -0.054389093 0.108778186 -0.30820486 -0.24777253 -0.16316728 0.042302627 0.26590222 -0.042302627 0.030216163 0.060432326 -0.042302627
0000e0 2e e3 f2 f7 fa fd ec 02 fe fc f7 f5 0a fa f8 f3
       0.2779887 -0.17525375 -0.084605254 -0.054389093 -0.036259394 -0.018129697 -0.12086465 0.012086465 -0.012086465 -0.02417293 -0.054389093 -0.066475555 0.060432326 -0.036259394 -0.04834586 -0.07856202
0000f0 f1 07 ff f8 f1 0b 08 04 f5 ed 12 02 fb 22 fa 25
       -0.09064849 0.042302627 -0.0060432325 -0.04834586 -0.09064849 0.066475555 0.04834586 0.02417293 -0.066475555 -0.11482142 0.108778186 0.012086465 -0.030216163 0.2054699 -0.036259394 0.2235996

fuse_attr_8 i1 [18, 3, 3, 17] scale=0.0024006122 zero_point=0
000000 f3 e4 f8 1a bd 05 e2 0c 15 fc f8 df e0 00 fc e0
       -0.031207958 -0.06721714 -0.019204898 0.062415916 -0.16084102 0.012003061 -0.07201837 0.028807346 0.050412856 -0.009602449 -0.019204898 -0.079220206 -0.07681959 0.0 -0.009602449 -0.07681959
000010 f4 04 d7 f5 fe 04 ec d2 fc 26 fc 48 f7 25 01 f9
       -0.028807346 0.009602449 -0.0984251 -0.026406735 -0.0048012245 0.009602449 -0.048012245 -0.11042816 -0.009602449 0.09122326 -0.009602449 0.17284408 -0.02160551 0.088822655 0.0024006122 -0.016804285
000020 41 f1 37 fa ef f4 ca f7 ed f9 f8 ec 2a e8 0b e5
       0.15603979 -0.036009185 0.13203368 -0.014403673 -0.040810406 -0.028807346 -0.12963305 -0.02160551 -0.04561163 -0.016804285 -0.019204898 -0.048012245 0.10082571 -0.05761469 0.026406735 -0.06481653
000030 fb 2e 01 03 1e f7 15 f3 15 f8 01 d1 f6 12 f4 2b
       -0.012003061 0.11042816 0.0024006122 0.0072018364 0.07201837 -0.02160551 0.050412856 -0.031207958 0.050412856 -0.019204898 0.0024006122 -0.112828776 -0.024006123 0.04321102 -0.028807346 0.10322633
000040 fc 0c bf f1 f3 15 f7 01 0a ee fc dd f5 ef 7f f3
       -0.009602449 0.028807346 -0.15603979 -0.036009185 -0.031207958 0.050412856 -0.02160551 0.0024006122 0.024006123 -0.04321102 -0.009602449 -0.08402143 -0.026406735 -0.040810406 0.30487776 -0.031207958
000050 72 12 01 17 dd 15 1f f1 ec ef 06 00 db e2 d6 11
       0.27366978 0.04321102 0.0024006122 0.05521408 -0.08402143 0.050412856 0.07441898 -0.036009185 -0.048012245 -0.040810406 0.014403673 0.0 -0.088822655 -0.07201837 -0.10082571 0.040810406
000060 f1 14 e5 f0 e6 f3 ef e8 f7 2f 09 31 12 07 d3 14
       -0.036009185 0.048012245 -0.06481653 -0.038409796 -0.062415916 -0.031207958 -0.040810406 -0.05761469 -0.02160551 0.112828776 0.02160551 0.11763 0.04321102 0.016804285 -0.10802755 0.048012245
000070 e1 02 d4 fb 0e f8 da e9 d5 ee 24 fe 0d ee ee 08
       -0.07441898 0.0048012245 -0.10562694 -0.012003061 0.03360857 -0.019204898 -0.09122326 -0.05521408 -0.10322633 -0.04321102 0.08642204 -0.0048012245 0.031207958 -0.04321102 -0.04321102 0.019204898
000080 1d 43 02 c8 0c f4 1c da 0b 01 f2 0a d7 11 03 fa
       0.069617756 0.16084102 0.0048012245 -0.13443428 0.028807346 -0.028807346 0.06721714 -0.09122326 0.026406735 0.0024006122 -0.03360857 0.024006123 -0.0984251 0.040810406 0.0072018364 -0.014403673
000090 fc 1b 23 02 eb f6 ec f7 e6 04 f9 0e f3 14 09 fb
       -0.009602449 0.06481653 0.08402143 0.0048012245 -0.050412856 -0.024006123 -0.048012245 -0.02160551 -0.062415916 0.009602449 -0.016804285 0.03360857 -0.031207958 0.048012245 0.02160551 -0.012003061
0000a0 f6 d3 da 01 09 fc 0f 0a f6 d6 f2 fe 0c ec 06 10
       -0.024006123 -0.10802755 -0.09122326 0.0024006122 0.02160551 -0.009602449 0.036009185 0.024006123 -0.024006123 -0.10082571 -0.03360857 -0.0048012245 0.028807346 -0.048012245 0.014403673 0.038409796
0000b0 04 f4 ec ed fa f1 09 0e ff f7 dc f0 f3 07 f8 f4
       0.009602449 -0.028807346 -0.048012245 -0.04561163 -0.014403673 -0.036009185 0.02160551 0.03360857 -0.0024006122 -0.02160551 -0.08642204 -0.038409796 -0.031207958 0.016804285 -0.019204898 -0.028807346
0000c0 fd fe 09 03 f9 17 f6 f1 f7 f4 0d eb 23 0d 00 e1
       -0.0072018364 -0.0048012245 0.02160551 0.0072018364 -0.016804285 0.05521408 -0.024006123 -0.036009185 -0.02160551 -0.028807346 0.031207958 -0.050412856 0.08402143 0.031207958 0.0 -0.07441898
0000d0 1c ff f5 eb f0 f5 2a 0c fb ff f5 f9 e4 14 0f fa
       0.06721714 -0.0024006122 -0.026406735 -0.050412856 -0.038409796 -0.026406735 0.10082571 0.028807346 -0.012003061 -0.0024006122 -0.026406735 -0.016804285 -0.06721714 0.048012245 0.036009185 -0.014403673
0000e0 cd 00 f9 fa e7 ef f4 0a ee 02 ea ea ea dd f3 f7
       -0.122431226 0.0 -0.016804285 -0.014403673 -0.060015306 -0.040810406 -0.028807346 0.024006123 -0.04321102 0.0048012245 -0.05281347 -0.05281347 -0.05281347 -0.08402143 -0.031207958 -0.02160551
0000f0 f5 e1 fa fe fc f2 f8 fe 03 eb d9 e4 e7 f9 e1 38
       -0.026406735 -0.07441898 -0.014403673 -0.0048012245 -0.009602449 -0.03360857 -0.019204898 -0.0048012245 0.0072018364 -0.050412856 -0.09362388 -0.06721714 -0.060015306 -0.016804285 -0.07441898 0.13443428
