trained_models/step_6_QAT_and_Convert2TFLite/final_qat_model_testacc90.68_202405062253/qat_model_valacc92.7_tracc_82.9_prunInfo_0.8_0.85_ds_ver4home_20240506220725.tflite (tflite, 79648 bytes, 13 tensors)

fuse_attr_9 i1 [27, 3, 3, 18] scale=0.003599839 zero_point=0
000000 f3 e0 de fe fa f0 20 ce ee f0 fa ff e9 28 fc 3a
       -0.04679791 -0.11519485 -0.122394525 -0.007199678 -0.021599034 -0.057597425 0.11519485 -0.17999195 -0.0647971 -0.057597425 -0.021599034 -0.003599839 -0.0827963 0.14399356 -0.014399356 0.20879066
000010 f5 f8 00 05 f3 05 fb e1 2a e1 f9 ef f1 03 d4 0e
       -0.03959823 -0.028798712 0.0 0.017999195 -0.04679791 0.017999195 -0.017999195 -0.11159501 0.15119325 -0.11159501 -0.025198873 -0.061197262 -0.053997587 0.010799517 -0.15839292 0.050397746
000020 f1 16 fa fa 10 13 fe f8 fe f1 27 d3 f4 f2 f6 ff
       -0.053997587 0.07919646 -0.021599034 -0.021599034 0.057597425 0.06839694 -0.007199678 -0.028798712 -0.007199678 -0.053997587 0.14039372 -0.16199276 -0.043198068 -0.050397746 -0.03599839 -0.003599839
000030 dc e9 eb 0c fc fc e5 fc ff fd f6 df 07 26 f8 03
       -0.1295942 -0.0827963 -0.07559662 0.043198068 -0.014399356 -0.014399356 -0.097195655 -0.014399356 -0.003599839 -0.010799517 -0.03599839 -0.11879469 0.025198873 0.13679388 -0.028798712 0.010799517
000040 13 09 fc 0e 0a ee 1e 11 f4 ed 0d 04 f0 08 db 4b
       0.06839694 0.03239855 -0.014399356 0.050397746 0.03599839 -0.0647971 0.107995175 0.061197262 -0.043198068 -0.06839694 0.04679791 0.014399356 -0.057597425 0.028798712 -0.13319404 0.26998794
000050 ed 02 0b 05 06 02 10 fd fa 0a f0 eb 09 fc f2 1d
       -0.06839694 0.007199678 0.03959823 0.017999195 0.021599034 0.007199678 0.057597425 -0.010799517 -0.021599034 0.03599839 -0.057597425 -0.07559662 0.03239855 -0.014399356 -0.050397746 0.10439533
000060 d6 36 ef fc f3 e4 22 da 0f 06 e2 02 fb 07 e0 ee
       -0.15119325 0.19439131 -0.061197262 -0.014399356 -0.04679791 -0.10079549 0.122394525 -0.13679388 0.053997587 0.021599034 -0.107995175 0.007199678 -0.017999195 0.025198873 -0.11519485 -0.0647971
000070 f7 02 fe f9 fb 00 f7 e3 06 f4 02 e6 fe 0d 02 01
       -0.03239855 0.007199678 -0.007199678 -0.025198873 -0.017999195 0.0 -0.03239855 -0.10439533 0.021599034 -0.043198068 0.007199678 -0.09359582 -0.007199678 0.04679791 0.007199678 0.003599839
000080 fe 04 f3 03 f0 f6 02 20 f9 f4 f5 e2 ea ed 0d 05
       -0.007199678 0.014399356 -0.04679791 0.010799517 -0.057597425 -0.03599839 0.007199678 0.11519485 -0.025198873 -0.043198068 -0.03959823 -0.107995175 -0.07919646 -0.06839694 0.04679791 0.017999195
000090 fd 0a 00 fa 00 11 00 e8 05 07 f4 ee f5 dd df ff
       -0.010799517 0.03599839 0.0 -0.021599034 0.0 0.061197262 0.0 -0.086396135 0.017999195 0.025198873 -0.043198068 -0.0647971 -0.03959823 -0.12599437 -0.11879469 -0.003599839
0000a0 ee f1 ee ed fc fa fd f7 f0 06 fe fa 08 01 ee f9
       -0.0647971 -0.053997587 -0.0647971 -0.06839694 -0.014399356 -0.021599034 -0.010799517 -0.03239855 -0.057597425 0.021599034 -0.007199678 -0.021599034 0.028798712 0.003599839 -0.0647971 -0.025198873
0000b0 ff f9 10 01 f8 ed fd ef f8 f4 f8 ff fb fb 06 01
       -0.003599839 -0.025198873 0.057597425 0.003599839 -0.028798712 -0.06839694 -0.010799517 -0.061197262 -0.028798712 -0.043198068 -0.028798712 -0.003599839 -0.017999195 -0.017999195 0.021599034 0.003599839
0000c0 f0 f2 ff fa 0a ee f3 f6 f8 ec f5 10 fa fa fd f8
       -0.057597425 -0.050397746 -0.003599839 -0.021599034 0.03599839 -0.0647971 -0.04679791 -0.03599839 -0.028798712 -0.07199678 -0.03959823 0.057597425 -0.021599034 -0.021599034 -0.010799517 -0.028798712
0000d0 05 fe 02 06 03 eb ff ef e5 ff f3 fc fc e0 10 09
       0.017999195 -0.007199678 0.007199678 0.021599034 0.010799517 -0.07559662 -0.003599839 -0.061197262 -0.097195655 -0.003599839 -0.04679791 -0.014399356 -0.014399356 -0.11519485 0.057597425 0.03239855
0000e0 f8 fb f7 fb f6 f1 f7 01 f6 07 e8 07 fc f3 02 f9
       -0.028798712 -0.017999195 -0.03239855 -0.017999195 -0.03599839 -0.053997587 -0.03239855 0.003599839 -0.03599839 0.025198873 -0.086396135 0.025198873 -0.014399356 -0.04679791 0.007199678 -0.025198873
0000f0 00 0c fa fd f6 f8 f9 dc fd fa fd 05 e0 fc fa ef
       0.0 0.043198068 -0.021599034 -0.010799517 -0.03599839 -0.028798712 -0.025198873 -0.1295942 -0.010799517 -0.021599034 -0.010799517 0.017999195 -0.11519485 -0.014399356 -0.021599034 -0.061197262

fuse_attr_4 i1 [32, 1, 5, 5] scale=0.00593216 zero_point=0
000000 ed d4 04 08 f7 04 fa 24 fa ed ea d4 11 71 f6 de
       -0.11271104 -0.26101506 0.02372864 0.04745728 -0.05338944 0.02372864 -0.035592962 0.21355776 -0.035592962 -0.11271104 -0.13050753 -0.26101506 0.10084672 0.6703341 -0.0593216 -0.20169345
000010 f8 2d f7 de e1 f4 09 f2 fc d4 be 05 0f ce d7 db
       -0.04745728 0.2669472 -0.05338944 -0.20169345 -0.18389696 -0.071185924 0.05338944 -0.08305024 -0.02372864 -0.26101506 -0.3915226 0.0296608 0.0889824 -0.296608 -0.24321857 -0.21948993
000020 1c 11 c6 f3 dd 17 05 d6 e2 c9 1d 10 d6 ec dc 3a
       0.16610049 0.10084672 -0.34406528 -0.077118084 -0.20762561 0.13643968 0.0296608 -0.24915072 -0.1779648 -0.32626882 0.17203264 0.09491456 -0.24915072 -0.1186432 -0.21355776 0.34406528
000030 e0 c6 e5 60 00 ec 1a 0a 39 da d5 29 b4 3e d6 f5
       -0.18982913 -0.34406528 -0.16016832 0.5694874 0.0 -0.1186432 0.15423617 0.0593216 0.33813313 -0.22542208 -0.25508288 0.24321857 -0.45084417 0.36779392 -0.24915072 -0.065253764
000040 1e c8 2d c9 dd 32 bb 0e d8 e7 2e f0 10 f5 00 0c
       0.1779648 -0.33220097 0.2669472 -0.32626882 -0.20762561 0.296608 -0.40931904 0.08305024 -0.2372864 -0.148304 0.27287936 -0.09491456 0.09491456 -0.065253764 0.0 0.071185924
000050 f5 18 f6 06 20 fe 1f f7 fd 1a ff 13 f4 f0 09 09
       -0.065253764 0.14237185 -0.0593216 0.035592962 0.18982913 -0.01186432 0.18389696 -0.05338944 -0.017796481 0.15423617 -0.00593216 0.11271104 -0.071185924 -0.09491456 0.05338944 0.05338944
000060 0f 00 f1 01 15 31 fa f7 ef 0d 13 04 f1 e1 00 1f
       0.0889824 0.0 -0.0889824 0.00593216 0.12457536 0.29067585 -0.035592962 -0.05338944 -0.10084672 0.077118084 0.11271104 0.02372864 -0.0889824 -0.18389696 0.0 0.18389696
000070 05 fc c7 ed 00 e5 09 d5 f4 04 e3 09 eb ef cf fe
       0.0296608 -0.02372864 -0.33813313 -0.11271104 0.0 -0.16016832 0.05338944 -0.25508288 -0.071185924 0.02372864 -0.17203264 0.05338944 -0.12457536 -0.10084672 -0.29067585 -0.01186432
000080 1d f1 df ee 07 01 0a d6 cc e4 1d 10 db e5 e3 10
       0.17203264 -0.0889824 -0.1957613 -0.10677888 0.04152512 0.00593216 0.0593216 -0.24915072 -0.30847234 -0.16610049 0.17203264 0.09491456 -0.21948993 -0.16016832 -0.17203264 0.09491456
000090 2e e5 0f e9 06 4c 00 0f 0b f7 f8 f8 ff 15 f8 d7
       0.27287936 -0.16016832 0.0889824 -0.13643968 0.035592962 0.45084417 0.0 0.0889824 0.065253764 -0.05338944 -0.04745728 -0.04745728 -0.00593216 0.12457536 -0.04745728 -0.24321857
0000a0 f7 f6 eb 13 fa e9 e5 d4 09 0a d9 f4 f6 fb 34 fc
       -0.05338944 -0.0593216 -0.12457536 0.11271104 -0.035592962 -0.13643968 -0.16016832 -0.26101506 0.05338944 0.0593216 -0.23135425 -0.071185924 -0.0593216 -0.0296608 0.30847234 -0.02372864
0000b0 f3 f2 ec fa 3d 33 33 dc d6 2f 31 3a ee e2 2c 11
       -0.077118084 -0.08305024 -0.1186432 -0.035592962 0.36186177 0.30254018 0.30254018 -0.21355776 -0.24915072 0.2788115 0.29067585 0.34406528 -0.10677888 -0.1779648 0.26101506 0.10084672
0000c0 13 fe ce fa ed e4 fc f6 c5 e8 ec 35 f6 cf e4 ea
       0.11271104 -0.01186432 -0.296608 -0.035592962 -0.11271104 -0.16610049 -0.02372864 -0.0593216 -0.34999746 -0.14237185 -0.1186432 0.3144045 -0.0593216 -0.29067585 -0.16610049 -0.13050753
0000d0 1d 0a c4 de d0 f8 13 cc d6 e4 08 2d f9 06 0a f9
       0.17203264 0.0593216 -0.3559296 -0.20169345 -0.2847437 -0.04745728 0.11271104 -0.30847234 -0.24915072 -0.16610049 0.04745728 0.2669472 -0.04152512 0.035592962 0.0593216 -0.04152512
0000e0 2f e3 f1 f7 fa fd eb 02 ff fc f7 f4 0a fa f7 f3
       0.2788115 -0.17203264 -0.0889824 -0.05338944 -0.035592962 -0.017796481 -0.12457536 0.01186432 -0.00593216 -0.02372864 -0.05338944 -0.071185924 0.0593216 -0.035592962 -0.05338944 -0.077118084
0000f0 f0 06 ff f9 f1 0b 08 04 f5 ed 13 00 fb 22 f9 26
       -0.09491456 0.035592962 -0.00593216 -0.04152512 -0.0889824 0.065253764 0.04745728 0.02372864 -0.065253764 -0.11271104 0.11271104 0.0 -0.0296608 0.20169345 -0.04152512 0.22542208

fuse_attr_14 i1 [3, 1, 1, 72] scale=0.007199855 zero_point=0
000000 ce 20 e1 bf e5 f2 28 b8 d8 09 91 da 06 ec 09 d1
       -0.35999274 0.23039536 -0.22319551 -0.46799058 -0.1943961 -0.10079797 0.2879942 -0.5183896 -0.2879942 0.0647987 -0.7991839 -0.2735945 0.04319913 -0.1439971 0.0647987 -0.33839318
000010 25 12 2f d8 81 5f c5 05 d6 dc 23 10 c4 2f d7 0c
       0.26639464 0.1295974 0.33839318 -0.2879942 -0.91438156 0.68398625 -0.42479146 0.035999276 -0.3023939 -0.2591948 0.25199494 0.11519768 -0.4319913 0.33839318 -0.29519406 0.08639826
000020 40 ba 38 b7 07 ee 12 23 37 0a cd f4 d0 ff 0d d3
       0.46079072 -0.5039899 0.4031919 -0.5255894 0.050398987 -0.1295974 0.1295974 0.25199494 0.39599204 0.07199855 -0.3671926 -0.08639826 -0.34559304 -0.007199855 0.09359811 -0.32399347
000030 c2 f8 d3 d4 13 af d5 e8 0c ed 23 2c 33 3d 0f 1c
       -0.44639102 -0.05759884 -0.32399347 -0.31679362 0.13679725 -0.58318824 -0.30959377 -0.17279652 0.08639826 -0.13679725 0.25199494 0.31679362 0.3671926 0.43919116 0.10799783 0.20159595
000040 d5 d0 0b c1 1c 03 f1 29 15 f7 cf ad 1f 1e c1 b3
       -0.30959377 -0.34559304 0.079198405 -0.45359087 0.20159595 0.021599565 -0.10799783 0.29519406 0.15119696 -0.0647987 -0.3527929 -0.59758794 0.22319551 0.21599565 -0.45359087 -0.5543888
000050 bd d8 ba 23 19 cf eb cf db f8 f9 ce d0 08 09 0f
       -0.48239028 -0.2879942 -0.5039899 0.25199494 0.17999637 -0.3527929 -0.15119696 -0.3527929 -0.26639464 -0.05759884 -0.050398987 -0.35999274 -0.34559304 0.05759884 0.0647987 0.10799783
000060 26 06 dc 0e 24 e5 20 10 f7 f6 dd aa d7 ba e4 1f
       0.2735945 0.04319913 -0.2591948 0.10079797 0.2591948 -0.1943961 0.23039536 0.11519768 -0.0647987 -0.07199855 -0.25199494 -0.61918753 -0.29519406 -0.5039899 -0.20159595 0.22319551
000070 18 fe b8 0b dd 11 f1 0d 19 20 c2 17 12 e6 ec 04
       0.17279652 -0.01439971 -0.5183896 0.079198405 -0.25199494 0.122397535 -0.10799783 0.09359811 0.17999637 0.23039536 -0.44639102 0.16559666 0.1295974 -0.18719622 -0.1439971 0.02879942
000080 e9 d1 fd d0 d3 24 14 ed d3 d2 ce f9 ca ca f9 fa
       -0.16559666 -0.33839318 -0.021599565 -0.34559304 -0.32399347 0.2591948 0.1439971 -0.13679725 -0.32399347 -0.33119333 -0.35999274 -0.050398987 -0.3887922 -0.3887922 -0.050398987 -0.04319913
000090 44 da e7 ce f4 bf bb b3 f4 0e cc 04 e8 10 10 ff
       0.48959014 -0.2735945 -0.17999637 -0.35999274 -0.08639826 -0.46799058 -0.49679 -0.5543888 -0.08639826 0.10079797 -0.37439245 0.02879942 -0.17279652 0.11519768 0.11519768 -0.007199855
0000a0 1f 06 27 3c 0a ed e3 1c d0 dd 14 e0 c8 bb 0a 30
       0.22319551 0.04319913 0.28079435 0.4319913 0.07199855 -0.13679725 -0.2087958 0.20159595 -0.34559304 -0.25199494 0.1439971 -0.23039536 -0.4031919 -0.49679 0.07199855 0.34559304
0000b0 f0 eb 29 a1 f8 e6 b2 06 02 19 a3 1c 5b ee 34 fa
       -0.11519768 -0.15119696 0.29519406 -0.68398625 -0.05759884 -0.18719622 -0.5615887 0.04319913 0.01439971 0.17999637 -0.66958654 0.20159595 0.65518683 -0.1295974 0.37439245 -0.04319913
0000c0 1d 00 04 cf df a6 c4 ef 19 9f 22 f7 e5 2d df 27
       0.2087958 0.0 0.02879942 -0.3527929 -0.23759522 -0.64798695 -0.4319913 -0.122397535 0.17999637 -0.69838595 0.24479507 -0.0647987 -0.1943961 0.32399347 -0.23759522 0.28079435
0000d0 47 b4 0b ed d5 10 26 09
       0.5111897 -0.547189 0.079198405 -0.13679725 -0.30959377 0.11519768 0.2735945 0.0647987

fuse_attr_7 i1 [17, 3, 3, 8] scale=0.0049107554 zero_point=0
000000 fa f4 fd 01 05 ec 07 fe fb 06 f3 10 04 f8 01 fc
       -0.029464532 -0.058929063 -0.014732266 0.0049107554 0.024553778 -0.09821511 0.034375288 -0.009821511 -0.024553778 0.029464532 -0.06383982 0.07857209 0.019643022 -0.039286043 0.0049107554 -0.019643022
000010 fb e2 f7 00 09 fd fc fa 00 e8 0a fb 04 01 1a 00
       -0.024553778 -0.14732267 -0.0441968 0.0 0.0441968 -0.014732266 -0.019643022 -0.029464532 0.0 -0.11785813 0.049107555 -0.024553778 0.019643022 0.0049107554 0.12767965 0.0
000020 ff ed 09 08 08 09 16 fd fe d8 04 ef 12 06 08 f9
       -0.0049107554 -0.09330435 0.0441968 0.039286043 0.039286043 0.0441968 0.10803662 -0.014732266 -0.009821511 -0.19643022 0.019643022 -0.08348284 0.0883936 0.029464532 0.039286043 -0.034375288
000030 05 db fd 1b 04 fe 29 13 04 e8 02 22 06 05 28 0d
       0.024553778 -0.18169795 -0.014732266 0.1325904 0.019643022 -0.009821511 0.20134097 0.09330435 0.019643022 -0.11785813 0.009821511 0.16696568 0.029464532 0.024553778 0.19643022 0.06383982
000040 03 d6 03 02 0c fd 1f 08 02 f5 0a f2 0d 1d f8 f9
       0.014732266 -0.20625173 0.014732266 0.009821511 0.058929063 -0.014732266 0.15223342 0.039286043 0.009821511 -0.05401831 0.049107555 -0.068750575 0.06383982 0.1424119 -0.039286043 -0.034375288
000050 00 fe 09 e9 06 08 f5 f7 00 03 05 02 fc f4 ea f4
       0.0 -0.009821511 0.0441968 -0.112947375 0.029464532 0.039286043 -0.05401831 -0.0441968 0.0 0.014732266 0.024553778 0.009821511 -0.019643022 -0.058929063 -0.10803662 -0.058929063
000060 01 eb f9 f8 f6 f7 ff f7 01 d9 ef 05 f0 d4 f8 f4
       0.0049107554 -0.10312586 -0.034375288 -0.039286043 -0.049107555 -0.0441968 -0.0049107554 -0.0441968 0.0049107554 -0.19151947 -0.08348284 0.024553778 -0.07857209 -0.21607324 -0.039286043 -0.058929063
000070 f8 09 ff 09 e7 c0 ef f5 f9 dd 09 f3 f5 0a 0d fd
       -0.039286043 0.0441968 -0.0049107554 0.0441968 -0.12276889 -0.31428835 -0.08348284 -0.05401831 -0.034375288 -0.17187645 0.0441968 -0.06383982 -0.05401831 0.049107555 0.06383982 -0.014732266
000080 ff d9 f5 d9 f5 eb 06 fa ff e4 ee d8 eb da f7 f8
       -0.0049107554 -0.19151947 -0.05401831 -0.19151947 -0.05401831 -0.10312586 0.029464532 -0.029464532 -0.0049107554 -0.13750115 -0.0883936 -0.19643022 -0.10312586 -0.1866087 -0.0441968 -0.039286043
000090 ff 1b f8 fe f5 ec fd 05 02 16 f8 ef f7 ed fd 06
       -0.0049107554 0.1325904 -0.039286043 -0.009821511 -0.05401831 -0.09821511 -0.014732266 0.024553778 0.009821511 0.10803662 -0.039286043 -0.08348284 -0.0441968 -0.09330435 -0.014732266 0.029464532
0000a0 06 19 f6 f9 f6 eb ff 08 01 ff fc f0 03 fc fc fd
       0.029464532 0.12276889 -0.049107555 -0.034375288 -0.049107555 -0.10312586 -0.0049107554 0.039286043 0.0049107554 -0.0049107554 -0.019643022 -0.07857209 0.014732266 -0.019643022 -0.019643022 -0.014732266
0000b0 00 0a fc e4 08 fe f7 fd 05 0b f8 e8 03 03 fd fd
       0.0 0.049107555 -0.019643022 -0.13750115 0.039286043 -0.009821511 -0.0441968 -0.014732266 0.024553778 0.05401831 -0.039286043 -0.11785813 0.014732266 0.014732266 -0.014732266 -0.014732266
0000c0 fe e9 03 fa 0e 02 fd fc 00 ea fe ec 14 fc f7 fd
       -0.009821511 -0.112947375 0.014732266 -0.029464532 0.068750575 0.009821511 -0.014732266 -0.019643022 0.0 -0.10803662 -0.009821511 -0.09821511 0.09821511 -0.019643022 -0.0441968 -0.014732266
0000d0 fe fa f9 f8 12 00 f7 fe ff 1d f3 fa 25 e8 f3 fd
       -0.009821511 -0.029464532 -0.034375288 -0.039286043 0.0883936 0.0 -0.0441968 -0.009821511 -0.0049107554 0.1424119 -0.06383982 -0.029464532 0.18169795 -0.11785813 -0.06383982 -0.014732266
0000e0 00 20 e1 f6 25 0e ee fb 01 24 f5 f5 24 20 ee fd
       0.0 0.15714417 -0.15223342 -0.049107555 0.18169795 0.068750575 -0.0883936 -0.024553778 0.0049107554 0.1767872 -0.05401831 -0.05401831 0.1767872 0.15714417 -0.0883936 -0.014732266
0000f0 fd 1b f4 ed 33 f8 f4 fa f1 15 e6 f1 29 1b f0 f9
       -0.014732266 0.1325904 -0.058929063 -0.09330435 0.25044852 -0.039286043 -0.058929063 -0.029464532 -0.073661335 0.10312586 -0.12767965 -0.073661335 0.20134097 0.1325904 -0.07857209 -0.034375288

fuse_attr_3 i1 [5, 1, 9, 1] scale=0.02602671 zero_point=0
000000 28 21 f7 78 de bd c8 df 14 42 08 01 fd 07 fc 0f
       1.0410684 0.8588815 -0.2342404 3.1232052 -0.8849082 -1.7437897 -1.4574958 -0.8588815 0.5205342 1.717763 0.20821369 0.02602671 -0.07808013 0.18218698 -0.10410684 0.39040065
000010 25 ed 17 1c d2 03 f3 f5 46 a8 aa f8 f1 d9 26 98
       0.9629883 -0.4945075 0.59861434 0.7287479 -1.1972287 0.07808013 -0.33834726 -0.2862938 1.8218697 -2.2903504 -2.2382972 -0.20821369 -0.39040065 -1.0150417 0.989015 -2.706778
000020 4c f8 92 7f e8 f2 fc 0e f8 0e de 2b 6b
       1.97803 -0.20821369 -2.8629382 3.3053923 -0.62464106 -0.36437395 -0.10410684 0.36437395 -0.20821369 0.36437395 -0.8849082 1.1191486 2.784858

fuse_attr_10 i1 [39, 3, 3, 27] scale=0.0039004893 zero_point=0
000000 f9 00 fb fe ff f6 f9 fd 0c f0 fc fe fd db f9 f9
       -0.027303426 0.0 -0.019502446 -0.0078009786 -0.0039004893 -0.039004892 -0.027303426 -0.011701468 0.046805874 -0.06240783 -0.015601957 -0.0078009786 -0.011701468 -0.1443181 -0.027303426 -0.027303426
000010 03 26 fa fb ec 02 03 f7 f9 fd fc f1 fc eb fd f2
       0.011701468 0.14821859 -0.023402937 -0.019502446 -0.078009784 0.0078009786 0.011701468 -0.035104405 -0.027303426 -0.011701468 -0.015601957 -0.05850734 -0.015601957 -0.081910275 -0.011701468 -0.05460685
000020 f3 fa fb 14 f3 fb 0b fa ee fa fa fa 0b fb 00 ed
       -0.05070636 -0.023402937 -0.019502446 0.078009784 -0.05070636 -0.019502446 0.042905383 -0.023402937 -0.07020881 -0.023402937 -0.023402937 -0.023402937 0.042905383 -0.019502446 0.0 -0.07410929
000030 fe ea f3 18 08 fc f2 fe 0a fa 00 e3 f2 04 fb f9
       -0.0078009786 -0.085810766 -0.05070636 0.09361175 0.031203914 -0.015601957 -0.05460685 -0.0078009786 0.039004892 -0.023402937 0.0 -0.11311419 -0.05460685 0.015601957 -0.019502446 -0.027303426
000040 fa 05 fb dc fe 0c fe f5 07 fe f4 fc 00 f2 17 05
       -0.023402937 0.019502446 -0.019502446 -0.14041762 -0.0078009786 0.046805874 -0.0078009786 -0.042905383 0.027303426 -0.0078009786 -0.046805874 -0.015601957 0.0 -0.05460685 0.08971126 0.019502446
000050 f5 fc 08 f9 08 05 fb e6 08 07 f3 00 07 02 18 ff
       -0.042905383 -0.015601957 0.031203914 -0.027303426 0.031203914 0.019502446 -0.019502446 -0.10141272 0.031203914 0.027303426 -0.05070636 0.0 0.027303426 0.0078009786 0.09361175 -0.0039004893
000060 ea 04 fc dc e6 ed 15 e1 11 03 f9 f5 fd 08 e7 0f
       -0.085810766 0.015601957 -0.015601957 -0.14041762 -0.10141272 -0.07410929 0.081910275 -0.12091517 0.06630832 0.011701468 -0.027303426 -0.042905383 -0.011701468 0.031203914 -0.09751223 0.05850734
000070 20 f2 f9 fb f4 f9 07 05 fe 02 16 f5 f6 ef 02 0e
       0.12481566 -0.05460685 -0.027303426 -0.019502446 -0.046805874 -0.027303426 0.027303426 0.019502446 -0.0078009786 0.0078009786 0.085810766 -0.042905383 -0.039004892 -0.06630832 0.0078009786 0.05460685
000080 f1 02 dc ff 18 0b 11 e8 0a 03 0b 11 fb ed fb eb
       -0.05850734 0.0078009786 -0.14041762 -0.0039004893 0.09361175 0.042905383 0.06630832 -0.09361175 0.039004892 0.011701468 0.042905383 0.06630832 -0.019502446 -0.07410929 -0.019502446 -0.081910275
000090 03 02 01 fb f5 0a 1a e2 f7 01 0a fb ff fd f4 18
       0.011701468 0.0078009786 0.0039004893 -0.019502446 -0.042905383 0.039004892 0.10141272 -0.11701468 -0.035104405 0.0039004893 0.039004892 -0.019502446 -0.0039004893 -0.011701468 -0.046805874 0.09361175
0000a0 12 10 fd f6 fa ee ff 11 ea 03 ff f5 08 0b 0a 08
       0.07020881 0.06240783 -0.011701468 -0.039004892 -0.023402937 -0.07020881 -0.0039004893 0.06630832 -0.085810766 0.011701468 -0.0039004893 -0.042905383 0.031203914 0.042905383 0.039004892 0.031203914
0000b0 03 f6 f4 f8 e5 e5 0b 06 06 13 fa 03 df 0a fc f4
       0.011701468 -0.039004892 -0.046805874 -0.031203914 -0.10531321 -0.10531321 0.042905383 0.023402937 0.023402937 0.07410929 -0.023402937 0.011701468 -0.12871614 0.039004892 -0.015601957 -0.046805874
0000c0 f4 1e 09 fa fc 00 ff ff 0b f7 09 ff 02 fb 01 f1
       -0.046805874 0.11701468 0.035104405 -0.023402937 -0.015601957 0.0 -0.0039004893 -0.0039004893 0.042905383 -0.035104405 0.035104405 -0.0039004893 0.0078009786 -0.019502446 0.0039004893 -0.05850734
0000d0 02 fd 00 fa f6 fa 07 e1 0a 01 01 e7 0e 0f ef ff
       0.0078009786 -0.011701468 0.0 -0.023402937 -0.039004892 -0.023402937 0.027303426 -0.12091517 0.039004892 0.0039004893 0.0039004893 -0.09751223 0.05460685 0.05850734 -0.06630832 -0.0039004893
0000e0 fc 00 ff 10 eb 03 03 07 f0 f1 e1 08 f9 ff e6 03
       -0.015601957 0.0 -0.0039004893 0.06240783 -0.081910275 0.011701468 0.011701468 0.027303426 -0.06240783 -0.05850734 -0.12091517 0.031203914 -0.027303426 -0.0039004893 -0.10141272 0.011701468
0000f0 00 0e f0 e4 01 f6 04 00 f1 f3 f8 f5 01 fd 00 f3
       0.0 0.05460685 -0.06240783 -0.1092137 0.0039004893 -0.039004892 0.015601957 0.0 -0.05850734 -0.05070636 -0.031203914 -0.042905383 0.0039004893 -0.011701468 0.0 -0.05070636

fuse_attr_8 i1 [18, 3, 3, 17] scale=0.0023683687 zero_point=0
000000 f5 e4 f8 1b be 07 e1 0b 17 fd f7 df df 03 fe e0
       -0.026052056 -0.066314325 -0.01894695 0.06394596 -0.15631233 0.016578581 -0.07341943 0.026052056 0.05447248 -0.007105106 -0.021315318 -0.078156166 -0.078156166 0.007105106 -0.0047367373 -0.0757878
000010 f5 07 d7 f6 fe 04 ed d1 fb 29 fc 49 f7 25 03 fb
       -0.026052056 0.016578581 -0.09710312 -0.023683686 -0.0047367373 0.009473475 -0.044999003 -0.11131333 -0.011841843 0.09710312 -0.009473475 0.17289092 -0.021315318 0.08762964 0.007105106 -0.011841843
000020 42 f2 3b fd f0 f4 ca f7 ec f8 f9 eb 2c e8 0c e6
       0.15631233 -0.033157162 0.13973375 -0.007105106 -0.0378939 -0.028420424 -0.12789191 -0.021315318 -0.04736737 -0.01894695 -0.016578581 -0.049735744 0.10420822 -0.05684085 0.028420424 -0.061577585
000030 fc 2e 02 04 20 f8 15 f4 17 f8 01 d2 f6 12 f5 2d
       -0.009473475 0.10894496 0.0047367373 0.009473475 0.0757878 -0.01894695 0.049735744 -0.028420424 0.05447248 -0.01894695 0.0023683687 -0.10894496 -0.023683686 0.042630635 -0.026052056 0.10657659
000040 ff 0d bf f2 f4 17 f8 00 0a ef fb dd f7 ef 7f f3
       -0.0023683687 0.030788792 -0.15394397 -0.033157162 -0.028420424 0.05447248 -0.01894695 0.0 0.023683686 -0.040262267 -0.011841843 -0.0828929 -0.021315318 -0.040262267 0.30078283 -0.030788792
000050 74 14 02 17 dd 17 22 f2 eb f0 06 ff da e2 d5 11
       0.27473077 0.04736737 0.0047367373 0.05447248 -0.0828929 0.05447248 0.080524534 -0.033157162 -0.049735744 -0.0378939 0.014210212 -0.0023683687 -0.08999801 -0.07105106 -0.101839855 0.040262267
000060 f0 15 e6 f0 e7 f3 ef e7 f7 2f 09 32 12 07 d3 15
       -0.0378939 0.049735744 -0.061577585 -0.0378939 -0.059209216 -0.030788792 -0.040262267 -0.059209216 -0.021315318 0.11131333 0.021315318 0.11841843 0.042630635 0.016578581 -0.10657659 0.049735744
000070 e1 03 d3 fc 0f f7 da eb d5 ee 24 fd 0d ee ed 09
       -0.07341943 0.007105106 -0.10657659 -0.009473475 0.03552553 -0.021315318 -0.08999801 -0.049735744 -0.101839855 -0.042630635 0.08526127 -0.007105106 0.030788792 -0.042630635 -0.044999003 0.021315318
000080 1e 43 02 c6 0c f4 1b da 0c 02 f2 0a d6 11 03 fa
       0.07105106 0.1586807 0.0047367373 -0.13736539 0.028420424 -0.028420424 0.06394596 -0.08999801 0.028420424 0.0047367373 -0.033157162 0.023683686 -0.09947149 0.040262267 0.007105106 -0.014210212
000090 fc 1b 23 03 ea f6 ec f6 e6 04 f7 11 f5 13 0a fb
       -0.009473475 0.06394596 0.0828929 0.007105106 -0.05210411 -0.023683686 -0.04736737 -0.023683686 -0.061577585 0.009473475 -0.021315318 0.040262267 -0.026052056 0.044999003 0.023683686 -0.011841843
0000a0 f6 d7 db ff 0b fb 12 0c f7 d6 f2 fc 0e ed 06 12
       -0.023683686 -0.09710312 -0.08762964 -0.0023683687 0.026052056 -0.011841843 0.042630635 0.028420424 -0.021315318 -0.09947149 -0.033157162 -0.009473475 0.033157162 -0.044999003 0.014210212 0.042630635
0000b0 04 f3 ef ee f9 f2 08 12 01 f7 dd f2 f4 09 f7 f3
       0.009473475 -0.030788792 -0.040262267 -0.042630635 -0.016578581 -0.033157162 0.01894695 0.042630635 0.0023683687 -0.021315318 -0.0828929 -0.033157162 -0.028420424 0.021315318 -0.021315318 -0.030788792
0000c0 fd fd 08 06 fa 19 f7 f0 fa f5 0e ed 24 0e 02 e1
       -0.007105106 -0.007105106 0.01894695 0.014210212 -0.014210212 0.059209216 -0.021315318 -0.0378939 -0.014210212 -0.026052056 0.033157162 -0.044999003 0.08526127 0.033157162 0.0047367373 -0.07341943
0000d0 1b 00 f4 eb f0 f3 26 0c f9 01 f8 f6 e3 14 0f fb
       0.06394596 0.0 -0.028420424 -0.049735744 -0.0378939 -0.030788792 0.08999801 0.028420424 -0.016578581 0.0023683687 -0.01894695 -0.023683686 -0.06868269 0.04736737 0.03552553 -0.011841843
0000e0 cd 00 fb f9 e6 ef f3 08 ee 01 ed ed e8 dd f6 f9
       -0.1207868 0.0 -0.011841843 -0.016578581 -0.061577585 -0.040262267 -0.030788792 0.01894695 -0.042630635 0.0023683687 -0.044999003 -0.044999003 -0.05684085 -0.0828929 -0.023683686 -0.016578581
0000f0 f6 e0 fa fd fb f1 f9 fc 04 ea d8 e6 e7 f8 e1 39
       -0.023683686 -0.0757878 -0.014210212 -0.007105106 -0.011841843 -0.03552553 -0.016578581 -0.009473475 0.009473475 -0.05210411 -0.09473474 -0.061577585 -0.059209216 -0.01894695 -0.07341943 0.13499701

fuse_attr_6 i1 [8, 3, 3, 10] scale=0.002995969 zero_point=0
000000 f5 fe 00 fe f8 fd fd 0c f3 fb f3 fe ff fd f7 fd
       -0.032955658 -0.005991938 0.0 -0.005991938 -0.023967752 -0.008987907 -0.008987907 0.03595163 -0.038947597 -0.014979845 -0.038947597 -0.005991938 -0.002995969 -0.008987907 -0.026963722 -0.008987907
000010 fc 05 fd fc f3 fe f7 fd f6 fd fd 00 fb f6 e8 ff
       -0.011983876 0.014979845 -0.008987907 -0.011983876 -0.038947597 -0.005991938 -0.026963722 -0.008987907 -0.02995969 -0.008987907 -0.008987907 0.0 -0.014979845 -0.02995969 -0.07190326 -0.002995969
000020 fe ff fb fe fe 0a e9 f9 f2 ff fc ff fa fe fe 0f
       -0.005991938 -0.002995969 -0.014979845 -0.005991938 -0.005991938 0.02995969 -0.06890729 -0.020971783 -0.041943565 -0.002995969 -0.011983876 -0.002995969 -0.017975815 -0.005991938 -0.005991938 0.044939537
000030 f5 fb f4 ff f4 ff 09 fe fe fd fb f9 f5 ff f1 fe
       -0.032955658 -0.014979845 -0.03595163 -0.002995969 -0.03595163 -0.002995969 0.026963722 -0.005991938 -0.005991938 -0.008987907 -0.014979845 -0.020971783 -0.032955658 -0.002995969 -0.044939537 -0.005991938
000040 fe fe fd 01 f2 fa f7 fe f5 fe fd fe fd 02 f7 fe
       -0.005991938 -0.005991938 -0.008987907 0.002995969 -0.041943565 -0.017975815 -0.026963722 -0.005991938 -0.032955658 -0.005991938 -0.008987907 -0.005991938 -0.008987907 0.005991938 -0.026963722 -0.005991938
000050 fd fe f8 fe 04 fe fd 01 fc fe 31 ff cc fe 1a fd
       -0.008987907 -0.005991938 -0.023967752 -0.005991938 0.011983876 -0.005991938 -0.008987907 0.002995969 -0.011983876 -0.005991938 0.14680248 -0.002995969 -0.15579039 -0.005991938 0.077895194 -0.008987907
000060 fd 1b 5e 2d 1c 00 fe 01 f7 fe ff 32 2a ed 4b 01
       -0.008987907 0.08089116 0.2816211 0.13481861 0.08388713 0.0 -0.005991938 0.002995969 -0.026963722 -0.005991938 -0.002995969 0.14979845 0.1258307 -0.05692341 0.22469768 0.002995969
000070 6b 03 94 ff 00 4c e2 fa d1 ff a6 fe 53 fe ff 81
       0.32056868 0.008987907 -0.32356465 -0.002995969 0.0 0.22769365 -0.08987907 -0.017975815 -0.14081055 -0.002995969 -0.26963723 -0.005991938 0.24866542 -0.005991938 -0.002995969 -0.38048807
000080 47 3d 05 00 a4 01 f5 ff 01 de 79 fe b1 02 09 04
       0.21271381 0.18275411 0.014979845 0.0 -0.27562916 0.002995969 -0.032955658 -0.002995969 0.002995969 -0.101862945 0.36251226 -0.005991938 -0.23668155 0.005991938 0.026963722 0.011983876
000090 89 00 03 59 e1 a2 be fe ce fd 32 fd fd a0 2d 12
       -0.35652032 0.0 0.008987907 0.26664123 -0.09287504 -0.2816211 -0.19773395 -0.005991938 -0.14979845 -0.008987907 0.14979845 -0.008987907 -0.008987907 -0.28761303 0.13481861 0.053927444
0000a0 fb ff d7 fe c0 fd fe c9 3d f5 ed 00 19 01 98 fd
       -0.014979845 -0.002995969 -0.12283473 -0.005991938 -0.19174202 -0.008987907 -0.005991938 -0.16477829 0.18275411 -0.032955658 -0.05692341 0.0 0.07489923 0.002995969 -0.31158078 -0.008987907
0000b0 00 08 d8 d2 cc 00 f2 00 07 01 01 ef 50 11 e2 00
       0.0 0.023967752 -0.11983876 -0.13781458 -0.15579039 0.0 -0.041943565 0.0 0.020971783 0.002995969 0.002995969 -0.050931472 0.23967752 0.050931472 -0.08987907 0.0
0000c0 f1 01 e9 01 01 f7 56 07 2d 00 15 00 6b 01 01 f9
       -0.044939537 0.002995969 -0.06890729 0.002995969 0.002995969 -0.026963722 0.25765333 0.020971783 0.13481861 0.0 0.06291535 0.0 0.32056868 0.002995969 0.002995969 -0.020971783
0000d0 dc 18 d3 00 e0 00 05 02 01 e7 3d 00 e4 00 fc 00
       -0.10785489 0.07190326 -0.13481861 0.0 -0.09587101 0.0 0.014979845 0.005991938 0.002995969 -0.07489923 0.18275411 0.0 -0.08388713 0.0 -0.011983876 0.0
0000e0 fd 01 01 f2 18 f6 f8 00 26 00 7e 01 00 e7 a0 0a
       -0.008987907 0.002995969 0.002995969 -0.041943565 0.07190326 -0.02995969 -0.023967752 0.0 0.11384682 0.0 0.3774921 0.002995969 0.0 -0.07489923 -0.28761303 0.02995969
0000f0 d2 00 c0 00 de 01 01 00 35 e9 dd 00 fb 00 c0 01
       -0.13781458 0.0 -0.19174202 0.0 -0.101862945 0.002995969 0.002995969 0.0 0.15878636 -0.06890729 -0.10485891 0.0 -0.014979845 0.0 -0.19174202 0.002995969

fuse_attr_12 i1 [41, 3, 3, 34] scale=0.008408026 zero_point=0
000000 00 fa 00 fd fe 01 01 09 ff 0d fc 01 fe 01 05 01
       0.0 -0.050448157 0.0 -0.025224078 -0.016816052 0.008408026 0.008408026 0.07567223 -0.008408026 0.10930434 -0.033632103 0.008408026 -0.016816052 0.008408026 0.04204013 0.008408026
000010 02 f8 00 f6 f1 fe fd 0b 04 01 0c fa 01 f6 fe 02
       0.016816052 -0.06726421 0.0 -0.08408026 -0.12612039 -0.016816052 -0.025224078 0.09248828 0.033632103 0.008408026 0.100896314 -0.050448157 0.008408026 -0.08408026 -0.016816052 0.016816052
000020 fe fa 01 fb 01 fc fe ff 01 ff 02 ff fb 01 fe 00
       -0.016816052 -0.050448157 0.008408026 -0.04204013 0.008408026 -0.033632103 -0.016816052 -0.008408026 0.008408026 -0.008408026 0.016816052 -0.008408026 -0.04204013 0.008408026 -0.016816052 0.0
000030 04 f7 00 f6 01 00 ec fd fa 08 00 ff 09 00 01 ff
       0.033632103 -0.07567223 0.0 -0.08408026 0.008408026 0.0 -0.16816051 -0.025224078 -0.050448157 0.06726421 0.0 -0.008408026 0.07567223 0.0 0.008408026 -0.008408026
000040 fd 01 02 fa 01 fd 00 fe ff 01 fc ff 01 ff fc 02
       -0.025224078 0.008408026 0.016816052 -0.050448157 0.008408026 -0.025224078 0.0 -0.016816052 -0.008408026 0.008408026 -0.033632103 -0.008408026 0.008408026 -0.008408026 -0.033632103 0.016816052
000050 01 01 02 00 fe fb 02 ff 00 fd 04 00 01 00 00 01
       0.008408026 0.008408026 0.016816052 0.0 -0.016816052 -0.04204013 0.016816052 -0.008408026 0.0 -0.025224078 0.033632103 0.0 0.008408026 0.0 0.0 0.008408026
000060 03 ff fd 02 01 ff ff 02 06 fa 03 01 f6 fe fb 01
       0.025224078 -0.008408026 -0.025224078 0.016816052 0.008408026 -0.008408026 -0.008408026 0.016816052 0.050448157 -0.050448157 0.025224078 0.008408026 -0.08408026 -0.016816052 -0.04204013 0.008408026
000070 ff 05 06 03 15 04 00 fa 0a f6 02 01 f5 16 02 0a
       -0.008408026 0.04204013 0.050448157 0.025224078 0.17656854 0.033632103 0.0 -0.050448157 0.08408026 -0.08408026 0.016816052 0.008408026 -0.09248828 0.18497656 0.016816052 0.08408026
000080 02 00 f8 fd 02 08 00 00 01 01 09 fb 03 fd f7 00
       0.016816052 0.0 -0.06726421 -0.025224078 0.016816052 0.06726421 0.0 0.0 0.008408026 0.008408026 0.07567223 -0.04204013 0.025224078 -0.025224078 -0.07567223 0.0
000090 00 01 fc 02 05 02 14 03 01 f5 06 03 02 00 f8 1a
       0.0 0.008408026 -0.033632103 0.016816052 0.04204013 0.016816052 0.16816051 0.025224078 0.008408026 -0.09248828 0.050448157 0.025224078 0.016816052 0.0 -0.06726421 0.21860868
0000a0 fe 01 02 01 f6 fc f9 07 02 ff 00 01 06 fa 02 ff
       -0.016816052 0.008408026 0.016816052 0.008408026 -0.08408026 -0.033632103 -0.05885618 0.05885618 0.016816052 -0.008408026 0.0 0.008408026 0.050448157 -0.050448157 0.016816052 -0.008408026
0000b0 fb 00 fe ff f4 04 04 02 16 02 03 fe 02 00 05 03
       -0.04204013 0.0 -0.016816052 -0.008408026 -0.100896314 0.033632103 0.033632103 0.016816052 0.18497656 0.016816052 0.025224078 -0.016816052 0.016816052 0.0 0.04204013 0.025224078
0000c0 f4 18 01 00 02 01 f9 fc 00 0a 00 ff fb f7 f8 01
       -0.100896314 0.20179263 0.008408026 0.0 0.016816052 0.008408026 -0.05885618 -0.033632103 0.0 0.08408026 0.0 -0.008408026 -0.04204013 -0.07567223 -0.06726421 0.008408026
0000d0 02 00 10 fd 01 f2 04 04 f4 00 02 01 03 ff fe fd
       0.016816052 0.0 0.13452841 -0.025224078 0.008408026 -0.11771236 0.033632103 0.033632103 -0.100896314 0.0 0.016816052 0.008408026 0.025224078 -0.008408026 -0.016816052 -0.025224078
0000e0 01 f9 01 03 f9 0e ff 00 01 fe 02 f4 00 fb fc fb
       0.008408026 -0.05885618 0.008408026 0.025224078 -0.05885618 0.11771236 -0.008408026 0.0 0.008408026 -0.016816052 0.016816052 -0.100896314 0.0 -0.04204013 -0.033632103 -0.04204013
0000f0 f9 fd 01 00 0d fe 02 f3 09 00 f1 01 00 01 01 02
       -0.05885618 -0.025224078 0.008408026 0.0 0.10930434 -0.016816052 0.016816052 -0.10930434 0.07567223 0.0 -0.12612039 0.008408026 0.0 0.008408026 0.008408026 0.016816052

fuse_attr_13 i1 [72, 3, 3, 41] scale=0.0056351917 zero_point=0
000000 02 01 5e f4 fe f5 f9 0a 01 f2 03 dc fe 05 f0 0c
       0.011270383 0.0056351917 0.529708 -0.067622304 -0.011270383 -0.06198711 -0.039446343 0.056351915 0.0056351917 -0.078892685 0.016905576 -0.2028669 -0.011270383 0.028175958 -0.09016307 0.067622304
000010 fe 0e fe 0c 0c fd 17 0a fb ea fe fd 02 f9 00 ff
       -0.011270383 0.078892685 -0.011270383 0.067622304 0.067622304 -0.016905576 0.1296094 0.056351915 -0.028175958 -0.12397422 -0.011270383 -0.016905576 0.011270383 -0.039446343 0.0 -0.0056351917
000020 0d f9 03 01 0d f7 04 fe fc ff ff fe ee fd f8 fc
       0.07325749 -0.039446343 0.016905576 0.0056351917 0.07325749 -0.050716724 0.022540767 -0.011270383 -0.022540767 -0.0056351917 -0.0056351917 -0.011270383 -0.10143345 -0.016905576 -0.045081533 -0.022540767
000030 06 01 fc 0b fd fb 01 ef 07 02 36 fc f5 04 00 fa
       0.033811152 0.0056351917 -0.022540767 0.06198711 -0.016905576 -0.028175958 0.0056351917 -0.09579826 0.039446343 0.011270383 0.30430034 -0.022540767 -0.06198711 0.022540767 0.0 -0.033811152
000040 00 06 f6 f8 fd 01 f7 ff f5 07 f7 fe fc 0b fb 00
       0.0 0.033811152 -0.056351915 -0.045081533 -0.016905576 0.0056351917 -0.050716724 -0.0056351917 -0.06198711 0.039446343 -0.050716724 -0.011270383 -0.022540767 0.06198711 -0.028175958 0.0
000050 ff fc f9 02 b8 db 0a 03 f4 08 09 18 f2 1a fc fc
       -0.0056351917 -0.022540767 -0.039446343 0.011270383 -0.4057338 -0.2085021 0.056351915 0.016905576 -0.067622304 0.045081533 0.050716724 0.13524461 -0.078892685 0.14651498 -0.022540767 -0.022540767
000060 1a ef 03 36 fe e6 04 f7 e1 fa 13 f0 04 ff ff 02
       0.14651498 -0.09579826 0.016905576 0.30430034 -0.011270383 -0.14651498 0.022540767 -0.050716724 -0.17469095 -0.033811152 0.10706864 -0.09016307 0.022540767 -0.0056351917 -0.0056351917 0.011270383
000070 01 f4 06 f3 f7 05 02 15 ff fe fe fe ff 07 ea 04
       0.0056351917 -0.067622304 0.033811152 -0.07325749 -0.050716724 0.028175958 0.011270383 0.118339024 -0.0056351917 -0.011270383 -0.011270383 -0.011270383 -0.0056351917 0.039446343 -0.12397422 0.022540767
000080 fe 05 03 07 fe 0b d9 e0 08 f7 fd f8 ac ff 00 07
       -0.011270383 0.028175958 0.016905576 0.039446343 -0.011270383 0.06198711 -0.21977247 -0.18032613 0.045081533 -0.050716724 -0.016905576 -0.045081533 -0.4733561 -0.0056351917 0.0 0.039446343
000090 0f 0b 05 f0 00 00 00 00 05 01 04 02 bf fa 08 09
       0.08452787 0.06198711 0.028175958 -0.09016307 0.0 0.0 0.0 0.0 0.028175958 0.0056351917 0.022540767 0.011270383 -0.36628747 -0.033811152 0.045081533 0.050716724
0000a0 06 04 06 ff fe 01 0f 01 02 f2 01 01 00 f5 06 f3
       0.033811152 0.022540767 0.033811152 -0.0056351917 -0.011270383 0.0056351917 0.08452787 0.0056351917 0.011270383 -0.078892685 0.0056351917 0.0056351917 0.0 -0.06198711 0.033811152 -0.07325749
0000b0 f9 23 f1 0c ef d2 fb 0e fd 17 01 00 f9 fe 00 fa
       -0.039446343 0.19723171 -0.08452787 0.067622304 -0.09579826 -0.2592188 -0.028175958 0.078892685 -0.016905576 0.1296094 0.0056351917 0.0 -0.039446343 -0.011270383 0.0 -0.033811152
0000c0 fc 00 fb f4 02 f7 f2 00 fe 04 00 f6 f6 fd 0c fe
       -0.022540767 0.0 -0.028175958 -0.067622304 0.011270383 -0.050716724 -0.078892685 0.0 -0.011270383 0.022540767 0.0 -0.056351915 -0.056351915 -0.016905576 0.067622304 -0.011270383
0000d0 ff ff f3 02 fe 03 f1 f5 f3 0a 09 00 06 09 da fb
       -0.0056351917 -0.0056351917 -0.07325749 0.011270383 -0.011270383 0.016905576 -0.08452787 -0.06198711 -0.07325749 0.056351915 0.050716724 0.0 0.033811152 0.050716724 -0.21413729 -0.028175958
0000e0 ff fd 03 f0 ff f8 00 fc f8 03 01 0f fc 03 24 e7
       -0.0056351917 -0.016905576 0.016905576 -0.09016307 -0.0056351917 -0.045081533 0.0 -0.022540767 -0.045081533 0.016905576 0.0056351917 0.08452787 -0.022540767 0.016905576 0.2028669 -0.1408798
0000f0 fd ee 04 fa 0b fd 00 fc 01 03 ff 02 ff 00 01 00
       -0.016905576 -0.10143345 0.022540767 -0.033811152 0.06198711 -0.016905576 0.0 -0.022540767 0.0056351917 0.016905576 -0.0056351917 0.011270383 -0.0056351917 0.0 0.0056351917 0.0

fuse_attr_11 i1 [34, 3, 3, 39] scale=0.0052067735 zero_point=0
000000 0f 0e fa 0c 02 01 11 01 ef 0b 09 fd 06 f8 16 fd
       0.078101605 0.07289483 -0.031240642 0.062481284 0.010413547 0.0052067735 0.08851515 0.0052067735 -0.08851515 0.05727451 0.046860963 -0.015620321 0.031240642 -0.04165419 0.11454902 -0.015620321
000010 f9 0d f9 fa 08 fd fd fe e5 ed 11 09 1a f5 fc fc
       -0.036447413 0.067688055 -0.036447413 -0.031240642 0.04165419 -0.015620321 -0.015620321 -0.010413547 -0.14058289 -0.0989287 0.08851515 0.046860963 0.13537611 -0.05727451 -0.020827094 -0.020827094
000020 00 00 02 08 0d f8 0e f5 f9 fb 0f 03 fe 13 ff 00
       0.0 0.0 0.010413547 0.04165419 0.067688055 -0.04165419 0.07289483 -0.05727451 -0.036447413 -0.026033867 0.078101605 0.015620321 -0.010413547 0.0989287 -0.0052067735 0.0
000030 0a 03 ee 02 f4 08 f7 fc 0a 03 ed 02 fb fc fe f2
       0.052067734 0.015620321 -0.093721926 0.010413547 -0.062481284 0.04165419 -0.046860963 -0.020827094 0.052067734 0.015620321 -0.0989287 0.010413547 -0.026033867 -0.020827094 -0.010413547 -0.07289483
000040 fd 05 05 06 f6 fc e9 ff ff 02 08 01 06 0e ff f9
       -0.015620321 0.026033867 0.026033867 0.031240642 -0.052067734 -0.020827094 -0.11975579 -0.0052067735 -0.0052067735 0.010413547 0.04165419 0.0052067735 0.031240642 0.07289483 -0.0052067735 -0.036447413
000050 fd 02 07 ec 03 fe 05 0c 1d fe ff fb 02 f9 ef 05
       -0.015620321 0.010413547 0.036447413 -0.10413547 0.015620321 -0.010413547 0.026033867 0.062481284 0.15099643 -0.010413547 -0.0052067735 -0.026033867 0.010413547 -0.036447413 -0.08851515 0.026033867
000060 04 f1 18 01 fc 01 f5 fa 01 19 1b fa 00 f8 01 fb
       0.020827094 -0.078101605 0.12496257 0.0052067735 -0.020827094 0.0052067735 -0.05727451 -0.031240642 0.0052067735 0.13016933 0.14058289 -0.031240642 0.0 -0.04165419 0.0052067735 -0.026033867
000070 03 fd 02 00 04 03 04 f7 0a fc 02 1c 01 ff 05 0b
       0.015620321 -0.015620321 0.010413547 0.0 0.020827094 0.015620321 0.020827094 -0.046860963 0.052067734 -0.020827094 0.010413547 0.14578965 0.0052067735 -0.0052067735 0.026033867 0.05727451
000080 fc 0b f5 21 f8 f3 05 df f9 03 00 f0 fd ef fa 0b
       -0.020827094 0.05727451 -0.05727451 0.17182353 -0.04165419 -0.067688055 0.026033867 -0.17182353 -0.036447413 0.015620321 0.0 -0.08330838 -0.015620321 -0.08851515 -0.031240642 0.05727451
000090 0a 11 f9 f6 0d 02 00 fe 05 fe f8 09 01 05 f6 06
       0.052067734 0.08851515 -0.036447413 -0.052067734 0.067688055 0.010413547 0.0 -0.010413547 0.026033867 -0.010413547 -0.04165419 0.046860963 0.0052067735 0.026033867 -0.052067734 0.031240642
0000a0 04 fd 04 ff 01 00 07 fd 03 01 07 f1 fd 05 f0 f0
       0.020827094 -0.015620321 0.020827094 -0.0052067735 0.0052067735 0.0 0.036447413 -0.015620321 0.015620321 0.0052067735 0.036447413 -0.078101605 -0.015620321 0.026033867 -0.08330838 -0.08330838
0000b0 00 f7 ee f4 f4 fc 03 04 0e 02 fd fe 02 fb 01 03
       0.0 -0.046860963 -0.093721926 -0.062481284 -0.062481284 -0.020827094 0.015620321 0.020827094 0.07289483 0.010413547 -0.015620321 -0.010413547 0.010413547 -0.026033867 0.0052067735 0.015620321
0000c0 00 03 0a 00 fd 03 0e 04 fa 0e fc 01 06 03 ff ff
       0.0 0.015620321 0.052067734 0.0 -0.015620321 0.015620321 0.07289483 0.020827094 -0.031240642 0.07289483 -0.020827094 0.0052067735 0.031240642 0.015620321 -0.0052067735 -0.0052067735
0000d0 03 f2 f5 f0 fe 01 01 08 f2 ec 01 f2 07 00 07 05
       0.015620321 -0.07289483 -0.05727451 -0.08330838 -0.010413547 0.0052067735 0.0052067735 0.04165419 -0.07289483 -0.10413547 0.0052067735 -0.07289483 0.036447413 0.0 0.036447413 0.026033867
0000e0 f9 01 fe fa fa ff f4 fe fb 02 ff 06 eb 02 fe 05
       -0.036447413 0.0052067735 -0.010413547 -0.031240642 -0.031240642 -0.0052067735 -0.062481284 -0.010413547 -0.026033867 0.010413547 -0.0052067735 0.031240642 -0.10934225 0.010413547 -0.010413547 0.026033867
0000f0 0c 00 ff 0e 09 fa 10 f6 13 01 fd 03 fb 05 07 fa
       0.062481284 0.0 -0.0052067735 0.07289483 0.046860963 -0.031240642 0.08330838 -0.052067734 0.0989287 0.0052067735 -0.015620321 0.015620321 -0.026033867 0.026033867 0.036447413 -0.031240642

fuse_attr_5 i1 [10, 3, 3, 1] scale=0.010805255 zero_point=0
000000 7f aa c6 00 ee 0a fe f7 ff 00 00 00 ff ff ff ff
       1.3722674 -0.9292519 -0.62670475 0.0 -0.19449459 0.10805255 -0.02161051 -0.097247295 -0.010805255 0.0 0.0 0.0 -0.010805255 -0.010805255 -0.010805255 -0.010805255
000010 00 ff 20 15 da 16 13 db 08 0b ee 00 00 00 00 00
       0.0 -0.010805255 0.34576815 0.22691035 -0.41059968 0.2377156 0.20529984 -0.39979443 0.08644204 0.1188578 -0.19449459 0.0 0.0 0.0 0.0 0.0
000020 00 00 00 00 13 e3 d7 29 e8 d6 28 f3 e5 00 03 01
       0.0 0.0 0.0 0.0 0.20529984 -0.31335238 -0.44301546 0.44301546 -0.2593261 -0.4538207 0.4322102 -0.14046831 -0.29174188 0.0 0.032415763 0.010805255
000030 fd fe fd fe ff fe ff 01 00 fe ff fe ff ff ff 07
       -0.032415763 -0.02161051 -0.032415763 -0.02161051 -0.010805255 -0.02161051 -0.010805255 0.010805255 0.0 -0.02161051 -0.010805255 -0.02161051 -0.010805255 -0.010805255 -0.010805255 0.07563678
000040 0a 05 05 0b 01 f1 f5 f6 0e 08 03 f2 e9 dd dc b4
       0.10805255 0.054026276 0.054026276 0.1188578 0.010805255 -0.16207883 -0.1188578 -0.10805255 0.15127356 0.08644204 0.032415763 -0.15127356 -0.24852087 -0.37818393 -0.38898918 -0.82119936
000050 52 19 fe df 14 01 e7 e5 02 06
       0.8860309 0.27013138 -0.02161051 -0.3565734 0.2161051 0.010805255 -0.27013138 -0.29174188 0.02161051 0.064831525

Xq.1_attr i1 [3, 3] scale=0.014971038 zero_point=0
000000 30 31 81 84 39 44 3c 90 3f
       0.7186098 0.7335809 -1.9013219 -1.8564087 0.8533492 1.0180306 0.8982623 -1.6767563 0.94317544
