trained_models/step_5_retrain_after_step_4/retrain_4C_after_2nd_pruning_prunratio0.85_2024060419/retrained_4Cmodel_ratio85.0_vaacc93.47826385498047_tracc_81.25@697epoch_20240604224638.pt (torch, 307722 bytes, 62 tensors)

sfeb.0.weight f4 [8, 1, 1, 9]
0	0x3e81b22f	0.25331256
1	0x3e1b06c8	0.15139306
2	0x3e931aa1	0.28731254
3	0x3eb006c1	0.34380153
4	0x3d9fa3f8	0.077949464
5	0xbe86553c	-0.26236904
6	0xbef5579f	-0.47918412
7	0xbe901659	-0.2814205
8	0xbd7197a5	-0.05898251
9	0x3b6f761a	0.00365389
10	0x3c11c0d7	0.008896074
11	0xbd9bf7ed	-0.076156475
12	0xbe995ffa	-0.29956037
13	0x3d732e2a	0.059370197
14	0xbe43de07	-0.19127665
15	0xbe973c85	-0.2953836
16	0x3eb6b2ab	0.35683188
17	0x3f101107	0.5627598
18	0xbe33021f	-0.17481278
19	0xbe5ec34d	-0.21754189
20	0x3e5f416f	0.21802305
21	0x3d901310	0.07034886
22	0xbe3ca066	-0.18420562
23	0xbe6e9d1b	-0.23302118
24	0x3e00ad2e	0.12566063
25	0xbea0a7a8	-0.31377912
26	0xbed45f03	-0.41478738
27	0x3f30d2fe	0.6907195
28	0x3ebc4e9e	0.3677873
29	0xbd4eea1c	-0.050516233
30	0xbba5dd1f	-0.00506176
31	0xbe30f34e	-0.17280313
32	0x3c5466f3	0.012963998
33	0x3df6bcd4	0.12047735
34	0xbc978627	-0.018496586
35	0x3db2c491	0.08728898
36	0xbf1d8923	-0.6153738
37	0xbeb2c21d	-0.34913722
38	0x3d5ba9b3	0.053628635
39	0x3d930305	0.0717831
40	0x3e942547	0.2893469
41	0x3e4fc68c	0.20290583
42	0xbe35f141	-0.17767812
43	0x3d09d9fe	0.03365516
44	0xbe0f7c10	-0.1401217
45	0xbe9c2ce7	-0.30503008
46	0xbd0c4a0b	-0.0342503
47	0x3e4a6305	0.19764335
48	0x3dc4aebd	0.09603641
49	0xbed27b94	-0.41109908
50	0x3db452a5	0.08804826
51	0x3f15a01e	0.58447444
52	0xbd422ed1	-0.04740793
53	0xbf0231fd	-0.50857526
54	0xbd72fb0d	-0.059321452
55	0xbe623404	-0.22090155
56	0x3e672a79	0.22574796
57	0xbdb620bb	-0.088929616
58	0xbee822c6	-0.4533903
59	0x3f00acb7	0.5026354
60	0x3ca6aa5a	0.020344902
61	0xbee54903	-0.44782266
62	0x3ed3bdf5	0.41355863
63	0x3d295de0	0.04134929
64	0x3c00b7e8	0.007856347
65	0xbe49b87d	-0.19699283
66	0xbdefedfe	-0.11715315
67	0x3e3e434d	0.1858036
68	0x3e584dd3	0.21123438
69	0xbd03d604	-0.032186523
70	0x3e9fdb1b	0.31221852
71	0x3f113f6f	0.56737417

sfeb.1.weight f4 [8]
0	0x3f6ab0d4	0.9167607
1	0x3f45e331	0.7729979
2	0x3f35391e	0.7079028
3	0x3f41f7d1	0.7576876
4	0x3f49ea25	0.788729
5	0x3f0904e0	0.53523064
6	0x3ef34146	0.47510737
7	0x3f322ef5	0.696029

sfeb.1.bias f4 [8]
0	0x3d304cd5	0.043042023
1	0x3d12a096	0.035797678
2	0x3d91e2c7	0.071233325
3	0x3e670edb	0.2256426
4	0x3d9598ce	0.07304536
5	0x3e4f29e7	0.20230828
6	0x3d980b85	0.07424072
7	0x3d717188	0.058946162

sfeb.1.running_mean f4 [8]
0	0x365b60f1	3.268997e-06
1	0x3769f1db	1.3944194e-05
2	0xb8eb3e85	-0.000112173184
3	0x38d7e2fe	0.000102942795
4	0xb883b1b5	-6.279667e-05
5	0xb80e05d2	-3.386086e-05
6	0xb724fd5c	-9.834152e-06
7	0x38cd6230	9.7934506e-05

sfeb.1.running_var f4 [8]
0	0x3cba0e22	0.022711817
1	0x3c4ba9d7	0.01243063
2	0x3c313f4f	0.010818317
3	0x3ca0f60e	0.019648578
4	0x3c9c7f9c	0.019103818
5	0x3bd2b339	0.0064300564
6	0x3ad4522d	0.0016198807
7	0x3c6167d0	0.013757661

sfeb.3.weight f4 [32, 8, 1, 5]
0	0x3d5e0c70	0.05421108
1	0xbe3535d7	-0.1769632
2	0xbcc3c074	-0.02389548
3	0x3d27f4f1	0.04100508
4	0xbe15f99d	-0.14646001
5	0xbda3af9e	-0.07992481
6	0xbdedc9e6	-0.11610775
7	0xbd544599	-0.051824186
8	0xbb39db87	-0.0028359608
9	0xbcc9eccb	-0.024649044
10	0x3e76963f	0.24080752
11	0x3e529154	0.20563251
12	0x3e72650a	0.23671356
13	0x3e090711	0.13381602
14	0x3db1e64e	0.08686505
15	0xbdd82a42	-0.10554935
16	0xbd4de3cb	-0.05026607
17	0xbe8699e2	-0.26289278
18	0xbd3bea43	-0.045877706
19	0xbde8f4c2	-0.11374809
20	0x3e1e7104	0.154728
21	0x3e385a78	0.18003261
22	0x3d8f0ef9	0.06985278
23	0x3e35bf63	0.1774879
24	0x3e1e5e12	0.15465572
25	0x3d670031	0.056396667
26	0xbca88d66	-0.020575237
27	0xbd881555	-0.06644694
28	0xbb7e0893	-0.0038762435
29	0x3d0f41c5	0.034974832
30	0x3aa8ccd5	0.0012878428
31	0xbce2e86e	-0.027698722
32	0x3d1e3a4e	0.038629822
33	0x3d180bc5	0.0371206
34	0xbbfc4a0a	-0.007699256
35	0xbd6c8814	-0.05774696
36	0xbdc55307	-0.09634977
37	0xbe182a11	-0.14859797
38	0xbcbdaae3	-0.023152774
39	0xbd495cd7	-0.049160805
40	0xbe2dc09a	-0.16968003
41	0xbe249c7e	-0.16075322
42	0xbd168b39	-0.036753867
43	0x3d80ff01	0.06298638
44	0x3da690b5	0.081330694
45	0xbbf25b23	-0.0073961182
46	0xbe10b76c	-0.1413247
47	0xbdf3fe60	-0.119137526
48	0xbd0bb343	-0.034106504
49	0xbd81df67	-0.06341439
50	0x3db9b39f	0.09067463
51	0x3dac7aba	0.08421846
52	0x3da00ed4	0.07815328
53	0x3e730aa4	0.23734528
54	0x3e925e84	0.28587735
55	0xbe6529c9	-0.22379221
56	0xbde7bba9	-0.1131509
57	0xbddd14bb	-0.1079497
58	0xbcaf4493	-0.021395003
59	0xbd0572ea	-0.032580294
60	0x3e185536	0.14876255
61	0x3e0d555c	0.13802093
62	0x3ca7253c	0.020403497
63	0xbd9dc2ad	-0.07703147
64	0x3c10b739	0.008832746
65	0xbbe8eaeb	-0.0071080825
66	0x3df068c3	0.11738732
67	0xbca60693	-0.020266807
68	0xba923d88	-0.0011157254
69	0x3c821ced	0.015882934
70	0xbbb583f8	-0.0055394135
71	0xbd4c0d8f	-0.049817618
72	0xbc800d7c	-0.01563143
73	0xbdd12692	-0.10212435
74	0xbd024a97	-0.031809416
75	0xbd7a7b30	-0.061152637
76	0xbd8acc7f	-0.06777286
77	0xbe7fd783	-0.24984555
78	0xbe2fe691	-0.17177798
79	0xbdd87c04	-0.10570529
80	0xbe0e0f97	-0.13873135
81	0xbe5c6c56	-0.21525702
82	0xbd29bef5	-0.041441876
83	0xbccd7d60	-0.025084198
84	0xbdc86c55	-0.09786288
85	0xbdf73364	-0.12070349
86	0xbd8c2c90	-0.06844437
87	0xbd8b7264	-0.06808928
88	0xbe3810e4	-0.17975193
89	0xbe14ef43	-0.14544396
90	0x3e0bd0cc	0.13653868
91	0x3e578bd9	0.21049441
92	0x3df928ed	0.12166009
93	0x3e34ceac	0.17656964
94	0x3e831bdc	0.25607193
95	0xbe48ccd1	-0.19609381
96	0xbdc03835	-0.09385721
97	0xbe4939ac	-0.19650906
98	0xbdf6277a	-0.12019248
99	0xbdcd8d20	-0.10036683
100	0xbd59326f	-0.053026613
101	0x3ae08351	0.0017128979
102	0x3d1398c6	0.036034368
103	0x3de84b8c	0.113425344
104	0x3d393dcb	0.045224946
105	0xbd340247	-0.043947484
106	0x3d6e1a86	0.058130763
107	0xbd54a729	-0.05191723
108	0x3db98d92	0.090602055
109	0x3d1925d7	0.037389603
110	0xbd4351b3	-0.047685336
111	0xbbbdebff	-0.005795955
112	0xbd77bebd	-0.060484637
113	0xbd8f5ed9	-0.07000513
114	0xbdf5084f	-0.11964475
115	0xbe1703cc	-0.14747542
116	0xbe832c5e	-0.25619787
117	0xbe86e2a7	-0.26344797
118	0xbe021a03	-0.12705235
119	0xbe060dbe	-0.1309118
120	0xbdd7b537	-0.10532611
121	0x3d91171b	0.07084485
122	0xbdf2be7c	-0.11852738
123	0xbd8c5ae6	-0.06853275
124	0xbe72515c	-0.23663849
125	0xbe014998	-0.1262573
126	0xbcfe3a60	-0.031033695
127	0x3d330729	0.043708
128	0xbcb90003	-0.022583013
129	0xbd957f85	-0.07299713
130	0xbea763c0	-0.3269329
131	0xbe823245	-0.25428978
132	0xbe65fc0c	-0.2245943
133	0xbe63f63c	-0.222619
134	0xbeae4fde	-0.3404531
135	0x3dc5095b	0.09620925
136	0x3e560a42	0.2090235
137	0x3e9a85a1	0.30180076
138	0x3e1c1d8f	0.1524565
139	0x3df9e2ac	0.12201437
140	0xbd7d8d14	-0.06190212
141	0xbdf78b23	-0.12087085
142	0xbe919d02	-0.284401
143	0xbdb50ce2	-0.08840348
144	0xbdead7bd	-0.1146693
145	0x3d0eabb2	0.03483171
146	0xbe17824f	-0.14795803
147	0xbe12f814	-0.14352447
148	0xbe3fc13a	-0.18726054
149	0xbe380614	-0.17971069
150	0xbde66437	-0.11249583
151	0xbe39388b	-0.18087976
152	0xbe7774bf	-0.24165629
153	0xbe144e0c	-0.14482898
154	0xbdf39b8b	-0.11894902
155	0x3e3aada8	0.18230307
156	0x3e4db762	0.20089486
157	0x3e71369c	0.23555988
158	0x3eb8310e	0.35974926
159	0x3eab7de7	0.33494493
160	0xbe113050	-0.14178586
161	0xbdbb7da1	-0.09154821
162	0xbe0f0964	-0.13968426
163	0xbdd5c073	-0.104370974
164	0xbd2d9399	-0.04237709
165	0x3d987ec2	0.07446052
166	0x3c930406	0.017946254
167	0x3c183f9c	0.009292509
168	0x3d6e449c	0.0581709
169	0x3c0d878c	0.008638274
170	0xbe0235f4	-0.12715894
171	0xbdac3cd7	-0.08410042
172	0xbdeb7c01	-0.11498261
173	0xbe3bfbf8	-0.18357837
174	0xbdaa1478	-0.08304685
175	0xbe4b9653	-0.19881563
176	0xbe070cf5	-0.13188536
177	0xbcbe3da8	-0.02322276
178	0xbb9c6c73	-0.0047736703
179	0x3d8e3672	0.06943978
180	0xbde27656	-0.11057727
181	0xbd01b40c	-0.031665847
182	0x3d2b6143	0.041840803
183	0xbd1e6942	-0.0386746
184	0xbdc0a6d6	-0.094068214
185	0xbd154318	-0.03644094
186	0xbd0ae02e	-0.0339052
187	0x3cdc7a2b	0.026913723
188	0xbd5de124	-0.05416979
189	0xbd022eae	-0.0317828
190	0xbd314e67	-0.04328766
191	0x3bd3d075	0.006464059
192	0xbcea4a19	-0.028599786
193	0xbb8bac17	-0.004262458
194	0xbd3a6787	-0.045508888
195	0xbd7fb033	-0.062423896
196	0x3cf571df	0.029961525
197	0x3dc54d20	0.09633851
198	0x3dfd5847	0.12370353
199	0x3e3d977b	0.18514816
200	0xbd46c1f5	-0.048524816
201	0xbe2d66d2	-0.16933754
202	0xbe381ad5	-0.17978986
203	0xbe543c01	-0.20726015
204	0xbdbcf32f	-0.09226071
205	0x3dbab292	0.09116091
206	0x3e6c4826	0.23074397
207	0x3de00163	0.109377645
208	0x3d703587	0.058644798
209	0x3e09f6e6	0.1347309
210	0x3dc59136	0.096468374
211	0xbd5c30ce	-0.05375748
212	0xbd0d8f08	-0.034560233
213	0xbdad5f9e	-0.08465503
214	0xbe414915	-0.18875535
215	0xbdd4bfdf	-0.10388159
216	0xbe6c1ce8	-0.23057902
217	0xbe643aa3	-0.22287993
218	0xbd9c5925	-0.076341905
219	0x3ca03e1b	0.019560864
220	0xbcb287cf	-0.021793274
221	0x3c3339d1	0.0109390775
222	0xbc57ee5a	-0.013179386
223	0x3e33694c	0.17520636
224	0x3cd523e1	0.026018085
225	0xbad2659d	-0.0016052012
226	0x3d2ee579	0.04269931
227	0x3c2279f8	0.009916775
228	0x3d5d50a3	0.05403198
229	0xbd8b7db3	-0.068110846
230	0x3da42ca2	0.080163255
231	0x3d75ea13	0.060037684
232	0x3da36f61	0.07980228
233	0x3da838ab	0.082139336
234	0xbc06a8e4	-0.008218978
235	0xbd48b173	-0.048997354
236	0xbd574c20	-0.052562833
237	0x3d55fa1a	0.05224047
238	0x3dd8da8a	0.10588558
239	0x3de9a369	0.11408121
240	0x3e0390aa	0.12848154
241	0x3dc9c63e	0.09852265
242	0x3db6254e	0.08893834
243	0x3da5a3c5	0.08087877
244	0x3da03512	0.07822622
245	0xbe29e75e	-0.16592166
246	0xbe4699f3	-0.19394664
247	0xbe681412	-0.22663906
248	0xbd2b3166	-0.041795157
249	0xbcb675cb	-0.022272965
250	0xbcbc5872	-0.022991393
251	0x3c138b91	0.009005443
252	0x3dcabe5c	0.098995894
253	0x3da03836	0.078232214
254	0x3e34ba89	0.17649283
255	0x3e762c49	0.24040331

sfeb.4.weight f4 [32]
0	0x3f3f44bb	0.7471425
1	0x3edb1eb2	0.42796856
2	0x3f4ae3b5	0.79253703
3	0x3f958abc	1.1682963
4	0x3eac4494	0.3364607
5	0x3ebbfcca	0.367163
6	0x3f11dac2	0.5697442
7	0x3a186df2	0.0005814723
8	0x3edcd632	0.43132168
9	0x3f03e43b	0.5152013
10	0x3c61f750	0.013791874
11	0x3f20d68f	0.6282739
12	0x3f190c15	0.5978406
13	0x3f3fa7ea	0.7486559
14	0x3f68b9f4	0.9090874
15	0xba44123e	-0.0007479525
16	0x3f17364a	0.59067214
17	0x3eda2dd3	0.42613086
18	0x3f114339	0.567432
19	0x3982da05	0.0002495797
20	0x3f067978	0.52529097
21	0x3f10fa35	0.56631786
22	0x3f382f89	0.7194753
23	0x3edcee21	0.43150428
24	0x3a206966	0.0006119221
25	0x3a470d5a	0.0007593237
26	0x3ec9a88d	0.39386407
27	0x3f0a90cf	0.5412721
28	0x3ebecd02	0.37265784
29	0x3f0bed0e	0.5465859
30	0x3eddc184	0.43311703
31	0x3ecdb93d	0.40180388

sfeb.4.bias f4 [32]
0	0x3e3044c5	0.17213733
1	0xbe4e5b2a	-0.20151964
2	0xbe18aec8	-0.14910424
3	0xbd4fa4fe	-0.05069446
4	0xbd792d17	-0.060834017
5	0x394691d8	0.00018937082
6	0x3e04e32f	0.12977289
7	0xbd86bd28	-0.065790474
8	0x3d1b83f8	0.037967652
9	0xbda8ff7e	-0.08251856
10	0xbcbea52f	-0.023272125
11	0x3d3a7b22	0.045527585
12	0x3dd6a12b	0.10479959
13	0x3dbad1f7	0.09122079
14	0x3d5d2123	0.05398668
15	0xbd1f2e34	-0.038862422
16	0xbd9b6b34	-0.07588807
17	0x3d7d3645	0.061819334
18	0xbd32eb30	-0.043681324
19	0xbcb0d5d0	-0.021586329
20	0x3c38f38d	0.011288536
21	0xbe21b673	-0.15792255
22	0xbdb2704a	-0.08712824
23	0x3cf1cc04	0.029516228
24	0xbc92bf7c	-0.017913572
25	0xbca1befa	-0.019744385
26	0x3d19a69d	0.03751241
27	0xbd471b7f	-0.048610207
28	0xbdded897	-0.10881155
29	0xbd9f1f2e	-0.07769619
30	0xbdd8a99f	-0.10579228
31	0x3d9888c6	0.074479625

sfeb.4.running_mean f4 [32]
0	0xbcd32348	-0.02577366
1	0xbe4fcef2	-0.20293787
2	0xbee1c18a	-0.4409297
3	0xbe9802d6	-0.29689664
4	0xbea818c8	-0.32831407
5	0xbe2f063c	-0.17092222
6	0xbe1a0852	-0.15042236
7	0x3c35192d	0.011053366
8	0xbe8ad5de	-0.27116293
9	0xbe1cea1d	-0.15323682
10	0xbd326aa4	-0.04355873
11	0xbe5fd1f1	-0.2185743
12	0xbd874689	-0.066052504
13	0x3dd301d7	0.10303085
14	0xbe5f4271	-0.21802689
15	0xbb3d3645	-0.0028871458
16	0xbea55e19	-0.32298353
17	0xbe8c7c07	-0.27438375
18	0xbe9b96bc	-0.3038844
19	0xbbf7c0f4	-0.0075608436
20	0xbead7a18	-0.33882213
21	0xbef01cec	-0.46897066
22	0xbebc83b6	-0.36819237
23	0xbe7e21b6	-0.24817547
24	0xbc8d15a2	-0.01722223
25	0xbc819918	-0.015820071
26	0xbeb638e9	-0.35590294
27	0xbe0e3fcb	-0.13891523
28	0xbec337e0	-0.38128567
29	0xbed3b181	-0.41346362
30	0xbdb78456	-0.08960788
31	0xbd348619	-0.044073198

sfeb.4.running_var f4 [32]
0	0x3eaf6a5f	0.34260842
1	0x3eb12498	0.3459823
2	0x3f1ebcd8	0.620069
3	0x3f8b5b0c	1.088716
4	0x3e96c84b	0.29449686
5	0x3ebbe5ca	0.36698753
6	0x3eebe07d	0.46069708
7	0x3bdc6cbd	0.00672683
8	0x3e985cee	0.297584
9	0x3e55494b	0.2082874
10	0x3b45d2ba	0.0030185417
11	0x3ebdfcfe	0.3710708
12	0x3ed3948c	0.4132427
13	0x3f310eb4	0.6916306
14	0x3f624ec1	0.8840142
15	0x3afbd1b4	0.0019212277
16	0x3ef5483c	0.47906673
17	0x3f014656	0.5049795
18	0x3f382875	0.7193673
19	0x3abf0dce	0.0014576258
20	0x3f16f567	0.58968204
21	0x3f31afad	0.69408685
22	0x3f49921f	0.7873859
23	0x3ef2b304	0.47402203
24	0x3a7a48c2	0.0009547585
25	0x3a5911a2	0.00082805206
26	0x3eee1074	0.46496928
27	0x3efca0f3	0.49341545
28	0x3ecf5431	0.4049392
29	0x3ef1f01f	0.4725351
30	0x3e6c00fc	0.2304725
31	0x3e311a89	0.17295279

tfeb.0.weight f4 [13, 1, 3, 3]
0	0x3d08d33c	0.033404574
1	0x3a24918b	0.0006277791
2	0xbbb38d7b	-0.0054795123
3	0x3b8b8af2	0.004258507
4	0x3a002685	0.00048885524
5	0x3acd353b	0.0015656123
6	0x3b004f7f	0.0019578633
7	0x3bc7c871	0.0060968925
8	0x3bc9cded	0.0061585815
9	0x3c120383	0.00891197
10	0xbc2650cb	-0.0101510985
11	0x3c6bfa40	0.014402926
12	0x3c7e8040	0.015533507
13	0xbc3e6caa	-0.011622587
14	0x3c5bf35d	0.013424722
15	0x3c830780	0.015994787
16	0xbbf20158	-0.007385414
17	0x3c874b12	0.016515289
18	0x3e512d78	0.20427501
19	0x3e04ffe9	0.12988247
20	0xbecfc219	-0.40577772
21	0x3ec21c1e	0.37912077
22	0x3eeb3939	0.45942095
23	0xbf2af687	-0.6678242
24	0x3e4e6bc3	0.20158295
25	0x3e1df811	0.15426661
26	0xbee7682d	-0.45196667
27	0xbe60d6be	-0.21956918
28	0xbcbeac61	-0.023275556
29	0x3e06876e	0.131376
30	0xbf1505a2	-0.5821172
31	0x3ef7b901	0.48383334
32	0x3f08ab03	0.53385943
33	0xbe9b0d89	-0.30283764
34	0x3e19fafd	0.1503715
35	0x3e4279fd	0.18991847
36	0x3cf84891	0.03030804
37	0x3ed62d57	0.41831467
38	0xbef98916	-0.487374
39	0x3db23ae5	0.087026395
40	0x3ddde9f5	0.108356394
41	0xbeaab8c5	-0.33344093
42	0xbe26e9c7	-0.16300116
43	0xbd5d737a	-0.054065205
44	0xbea2f45a	-0.3182705
45	0x3d120c2d	0.035656143
46	0xbe2264b1	-0.15858723
47	0xbe343d93	-0.17601614
48	0x3cbcfc7a	0.023069609
49	0xbe577b43	-0.21043114
50	0xbe94d2c0	-0.2906704
51	0x3e818126	0.25293845
52	0xbe3197e5	-0.173431
53	0xbe00c9c3	-0.12576966
54	0x3f5d7aff	0.865158
55	0xbef94bce	-0.48690647
56	0xbefeca23	-0.49763593
57	0x3f6a5fcf	0.9155244
58	0xbf098050	-0.53711414
59	0xbf267e26	-0.6503624
60	0x3ee07870	0.43841887
61	0xbe989d71	-0.29807618
62	0xbeec5b34	-0.46163332
63	0xbdf0aed5	-0.117520966
64	0xbe2d9670	-0.16951919
65	0xbe05d91b	-0.130711
66	0xbdc2dfc3	-0.095153354
67	0xbe2353d9	-0.15949954
68	0xbdf56ea0	-0.11983991
69	0x3ddb46c3	0.10706856
70	0x3e6412f1	0.2227285
71	0x3e019283	0.12653546
72	0xbe2bfc1e	-0.16795394
73	0xbe95801c	-0.29199302
74	0xbdf23d7d	-0.11828134
75	0xbe1dbc7b	-0.15403931
76	0xbe83f90b	-0.25775942
77	0xbd80c42d	-0.062874176
78	0xbddaaad8	-0.10677117
79	0xbe3688e2	-0.17825654
80	0xbde9c6dc	-0.114148825
81	0xbd5624bc	-0.052281126
82	0xbdac2230	-0.08404958
83	0x3d38bd8c	0.04510264
84	0xbdde036e	-0.10840498
85	0xbe0ecf74	-0.13946325
86	0xbcd1b0fe	-0.025597092
87	0x3dddcc39	0.10829968
88	0xbeeb86d4	-0.46001303
89	0x3edccf58	0.4312694
90	0x3ea342ab	0.318868
91	0x3deff387	0.11716371
92	0x3de5bcc7	0.11217647
93	0x3e92c683	0.28667077
94	0x3d6c12e8	0.057635218
95	0x3d72f1e1	0.059312705
96	0xbd84b924	-0.06480625
97	0xbda44628	-0.08021194
98	0xbcd85e18	-0.026412055
99	0xbd9fb325	-0.07797841
100	0xbe35405f	-0.17700337
101	0xbd637c95	-0.055538733
102	0xbe3c2f88	-0.18377507
103	0xbe80d3ad	-0.25161496
104	0xbe06318b	-0.13104837
105	0x3cbcec15	0.023061791
106	0xbdefcd32	-0.1170906
107	0xbd2615e0	-0.040548205
108	0xbe900862	-0.28131396
109	0xbe643023	-0.22283988
110	0x3ea3944d	0.31949082
111	0xbf2829ad	-0.6568859
112	0xbf0fad53	-0.56123847
113	0x3f8ee876	1.1164691
114	0xbeb79614	-0.35856688
115	0xbe935bb1	-0.28780892
116	0x3eac1ff9	0.33618143

tfeb.1.weight f4 [13]
0	0xba58a15b	-0.000826379
1	0xbb10d99b	-0.002210236
2	0x3e958903	0.29206094
3	0x3e8ddd43	0.27707872
4	0x3eb56e51	0.35435727
5	0x3ea15ff8	0.3151853
6	0x3f14cfba	0.58129466
7	0x3e9c32bd	0.3050746
8	0x3f6b006e	0.9179753
9	0x3ec64b56	0.38729352
10	0x3e8b2b89	0.27181652
11	0x3effb704	0.49944317
12	0x3eff2c05	0.49838272

tfeb.1.bias f4 [13]
0	0xbc461965	-0.012091015
1	0xbc6a6ee1	-0.014308662
2	0x3e26c870	0.16287398
3	0x3e737e0d	0.23778553
4	0x3e952cb4	0.29135668
5	0x3ebdb630	0.3705306
6	0x3d0359a1	0.0320679
7	0x3d6e2f4b	0.05815057
8	0xbe96f9e3	-0.29487523
9	0xbd0d010e	-0.034424834
10	0x3e4464f8	0.19179142
11	0x3d166896	0.036720835
12	0x3e168573	0.14699344

tfeb.1.running_mean f4 [13]
0	0x3c916866	0.017749976
1	0x3ca4424e	0.020051148
2	0x3baa9646	0.0052059023
3	0x3e0d95c3	0.13826661
4	0xbe8131a3	-0.25233182
5	0xbe9cf2c0	-0.30653954
6	0xbe86033e	-0.2617435
7	0xbe0927fe	-0.13394162
8	0xbf07d230	-0.53055096
9	0xbde40762	-0.11134221
10	0x3e954dff	0.2916107
11	0xbebfd545	-0.374674
12	0xbe5e8854	-0.21731693

tfeb.1.running_var f4 [13]
0	0x3a41f6f7	0.00073991664
1	0x3a657397	0.0008752881
2	0x3db9bc6a	0.0906914
3	0x3e0cd9c1	0.13754942
4	0x3e3e837d	0.18604846
5	0x3e65ef85	0.2245465
6	0x3eba54aa	0.3639272
7	0x3e0fc4b7	0.14039885
8	0x3f1501c4	0.5820582
9	0x3d5448dc	0.051827297
10	0x3e763a84	0.2404576
11	0x3e9e0b5c	0.30868042
12	0x3e8171bf	0.25282094

tfeb.4.weight f4 [25, 13, 3, 3]
0	0x3b19c614	0.002346401
1	0xbb287cb5	-0.0025709097
2	0x3a8d0520	0.0010758974
3	0xba5ab115	-0.00083424273
4	0xbb9ed832	-0.00484755
5	0xbb409d6a	-0.00293907
6	0x3b155f66	0.0022792458
7	0xbab97f6a	-0.0014152352
8	0xb9d31db4	-0.00040267187
9	0x3ae2d089	0.001730458
10	0xbbadd841	-0.0053053205
11	0x3b787d0a	0.0037916326
12	0x3b0efed2	0.0021819365
13	0xbbcfbc83	-0.006339611
14	0x3b437a1f	0.0029827429
15	0x3b3dd629	0.002896676
16	0xbb41ff9c	-0.0029601818
17	0x3b97d9f0	0.0046341345
18	0x3d94bc07	0.07262426
19	0xbb862923	-0.0040942593
20	0x3d674ad6	0.056467853
21	0xbdc55faf	-0.09637391
22	0xbe36c4fe	-0.17848584
23	0xbe0d9275	-0.138254
24	0x3d553559	0.05205283
25	0xbdd502c6	-0.104009196
26	0xbd18946f	-0.037250932
27	0xbd1034af	-0.035206493
28	0xbd961447	-0.07328086
29	0xbca01e04	-0.019545563
30	0xbda02c3a	-0.078209355
31	0xbd73c9df	-0.05951869
32	0xb9e419f6	-0.0004350689
33	0xbdde3654	-0.10850206
34	0xbd0ee6f6	-0.03488823
35	0x3c153f7d	0.009109375
36	0x3da59976	0.08085911
37	0x3d4cff43	0.050048124
38	0x3dc11b5f	0.09429049
39	0xbca326ab	-0.0199159
40	0xbd59cb45	-0.05317237
41	0xbd7c2fc9	-0.06156901
42	0x3cc886cf	0.024478344
43	0x3c309c4c	0.010779452
44	0x3cb3bb51	0.021939905
45	0xbd748e71	-0.059706155
46	0xbc0e0408	-0.008667953
47	0xbd42813d	-0.047486532
48	0x3cf05bb0	0.029340595
49	0x3cdfcb3b	0.027318588
50	0xbd0bdf0b	-0.034148257
51	0x3d349de7	0.0440959
52	0xbb56768a	-0.0032724463
53	0x3b9e502f	0.004831336
54	0x3ddac8f7	0.10682862
55	0x3db852d2	0.09000172
56	0xbd339609	-0.043844257
57	0xbe11f1b0	-0.14252353
58	0xbd28300b	-0.041061442
59	0xbe8f3556	-0.2797038
60	0x3cfeccc9	0.031103509
61	0xbe0ab789	-0.13546576
62	0xbddca713	-0.107740544
63	0xbd5b757d	-0.053578842
64	0xbcc77d04	-0.024351604
65	0x3c803db8	0.01565443
66	0x3d6ecaf7	0.05829903
67	0x3d90e9c7	0.070758395
68	0x3da536f5	0.08067123
69	0x3b46cad4	0.0030333297
70	0xbc2173c0	-0.009854257
71	0xbc6c5a97	-0.014425895
72	0x3b58e9af	0.003309827
73	0x3c5e91b7	0.013584546
74	0x3d4782d2	0.048708744
75	0x3cecdd36	0.028914075
76	0xba40b9d8	-0.00073519116
77	0xbaaf78df	-0.0013387463
78	0x3db5ca48	0.08876473
79	0x3d0e7308	0.03477767
80	0xbb002cb5	-0.0019557897
81	0x3a7f9e08	0.00097510265
82	0xbdeda6ed	-0.11604104
83	0x3ce04f71	0.02738163
84	0x3ae54dcc	0.0017494499
85	0xbdd60719	-0.104505725
86	0x3cefad1b	0.029257348
87	0xbcb8aab1	-0.02254233
88	0xbd96cd9d	-0.07363436
89	0x3c2217b2	0.009893345
90	0x3d712332	0.058871455
91	0x3dbe2ebe	0.09286259
92	0x3d9872f0	0.074437976
93	0xbe18b861	-0.14914085
94	0xbda6aada	-0.08138056
95	0xbd943f31	-0.07238615
96	0xbd4b645d	-0.04965626
97	0xbcf9b98b	-0.030483982
98	0xbc8fb1ac	-0.017540775
99	0xbd24c01e	-0.04022228
100	0xbc3d9f01	-0.011573554
101	0xbc7e67e2	-0.015527697
102	0x3d8c02f2	0.06836499
103	0x3d4f853d	0.050664175
104	0x3c7d9788	0.015478022
105	0x3d1b5285	0.037920494
106	0x3c9fc7e6	0.019504499
107	0xbc954c18	-0.01822476
108	0x3cf125af	0.029436914
109	0xbe3e3bca	-0.18577495
110	0xbd0136f1	-0.031546537
111	0x3d54a275	0.051912744
112	0xbe37902e	-0.17926094
113	0xbbebfdcb	-0.0072018853
114	0xbc0461d1	-0.008079962
115	0xbd5b3540	-0.05351758
116	0xbc8fcc1d	-0.017553383
117	0x3abc028a	0.0014344018
118	0xbaaca0c6	-0.0013170473
119	0xb943a248	-0.00018657104
120	0xba331237	-0.00068310223
121	0xba3fef16	-0.00073216984
122	0xba228c4f	-0.0006200717
123	0x3b0867c2	0.0020813798
124	0x3a916574	0.0011092857
125	0xba0c6964	-0.00053562806
126	0xbb266d78	-0.0025394838
127	0xbb29049d	-0.0025790103
128	0xba90e053	-0.0011053182
129	0x3b2cecf4	0.0026386352
130	0x3a99f938	0.0011747247
131	0x3b0e0a67	0.002167368
132	0x3b295518	0.0025838073
133	0x3afd7ad2	0.0019338971
134	0x3b610d5a	0.0034340234
135	0xbcf0ae9f	-0.02938014
136	0xbc8dc2ee	-0.017304864
137	0xbda6cc63	-0.081444524
138	0xbd0176da	-0.031607486
139	0x3d65d611	0.056112353
140	0xbd1717c5	-0.036887903
141	0x3d26c8a6	0.040718697
142	0x3d4de20d	0.050264407
143	0x3c0261cd	0.007957888
144	0x3d64f224	0.055894986
145	0x3c8a0285	0.016846905
146	0xbd1fbe78	-0.039000005
147	0x3ce26f72	0.027641032
148	0xbda08c4a	-0.07839258
149	0xbe14c976	-0.14529976
150	0x3d5ac2f4	0.053408578
151	0xbc96976a	-0.018382747
152	0xbd80c11e	-0.06286834
153	0x3b6e798c	0.0036388366
154	0xbda3db38	-0.08000797
155	0xbd8bcd2d	-0.068262435
156	0xbdcffae1	-0.10155273
157	0xbe0996e9	-0.13436474
158	0xbd956435	-0.072945036
159	0xbd88be6d	-0.06676946
160	0xbd819a23	-0.06328227
161	0xbc623cf1	-0.013808475
162	0x3cddef97	0.027091784
163	0x3baf0a9b	0.0053418404
164	0xbca5acf2	-0.020224068
165	0xbdad2e0d	-0.08456049
166	0xbd8de9f2	-0.06929387
167	0xbd26f835	-0.040764052
168	0xbdc433a5	-0.09580163
169	0xbdae289e	-0.08503841
170	0xbcaa08e8	-0.0207562
171	0xbd2c78b6	-0.042107306
172	0xbd95d774	-0.07316485
173	0xbe35f1fe	-0.17768094
174	0xbe460632	-0.19338301
175	0xbd35cd14	-0.04438503
176	0xbe29c80b	-0.16580217
177	0xbd828949	-0.06373841
178	0xbd0cf702	-0.034415253
179	0xbda121d6	-0.07867782
180	0x3db722c0	0.08942175
181	0x3db75ecb	0.08953627
182	0x3d6c9be9	0.057765875
183	0xbd9debd5	-0.07710997
184	0xbda2feac	-0.07958731
185	0xbd809bbf	-0.06279706
186	0xbae9c68a	-0.0017835659
187	0x3c80b785	0.015712509
188	0x3d625a60	0.05526197
189	0x3d2f20e1	0.042755965
190	0x3c1eafca	0.009685466
191	0xbb7e5de8	-0.0038813297
192	0xbbb75297	-0.0055945623
193	0xbd0988a1	-0.033577565
194	0x39176c85	0.00014440909
195	0xbc8a8245	-0.01690782
196	0xbd012072	-0.031525083
197	0x3c947ee1	0.018126907
198	0x3d0914ac	0.03346698
199	0xbd3802b2	-0.044924445
200	0xbcb5fc9f	-0.022215186
201	0xbd24da26	-0.040247105
202	0xbe18181b	-0.14852946
203	0xbdadd638	-0.084881246
204	0xbd136497	-0.0359846
205	0xbd5b8b36	-0.05359956
206	0xbc419dc9	-0.011817404
207	0xbd31109a	-0.043228723
208	0xbb726807	-0.0036988275
209	0xbd7d6a93	-0.061869215
210	0x3c30c348	0.010788746
211	0x3dc35840	0.09538317
212	0xbc992d20	-0.018698275
213	0x3d935934	0.071947485
214	0x3de50ca2	0.1118405
215	0x3c921898	0.017833993
216	0x3da0acdd	0.07845471
217	0x3d832537	0.064035825
218	0x3d3f0b91	0.04664189
219	0xbce7ef1d	-0.02831226
220	0xbd2cccb9	-0.042187426
221	0xbc7145a9	-0.014726081
222	0xbd9561ec	-0.07294068
223	0xbd76f127	-0.060288575
224	0xbb94b57f	-0.0045382376
225	0x3d178afa	0.036997773
226	0xbdb35411	-0.08756269
227	0xbdf95362	-0.12174107
228	0xbbd96289	-0.0066340608
229	0xbe5cf8d4	-0.21579295
230	0xbe4e2efe	-0.20135114
231	0xbda399f9	-0.07988352
232	0xbdfc5198	-0.1232025
233	0xbdd6097e	-0.10451029
234	0xba0096b8	-0.00049052713
235	0x3a922c27	0.0011152074
236	0x3aa505e5	0.0012590258
237	0xbb1645ae	-0.0022929716
238	0xbc16933c	-0.009190377
239	0xbb59e3fb	-0.003324746
240	0xbbacff19	-0.0052794334
241	0xba7bdb6f	-0.0009607588
242	0xbb3c44cd	-0.0028727532
243	0xbb2688dc	-0.0025411164
244	0x3a9d27bc	0.0011989991
245	0xb8de6d88	-0.00010606187
246	0xbbd5fc67	-0.006530333
247	0xbb3d08b1	-0.0028844292
248	0xbb97ffba	-0.0046386393
249	0xbb44d5a2	-0.0030034562
250	0xbac62bca	-0.0015119251
251	0x3acded39	0.0015710957
252	0xbce3cf3a	-0.027808774
253	0xbd994029	-0.07482941
254	0x3d9fb89f	0.077988856
255	0xbd74f61c	-0.05980502

tfeb.5.weight f4 [25]
0	0x3ee1b9aa	0.44086963
1	0x3e3a1a04	0.18173987
2	0x3eae25ab	0.34013113
3	0x3e8d1b51	0.27559903
4	0x3ee6dc7c	0.4509009
5	0x3ebb1a17	0.36543342
6	0x3e7ae013	0.2449954
7	0x3e8cfd34	0.2753693
8	0x3f1e71bb	0.6189229
9	0x3ea7669b	0.3269547
10	0x3e61842f	0.2202308
11	0x3f182874	0.59436727
12	0x3ef69819	0.48162916
13	0x3f178df3	0.5920097
14	0x3e431af9	0.19053258
15	0x3e7ac4d9	0.24489154
16	0x3ea96bb3	0.3308998
17	0x3e6c4d21	0.23076297
18	0x3eee4c47	0.4654257
19	0x3e59df27	0.21276532
20	0x3ee1fbc1	0.44137385
21	0x3e48f437	0.1962441
22	0x3e6ed197	0.2332214
23	0x3da56ffc	0.08078
24	0x3e58ae17	0.2116016

tfeb.5.bias f4 [25]
0	0x3d1f5fcb	0.038909715
1	0x3e70fa1f	0.23532914
2	0xbc62237f	-0.013802408
3	0x3d317f4b	0.043334287
4	0xbd2d7b31	-0.042353813
5	0x3dbd9b45	0.09258131
6	0x3e2dc09b	0.16968004
7	0x3d3fef29	0.04685894
8	0xbda310c6	-0.07962184
9	0xbd289645	-0.041158933
10	0x3e018ea7	0.12652074
11	0xbd9db9c8	-0.077014506
12	0xbe414dc6	-0.18877324
13	0xbdce9203	-0.10086443
14	0x3e3abc7e	0.18235967
15	0x3e0afcd0	0.13573003
16	0xbc9b2a33	-0.01894102
17	0xbd19051f	-0.0373584
18	0xbd8a92ae	-0.06766258
19	0x3e992698	0.29912257
20	0xbe19e1dc	-0.15027565
21	0x3e96b9c2	0.29438597
22	0x3e7ab317	0.2448238
23	0x3d81782e	0.063217506
24	0xbd759e49	-0.059965406

tfeb.5.running_mean f4 [25]
0	0xbeeeaa1a	-0.46614152
1	0xbf76ff61	-0.9648343
2	0xbd7db59f	-0.061940785
3	0x3d687115	0.05674847
4	0xbf24e792	-0.6441585
5	0xbec0d9c3	-0.3766614
6	0xbef0caa7	-0.4702961
7	0xbebb23c4	-0.36550725
8	0xbef61079	-0.48059443
9	0xbedbac97	-0.42905113
10	0xbee588a0	-0.448308
11	0xbee02775	-0.43780103
12	0x3dc5a298	0.09650153
13	0xbe8f2844	-0.27960408
14	0xbebdcfa4	-0.3707248
15	0xbe0efb97	-0.13963161
16	0xbf18a091	-0.59620005
17	0xbdd8d79f	-0.105880015
18	0xbed1fa2a	-0.41011173
19	0xbeb744d7	-0.35794708
20	0xbd82806c	-0.06372151
21	0xbf1bb07f	-0.60816187
22	0xbe15cf93	-0.14629965
23	0xbe667998	-0.22507322
24	0x3df4e44b	0.11957606

tfeb.5.running_var f4 [25]
0	0x3e3a0068	0.18164217
1	0x3e2ff17c	0.17181963
2	0x3dfb6e5d	0.122769095
3	0x3d1d9947	0.038476255
4	0x3e46a713	0.19399671
5	0x3de57124	0.112032205
6	0x3db9f2c8	0.0907951
7	0x3d79d552	0.060994454
8	0x3e7726e6	0.24135932
9	0x3d8aaef6	0.067716524
10	0x3e0ef5be	0.1396093
11	0x3e8448cc	0.2583679
12	0x3dc8de0b	0.09807976
13	0x3dd31090	0.103058934
14	0x3da957a4	0.08268669
15	0x3dd5834d	0.10425434
16	0x3da8331a	0.08212872
17	0x3cd3cdbd	0.02585494
18	0x3df249a1	0.1183045
19	0x3daa8723	0.083265565
20	0x3dd8aad2	0.105794564
21	0x3e6c7270	0.2309053
22	0x3df6d5be	0.12052487
23	0x3c6f4d13	0.014605778
24	0x3d0048c1	0.031319384

tfeb.7.weight f4 [28, 25, 3, 3]
0	0x3cbaee97	0.022818847
1	0x3cb1c912	0.021702323
2	0x3d2b915f	0.041886684
3	0x3cd9fb8a	0.026609201
4	0x3c7c84a0	0.01541248
5	0x3bb26066	0.0054436205
6	0x3c2460f5	0.010032882
7	0x3d127d51	0.035764042
8	0x3cf5a45e	0.029985603
9	0x3be44f3f	0.0069674547
10	0xbc80bf25	-0.015716145
11	0xbcd2a08f	-0.025711326
12	0x3d9900f7	0.07470887
13	0x3dc89844	0.09794667
14	0x3d888434	0.06665841
15	0x3d0bf7a5	0.03417172
16	0x3c78b5ef	0.015180095
17	0xbca00ab7	-0.01953636
18	0xbcfa2a52	-0.030537758
19	0xbc61f380	-0.013790965
20	0xbd057c34	-0.032589152
21	0xbdebba40	-0.11510134
22	0xbdadbde5	-0.08483485
23	0xbd861d80	-0.065485954
24	0xbcd89713	-0.026439225
25	0x3c6fa0a1	0.014625699
26	0x3d0b6f7b	0.034041863
27	0xbd196dd9	-0.037458275
28	0xbce2c1f7	-0.02768038
29	0xbd10a194	-0.035310343
30	0xbd206d51	-0.039166752
31	0xbd47f729	-0.048819695
32	0xbca71466	-0.020395469
33	0xbbcf1d4d	-0.0063206316
34	0xbcb06e8c	-0.021537088
35	0x3da6b8a0	0.08140683
36	0x3bb65fe7	0.0055656317
37	0x3d2c4da1	0.04206622
38	0x3d943cae	0.07238136
39	0x3d1c7ed8	0.038206905
40	0x3d7f67ee	0.062354974
41	0x3d9b6bc9	0.07588918
42	0x3b593856	0.003314515
43	0x3cd66b3f	0.026174186
44	0x3d502e7a	0.050825574
45	0xbd90c1dc	-0.07068226
46	0xbd507109	-0.05088905
47	0xbb9f7e18	-0.0048673265
48	0xbc8b7be2	-0.017026845
49	0x3ce26827	0.027637554
50	0x3cb60561	0.022219362
51	0xbd1c5246	-0.0381644
52	0x3c8e3631	0.017359825
53	0x3c88552e	0.01664218
54	0xbddfd8ec	-0.109300464
55	0xbd148116	-0.03625592
56	0xbd5778f5	-0.052605588
57	0x3bdeb4ee	0.006796471
58	0xbbdb7685	-0.0066974782
59	0xbd4add50	-0.049527466
60	0x3c1fefd8	0.009761773
61	0x3d16c373	0.03680749
62	0xbb12cc5f	-0.0022399647
63	0xbc5ff328	-0.013668813
64	0xbc735918	-0.014852785
65	0x38e1110a	0.0001073201
66	0x3c274de3	0.010211441
67	0x3d5e65d0	0.054296315
68	0x3cf4e546	0.029894482
69	0x3b1a0dca	0.0023506754
70	0x3cc9c563	0.024630254
71	0x3c574ce8	0.0131408945
72	0xbd38029d	-0.044924367
73	0xbc336d22	-0.010951312
74	0xbd0f0e00	-0.03492546
75	0x3d2a2bd8	0.04154572
76	0x3deb09a8	0.11476451
77	0x3d95accb	0.07308348
78	0x3c144e8a	0.009051928
79	0x3d37096c	0.04468672
80	0x3d4c04b3	0.04980917
81	0x3c2c94f8	0.010533564
82	0x3bf40db3	0.007447922
83	0x3c985df3	0.018599486
84	0x3bde0f52	0.0067767287
85	0x3ca8f70f	0.02062562
86	0x3c4a2225	0.012337242
87	0x3c86dc1b	0.016462376
88	0x3cdcfc61	0.026975812
89	0x3c5bd435	0.013417293
90	0xbd01d371	-0.031695787
91	0xbcd5daaa	-0.026105244
92	0xbd835c94	-0.06414142
93	0x3d89f18c	0.067355245
94	0x3db07bd4	0.08617368
95	0x3d82c6e5	0.06385592
96	0x3ccab012	0.02474216
97	0x3b2c48f8	0.002628861
98	0xbd6d2b69	-0.057902727
99	0xbafca94e	-0.0019276531
100	0x3d328b9e	0.04359018
101	0x3d2b59d8	0.04183373
102	0x3ccc4f7f	0.02494025
103	0x3dae989b	0.08525201
104	0x3d20a1c0	0.039216757
105	0xbd2ab53d	-0.04167675
106	0xbb0bef38	-0.0021352302
107	0xbd706a72	-0.058695264
108	0xbd08ad41	-0.033368353
109	0xbb9fb333	-0.004873657
110	0xbbb26aeb	-0.0054448745
111	0xbd00b8f5	-0.03142639
112	0xbce6fd20	-0.028196871
113	0xbc040cd5	-0.0080597
114	0x3b57c70e	0.0032925042
115	0xbd0823bb	-0.0332372
116	0x3d32c55a	0.04364524
117	0xbc9f70ea	-0.019463021
118	0xbc70350c	-0.014661085
119	0x3be8bce2	0.0071025947
120	0x3bd873a3	0.006605582
121	0xbbf9dafb	-0.0076249815
122	0xbcbf929e	-0.023385342
123	0x3ca3f6a6	0.020015072
124	0xbacd60cd	-0.0015669108
125	0xbd157c31	-0.03649539
126	0xbc9a4305	-0.018830786
127	0xbcbc014b	-0.022949835
128	0xbacead8f	-0.0015768277
129	0xbcdfd48e	-0.027323034
130	0xbc95580a	-0.018230457
131	0xbcb731d7	-0.022362633
132	0x3d434d11	0.047680918
133	0x3d98ea3c	0.07466552
134	0x3d84a559	0.0647685
135	0x3d97b440	0.07407427
136	0x3d81324b	0.06308421
137	0x3d1717ec	0.036888048
138	0xbba32075	-0.0049782344
139	0x3b8bfa74	0.0042717997
140	0x3d2c1bc0	0.042018652
141	0xbd9eb4e6	-0.077493474
142	0xbd9ca15f	-0.076479666
143	0xbd08819f	-0.03332674
144	0xbd4184ff	-0.047245976
145	0xbce59a53	-0.02802769
146	0xbc372e47	-0.011180467
147	0x3beddd56	0.0072590513
148	0x3a9c95db	0.0011946516
149	0xbbf25a1e	-0.0073959967
150	0xbacf8a03	-0.0015833977
151	0x3cce96db	0.025218418
152	0x3d113482	0.035450466
153	0x3bbe04ad	0.0057988972
154	0x3ca773bb	0.020440927
155	0x3d3e8ef3	0.046523046
156	0xbcafd84d	-0.021465445
157	0xbcd05e2b	-0.025435528
158	0x3bb41f0b	0.0054968647
159	0xbbf37286	-0.0074294237
160	0xbc663387	-0.014050371
161	0xbbd09816	-0.0063657863
162	0xbc234f38	-0.009967618
163	0xbcab61c7	-0.020920647
164	0xbce042e9	-0.027375655
165	0xbb3fedda	-0.0029286058
166	0x3d297493	0.04137094
167	0x3cefdda6	0.029280495
168	0x3d087f3f	0.033324476
169	0x3d8508c7	0.06495815
170	0x3d1dc442	0.038517244
171	0x3d0e6f4c	0.03477411
172	0x3c6c73a9	0.014431872
173	0x3ce333bf	0.027734635
174	0xbb0f825a	-0.0021897764
175	0xbcd61803	-0.026134497
176	0x3d064f50	0.032790482
177	0xbc0e219e	-0.008675007
178	0xbcf2f80b	-0.029659292
179	0x3c5d41ea	0.013504485
180	0xbcde8b89	-0.027166145
181	0xbc1c3751	-0.009534673
182	0x3cc510a7	0.024055792
183	0xbd22a081	-0.03970385
184	0xbd658cd4	-0.056042507
185	0xbd73afe2	-0.059493907
186	0x3c044b5b	0.008074607
187	0xbc0494da	-0.00809213
188	0xbcddde8f	-0.027083663
189	0xbd6b8528	-0.057500035
190	0xbced10c2	-0.028938655
191	0xbb1d4a65	-0.0024000641
192	0x3d8a1717	0.06742685
193	0x3daf020c	0.08545312
194	0x3dca4f83	0.09878447
195	0xbd082f53	-0.033248257
196	0xbbf70002	-0.0075378427
197	0x3d4fce9b	0.050734144
198	0x3d09eaa5	0.03367104
199	0x3d0e1fbc	0.034698233
200	0x3cd9ace5	0.0265717
201	0xbd41b9b1	-0.04729623
202	0xbd8512ae	-0.064977035
203	0xbda0c3ec	-0.07849869
204	0x3daaa1f9	0.08331675
205	0x3dc7102b	0.09719881
206	0x3db0beea	0.08630164
207	0x3b94624f	0.004528321
208	0xbb90e57a	-0.004421887
209	0xbbb555b8	-0.0055339
210	0x3ce33d6f	0.027739255
211	0x3cca9f06	0.024734031
212	0x3d1a748d	0.037708808
213	0x3c400d84	0.011721972
214	0xbc2f68fd	-0.0107061835
215	0x3c33759a	0.010953331
216	0xbc2811c3	-0.010258141
217	0xbcc6a268	-0.024247363
218	0x3a360eac	0.00069449353
219	0x3cb8168a	0.022471685
220	0x3cc7008e	0.024292257
221	0x3d88c5f0	0.066783786
222	0xbcb30cdf	-0.021856723
223	0xbd00a356	-0.03140577
224	0xbc368a51	-0.011141376
225	0x3da72659	0.08161611
226	0xbd3d8690	-0.046270907
227	0xbd7ada00	-0.061243057
228	0x3d33af7d	0.04386853
229	0xbe01111b	-0.12604181
230	0xbe01f207	-0.12689982
231	0x3e25bbb8	0.1618489
232	0xbd3d2d9e	-0.046186082
233	0xbd8b3b31	-0.06798399
234	0x3d10f0dd	0.035385955
235	0x3c83c902	0.016087059
236	0x3d56a1c9	0.052400384
237	0x3db0505e	0.08609079
238	0x3d669e7d	0.05630349
239	0x3c0d2a7c	0.008616086
240	0x3d3d676b	0.046241205
241	0xbb8ad76b	-0.0042371056
242	0xbcc313ee	-0.023813214
243	0xbd1a7daf	-0.037717517
244	0x3daa85e3	0.08326318
245	0x3d4e14db	0.050312858
246	0xbd4934ab	-0.049122494
247	0xbd6bdbeb	-0.057582777
248	0xbd7adef5	-0.061247785
249	0xbcd3a6e2	-0.025836412
250	0xbd866792	-0.06562723
251	0xbe1e3fc4	-0.15454012
252	0x3cc48bde	0.023992475
253	0xbc86763c	-0.0164138
254	0xbdac7f82	-0.08422758
255	0xbd7c0484	-0.061527744

tfeb.8.weight f4 [28]
0	0x3e7a5de3	0.24449877
1	0x3ef5b1d6	0.4798724
2	0x3e7d03b7	0.24708448
3	0x3eaf805f	0.34277627
4	0x3ed64425	0.41848865
5	0x3eb5f777	0.35540363
6	0x3e955261	0.29164413
7	0x3e71e01c	0.23620647
8	0x3e2cf821	0.16891529
9	0x3ed78d37	0.42099926
10	0x3e959758	0.2921703
11	0x3ed93bc4	0.4242841
12	0x3e998577	0.29984638
13	0x3e79fb97	0.2441238
14	0x3e6dc4aa	0.23219553
15	0x3eb50f80	0.35363388
16	0x3ec52296	0.3850295
17	0x3efb67af	0.49102542
18	0x3ed40c85	0.41415802
19	0x3ec8609a	0.391362
20	0x3f01128c	0.50418925
21	0x3eb072e0	0.34462643
22	0x3e846855	0.2586085
23	0x3e96a996	0.2942626
24	0x3ef65fda	0.48120004
25	0x3eb7ab66	0.35872954
26	0x3ec48092	0.3837934
27	0x3e6c8bef	0.23100255

tfeb.8.bias f4 [28]
0	0x3e12bf37	0.14330755
1	0xbdbf2f69	-0.09335215
2	0x3cab9f31	0.020949932
3	0xbd37835e	-0.044803016
4	0xbdb10bab	-0.086448036
5	0x3c9a20b5	0.018814424
6	0x3c968820	0.018375456
7	0x3db55c09	0.08855445
8	0x3d326a05	0.04355814
9	0xbd729251	-0.05922157
10	0xbe183c23	-0.1486669
11	0xbd946bfd	-0.0724716
12	0xbcce6656	-0.025195282
13	0x3dcf53c7	0.10123401
14	0x3e35813e	0.17725083
15	0xbd37ada0	-0.044843316
16	0xbdf49574	-0.119425684
17	0xbdb4e47e	-0.08832644
18	0xbd79e28c	-0.061007068
19	0xbd9aeda4	-0.075648576
20	0xbe3a159a	-0.18172303
21	0xbd01b58b	-0.031667273
22	0x3da71cad	0.08159766
23	0xbc884e18	-0.0166388
24	0xbd1bbedc	-0.038023815
25	0xbd5cec1c	-0.05393611
26	0xbc9b46be	-0.018954631
27	0x3de0c2bb	0.10974642

tfeb.8.running_mean f4 [28]
0	0x3e58fac9	0.21189417
1	0xbe909835	-0.28241125
2	0xbe1630d2	-0.14667061
3	0xbdb30d9c	-0.0874283
4	0xbeba8e31	-0.36436608
5	0x3998af5a	0.00029122346
6	0xbe8a8d2c	-0.2706083
7	0xbe94a25b	-0.29030117
8	0xbd91049e	-0.07080959
9	0x3d85384a	0.06504877
10	0x3dd5ce8a	0.10439785
11	0x3e22a75b	0.15884154
12	0xbe04cfab	-0.12969844
13	0x3cf298d7	0.029613895
14	0x3e05a496	0.13051066
15	0xbee29f1a	-0.4426201
16	0xbe8ec2f7	-0.2788312
17	0xbcdf2441	-0.027238967
18	0xbe37ea9c	-0.1796059
19	0x3d68d93b	0.056847792
20	0xbe8021df	-0.25025842
21	0xbe726c95	-0.23674233
22	0xbf2b1552	-0.6682941
23	0xbe5e6fde	-0.21722361
24	0xbe0e1d44	-0.13878351
25	0xbd9f0096	-0.07763784
26	0xbecf6c04	-0.40512097
27	0x3ede753e	0.43448824

tfeb.8.running_var f4 [28]
0	0x3cff7d97	0.031187816
1	0x3dfc830a	0.12329681
2	0x3c881c77	0.016615136
3	0x3d0eb51f	0.0348407
4	0x3d942cf6	0.07235138
5	0x3d0e635e	0.034762733
6	0x3cc6822a	0.024231989
7	0x3d2cf849	0.04222897
8	0x3c11fa78	0.008909814
9	0x3db79215	0.0896341
10	0x3caa787f	0.02080941
11	0x3d0a246e	0.03372615
12	0x3d958069	0.07299883
13	0x3d67838c	0.056521937
14	0x3d5e38c7	0.054253366
15	0x3d142633	0.036169242
16	0x3d726773	0.059180688
17	0x3e108637	0.14113699
18	0x3de81657	0.11332386
19	0x3d6427c2	0.05570198
20	0x3da58f2f	0.08083951
21	0x3d9ee72a	0.07758935
22	0x3d185e82	0.037199505
23	0x3d93b037	0.07211345
24	0x3d69bb85	0.0570636
25	0x3d1da2d8	0.038485378
26	0x3d0c212c	0.034211323
27	0x3d45f32a	0.048327602

tfeb.11.weight f4 [32, 28, 3, 3]
0	0xbcbf4b85	-0.02335144
1	0xbcf353e1	-0.029703083
2	0xbd058381	-0.032596115
3	0x3d023a08	0.031793624
4	0x3d167b71	0.036738817
5	0x3cb05bcb	0.021528145
6	0x3d8f3452	0.06992401
7	0x3d6d137c	0.05787991
8	0x3d4a81fc	0.04944037
9	0xbd0d785f	-0.034538623
10	0x3c010e98	0.007877015
11	0xbbab98f1	-0.005236738
12	0x3a40657f	0.0007339343
13	0x3c31191c	0.010809209
14	0x3ce4bc64	0.027921863
15	0xbcb84c6b	-0.022497376
16	0xbbb4c221	-0.005516306
17	0x3cf3c4d2	0.029756937
18	0xbc8e657c	-0.017382376
19	0xbcff4f0b	-0.03116562
20	0xbcd57839	-0.026058303
21	0xbc88f8f7	-0.016720278
22	0xbcbe25fa	-0.023211468
23	0xbc8fa588	-0.017534986
24	0x3cfed017	0.031105084
25	0x3c945bea	0.018110234
26	0x3cd2abd1	0.025716694
27	0x3d08296b	0.033242624
28	0x3cc57925	0.024105618
29	0x3cf4560c	0.029826187
30	0x3d28dfb6	0.041228972
31	0x3ca73efb	0.020415774
32	0xbb372b12	-0.0027949256
33	0xbbab7847	-0.005232844
34	0x3c7a52eb	0.015278558
35	0xbcc8099e	-0.024418648
36	0x3cc4aaed	0.024007285
37	0x3c812266	0.015763473
38	0x3d18bf84	0.03729202
39	0x3c99835c	0.018739395
40	0x3bd281c3	0.00642416
41	0x3cbc3f67	0.022979451
42	0xbccd9b3a	-0.025098432
43	0xbd99709b	-0.07492181
44	0xbcb11441	-0.021616103
45	0xbc8a6914	-0.016895808
46	0xbca884ca	-0.020571131
47	0xbc45c97f	-0.012071966
48	0x3cba07c4	0.022708781
49	0x3c85068e	0.016238477
50	0xbbfa8278	-0.0076449476
51	0xbcb19856	-0.021679085
52	0xbcc00895	-0.023441592
53	0x3be80a52	0.0070813084
54	0x3c184779	0.009294384
55	0x3c77128c	0.0150801055
56	0x3c49112e	0.012272162
57	0xbcbd7280	-0.023125887
58	0xbca0cb66	-0.019628238
59	0xbc8ef78c	-0.017452024
60	0xbbbf1f52	-0.005832591
61	0xbc9e3ece	-0.019317057
62	0xbb959f25	-0.0045660906
63	0xbd1358e4	-0.035973445
64	0xbc143923	-0.009046826
65	0xbc90992f	-0.017651169
66	0xbd7e644c	-0.06210737
67	0xbd0b39ed	-0.03399079
68	0xbc8e1ef4	-0.017348744
69	0xbcee2392	-0.029069696
70	0xbc42c442	-0.011887612
71	0x3cc00941	0.023441913
72	0xbd038fef	-0.032119688
73	0xbcfcab04	-0.030843265
74	0xbcec74c9	-0.028864281
75	0xbcaeb53b	-0.021326652
76	0xbcb72695	-0.022357265
77	0xbc501950	-0.0127013475
78	0x3b72fa70	0.0037075542
79	0x3b4e8bbc	0.0031516394
80	0x3c25cf05	0.010120158
81	0xbbc014d0	-0.005861856
82	0x3b9ef77c	0.00485128
83	0x3cf739a4	0.030178852
84	0x3c80fabc	0.01574456
85	0x3d506772	0.050879903
86	0x3ce78b25	0.028264591
87	0xbb6b6604	-0.003591896
88	0x3c882151	0.016617449
89	0x3d0b7419	0.034046266
90	0x3c454a2a	0.012041608
91	0x3c3a7aa9	0.0113817835
92	0x3c37895a	0.011202181
93	0x3d1d2003	0.038360607
94	0x3d1a2cbd	0.037640322
95	0x3c29bf07	0.010360486
96	0x3d04ae2a	0.03239266
97	0x3d2ae01d	0.041717637
98	0x3d09abe5	0.033611197
99	0x3b937b5d	0.00450079
100	0x3d2557a0	0.04036677
101	0x3caaa11f	0.020828782
102	0xbc4a34a2	-0.01234165
103	0x3c3dae80	0.011577249
104	0xbc9f7e14	-0.019469298
105	0x3cc51d1d	0.024061734
106	0x3cb581fc	0.022156708
107	0x3c9a71e4	0.018853135
108	0xbd41a9c2	-0.047281034
109	0xbd742a30	-0.059610546
110	0xbd5e4b70	-0.05427116
111	0xbd929ff7	-0.07159417
112	0xbda1c7da	-0.07899447
113	0xbd8d0bbb	-0.06887003
114	0x3cc2814d	0.023743296
115	0x3d1d3540	0.03838086
116	0x3d56f0c7	0.052475717
117	0xbcdbf1be	-0.02684867
118	0xbcb909b4	-0.022587635
119	0xbc6b5cd1	-0.014365391
120	0x3c53ff43	0.012939277
121	0x3c449125	0.011997496
122	0x3c93b06c	0.01802846
123	0x3c01e21b	0.007927443
124	0x3cd458bd	0.02592122
125	0x3d2b9de2	0.041898616
126	0xbd95922b	-0.0730327
127	0xbd9c4f45	-0.07632307
128	0xbda59441	-0.08084918
129	0x3cc2af4d	0.02376523
130	0x3ca39636	0.019969087
131	0x3d1db444	0.038501993
132	0x3d2fb124	0.042893544
133	0x3ce529cd	0.027974034
134	0x3d334765	0.04376926
135	0x3cc4d7d3	0.024028694
136	0x3d315a96	0.04329928
137	0x3d0bf083	0.034164917
138	0x3b4fc3b4	0.0031702342
139	0x3c739c45	0.0148688005
140	0x3c90dca0	0.017683327
141	0x3ca74e61	0.020423116
142	0xbb9f6396	-0.0048641665
143	0x3b27e00c	0.002561572
144	0xbd2222fe	-0.039584152
145	0x3cfbe87e	0.03075051
146	0x3ba49069	0.005022098
147	0xbd3d36f3	-0.04619498
148	0x3d23ed13	0.040021013
149	0x3ca0c689	0.019625919
150	0xbd48922f	-0.048967537
151	0x3cbf0926	0.023319792
152	0x3d5d6019	0.054046724
153	0xbd333a66	-0.043756865
154	0xbcfd0361	-0.0308854
155	0xbd0607ce	-0.032722287
156	0xbd4060f5	-0.046967465
157	0x3d5aab8a	0.05338625
158	0x3d2343e9	0.039859686
159	0xbd583368	-0.0527834
160	0xba478421	-0.00076109363
161	0x3cf38da3	0.029730624
162	0x3bef7440	0.0073075593
163	0x3bafb92c	0.0053626504
164	0x3c847575	0.01616929
165	0xbb86960e	-0.0041072434
166	0xbce4b174	-0.027916647
167	0xbd3f9140	-0.04676938
168	0xbc613499	-0.01374545
169	0xbd11cf26	-0.035597943
170	0xbd154ac9	-0.036448274
171	0xbb5756d5	-0.0032858152
172	0xbc101551	-0.008794145
173	0xbb8d9e72	-0.0043218667
174	0x3cef7b57	0.029233618
175	0x3d16e11b	0.03683577
176	0x3d4928a0	0.04911101
177	0xbcc94a2c	-0.0245715
178	0xbc7083d7	-0.014679871
179	0xbc197fde	-0.009368865
180	0x3c5a8a80	0.013338685
181	0xbbcd7c9d	-0.0062709586
182	0x3b6864c6	0.0035460456
183	0xbba2b712	-0.0049656713
184	0xbcb51d7d	-0.022108788
185	0xbce9a103	-0.02851916
186	0xbcaeb4b7	-0.021326406
187	0xbd227d18	-0.03967008
188	0xbd290c9e	-0.0412718
189	0xbd30a13a	-0.043122508
190	0xbc9a7ea7	-0.01885922
191	0xbc98961f	-0.01862627
192	0xbcfc89d7	-0.030827446
193	0xbbb99e22	-0.005664603
194	0x3cc06c81	0.023489239
195	0xbd2bdde7	-0.04195967
196	0xbc5462d6	-0.012963017
197	0x3c1dfd26	0.009642875
198	0xbcb4edcd	-0.022086048
199	0x3cc69e64	0.024245448
200	0x3bdaa46f	0.006672434
201	0xbd85a33d	-0.06525276
202	0xbc8ee8a5	-0.017444918
203	0xbd0b1960	-0.033959746
204	0xbc8ceb92	-0.017202172
205	0x3c731a12	0.014837759
206	0x3ca47b5c	0.020078354
207	0xbd4bc552	-0.049748726
208	0xbd04b6ed	-0.032401014
209	0xbc8e9919	-0.017406987
210	0xbcd0bba9	-0.025480108
211	0xbbdafea5	-0.006683188
212	0xbc875507	-0.016520036
213	0xbcc97bf2	-0.024595235
214	0xbb5ad449	-0.0033390692
215	0x3b5d6015	0.0033779193
216	0x3b38f203	0.0028220422
217	0xbb729837	-0.0037016997
218	0x3c65e972	0.0140327085
219	0xbb2114e2	-0.0024579098
220	0xbc823a13	-0.015896833
221	0xbc9823db	-0.018571785
222	0xbdde2898	-0.108475864
223	0xbdbf7774	-0.09348956
224	0xbdb11c8b	-0.08648022
225	0xbc21678b	-0.009851347
226	0xbbaf88ed	-0.005356899
227	0x3b7bd7f9	0.003842829
228	0xbb4ec8c6	-0.0031552776
229	0x3ba83a85	0.005133929
230	0x3c103cc5	0.008803551
231	0x3cb09245	0.021554122
232	0x3d2febd5	0.042949516
233	0x3d62198a	0.055200137
234	0x3b7c162e	0.0038465369
235	0x3c1a5d1a	0.009421611
236	0x3c0f8701	0.008760215
237	0x3bb1849e	0.0054174205
238	0x3c5752d2	0.0131423045
239	0xbb0e389d	-0.0021701225
240	0xbc41e9b3	-0.011835503
241	0x3c049ddb	0.008094276
242	0x3c045bfd	0.008078572
243	0xbd095f89	-0.033538375
244	0xbd15b4a6	-0.036549233
245	0xbd4890f8	-0.048966378
246	0x3d5bb189	0.053636108
247	0x3d7b2d68	0.0613226
248	0x3d8abbc8	0.06774098
249	0x3d8088e6	0.06276111
250	0x3d7360bc	0.059418425
251	0x3d93c9f1	0.07216252
252	0xbe0aac64	-0.13542324
253	0xbd8e74e7	-0.06955891
254	0x3c279278	0.010227792
255	0xbe17be12	-0.148186

tfeb.12.weight f4 [32]
0	0x3e9ce2b6	0.30641717
1	0x3eb56766	0.3543045
2	0x3eb3d973	0.35126838
3	0x3e92d12d	0.28675213
4	0x3e78e2d6	0.24305281
5	0x3ee7f0fe	0.4530105
6	0x3ebf0f81	0.37316516
7	0x3ed5b194	0.41737044
8	0x3f15ca42	0.58511746
9	0x3e9cc180	0.3061638
10	0x3eb2f672	0.34953648
11	0x3ecaad31	0.3958526
12	0x3ebb95cb	0.3663772
13	0x3e9429a8	0.2893803
14	0x3eb9b2cd	0.36269227
15	0x3e86dab5	0.26338735
16	0x3ec47cd2	0.3837648
17	0x3e8e30df	0.2777166
18	0x3e9f82b0	0.31154394
19	0x3e9cae6e	0.3060183
20	0x3eb7118e	0.3575558
21	0x3eba92b7	0.3644006
22	0x3ec47cf3	0.3837658
23	0x3e9123ac	0.28347528
24	0x3e8b116f	0.27161738
25	0x3ef16ae0	0.47151852
26	0x3e306827	0.17227231
27	0x3e829202	0.2550202
28	0x3ea6d7b2	0.32586437
29	0x3ee57159	0.4481304
30	0x3ed11d82	0.40842825
31	0x3f11a872	0.5689765

tfeb.12.bias f4 [32]
0	0xbe54b2e5	-0.20771368
1	0x3d29169a	0.04128132
2	0xbe0a0fdd	-0.13482614
3	0xbd3a1476	-0.04542967
4	0xbdb0c9e2	-0.08632256
5	0xbe55cc3b	-0.20878689
6	0xbda7272a	-0.08161767
7	0xbe2c1fa3	-0.16808943
8	0xbecd8e35	-0.40147558
9	0x3d4bf0d5	0.049790222
10	0xbe0ba711	-0.1363795
11	0xbd96c621	-0.07362009
12	0xbde9de1e	-0.114193186
13	0x3a59552a	0.00082905835
14	0xbe2c1fc7	-0.16808997
15	0xbdb647a8	-0.08900386
16	0xbe323365	-0.17402418
17	0x3e2b779e	0.16744849
18	0xbd9efba9	-0.07762844
19	0x3d37bae1	0.044855956
20	0xbdde15fe	-0.108440384
21	0xbdf7ec3b	-0.12105604
22	0xbd8068ae	-0.06269966
23	0x3e09f8d5	0.13473828
24	0xbd107f39	-0.03527758
25	0xbd77743e	-0.06041359
26	0xbe0cb899	-0.13742293
27	0xbd8ef77f	-0.069808
28	0xbd9c92c4	-0.07645181
29	0xbe2fff31	-0.17187192
30	0xbe369789	-0.17831244
31	0xbe4599c1	-0.19296934

tfeb.12.running_mean f4 [32]
0	0xbd92ce26	-0.07168226
1	0xbf0716d1	-0.5276919
2	0xbe896ca1	-0.2684069
3	0x3e0271a8	0.12738669
4	0xbe051f18	-0.13000143
5	0xbf603505	-0.875809
6	0xbe3de799	-0.18545379
7	0xbed94427	-0.4243481
8	0xbf343270	-0.7038946
9	0xbdf6282f	-0.12019383
10	0xbe80e21a	-0.25172502
11	0xbf1c4053	-0.6103565
12	0xbec93a9e	-0.39302534
13	0xbf141837	-0.5784945
14	0xbdbb7d3c	-0.09154746
15	0xbd80b1f9	-0.062839456
16	0xbea4b028	-0.32165647
17	0xbe03b3da	-0.12861577
18	0xbe13abe6	-0.14421043
19	0xbeea0ae3	-0.4571143
20	0xbeb01ea8	-0.3439839
21	0xbf173662	-0.59067357
22	0xbeb57389	-0.3543971
23	0xbee52e53	-0.44761905
24	0xbd84af84	-0.064787894
25	0xbf411a94	-0.7543118
26	0xbe24bd50	-0.16087842
27	0xbd73c4df	-0.059513923
28	0xbde2edac	-0.110804886
29	0xbec73414	-0.3890692
30	0xbe8a664b	-0.27031168
31	0xbf4a87d5	-0.79113513

tfeb.12.running_var f4 [32]
0	0x3d6ca3ac	0.057773277
1	0x3eadfc45	0.3398153
2	0x3e0cb8db	0.13742392
3	0x3df08c80	0.11745548
4	0x3cf2f0e4	0.029655881
5	0x3eae2bb5	0.3401772
6	0x3e4f7a72	0.20261553
7	0x3e315b71	0.17320038
8	0x3e8d371f	0.27581117
9	0x3e194445	0.14967449
10	0x3e5b3a00	0.21408844
11	0x3e94e563	0.29081258
12	0x3e16fd21	0.14744999
13	0x3e16d5dd	0.1473002
14	0x3de7038c	0.112799734
15	0x3dee6171	0.11639679
16	0x3dd5b940	0.10435724
17	0x3eab5b12	0.3346792
18	0x3dde087f	0.10841464
19	0x3e38b58b	0.18038003
20	0x3dcc4dba	0.09975763
21	0x3e401bd5	0.18760617
22	0x3e8dddc5	0.2770826
23	0x3ea1b86a	0.3158601
24	0x3ccd8449	0.025087493
25	0x3f10e9fe	0.56607044
26	0x3c7fb5a2	0.0156072695
27	0x3dec96be	0.11552189
28	0x3d8bebda	0.068320945
29	0x3e939874	0.2882725
30	0x3e2f728e	0.17133543
31	0x3f0444ee	0.5166768
