trained_models/step_5_retrain_after_step_4/retrain_4C_after_2nd_pruning_prunratio0.85_2024060419/retrained_4Cmodel_ratio85.0_vaacc93.2367172241211_tracc_81.74342105263158@755epoch_20240604230137.pt (torch, 309156 bytes, 62 tensors)

sfeb.0.weight f4 [8, 1, 1, 9]
000000 8b 9a 7c 3e 3c 02 16 3e 73 75 92 3e cc 1a b1 3e
       0.24668328 0.1464929 0.28605232 0.34590757
000010 0e e8 ad 3d 63 3f 84 be 8a 70 f3 be c3 16 91 be
       0.084915265 -0.2582961 -0.47546798 -0.28337678
000020 b2 1a 81 bd 31 cd 37 3c 89 5a a6 3c a1 22 83 bd
       -0.0630392 0.011218355 0.020306842 -0.06403089
000030 a8 a4 94 be 6b f4 73 3d c0 41 44 be 0a 3f 95 be
       -0.29031873 0.059559267 -0.19165707 -0.29149657
000040 71 d4 b7 3e 32 1e 10 3f 11 dd 2b be 5a d5 59 be
       0.35904267 0.56296074 -0.16783549 -0.21272793
000050 02 47 5f 3e 0f 8a 95 3d 38 e7 36 be c7 94 66 be
       0.21804431 0.07301723 -0.1786164 -0.22517692
000060 f9 37 02 3e da 84 a1 be cd 3b d6 be 7c 0a 30 3f
       0.12716664 -0.3154667 -0.418425 0.68766
000070 18 5c bd 3e 60 b9 37 bd 0c a6 2d ba 7e 54 28 be
       0.36984324 -0.04485452 -0.0006624169 -0.16438481
000080 06 9a 78 3c 5c 56 f3 3d 45 9a 84 bc 60 11 ad 3d
       0.015173441 0.11881706 -0.016186843 0.0845058
000090 02 06 1d bf 50 44 af be c3 a3 6f 3d ca 58 98 3d
       -0.6133729 -0.34231806 0.058505785 0.0743881
0000a0 1b 28 94 3e 17 7d 4d 3e 00 b3 35 be 7c d1 08 3d
       0.28936848 0.20067249 -0.17744064 0.033402905
0000b0 ba c1 0f be fa 6d 9b be 67 81 06 bd 86 59 44 3e
       -0.14038745 -0.30357343 -0.03283825 0.19174775
0000c0 7a 41 b2 3d 63 24 d6 be fe 99 a9 3d 97 dd 15 3f
       0.08703895 -0.41824636 0.08281325 0.58541244
0000d0 f3 7b 1e bd 92 31 ff be 96 83 64 bd 9a 5f 5e be
       -0.038692426 -0.49842507 -0.055789553 -0.21716157
0000e0 3b cf 6a 3e ea 0a b8 bd 12 b7 ed be 9e 0e f9 3e
       0.22930615 -0.08986457 -0.46428734 0.48643965
0000f0 e3 76 54 3c 62 d6 e6 be 21 fe cf 3e e1 1a 2e 3d
       0.012967798 -0.45085436 0.40623572 0.042506102
000100 53 1b 0f 3c 77 2b 4d be 5d a3 01 be ca 9a 33 3e
       0.008734542 -0.20036112 -0.12659974 0.17539516
000110 d3 8f 57 3e 74 d4 ce bc 0b 76 a1 3e 3c a2 0f 3f
       0.21050958 -0.02524779 0.31535372 0.56106925

sfeb.1.weight f4 [8]
000000 a6 25 6a 3f a9 ea 45 3f e7 7c 34 3f 57 0c 41 3f
       0.91463697 0.7731119 0.70503086 0.75409454
000010 74 48 49 3f 9d 0a 09 3f 6e b3 f1 3e 32 b7 2e 3f
       0.7862618 0.5353182 0.47207206 0.68248284

sfeb.1.bias f4 [8]
000000 8f 78 1f 3d 09 3b d5 3c 0d 3d 91 3d 5b c3 65 3e
       0.038933333 0.026029127 0.07091723 0.22437803
000010 00 ff 8e 3d b3 26 4e 3e 11 b7 7d 3d 4a 16 5d 3d
       0.06982231 0.2013195 0.061942164 0.053976335

sfeb.1.running_mean f4 [8]
000000 b0 85 5f 33 24 08 e5 36 68 b4 69 b8 99 b4 4f 38
       5.204282e-08 6.8256795e-06 -5.5719545e-05 4.952084e-05
000010 4b 63 e2 b7 66 45 68 b7 65 41 1a b7 84 91 44 38
       -2.6987536e-05 -1.3844436e-05 -9.194341e-06 4.6865563e-05

sfeb.1.running_var f4 [8]
000000 3a 83 bc 3c a4 d2 4b 3c ed 4e 42 3c c5 ad a2 3c
       0.023011792 0.012440357 0.011859638 0.01985825
000010 46 65 95 3c db cc e5 3b fe d6 f9 3a bd 29 79 3c
       0.018236768 0.007012946 0.0019061265 0.015207705

sfeb.3.weight f4 [32, 8, 1, 5]
000000 f1 08 55 3d 85 77 35 be 96 a0 94 bc b8 c5 40 3d
       0.05201048 -0.17721374 -0.01814298 0.04706356
000010 40 bd 13 be 2c 4e 9f bd ad 61 ed bd c8 a5 56 bd
       -0.14427662 -0.07778582 -0.11590896 -0.052404195
000020 0f b3 b8 38 3c 58 88 bc 60 da 73 3e 60 88 52 3e
       8.807156e-05 -0.016643636 0.23813772 0.20559835
000030 72 62 75 3e ab d0 09 3e 4d 05 af 3d ff 7c d7 bd
       0.23963335 0.13458507 0.08545933 -0.10521888
000040 c0 d1 4b bd 0a b8 85 be 28 96 2a bd 27 20 e6 bd
       -0.04976058 -0.26116973 -0.041647106 -0.11236601
000050 12 b0 1f 3e f9 a8 3b 3e 47 39 92 3d 9f d0 33 3e
       0.15594509 0.18326177 0.07139831 0.17560051
000060 09 72 1a 3e 3e 59 75 3d 21 98 97 bc ae a4 7f bd
       0.15082563 0.05989956 -0.018505158 -0.06241291
000070 32 76 b4 bb 77 12 04 3d bd f4 43 3b 7f 5c d3 bc
       -0.005507254 0.032244172 0.0029900514 -0.025800942
000080 6b 67 23 3d cf 93 0c 3d 88 9c d0 bb 79 f8 5e bd
       0.03989355 0.03432065 -0.006366316 -0.05443618
000090 0f e1 be bd fa fd 16 be 05 5b b5 bc 43 e2 30 bd
       -0.0932027 -0.14745322 -0.022138128 -0.04318453
0000a0 e3 d6 2e be aa 5d 23 be 80 43 20 bd 3b 08 82 3d
       -0.1707416 -0.15953699 -0.039126873 0.06349226
0000b0 27 74 a8 3d f2 9a f3 bb c2 51 11 be 41 b5 f2 bd
       0.08225279 -0.0074342424 -0.14191344 -0.11850978
0000c0 4f e1 0b bd 1a 3d 82 bd 81 9e b4 3d eb 6c a5 3d
       -0.034150418 -0.063593104 0.08819295 0.08077415
0000d0 02 bd 9b 3d f2 d4 6e 3e 8d 0b 92 3e 57 c4 64 be
       0.0760441 0.2332342 0.28524438 -0.22340523
0000e0 7b 2d e7 bd 38 86 d7 bd 57 ca 9a bc 20 25 02 bd
       -0.112879716 -0.10523647 -0.018895311 -0.031773686
0000f0 7b f6 15 3e 92 4d 0e 3e 7e a5 a4 3c 47 95 a3 bd
       0.14644806 0.13896778 0.020098444 -0.07987457
000100 de 63 08 3c 63 dc d7 bb ff da e8 3d 58 7a 9e bc
       0.008324591 -0.0065875514 0.11369895 -0.019345447
000110 3d 7c 69 bb 27 e1 88 3c d1 c7 c2 bb 9c 6d 4e bd
       -0.003562703 0.016708924 -0.00594423 -0.0503975
000120 0a 06 83 bc d3 66 d4 bd 16 00 0a bd 76 4c 7a bd
       -0.01599409 -0.10371175 -0.03369149 -0.061108075
000130 5b 78 86 bd 66 fc 7e be d7 c5 2e be 8c f0 d7 bd
       -0.06565925 -0.2490097 -0.17067657 -0.105439276
000140 7a 8c 0a be 7d 80 58 be a3 80 13 bd ba fb 95 bc
       -0.1353015 -0.21142764 -0.03601135 -0.01830851
000150 94 4f bf bd 18 0b ef bd 0c 9b 83 bd 42 dc 87 bd
       -0.0934135 -0.11672038 -0.06426057 -0.06633808
000160 89 08 37 be 1f 6d 13 be 3a d2 0e 3e 69 f1 58 3e
       -0.1787435 -0.14397095 0.13947383 0.2118584
000170 4e e5 01 3e 3b fb 3a 3e 30 54 85 3e 54 5a 45 be
       0.12685129 0.182599 0.26040792 -0.19272739
000180 bf 7d b7 bd df 6b 47 be 82 3d ef bd 92 69 c9 bd
       -0.08959531 -0.19474743 -0.116816536 -0.09834589
000190 84 8f 54 bd ac f8 f0 3b 2a 60 2b 3d 21 8a ed 3d
       -0.05189468 0.0073538627 0.041839756 0.115986116
0001a0 50 79 3d 3d 13 ee 29 bd 49 d0 6b 3d 8f fc 47 bd
       0.04625827 -0.04148681 0.057571683 -0.048824843
0001b0 52 5d bd 3d 3b 1a 14 3d 2e 7c 3c bd fb 1e d2 bb
       0.09246315 0.036157828 -0.046016864 -0.0064123846
0001c0 63 76 6b bd 7b d6 8e bd 6e ec f2 bd 88 5a 15 be
       -0.05748595 -0.06974503 -0.11861502 -0.14585316
0001d0 a2 9c 81 be f0 05 86 be 87 32 01 be 30 f5 03 be
       -0.25314814 -0.26176405 -0.12616931 -0.128865
0001e0 0d a2 d0 bd 1d 2b 83 3d aa b3 f6 bd f1 b3 91 bd
       -0.10187159 0.064047076 -0.12045987 -0.07114399
0001f0 5f 25 71 be 1f 5d fc bd 21 f4 08 bd 11 6a 3a 3d
       -0.23549412 -0.12322449 -0.033435944 0.04551131
000200 ea 3e 9e bc 47 c3 a4 bd fd 88 a6 be 32 f8 83 be
       -0.01931711 -0.08045059 -0.3252639 -0.25775295
000210 7c ff 67 be cc db 65 be 22 64 ad be db d5 c9 3d
       -0.22656053 -0.22447127 -0.33865458 0.09855243
000220 25 2e 57 3e c6 bf 94 3e 3f 1e 1b 3e d4 6c fb 3d
       0.21013696 0.29052562 0.15148257 0.12276617
000230 a8 ed 8e bd fe d5 00 be ab a1 8e be d6 23 ba bd
       -0.06978923 -0.12581632 -0.27857718 -0.090888664
000240 a1 48 e7 bd c8 69 01 3d a1 a6 17 be 64 10 15 be
       -0.1129315 0.03159502 -0.14809658 -0.14557034
000250 90 54 3e be 11 7f 35 be d0 77 ea bd ed 08 38 be
       -0.18586946 -0.17724253 -0.11448634 -0.17972155
000260 00 6a 77 be d2 c4 12 be 04 1d f6 bd ed d2 39 3e
       -0.2416153 -0.14332893 -0.12017253 0.18146868
000270 5f 6d 4c 3e cc bf 6e 3e 74 1c b7 3e 87 61 a8 3e
       0.19963597 0.23315352 0.35763896 0.32886907
000280 15 11 11 be 96 58 ba bd 04 b7 0c be 9f b3 d1 bd
       -0.14166673 -0.09098928 -0.1374169 -0.10239338
000290 b5 ce 1e bd 3b a3 9c 3d ba 54 a5 3c 20 1a e4 3b
       -0.03877135 0.07648321 0.020182002 0.006961122
0002a0 d6 ff 72 3d 3b 93 25 3c 3a 58 02 be c3 59 ab bd
       0.059326015 0.010105903 -0.12728968 -0.0836673
0002b0 22 dc e7 bd 71 3d 3b be e7 de a7 bd 1d 4c 4a be
       -0.11321284 -0.18285157 -0.08196812 -0.19755597
0002c0 3c 75 08 be b6 2f c3 bc bd 02 7a bb 54 7c 90 3d
       -0.13325971 -0.023826461 -0.0038148605 0.07054964
0002d0 4f 13 e1 bd 32 0b e7 bc 53 26 36 3d b0 3d 19 bd
       -0.10990011 -0.02820358 0.044470143 -0.037412345
0002e0 7b 32 c1 bd 1b de 12 bd 64 b3 09 bd 8c 07 e6 3c
       -0.094334565 -0.035856348 -0.033618346 0.02807977
0002f0 65 d0 5e bd 3a d0 fb bc 0b 22 27 bd 23 5a 07 3c
       -0.05439796 -0.030738939 -0.04080395 0.008261236
000300 be f3 e2 bc 5e 59 94 bb fd 1a 3b bd 8a 8f 78 bd
       -0.027704116 -0.004527255 -0.045680035 -0.060683765
000310 6a fe 02 3d 0e b5 c3 3d cb 4d fb 3d f9 1b 3c 3e
       0.03198091 0.09556018 0.12270697 0.18370046
000320 70 85 42 bd 0c b3 2a be d8 7d 36 be bc d3 52 be
       -0.047490537 -0.16669863 -0.17821443 -0.20588583
000330 2e 82 bd bd 4f d7 bc 3d 57 5c 6a 3e 35 8a e1 3d
       -0.092533454 0.09220754 0.22886787 0.11012689
000340 fc 49 74 3d a5 56 08 3e 7b 74 c6 3d e6 66 5d bd
       0.05964087 0.13314302 0.09690186 -0.05405321
000350 0a 01 0a bd e3 15 af bd 01 d4 41 be ec 39 d6 bd
       -0.033692397 -0.085490964 -0.1892853 -0.104602665
000360 33 bc 6a be 0b 31 63 be 5f f9 9b bd dc a7 a2 3c
       -0.22923355 -0.22186677 -0.07615923 0.019855432
000370 62 72 af bc 7f 79 04 3c 8f 41 45 bc 8e c2 32 3e
       -0.021416847 0.008085608 -0.012039556 0.17457029
000380 59 5d e0 3c c8 b1 86 ba ba 0d 2c 3d e8 27 35 3c
       0.027388262 -0.0010276372 0.04200528 0.011056878
000390 2e 4e 5b 3d 04 24 8b bd e2 48 9e 3d f6 b9 7b 3d
       0.053541355 -0.06793979 0.07728745 0.061456643
0003a0 fb ba 9b 3d 80 b1 a7 3d 18 24 e0 bb de aa 43 bd
       0.07604023 0.08188152 -0.00684024 -0.047770374
0003b0 15 15 52 bd f5 68 52 3d e3 80 da 3d 2a 48 e8 3d
       -0.051289637 0.051369626 0.106691144 0.11341889
0003c0 ac 6c ff 3d bd a2 c6 3d 69 26 bd 3d fd 5d b4 3d
       0.124718994 0.096990086 0.09235842 0.08806989
0003d0 1f 5c a7 3d 90 37 26 be ba cc 45 be 4f 30 67 be
       0.081718676 -0.16232133 -0.19316378 -0.22577022
0003e0 48 75 1f bd 01 a2 a2 bc 63 c6 c5 bc 19 a5 2b 3c
       -0.038930207 -0.01985264 -0.02414245 0.010476374
0003f0 d9 d2 d0 3d 28 6b a5 3d 32 34 36 3e 3c 8b 72 3e
       0.10196466 0.08077079 0.17793348 0.23685926

sfeb.4.weight f4 [32]
000000 69 60 3f 3f 43 9f da 3e b9 bc 49 3f bf 70 94 3f
       0.74756485 0.42699632 0.7880359 1.1596907
000010 46 b3 a8 3e 50 d8 b9 3e ee c1 12 3f b6 96 17 3a
       0.32949275 0.36297846 0.57327163 0.00057826506
000020 6b 89 de 3e f5 63 06 3f c6 b9 60 3c 2a cc 20 3f
       0.43464217 0.5249627 0.013716167 0.6281153
000030 32 1e 18 3f 32 f7 3e 3f 1c cd 66 3f be fe 42 ba
       0.59421074 0.7459594 0.9015672 -0.0007438472
000040 89 c7 15 3f b3 91 d8 3e 27 b1 0f 3f eb 20 82 39
       0.5850759 0.4229866 0.5612969 0.00024820058
000050 27 fe 05 3f 8b f6 10 3f d2 02 38 3f 3c f4 db 3e
       0.5234093 0.56626195 0.71879303 0.42959774
000060 95 88 1f 3a 8c f5 45 3a ed 64 c7 3e ff a4 08 3f
       0.0006085721 0.0007551543 0.38944188 0.53376764
000070 32 dc b8 3e b1 31 0b 3f ef 4b de 3e 2a 07 cb 3e
       0.36105496 0.543727 0.43417308 0.39653903

sfeb.4.bias f4 [32]
000000 f2 48 2b 3e b8 93 46 be e9 e9 1a be 4a 13 5b bd
       0.16727045 -0.19392288 -0.15128292 -0.053485192
000010 89 7b 81 bd b8 7c ee ba af 48 0a 3e c0 ff 85 bd
       -0.063223906 -0.0018195128 0.13504289 -0.06542921
000020 66 31 2e 3d 7b 42 8a bd f7 99 bd bc 67 10 42 3d
       0.04252758 -0.067509614 -0.023144705 0.047378924
000030 bb 1f ea 3d ca 42 aa 3d ad 68 27 3d 5c 4e 1e bd
       0.11431833 0.0831352 0.04087131 -0.038648948
000040 4b e8 88 bd 12 59 7e 3d 91 a8 33 bd 24 dc af bc
       -0.06684931 0.062096663 -0.04386193 -0.021467276
000050 67 6a 8f 3b 6d 66 18 be 03 ca b8 bd 9c f7 1d 3d
       0.004376698 -0.14882822 -0.09022906 0.038566217
000060 dc f0 91 bc d4 da a0 bc 9a 1f d4 3c 58 85 2b bd
       -0.017815046 -0.019635595 0.025893975 -0.041875213
000070 c4 66 f9 bd 03 5a a3 bd 0c 0c d2 bd 71 e1 97 3d
       -0.12177804 -0.07976153 -0.10256204 0.074160464

sfeb.4.running_mean f4 [32]
000000 73 e8 50 bc 99 3f 46 be de a1 ca be 78 28 95 be
       -0.012750733 -0.19360198 -0.3957662 -0.29132438
000010 e0 b5 a0 be 65 3e 32 be 49 78 04 be 27 d8 2c 3c
       -0.3138876 -0.17406614 -0.1293651 0.010549582
000020 d5 06 83 be 4d 44 01 be 37 65 2a bd 86 27 53 be
       -0.2559115 -0.12623711 -0.041600432 -0.20620546
000030 e0 37 8a bd a8 03 eb 3d 1a e3 3a be 94 a5 20 bb
       -0.067489386 0.11475307 -0.18250695 -0.0024512755
000040 92 a9 96 be 33 94 84 be 21 ce 93 be 4e bd ed bb
       -0.29426247 -0.25894317 -0.288682 -0.007255233
000050 4a 4d a4 be c3 47 f1 be e1 5d ac be 18 36 71 be
       -0.32090217 -0.47125062 -0.33665374 -0.23555791
000060 12 8a 89 bc 6e 66 77 bc fe 27 a9 be 68 eb 16 be
       -0.01678947 -0.015100105 -0.33038324 -0.14738238
000070 0e 20 b5 be d6 2e cb be 20 d9 86 bd a8 14 37 bd
       -0.35376018 -0.3968417 -0.06584382 -0.044697434

sfeb.4.running_var f4 [32]
000000 2c 10 b5 3e 81 2b b0 3e df f7 1c 3f d3 9d 94 3f
       0.353639 0.3440819 0.6131572 1.1610664
000010 15 c5 93 3e 58 c8 af 3e 48 d9 d9 3e 5f 63 cc 3b
       0.288613 0.34332538 0.42548585 0.006237432
000020 04 52 8f 3e 3f 99 55 3e 08 10 46 3b 20 e8 c8 3e
       0.2799226 0.2085924 0.0030221958 0.39239597
000030 81 33 d3 3e 36 58 2b 3f 39 b7 5d 3f 70 c6 ea 3a
       0.41250232 0.66931474 0.866077 0.0017911922
000040 dd 25 e5 3e 13 99 f8 3e 44 91 27 3f 34 94 b2 3a
       0.4475545 0.48554286 0.6545603 0.001362449
000050 5c 7e 0b 3f 59 9c 2b 3f cd 85 38 3f 28 cb e2 3e
       0.54489684 0.6703544 0.72079164 0.4429562
000060 1c 28 76 3a 52 17 4b 3a be 0f e0 3e 82 a5 f3 3e
       0.0009390132 0.00077473104 0.4376201 0.4758721
000070 69 87 c7 3e 2e 52 eb 3e 7a d8 5a 3e 70 6b 3a 3e
       0.38970497 0.45961136 0.21371642 0.18205047

tfeb.0.weight f4 [13, 1, 3, 3]
000000 86 11 08 3d 17 a9 23 3a 81 8f b2 bb 60 c5 8a 3b
       0.033219837 0.0006243153 -0.005449236 0.0042349547
000010 72 e3 fe 39 d1 14 cc 3a 66 35 ff 3a a3 b0 c6 3b
       0.00048616115 0.0015570169 0.001947087 0.006063537
000020 d1 b1 c8 3b 4d 35 11 3c 7b 67 25 bc 8a ae 6a 3c
       0.006124713 0.008862806 -0.010095472 0.01432384
000030 ba 1a 7d 3c 5c 61 3d bc 84 bd 5a 3c 7d 4e 82 3c
       0.015448267 -0.011558857 0.013350848 0.015906567
000040 87 ad f0 bb 7a 8d 86 3c 0b eb 49 3e f6 7b 00 3e
       -0.007344905 0.016424883 0.19718568 0.12547287
000050 62 3e d0 be d3 15 c3 3e 02 88 ec 3e c8 58 29 bf
       -0.40672594 0.38102588 0.46197516 -0.66151094
000060 bc e2 4d 3e 0d 8b 1c 3e bc 92 e5 be a2 7f 61 be
       0.20106024 0.15287419 -0.44838512 -0.22021344
000070 83 80 ae bc 3e c6 02 3e 4d 2a 15 bf 3a 83 f6 3e
       -0.021301514 0.12770936 -0.5826767 0.48146993
000080 99 b4 06 3f f6 77 99 be 23 dc 1b 3e 8b 65 44 3e
       0.5261932 -0.29974335 0.15220694 0.1917936
000090 77 5c 0f 3d 6f 09 d6 3e 1b 31 f6 be 22 b3 b8 3d
       0.03500029 0.41804072 -0.4808434 0.09018542
0000a0 a4 67 e5 3d 11 4f aa be 3f b1 26 be 19 1d 60 bd
       0.112014085 -0.33263448 -0.16278552 -0.05471525
0000b0 9e e0 a1 be ff 33 21 3d d4 88 1e be 11 35 35 be
       -0.31616682 0.039356228 -0.15481883 -0.17696024
0000c0 30 0d c4 3c 71 ab 54 be 48 25 94 be 11 a6 7d 3e
       0.02393207 -0.20768525 -0.28934693 0.2477038
0000d0 d3 af 32 be 51 44 07 be 3d 69 5c 3f 1b 8f f7 be
       -0.17449884 -0.13209654 0.8609808 -0.48351368
0000e0 50 29 fe be 7e f5 68 3f ad f8 08 bf d6 ed 25 bf
       -0.49640894 0.9099959 -0.5350445 -0.64816034
0000f0 78 ac dd 3e ca 33 98 be de 93 eb be d7 3d f2 bd
       0.43295646 -0.29727012 -0.4601125 -0.11828201
000100 f0 73 2e be 97 b1 06 be dd f2 b9 bd ad d7 1f be
       -0.17036414 -0.13153683 -0.090795256 -0.15609618
000110 31 2f ef bd 5e 87 db 3d 96 48 64 3e 9a 5b 01 3e
       -0.11678923 0.107191786 0.22293314 0.126326
000120 97 c5 2b be 33 cd 95 be b4 d0 f6 bd 42 64 1d be
       -0.16774593 -0.29258117 -0.12051526 -0.15370277
000130 e8 20 83 be fe 47 7e bd e3 41 d7 bd df 8d 32 be
       -0.25611043 -0.062080376 -0.10510614 -0.17436932
000140 42 a0 e1 bd 0d da 58 bd 3b 16 ab bd 5a 91 33 3d
       -0.11016895 -0.052942324 -0.083538495 0.04383979
000150 4e 92 e2 bd 2a ea 10 be 4b 42 fc bc b3 82 db 3d
       -0.11063062 -0.14151827 -0.03079333 0.10718288
000160 d9 f1 ea be 2c 8f da 3e f3 f2 a0 3e 91 65 e5 3d
       -0.4588764 0.42687356 0.31435356 0.11201013
000170 69 41 ea 3d 9e 83 93 3e f9 24 7b 3d 9e 01 87 3d
       0.11438257 0.28811353 0.061314557 0.06592105
000180 5f a0 80 bd b0 6c 9e bd ab 01 b5 bc c9 c8 9f bd
       -0.06280588 -0.07735574 -0.022095522 -0.078019686
000190 f1 6b 34 be a4 b5 61 bd fb 4c 3b be 18 16 80 be
       -0.17619301 -0.055104867 -0.18291084 -0.25016856
0001a0 77 74 05 be ad 3f b8 3c 62 16 ee bd c2 81 26 bd
       -0.13032709 0.0224913 -0.11625363 -0.04065109
0001b0 b2 01 90 be 26 a0 65 be d6 9f 9f 3e f7 91 25 bf
       -0.28126293 -0.22424373 0.31176633 -0.6467585
0001c0 50 94 0e bf 43 bb 8e 3f 0f 0c ba be 3b 18 95 be
       -0.55695057 1.1150898 -0.36337325 -0.2912005
0001d0 6b 4d a7 3e
       0.32676253

tfeb.1.weight f4 [13]
000000 b9 6f 57 ba 27 16 10 bb be 30 90 3e 23 41 8c 3e
       -0.0008218247 -0.002198586 0.28162187 0.27393445
000010 d6 21 b7 3e b3 cf a1 3e 40 6c 13 3f 2f 3e 9c 3e
       0.35768002 0.31603774 0.5758705 0.30516192
000020 45 5f 6b 3f 20 29 c7 3e 6a 1b 89 3e 88 ff fe 3e
       0.91942245 0.38898563 0.26778728 0.4980433
000030 90 4b f9 3e
       0.48690462

tfeb.1.bias f4 [13]
000000 97 01 45 bc b6 24 69 bc 32 30 23 3e 00 7c 71 3e
       -0.012024305 -0.014229944 0.15936354 0.23582458
000010 d0 a5 95 3e e4 36 be 3e 9f 43 1f 3d 7e e1 7c 3d
       0.29228067 0.37151253 0.038882848 0.061738484
000020 4d d3 93 be f7 3c fa bc fe 1a 3f 3e 86 60 00 3d
       -0.28872147 -0.030546648 0.1866264 0.031342052
000030 86 fa 15 3e
       0.14646348

tfeb.1.running_mean f4 [13]
000000 a3 cd 8c 3c c9 16 9f 3c 54 11 0f 3c 45 15 06 3e
       0.017187899 0.019420044 0.008732159 0.13094051
000010 c0 fe 72 be 06 80 98 be 48 2a 82 be 58 51 02 be
       -0.23729992 -0.29785174 -0.25422883 -0.12726343
000020 cc 5d 03 bf 11 ca e5 bd 4e 0c 94 3e ac 36 ba be
       -0.51315 -0.11220182 0.28915638 -0.36369836
000030 99 39 5e be
       -0.2170166

tfeb.1.running_var f4 [13]
000000 32 91 43 3a 4b 8d 67 3a f4 6f b0 3d 98 57 05 3e
       0.00074602955 0.0008833005 0.08615103 0.13021696
000010 92 62 38 3e 3e 38 68 3e d8 fa b2 3e 7c 95 0f 3e
       0.18006352 0.22677705 0.34957004 0.14021868
000020 63 08 17 3f d5 94 5c 3d d0 09 80 3e 2f de a0 3e
       0.5899717 0.053852875 0.25007486 0.31419513
000030 9f fd 7f 3e
       0.24999093

tfeb.4.weight f4 [25, 13, 3, 3]
000000 d8 ee 18 3b f3 8f 27 bb 1c 3f 8c 3a ab 7d 59 ba
       0.0023335721 -0.0025567978 0.001069996 -0.0008296619
000010 5a f8 9d bb 38 8e 3f bb 78 8c 14 3b 77 79 b8 ba
       -0.0048208656 -0.0029229056 0.0022666734 -0.0014074285
000020 ae f4 d1 b9 c9 91 e1 3a ec e2 ac bb 4c 20 77 3b
       -0.00040045887 0.0017209585 -0.0052760746 0.003770846
000030 86 34 0e 3b cb 97 ce bb a0 66 42 3b 44 cb 3c 3b
       0.0021698787 -0.006304716 0.002966322 0.002880768
000040 8d ef 40 bb 02 03 97 3b 5d 7f 94 3d f2 dd 48 bb
       -0.0029439658 0.004608513 0.07250855 -0.0030649868
000050 2b fd 63 3d ca be c3 bd a7 7c 35 be 48 a6 0d be
       0.05566136 -0.095578745 -0.17723332 -0.13832963
000060 48 65 58 3d 5f fe d1 bd 1e 00 19 bd f9 57 02 bd
       0.052830964 -0.102535956 -0.037353627 -0.03182218
000070 f1 e5 90 bd 11 70 8a bc 46 98 9b bd 53 5a 71 bd
       -0.07075108 -0.01689914 -0.07597403 -0.05892403
000080 14 cc 70 3a fe fc d8 bd cd 48 0a bd 81 72 30 3c
       0.00091856834 -0.105951294 -0.033760834 0.010769487
000090 be 4a a4 3d 01 a4 4a 3d ee 8e bb 3d 06 e8 a7 bc
       0.080220684 0.049472813 0.09158121 -0.02049638
0000a0 40 0b 5c bd 32 6f 80 bd e4 85 ca 3c 64 cd 36 3c
       -0.053721666 -0.06271209 0.024722047 0.011157367
0000b0 90 4d ac 3c a8 e1 74 bd 3e 78 16 bc ae b1 44 bd
       0.021033078 -0.059785515 -0.009183941 -0.04802101
0000c0 2a f7 e4 3c 0b b0 d3 3c 00 aa 11 bd 4f d9 33 3d
       0.027949888 0.02584078 -0.035562515 0.043908413
0000d0 5b 7c 58 bb e0 74 91 3b 1f 2f d3 3d b9 3d b5 3d
       -0.0033033106 0.0044389814 0.10311722 0.08849663
0000e0 d0 06 31 bd a8 f5 13 be 3a 23 2c bd fa 87 8e be
       -0.043219388 -0.14449179 -0.042025782 -0.27838117
0000f0 69 ef f4 3c d5 57 09 be 92 7d da bd 0d a9 5b bd
       0.029899316 -0.13412412 -0.10668482 -0.053628016
000100 24 25 c7 bc 4f d5 7b 3c 74 5d 6d 3d b3 c3 90 3d
       -0.024309702 0.015370681 0.057950452 0.07068577
000110 02 2b a5 3d 68 05 83 3b 8d 2e 11 bc d6 51 5f bc
       0.08064844 0.003998447 -0.008861196 -0.013630351
000120 7e 18 7a 3b 5f 32 61 3c 76 cf 48 3d 8e 1d ec 3c
       0.003816157 0.01374492 0.049025975 0.028822687
000130 f3 48 7b ba 40 bc b4 ba 9b ea b7 3d 46 91 12 3d
       -0.00095857604 -0.0013789013 0.08980294 0.035783075
000140 8c 45 73 ba 12 d7 55 3a 33 6d ed bd 1d dc d0 3c
       -0.00092800776 0.0008157353 -0.11593094 0.025495583
000150 a2 b3 a5 3a b5 e0 d6 bd 14 74 de 3c 01 fb af bc
       0.0012642036 -0.10492078 0.02715496 -0.021481993
000160 60 3f 94 bd 41 f6 25 3c 54 3a 7f 3d b3 6a c6 3d
       -0.0723865 0.010129512 0.062311485 0.0968832
000170 a7 e6 a0 3d 08 03 17 be 83 51 a2 bd a8 9f 8f bd
       0.078564934 -0.1474725 -0.079257034 -0.07012874
000180 99 3b 43 bd 8f cb e7 bc b8 50 7b bc 85 26 23 bd
       -0.04766426 -0.028295306 -0.015339069 -0.039831657
000190 bc 1d 3f bc c6 c6 80 bc f0 b9 89 3d 0b 40 49 3d
       -0.011664804 -0.015719783 0.06724918 0.04913334
0001a0 b3 5e 62 3c b7 4d 1b 3d 1b 36 9e 3c 54 50 98 bc
       0.013816523 0.03791591 0.019312909 -0.018592991
0001b0 3b 2d f8 3c 28 58 3d be 8b 55 0b bd 95 b7 59 3d
       0.030295005 -0.1849066 -0.034017127 0.053153593
0001c0 6a 8d 37 be d9 ed 09 bc 3a 1a d8 bb 2c 3a 59 bd
       -0.17925039 -0.008418524 -0.0065949233 -0.053033993
0001d0 30 c0 94 bc 92 fa ba 3a c3 ae ab ba c8 8e 42 b9
       -0.018158048 0.001426535 -0.0013098348 -0.00018554472
0001e0 27 16 32 ba e4 df 3e ba 29 a8 21 ba e5 a6 07 3b
       -0.0006793462 -0.0007281287 -0.00061667204 0.0020698842
0001f0 c4 98 90 3a 60 a3 0b ba 5d 84 25 bb d8 17 28 bb
       0.0011031856 -0.0005326774 -0.0025255897 -0.0025648978
000200 ce 15 90 ba 65 f9 2b 3b c2 21 99 3a 75 43 0d 3b
       -0.0010992826 0.002624118 0.0011683034 0.00215551
000210 56 68 28 3b 94 15 fc 3a 57 d0 5f 3b 57 de e4 bc
       0.0025696955 0.0019232505 0.003415128 -0.027938051
000220 b4 11 80 bc d1 fd a4 bd 44 d6 01 bd e5 d2 6a 3d
       -0.015633442 -0.08056224 -0.03169848 0.05733003
000230 2f 09 18 bd a2 f1 25 3d ae 6c 51 3d 5c 05 0f 3c
       -0.037118133 0.040513642 0.051129036 0.008729305
000240 ed 9c 67 3d 38 0f 95 3c 24 9c 19 bd 0d 77 e4 3c
       0.05654614 0.018195733 -0.037502423 0.0278888
000250 3f 3b 9f bd 41 19 13 be e2 0a 5f 3d 03 bc 8a bc
       -0.07774972 -0.14365102 0.054453738 -0.016935354
000260 95 c7 75 bd 09 c0 80 3b 10 2e a2 bd 80 0e 8b bd
       -0.06000479 0.0039291424 -0.07918942 -0.06789875
000270 da 5b cf bd 57 41 08 be 29 4a 94 bd 20 0f 8a bd
       -0.10124941 -0.13306175 -0.072407074 -0.06741166
000280 15 bc 80 bd 0b 1a 6b bc 4d 16 dc 3c 1f 61 ae 3b
       -0.06285874 -0.014349471 0.026866103 0.0053216363
000290 e1 3f a3 bc 30 06 ad bd 61 fc 8c bd d8 74 25 bd
       -0.01992792 -0.08448446 -0.06884075 -0.040394634
0002a0 73 0c c5 bd 80 d1 ae bd 00 19 ad bc 56 d0 1f bd
       -0.09621515 -0.08536053 -0.021130085 -0.039017044
0002b0 63 78 94 bd 5d c3 34 be 15 a8 43 be 05 59 34 bd
       -0.072495244 -0.1765265 -0.19107087 -0.04403021
0002c0 7a fc 28 be 69 c0 7f bd 5b d5 0c bd 0e fc 9e bd
       -0.16502562 -0.062439356 -0.03438316 -0.07762919
0002d0 e5 e2 b5 3d 4d 1d b7 3d b2 c5 6c 3d 5c d0 9c bd
       0.08881167 0.089411356 0.057805724 -0.07656929
0002e0 ec 7b a1 bd ed 2e 7e bd 5d 94 20 ba 09 b7 89 3c
       -0.07884964 -0.06205647 -0.00061256235 0.01681091
0002f0 71 84 67 3d 8b a3 29 3d 8b e8 0b 3c 7c 47 a8 bb
       0.05652279 0.041415732 0.008539329 -0.0051354747
000300 c2 05 d6 bb 16 a2 0d bd 1c dd 8d ba a7 88 97 bc
       -0.006531448 -0.034578405 -0.0010823342 -0.018497778
000310 7f cb 07 bd 1c a7 84 3c 8b 1b 03 3d 31 3e 3c bd
       -0.033153053 0.016192965 0.03200869 -0.045957748
000320 6e 57 bf bc 55 ca 26 bd ba 4e 17 be e4 d1 ad bd
       -0.02335712 -0.040720303 -0.14776126 -0.08487299
000330 27 e4 16 bd 33 bc 5a bd 4c b3 47 bc 93 69 29 bd
       -0.036838677 -0.053402137 -0.012188744 -0.04136045
000340 b6 d7 18 bb 18 fe 76 bd 4d b5 3e 3c 88 3b c4 3d
       -0.0023321933 -0.060300916 0.011639905 0.09581667
000350 66 82 92 bc 49 d0 94 3d bc e0 e5 3d b3 e4 98 3c
       -0.017884444 0.0726629 0.11224505 0.01866374
000360 a7 e3 9e 3d 58 3f 82 3d 44 65 3e 3d 3c 87 e8 bc
       0.07758265 0.06359738 0.046483293 -0.028384797
000370 6a 40 2b bd 7e 16 6a bc 1e 2e 96 bd dd 03 78 bd
       -0.041809477 -0.014287589 -0.07333015 -0.06055056
000380 e1 06 a8 bb 8d b9 14 3d d7 67 b3 bd 66 8e f8 bd
       -0.005127773 0.036309768 -0.0876004 -0.12136535
000390 97 5c de bb 1f 7c 5c be 67 aa 4c be 26 02 a5 bd
       -0.00678594 -0.21531723 -0.19986878 -0.080570504
0003a0 ec b6 fa bd 54 27 d2 bd d8 c3 ff b9 87 5d 91 3a
       -0.12241921 -0.102614075 -0.00048783305 0.0011090495
0003b0 71 1d a4 3a c0 72 15 bb 4e c0 15 bc 59 b2 58 bb
       0.0012520981 -0.0022803992 -0.009140087 -0.0033065288
0003c0 6f 0b ac bb 26 7a 7a ba c3 3b 3b bb 5f 9f 25 bb
       -0.0052503864 -0.00095549447 -0.0028569556 -0.0025271995
0003d0 7c 4b 9c 3a fa 35 dd b8 14 cf d4 bb fe fd 3b bb
       0.0011924352 -0.00010548155 -0.006494412 -0.0028685327
0003e0 c5 28 97 bb 12 c2 43 bb 00 14 c5 ba c5 cc cc 3a
       -0.0046130144 -0.0029870314 -0.0015035868 0.0015624991
0003f0 f1 1c eb bc 51 c4 98 bd 73 de 9c 3d e4 55 78 bd
       -0.028700324 -0.074593194 0.07659616 -0.060628787

tfeb.5.weight f4 [25]
000000 e9 7d df 3e 03 64 36 3e 08 4f ac 3e 1c df 8c 3e
       0.4365075 0.17811589 0.33654046 0.2751397
000010 cc 61 e3 3e 39 da ba 3e 3d 10 76 3e 69 2c 8b 3e
       0.4441055 0.36494616 0.24029632 0.2718232
000020 2e 52 1d 3f 3d 21 a7 3e c6 9c 63 3e 93 7c 16 3f
       0.6145352 0.32642546 0.22227773 0.58783835
000030 57 aa f5 3e 22 02 18 3f 87 e0 3d 3e 9f a0 75 3e
       0.4798152 0.59378254 0.18542682 0.23987053
000040 7b 30 a9 3e 7f 67 6e 3e 4e 48 ed 3e 83 71 57 3e
       0.330448 0.23281668 0.46344227 0.21039395
000050 26 21 e4 3e 65 06 49 3e 02 28 6c 3e 3a e2 a9 3d
       0.4455654 0.19631346 0.23062137 0.082951024
000060 b9 4f 5d 3e
       0.21612443

tfeb.5.bias f4 [25]
000000 f7 97 12 3d 2f 40 74 3e fe a3 63 bc 84 e3 32 3d
       0.035789456 0.23852609 -0.013894079 0.043674007
000010 a1 8f 5f bd 9e bb c1 3d 73 59 2f 3e b2 54 4a 3d
       -0.054580335 0.09459613 0.17123966 0.049397178
000020 cf 58 a2 bd 01 35 34 bd 04 fe 03 3e 4a 9b af bd
       -0.07927095 -0.04399586 0.12889868 -0.08574541
000030 cc 38 37 be ed 07 d8 bd 95 14 35 3e de 99 05 3e
       -0.1789276 -0.10548387 0.17683633 0.13046977
000040 79 47 00 bd 59 c9 24 bd 62 38 91 bd a4 e0 9a 3e
       -0.03131816 -0.040231083 -0.07090832 0.30249512
000050 45 ec 0e be b7 23 94 3e 57 ec 77 3e 8d 38 81 3d
       -0.13957317 0.28933498 0.2421125 0.06309614
000060 17 68 65 bd
       -0.05600747

tfeb.5.running_mean f4 [25]
000000 5c 9d e8 be 6b 5d 73 bf 80 80 6d bd 4c 9a 7c 3d
       -0.45432556 -0.9506442 -0.057983875 0.061670586
000010 a6 36 22 bf b0 cd c7 be 99 d6 f1 be 8c 90 bd be
       -0.63364637 -0.39024115 -0.47234038 -0.37024343
000020 da 90 f9 be c4 b6 d8 be 30 bd de be eb c0 df be
       -0.48743325 -0.4232694 -0.43503714 -0.43701872
000030 c7 c4 bc 3d 7c 2e 91 be 04 0a c2 be 53 31 0d be
       0.0921722 -0.28355777 -0.37898266 -0.13788347
000040 59 ff 19 bf 62 ab cb bd 17 21 cc be 46 27 b0 be
       -0.60155255 -0.09944798 -0.39868996 -0.34404963
000050 bc d1 98 bd 09 56 18 bf 8f 2e 19 be e2 3d 5d be
       -0.07461879 -0.5950628 -0.14959167 -0.21605638
000060 99 20 e9 3d
       0.11383171

tfeb.5.running_var f4 [25]
000000 bc 79 20 3e 3b ff 18 3e 72 ce ed 3d 73 80 09 3d
       0.15671438 0.14941113 0.11611642 0.033569764
000010 6d 0e 33 3e d7 f7 ce 3d da 4b a5 3d 90 66 60 3d
       0.17485972 0.101058654 0.08071108 0.05478531
000020 3d 34 5a 3e d1 a0 7e 3d 7f 81 ff 3d 2f 29 6c 3e
       0.2130899 0.062165085 0.12475871 0.23062585
000030 0f d1 b2 3d c0 b5 be 3d e3 41 96 3d 05 65 c3 3d
       0.08731281 0.0931201 0.07336786 0.09540752
000040 7a bf 92 3d 1b 4e b9 3c 70 a6 da 3d 0b 45 97 3d
       0.071654275 0.022620251 0.10676277 0.07386216
000050 08 3a c7 3d 51 c2 55 3e b2 d3 ec 3d f2 89 5a 3c
       0.097278655 0.20874907 0.11563815 0.013338553
000060 4f 0e e5 3c
       0.027960924

tfeb.7.weight f4 [28, 25, 3, 3]
000000 d8 6a b5 3c 07 7d b2 3c ce d3 28 3d 9a 14 da 3c
       0.022145674 0.021788133 0.041217618 0.026621152
000010 1f 49 7b 3c 47 4b bf 3b 3e 8b 0b 3c 48 e1 09 3d
       0.015337258 0.005837831 0.008517085 0.03366211
000020 34 02 ed 3c 26 c2 e4 3b 28 94 7f bc 9d 75 cb bc
       0.028931715 0.006981152 -0.015599288 -0.024836356
000030 0c 3a 97 3d e8 80 c7 3d 9a 5e 89 3d 6c 07 0d 3d
       0.073841184 0.09741384 0.06707497 0.034430906
000040 f7 ae 82 3c 61 19 93 bc bd e3 f6 bc 04 98 4c bc
       0.01595257 -0.017956438 -0.030137891 -0.012487415
000050 fc f1 02 bd a2 ae e9 bd f8 ac aa bd f2 56 85 bd
       -0.031969056 -0.11410262 -0.083337724 -0.06510724
000060 bb 71 d0 bc 9a da 85 3c 67 bd 09 3d b3 08 14 bd
       -0.025444856 0.016339589 0.033627894 -0.03614111
000070 e2 43 e2 bc f8 57 0a bd 0c c5 20 bd f9 8e 4c bd
       -0.02762026 -0.0337753 -0.03925042 -0.049941037
000080 03 67 ac bc 7c bc a4 bb 14 55 aa bc 91 76 a5 3d
       -0.021045214 -0.005027352 -0.020792522 0.08079255
000090 60 82 9b 3b 8b fb 28 3d 6c 47 93 3d 10 37 1b 3d
       0.0047457665 0.041255515 0.07191357 0.03789431
0000a0 c5 56 7c 3d 83 8d 9a 3d 72 da 47 3b ea 22 d1 3c
       0.061606187 0.075465225 0.0030495194 0.025529344
0000b0 c4 4b 4d 3d d2 67 90 bd 0f 91 4e bd bc a9 81 bb
       0.050121084 -0.07051052 -0.050431307 -0.0039570015
0000c0 c1 9c 80 bc 53 86 f0 3c b2 59 c8 3c 52 08 13 bd
       -0.015699746 0.029360926 0.024456833 -0.035896607
0000d0 47 b6 97 3c e7 a4 94 3c b6 8f df bd 95 c6 12 bd
       0.018519534 0.018145038 -0.109160826 -0.035833914
0000e0 7b 0f 58 bd 6a b1 d0 3b ab 87 d4 bb 07 4b 4c bd
       -0.05274914 0.0063688057 -0.0064858994 -0.04987624
0000f0 05 43 1d 3c 50 c6 15 3d 57 99 68 bb 32 1c 76 bc
       0.009598498 0.03656608 -0.0035491788 -0.015021371
000100 d9 02 80 bc 52 28 ae b8 cd a8 17 3c b1 bf 5b 3d
       -0.015626358 -8.304477e-05 0.009256554 0.053649608
000110 4e 3d f6 3c f5 a7 08 3b 2a 55 c9 3c 90 86 5b 3c
       0.03005853 0.0020852063 0.024576742 0.013398781
000120 b6 d0 35 bd 88 5b 3c bc 04 68 0f bd 1e 2c 25 3d
       -0.044388495 -0.011496432 -0.035011306 0.040325277
000130 e1 71 e5 3d f2 d4 92 3d 81 64 11 3c 30 fe 33 3d
       0.11203361 0.07169522 0.00887406 0.043943584
000140 92 a7 4d 3d 38 90 27 3c 5f 75 f5 3b 0a 8f 9c 3c
       0.050208636 0.0102272555 0.0074907984 0.019111175
000150 06 05 d1 3b a2 1b a4 3c a9 bd 46 3c b4 1b 85 3c
       0.0063787727 0.020032708 0.012130179 0.016248561
000160 ea 05 dd 3c e4 ae 5c 3c fe b1 02 bd 9b bf dc bc
       0.02698036 0.013469432 -0.031908028 -0.026946833
000170 cd 11 81 bd f8 d4 89 3d c3 16 b0 3d 0d 4e 86 3d
       -0.06302223 0.06730074 0.085980915 0.06557856
000180 30 fe d4 3c 25 40 69 3b 80 5b 61 bd 1c 7b 24 bb
       0.026000112 0.0035591212 -0.0550189 -0.0025097793
000190 0a 39 2e 3d 52 52 27 3d 1b 34 bc 3c d0 22 aa 3d
       0.042534865 0.04084999 0.022974065 0.08307421
0001a0 c3 11 1d 3d 6d a1 28 bd 86 8c d0 ba c2 9d 6f bd
       0.038347017 -0.041169573 -0.001591102 -0.05850006
0001b0 61 44 04 bd 2a 03 6c bb f5 93 8c bb e6 4c ff bc
       -0.032291774 -0.0036012628 -0.004290099 -0.031164598
0001c0 d3 40 e3 bc 25 42 03 bc 74 1b 3f 3b ff 2e 0c bd
       -0.027740872 -0.008011376 0.002916065 -0.034224506
0001d0 6f 7d 2d 3d f3 ca 94 bc 2e f8 5b bc 18 78 06 3c
       0.04235595 -0.01816318 -0.01342587 0.0082073435
0001e0 3e 81 b7 3b af 57 fa bb 4c 11 c7 bc df 39 a3 3c
       0.0056001237 -0.007639847 -0.02430024 0.019925056
0001f0 75 6b 28 3a b9 46 12 bd 08 f0 98 bc 5b d1 b0 bc
       0.0006424704 -0.035711978 -0.018669143 -0.021584203
000200 6c f8 bd b9 36 dc dc bc ed 48 8b bc 4b 92 b0 bc
       -0.00036233978 -0.026960474 -0.017002547 -0.021554133
000210 9c 83 3f 3d cb af 99 3d 43 53 85 3d a7 0e 9a 3d
       0.04675637 0.07504233 0.065100215 0.07522326
000220 eb 63 84 3d c0 0c 1f 3d f2 dd a9 bb f2 cb 8f 3b
       0.0646437 0.03883052 -0.0051839286 0.004388326
000230 3b c8 2d 3d c9 d3 a0 bd fc ab 9b bd 11 78 07 bd
       0.042427283 -0.07852895 -0.07601163 -0.03307349
000240 bc ba 41 bd 2e cb e4 bc 80 c9 2e bc 77 16 e2 3b
       -0.047297224 -0.027928915 -0.0106681585 0.0068996507
000250 5d 6d a1 3a 99 40 ee bb d7 ad e7 ba 0f 9e d3 3c
       0.0012315918 -0.0072708842 -0.001767571 0.025832204
000260 cd be 13 3d c4 01 b9 3b 30 7e a6 3c fe cc 41 3d
       0.036070634 0.0056459624 0.020323843 0.047314636
000270 7a eb af bc ef a6 cc bc b7 9c ca 3b 7c 44 f7 bb
       -0.021474589 -0.024981944 0.0061832326 -0.007546006
000280 c4 ab 5f bc 59 db b6 bb 5e e0 0f bc 69 43 a6 bc
       -0.013651792 -0.0055803475 -0.008781521 -0.020295816
000290 54 4c d8 bc bf 68 1c bb e6 33 28 3d 99 6c f1 3c
       -0.026403584 -0.0023866144 0.04106512 0.029470729
0002a0 24 27 03 3d cf 2c 83 3d 81 e6 19 3d 07 62 0c 3d
       0.03201975 0.06405031 0.03757334 0.034273174
0002b0 7d 4f 71 3c 93 35 e3 3c 56 58 88 bb ed f6 de bc
       0.014728424 0.027735507 -0.004160921 -0.027217353
0002c0 72 ed fc 3c 5d 13 1f bc 05 a7 ef bc 4c fa 52 3c
       0.030874941 -0.009709206 -0.029254446 0.012877058
0002d0 a4 12 e0 bc 7d 7a 15 bc 22 77 c9 3c 8f ba 27 bd
       -0.027352639 -0.009123442 0.02459294 -0.0409494
0002e0 53 49 68 bd a6 fa 79 bd 15 54 f9 3b 18 eb 01 bc
       -0.056710552 -0.061030053 0.0076089003 -0.007929586
0002f0 5a d2 e4 bc db 38 6c bd 32 82 e5 bc af 34 0e bb
       -0.027932335 -0.05767141 -0.028016184 -0.0021698882
000300 5d 56 8a 3d e7 a1 b2 3d f3 5f cb 3d d7 f4 01 bd
       0.06754754 0.08722287 0.0993041 -0.031727638
000310 ec 28 a2 bb 70 3a 51 3d 54 14 0e 3d 3a 02 14 3d
       -0.004948726 0.05108112 0.034687355 0.036134936
000320 93 5a e6 3c 56 d2 3f bd 90 a0 83 bd 69 8c 9e bd
       0.028119361 -0.04683145 -0.06427109 -0.07741625
000330 dd ea a7 3d ed 03 c4 3d 27 3c af 3d 85 2f a1 3b
       0.081990935 0.09571061 0.08556395 0.004918995
000340 a3 62 8c bb fb b5 a4 bb 62 73 e2 3c 35 5f cb 3c
       -0.0042842194 -0.0050265766 0.02764291 0.024825672
000350 93 09 1b 3d 78 5b 45 3c 79 22 25 bc 4d 54 3d 3c
       0.037850928 0.012045734 -0.01007902 0.011555743
000360 7a f0 4f bc c6 5f d3 bc b3 46 a5 ba 2a be ba 3c
       -0.012691611 -0.025802504 -0.0012609571 0.022795755
000370 1b 13 cd 3c 61 32 8c 3d 1b fc b2 bc c2 5f ff bc
       0.025033524 0.068455465 -0.021848729 -0.03117359
000380 19 3c 31 bc 6c 50 a4 3d 5d 26 3b bd 60 70 7f bd
       -0.010817551 0.08023152 -0.045690883 -0.06236303
000390 42 b1 37 3d 10 ef fa bd 92 6b ff bd 0b 1f 28 3e
       0.04484678 -0.12252629 -0.12471689 0.16418092
0003a0 e7 03 2e bd 8c c9 85 bd 2d fd 0f 3d ac c6 70 3c
       -0.04248419 -0.06532583 0.035153557 0.014695805
0003b0 f7 7f 52 3d 8d f3 ae 3d aa 48 60 3d a7 f4 e0 3b
       0.051391568 0.085425474 0.054756798 0.0068651023
0003c0 37 09 3c 3d d3 25 b2 bb f8 ed ce bc 11 b2 26 bd
       0.045907225 -0.005436638 -0.025259957 -0.04069716
0003d0 82 2d a9 3d 2a fd 4b 3d ad d6 50 bd 90 b2 68 bd
       0.08260633 0.049801983 -0.05098598 -0.056810915
0003e0 cc 76 79 bd 0f 6e e3 bc 20 a0 86 bd ef a3 1d be
       -0.06090431 -0.027762441 -0.0657351 -0.15394567
0003f0 ac 87 ba 3c f2 88 85 bc fb 36 ad bd a7 2e 81 bd
       0.022769772 -0.016300652 -0.08457752 -0.06307726

tfeb.8.weight f4 [28]
000000 dc 61 80 3e 1c b6 f1 3e 60 19 7b 3e b6 a5 af 3e
       0.2507466 0.4720925 0.24521399 0.34306115
000010 9c 1e d2 3e cf bc b8 3e c2 fe 93 3e fb 42 73 3e
       0.41038978 0.3608155 0.28905302 0.2375602
000020 2b 13 2b 3e 75 12 d3 3e cc 5f 96 3e 07 89 d8 3e
       0.16706531 0.4122502 0.29369962 0.42292044
000030 6c cc 9a 3e a0 b5 6d 3e 4d d4 6c 3e 92 2a b2 3e
       0.30234087 0.23213816 0.23127861 0.34798104
000040 e9 13 c4 3e 72 2a f8 3e 24 1a d5 3e 07 11 ca 3e
       0.3829644 0.48469883 0.41621506 0.39466116
000050 3a a6 00 3f ad b4 ad 3e 3b 49 84 3e d8 98 92 3e
       0.5025364 0.33926907 0.2583712 0.28632236
000060 08 e3 f7 3e 04 aa b5 3e e5 02 c6 3e 3b d3 6b 3e
       0.484154 0.35481274 0.38674083 0.23029797

tfeb.8.bias f4 [28]
000000 e6 1b 0e 3e 6c 0c c5 bd ed 13 b7 3c 03 cd 43 bd
       0.1387783 -0.0962151 0.022348369 -0.047802936
000010 db dc bf bd 0d 60 91 3c 00 8f 99 3c 18 72 b2 3d
       -0.09368297 0.017745996 0.018744946 0.08713168
000020 c7 b2 29 3d 5e 38 85 bd 30 a4 17 be 94 f2 9c bd
       0.04143026 -0.06504892 -0.14808726 -0.076634556
000030 46 aa e3 bc e2 ac c5 3d 05 f9 2e 3e fd 9e 30 bd
       -0.027791154 0.096521154 0.17087181 -0.043120373
000040 fc 58 fb bd df 66 bf bd d7 f5 79 bd a1 40 94 bd
       -0.12272832 -0.09345793 -0.061025467 -0.072388895
000050 74 9b 39 be cd 7b 07 bd 2e b4 a2 3d d1 68 7d bc
       -0.18125707 -0.03307705 0.07944523 -0.015466885
000060 ca 4e 14 bd eb dc 51 bd 21 11 91 bc 1e 66 e3 3d
       -0.03620795 -0.051236074 -0.017708363 0.11103462

tfeb.8.running_mean f4 [28]
000000 ac 54 56 3e 2e ab 90 be 36 e3 16 be e4 d4 96 bd
       0.20930737 -0.282556 -0.14735112 -0.073648244
000010 4c d6 b2 be 4d 0d 1d 3c 26 a3 8c be 86 72 95 be
       -0.3492912 0.009585691 -0.27468222 -0.29188937
000020 98 14 96 bd 4a f1 47 3d f5 5c f6 3d 68 91 1b 3e
       -0.07328147 0.048814096 0.12029449 0.15192187
000030 1b 41 04 be 18 17 06 3d 8f 7b f6 3d 3a f5 dd be
       -0.12915461 0.032736868 0.12035286 -0.43351156
000040 bd ea 91 be e1 f1 2a bd 38 b0 32 be 59 c7 32 3d
       -0.28499404 -0.04173458 -0.17450035 0.043647144
000050 dc 67 6f be 9b 9f 78 be 37 37 29 bf 92 3a 60 be
       -0.23379463 -0.24279635 -0.66099876 -0.21897343
000060 da c2 01 be a4 08 b2 bd 64 af c7 be 71 73 de 3e
       -0.12671986 -0.08693054 -0.39001 0.4344745

tfeb.8.running_var f4 [28]
000000 5b 8a f4 3c 72 dd ed 3d de 73 80 3c 3f f4 09 3d
       0.02985113 0.11614503 0.01568025 0.033680197
000010 70 c6 8e 3d b0 f3 09 3d 01 dc cb 3c 51 fb 21 3d
       0.06971443 0.033679664 0.02488518 0.039546315
000020 11 20 0b 3c 36 aa b0 3d 14 82 a0 3c fc 01 fe 3c
       0.008491532 0.08626215 0.019593276 0.031006806
000030 84 7e 8d 3d 81 24 63 3d 08 9a 61 3d d3 e1 0d 3d
       0.069088966 0.055454735 0.055078536 0.03463919
000040 11 d1 65 3d f9 22 08 3e b1 98 d3 3d d5 ba 56 3d
       0.056107584 0.13294591 0.10331858 0.05242427
000050 e7 f5 a0 3d a9 56 95 3d 4c 1c 10 3d 10 7e 94 3d
       0.07859402 0.0729192 0.035183236 0.07250607
000060 40 1d 5b 3d eb 5d 10 3d 7f 52 ff 3c 6a 32 44 3d
       0.05349469 0.035245817 0.031167267 0.04789964

tfeb.11.weight f4 [32, 28, 3, 3]
000000 d9 af b3 bc 80 9f e6 bc b1 b7 fd bc 6e 15 0c 3d
       -0.021934437 -0.028152227 -0.03097138 0.034200124
000010 2d 01 1e 3d 9c 19 ba 3c d3 80 90 3d 0e a4 6f 3d
       0.03857534 0.02271729 0.07055821 0.058506064
000020 5c d8 4a 3d 29 68 08 bd 4e 29 1c 3c 44 d2 89 bb
       0.049522743 -0.03330246 0.009531332 -0.004205974
000030 e9 99 1e 3b e8 18 53 3c a2 dc ec 3c 6d eb ab bc
       0.0024200624 0.012884356 0.0289138 -0.020986283
000040 e7 03 6e bb 77 36 fd 3c 01 6f 89 bc 74 a2 fd bc
       -0.0036318244 0.03090976 -0.016776564 -0.030961253
000050 d4 8f d3 bc 09 6f 85 bc 8c ce c0 bc b8 3b 8e bc
       -0.025825419 -0.016288297 -0.02353599 -0.01736246
000060 9b e5 02 3d 8e 6b 92 3c 79 30 d2 3c cb 90 06 3d
       0.03195725 0.017873552 0.02565788 0.03285293
000070 c3 32 c6 3c d3 25 eb 3c fb 11 29 3d 08 4d af 3c
       0.024194127 0.02870456 0.041276913 0.021399036
000080 d3 9e 62 bb 51 6c ad bb 14 1f 85 3c 34 be cb bc
       -0.003457953 -0.0052924533 0.01625017 -0.02487097
000090 44 15 c4 3c a2 78 84 3c ac 02 1d 3d 4c b0 9a 3c
       0.023935921 0.016170803 0.038332626 0.018882893
0000a0 4c 96 91 3b 57 2f b3 3c 03 5b ce bc f7 2b 9b bd
       0.0044429656 0.02187316 -0.025189882 -0.07576745
0000b0 fd 8b b5 bc d1 62 81 bc 63 74 9c bc 72 80 26 bc
       -0.022161478 -0.01579419 -0.019098466 -0.01016246
0000c0 61 54 ba 3c c8 33 85 3c ed 92 fc bb 5e 2c b5 bc
       0.022745313 0.016260043 -0.0077079446 -0.022115882
0000d0 5a 93 bd bc 7e c0 f1 3b 57 72 12 3c 08 48 6f 3c
       -0.023141552 0.007377683 0.008938394 0.014604576
0000e0 dd 4f 45 3c 1f 91 c0 bc 10 7d a5 bc 83 9f 92 bc
       0.012042967 -0.0235067 -0.020201236 -0.017898327
0000f0 a0 8b c2 bb 9e cf 9c bc a9 1c 8a bb b4 06 0f bd
       -0.0059370548 -0.019141968 -0.0042148423 -0.034918502
000100 10 81 0c bc 00 63 8c bc ab 6f 78 bd 0f a4 09 bd
       -0.008575693 -0.01713705 -0.06065337 -0.033603724
000110 2c 02 8c bc 96 a1 e3 bc ff 9b 38 bc 0d b3 c1 3c
       -0.01709088 -0.027787011 -0.011267661 0.023644948
000120 2d c9 00 bd ab fe f6 bc 3e 95 e8 bc a3 1d a7 bc
       -0.031441856 -0.030150732 -0.028391477 -0.020399874
000130 b2 b4 b1 bc dd 41 51 bc 5b b6 92 3b ef 29 6d 3b
       -0.021692608 -0.012772051 0.004477305 0.0036188324
000140 01 15 27 3c 74 c3 a0 bb 03 96 99 3b 54 92 e9 3c
       0.010197879 -0.0049061123 0.0046870722 0.028512157
000150 66 74 84 3c 2c 25 4a 3d 53 24 dd 3c 7f 73 84 bb
       0.016168784 0.049351856 0.02699486 -0.0040420885
000160 23 43 7a 3c 25 89 09 3d 25 05 44 3c 0f 4a 3a 3c
       0.015274796 0.033578057 0.011964117 0.011370196
000170 d8 2a 37 3c 65 fb 1a 3d 47 c9 17 3d e8 b2 1e 3c
       0.011179648 0.037837405 0.037057187 0.009686209
000180 96 ec 01 3d 95 52 28 3d 5e f1 07 3d 12 29 a1 3b
       0.031719767 0.04109438 0.03318917 0.004918226
000190 a6 cc 2a 3d a1 03 b0 3c e7 37 38 bc 54 a7 47 3c
       0.041699074 0.021486105 -0.011243797 0.01218589
0001a0 02 90 98 bc 0c eb c8 3c 35 50 b9 3c f7 ec a0 3c
       -0.018623356 0.024526142 0.022621254 0.019644244
0001b0 d1 93 39 bd b4 b6 6f bd 06 92 5b bd 01 ff 91 bd
       -0.045306984 -0.05852385 -0.053606056 -0.07128716
0001c0 c3 6a a4 bd df 10 8f bd 8a 50 c2 3c f3 09 19 3d
       -0.08028176 -0.0698564 0.023720045 0.037363004
0001d0 a1 43 53 3d 7a eb d6 bc 19 f0 af bc a1 b7 57 bc
       0.051578168 -0.02623533 -0.021476792 -0.013166339
0001e0 84 ba 62 3c f5 de 5c 3c 20 bb 99 3c 9a d7 09 3c
       0.013838414 0.0134808915 0.018765986 0.00841322
0001f0 be 71 de 3c 0e fd 2d 3d 80 a5 91 bd 73 03 98 bd
       0.027153846 0.04247766 -0.07111645 -0.07422533
000200 1f 5f a1 bd 0b 91 d5 3c b1 22 b7 3c 4b 8b 24 3d
       -0.07879471 0.026070138 0.02235541 0.040171903
000210 30 55 37 3d cf 8d f5 3c 53 7b 39 3d 07 c1 c8 3c
       0.044758976 0.029974846 0.045283627 0.024506105
000220 a3 b4 32 3d 19 b4 0f 3d f2 ad 6b 3b c0 1b 62 3c
       0.0436293 0.035083864 0.0035961834 0.013800561
000230 0b c8 9c 3c 63 1d a9 3c 82 1b a7 bb 3a 1d 94 3b
       0.019138357 0.020643895 -0.0050997147 0.0045200856
000240 b0 46 1f bd 6d ff 00 3d 82 fb b4 3b 4a 8a 3b bd
       -0.038885772 0.031493593 0.005523146 -0.04578618
000250 23 ab 25 3d 2e b6 a3 3c 74 57 48 bd b2 dc bd 3c
       0.04044641 0.019984331 -0.048911527 0.023176525
000260 ff 08 5e 3d be 1c 2d bd ef 81 fe bc 1c b5 09 bd
       0.054207798 -0.04226374 -0.031067817 -0.033619985
000270 2b 86 39 bd de 01 55 3d 50 78 1c 3d 6a 48 54 bd
       -0.04529397 0.052003734 0.038200676 -0.051826872
000280 8f 2b 11 bb b1 e6 ee 3c 0b 64 06 3c 9a 04 da 3b
       -0.0022151207 0.029162737 0.008202563 0.0066533806
000290 03 d1 8d 3c 0c 06 65 bb 3c 9f d9 bc 9f a0 3c bd
       0.017311579 -0.0034946231 -0.026565187 -0.046051618
0002a0 b4 1f 5a bc 51 0a 0c bd a4 bf 11 bd fd ee 7e bb
       -0.013313223 -0.034189526 -0.035583153 -0.0038899772
0002b0 de 9e 27 bc 14 53 aa bb 90 25 ee 3c 96 94 10 3d
       -0.010230748 -0.005197892 0.029070646 0.035297953
0002c0 fe 7f 40 3d c1 64 c5 bc 1a 31 80 bc d2 ec 31 bc
       0.046997063 -0.024095895 -0.015648413 -0.010859685
0002d0 9d ee 5b 3c e2 40 b7 bb e5 f6 81 3b e2 e5 94 bb
       0.013423589 -0.0055924514 0.0039661997 -0.0045440057
0002e0 bb 4a ae bc 5e ad e6 bc b0 5f b1 bc 63 22 22 bd
       -0.021275869 -0.02815884 -0.021652073 -0.039583575
0002f0 bc 3d 2b bd bd ee 2b bd ce c9 8a bc ff 43 95 bc
       -0.04180692 -0.041975725 -0.016941931 -0.0182209
000300 74 af ef bc 68 b8 70 bb d3 65 bf 3c b5 5e 27 bd
       -0.029258467 -0.0036731008 0.023363983 -0.040861804
000310 ba 77 3d bc 7b b4 19 3c c5 8d ab bc 75 93 cf 3c
       -0.01156419 0.009381409 -0.020941624 0.025338868
000320 20 e0 ff 3b 68 5d 87 bd 0b 7c 9b bc a1 bd 10 bd
       0.0078087 -0.06609613 -0.018980047 -0.035337094
000330 09 e4 84 bc 46 21 75 3c 26 b5 a4 3c f1 fb 45 bd
       -0.016222017 0.014961546 0.02010591 -0.048335973
000340 a1 a6 fa bc 3f 58 7d bc 74 2f c4 bc 04 c1 9d bb
       -0.030597033 -0.015462934 -0.023948409 -0.004814269
000350 45 45 79 bc d6 26 c4 bc e6 54 df ba e4 98 84 3b
       -0.015214269 -0.0239443 -0.0017038852 0.0040465463
000360 00 a7 75 3b b0 a0 5f bb 21 ad 6a 3c ce 91 b8 b9
       0.0037483573 -0.0034122877 0.014323504 -0.00035203848
000370 e0 5d 60 bc d8 42 8a bc 78 e7 db bd fc d8 bf bd
       -0.013694257 -0.016877577 -0.107375085 -0.09367558
000380 26 3c b1 bd f6 e2 0e bc ce 93 7c bb e1 6c 3f 3b
       -0.086540505 -0.008721104 -0.0038540247 0.0029209184
000390 77 00 3f bb 65 f3 c0 3b 3c 81 f4 3b cb 29 ad 3c
       -0.0029144564 0.00588839 0.007461695 0.021138093
0003a0 36 ee 33 3d ea c0 61 3d 3a f7 8b 3b 68 2e 24 3c
       0.043928348 0.055115618 0.004271415 0.01002083
0003b0 d3 fb 10 3c de 1f ae 3b 88 e0 5e 3c e2 0a 22 bb
       0.008849102 0.0053138575 0.013603337 -0.0024725725
0003c0 b8 59 26 bc f0 ee 2f 3c 75 e2 21 3c d6 4d 00 bd
       -0.010153227 0.0107381195 0.009880652 -0.03132423
0003d0 91 41 10 bd 48 79 44 bd 60 50 61 3d 6c 24 7d 3d
       -0.03521878 -0.047967225 0.055008292 0.061802313
0003e0 ec b5 8a 3d 2f 69 84 3d d1 cd 76 3d 9f f3 94 3d
       0.0677298 0.06465375 0.060254876 0.072730295
0003f0 bd 1e 0a be e9 48 8d bd 3c c4 23 3c 64 06 18 be
       -0.13488288 -0.06898672 0.009995516 -0.14846188

tfeb.12.weight f4 [32]
000000 4c 63 a2 3e 35 9f b5 3e 42 9a ae 3e 4e 1a 96 3e
       0.31716383 0.35473028 0.34102064 0.29316944
000010 70 96 7b 3e 80 95 e6 3e 95 a2 bb 3e a1 12 d9 3e
       0.24569106 0.45035934 0.36647478 0.42397025
000020 dd 24 14 3f a8 01 9e 3e 7b 43 b6 3e 71 de c7 3e
       0.5786875 0.3086064 0.3559836 0.39036897
000030 5a e4 b9 3e f1 92 93 3e 14 bc b2 3e d5 a6 86 3e
       0.3630703 0.28823045 0.34909117 0.26299158
000040 8a 5e c1 3e c4 7b 86 3e ad 92 9f 3e f8 76 9e 3e
       0.3776744 0.262663 0.31166592 0.3095014
000050 d8 78 b7 3e 87 08 b9 3e f8 6c c4 3e 4e cb 8b 3e
       0.35834384 0.36139318 0.38364387 0.27303547
000060 de 94 8d 3e 4c 23 ef 3e 7e ab 30 3e 77 17 80 3e
       0.2765264 0.46706617 0.17252919 0.25017902
000070 42 20 a8 3e bb 3c e0 3e fc 51 d0 3e 17 08 11 3f
       0.3283711 0.43796334 0.4068755 0.5665297

tfeb.12.bias f4 [32]
000000 78 93 4d be 72 83 41 3d 08 21 0e be eb 45 45 bd
       -0.20075786 0.047244497 -0.13879788 -0.048162382
000010 fe c2 a9 bd 28 cd 55 be 33 a9 a7 bd a5 b8 22 be
       -0.08289145 -0.20879042 -0.08186569 -0.15890749
000020 e4 cd cd be c9 22 55 3d 1e 30 fd bd 2f 5d b1 bd
       -0.40196145 0.052035127 -0.12362693 -0.086603515
000030 43 cd ea bd ad 3e 99 bb 8a dd 31 be 87 3a b3 bd
       -0.11464932 -0.004676661 -0.17369667 -0.087513976
000040 6f 58 39 be 85 73 25 3e 05 af aa bd d8 39 3a 3d
       -0.18100141 0.16157348 -0.083341636 0.04546532
000050 a0 92 e5 bd b3 78 f6 bd 2c e3 7b bd 63 8c 08 3e
       -0.11209607 -0.1203474 -0.061495945 0.13334803
000060 ff 24 01 bd 14 7a 75 bd 24 0e 0c be 4d 58 99 bd
       -0.031529423 -0.059930876 -0.13677269 -0.07487545
000070 e4 f6 9a bd c8 9e 33 be aa a6 34 be 31 e8 46 be
       -0.07566622 -0.17541039 -0.17641702 -0.19424511

tfeb.12.running_mean f4 [32]
000000 de 92 50 bd 05 07 03 bf 06 65 88 be 87 17 0e 3e
       -0.050921313 -0.51182586 -0.26639575 0.13876162
000010 ad a4 20 be 73 01 60 bf 46 f6 57 be 5a a6 d1 be
       -0.15687819 -0.8750221 -0.2109004 -0.4094723
000020 05 a2 31 bf d2 89 06 be 06 da 88 be b1 6a 11 bf
       -0.6938785 -0.13138512 -0.2672884 -0.56803423
000030 ad bf ce be c8 6c 12 bf 36 37 d7 bd ee aa 58 bd
       -0.40380612 -0.57197237 -0.105085775 -0.052897386
000040 04 bc 97 be b0 ff 0b be 39 22 0d be ba b0 e0 be
       -0.29635632 -0.13671756 -0.13782586 -0.43884832
000050 3c 46 ac be 17 70 0f bf 41 d8 ae be b2 81 e4 be
       -0.33647335 -0.5603041 -0.34149364 -0.446302
000060 1d 00 bb bd 3e 89 38 bf b2 bb 14 be 65 37 68 bd
       -0.09130881 -0.72084415 -0.14524725 -0.056693453
000070 43 15 03 be 46 54 c6 be b0 e1 90 be 90 36 46 bf
       -0.1280108 -0.3873617 -0.28297186 -0.77427006

tfeb.12.running_var f4 [32]
000000 56 ea 5e 3d 25 7c aa 3e 98 02 0b 3e 6c 39 e4 3d
       0.0544227 0.3329784 0.13575208 0.11143765
000010 7c 80 ea 3c f3 c2 ab 3e 98 07 4d 3e 64 ca 2a 3e
       0.02862572 0.33547172 0.20022428 0.16678768
000020 f7 18 90 3e 59 ee 10 3e eb 6b 67 3e fa 8a 8a 3e
       0.28144047 0.14153422 0.22599761 0.27059156
000030 1f 94 1b 3e 74 18 0f 3e ea e9 e5 3d 0d 29 f5 3d
       0.15193222 0.13974172 0.11226256 0.119707204
000040 e6 48 c8 3d 72 9f a6 3e 12 8d d5 3d b8 95 2c 3e
       0.09779529 0.32543522 0.10427298 0.16853988
000050 5f 15 c8 3d 8a 67 3d 3e ea 4c 8a 3e 7c 86 9c 3e
       0.09769701 0.18496528 0.27011806 0.30571353
000060 23 7e cd 3c cc ba 10 3f e0 ea 6d 3c 70 c4 ef 3d
       0.02508456 0.5653503 0.014521331 0.11707389
000070 09 ec 85 3d 96 7b 92 3e 60 25 23 3e b9 ee fb 3e
       0.06539161 0.28609914 0.15932226 0.49205568
