trained_models/step_5_retrain_after_step_4/retrain_4C_after_2nd_pruning_prunratio0.85_2024060419/retrained_4Cmodel_ratio85.0_vaacc90.5797119140625_tracc_80.26315789473685@404epoch_20240604213115.pt (torch, 309156 bytes, 62 tensors)

sfeb.0.weight f4 [8, 1, 1, 9]
0	0x3e321bc4	0.17393404
1	0x3e26d2c5	0.1629134
2	0x3eb09c92	0.34494454
3	0x3ed5d470	0.4176364
4	0x3deb1821	0.114792116
5	0xbe82aac2	-0.25520903
6	0xbf126d45	-0.5719798
7	0xbead236c	-0.33816087
8	0xbdf8da33	-0.12150993
9	0xbd248f1a	-0.040175535
10	0x3d0efd48	0.034909517
11	0xbd0e77e0	-0.03478229
12	0xbea80fa4	-0.32824433
13	0x3d4fb92c	0.050713703
14	0xbe64c4a4	-0.22340637
15	0xbeb63a60	-0.35591412
16	0x3ec36b37	0.38167736
17	0x3f27b1d9	0.6550575
18	0xbe57c9b6	-0.2107304
19	0xbe62cb95	-0.22147973
20	0x3e6e78af	0.23288225
21	0x3da61648	0.081097186
22	0xbe100459	-0.14064158
23	0xbe43b2ee	-0.19111225
24	0x3db1c68c	0.08680448
25	0xbed6d0df	-0.4195623
26	0xbf0199a2	-0.5062505
27	0x3f4ff0ad	0.8122662
28	0x3eca8f5d	0.39562503
29	0xbd87dd32	-0.066339865
30	0x3d5eb1ad	0.054368664
31	0xbe366619	-0.17812385
32	0x3d1de766	0.038550757
33	0x3e0fca62	0.14042047
34	0xbd8ee056	-0.069763824
35	0x3dc73257	0.097263984
36	0xbf325397	-0.696588
37	0xbec62ecf	-0.38707587
38	0x3d68c18a	0.0568252
39	0xbca9fc4b	-0.020750185
40	0x3ea60362	0.32424456
41	0x3e75efa7	0.24017201
42	0xbe4f597d	-0.20248981
43	0x3d67a16f	0.05655044
44	0xbe6faa5c	-0.2340483
45	0xbeb87764	-0.36028588
46	0xbd78f98c	-0.06078486
47	0x3e38114c	0.17975348
48	0x3d836989	0.064166136
49	0xbf09e751	-0.53868586
50	0x3d495809	0.049156222
51	0x3f2dba25	0.6786216
52	0xbd90261f	-0.07038521
53	0xbf127236	-0.5720552
54	0xbc396f91	-0.011318103
55	0xbe6b6d5f	-0.2299094
56	0x3e8802b0	0.2656455
57	0xbda2b2df	-0.07944273
58	0xbf0437a3	-0.51647395
59	0x3f0df728	0.55455256
60	0x3dc2cf1b	0.095121585
61	0xbf069b75	-0.5258096
62	0x3eeb72f7	0.4598615
63	0x3b7d7f7b	0.003868072
64	0xbd0be061	-0.03414953
65	0xbe36dc6d	-0.17857523
66	0xbdc63683	-0.09678366
67	0x3e6f295b	0.2335562
68	0x3e7f46f8	0.24929416
69	0xbacb6440	-0.0015517548
70	0x3ec3a0fd	0.38208762
71	0x3f26fe32	0.6523162

sfeb.1.weight f4 [8]
0	0x3f6ae658	0.91757727
1	0x3f61f4ef	0.88264364
2	0x3f4f06c1	0.8086968
3	0x3f5a57e0	0.85290337
4	0x3f62714a	0.88454115
5	0x3f2430e3	0.64137095
6	0x3f01e3f8	0.5073848
7	0x3f5a8284	0.853554

sfeb.1.bias f4 [8]
0	0x3cabe38d	0.020982528
1	0x3d547c77	0.05187651
2	0x3d7cdb04	0.061732307
3	0x3e827abe	0.2548427
4	0x3d48937e	0.048968785
5	0x3e3ea49a	0.18617478
6	0x3e71bea3	0.23607878
7	0x3d8d0606	0.068859145

sfeb.1.running_mean f4 [8]
0	0xb699495b	-4.568295e-06
1	0x3724c6a4	9.821411e-06
2	0xb90581be	-0.00012732201
3	0x38f049d1	0.00011457841
4	0xb8af5439	-8.360338e-05
5	0xb87681bb	-5.877179e-05
6	0xb586b6b8	-1.0036956e-06
7	0x38f07ff6	0.000114679264

sfeb.1.running_var f4 [8]
0	0x3d0eeb6b	0.03489248
1	0x3c99f7d8	0.018794939
2	0x3c916080	0.01774621
3	0x3cdecece	0.027198222
4	0x3ce26009	0.027633684
5	0x3c2b082b	0.010438959
6	0x3b059dd5	0.0020388265
7	0x3cac3082	0.021019224

sfeb.3.weight f4 [32, 8, 1, 5]
0	0x3d4e2559	0.050328586
1	0xbe1d98f4	-0.15390378
2	0xbcdca6be	-0.026934978
3	0xbccfcbdd	-0.025365764
4	0xbe17b9ff	-0.14817046
5	0xbe004d1e	-0.12529418
6	0xbde070f6	-0.109590456
7	0xbdd3cba0	-0.10341573
8	0xbd162fa1	-0.036666516
9	0xba00358b	-0.0004890791
10	0x3e9a4fc4	0.3013898
11	0x3e567fcf	0.20947193
12	0x3e74b4f8	0.23897159
13	0x3e3c1001	0.1836548
14	0x3e138ac2	0.144084
15	0xbe4b25ce	-0.1983864
16	0xbce3e2ea	-0.027818162
17	0xbe7c1296	-0.24616465
18	0xbd72e2f4	-0.05929847
19	0xbdc414c3	-0.095742725
20	0x3e8c5b3d	0.2741336
21	0x3e1bdab5	0.15220149
22	0x3c97a09a	0.018509198
23	0x3e5cf2a6	0.21576938
24	0x3dd43b9f	0.10362934
25	0x3d53ebad	0.05173843
26	0xbca23459	-0.019800352
27	0xbd856a7a	-0.065144494
28	0xbd0e3955	-0.034722645
29	0x3c0c29b8	0.008554868
30	0x3cecb17e	0.028893229
31	0xbda6869c	-0.081311435
32	0x3d060003	0.032714855
33	0x3d69067f	0.05689096
34	0x3d329a40	0.043604136
35	0xbd5f5d30	-0.05453223
36	0xbda4c30e	-0.08045016
37	0xbe0276e3	-0.12740664
38	0xbd5cd213	-0.05391128
39	0xbd92cda0	-0.07168126
40	0xbe1633c3	-0.14668183
41	0xbe472b3c	-0.19450086
42	0xbcce1a6b	-0.025159081
43	0x3daa5ab7	0.08318084
44	0x3dd4c7d3	0.10389676
45	0xba2920fe	-0.00064517546
46	0xbe125c27	-0.14292966
47	0xbe10fea7	-0.14159642
48	0xbd377d2e	-0.044797115
49	0xbdfde36c	-0.12396893
50	0x3dcc64eb	0.09980186
51	0x3dabd9fa	0.08391185
52	0x3db5af42	0.088713184
53	0x3e980198	0.29688716
54	0x3eb9d79e	0.36297315
55	0xbe75fba8	-0.2402178
56	0xbde4f2f8	-0.11179155
57	0xbe359c32	-0.17735365
58	0xbd19d048	-0.037552148
59	0xbd1edd71	-0.0387854
60	0x3e3412bb	0.1758527
61	0x3e02e637	0.12783132
62	0x3d03a431	0.032139007
63	0xbd8f4f64	-0.069975644
64	0x3b9c4130	0.004768513
65	0xbc9f6a7c	-0.019459955
66	0x3e137ef1	0.14403893
67	0xbd39a810	-0.045326293
68	0x3c315dc6	0.01082558
69	0x3c6b3977	0.014356962
70	0xbc1f8f55	-0.009738763
71	0xbd449c60	-0.048000693
72	0xbcccc15b	-0.024994543
73	0xbde395f9	-0.111125894
74	0xbce64bde	-0.028112348
75	0xbd9231b1	-0.07138384
76	0xbda03a40	-0.0782361
77	0xbe93af96	-0.288449
78	0xbe5652bb	-0.20929997
79	0xbe1382d3	-0.14405374
80	0xbdba5b5e	-0.09099458
81	0xbe77d31b	-0.24201624
82	0xbd4cc784	-0.04999496
83	0x3c70b2cf	0.014691069
84	0xbd8bad14	-0.068201214
85	0xbe333fb7	-0.17504774
86	0xbdbbae5c	-0.09164116
87	0xbd86500c	-0.065582365
88	0xbe31d31b	-0.17365687
89	0xbe19b2ca	-0.15009609
90	0x3e4921e9	0.19641842
91	0x3e65be73	0.22435932
92	0x3e256d8c	0.1615507
93	0x3e728d8c	0.23686808
94	0x3e9e7d1f	0.30954835
95	0xbe893ede	-0.26805776
96	0xbe052445	-0.13002117
97	0xbe8f0ceb	-0.27939543
98	0xbdd28b4e	-0.102804765
99	0xbe096ad9	-0.13419665
100	0xbd6239c9	-0.05523089
101	0xbd0de8bf	-0.034645792
102	0x3d722c02	0.059124
103	0x3e077e9e	0.13231894
104	0x3d6e711c	0.05821334
105	0xbd121adb	-0.035670143
106	0x3ca0943a	0.01960193
107	0xbd50e4b0	-0.050999343
108	0x3d8c05f0	0.0683707
109	0x3d011a90	0.031519473
110	0xbd245349	-0.04011849
111	0xbda65abe	-0.081227764
112	0xbd4d6574	-0.05014558
113	0xbd9628ac	-0.07331976
114	0xbe13001d	-0.14355512
115	0xbe136ec9	-0.1439773
116	0xbe8ff9f9	-0.28120402
117	0xbe886b13	-0.2664419
118	0xbdf7de27	-0.12102919
119	0xbe1bb8ff	-0.15207289
120	0xbc880958	-0.016606018
121	0x3d3fe7c5	0.046851892
122	0xbe93dcc2	-0.28879362
123	0xbd92461c	-0.071422786
124	0xbe8037bb	-0.2504252
125	0xbe47986f	-0.19491743
126	0xbd98951c	-0.07450315
127	0x3db24f67	0.08706551
128	0xbdbaecb8	-0.09127182
129	0xbe1a6378	-0.15077007
130	0xbeb4593d	-0.35224333
131	0xbe837b5f	-0.25680062
132	0xbe5af0c0	-0.21380901
133	0xbe76d7e5	-0.24105795
134	0xbeb7fcc2	-0.35935026
135	0x3e01d796	0.12679896
136	0x3e7cb135	0.24676974
137	0x3e972c8c	0.29526174
138	0x3d93b71d	0.072126605
139	0x3dbae9ec	0.09126648
140	0xbe18bf82	-0.14916804
141	0xbe794002	-0.24340823
142	0xbebbaaef	-0.3665385
143	0xbe0c529d	-0.1370339
144	0xbd6f5404	-0.058429733
145	0x3d18999f	0.03725588
146	0xbe3f8572	-0.18703249
147	0xbe3f4a64	-0.18680722
148	0xbe75ee2c	-0.24016637
149	0xbe4dbea3	-0.20092253
150	0xbe0e632b	-0.13905017
151	0xbe3c5f2f	-0.18395685
152	0xbe7fe066	-0.24987945
153	0xbe11138e	-0.14167616
154	0xbdef274b	-0.116774164
155	0x3e50fdf6	0.20409378
156	0x3e7bec87	0.24601947
157	0x3e9e7c96	0.30954427
158	0x3ee04e09	0.43809536
159	0x3e9e79cc	0.309523
160	0xbe2523ca	-0.16126934
161	0xbdda7cae	-0.10668312
162	0xbe1affd0	-0.15136647
163	0xbde62b98	-0.112387836
164	0xbda4d277	-0.080479555
165	0x3dc4b1aa	0.09604199
166	0x3bc0cb1d	0.005883588
167	0x3ca96a36	0.020680528
168	0xbc82e173	-0.015976643
169	0xbc590df3	-0.013247955
170	0xbe1b1422	-0.15144399
171	0xbdf09030	-0.117462516
172	0xbe08753b	-0.1332597
173	0xbe52fd78	-0.20604503
174	0xbdf97cab	-0.12181982
175	0xbe7243e5	-0.23658712
176	0xbdf298be	-0.118455395
177	0xbcc2ba35	-0.023770431
178	0xba2e28bf	-0.0006643645
179	0x3d9fa17b	0.07794472
180	0xbdfccdb3	-0.123439215
181	0xbd05392f	-0.032525238
182	0x3d6a6f73	0.057235193
183	0xbd62ef2e	-0.05540388
184	0xbde56f9d	-0.11202929
185	0xbd33d55e	-0.043904655
186	0xbd1bcb8f	-0.038035925
187	0x3bf8c82d	0.007592222
188	0xbd764ea3	-0.060133588
189	0xbdb0300d	-0.08602915
190	0xbd5c410b	-0.053772967
191	0x3a50e2ae	0.0007968348
192	0xbd5b342a	-0.053516544
193	0xbc797bc2	-0.01522726
194	0xbd935ed1	-0.07195819
195	0xbd7b1a5b	-0.06130443
196	0x3d2253cc	0.039630696
197	0x3e0f5566	0.1399742
198	0x3e096739	0.13418283
199	0x3e3ee1fd	0.18640895
200	0xbd791a64	-0.060816184
201	0xbe387f3b	-0.18017285
202	0xbe4c4bb2	-0.1995075
203	0xbe2e4a1b	-0.17020456
204	0xbdf4c442	-0.11951496
205	0x3df11ca4	0.11773041
206	0x3e91439b	0.2837189
207	0x3de1fcd1	0.11034549
208	0x3d74085f	0.059578296
209	0x3e364c48	0.17802536
210	0x3dd06e24	0.10177258
211	0xbd51d7db	-0.051231246
212	0xbd204963	-0.039132487
213	0xbd6313af	-0.055438694
214	0xbe731e4a	-0.23742023
215	0xbd99bdcf	-0.07506906
216	0xbe8ce9da	-0.27522165
217	0xbe5dc29c	-0.21656269
218	0xbdf1b602	-0.11802293
219	0x3d35d95d	0.044396747
220	0x3cd09cf7	0.025465472
221	0x3c9aa56d	0.01887771
222	0xbc64f804	-0.013975147
223	0x3e6efd1b	0.2333874
224	0x3cc9609c	0.0245822
225	0xbcf75e5c	-0.030196361
226	0x3d876a52	0.06612076
227	0x3cf4c5c2	0.029879455
228	0x3c99a1e3	0.018753951
229	0xbd84c2e2	-0.064824834
230	0x3dffbab0	0.1248678
231	0x3d7cc02f	0.061706718
232	0x3d86a082	0.06573583
233	0x3dfe1181	0.12405682
234	0xbcde051e	-0.02710205
235	0xbd342cbc	-0.043987975
236	0xbd5ecd79	-0.054395173
237	0x3d64caad	0.05585735
238	0x3e0e9a54	0.13926059
239	0x3e027a55	0.12741978
240	0x3e1adbf9	0.15122975
241	0x3e027198	0.12738645
242	0x3dc4bdd1	0.09606517
243	0x3dcf478d	0.10121069
244	0x3dac699c	0.08418581
245	0xbe53fdf3	-0.20702343
246	0xbe7b9225	-0.24567468
247	0xbe86898f	-0.26276824
248	0xbd2457e3	-0.040122878
249	0xbd070635	-0.032964904
250	0xbcf5b4c3	-0.02999342
251	0xbce9bd09	-0.028532522
252	0x3dc2d097	0.095124416
253	0x3df211f4	0.118198305
254	0x3e37503d	0.17901702
255	0x3e7b478d	0.24539013

sfeb.4.weight f4 [32]
0	0x3f3cf5d8	0.7381263
1	0x3f0ebcc7	0.557568
2	0x3f5fc553	0.8741047
3	0x3fa8ba69	1.3181888
4	0x3ec0d9bb	0.37666115
5	0x3eba0a2f	0.36335894
6	0x3f1996df	0.59995836
7	0x3a3955b5	0.0007069961
8	0x3ef35eee	0.47533363
9	0x3f0a4a41	0.5401955
10	0x3c89708d	0.016777301
11	0x3f3fcf96	0.74926126
12	0x3f2e7c22	0.6815816
13	0x3f50161a	0.81283724
14	0x3f83150f	1.0240802
15	0xba6e681b	-0.00090944924
16	0x3f36e831	0.71448046
17	0x3ee3720a	0.44422942
18	0x3f1de48f	0.6167688
19	0x399f1a03	0.00030346224
20	0x3f17ca23	0.5929281
21	0x3f1f09e6	0.6212448
22	0x3f401842	0.75037014
23	0x3f05157d	0.51985914
24	0x3a430d99	0.0007440686
25	0x3a7207dc	0.00092327385
26	0x3ed5eb49	0.4178107
27	0x3f1f9d26	0.62349164
28	0x3ecb7dba	0.3974436
29	0x3f1943b5	0.5986894
30	0x3ef981b0	0.48731756
31	0x3ee621f0	0.44947767

sfeb.4.bias f4 [32]
0	0x3e100ffb	0.14068596
1	0xbe8f3f4a	-0.27977973
2	0xbe068711	-0.13137461
3	0xbd1f8cbc	-0.038952574
4	0xbd820887	-0.06349283
5	0xbb16664e	-0.0022949162
6	0x3e33f6c1	0.17574598
7	0xbda3d2da	-0.07999201
8	0x3d8f6444	0.07001546
9	0xbd437561	-0.047719363
10	0xbce7c7c2	-0.028293494
11	0x3d6b70dc	0.057480678
12	0x3d956074	0.072937876
13	0x3db67ccc	0.08910522
14	0x3d897505	0.06711773
15	0xbd418bc3	-0.047252428
16	0xbde1baa3	-0.11021926
17	0x3dbaa6d8	0.09113854
18	0xbbde5fbb	-0.0067863143
19	0xbcd7024c	-0.026246212
20	0xbd27c490	-0.04095894
21	0xbd642a18	-0.055704206
22	0xbd87f1f6	-0.06637947
23	0x3d9a0cff	0.0752201
24	0xbcb26cbb	-0.021780362
25	0xbcc4a924	-0.024006434
26	0x3d0787a3	0.033088338
27	0xbd3ffb0c	-0.046870276
28	0xbdcc4d5f	-0.09975695
29	0xbdc33495	-0.095315136
30	0xbe02e709	-0.12783445
31	0x3d59261c	0.05301486

sfeb.4.running_mean f4 [32]
0	0xbd7f1006	-0.06227114
1	0xbea1911d	-0.31556025
2	0xbf1cfe67	-0.6132569
3	0xbf053f25	-0.52049476
4	0xbee7f856	-0.45306653
5	0xbd9cd1a4	-0.07657173
6	0xbe6cd962	-0.231298
7	0x3c7c90b3	0.015415358
8	0xbec80559	-0.3906658
9	0xbe7a4299	-0.24439467
10	0xbd6bae33	-0.057539176
11	0xbe97d432	-0.2965408
12	0x3d4356ac	0.04769008
13	0xbc9323d6	-0.017961424
14	0xbea05082	-0.31311423
15	0xbbb504f0	-0.0055242702
16	0xbeb2b6f4	-0.34905207
17	0xbf0079ac	-0.50185657
18	0xbecd661e	-0.40116972
19	0xbc383c02	-0.011244776
20	0xbf015683	-0.5052263
21	0xbf2424e5	-0.64118797
22	0xbeb30259	-0.3496273
23	0xbef7d67a	-0.4840582
24	0xbcb60705	-0.022220144
25	0xbcbca67b	-0.023028603
26	0xbecdb442	-0.40176588
27	0xbe8a84d1	-0.27054456
28	0xbef9a3ac	-0.48757684
29	0xbee14ded	-0.44004765
30	0xbe4a2633	-0.19741134
31	0xbd9a0162	-0.07519795

sfeb.4.running_var f4 [32]
0	0x3f036249	0.51321846
1	0x3f111f1c	0.56688094
2	0x3f8208c1	1.0158921
3	0x3feee74e	1.8664339
4	0x3f10831c	0.5645006
5	0x3f0c4a48	0.54800844
6	0x3f4f2c04	0.8092654
7	0x3c2ab196	0.010418316
8	0x3efa56a0	0.48894215
9	0x3ec1ff21	0.3788996
10	0x3bc06173	0.005870992
11	0x3f2ad9d9	0.6673866
12	0x3f3edd7b	0.745567
13	0x3f9d2358	1.2276411
14	0x3fc345dd	1.5255696
15	0x3b5cde42	0.0033701812
16	0x3f5619a4	0.83632874
17	0x3f7071d4	0.9392369
18	0x3f8424f5	1.0323778
19	0x3b1e8992	0.0024190885
20	0x3f740ee1	0.95335203
21	0x3f9f6a69	1.2454349
22	0x3f7c5087	0.98560375
23	0x3f4f2f71	0.80931765
24	0x3ae217e4	0.0017249552
25	0x3ab83d8d	0.001405643
26	0x3f383054	0.7194874
27	0x3f49c40b	0.7881476
28	0x3f3af945	0.73036605
29	0x3f3acd56	0.7296957
30	0x3edff476	0.43741196
31	0x3e7fa8f8	0.249668

tfeb.0.weight f4 [13, 1, 3, 3]
0	0x3d265dae	0.040616684
1	0x3a481857	0.00076330215
2	0xbbda5113	-0.006662497
3	0x3ba9ac8b	0.0051780394
4	0x3a1bd03c	0.000594381
5	0x3af98425	0.0019036575
6	0x3b1c01a4	0.0023804689
7	0x3bf2ecb9	0.0074134734
8	0x3bf5600f	0.0074882577
9	0x3c318604	0.0108351745
10	0xbc4a4894	-0.012346406
11	0x3c8f7475	0.017511586
12	0x3c9ab85b	0.018886736
13	0xbc6796d0	-0.014135078
14	0x3c85b591	0.01632193
15	0x3c9f4f6e	0.019447055
16	0xbc132d4d	-0.0089829685
17	0x3ca47f17	0.020080132
18	0x3e813f3e	0.25243562
19	0x3e387ffa	0.18017569
20	0xbeeff15f	-0.4686384
21	0x3ed22e29	0.41050842
22	0x3ee84035	0.45361486
23	0xbf2af901	-0.667862
24	0x3e71a88f	0.23599456
25	0x3e4333c8	0.19062722
26	0xbf05d35c	-0.52275634
27	0xbe843c07	-0.25827047
28	0xbca3c0d3	-0.019989407
29	0x3e495f23	0.19665198
30	0xbf284c8a	-0.6574179
31	0x3ef53f65	0.4789993
32	0x3f1fa86f	0.62366384
33	0xbeaec651	-0.34135678
34	0x3e441f81	0.19152643
35	0x3e8cba26	0.2748577
36	0x3b28c506	0.00257522
37	0x3f044679	0.5167003
38	0xbf0f3ff0	-0.55956936
39	0x3dd7fd11	0.105463155
40	0x3d8e6ec1	0.069547184
41	0xbeacd9f3	-0.33760032
42	0xbe202a2a	-0.15641084
43	0xbc506d7d	-0.012721417
44	0xbeaa2ec6	-0.3323881
45	0x3d748dc0	0.059705496
46	0xbe566183	-0.20935635
47	0xbe1d10df	-0.15338467
48	0x3d88d7c1	0.06681777
49	0xbe6bc363	-0.23023753
50	0xbeaabb67	-0.33346102
51	0x3e93f5d3	0.28898486
52	0xbe48ab07	-0.19596492
53	0xbe428871	-0.18997361
54	0x3f76af00	0.9636078
55	0xbf19971c	-0.599962
56	0xbf1f2b07	-0.6217503
57	0x3f88951c	1.0670505
58	0xbf1267dc	-0.57189727
59	0xbf31d0e8	-0.6945939
60	0x3f0e7e97	0.5566191
61	0xbeac7076	-0.3367955
62	0xbf0d173e	-0.5511359
63	0xbe08650b	-0.13319795
64	0xbe42a1c9	-0.19007029
65	0xbe1328fa	-0.143711
66	0xbdb36da9	-0.087611504
67	0xbe279ffc	-0.16369623
68	0xbe037044	-0.12835795
69	0x3e0f1f4d	0.13976784
70	0x3e7283a2	0.23683026
71	0x3e2b7bd1	0.16746451
72	0xbe8723e3	-0.26394567
73	0xbebd2843	-0.3694478
74	0xbe12615d	-0.14294954
75	0xbe28f4c2	-0.16499618
76	0xbe6a9bdc	-0.22911018
77	0x3cb2df83	0.021835094
78	0xbd69b9e5	-0.05706205
79	0xbe3157da	-0.17318669
80	0xbe0da199	-0.13831176
81	0xbd2eb7da	-0.042655803
82	0xbddc8af7	-0.10768693
83	0x3db9df2b	0.09075769
84	0xbdfcd7ce	-0.12345849
85	0xbe1a21c8	-0.15051949
86	0x3c479780	0.0121821165
87	0xbc29f381	-0.010372997
88	0xbef52384	-0.4787866
89	0x3ef9837e	0.48733133
90	0x3ebb6299	0.36598662
91	0x3de7c548	0.11316925
92	0x3db22a3f	0.08699464
93	0x3ebefc88	0.3730204
94	0x3cdc26bc	0.026873939
95	0x3d5c255d	0.05374657
96	0xba828c29	-0.0009959984
97	0xbd857ce1	-0.065179594
98	0xbd2c98fc	-0.042138085
99	0xbdb5dde8	-0.08880216
100	0xbe4e3db4	-0.20140725
101	0xbdb6764c	-0.08909282
102	0xbe4fb935	-0.20285495
103	0xbe9200b3	-0.28516158
104	0xbe1880b3	-0.14892845
105	0x3cbe1c6e	0.023206916
106	0xbe030fea	-0.1279904
107	0xbdae1499	-0.085000224
108	0xbeb44a3f	-0.35212895
109	0xbe77e01a	-0.24206582
110	0x3ec79e23	0.38987836
111	0xbf428cb4	-0.75995946
112	0xbf25d6f5	-0.64781123
113	0x3fa1e2ad	1.2647301
114	0xbecf1d2f	-0.40451953
115	0xbeab46d3	-0.33452472
116	0x3eae0277	0.33986256

tfeb.1.weight f4 [13]
0	0xba83b342	-0.001004793
1	0xbb3169aa	-0.0027071037
2	0x3e9b7b0f	0.30367324
3	0x3e9dea89	0.30843
4	0x3eb8efb7	0.36120388
5	0x3eafdfee	0.34350532
6	0x3f3ae745	0.7300914
7	0x3eb5159d	0.35368052
8	0x3f801980	1.0007782
9	0x3eaf507f	0.342411
10	0x3e95f65d	0.29289523
11	0x3f0c7466	0.5486511
12	0x3f1bc619	0.6084915

tfeb.1.bias f4 [13]
0	0xbc70dd73	-0.014701235
1	0xbc8e8141	-0.017395617
2	0x3e3b5984	0.18295866
3	0x3e8c36a2	0.27385432
4	0x3ecc5496	0.39908284
5	0x3ecce714	0.4002005
6	0x3db16415	0.08661667
7	0x3daefa4d	0.08543835
8	0xbe754ee5	-0.23955877
9	0x3ccc96dd	0.024974281
10	0x3e63b424	0.22236687
11	0x3d8bfadb	0.06834956
12	0x3e5b8c7e	0.21440312

tfeb.1.running_mean f4 [13]
0	0x3cc07e8b	0.02349784
1	0x3cd9c0fc	0.02658128
2	0x3cfead1d	0.031088406
3	0x3e41f896	0.18942484
4	0xbe89340d	-0.26797524
5	0xbeba8dff	-0.3643646
6	0xbe97bd04	-0.29636395
7	0xbe09e79c	-0.13467258
8	0xbf1a636c	-0.60307956
9	0xbe061199	-0.1309265
10	0x3ebc03a7	0.36721537
11	0xbef8b5ff	-0.48576352
12	0xbe96b830	-0.294374

tfeb.1.running_var f4 [13]
0	0x3aa9d6f1	0.0012957734
1	0x3ac9d250	0.0015397761
2	0x3e027ad2	0.12742165
3	0x3e566b0c	0.20939273
4	0x3e5c4bea	0.21513334
5	0x3ea17a96	0.31538838
6	0x3f0619a5	0.5238288
7	0x3e486f04	0.19573599
8	0x3f48c354	0.7842305
9	0x3d877c89	0.0661555
10	0x3eb46f10	0.35240984
11	0x3f036660	0.51328087
12	0x3ed6ad0d	0.41928902

tfeb.4.weight f4 [25, 13, 3, 3]
0	0x3b3afaf0	0.0028530918
1	0xbb4cdd4c	-0.0031259833
2	0x3aab76f1	0.0013081712
3	0xba84f488	-0.0010143677
4	0xbbc1222b	-0.0058939657
5	0xbb6a3369	-0.003573621
6	0x3b359e44	0.0027712742
7	0xbae18c04	-0.0017207866
8	0xba005973	-0.00048961415
9	0x3b09e3f0	0.0021040402
10	0xbbd35f59	-0.0064505753
11	0x3b97132e	0.0046104407
12	0x3b2ddd41	0.0026529583
13	0xbbfc969d	-0.007708384
14	0x3b6dae58	0.0036267247
15	0x3b66d308	0.0035221
16	0xbb6be3f8	-0.0035994034
17	0x3bb8a35e	0.0056347093
18	0x3d940e0f	0.07229244
19	0xbc1ddd5c	-0.009635296
20	0x3db6c26d	0.089238025
21	0xbded369c	-0.115826815
22	0xbe4e5450	-0.2014935
23	0xbe0b8a40	-0.13626957
24	0x3d2db4dc	0.04240881
25	0xbe0d41eb	-0.13794677
26	0xbca46282	-0.020066503
27	0xbcfdbb8e	-0.030973222
28	0xbd60f488	-0.054920703
29	0xbc5b0d88	-0.013369925
30	0xbda1f32c	-0.079077095
31	0xbd566028	-0.052337795
32	0xb9b3b8d1	-0.0003427924
33	0xbe0def4c	-0.13860816
34	0xbd278b80	-0.040904522
35	0xbb9ccc52	-0.004785099
36	0x3d83ac22	0.06429316
37	0x3d09e8f2	0.03366942
38	0x3dc9eab6	0.09859221
39	0xbd0a4f8e	-0.033767276
40	0xbd9096ed	-0.07060037
41	0xbd8c6a00	-0.068561554
42	0x3c4d0724	0.0125139095
43	0x3b949e5d	0.00453548
44	0x3d0b451c	0.034001455
45	0xbdb201cf	-0.08691751
46	0xbc9c17eb	-0.019054374
47	0xbd7197fc	-0.058982834
48	0x3bd5d980	0.006526172
49	0x3c69b0d3	0.01426335
50	0xbd656f01	-0.056014065
51	0x3d358c28	0.044323117
52	0x3bd67936	0.006545211
53	0x3c3885ab	0.011262338
54	0x3d6501eb	0.055910032
55	0x3dc3326b	0.09531101
56	0xbd8b91be	-0.068149075
57	0xbe42f84d	-0.19040032
58	0xbd62b116	-0.055344664
59	0xbeb8c941	-0.36091045
60	0x3ca0158b	0.019541522
61	0xbe0f084a	-0.13968006
62	0xbe1539df	-0.14572857
63	0xbd9f4f2d	-0.077787735
64	0xbd2b41ec	-0.041810915
65	0x3c45efbc	0.012081083
66	0x3d8d2a2f	0.068928115
67	0x3da88631	0.0822872
68	0x3dba8b3e	0.091085896
69	0xbca233ec	-0.019800149
70	0xbcbb6803	-0.022876745
71	0xbce83461	-0.028345289
72	0x3ade417c	0.0016956772
73	0x3c882da8	0.016623333
74	0x3d73a5ce	0.059484296
75	0x3cf6f0b6	0.030144077
76	0xbb7c98c3	-0.0038543202
77	0xbbfd3baa	-0.00772806
78	0x3dd65c2f	0.104668014
79	0x3d51610d	0.051117945
80	0x3bb9e58c	0.005673116
81	0x3c25f2b5	0.010128667
82	0xbdfcaded	-0.12337861
83	0x3d560d87	0.052258994
84	0x3c2f557e	0.010701535
85	0xbdea8f78	-0.11453146
86	0x3d3e42ee	0.046450548
87	0xbca46686	-0.020068418
88	0xbd88d3bb	-0.066810094
89	0x3ceef170	0.02916786
90	0x3d5cd8a5	0.053917546
91	0x3dd0a3fa	0.10187526
92	0x3d9fee52	0.07809128
93	0xbe20cc7d	-0.15703006
94	0xbd99325f	-0.07480311
95	0xbd9304ee	-0.07178675
96	0xbd860551	-0.06543983
97	0xbd0f0c71	-0.034923974
98	0xbcc2b85e	-0.023769554
99	0xbd7c7580	-0.061635494
100	0xbcafd6db	-0.021464756
101	0xbc7ce917	-0.015436432
102	0x3d72d024	0.05928053
103	0x3d32e3f7	0.043674435
104	0x3bf4c9d4	0.007470349
105	0x3d29c80c	0.041450545
106	0x3d04921d	0.032365907
107	0xbc0cfa80	-0.008604646
108	0x3d25a5e0	0.040441394
109	0xbe5a4197	-0.21314083
110	0xbbfbd149	-0.007684861
111	0x3d604012	0.054748602
112	0xbe649368	-0.22321856
113	0xbb9eeb56	-0.0048498316
114	0xbd03576c	-0.032065794
115	0xbd80d4d4	-0.06290594
116	0xbba9caf4	-0.0051816646
117	0x3ae49b77	0.0017441352
118	0xbad1e806	-0.0016014583
119	0xb96ddf20	-0.00022685202
120	0xba59bc94	-0.00083059934
121	0xba695e61	-0.0008902308
122	0xba45a50c	-0.00075395475
123	0x3b25dc37	0.002530826
124	0x3ab0cb31	0.001348829
125	0xba2ab88c	-0.0006512485
126	0xbb4a5dff	-0.003087878
127	0xbb4d833e	-0.0031358744
128	0xbab02773	-0.0013439491
129	0x3b524419	0.0032084046
130	0x3abb3b45	0.0014284631
131	0x3b2cb885	0.00263551
132	0x3b4de6e0	0.003141813
133	0x3b1a1ad3	0.0023514524
134	0x3b88d209	0.0041754288
135	0xbcd413cf	-0.025888352
136	0xbd35b132	-0.04435844
137	0xbdbb2061	-0.09137035
138	0xbb40b6cd	-0.0029405833
139	0x3d55a9c6	0.05216386
140	0xbd2ed16d	-0.042680193
141	0x3dbd9f72	0.092589274
142	0x3d720da4	0.05909504
143	0x3c14fa6e	0.00909291
144	0x3d99a085	0.0750132
145	0x3ccca2a8	0.024979904
146	0xbd07f178	-0.033189267
147	0x3d11ee42	0.03562761
148	0xbdb6cb69	-0.08925516
149	0xbe28fcd0	-0.1650269
150	0x3d4da750	0.05020839
151	0xbc702762	-0.014657827
152	0xbd920d43	-0.07131436
153	0x3ad841bd	0.0016499084
154	0xbdc90131	-0.0981468
155	0xbd9d9856	-0.076950714
156	0xbdee7e5d	-0.11645196
157	0xbe20d96e	-0.15707943
158	0xbdb6c954	-0.08925119
159	0xbd744200	-0.059633255
160	0xbd76238e	-0.0600925
161	0xbbdee5e1	-0.006802306
162	0x3d344eca	0.04402045
163	0x3c825a10	0.015912086
164	0xbc5eabd9	-0.013590776
165	0xbdaddad2	-0.08489002
166	0xbd941012	-0.07229628
167	0xbd388def	-0.045057233
168	0xbdc51a24	-0.096241266
169	0xbdaf1f61	-0.08550907
170	0xbc82041c	-0.0158711
171	0xbd6c46ce	-0.057684712
172	0xbde9ae7e	-0.11410235
173	0xbe58f91c	-0.21188778
174	0xbe5e64e8	-0.2171818
175	0xbd42761d	-0.047475923
176	0xbe48a082	-0.19592479
177	0xbd86494c	-0.06556949
178	0xbb71c986	-0.00368938
179	0xbdac98a3	-0.08427551
180	0x3dc80b35	0.097677626
181	0x3dbea220	0.09308267
182	0x3d73e0b9	0.059540484
183	0xbdc5b364	-0.09653357
184	0xbde008b2	-0.109391585
185	0xbdc3002b	-0.095215164
186	0x3a0a9a11	0.000528724
187	0x3c8bb3b4	0.017053463
188	0x3d72b1c8	0.059251577
189	0x3d069534	0.032857135
190	0xbb4701d7	-0.0030366087
191	0xbc82c481	-0.015962841
192	0xbc183142	-0.009289088
193	0xbd0dd4b1	-0.034626666
194	0x3bafc04d	0.0053635
195	0xbc9f4684	-0.019442804
196	0xbd081a1c	-0.033228025
197	0x3cbffe79	0.023436772
198	0x3cdff270	0.027337283
199	0xbd2fde81	-0.042936806
200	0xbcc676d4	-0.024226584
201	0xbd4250db	-0.04744039
202	0xbe216302	-0.15760425
203	0xbdb957dc	-0.09049961
204	0xbd1a5261	-0.03767622
205	0xbd3c7be5	-0.046016593
206	0xbcaa2a04	-0.020771988
207	0xbd866b9e	-0.06563495
208	0xbcccb03b	-0.024986377
209	0xbda67523	-0.08127811
210	0x3c7058f6	0.014669647
211	0x3dd13dc8	0.10216862
212	0xbc94fb96	-0.018186372
213	0x3dd0f76c	0.10203442
214	0x3e08ade2	0.13347581
215	0x3cec02c3	0.02880991
216	0x3db7920a	0.089634016
217	0x3d91564e	0.070965394
218	0x3d54ac30	0.051922023
219	0xbcf2dd1b	-0.029646447
220	0xbd484b8e	-0.04890018
221	0xbca4484e	-0.020054009
222	0xbdb74f33	-0.08950653
223	0xbd9ef78f	-0.07762062
224	0xbc68e782	-0.014215352
225	0x3d1dee10	0.038557112
226	0xbdaf6126	-0.085634515
227	0xbdf837bb	-0.12120005
228	0xbcef571b	-0.02921634
229	0xbe82c08c	-0.25537527
230	0xbe73bb93	-0.23802023
231	0xbdc16277	-0.09442609
232	0xbe003dff	-0.1252365
233	0xbde5edcf	-0.11226999
234	0xba1c57f8	-0.0005964036
235	0x3ab1ba9e	0.0013559645
236	0x3ac8a5cd	0.0015308202
237	0xbb36b776	-0.0027880347
238	0xbc3716ce	-0.011174871
239	0xbb847854	-0.0040426645
240	0xbbd259b2	-0.006419384
241	0xba991ea7	-0.0011682109
242	0xbb64eb51	-0.0034930299
243	0xbb4a810a	-0.0030899667
244	0x3abf17c0	0.0014579222
245	0xb906fbda	-0.00012873058
246	0xbc0217fe	-0.0079402905
247	0xbb65db09	-0.0035073182
248	0xbbb8cf7b	-0.005639968
249	0xbb6f5756	-0.0036520562
250	0xbaf0f3b7	-0.001838318
251	0x3afa5bf6	0.0019100893
252	0xbd39810c	-0.045289084
253	0xbd9fc99e	-0.07802127
254	0x3dbdee7f	0.09274005
255	0xbda34489	-0.079720564

tfeb.5.weight f4 [25]
0	0x3efac6d0	0.48979807
1	0x3e65a4cc	0.22426146
2	0x3eab3b52	0.33443695
3	0x3e9a9a86	0.30196017
4	0x3f04f205	0.5193179
5	0x3ecc67f9	0.39923075
6	0x3e945add	0.28975573
7	0x3e9b0f1a	0.3028496
8	0x3f2ece4e	0.68283546
9	0x3eb0cfb9	0.3453348
10	0x3e822281	0.2541695
11	0x3f22521e	0.6340655
12	0x3f12b6de	0.57310283
13	0x3f1bbdbe	0.608364
14	0x3e619800	0.2203064
15	0x3e8c03f8	0.27346778
16	0x3ebd2e7c	0.36949527
17	0x3e3ef007	0.1864625
18	0x3eefdf1a	0.468499
19	0x3e598f40	0.21246052
20	0x3efeffa3	0.4980441
21	0x3e831166	0.2559921
22	0x3e800741	0.25005534
23	0x3dcad3a9	0.09903652
24	0x3e842c39	0.2581499

tfeb.5.bias f4 [25]
0	0x3d92f20c	0.07175073
1	0x3e8928b8	0.26788878
2	0xbc1ec12f	-0.009689613
3	0x3d64020e	0.055666022
4	0xbc4676bd	-0.01211327
5	0x3dfc9a90	0.12334168
6	0x3e5ee9ff	0.2176895
7	0x3d85e4a0	0.065377474
8	0xbd39a35e	-0.045321815
9	0xbd59d1be	-0.05317854
10	0x3e25a592	0.16176441
11	0xbd975963	-0.07390096
12	0xbe70bf24	-0.23510414
13	0xbdd87691	-0.1056949
14	0x3e2c98d5	0.16855176
15	0x3e1f2b0d	0.15543766
16	0x3c3a5871	0.011373625
17	0xbd7fac9d	-0.062420476
18	0xbbf97e75	-0.007613952
19	0x3eaf44d8	0.3423221
20	0xbe294bab	-0.16532771
21	0x3ec32a58	0.38118243
22	0x3eb79ae2	0.35860354
23	0x3db81bc3	0.0898967
24	0xbda936d5	-0.082624115

tfeb.5.running_mean f4 [25]
0	0xbf3eae90	-0.7448511
1	0xbfac06d8	-1.3439589
2	0xbe4355a0	-0.19075632
3	0x3dc6bd26	0.09704046
4	0xbf810cb4	-1.0082002
5	0xbf1bbf12	-0.60838425
6	0xbf1e3f05	-0.6181491
7	0xbf07b51c	-0.53010726
8	0xbf23341d	-0.63751394
9	0xbf1a6201	-0.6030579
10	0xbf312753	-0.6920063
11	0xbf09914d	-0.53737336
12	0x3e1b809e	0.15185782
13	0xbebdaa9d	-0.3704423
14	0xbf0cac1e	-0.5495013
15	0xbe45aa11	-0.19303156
16	0xbf5c652c	-0.86091876
17	0xbe7ce6f7	-0.24697481
18	0xbecf3001	-0.40466312
19	0xbeb9ffa5	-0.36327854
20	0xbdad7bc0	-0.08470869
21	0xbf6fbedf	-0.9365062
22	0xbe4693b8	-0.19392288
23	0xbec51906	-0.38495654
24	0xbc764d09	-0.015033015

tfeb.5.running_var f4 [25]
0	0x3e9036d8	0.28166842
1	0x3e91b941	0.2846165
2	0x3e7ea064	0.24865872
3	0x3d8053c0	0.06265974
4	0x3eb2471b	0.34819874
5	0x3e564075	0.20923026
6	0x3e20f7e6	0.15719566
7	0x3dcec8bc	0.10096881
8	0x3ecbb1b7	0.39784023
9	0x3ddbad32	0.10726394
10	0x3e7378a3	0.23776488
11	0x3ec5969b	0.38591465
12	0x3e7582d9	0.23975696
13	0x3e3de732	0.18545225
14	0x3e0bef10	0.13665414
15	0x3e5e7cd3	0.21727304
16	0x3e0ab3a1	0.13545085
17	0x3d445560	0.047932982
18	0x3e309f36	0.17248234
19	0x3dfb372f	0.12266385
20	0x3e4a5afc	0.1976127
21	0x3ede97bf	0.43475148
22	0x3e5fff06	0.21874627
23	0x3cd4094b	0.025883337
24	0x3d42d94d	0.047570515

tfeb.7.weight f4 [28, 25, 3, 3]
0	0x3cad62ec	0.021165334
1	0x3c814193	0.015778339
2	0x3d15858f	0.036504325
3	0x3d148a1b	0.03626452
4	0x3d1537f1	0.036430303
5	0x3cd59383	0.026071316
6	0x3cb1344a	0.021631379
7	0x3d66ef4c	0.056380555
8	0x3d6bda0f	0.057581004
9	0x3cfc4af2	0.030797455
10	0x3c84ccf4	0.01621101
11	0x3c2417e1	0.010015459
12	0x3dab14bf	0.083535664
13	0x3dde5e5a	0.1085784
14	0x3da0a58a	0.07844074
15	0x3d7b07c5	0.061286706
16	0x3cd156b9	0.025554048
17	0xbbf6d3cc	-0.0075325724
18	0xbceaae76	-0.028647643
19	0xbc1e2d1b	-0.009654309
20	0xbc872a87	-0.01649977
21	0xbe0409b1	-0.12894322
22	0xbdb69159	-0.089144416
23	0xbd6a2e58	-0.057173103
24	0xbd05ef8f	-0.032699164
25	0x3c769680	0.01505053
26	0x3d35b690	0.04436356
27	0xbd1defa3	-0.038558614
28	0xbd175665	-0.036947627
29	0xbd3ebce0	-0.046566844
30	0xbd52c47b	-0.05145691
31	0xbd34ce64	-0.044142142
32	0xbb3576cf	-0.0027689224
33	0xbd35d200	-0.044389725
34	0xbd531009	-0.051528964
35	0x3d353a2e	0.044244938
36	0x3c8e333c	0.017358415
37	0x3d474a0e	0.04865461
38	0x3d96658a	0.07343586
39	0x3cce3dae	0.025175896
40	0x3d55a7ac	0.052161857
41	0x3d901a86	0.07036309
42	0xbbcb34a0	-0.0062013417
43	0x3cd94346	0.026521336
44	0x3d6fa783	0.05850936
45	0xbd37fd96	-0.044919573
46	0xbd03f01a	-0.0322114
47	0x3b02049a	0.0019839169
48	0x3b1e2d75	0.0024135981
49	0x3d1888e1	0.037239913
50	0x3cae54a8	0.021280602
51	0xbd41ca99	-0.047312353
52	0x3c4b1562	0.012395235
53	0x3d2ca16a	0.042146124
54	0xbdf0ae8a	-0.11752041
55	0xbd292b79	-0.041301224
56	0xbd9ff2cd	-0.078099824
57	0x3c664b3f	0.014056026
58	0x3c0e93fe	0.008702276
59	0xbd4e6d4b	-0.0503972
60	0x3cd7b06c	0.026329242
61	0x3d89ac55	0.06722323
62	0x3bc99678	0.0061519705
63	0x3c16f813	0.009214419
64	0x3c0ccc17	0.008593581
65	0xb924f39c	-0.0001573101
66	0x3ce40aa5	0.027837107
67	0x3d5e9de6	0.054349802
68	0x3c2d1afc	0.010565516
69	0x3ca14c28	0.019689634
70	0x3d02d24a	0.03193883
71	0x3cab8f34	0.020942308
72	0xbce78e2c	-0.028266035
73	0x3bc868f2	0.006116026
74	0xbcdaf05c	-0.02672594
75	0x3d68ade6	0.056806467
76	0x3dff01be	0.12451504
77	0x3dece9e6	0.1156805
78	0xb96365c0	-0.00021686312
79	0x3cc62e38	0.02419196
80	0x3d6cabca	0.05778102
81	0x3c43d387	0.0119522875
82	0x3c3d8f2d	0.01156978
83	0x3c883a42	0.016629342
84	0xba055665	-0.0005086421
85	0x3c7ee22d	0.015556854
86	0xbb074386	-0.0020639612
87	0x3cde141c	0.027109198
88	0x3d05a7e5	0.03263082
89	0x3cb88ee0	0.022529066
90	0xbcab8f7d	-0.020942444
91	0xbbf6ee31	-0.007535719
92	0xbd1ca794	-0.038245752
93	0x3d39f8e5	0.04540338
94	0x3d9e51ab	0.07730421
95	0x3d8050e7	0.06265431
96	0x3d59c3bf	0.053165194
97	0x3c90cd25	0.017675946
98	0xbd86ccdb	-0.06582042
99	0x3cb0894d	0.021549845
100	0x3d327ae8	0.043574244
101	0x3d746d04	0.059674278
102	0x3c9cd5da	0.019144941
103	0x3d622150	0.05520755
104	0x3d6efead	0.058348347
105	0xbcdf3589	-0.027247207
106	0xbc33f7a3	-0.010984334
107	0xbd4d6306	-0.050143264
108	0xbd5420b2	-0.051788993
109	0xbcc24536	-0.023714643
110	0xbce9f320	-0.028558314
111	0xbd0fdaeb	-0.035120886
112	0xbcdb3b21	-0.026761593
113	0xbc198f90	-0.009372607
114	0x3bc58674	0.006027991
115	0xbcd8bed0	-0.026458174
116	0x3d71fd39	0.059079383
117	0xbcfd2625	-0.030901978
118	0xbc8bb36b	-0.017053327
119	0xbcb0acda	-0.021566797
120	0x3ce3904b	0.027778765
121	0x3c5861f0	0.013206944
122	0xbce86b6e	-0.028371539
123	0x3b7ea1cf	0.003885377
124	0xbc36a38a	-0.011147389
125	0xbd4dea1d	-0.050272096
126	0xba561448	-0.0008166474
127	0xb9159e34	-0.00014268683
128	0x3ba21105	0.0049458765
129	0xbc837f6f	-0.016051976
130	0xbab5e387	-0.0013877013
131	0xbcd80af7	-0.026372416
132	0x3d6e9fc5	0.058257837
133	0x3db6d3cb	0.08927115
134	0x3d97cafd	0.07411764
135	0x3da8c08d	0.08239851
136	0x3d90342e	0.070412025
137	0x3d6df7f4	0.058097795
138	0xbc741d90	-0.014899626
139	0x3a70caa4	0.0009185469
140	0x3d908c3a	0.07057996
141	0xbdad3767	-0.08457833
142	0xbdc2a9e1	-0.09505058
143	0xbce31a9f	-0.027722655
144	0xbd0818ca	-0.033226766
145	0xbc710edf	-0.014713018
146	0xbb7bfd55	-0.0038450558
147	0xba499029	-0.0007689023
148	0xbbe6a085	-0.0070381784
149	0xbc9a7737	-0.018855674
150	0xbbda4154	-0.0066606198
151	0x3cd0ed67	0.025503827
152	0x3d17fe63	0.037107836
153	0xbc4cba28	-0.012495555
154	0x3bfd0429	0.007721443
155	0x3cf9cf68	0.030494407
156	0xbc769280	-0.015049577
157	0xbc9e8942	-0.019352559
158	0x3c7b6e25	0.015346085
159	0xbc455396	-0.012043854
160	0xbc922591	-0.017840179
161	0xbc8672f5	-0.016412238
162	0xbc7db47c	-0.015484925
163	0xbc80d1ec	-0.015725099
164	0xbcc44bee	-0.023961987
165	0xbcaa4d9f	-0.020788966
166	0x3d1cdf8e	0.038299136
167	0x3d4ef571	0.05052704
168	0x3d225ee2	0.03964127
169	0x3d4c92a5	0.04994454
170	0x3d4b57a5	0.04964413
171	0x3d2299e8	0.039697558
172	0x3c9154aa	0.017740566
173	0x3d1daeae	0.038496666
174	0xbc988f12	-0.018622909
175	0xbceb9db5	-0.028761724
176	0x3d013982	0.031548984
177	0xbbadef26	-0.0053080497
178	0xbc84d62b	-0.016215404
179	0x3c5db22a	0.013531247
180	0xbd625e47	-0.05526569
181	0xbcd72e78	-0.026267275
182	0x3c6ec9e7	0.014574504
183	0xbd348ddc	-0.0440806
184	0xbd678fc2	-0.056533583
185	0xbd86821a	-0.06567784
186	0xbc89efc6	-0.016837966
187	0xbc77bd81	-0.015120865
188	0xbcf46c73	-0.029836869
189	0xbd5f3d39	-0.054501746
190	0xbc96caba	-0.018407214
191	0x3b85ef70	0.004087381
192	0x3d9d4b5f	0.076803915
193	0x3dcf9cff	0.101373665
194	0x3ddbba58	0.107289016
195	0xbcd5f22f	-0.026116459
196	0x3c33f05e	0.010982601
197	0x3daea668	0.08527833
198	0x3d5a50cf	0.05329972
199	0x3d4041ae	0.046937637
200	0x3d0091f4	0.03138919
201	0xbd348049	-0.044067655
202	0xbd773d48	-0.060361177
203	0xbda911a8	-0.08255321
204	0x3d830352	0.06397118
205	0x3dc2b205	0.09506611
206	0x3dc2313a	0.094820455
207	0x3c7387d1	0.014863924
208	0x3bad1d20	0.005283013
209	0x3c46aa67	0.012125588
210	0x3cd02dce	0.025412466
211	0x3cc0df27	0.023543907
212	0x3d3f8fed	0.046768118
213	0x3c579df1	0.013160215
214	0xbbb5ef7f	-0.005552232
215	0x3ca3f1a5	0.020012686
216	0xb810f666	-3.456175e-05
217	0xbba21774	-0.0049466435
218	0x3c60f820	0.013731033
219	0xbc2aabd2	-0.010416942
220	0x3b880b42	0.0041517327
221	0x3d215600	0.039388657
222	0xbd15ac1e	-0.036541097
223	0xbd2a6548	-0.041600496
224	0xbc885f69	-0.016647058
225	0x3dd4d96e	0.10393034
226	0xbd61def0	-0.05514425
227	0xbd6475ee	-0.05577653
228	0x3d79e7c5	0.06101205
229	0xbe205c48	-0.15660203
230	0xbe0732f1	-0.13203026
231	0x3e1caa1e	0.1529927
232	0xbdb5b047	-0.08871513
233	0xbda2398f	-0.07921135
234	0x3d29688a	0.04135946
235	0x3b910057	0.0044250893
236	0x3d469ff4	0.048492387
237	0x3db2183c	0.086960286
238	0x3d811d53	0.06304421
239	0x3c6c62ec	0.014427882
240	0x3cb833ec	0.022485696
241	0xbc4ea15d	-0.012611714
242	0xbcd2c42f	-0.025728313
243	0xbcd64594	-0.026156224
244	0x3dae013e	0.08496331
245	0x3d26cc35	0.04072209
246	0xbd51091c	-0.051034078
247	0xbdb335bc	-0.087504834
248	0xbd9adffd	-0.075622536
249	0xbc96f27c	-0.018426172
250	0xbda62cce	-0.081140146
251	0xbe1d0b02	-0.1533623
252	0xbc042931	-0.008066461
253	0xbccc93cd	-0.02497282
254	0xbdb82ed7	-0.08993309
255	0xbd4985dd	-0.049199928

tfeb.8.weight f4 [28]
0	0x3e786f68	0.24261248
1	0x3f0a036e	0.53911483
2	0x3e52db5b	0.2059149
3	0x3ec87745	0.39153495
4	0x3eedaa12	0.46418816
5	0x3ebf69a2	0.3738528
6	0x3e9e2444	0.30887043
7	0x3e96a23a	0.29420644
8	0x3e25cc9e	0.16191337
9	0x3ed9dd4a	0.42551643
10	0x3eba6d7e	0.3641166
11	0x3ee96f59	0.45592764
12	0x3ebbf193	0.36707744
13	0x3e945898	0.28973842
14	0x3e86d068	0.26330876
15	0x3ec56e7a	0.3856085
16	0x3ede21e6	0.43385237
17	0x3f136295	0.575723
18	0x3edb3cea	0.4281991
19	0x3ef12f85	0.47106567
20	0x3f14b58e	0.5808953
21	0x3ede39cc	0.4340347
22	0x3e9ce2a4	0.30641663
23	0x3eb71f91	0.3576627
24	0x3f1189f8	0.5685115
25	0x3ed26227	0.4109051
26	0x3ed74925	0.42047992
27	0x3e8d5cd3	0.27609882

tfeb.8.bias f4 [28]
0	0x3e4116f7	0.18856417
1	0xbdad5305	-0.084631
2	0x3d3b188c	0.045677707
3	0xbd6aa2ff	-0.05728435
4	0xbd8d2e28	-0.06893569
5	0x3dec1469	0.115273304
6	0x3d162649	0.036657605
7	0x3da34b47	0.079733424
8	0x3d65c3a8	0.056094795
9	0xbdcf63eb	-0.1012648
10	0xbde3083e	-0.110855564
11	0xbd9eb39f	-0.07749104
12	0xbda6bcb7	-0.08141463
13	0x3e00942f	0.12556528
14	0x3e66749c	0.2250542
15	0xbcee62b6	-0.029099803
16	0xbdde1c55	-0.10845248
17	0xbde6545d	-0.1124656
18	0xbd73fefb	-0.05956934
19	0xbc142c22	-0.009043725
20	0xbe4958fd	-0.19662853
21	0xbd6ac0a9	-0.05731264
22	0x3dc3a5c7	0.09553104
23	0xbca8abee	-0.020589795
24	0x3c8500d6	0.01623575
25	0xbd072bd6	-0.03300079
26	0x3d3fcde8	0.046827227
27	0x3e01f053	0.12689333

tfeb.8.running_mean f4 [28]
0	0x3eecbdf6	0.4623868
1	0xbed435f6	-0.4144742
2	0xbe1976ac	-0.14986676
3	0xbe5b3aab	-0.21409099
4	0xbeeccb4b	-0.4624885
5	0xbd57d900	-0.05269718
6	0xbed20c04	-0.41024792
7	0xbed3eb58	-0.4139049
8	0xbd13acbc	-0.036053404
9	0x3e36e318	0.17860067
10	0x3e4e0a3b	0.2012109
11	0x3e82fd72	0.25583988
12	0xbdaf85d0	-0.085704446
13	0x3d8d56b9	0.06901307
14	0x3e91a380	0.28445053
15	0xbf566963	-0.8375456
16	0xbe78e566	-0.24306259
17	0x3d785aae	0.060633354
18	0xbe3fedb4	-0.1874302
19	0x3e258e3d	0.16167541
20	0xbeca65e5	-0.39530864
21	0xbec75b0a	-0.38936645
22	0xbf748f36	-0.9553102
23	0xbea6cd03	-0.32578287
24	0xbdfacfd7	-0.122466736
25	0xbcd09eca	-0.025466342
26	0xbefa11eb	-0.48841795
27	0x3f013ef9	0.50486714

tfeb.8.running_var f4 [28]
0	0x3d508634	0.050909236
1	0x3e7fcec9	0.24981226
2	0x3cf75edc	0.0301966
3	0x3d8378d2	0.06419529
4	0x3e00668b	0.12539117
5	0x3d68916a	0.056779303
6	0x3d50bf13	0.050963473
7	0x3dbf96a2	0.09354903
8	0x3ca14187	0.019684566
9	0x3e2f533e	0.17121598
10	0x3d1e9c0a	0.03872303
11	0x3d87a8a4	0.066239625
12	0x3e12f37c	0.14350694
13	0x3dd34a2c	0.103168815
14	0x3dccd49c	0.100014895
15	0x3da8d4ba	0.08243699
16	0x3e03fe8a	0.12890068
17	0x3e8c1572	0.2736011
18	0x3e4e349c	0.20137256
19	0x3ddd4390	0.10803902
20	0x3e186175	0.14880927
21	0x3e29eef1	0.16595055
22	0x3da270ea	0.07931693
23	0x3e12b8bc	0.14328283
24	0x3db6610f	0.08905231
25	0x3d8fe08b	0.0702525
26	0x3d648d5f	0.055798884
27	0x3dc9557b	0.09830757

tfeb.11.weight f4 [32, 28, 3, 3]
0	0xbcc5c2c0	-0.024140716
1	0xbcf59bcd	-0.029981518
2	0xbd064f8e	-0.032790713
3	0x3cba7cb6	0.022764545
4	0x3d055da3	0.032560002
5	0x3cee4ec0	0.029090285
6	0x3d6d2576	0.057897054
7	0x3d5246f3	0.051337194
8	0x3d4219b1	0.047387782
9	0xbce98e45	-0.028510222
10	0xbb5eee8f	-0.0034016704
11	0xbcd8d553	-0.026468908
12	0x3c2c91ed	0.010532838
13	0xb8758671	-5.853776e-05
14	0x3c43580f	0.01192285
15	0xbc96781a	-0.018367816
16	0xbc5390ad	-0.012912911
17	0x3c4b4a31	0.012407825
18	0xbc832a31	-0.01601133
19	0xbd04d852	-0.03243286
20	0xbcdf2043	-0.027237063
21	0xbca20788	-0.019778982
22	0xbc9fe00a	-0.01951601
23	0xbc3d2a58	-0.01154574
24	0x3ca45a80	0.020062685
25	0x3c7f8e5d	0.015597907
26	0x3c807bb7	0.015683992
27	0x3d0ae7c5	0.03391244
28	0x3d0069f4	0.031351045
29	0x3d323923	0.04351152
30	0x3d01a89a	0.03165493
31	0x3cc88a01	0.024479868
32	0x3b386eb3	0.0028142154
33	0x398e63a5	0.00027158592
34	0x3d10f1ea	0.035386957
35	0xbaa0a592	-0.0012256375
36	0x3cde36e6	0.027125787
37	0x3cad1383	0.021127468
38	0x3d5c3ad1	0.05376703
39	0xbb210c06	-0.0024573817
40	0x3c0ab0ca	0.008465001
41	0x3ce5fe85	0.028075466
42	0xbc965bb8	-0.018354282
43	0xbd6ca58a	-0.057775058
44	0xbca24570	-0.019808501
45	0xbccb7156	-0.024834316
46	0xbcc1e881	-0.023670437
47	0xbc50e789	-0.012750515
48	0x3c1085c4	0.008820955
49	0x3c18c17b	0.009323473
50	0xbc274602	-0.010209562
51	0xbd5fb002	-0.054611214
52	0xbd509def	-0.050931867
53	0xbd044ded	-0.03230088
54	0x3878eaa8	5.934635e-05
55	0x3c2854f2	0.010274159
56	0x3c07ef95	0.008296867
57	0xbc6e9900	-0.014562845
58	0xbc4c02ea	-0.012451867
59	0xbc63e6bc	-0.013909992
60	0xbbd648a4	-0.006539421
61	0xbcca1296	-0.024667066
62	0xbc83baac	-0.016080223
63	0xbd2c1921	-0.042016152
64	0xbc8fd8d3	-0.017559445
65	0xbcc75741	-0.024333598
66	0xbd6bd010	-0.05757147
67	0xbd1bf8df	-0.03807914
68	0xbcae57a2	-0.021282021
69	0xbcade58f	-0.021227626
70	0xbc9fb092	-0.019493375
71	0x3c9f6081	0.019455196
72	0xbd093ebe	-0.0335071
73	0xbd041d62	-0.032254584
74	0xbd0dfac9	-0.034662995
75	0xbc89518b	-0.016762516
76	0xbc728ab0	-0.0148035735
77	0xbba17f78	-0.0049285255
78	0x38a0617a	7.647551e-05
79	0xbb859fc1	-0.004077882
80	0x3c3d800b	0.011566172
81	0xbc80b547	-0.01571144
82	0xbbe09a6a	-0.006854345
83	0x3c0fd58e	0.008778943
84	0x3c55ea25	0.013056313
85	0x3d529275	0.051409204
86	0x3c5ea973	0.0135902045
87	0xbc48dd17	-0.012259743
88	0x3c2c595c	0.010519352
89	0xbb6fd541	-0.0036595615
90	0xbad509cf	-0.0016253534
91	0xbb42db0f	-0.002973262
92	0xbbae395f	-0.0053168978
93	0x3bdc20f3	0.006717795
94	0x3b74c9a4	0.0037351632
95	0xbc7186b9	-0.014741593
96	0x3bd8d345	0.006616982
97	0x3c9999eb	0.018750152
98	0x3c4d8460	0.012543768
99	0xbbe458b9	-0.0069685844
100	0x3cf1941c	0.02948957
101	0x3c802010	0.015640289
102	0xbb92ec1f	-0.0044837142
103	0x3c48d4b2	0.012257742
104	0xbca9cf73	-0.020728802
105	0x3ce9bc70	0.028532237
106	0x3cbfc9bd	0.023411626
107	0x3ba4fcf3	0.0050350367
108	0xbd31bc64	-0.043392554
109	0xbd866186	-0.0656157
110	0xbd8b735a	-0.06809111
111	0xbd8d0986	-0.06886582
112	0xbd9358cd	-0.07194672
113	0xbd8b1bd4	-0.06792417
114	0x3d034b2b	0.032054108
115	0x3d49b074	0.049240544
116	0x3d2c1cd3	0.042019676
117	0xbc983eb7	-0.018584592
118	0xbc7c8be0	-0.015414208
119	0xbc6cf460	-0.01446256
120	0x3cc3c46b	0.02389737
121	0x3c4c3201	0.012463094
122	0x3c97641e	0.018480357
123	0x3d00ffad	0.03149383
124	0x3d284b7c	0.041087613
125	0x3d44b69f	0.048025724
126	0xbd85cee5	-0.065336026
127	0xbd9149b7	-0.07094138
128	0xbdaa7d74	-0.083247095
129	0x3cc9f0dd	0.024650985
130	0x3c915f95	0.017745772
131	0x3d16ee3f	0.036848303
132	0x3d5b5d98	0.053556055
133	0x3d192446	0.03738811
134	0x3d524d89	0.051343475
135	0x3c42c1fc	0.01188707
136	0x3d191a13	0.037378382
137	0x3d15a94c	0.036538407
138	0xbc00551c	-0.007832792
139	0x3c71c9eb	0.014757614
140	0x3ca1ff3f	0.019775031
141	0x3c3e368a	0.011609683
142	0xbb88a3fa	-0.004169938
143	0xbb210e77	-0.0024575272
144	0xbd69910d	-0.057023097
145	0x3c6f3735	0.014600565
146	0xbc240814	-0.010011692
147	0xbd33983a	-0.043846346
148	0x3cdb130e	0.026742484
149	0xba714161	-0.00092031626
150	0xbd205d27	-0.039151337
151	0x3c944faf	0.018104402
152	0x3cc0ef07	0.023551477
153	0xbd3fe468	-0.046848685
154	0xbd3477de	-0.044059627
155	0xbd388f37	-0.045058455
156	0xbd69fe0a	-0.057127036
157	0x3d20c7e4	0.03925313
158	0x3d22cb45	0.039744634
159	0xbd767af6	-0.06017586
160	0xbc0dff62	-0.008666845
161	0x3cac7b56	0.021054905
162	0x3c86f7e8	0.016475633
163	0x3c48a0d5	0.012245377
164	0x3c7d3684	0.015454892
165	0x3c3b309f	0.011425166
166	0xbc80a491	-0.015703471
167	0xbd34cd10	-0.044140875
168	0xbb783650	-0.003787417
169	0xbcb261fa	-0.021775234
170	0xbcd59d76	-0.02607606
171	0x3c4260cd	0.011863899
172	0xbc058ba2	-0.008150967
173	0xbb27b94f	-0.002559263
174	0x3cd7b3bc	0.026330821
175	0x3d3438d8	0.043999523
176	0x3d946e3d	0.07247589
177	0xbc69384b	-0.014234613
178	0x3c30e0f3	0.01079582
179	0x3cd2963e	0.025706407
180	0x3c3df0c9	0.011593052
181	0x3a524852	0.0008021641
182	0xba2a31c9	-0.0006492404
183	0xbb10ac03	-0.0022075183
184	0xbc36c041	-0.011154235
185	0xbcab357f	-0.020899532
186	0xbcb495bc	-0.022044055
187	0xbd1ba7fc	-0.038002
188	0xbd3eacb8	-0.046551436
189	0xbd4a504e	-0.04939299
190	0xbcef0e1f	-0.029181538
191	0xbc845604	-0.016154297
192	0xbd45092c	-0.04810445
193	0xbc6b0044	-0.014343325
194	0x3ca4fad4	0.020139135
195	0xbd4aeb03	-0.04954053
196	0xbcc44721	-0.023959698
197	0x3afd78b6	0.0019338343
198	0xbce9ff6a	-0.028564174
199	0x3c8d2037	0.017227275
200	0x3a680fd7	0.0008852458
201	0xbd79aa8e	-0.06095367
202	0xbccbce9c	-0.024878792
203	0xbd24cab3	-0.04023237
204	0xbc1852a9	-0.0092970515
205	0x3c9c2217	0.019059224
206	0x3c9738a3	0.018459624
207	0xbd132720	-0.035925984
208	0xbca8b5ab	-0.020594439
209	0xbc48629c	-0.012230542
210	0xbcc0afc6	-0.023521315
211	0xbc48a800	-0.012247086
212	0xbc80e622	-0.015734736
213	0xba4df7ff	-0.00078570837
214	0x3b9f924f	0.0048697363
215	0x3c7ef19e	0.015560536
216	0x3b3590c8	0.0027704705
217	0xbc2e80bf	-0.010650813
218	0xbc00c6e1	-0.007859916
219	0x3a18773e	0.00058161083
220	0xbc625f61	-0.013816685
221	0xbd04fb97	-0.032466497
222	0xbde99746	-0.11405806
223	0xbd9c6644	-0.07636693
224	0xbd602fd7	-0.054733124
225	0xbc93cd0a	-0.018042106
226	0xbc774f3b	-0.015094574
227	0xba5ab8f3	-0.00083435996
228	0xbada0fbe	-0.0016636772
229	0x3b357716	0.002768939
230	0x3be2276e	0.006901673
231	0x3cafc01f	0.021453915
232	0x3d1f829a	0.03894291
233	0x3d0119cd	0.031518746
234	0x3b36dd0d	0.0027902753
235	0x3bce5f43	0.006297977
236	0x3c7498eb	0.014929037
237	0xbba72798	-0.0051011555
238	0x3b0f571c	0.002187199
239	0xbc1982c4	-0.009369556
240	0xbd092ee7	-0.033491995
241	0xba8df7b0	-0.0010831263
242	0x3bcdc1a6	0.006279188
243	0xbcfb33bb	-0.030664315
244	0xbd3ddd32	-0.046353526
245	0xbd61fe9d	-0.05517446
246	0x3d36f246	0.044664644
247	0x3d4c9703	0.049948703
248	0x3d8900ab	0.066895805
249	0x3d634466	0.05548515
250	0x3d5cc482	0.053898342
251	0x3d99764f	0.07493269
252	0xbe134961	-0.1438346
253	0xbd65ca52	-0.05610115
254	0x3cf53e7d	0.029937023
255	0xbe425c6d	-0.1898057

tfeb.12.weight f4 [32]
0	0x3e990c35	0.29892126
1	0x3ed69061	0.41907027
2	0x3ec1efd3	0.37878284
3	0x3ea0a66a	0.31376964
4	0x3e567202	0.20941928
5	0x3f0b7377	0.5447306
6	0x3ec8b1c3	0.3919812
7	0x3eed85f2	0.46391255
8	0x3f32b8ec	0.6981342
9	0x3e9e0ece	0.3087067
10	0x3ec917b4	0.39275897
11	0x3ee6b4c2	0.45059782
12	0x3ebfc1dc	0.3745259
13	0x3e8eedca	0.27915794
14	0x3ecc746b	0.3993257
15	0x3e9a6e08	0.30162072
16	0x3eea5daf	0.457746
17	0x3eafb8cf	0.34320685
18	0x3eb57689	0.35441998
19	0x3eacba4f	0.33735892
20	0x3eb898c1	0.36054042
21	0x3ec72a6d	0.38899556
22	0x3eed3384	0.46328366
23	0x3ebe36ad	0.3715109
24	0x3e693c5d	0.22776933
25	0x3f13be57	0.5771231
26	0x3e38380c	0.1799013
27	0x3e88044e	0.26565784
28	0x3ea4f596	0.32218617
29	0x3f06f36f	0.527152
30	0x3ef99fae	0.48754638
31	0x3f263a49	0.64932686

tfeb.12.bias f4 [32]
0	0xbe502887	-0.2032796
1	0x3d1cf907	0.03832343
2	0xbdf2ce4c	-0.11855754
3	0xbddfd35c	-0.109289855
4	0xbd78b358	-0.06071791
5	0xbe817214	-0.25282347
6	0xbdb5c442	-0.08875324
7	0xbdd01352	-0.10159935
8	0xbeeacfbb	-0.4586161
9	0x3dd2c63c	0.102917165
10	0xbe073050	-0.13202024
11	0xbd349ff3	-0.044097852
12	0xbd583406	-0.05278399
13	0x3ce3afb0	0.027793735
14	0xbe38ab5a	-0.18034115
15	0xbdd6ed5d	-0.10494492
16	0xbe0af1ac	-0.13568753
17	0x3e75ae9d	0.23992391
18	0xbd74306f	-0.059616502
19	0x3d2e6a9e	0.042582147
20	0xbdd0acfc	-0.10189244
21	0xbe1b1153	-0.15143327
22	0xbd934c5f	-0.07192301
23	0x3e288b51	0.16459395
24	0xbd0a2de3	-0.033735167
25	0xbcc70d3e	-0.024298307
26	0xbe0c26a4	-0.13686615
27	0xbdc6ac35	-0.09700815
28	0xbdab420b	-0.08362206
29	0xbe0e2d43	-0.13884453
30	0xbe4e00c0	-0.20117474
31	0xbe1e3888	-0.15451252

tfeb.12.running_mean f4 [32]
0	0xbe5068b2	-0.20352438
1	0xbf551ded	-0.8324879
2	0xbed74ab1	-0.42049173
3	0x3e9db2ee	0.30800575
4	0xbea2168f	-0.31657836
5	0xbfa18fbc	-1.2621989
6	0xbe3d6bfb	-0.18498223
7	0xbef14efe	-0.4713058
8	0xbf66cc60	-0.901556
9	0x3da57e03	0.080806755
10	0xbed7deef	-0.42162272
11	0xbf6474c2	-0.8924066
12	0xbf03cc64	-0.5148375
13	0xbf57d0e1	-0.843031
14	0x3c44b22e	0.012005372
15	0xbc0c2785	-0.008554344
16	0xbede06cb	-0.43364558
17	0xbda5c870	-0.08094871
18	0xbe330768	-0.17483294
19	0xbf275f31	-0.65379626
20	0xbe9f26a2	-0.31084162
21	0xbf4de8e0	-0.80433464
22	0xbf21160b	-0.6292426
23	0xbf1dfa08	-0.6170964
24	0xbe134e32	-0.14385298
25	0xbf77f4ad	-0.9685772
26	0xbe4985b1	-0.19679905
27	0xbcd29256	-0.025704544
28	0xbe70c9a6	-0.23514423
29	0xbf00abec	-0.5026233
30	0xbe362dfb	-0.17790978
31	0xbf95069a	-1.164264

tfeb.12.running_var f4 [32]
0	0x3dcba361	0.099432714
1	0x3f1d36fa	0.6141201
2	0x3e8a24d0	0.2698121
3	0x3e86c4e3	0.26322088
4	0x3d6458e6	0.055748843
5	0x3f41c4bb	0.7569081
6	0x3ec2353c	0.3793124
7	0x3ea4d408	0.32193017
8	0x3f1532b6	0.58280504
9	0x3e7012fc	0.23444742
10	0x3eff1326	0.49819297
11	0x3f2847c6	0.6573452
12	0x3e868bef	0.26278636
13	0x3ea1f115	0.31629243
14	0x3e496955	0.19669087
15	0x3e98a002	0.29809576
16	0x3e5cf1f1	0.21576668
17	0x3f245f8a	0.6420828
18	0x3e64a8e9	0.22330059
19	0x3eb766c0	0.3582058
20	0x3e2f2f31	0.17107846
21	0x3eb6119e	0.35560316
22	0x3f0e6926	0.55629194
23	0x3f23e785	0.64025146
24	0x3cf2c39e	0.029634293
25	0x3f79e880	0.9762039
26	0x3d02d1ed	0.031938482
27	0x3e822933	0.25422058
28	0x3e0cb550	0.1374104
29	0x3f0e482a	0.55578864
30	0x3ea1cdff	0.31602475
31	0x3f8b600c	1.0888686
