trained_models/step_5_retrain_after_step_4/retrain_4C_after_2nd_pruning_prunratio0.85_2024060419/retrained_4Cmodel_ratio85.0_vaacc92.75362396240234_tracc_82.89473684210526@684epoch_20240604224315.pt (torch, 309234 bytes, 62 tensors)

sfeb.0.weight f4 [8, 1, 1, 9]
0	0x3e8048c1	0.25055507
1	0x3e1ad945	0.15121944
2	0x3e940999	0.28913572
3	0x3eb131c8	0.34608293
4	0x3da4dfec	0.08050522
5	0xbe86b171	-0.26307252
6	0xbef58b6c	-0.47957933
7	0xbe8fcb1a	-0.28084642
8	0xbd61fa6b	-0.055170458
9	0x3b45ce3c	0.003018274
10	0x3c329a0a	0.010900984
11	0xbd95dc6f	-0.07317435
12	0xbe97adda	-0.29624826
13	0x3d806057	0.06268375
14	0xbe3f4b93	-0.18681173
15	0xbe940c8f	-0.2891583
16	0x3eb9abbd	0.36263838
17	0x3f1122c9	0.566937
18	0xbe389f23	-0.18029456
19	0xbe64129b	-0.22272722
20	0x3e5baa06	0.21451578
21	0x3d871310	0.06595433
22	0xbe4076c9	-0.18795313
23	0xbe725e4f	-0.23668788
24	0x3e011e7c	0.12609285
25	0xbe9f277e	-0.31084818
26	0xbed2ed4b	-0.41196665
27	0x3f312f13	0.69212455
28	0x3ebc8efc	0.36827838
29	0xbd5909a9	-0.05298773
30	0xbc16e5b3	-0.009210038
31	0xbe375861	-0.17904808
32	0x3bd2ba29	0.0064308834
33	0x3de610a2	0.11233641
34	0xbcec6741	-0.028857829
35	0x3d9d6d21	0.0768683
36	0xbf1de811	-0.6168223
37	0xbeb37bea	-0.35055476
38	0x3d615a1c	0.055017576
39	0x3d948aa1	0.07253004
40	0x3e938cfb	0.28818497
41	0x3e4d977f	0.20077322
42	0xbe37683f	-0.1791086
43	0x3d0be1f4	0.034151033
44	0xbe0de56c	-0.13857049
45	0xbe9c75a6	-0.3055851
46	0xbd0e63cb	-0.03476314
47	0x3e4b8e94	0.19878608
48	0x3dc56125	0.096376695
49	0xbed2a958	-0.41144824
50	0x3db47128	0.08810645
51	0x3f15a988	0.5846181
52	0xbd469bf7	-0.048488583
53	0xbf026372	-0.5093299
54	0xbd7885b0	-0.06067437
55	0xbe63096a	-0.2217156
56	0x3e678ac8	0.22611535
57	0xbdb62c85	-0.0889521
58	0xbee62b63	-0.44954976
59	0x3f021988	0.5082021
60	0x3cdcd425	0.026956627
61	0xbee47fb7	-0.4462869
62	0x3ed40201	0.4140778
63	0x3d2bd32a	0.04194943
64	0x3c274256	0.010208687
65	0xbe4942ce	-0.1965439
66	0xbdeb11af	-0.11477982
67	0x3e40d290	0.18830323
68	0x3e58c67d	0.21169467
69	0xbd09106c	-0.033462927
70	0x3e9f7957	0.31147262
71	0x3f11848c	0.56842875

sfeb.1.weight f4 [8]
0	0x3f69661a	0.9117142
1	0x3f462fac	0.7741649
2	0x3f35c33c	0.7100103
3	0x3f42b9a1	0.760645
4	0x3f4a4186	0.7900623
5	0x3f0a77b2	0.5408889
6	0x3ef5974a	0.47966987
7	0x3f3220bc	0.695812

sfeb.1.bias f4 [8]
0	0x3d21698a	0.03940729
1	0x3d24eba1	0.040263776
2	0x3d8cd4bb	0.068765126
3	0x3e61f834	0.22067338
4	0x3d972783	0.07380583
5	0x3e4f445b	0.2024092
6	0x3d9c517d	0.0763273
7	0x3d63b02e	0.05558794

sfeb.1.running_mean f4 [8]
0	0x34bbb0b8	3.4960044e-07
1	0x3618834c	2.272619e-06
2	0xb777e0e0	-1.4774705e-05
3	0x37693eb8	1.3902485e-05
4	0xb730c524	-1.0536318e-05
5	0xb6d55b08	-6.358492e-06
6	0xb44cd940	-1.9078016e-07
7	0x375a3160	1.3005309e-05

sfeb.1.running_var f4 [8]
0	0x3ca62949	0.020283358
1	0x3c30d9f9	0.010794156
2	0x3c336fe1	0.010951967
3	0x3c8e30d2	0.017357264
4	0x3c835e82	0.016036276
5	0x3babaa67	0.0052388194
6	0x3b01f127	0.0019827576
7	0x3c606cb3	0.013697791

sfeb.3.weight f4 [32, 8, 1, 5]
0	0x3d6e0ec0	0.058119535
1	0xbe347e74	-0.17626363
2	0xbced6f4d	-0.028983736
3	0x3d24744a	0.040149964
4	0xbe16900a	-0.14703384
5	0xbda5a2fe	-0.08087729
6	0xbde8a0fb	-0.113588296
7	0xbd4c776f	-0.04991859
8	0xbb5bf352	-0.0033561778
9	0xbcf445d2	-0.02981845
10	0x3e78d7ee	0.2430112
11	0x3e4fdada	0.20298329
12	0x3e6fd138	0.23419654
13	0x3e09b587	0.13448153
14	0x3db669bb	0.08906885
15	0xbdd66273	-0.104679964
16	0xbd4ab906	-0.04949286
17	0xbe86f38f	-0.26357695
18	0xbd458afc	-0.04822825
19	0xbdea936c	-0.114539
20	0x3e1cb9af	0.15305208
21	0x3e3569df	0.17716168
22	0x3d8dbccd	0.069207765
23	0x3e3a08c2	0.18167403
24	0x3e20d8f9	0.15707768
25	0x3d65ec16	0.056133352
26	0xbcc4b229	-0.024010735
27	0xbd8377f7	-0.06419366
28	0xbb64c5c0	-0.0034907907
29	0x3d2154d1	0.039387528
30	0x3a96350d	0.0011459902
31	0xbce3d1c5	-0.027809987
32	0x3d22a4fa	0.039708115
33	0x3d171bb4	0.036891654
34	0xbc04ec9c	-0.008113053
35	0xbd72e58e	-0.05930095
36	0xbdc58462	-0.09644391
37	0xbe17c5dc	-0.14821571
38	0xbca9bc84	-0.020719774
39	0xbd53ea1b	-0.051736932
40	0xbe2df824	-0.1698919
41	0xbe250f74	-0.16119176
42	0xbd1578f9	-0.03649232
43	0x3d84bd85	0.064814605
44	0x3daa90d0	0.08328402
45	0xbbc8af4b	-0.006124412
46	0xbe10b394	-0.14131004
47	0xbdf41b2b	-0.119192444
48	0xbd0cc5b8	-0.034368247
49	0xbd84240b	-0.06452187
50	0x3db7167e	0.08939837
51	0x3dabb429	0.08383972
52	0x3d9ccdfc	0.07656476
53	0x3e735e9a	0.23766556
54	0x3e9296ab	0.28630576
55	0xbe6577a8	-0.22408926
56	0xbde7ae8f	-0.11312591
57	0xbddb1b09	-0.10698516
58	0xbcadcb68	-0.021215156
59	0xbcfdf338	-0.030999765
60	0x3e19a081	0.15002634
61	0x3e0dd583	0.1385098
62	0x3ca8449e	0.020540532
63	0xbd9e64b6	-0.07734053
64	0x3c0834f7	0.008313409
65	0xbc043d45	-0.008071248
66	0x3df398b6	0.11894362
67	0xbcaba27a	-0.020951498
68	0xb99adbac	-0.00029536837
69	0x3c7bcd93	0.015368837
70	0xbbae0ebd	-0.0053118155
71	0xbd4cd883	-0.05001117
72	0xbc85a07f	-0.016311882
73	0xbdd0f8a5	-0.10203675
74	0xbd05b990	-0.03264767
75	0xbd72a8c5	-0.059242982
76	0xbd892d56	-0.066981
77	0xbe7faa5c	-0.2496733
78	0xbe300687	-0.1718999
79	0xbdd920ed	-0.10601983
80	0xbe0d96d2	-0.13827065
81	0xbe5ba845	-0.21450908
82	0xbd2b6440	-0.041843653
83	0xbcc8b437	-0.024499996
84	0xbdc90cd2	-0.098168984
85	0xbdf634e1	-0.120218046
86	0xbd8ac051	-0.06774963
87	0xbd8fd97f	-0.07023906
88	0xbe389d94	-0.18028861
89	0xbe14bde0	-0.14525557
90	0x3e0cf2a9	0.13764443
91	0x3e5757ea	0.2102963
92	0x3dfb3d7a	0.12267585
93	0x3e35d5e4	0.17757374
94	0x3e833a0d	0.25630227
95	0xbe498da4	-0.19682938
96	0xbdc0b851	-0.094101556
97	0xbe495944	-0.19662958
98	0xbdf7f28b	-0.12106808
99	0xbdcc3744	-0.099714786
100	0xbd58046f	-0.052738603
101	0x3a82fc57	0.0009993416
102	0x3d135449	0.035969052
103	0x3de8e4ef	0.113717906
104	0x3d37585d	0.044762004
105	0xbd3528e8	-0.044228464
106	0x3d6c01a1	0.05761874
107	0xbd5113f6	-0.051044427
108	0x3db66d70	0.08907592
109	0x3d18368b	0.03716139
110	0xbd484b20	-0.04889977
111	0xbbbfd812	-0.005854615
112	0xbd77e0c8	-0.060517102
113	0xbd8fd0dd	-0.070222594
114	0xbdf569b6	-0.119830534
115	0xbe170cfa	-0.14751044
116	0xbe82fd43	-0.25583848
117	0xbe87617b	-0.2644156
118	0xbe02cb82	-0.12772945
119	0xbe0690da	-0.13141194
120	0xbdd7d6e9	-0.10539038
121	0x3d939d45	0.07207731
122	0xbdf5c107	-0.11999708
123	0xbd8d8f65	-0.06912116
124	0xbe74667a	-0.23867217
125	0xbe04c9b9	-0.12967576
126	0xbd06f590	-0.03294903
127	0x3d201abe	0.039088003
128	0xbcc72f10	-0.024314433
129	0xbd910ebc	-0.070828885
130	0xbea7df8a	-0.32787734
131	0xbe82d931	-0.2555633
132	0xbe65a670	-0.22426772
133	0xbe65550f	-0.22395729
134	0xbeaecdfe	-0.34141535
135	0x3dc4d77c	0.09611413
136	0x3e57566a	0.21029058
137	0x3e9ad2f9	0.30239084
138	0x3e1a626e	0.1507661
139	0x3df5fccd	0.120111085
140	0xbd807962	-0.06273152
141	0xbdfcf8c9	-0.123521395
142	0xbe92bd31	-0.28659967
143	0xbdb7e116	-0.089784786
144	0xbdeeb327	-0.11655264
145	0x3d132fec	0.035934374
146	0xbe18cc3d	-0.1492166
147	0xbe11bfe5	-0.14233358
148	0xbe41c6a2	-0.18923429
149	0xbe39692e	-0.18106529
150	0xbde8c16d	-0.11365018
151	0xbe3beba1	-0.18351604
152	0xbe787a13	-0.24265318
153	0xbe1400c7	-0.14453422
154	0xbdf25f6e	-0.11834608
155	0x3e3853f6	0.18000779
156	0x3e4bc4bc	0.19899267
157	0x3e6d2051	0.23156859
158	0x3eb6537c	0.3561057
159	0x3eab3edc	0.33446395
160	0xbe1218b6	-0.14267239
161	0xbdbc0659	-0.09180898
162	0xbe0f30ab	-0.13983409
163	0xbdd78531	-0.10523451
164	0xbd2e98d0	-0.042626202
165	0x3d964b6c	0.07338604
166	0x3c952902	0.01820803
167	0x3c098872	0.0083943475
168	0x3d6c73c9	0.05772761
169	0x3bf13249	0.007360731
170	0xbe025326	-0.12727031
171	0xbdae17bf	-0.08500623
172	0xbded1d8a	-0.115779
173	0xbe3d1385	-0.18464477
174	0xbdaab1a0	-0.083346605
175	0xbe4c49f8	-0.19950092
176	0xbe077675	-0.13228782
177	0xbcbf423f	-0.023347018
178	0xbba1cba4	-0.004937606
179	0x3d8b9366	0.068152234
180	0xbde2d763	-0.11076238
181	0xbcfd0744	-0.030887254
182	0x3d29cd3a	0.041455485
183	0xbd1e73eb	-0.038684767
184	0xbdc19a06	-0.09453206
185	0xbd138cc3	-0.036022913
186	0xbd102d03	-0.035199177
187	0x3ce3b77f	0.027797459
188	0xbd62b6f1	-0.055350248
189	0xbcfc482d	-0.030796135
190	0xbd301bc6	-0.042995237
191	0x3bae9bb5	0.0053286203
192	0xbceaef61	-0.028678598
193	0xbb9dfe1a	-0.004821551
194	0xbd391899	-0.045189474
195	0xbd820e41	-0.06350375
196	0x3cf03d84	0.029326208
197	0x3dc2db74	0.095145136
198	0x3dfcc452	0.12342133
199	0x3e3c0eea	0.18365064
200	0xbd45dbd7	-0.04830536
201	0xbe2dd5a0	-0.16976023
202	0xbe3889db	-0.18021338
203	0xbe542048	-0.2071544
204	0xbdbb4ff8	-0.09146112
205	0x3dbb114b	0.09134158
206	0x3e6d8c97	0.23198162
207	0x3de016ec	0.10941872
208	0x3d6da276	0.058016263
209	0x3e09f838	0.13473594
210	0x3dc508a5	0.096207894
211	0xbd5e759f	-0.05431139
212	0xbd0eaf99	-0.03483543
213	0xbdacf773	-0.08445635
214	0xbe413a4a	-0.18869892
215	0xbdd34dfb	-0.10317608
216	0xbe6bdcf3	-0.23033504
217	0xbe64f2ea	-0.2235829
218	0xbd9ccf36	-0.0765671
219	0x3ca23420	0.019800246
220	0xbcb45ff7	-0.022018416
221	0x3c3758a7	0.01119057
222	0xbc5037ce	-0.012708617
223	0x3e3473b7	0.17622267
224	0x3cd2f563	0.025751775
225	0xbadf1698	-0.0017020283
226	0x3d2c919e	0.04213106
227	0x3c28c967	0.010301924
228	0x3d5e951b	0.054341417
229	0xbd8b3013	-0.06796279
230	0x3da5781a	0.08079548
231	0x3d77d012	0.060501166
232	0x3da41c8d	0.08013258
233	0x3da9c4f5	0.0828952
234	0xbc11f5b8	-0.008908682
235	0xbd4a9581	-0.049458984
236	0xbd5770c5	-0.05259778
237	0x3d55b0c7	0.05217054
238	0x3dd774d7	0.10520332
239	0x3de8751c	0.11350462
240	0x3e05c56d	0.13063593
241	0x3dca257b	0.0987043
242	0x3db3fa36	0.08787958
243	0x3da2d7b7	0.079513006
244	0x3da1bade	0.0789697
245	0xbe2b57d4	-0.16732723
246	0xbe465095	-0.19366677
247	0xbe67f70b	-0.22652833
248	0xbd269955	-0.040673573
249	0xbcb666d7	-0.022265835
250	0xbca03b1c	-0.019559436
251	0x3c2e1821	0.01062587
252	0x3dd0bf3e	0.101927266
253	0x3da268c8	0.07930142
254	0x3e35f3fc	0.17768854
255	0x3e73dcab	0.23814647

sfeb.4.weight f4 [32]
0	0x3f3f2a89	0.7467428
1	0x3edd07e6	0.4317009
2	0x3f4bb2c2	0.7956964
3	0x3f96193b	1.172645
4	0x3eac9032	0.33703762
5	0x3ebb2ead	0.36559048
6	0x3f111231	0.5666838
7	0x3a189e30	0.00058219116
8	0x3edfc752	0.43706757
9	0x3f0470d1	0.51734644
10	0x3c623eb6	0.013808897
11	0x3f21823b	0.6308934
12	0x3f18df39	0.5971561
13	0x3f3f99b2	0.74843895
14	0x3f67ca61	0.9054318
15	0xba444ffe	-0.00074887264
16	0x3f17bda5	0.5927375
17	0x3ed974d5	0.42471948
18	0x3f113e6a	0.5673586
19	0x39830382	0.0002498888
20	0x3f05c0d6	0.5224737
21	0x3f100333	0.5625488
22	0x3f386251	0.7202502
23	0x3edda4a4	0.43289673
24	0x3a209c89	0.0006126841
25	0x3a474c11	0.00076025823
26	0x3eca72f1	0.39540818
27	0x3f0caf20	0.5495472
28	0x3ebe1329	0.37123993
29	0x3f0c4a92	0.54801285
30	0x3edf1be0	0.43575954
31	0x3ecd036e	0.4004168

sfeb.4.bias f4 [32]
0	0x3e330d23	0.1748548
1	0xbe4b0218	-0.19825017
2	0xbe1288a3	-0.14309935
3	0xbd24d3bd	-0.04024099
4	0xbd6103c9	-0.05493525
5	0x3a57cb0a	0.00082318543
6	0x3e031943	0.12802605
7	0xbd86e79c	-0.06587145
8	0x3d2efceb	0.04272167
9	0xbdb1c67f	-0.08680438
10	0xbcbee1a2	-0.02330095
11	0x3d379306	0.044817947
12	0x3dd7bc71	0.10533989
13	0x3db4bc65	0.08824996
14	0x3d2a4373	0.04156823
15	0xbd1f6060	-0.03891027
16	0xbda10311	-0.07861913
17	0x3d80c09a	0.06286736
18	0xbd2fb067	-0.04289284
19	0xbcb10dc6	-0.021613013
20	0x3b01f30a	0.00198287
21	0xbe2067ea	-0.1566464
22	0xbdb432d5	-0.08798758
23	0x3cff8293	0.031190192
24	0xbc92edcc	-0.017935656
25	0xbca1f21d	-0.019768769
26	0x3d1a6a6c	0.037699148
27	0xbd3b561d	-0.04573642
28	0xbde7d61a	-0.113201335
29	0xbda25edf	-0.079282515
30	0xbdd56392	-0.10419382
31	0x3da27853	0.07933106

sfeb.4.running_mean f4 [32]
0	0xbcbda09a	-0.02314787
1	0xbe4ae218	-0.1981281
2	0xbedf6653	-0.43632755
3	0xbe9da80f	-0.3079228
4	0xbea75c9d	-0.32687846
5	0xbe26bf82	-0.16283992
6	0xbe1c5dba	-0.15270129
7	0x3c28ad96	0.010295292
8	0xbe894174	-0.2680775
9	0xbe0d17db	-0.13778631
10	0xbd313599	-0.043264005
11	0xbe5918ee	-0.21200916
12	0xbd902aa8	-0.07039386
13	0x3dc99401	0.09842683
14	0xbe5d3646	-0.21602735
15	0xbb5a21d0	-0.0033284314
16	0xbea4fb11	-0.32222798
17	0xbe8e7efc	-0.27831256
18	0xbe9e3120	-0.30896854
19	0xbbf0727e	-0.0073378673
20	0xbeaeb586	-0.34122866
21	0xbef20f52	-0.47277313
22	0xbebba3c5	-0.36648384
23	0xbe8112ab	-0.25209555
24	0xbc89f2e7	-0.016839458
25	0xbc80bc62	-0.015714828
26	0xbeb4f44d	-0.35342637
27	0xbe007077	-0.12542902
28	0xbec15014	-0.37756407
29	0xbecfd343	-0.40590867
30	0xbdbad838	-0.09123272
31	0xbd576c4e	-0.05259352

sfeb.4.running_var f4 [32]
0	0x3ebeb030	0.37243795
1	0x3eb13a2c	0.34614694
2	0x3f26d325	0.6516593
3	0x3f91388f	1.1345385
4	0x3e9e4acb	0.30916438
5	0x3ec98eb9	0.393667
6	0x3f002bd8	0.500669
7	0x3be1e4a4	0.006893711
8	0x3e97de71	0.29661897
9	0x3e59b6c0	0.2126112
10	0x3b47c04c	0.0030479608
11	0x3ec011e6	0.37513655
12	0x3ecfef23	0.40612134
13	0x3f2be721	0.6714955
14	0x3f591a43	0.848057
15	0x3aff79fb	0.0019491309
16	0x3eeeaf93	0.46618327
17	0x3ef66c1d	0.4812936
18	0x3f304de1	0.68868834
19	0x3abc1a59	0.0014351114
20	0x3f1458e0	0.5794811
21	0x3f32912c	0.69752765
22	0x3f43992e	0.7640561
23	0x3ef1390c	0.47113836
24	0x3a81e102	0.0009908976
25	0x3a58b8e8	0.0008267299
26	0x3eee2340	0.4651127
27	0x3f0b2e9f	0.54368013
28	0x3ed88f78	0.42296958
29	0x3f006a4c	0.50162196
30	0x3e77b21c	0.24189037
31	0x3e3b5d9f	0.18297432

tfeb.0.weight f4 [13, 1, 3, 3]
0	0x3d08fea7	0.03344598
1	0x3a24c5a5	0.0006285555
2	0xbbb3c668	-0.0054862984
3	0x3b8bb754	0.004263798
4	0x3a004f0b	0.0004894591
5	0x3acd75e0	0.0015675388
6	0x3b007805	0.0019602787
7	0x3bc807bc	0.0061044376
8	0x3bca0d9b	0.0061661727
9	0x3c1231cb	0.008923004
10	0xbc268586	-0.01016367
11	0x3c6c44bc	0.014420684
12	0x3c7ed0b3	0.015552687
13	0xbc3ea90c	-0.011636984
14	0x3c5c38d4	0.013441283
15	0x3c8330fc	0.016014569
16	0xbbf24dec	-0.007394543
17	0x3c8775a3	0.016535586
18	0x3e4f161d	0.2022328
19	0x3e04c5b9	0.1296605
20	0xbed0dbf9	-0.40792826
21	0x3ec3ca3d	0.38240233
22	0x3eecdbfd	0.46261588
23	0xbf2a5a6c	-0.6654422
24	0x3e519755	0.20467885
25	0x3e20c0d8	0.15698564
26	0xbee60c16	-0.44931096
27	0xbe669222	-0.22516683
28	0xbcef324d	-0.02919879
29	0x3e00b470	0.12568831
30	0xbf1601c6	-0.58596456
31	0x3ef674f0	0.4813609
32	0x3f086bbb	0.53289384
33	0xbe9b6f18	-0.30358195
34	0x3e192384	0.14954954
35	0x3e4237cb	0.18966596
36	0x3d01f7f2	0.0317306
37	0x3ed7b3a8	0.42129254
38	0xbef90405	-0.4863588
39	0x3db1a40a	0.08673866
40	0x3ddb85b8	0.10718864
41	0xbeab4f4b	-0.33458933
42	0xbe268228	-0.16260588
43	0xbd5b95d7	-0.053609695
44	0xbea2b516	-0.31778783
45	0x3d13be88	0.036070377
46	0xbe20fb08	-0.15720761
47	0xbe32e905	-0.17471702
48	0x3cb635dd	0.02224248
49	0xbe58ed5a	-0.21184292
50	0xbe95634c	-0.2917732
51	0x3e7f478e	0.2492964
52	0xbe35f2ed	-0.1776845
53	0xbe0397e8	-0.12850916
54	0x3f5d17cb	0.8636443
55	0xbefacb0c	-0.48983037
56	0xbeffc375	-0.4995381
57	0x3f6a31a9	0.91482025
58	0xbf0a55c1	-0.540371
59	0xbf2734ec	-0.6531513
60	0x3ee04d2c	0.43808877
61	0xbe98d16b	-0.29847273
62	0xbeec323e	-0.46132082
63	0xbdf111dc	-0.117709845
64	0xbe2d9b2c	-0.16953725
65	0xbe058a52	-0.13041046
66	0xbdc7f9d5	-0.097644486
67	0xbe25d1da	-0.16193333
68	0xbdf9fdde	-0.122066244
69	0x3dd8b2d2	0.10580982
70	0x3e625486	0.22102556
71	0x3e003db6	0.12523541
72	0xbe2ca133	-0.16858368
73	0xbe95c242	-0.2924977
74	0xbdf309c0	-0.11867094
75	0xbe1bdd80	-0.15221214
76	0xbe8343dc	-0.2563771
77	0xbd7a7288	-0.06114438
78	0xbdde5791	-0.10856546
79	0xbe384127	-0.17993604
80	0xbdeeb9e6	-0.11656551
81	0xbd5b5daf	-0.05355614
82	0xbdae5eb1	-0.08514155
83	0x3d3495d1	0.04408819
84	0xbde43a7b	-0.11143967
85	0xbe116a8c	-0.142008
86	0xbce45f2c	-0.027877413
87	0x3dd562cf	0.10419237
88	0xbeed4099	-0.46338347
89	0x3edafc11	0.42770436
90	0x3ea3d828	0.32000852
91	0x3df22ff9	0.11825556
92	0x3de7368c	0.11289701
93	0x3e92a6ec	0.28642976
94	0x3d652d7e	0.055951588
95	0x3d6e3bc4	0.058162466
96	0xbd8344e7	-0.064096265
97	0xbda376df	-0.07981657
98	0xbcd9f497	-0.026605887
99	0xbd9f9c96	-0.07793538
100	0xbe34a2b5	-0.17640193
101	0xbd649b73	-0.05581231
102	0xbe3d5359	-0.18488826
103	0xbe80feb5	-0.25194326
104	0xbe06f956	-0.13181052
105	0x3cc956f4	0.024577595
106	0xbdedd36c	-0.11612591
107	0xbd244fb9	-0.040115092
108	0xbe9028fc	-0.2815627
109	0xbe63254b	-0.22182195
110	0x3ea43228	0.32069516
111	0xbf2893a7	-0.658503
112	0xbf10136a	-0.56279624
113	0x3f8ee65c	1.116405
114	0xbeb820e1	-0.35962585
115	0xbe944db9	-0.28965548
116	0x3eac0523	0.3359767

tfeb.1.weight f4 [13]
0	0xba58e5dc	-0.0008273998
1	0xbb11085e	-0.0022130231
2	0x3e976239	0.29567125
3	0x3e9275e2	0.28605562
4	0x3eb3a860	0.35089397
5	0x3ea1166f	0.31462428
6	0x3f156524	0.58357453
7	0x3e9ab2ef	0.3021464
8	0x3f6b6e80	0.91965485
9	0x3ec55ce8	0.38547444
10	0x3e8bc1ab	0.27296194
11	0x3f001f23	0.5004751
12	0x3eff26fc	0.4983443

tfeb.1.bias f4 [13]
0	0xbc46581c	-0.012105968
1	0xbc6ab90f	-0.014326348
2	0x3e2586cd	0.16164704
3	0x3e721d71	0.23644044
4	0x3e963826	0.29339713
5	0x3ebee871	0.37286714
6	0x3d003ee9	0.031309996
7	0x3d727615	0.059194643
8	0xbe947a12	-0.28999382
9	0xbd0737c1	-0.033012155
10	0x3e4048af	0.18777727
11	0x3d351171	0.044206087
12	0x3e16037a	0.14649764

tfeb.1.running_mean f4 [13]
0	0x3c90e830	0.01768884
1	0x3ca3bc3e	0.019987222
2	0x3c35c849	0.011095115
3	0x3e01f203	0.12689976
4	0xbe80004c	-0.25000226
5	0xbe9df580	-0.30851364
6	0xbe86e933	-0.26349792
7	0xbe0cbd6a	-0.1374413
8	0xbf075e23	-0.52878016
9	0xbdf3a00c	-0.11895761
10	0x3e94e200	0.29078674
11	0xbebed748	-0.37273622
12	0xbe604196	-0.21900019

tfeb.1.running_var f4 [13]
0	0x3a44aabb	0.00075022475
1	0x3a681db8	0.0008854526
2	0x3db34c55	0.087547936
3	0x3e04ce43	0.12969308
4	0x3e3db188	0.18524754
5	0x3e6bd136	0.23029026
6	0x3eb6dcb8	0.3571527
7	0x3e12210a	0.14270416
8	0x3f179bfe	0.592224
9	0x3d60c02e	0.054870777
10	0x3e7918af	0.24325822
11	0x3ea01f8e	0.31274074
12	0x3e7f9159	0.2495779

tfeb.4.weight f4 [25, 13, 3, 3]
0	0x3b19f652	0.0023492766
1	0xbb28b1c6	-0.0025740727
2	0x3a8d3182	0.0010772201
3	0xba5af68d	-0.0008352779
4	0xbb9f0a5e	-0.004853531
5	0xbb40da33	-0.0029426932
6	0x3b158ead	0.0022820637
7	0xbab9ba45	-0.0014169893
8	0xb9d36047	-0.00040316788
9	0x3ae3181b	0.001732591
10	0xbbae0f40	-0.0053118765
11	0x3b78cb8a	0.0037963116
12	0x3b0f2c2b	0.0021846395
13	0xbbcffe1f	-0.0063474323
14	0x3b43b7df	0.0029864234
15	0x3b3e11fb	0.0029002416
16	0xbb423d56	-0.002963861
17	0x3b980a2e	0.0046398854
18	0x3d955223	0.07291057
19	0xbb80881c	-0.0039224755
20	0x3d6b4abe	0.057444327
21	0xbdc53fe2	-0.09631325
22	0xbe3702af	-0.17872117
23	0xbe0d0a7e	-0.13773534
24	0x3d538983	0.051644813
25	0xbdd67a7c	-0.10472581
26	0xbd18102b	-0.037124794
27	0xbd0d83ec	-0.03454964
28	0xbd958fed	-0.07302842
29	0xbca209dc	-0.019780092
30	0xbda01a66	-0.07817535
31	0xbd72729a	-0.059191324
32	0xba5822f2	-0.00082449534
33	0xbddf90eb	-0.10916313
34	0xbd0ee27d	-0.034883965
35	0x3c06f84b	0.008237909
36	0x3da4eda1	0.080531366
37	0x3d4b46cb	0.04962806
38	0x3dc19de8	0.09453946
39	0xbca4ee94	-0.020133294
40	0xbd5b90b4	-0.053604797
41	0xbd7cd848	-0.0617297
42	0x3cd0aab7	0.025472028
43	0x3c3a28a6	0.01136223
44	0x3cb9ee8b	0.022696754
45	0xbd72dba9	-0.059291515
46	0xbc0af332	-0.008480834
47	0xbd418236	-0.04724332
48	0x3cef12b9	0.029183732
49	0x3cdb2656	0.026751678
50	0xbd0e0b43	-0.03467871
51	0x3d38318f	0.044969138
52	0xbb4086ad	-0.0029377148
53	0x3baa474f	0.005196489
54	0x3ddb5279	0.1070909
55	0x3db898cb	0.09013518
56	0xbd3502ce	-0.044192128
57	0xbe129553	-0.14314775
58	0xbd2baa9b	-0.04191075
59	0xbe8fab90	-0.2806058
60	0x3d007442	0.031360872
61	0xbe0aa801	-0.13540651
62	0xbddcaa67	-0.10774689
63	0xbd597f79	-0.053100083
64	0xbcc268ff	-0.023731707
65	0x3c853184	0.016258962
66	0x3d6d9100	0.05799961
67	0x3d9022ae	0.070378646
68	0x3da43986	0.08018784
69	0x3b371155	0.0027933915
70	0xbc256323	-0.010094437
71	0xbc71e025	-0.014762913
72	0x3b5583a3	0.0032579682
73	0x3c5c8152	0.013458567
74	0x3d47034d	0.048587132
75	0x3ce81321	0.028329434
76	0xbad06679	-0.001589968
77	0xbb15edb2	-0.0022877273
78	0x3db66cc8	0.08907467
79	0x3d0e0afc	0.034678444
80	0xbb0760f6	-0.0020657158
81	0x3af3c72f	0.001859879
82	0xbdecc25a	-0.11560507
83	0x3ce143a2	0.02749807
84	0x3ae4fb4e	0.0017469914
85	0xbdd6ac1c	-0.10482046
86	0x3ce83b2f	0.028348533
87	0xbcb2ba80	-0.021817446
88	0xbd9644ee	-0.07337366
89	0x3c1c1cf1	0.009528385
90	0x3d7286c4	0.059210554
91	0x3dbefba0	0.093253374
92	0x3d98e8e3	0.074662946
93	0xbe185629	-0.14876617
94	0xbda5e096	-0.08099477
95	0xbd93b41c	-0.072120875
96	0xbd4c5d90	-0.049893916
97	0xbcfa6828	-0.030567244
98	0xbc904813	-0.017612493
99	0xbd237dee	-0.039915018
100	0xbc39a55b	-0.011330928
101	0xbc77a902	-0.015115978
102	0x3d8afd89	0.06786639
103	0x3d4c40ea	0.049866594
104	0x3c702870	0.014658079
105	0x3d1e985a	0.038719513
106	0x3ca320c6	0.019913089
107	0xbc93986d	-0.018017018
108	0x3cf1b196	0.029503625
109	0xbe3f17d9	-0.18661441
110	0xbd06af25	-0.032881875
111	0x3d536d36	0.051617824
112	0xbe380070	-0.17968917
113	0xbc110137	-0.008850387
114	0xbc007050	-0.007839277
115	0xbd5a444f	-0.0532878
116	0xbc96da9d	-0.01841479
117	0x3abc3e5c	0.0014361846
118	0xbaacd7c5	-0.0013186863
119	0xb943e008	-0.00018680107
120	0xba334b24	-0.0006839505
121	0xba402bdf	-0.0007330756
122	0xba22bf72	-0.0006208337
123	0x3b08932d	0.0020839677
124	0x3a9193c4	0.001110666
125	0xba0c95c6	-0.0005362894
126	0xbb26a27f	-0.0025426445
127	0xbb2939c2	-0.002582178
128	0xba910e16	-0.001106682
129	0x3b2d23f3	0.0026419132
130	0x3a9a2a06	0.0011761792
131	0x3b0e37b3	0.002170068
132	0x3b298b03	0.002587021
133	0x3afdcae7	0.0019362838
134	0x3b6154bf	0.0034382788
135	0xbcf00353	-0.02929846
136	0xbc8e59cc	-0.017376803
137	0xbda6b51c	-0.081400126
138	0xbd018a5c	-0.03162609
139	0x3d669c5e	0.056301467
140	0xbd1777a3	-0.03697933
141	0x3d26ee8b	0.040754836
142	0x3d4ed69e	0.050497644
143	0x3c065c8a	0.008200774
144	0x3d63bfe0	0.055602908
145	0x3c849cd5	0.016188065
146	0xbd215607	-0.039388683
147	0x3cdf3636	0.02724753
148	0xbda2e1ba	-0.0795321
149	0xbe15cba4	-0.14628464
150	0x3d5b18f5	0.053490598
151	0xbc987af9	-0.018613325
152	0xbd81a867	-0.06330948
153	0x3b81e221	0.0039637242
154	0xbda33ab6	-0.079701826
155	0xbd8a8bae	-0.06764923
156	0xbdcf2d3a	-0.10116048
157	0xbe0927c7	-0.1339408
158	0xbd93f6a9	-0.07224781
159	0xbd895e85	-0.06707481
160	0xbd81f9f3	-0.06346502
161	0xbc619b4f	-0.013769939
162	0x3cdec253	0.02719227
163	0x3bad7a52	0.0052941227
164	0xbca52f30	-0.020164102
165	0xbdad08e1	-0.08448959
166	0xbd8dc94b	-0.06923159
167	0xbd25f7c3	-0.040519487
168	0xbdc4c456	-0.096077606
169	0xbdaea03d	-0.08526657
170	0xbcaa63c1	-0.02079952
171	0xbd2e7243	-0.042589437
172	0xbd968cac	-0.0735105
173	0xbe364dee	-0.17803165
174	0xbe4668ac	-0.19375867
175	0xbd34b245	-0.044115324
176	0xbe29d6b8	-0.16585815
177	0xbd835330	-0.06412351
178	0xbd0c53c7	-0.034259584
179	0xbda15985	-0.078784026
180	0x3db6ffbf	0.089354984
181	0x3db6fdcf	0.08935129
182	0x3d6b9030	0.057510555
183	0xbd9e3e4b	-0.07726725
184	0xbda35b6e	-0.07976423
185	0xbd80e17f	-0.0629301
186	0xbaf88eed	-0.0018963494
187	0x3c8078d9	0.015682625
188	0x3d628a07	0.055307414
189	0x3d2fd9fe	0.042932503
190	0x3c1fd0ad	0.009754342
191	0xbb7a648b	-0.00382069
192	0xbbbc7146	-0.005750808
193	0xbd0a3b5c	-0.033748016
194	0xb58386d2	-9.799498e-07
195	0xbc89aa32	-0.016804788
196	0xbd00d222	-0.0314504
197	0x3c962215	0.018326798
198	0x3d087c7f	0.033321854
199	0xbd39feb3	-0.045408916
200	0xbcb7abb8	-0.022420749
201	0xbd250eab	-0.04029719
202	0xbe1872c4	-0.1488753
203	0xbdae2d15	-0.085046925
204	0xbd1412a7	-0.0361506
205	0xbd5cf122	-0.0539409
206	0xbc41ff86	-0.011840707
207	0xbd34cb76	-0.044139348
208	0xbb9c15a2	-0.004763321
209	0xbd80e949	-0.062944956
210	0x3c29c689	0.010362276
211	0x3dc23af4	0.09483901
212	0xbc9ee376	-0.019395571
213	0x3d91c9c0	0.07118559
214	0x3de35351	0.11099876
215	0x3c899669	0.016795354
216	0x3da095c0	0.078410625
217	0x3d8304e1	0.06397415
218	0x3d3f3738	0.04668352
219	0xbce7f58f	-0.028315334
220	0xbd2ccf78	-0.042190045
221	0xbc70b4c8	-0.014691539
222	0xbd9564fb	-0.07294651
223	0xbd771e46	-0.060331605
224	0xbb93edad	-0.004514417
225	0x3d16dcb9	0.03683159
226	0xbdb42403	-0.08795931
227	0xbdf8f144	-0.12155393
228	0xbbda1591	-0.006655403
229	0xbe5dc1ab	-0.2165591
230	0xbe4e5715	-0.20150407
231	0xbda35112	-0.07974447
232	0xbdfd8bf3	-0.12380209
233	0xbdd63d54	-0.10460916
234	0xba00bf3e	-0.000491131
235	0x3a925a77	0.0011165877
236	0x3aa539ff	0.0012605785
237	0xbb1674f5	-0.0022957895
238	0xbc16c283	-0.009201649
239	0xbb5a287c	-0.003328829
240	0xbbad3618	-0.0052859895
241	0xba7c2b84	-0.00096195214
242	0xbb3c809f	-0.0028763188
243	0xbb26bde5	-0.0025442776
244	0x3a9d596d	0.00120048
245	0xb8deb20f	-0.00010618951
246	0xbbd63ff1	-0.006538384
247	0xbb3d449b	-0.0028880003
248	0xbb982ffd	-0.0046443925
249	0xbb45144b	-0.003007191
250	0xbac66a81	-0.0015137942
251	0x3ace2e32	0.001573032
252	0xbcdb88b3	-0.026798582
253	0xbd9818b8	-0.0742659
254	0x3da09aaa	0.07842
255	0xbd764089	-0.06012014

tfeb.5.weight f4 [25]
0	0x3ee1db5a	0.44112664
1	0x3e38704c	0.18011588
2	0x3ead8104	0.33887494
3	0x3e8c5588	0.27409005
4	0x3ee5d280	0.4488716
5	0x3ebb728f	0.3661084
6	0x3e7a7569	0.24458851
7	0x3e8c75b2	0.27433544
8	0x3f1f0b2a	0.6212641
9	0x3ea75f9b	0.3269013
10	0x3e5e9889	0.21737875
11	0x3f1814aa	0.5940653
12	0x3ef81115	0.48450533
13	0x3f17a8ff	0.5924224
14	0x3e41d37c	0.18928331
15	0x3e80640d	0.25076333
16	0x3ea9a8a0	0.33136463
17	0x3e6ce688	0.23134816
18	0x3eedae63	0.4642211
19	0x3e5cbe33	0.2155693
20	0x3ee1010c	0.4394611
21	0x3e4ddbfa	0.20103446
22	0x3e6d6ed1	0.23186804
23	0x3da5ec98	0.08101767
24	0x3e59bc70	0.2126329

tfeb.5.bias f4 [25]
0	0x3d245afc	0.040125832
1	0x3e716b26	0.2357603
2	0xbc3980ef	-0.011322244
3	0x3d30052b	0.04297368
4	0xbd371ff3	-0.044708204
5	0x3dcff434	0.10154
6	0x3e31e8e4	0.17373997
7	0x3d475309	0.048663173
8	0xbd9e3137	-0.07724231
9	0xbd25972d	-0.040427376
10	0x3e018747	0.1264926
11	0xbda19e86	-0.07891564
12	0xbe3f723c	-0.1869592
13	0xbdc483d4	-0.09595457
14	0x3e3c8af5	0.18412383
15	0x3e0c3cfe	0.13695142
16	0xbc7e4a3c	-0.015520629
17	0xbd140d57	-0.036145534
18	0xbd924042	-0.071411625
19	0x3e992582	0.2991143
20	0xbe1b284e	-0.15152094
21	0x3e9830f4	0.29724848
22	0x3e790b37	0.24320684
23	0x3d833563	0.06406667
24	0xbd800341	-0.06250621

tfeb.5.running_mean f4 [25]
0	0xbeefbb67	-0.46822664
1	0xbf787274	-0.9704964
2	0xbd6d5bf0	-0.057949007
3	0x3d63e180	0.055634975
4	0xbf23667d	-0.6382826
5	0xbec6f1bf	-0.38856313
6	0xbef24d92	-0.47324806
7	0xbeb79c29	-0.35861328
8	0xbefd280c	-0.49444616
9	0xbed53f2c	-0.4164976
10	0xbeea273c	-0.45733058
11	0xbee52f61	-0.4476271
12	0x3dda1076	0.10647671
13	0xbe8e5e08	-0.27806115
14	0xbec1f8ee	-0.3788523
15	0xbe17d6c4	-0.1482802
16	0xbf17e538	-0.59334135
17	0xbddbe524	-0.107370645
18	0xbed69de8	-0.41917348
19	0xbeb6f106	-0.3573076
20	0xbd82785e	-0.063706145
21	0xbf1eaa10	-0.61978245
22	0xbe1213c2	-0.1426535
23	0xbe6befe7	-0.23040734
24	0x3df5bf24	0.11999348

tfeb.5.running_var f4 [25]
0	0x3e304a53	0.17215852
1	0x3e1e568a	0.154627
2	0x3df89944	0.12138608
3	0x3d1e926c	0.038713858
4	0x3e43ee54	0.19133884
5	0x3dd7f938	0.105455816
6	0x3db1ba1e	0.08678077
7	0x3d64fa94	0.055903032
8	0x3e5f3826	0.21798763
9	0x3d80f576	0.06296818
10	0x3e0a9400	0.1353302
11	0x3e7ef0a9	0.24896492
12	0x3dc1101e	0.09426902
13	0x3dd14fd8	0.10220307
14	0x3da4651a	0.08027096
15	0x3dd0856d	0.10181699
16	0x3da1837d	0.078864075
17	0x3cd079aa	0.025448639
18	0x3de35e15	0.11101929
19	0x3da4da70	0.08049476
20	0x3dd81048	0.105499804
21	0x3e621180	0.22076988
22	0x3dfc927f	0.123326294
23	0x3c614aec	0.013750773
24	0x3cfe94cc	0.031076811

tfeb.7.weight f4 [28, 25, 3, 3]
0	0x3cb92dfd	0.022604937
1	0x3cad4b2b	0.021154007
2	0x3d2b31e2	0.04179562
3	0x3cdbe5dd	0.026843006
4	0x3c7fd95d	0.015615788
5	0x3bb3dbed	0.0054888637
6	0x3c244a5f	0.010027497
7	0x3d116eed	0.035506178
8	0x3cf33fbb	0.029693475
9	0x3bd95c0c	0.0066332873
10	0xbc827b47	-0.015927924
11	0xbcd45d26	-0.025923323
12	0x3d9962c8	0.07489544
13	0x3dc92e9e	0.09823345
14	0x3d888d06	0.06667523
15	0x3d0cba1b	0.03435717
16	0x3c793b62	0.015211912
17	0xbca18239	-0.019715415
18	0xbcfe4ed3	-0.031043446
19	0xbc67325f	-0.0141111305
20	0xbd060fbc	-0.03272985
21	0xbdebe157	-0.115175895
22	0xbdae0305	-0.0849667
23	0xbd85ec40	-0.06539202
24	0xbcd964c0	-0.0265373
25	0x3c701fe4	0.014656041
26	0x3d0c9b9f	0.0343281
27	0xbd17f40b	-0.037097972
28	0xbcded475	-0.027200917
29	0xbd0f7e25	-0.03503241
30	0xbd1ef1f7	-0.038804974
31	0xbd46919d	-0.04847871
32	0xbca13c6c	-0.019682132
33	0xbbdd320c	-0.006750351
34	0xbcb06711	-0.02153352
35	0x3da790a8	0.08181888
36	0x3bb98fbc	0.0056628864
37	0x3d2bee4d	0.04197531
38	0x3d943c5d	0.07238076
39	0x3d1bb75f	0.038016673
40	0x3d7dcb90	0.06196171
41	0x3d9b1c82	0.07573797
42	0x3b4a609d	0.003088034
43	0x3cd423c9	0.02589597
44	0x3d4f39fc	0.050592408
45	0xbd8fbb8c	-0.070181936
46	0xbd5194db	-0.05116735
47	0xbb90a8e0	-0.0044146627
48	0xbc87dc8f	-0.016584663
49	0x3ce49967	0.02790518
50	0x3cb738d0	0.022365957
51	0xbd1a7f84	-0.037719265
52	0x3c8ea1dc	0.017411165
53	0x3c87ed09	0.01659252
54	0xbde0d1cb	-0.10977515
55	0xbd175a22	-0.03695119
56	0xbd569d2b	-0.05239598
57	0x3bd31826	0.0064420877
58	0xbbec1de6	-0.0072057126
59	0xbd4b2524	-0.049595967
60	0x3c24eecd	0.0100667
61	0x3d17b3dd	0.037036765
62	0xbaf72441	-0.0018855409
63	0xbc5d8781	-0.013521076
64	0xbc75dffa	-0.015007013
65	0xba0c7893	-0.0005358543
66	0x3c22ed31	0.009944246
67	0x3d5ce246	0.05392673
68	0x3cee5f65	0.029098222
69	0x3b1f9b22	0.002435394
70	0x3cc93027	0.024559094
71	0x3c519541	0.012791933
72	0xbd37745b	-0.0447887
73	0xbc2ab1ba	-0.01041835
74	0xbd0e4650	-0.034735024
75	0x3d2ae3b9	0.04172108
76	0x3decd4b7	0.1156401
77	0x3d97d7a2	0.074141756
78	0x3c06905f	0.008213132
79	0x3d35ef1d	0.04441749
80	0x3d4b4087	0.049622085
81	0x3c26e2d4	0.010185916
82	0x3be95703	0.0071209683
83	0x3c95152d	0.018198574
84	0x3bd7150a	0.0065637873
85	0x3ca653a1	0.02030355
86	0x3c41be14	0.011825103
87	0x3c865827	0.016399456
88	0x3cdc2437	0.026872737
89	0x3c552a59	0.013010585
90	0xbd01dcf5	-0.03170486
91	0xbcd22dd0	-0.02565661
92	0xbd827338	-0.063696325
93	0x3d890a15	0.06691376
94	0x3db0d597	0.08634489
95	0x3d829bdd	0.06377385
96	0x3cd070e0	0.025444448
97	0x3b706913	0.0036683723
98	0xbd6b6545	-0.057469625
99	0xbadc1c9b	-0.0016793193
100	0x3d357b1b	0.044306856
101	0x3d2c809f	0.04211485
102	0x3cc605bd	0.024172658
103	0x3daff71f	0.085920565
104	0x3d1fe572	0.039037175
105	0xbd2d904c	-0.04237394
106	0xbb06d706	-0.0020574941
107	0xbd71b42a	-0.05900971
108	0xbd0be9c2	-0.034158476
109	0xbbbdec55	-0.0057959952
110	0xbbc6010f	-0.0060426067
111	0xbd0376ca	-0.032095708
112	0xbcebfa35	-0.028805831
113	0xbc089c9b	-0.008338119
114	0x3b53dcd5	0.003232767
115	0xbd084674	-0.033270314
116	0x3d33562a	0.043783344
117	0xbca1639c	-0.019700818
118	0xbc74f88f	-0.014951839
119	0x3bce17d1	0.00628946
120	0x3bdb12c3	0.006685586
121	0xbc045579	-0.008077019
122	0xbcc37917	-0.023861451
123	0x3ca18177	0.019715054
124	0xbb0c1169	-0.0021372682
125	0xbd19bdc0	-0.037534475
126	0xbc9f0c89	-0.019415157
127	0xbcc0a777	-0.023517353
128	0xbb0fae44	-0.0021923939
129	0xbcdf9955	-0.027294794
130	0xbc9635a0	-0.018336117
131	0xbcba2e52	-0.022727165
132	0x3d4290ee	0.047501497
133	0x3d97d6ce	0.074140176
134	0x3d836d17	0.064172916
135	0x3d99509e	0.0748608
136	0x3d8305e5	0.06397609
137	0x3d16f0d7	0.036850777
138	0xbb886420	-0.0041623265
139	0x3bb43d96	0.0055005057
140	0x3d2ef7fa	0.042716958
141	0xbd9f7abd	-0.07787082
142	0xbd9c4417	-0.076301746
143	0xbd07cd1f	-0.033154603
144	0xbd422f4f	-0.0474084
145	0xbce678cf	-0.028133778
146	0xbc3e881f	-0.0116291335
147	0x3be8fdbb	0.007110325
148	0x3a798524	0.00095184357
149	0xbc028418	-0.007966064
150	0xbab8db3e	-0.0014103425
151	0x3ccfac42	0.025350694
152	0x3d10fc70	0.035396993
153	0x3bbc99d1	0.005755641
154	0x3ca8d26f	0.020608155
155	0x3d3de052	0.046356507
156	0xbcaede14	-0.02134613
157	0xbccf6eea	-0.025321443
158	0x3bb52145	0.0055276477
159	0xbbf6c40b	-0.0075306944
160	0xbc67c1e1	-0.014145345
161	0xbbd4de8f	-0.0064962576
162	0xbc26e8e7	-0.010187364
163	0xbca90d2f	-0.02063617
164	0xbce004eb	-0.027346095
165	0xbb6050b0	-0.003422778
166	0x3d287fb7	0.041137423
167	0x3cee7a68	0.029111102
168	0x3d0a2a3b	0.03373168
169	0x3d85f782	0.06541349
170	0x3d1f25af	0.038854297
171	0x3d0d7f09	0.03454498
172	0x3c6e4b00	0.014544249
173	0x3ce2b00b	0.027671834
174	0xbb256c9c	-0.0025241738
175	0xbcd20ba1	-0.02564031
176	0x3d0804e4	0.03320779
177	0xbc1edc5b	-0.0096960915
178	0xbcf5add9	-0.029990124
179	0x3c55d1b7	0.013050488
180	0xbcdfe75a	-0.027331997
181	0xbc204c4c	-0.009783816
182	0x3cc5009d	0.024048144
183	0xbd228819	-0.039680574
184	0xbd6580c4	-0.056031004
185	0xbd731cd4	-0.059353665
186	0x3bfc7a62	0.007705019
187	0xbc096118	-0.008384965
188	0xbce17d16	-0.027525466
189	0xbd6c41eb	-0.05768005
190	0xbceeafcf	-0.029136566
191	0xbb1c45ad	-0.002384524
192	0x3d8a5165	0.06753806
193	0x3daf978a	0.08573826
194	0x3dcbc118	0.09948939
195	0xbd06ff2e	-0.032958202
196	0xbbe74f09	-0.0070589823
197	0x3d538c87	0.05164769
198	0x3d079ac6	0.033106588
199	0x3d0b81b8	0.034059256
200	0x3cd54ad7	0.026036663
201	0xbd416608	-0.047216445
202	0xbd854801	-0.06507874
203	0xbda10497	-0.078622036
204	0x3da92669	0.08259279
205	0x3dc516d3	0.09623494
206	0x3daf164e	0.08549176
207	0x3b96a15a	0.0045968713
208	0xbb8a8ea3	-0.0042284294
209	0xbbb465c8	-0.0055052973
210	0x3ce3bc07	0.02779962
211	0x3ccbfb73	0.024900174
212	0x3d1b2e29	0.03788582
213	0x3c42a08f	0.0118791
214	0xbc2ce695	-0.010553022
215	0x3c364f00	0.0111272335
216	0xbc1beb97	-0.009516618
217	0xbcc34acf	-0.023839382
218	0x3a4635c0	0.000756111
219	0x3cbdfa1e	0.023190554
220	0x3ccd3e3b	0.025054088
221	0x3d89cac1	0.06728125
222	0xbcb4ec50	-0.022085339
223	0xbd0207c8	-0.031745702
224	0xbc3c5295	-0.011494298
225	0x3da533f3	0.08066549
226	0xbd40bf52	-0.047057457
227	0xbd7acf5d	-0.061232913
228	0x3d329831	0.043602172
229	0xbe0194d6	-0.12654433
230	0xbe016dee	-0.12639591
231	0x3e2482f3	0.16065578
232	0xbd41e91f	-0.047341462
233	0xbd8bffe3	-0.06835916
234	0x3d0e98ea	0.0348138
235	0x3c7f2c6f	0.015574559
236	0x3d56ac12	0.052410193
237	0x3dad08b7	0.08448928
238	0x3d62d70d	0.05538087
239	0x3c0673ae	0.008206291
240	0x3d37ac66	0.044842146
241	0xbba00cbc	-0.0048843306
242	0xbcc9bebb	-0.02462708
243	0xbd14a2c9	-0.036288057
244	0x3dab28e3	0.08357408
245	0x3d4f74a3	0.050648343
246	0xbd4690fd	-0.048478115
247	0xbd6e45bf	-0.058171984
248	0xbd7c1270	-0.06154102
249	0xbcca498e	-0.024693277
250	0xbd86f6b6	-0.06590025
251	0xbe1e92a3	-0.15485625
252	0x3cc704be	0.024294253
253	0xbc7ce979	-0.015436524
254	0xbdabb014	-0.083831936
255	0xbd7bc655	-0.06146844

tfeb.8.weight f4 [28]
0	0x3e7dbd59	0.24779262
1	0x3ef4cafa	0.4781111
2	0x3e7afbc8	0.2451011
3	0x3eb08609	0.3447726
4	0x3ed85631	0.4225326
5	0x3eb5c82b	0.3550428
6	0x3e949793	0.29021892
7	0x3e754b4c	0.23954505
8	0x3e2c07f0	0.16799903
9	0x3ed77d19	0.4208763
10	0x3e94d8a6	0.2907154
11	0x3ed88fd2	0.42297226
12	0x3e975917	0.29560158
13	0x3e7ade26	0.24498805
14	0x3e6c3843	0.23068337
15	0x3eb55a1e	0.35420316
16	0x3ec58509	0.3857806
17	0x3efb1083	0.49036035
18	0x3ed4c321	0.41555122
19	0x3ec94263	0.39308462
20	0x3f01a966	0.50649107
21	0x3eb01c13	0.3439642
22	0x3e848719	0.2588432
23	0x3e979395	0.29604784
24	0x3ef6a136	0.4816987
25	0x3eb80fcb	0.3594955
26	0x3ec5c9f1	0.38630632
27	0x3e6c935f	0.23103093

tfeb.8.bias f4 [28]
0	0x3e13cb69	0.14433064
1	0xbdbd82d0	-0.09253466
2	0x3c8e4a61	0.017369451
3	0xbd335ef8	-0.04379174
4	0xbdae6fc9	-0.08517415
5	0x3c9f24c1	0.019426705
6	0x3c8cfef0	0.017211407
7	0x3db6efbb	0.08932444
8	0x3d367308	0.044543296
9	0xbd70b1bb	-0.058763247
10	0xbe1948c2	-0.14969161
11	0xbd95e812	-0.073196545
12	0xbcfdd6da	-0.030986238
13	0x3dd3a434	0.10334054
14	0x3e373495	0.17891152
15	0xbd3d0d1c	-0.04615508
16	0xbdf33f83	-0.11877348
17	0xbdb22c83	-0.08699896
18	0xbd6b2ea6	-0.057417534
19	0xbd97780e	-0.073959455
20	0xbe37bd08	-0.17943203
21	0xbd0be3da	-0.034152843
22	0x3da8e8de	0.08247541
23	0xbc9348d2	-0.01797906
24	0xbd18888c	-0.037239596
25	0xbd57f3ed	-0.05272286
26	0xbc926dbf	-0.017874597
27	0x3de7902e	0.11306797

tfeb.8.running_mean f4 [28]
0	0x3e5768dc	0.21036094
1	0xbe986f1e	-0.29772276
2	0xbe19742f	-0.14985727
3	0xbdafc167	-0.085818104
4	0xbebcc0b6	-0.36865777
5	0x379d30a2	1.8738505e-05
6	0xbe8cadbd	-0.27476302
7	0xbe975096	-0.2955367
8	0xbd93e8da	-0.07222147
9	0x3d98c8ea	0.07460196
10	0x3ddef888	0.10887247
11	0x3e2793ce	0.16364977
12	0xbe0666fb	-0.13125221
13	0x3cba0029	0.022705154
14	0x3df957e2	0.121749654
15	0xbee552f4	-0.4478985
16	0xbe8f54ff	-0.27994534
17	0xbccfa9e4	-0.025349565
18	0xbe45661b	-0.19277231
19	0x3d764f9e	0.060134523
20	0xbe858837	-0.26080486
21	0xbe775fd6	-0.24157652
22	0xbf2d2cfc	-0.67646766
23	0xbe67edb6	-0.22649273
24	0xbe0e43d7	-0.13893066
25	0xbdacbd51	-0.08434547
26	0xbed23ae9	-0.4106057
27	0x3ee1196a	0.43964702

tfeb.8.running_var f4 [28]
0	0x3d007457	0.03136095
1	0x3e02ca0c	0.12772387
2	0x3c8ac5ad	0.016939962
3	0x3d139163	0.036027323
4	0x3d9a03ac	0.075202316
5	0x3d143187	0.036180045
6	0x3ccb1872	0.02479193
7	0x3d2f4769	0.04279271
8	0x3c12fd1d	0.00897148
9	0x3dc2bf91	0.09509195
10	0x3cbc44b5	0.02298198
11	0x3d0d8072	0.034546323
12	0x3d9fb434	0.07798043
13	0x3d70f20c	0.058824584
14	0x3d6902ed	0.056887556
15	0x3d15e85d	0.036598552
16	0x3d6f4e13	0.058424067
17	0x3e17eceb	0.14836471
18	0x3deb256a	0.114817455
19	0x3d734fa7	0.059402134
20	0x3da8d182	0.082430854
21	0x3da09b1f	0.07842087
22	0x3d1aa0f4	0.037751153
23	0x3da02cac	0.078210205
24	0x3d6e44c8	0.058171064
25	0x3d208f93	0.039199423
26	0x3d0b35e5	0.033986945
27	0x3d4c3682	0.04985667

tfeb.11.weight f4 [32, 28, 3, 3]
0	0xbcc0d2f8	-0.023538098
1	0xbcf1c931	-0.02951488
2	0xbd05b31e	-0.032641523
3	0x3d04776b	0.03234045
4	0x3d1a8f49	0.037734304
5	0x3cb54684	0.022128351
6	0x3d8ddfb3	0.06927433
7	0x3d6b7723	0.057486665
8	0x3d48d5f5	0.04903217
9	0xbd0eabd4	-0.034831837
10	0x3bf52577	0.007481273
11	0xbbb0c38b	-0.0053944043
12	0x39da70c5	0.0004166422
13	0x3c2e6128	0.010643281
14	0x3cebc8c0	0.028782248
15	0xbcbed68e	-0.023295667
16	0xbbbf3baf	-0.0058359723
17	0x3cfb3315	0.030664006
18	0xbc8c8e11	-0.017157586
19	0xbcfca07d	-0.030838246
20	0xbcd42789	-0.025897758
21	0xbc82d89f	-0.015972434
22	0xbcb6bb0f	-0.022305993
23	0xbc8a65ad	-0.016894186
24	0x3cff03fd	0.031129831
25	0x3c96f57b	0.018427601
26	0x3cd2d5f2	0.025736783
27	0x3d08a69d	0.03336202
28	0x3cc51f11	0.024062665
29	0x3cf24bdd	0.02957719
30	0x3d26c128	0.040711552
31	0x3ca36612	0.019946132
32	0xbb575b2c	-0.003286074
33	0xbbaaae96	-0.0052088005
34	0x3c7e91cc	0.01553769
35	0xbcc5eaf4	-0.024159886
36	0x3cc63fef	0.024200408
37	0x3c836d85	0.016043434
38	0x3d19abb3	0.03751726
39	0x3ca419e2	0.020031873
40	0x3c04bed4	0.008102138
41	0x3cc68256	0.02423207
42	0xbccd69e9	-0.025074916
43	0xbd98f0c5	-0.07467798
44	0xbcb175c1	-0.021662595
45	0xbc8a2d03	-0.016867166
46	0xbca60cfa	-0.02026986
47	0xbc432dcc	-0.011912774
48	0x3cba8041	0.022766234
49	0x3c83f8d2	0.016109858
50	0xbc064edf	-0.008197515
51	0xbcb2ebf7	-0.021841032
52	0xbcbfae26	-0.02339847
53	0x3be3778c	0.0069417413
54	0x3c1dda57	0.009634576
55	0x3c7d8ee7	0.015475965
56	0x3c4f172e	0.012639804
57	0xbcbe87ea	-0.023258168
58	0xbca1478d	-0.019687438
59	0xbc8e5a2d	-0.017376984
60	0xbbc1ab5a	-0.0059103193
61	0xbc9f28e6	-0.019428682
62	0xbb91ccce	-0.0044494634
63	0xbd136591	-0.035985533
64	0xbc155b05	-0.009115939
65	0xbc8fe093	-0.01756314
66	0xbd7d6338	-0.0618622
67	0xbd0a479d	-0.033759702
68	0xbc89027c	-0.016724817
69	0xbcef71a3	-0.02922899
70	0xbc41af37	-0.01182156
71	0x3cc74d6c	0.02432891
72	0xbd037286	-0.03209164
73	0xbcfbcb02	-0.03073645
74	0xbcec6d0e	-0.028860595
75	0xbcaad0c8	-0.020851508
76	0xbcb2e393	-0.021837031
77	0xbc4a7e5e	-0.01235923
78	0x3b703548	0.0036652852
79	0x3b57fcca	0.003295707
80	0x3c29f387	0.010373003
81	0xbbca2880	-0.0061693788
82	0x3b9de52f	0.0048185806
83	0x3cf99a81	0.030469181
84	0x3c85fdfb	0.016356459
85	0x3d54a459	0.051914547
86	0x3cec8bc1	0.028875234
87	0xbb34e600	-0.002760291
88	0x3c920831	0.017826172
89	0x3d0e7066	0.03477516
90	0x3c417ca4	0.011809502
91	0x3c36ffbe	0.011169372
92	0x3c338522	0.010957034
93	0x3d1bf941	0.038079504
94	0x3d199d88	0.03750375
95	0x3c258699	0.010102891
96	0x3d038bbd	0.032115687
97	0x3d2ace5f	0.041700717
98	0x3d0a4325	0.03375544
99	0x3b8af77d	0.0042409287
100	0x3d2500ea	0.040284075
101	0x3caeb17a	0.021324862
102	0xbc459000	-0.012058258
103	0x3c4ad72e	0.012380404
104	0xbc98de81	-0.018660786
105	0x3cc4f4ce	0.024042513
106	0x3cb5da8e	0.022198942
107	0x3c9e610b	0.019333383
108	0xbd4241eb	-0.047426146
109	0xbd74cf27	-0.05976787
110	0xbd5e6ba3	-0.05430187
111	0xbd90e298	-0.07074469
112	0xbd9f3d28	-0.077753365
113	0xbd8b1bef	-0.06792437
114	0x3cca3594	0.024683751
115	0x3d2254ab	0.039631527
116	0x3d5a2755	0.053260166
117	0xbcdd16e9	-0.026988463
118	0xbcba5fb7	-0.022750719
119	0xbc6e9d75	-0.014563908
120	0x3c525498	0.0128375515
121	0x3c411fde	0.011787383
122	0x3c94657d	0.0181148
123	0x3bf436e9	0.007452835
124	0x3cd129c3	0.025532609
125	0x3d2af3c9	0.041736398
126	0xbd9629bb	-0.07332178
127	0xbd9ca5cc	-0.07648811
128	0xbda609f3	-0.081073664
129	0x3cc405fb	0.023928633
130	0x3ca47e30	0.020079702
131	0x3d1f4b84	0.038890377
132	0x3d2e5c2b	0.042568367
133	0x3ce28e8c	0.027655862
134	0x3d3265ea	0.043554224
135	0x3cc399e4	0.023877092
136	0x3d3063f5	0.043064076
137	0x3d0abf1a	0.033873655
138	0x3b62b6fb	0.0034593928
139	0x3c74128e	0.014897002
140	0x3c93be38	0.01803504
141	0x3ca7e000	0.020492554
142	0xbbaab478	-0.005209502
143	0x3b346262	0.002752446
144	0xbd227dfb	-0.039670926
145	0x3cf80e1a	0.030280162
146	0x3bae7571	0.0053240587
147	0xbd3ca746	-0.046057962
148	0x3d23a0d4	0.0399483
149	0x3ca4fe73	0.020140862
150	0xbd47ff68	-0.04882756
151	0x3cbea603	0.02327252
152	0x3d619228	0.055071026
153	0xbd3302af	-0.04370373
154	0xbcfd1e64	-0.03089828
155	0xbd05cebc	-0.03266786
156	0xbd3f2c4d	-0.046673108
157	0x3d5c53ba	0.053790785
158	0x3d256e78	0.040388554
159	0xbd554b9b	-0.052074056
160	0x390a8ad9	0.0001321243
161	0x3cfcbd2a	0.03085192
162	0x3be755ac	0.0070597734
163	0x3baa9bff	0.0052065845
164	0x3c8399cb	0.016064545
165	0xbb8e309b	-0.0043392903
166	0xbce73b21	-0.028226437
167	0xbd40840e	-0.047000937
168	0xbc64e4c3	-0.013970557
169	0xbd121fd6	-0.035674892
170	0xbd151fbf	-0.03640723
171	0xbb5b349e	-0.003344811
172	0xbc12a34e	-0.008950068
173	0xbb990ded	-0.0046708495
174	0x3cee8d1c	0.02912002
175	0x3d1834ef	0.037159856
176	0x3d4a7cf1	0.04943556
177	0xbcc6b6f5	-0.024257163
178	0xbc66c296	-0.014084479
179	0xbc12b027	-0.008953131
180	0x3c5b1f34	0.013374139
181	0xbbd4c1ef	-0.0064928452
182	0x3b5b92db	0.003350428
183	0xbbabb4ae	-0.0052400446
184	0xbcb8e248	-0.022568837
185	0xbcec8155	-0.028870264
186	0xbcad96c4	-0.021190055
187	0xbd222b9f	-0.03959238
188	0xbd284122	-0.04107774
189	0xbd30aa5d	-0.04313122
190	0xbc9b2e09	-0.01894285
191	0xbc9764a7	-0.018480612
192	0xbcfd2e73	-0.030905938
193	0xbbb8e0f3	-0.0056420504
194	0x3cc4c925	0.024021694
195	0xbd2c24f7	-0.04202744
196	0xbc4fb788	-0.012678035
197	0x3c2b163d	0.010442314
198	0xbcb41594	-0.021982946
199	0x3cc57aea	0.024106462
200	0x3be81485	0.0070825242
201	0xbd84a43d	-0.064766385
202	0xbc8b694f	-0.017017988
203	0xbd07dab2	-0.03316755
204	0xbc8d5012	-0.017250095
205	0x3c72257c	0.014779445
206	0x3caa35e4	0.02077765
207	0xbd4ba748	-0.04972008
208	0xbd04ed4b	-0.032452863
209	0xbc8f38a6	-0.017483067
210	0xbccf9951	-0.025341662
211	0xbbdb602d	-0.0066948147
212	0xbc8434b0	-0.016138405
213	0xbccb5d90	-0.024824888
214	0xbb6b7e07	-0.0035933272
215	0x3b697528	0.003562281
216	0x3b45b6f9	0.0030168875
217	0xbb7fcf3a	-0.0039033429
218	0x3c61c72c	0.013780396
219	0xbb2c2987	-0.002626987
220	0xbc85ea81	-0.016347172
221	0xbc9b3ebd	-0.018950814
222	0xbdddeff1	-0.10836781
223	0xbdbede4c	-0.093197435
224	0xbdb03f7d	-0.086058594
225	0xbc28e53b	-0.010308559
226	0xbbbd50b4	-0.005777443
227	0x3b715892	0.0036826474
228	0xbb3f0529	-0.0029147363
229	0x3bae0a47	0.0053112837
230	0x3c0fe156	0.008781752
231	0x3cb385b2	0.021914337
232	0x3d30f41c	0.04320155
233	0x3d62b37d	0.055346955
234	0x3b8679a2	0.004103855
235	0x3c17cdce	0.009265376
236	0x3c101a76	0.008795371
237	0x3ba8fd85	0.005157175
238	0x3c5075a9	0.012723365
239	0xbb110151	-0.0022126029
240	0xbc41bfc9	-0.01182551
241	0x3c03aae1	0.008036346
242	0x3c04b68b	0.008100162
243	0xbd0aafad	-0.033858944
244	0xbd165134	-0.036698535
245	0xbd4a22a0	-0.049349427
246	0x3d5d02f5	0.0539579
247	0x3d7dd210	0.06196791
248	0x3d8b63e4	0.06806162
249	0x3d8112cd	0.06302414
250	0x3d76b89b	0.060234647
251	0x3d948adc	0.07253048
252	0xbe0b0545	-0.13576229
253	0xbd8f7b0b	-0.070058905
254	0x3c1fec9c	0.009761002
255	0xbe1819d7	-0.14853607

tfeb.12.weight f4 [32]
0	0x3e9b99ef	0.3039088
1	0x3eb7ff53	0.35936984
2	0x3eb15f68	0.34643102
3	0x3e93c5ba	0.2886179
4	0x3e79f966	0.24411544
5	0x3ee6cde9	0.45078972
6	0x3ebf27e2	0.37335116
7	0x3ed7ed95	0.42173448
8	0x3f161fc1	0.586422
9	0x3e9d4168	0.30713964
10	0x3eb2c135	0.3491303
11	0x3eca9918	0.39569926
12	0x3ebb55dc	0.36588943
13	0x3e95853b	0.2920321
14	0x3ebb049b	0.3652695
15	0x3e86ba28	0.263139
16	0x3ec5fba9	0.38668564
17	0x3e8deceb	0.27719817
18	0x3ea10c9f	0.31454942
19	0x3e9c4371	0.30520204
20	0x3eb5dd5d	0.3552045
21	0x3ebc61b4	0.36793292
22	0x3ec401be	0.3828258
23	0x3e90fd8e	0.28318447
24	0x3e89992c	0.26874673
25	0x3ef17abc	0.4716395
26	0x3e2f71e4	0.1713329
27	0x3e81899b	0.25300297
28	0x3ea6d778	0.32586265
29	0x3ee578e5	0.44818798
30	0x3ed07add	0.40718737
31	0x3f12735f	0.5720729

tfeb.12.bias f4 [32]
0	0xbe57c86a	-0.21072546
1	0x3d553996	0.05205687
2	0xbe1184b0	-0.14210773
3	0xbd3e8d1a	-0.046521284
4	0xbdae2496	-0.08503072
5	0xbe55dfcc	-0.20886153
6	0xbda7452b	-0.081674896
7	0xbe2703dd	-0.16310067
8	0xbece0d53	-0.4024454
9	0x3d6a4ad4	0.057200268
10	0xbe0ef2e8	-0.13959849
11	0xbd9e6063	-0.07733228
12	0xbdeb213f	-0.114809506
13	0x3ab48b4e	0.0013774426
14	0xbe27bca1	-0.1638055
15	0xbdb5cf9f	-0.08877491
16	0xbe3141ab	-0.17310207
17	0x3e266ee7	0.16253243
18	0xbd95615d	-0.07293961
19	0x3d3738ce	0.044731908
20	0xbddfbc14	-0.10924545
21	0xbdebb39e	-0.11508869
22	0xbd856bc1	-0.06514693
23	0x3e0f64f1	0.1400335
24	0xbd15edf8	-0.036603898
25	0xbd83a327	-0.06427603
26	0xbe0d938f	-0.1382582
27	0xbd909f3a	-0.0706162
28	0xbd9733bd	-0.07382915
29	0xbe2f7475	-0.17134269
30	0xbe35675b	-0.17715208
31	0xbe438f01	-0.1909752

tfeb.12.running_mean f4 [32]
0	0xbd8a8869	-0.067642994
1	0xbf0b34f1	-0.5437766
2	0xbe88f185	-0.26746765
3	0x3e086e55	0.13323338
4	0xbe096c2d	-0.13420172
5	0xbf6478cc	-0.8924682
6	0xbe30dbb2	-0.17271307
7	0xbedbaed9	-0.42906836
8	0xbf339be1	-0.7015973
9	0xbe010bca	-0.12602153
10	0xbe7772de	-0.24164912
11	0xbf1e0554	-0.6172688
12	0xbec3c8e1	-0.38239196
13	0xbf182f42	-0.5944711
14	0xbdb5fc28	-0.088859856
15	0xbd6f546a	-0.058430113
16	0xbea21fd6	-0.31664914
17	0xbe0b845f	-0.13624714
18	0xbe0f1782	-0.13973811
19	0xbeecca57	-0.46248123
20	0xbeb3b8ce	-0.35101932
21	0xbf192124	-0.59816194
22	0xbeae466e	-0.3403811
23	0xbee75524	-0.45182145
24	0xbd94e775	-0.072707094
25	0xbf417f6e	-0.7558507
26	0xbe228f06	-0.15874872
27	0xbd932829	-0.07185394
28	0xbdf15b52	-0.11784996
29	0xbec83697	-0.3910415
30	0xbe8b29b2	-0.27180248
31	0xbf4b92b6	-0.7952074

tfeb.12.running_var f4 [32]
0	0x3d718bf2	0.058971353
1	0x3eb56a1c	0.35432518
2	0x3e0b45aa	0.13600793
3	0x3df65e65	0.12029723
4	0x3cf25207	0.02958013
5	0x3eb63947	0.35590574
6	0x3e4cb226	0.19989833
7	0x3e39fc4e	0.18162653
8	0x3e945eb1	0.28978494
9	0x3e198c75	0.14994986
10	0x3e5ebabc	0.21750921
11	0x3e96090c	0.29303777
12	0x3e21e645	0.15810497
13	0x3e1a7e21	0.15087177
14	0x3df11fc3	0.11773636
15	0x3df55a3d	0.11980102
16	0x3ddb4185	0.10705856
17	0x3eae4b3d	0.34041777
18	0x3ddbf9fb	0.10741039
19	0x3e395d0d	0.18101902
20	0x3dcce778	0.10005087
21	0x3e470004	0.194336
22	0x3e9256c6	0.28581828
23	0x3ea263b8	0.31716704
24	0x3cd46d73	0.025931096
25	0x3f0f4bca	0.5597502
26	0x3c85ed5d	0.016348535
27	0x3dec4fda	0.11538668
28	0x3d906fd1	0.07052577
29	0x3e97d670	0.2965579
30	0x3e2c1a44	0.16806895
31	0x3f01322b	0.50467175
