trained_models/step_5_retrain_after_step_4/retrain_4C_after_2nd_pruning_prunratio0.85_2024060419/retrained_4Cmodel_ratio85.0_vaacc93.47826385498047_tracc_80.3453947368421@933epoch_20240604234658.pt (torch, 309156 bytes, 62 tensors)

sfeb.0.weight f4 [8, 1, 1, 9]
000000 0d 5a 7b 3e 59 06 12 3e 63 84 8d 3e a1 ef af 3e
       0.2454607 0.14260234 0.27640066 0.3436251
000010 56 c7 ba 3d 76 83 81 be d4 bd ef be ef 62 90 be
       0.091200516 -0.2529561 -0.46824515 -0.2820048
000020 db 00 88 bd 5d fb 05 3c 1c 64 bb 3c 64 3f 5d bd
       -0.06640788 0.008177605 0.022874884 -0.054015532
000030 14 fc 91 be 3d 65 67 3d 05 b1 44 be a7 dd 92 be
       -0.28512633 0.056493033 -0.19208153 -0.28684732
000040 18 44 b6 3e b6 39 0e 3f 0c b4 32 be 7c 4d 65 be
       0.35598826 0.5555681 -0.17451495 -0.22392839
000050 68 bb 49 3e df 77 89 3d ca f4 36 be a1 4f 60 be
       0.19700396 0.06712317 -0.17866817 -0.21905376
000060 5b 24 02 3e 0a 54 a0 be c7 3b d2 be 85 b8 2d 3f
       0.12709181 -0.31314117 -0.41061231 0.6785968
000070 4d 61 ba 3e 27 8b 36 bd c6 bb fc bb 0a c9 24 be
       0.3640236 -0.0445663 -0.007712814 -0.16092315
000080 46 dd 81 3c da 14 00 3e 6c 34 0c bc 97 ac 9d 3d
       0.015852582 0.12507954 -0.00855742 0.076989345
000090 6e a9 1b bf 97 ce a9 be a7 54 7c 3d c8 a2 ad 3d
       -0.60805404 -0.33165428 0.06160417 0.08478314
0000a0 03 8d 93 3e 69 d9 47 3e d6 7d 39 be 7b 05 2b 3d
       0.2881852 0.19516529 -0.18114409 0.041753273
0000b0 c3 e7 f4 bd c9 ff 9a be 2e e8 0a bd f0 58 3f 3e
       -0.119582675 -0.30273274 -0.03391283 0.1868627
0000c0 7c 6d aa 3d 20 38 d4 be 06 eb b5 3d 21 2b 14 3f
       0.08321664 -0.4144907 0.08882718 0.5787831
0000d0 9a 16 05 bd d7 51 f9 be 8a fd 35 bd 44 7e 51 be
       -0.032492258 -0.4869525 -0.044431247 -0.20458323
0000e0 0c 49 6a 3e b1 04 9f bd 3e 2d e9 be fa a9 f7 3e
       0.22879428 -0.07764567 -0.4554233 0.4837187
0000f0 1b 46 0e 3c 79 0f dc be 28 70 d8 3e 4d 1f 44 3d
       0.008683707 -0.42980555 0.42273068 0.047881413
000100 bd 14 62 3c 98 3a 43 be e6 cb fd bd 46 5e 31 3e
       0.01379889 -0.1906532 -0.12392406 0.17321119
000110 e6 90 5d 3e 31 20 8f bc 99 04 a1 3e 0e f6 0c 3f
       0.21637306 -0.017471405 0.3144882 0.5506295

sfeb.1.weight f4 [8]
000000 b8 54 69 3f 0c b2 44 3f ca da 30 3f 22 20 3f 3f
       0.91144896 0.7683418 0.69083846 0.74658406
000010 a9 b0 45 3f 61 f3 03 3f 07 12 ea 3e b2 05 2f 3f
       0.77222687 0.5154324 0.4571688 0.68368065

sfeb.1.bias f4 [8]
000000 27 3c 1b 3d 3d a9 06 3d ed 4e 52 3d 16 05 66 3e
       0.037899163 0.032876242 0.0513448 0.22462878
000010 a5 97 66 3d 7b b6 41 3e 23 c4 88 3d d5 2b 56 3d
       0.056296963 0.18917267 0.06678035 0.052287895

sfeb.1.running_mean f4 [8]
000000 82 12 2d 36 ce 98 5d 37 f0 bf b1 b8 1c f9 a3 38
       2.5789782e-06 1.3208204e-05 -8.475769e-05 7.818846e-05
000010 ff 37 33 b8 e3 42 d0 b7 c0 f3 ae b6 ea 85 9a 38
       -4.2729076e-05 -2.4826679e-05 -5.2139803e-06 7.368236e-05

sfeb.1.running_var f4 [8]
000000 62 f2 b7 3c fd 4e 49 3c 35 07 1c 3c 22 69 94 3c
       0.022454444 0.012286899 0.009523203 0.018116537
000010 df aa 8e 3c 70 23 f1 3b 2b 17 d4 3a 16 fd 5a 3c
       0.017415462 0.007358961 0.0016181221 0.013366004

sfeb.3.weight f4 [32, 8, 1, 5]
000000 a7 72 55 3d 97 1f 35 be 83 7a 9b bc d0 30 49 3d
       0.052111294 -0.17687832 -0.018979317 0.049118817
000010 41 3d 10 be c9 6d a0 bd 4b 35 ee bd 63 f6 60 bd
       -0.14085867 -0.0783344 -0.116312586 -0.054922473
000020 26 85 ca bb 52 22 93 bc d9 2e 6f 3e f0 8c 4b 3e
       -0.0061804233 -0.017960701 0.23357715 0.19877982
000030 79 ff 71 3e cd ed 0b 3e 76 7e aa 3d bd d0 e2 bd
       0.23632611 0.13664933 0.08324902 -0.1107497
000040 e4 08 22 bd be dc 83 be 5f da 51 bd e9 5b e1 bd
       -0.03955926 -0.2575435 -0.051233646 -0.110038586
000050 88 99 24 3e 2b 0f 32 3e 01 83 8c 3d 2f f4 31 3e
       0.16074193 0.17388599 0.068609245 0.17378305
000060 ac 6c 15 3e 33 50 66 3d 8d 59 93 bc 4f d5 6f bd
       0.14592236 0.056228828 -0.017987037 -0.058553036
000070 a4 62 88 bb bc 8e cc 3c e6 cc ed 3b d8 c4 b0 bc
       -0.0041621495 0.024970405 0.007257092 -0.021578237
000080 2b 1d 00 3d a5 b2 17 3d 6e 42 18 bc 0f 7c 71 bd
       0.031277817 0.037035603 -0.009293182 -0.058956202
000090 49 83 c0 bd 11 7e 16 be fe c8 e4 bc 91 37 32 bd
       -0.09400041 -0.14696528 -0.027927872 -0.043510024
0000a0 58 10 2f be 1e 45 1e be 7e a9 19 bd 22 c4 80 3d
       -0.17096078 -0.15456054 -0.037515156 0.06287409
0000b0 c5 a1 b2 3d 4c 3f 58 bc f2 27 14 be 6b 20 ea bd
       0.08722261 -0.013198685 -0.14468363 -0.114319645
0000c0 c3 83 05 bd a3 5b 81 bd f9 e0 ac 3d 43 79 9f 3d
       -0.03259636 -0.063163064 0.08441348 0.07786801
0000d0 6e 71 8d 3d 8e 7a 69 3e 46 30 92 3e e0 d5 62 be
       0.069064006 0.22800657 0.28552455 -0.221519
0000e0 b1 9d da bd 02 25 bd bd 1b df 58 bc e0 26 ee bc
       -0.106746085 -0.09235574 -0.013236786 -0.029071271
0000f0 b9 1d 17 3e 22 69 08 3e 8d c0 39 3c f3 10 ad bd
       0.14757432 0.13321355 0.011337412 -0.084504984
000100 63 06 31 3c 15 ff 05 bc 53 d5 dd 3d 7c f4 d1 bc
       0.010804745 -0.008178492 0.10831704 -0.025629275
000110 4a d8 ef ba 5a bd 92 3c 4d 0a 38 bc 85 6c 50 bd
       -0.0018298712 0.017912555 -0.011232925 -0.050884742
000120 85 bc 5f bc 58 2b d2 bd d2 43 17 bd 02 f3 77 bd
       -0.013655786 -0.102621734 -0.036929913 -0.060534485
000130 c7 66 88 bd 8e 63 7c be 4e 4a 2d be 62 52 d3 bd
       -0.06660228 -0.24647352 -0.16922876 -0.10318448
000140 7f 62 06 be db c6 54 be 71 b0 f7 bc 71 70 a4 bc
       -0.13123511 -0.20778982 -0.030235501 -0.020073147
000150 b7 a7 c1 bd 53 e2 e0 bd 02 37 6c bd 3e e6 73 bd
       -0.09455817 -0.10980668 -0.057669647 -0.059545748
000160 bd e9 34 be 44 48 0e be d3 d0 13 3e 70 65 5d 3e
       -0.17667289 -0.13894755 0.14435129 0.21620727
000170 c6 04 02 3e 15 8d 3b 3e 23 6e 84 3e f9 68 3e be
       0.12697133 0.18315537 0.25865278 -0.18594731
000180 66 b6 ad bd b9 81 42 be 7e fc e0 bd 62 51 ba bd
       -0.08482055 -0.18994798 -0.10985659 -0.09097554
000190 2f 8e 3a bd 67 fa 39 3c 8f be 45 3d 41 d6 f7 3d
       -0.045545753 0.0113512045 0.048277434 0.121014126
0001a0 c2 9a 54 3d 7f 10 24 bd 86 f3 7e 3d 3a a8 4a bd
       0.0519054 -0.040054794 0.06224396 -0.04947684
0001b0 46 bd cc 3d c6 a1 18 3d c3 5f 38 bd b3 bd a8 bb
       0.099970385 0.037263654 -0.0450132 -0.005149567
0001c0 02 fd 49 bd 31 0b 83 bd 04 0a f2 bd e1 a8 12 be
       -0.049313553 -0.06398619 -0.118183166 -0.14322235
0001d0 c6 63 7e be 49 f6 84 be 30 45 fe bd a6 5b fa bd
       -0.24842748 -0.2596915 -0.1241554 -0.12224512
0001e0 3b 46 d2 bd e5 76 6b 3d e3 98 f8 bd 3d b9 8b bd
       -0.10267302 0.057486434 -0.12138536 -0.06822441
0001f0 e2 f0 67 be 06 31 f7 bd fe 48 e3 bc ad 25 6d 3d
       -0.22650483 -0.12069897 -0.027744766 0.05789726
000200 9e 5d 82 bc e9 c4 ab bd 4a 23 a2 be 9a 56 85 be
       -0.01591378 -0.08387167 -0.31667548 -0.26042634
000210 b1 f1 66 be 47 d0 65 be 5d 7e a8 be f7 ca d1 3d
       -0.22553135 -0.22442733 -0.32908908 0.102437906
000220 92 3b 52 3e 2d cb 8e 3e 66 fd 22 3e ea 9b f7 3d
       0.20530537 0.27889386 0.15916976 0.12090285
000230 ce 89 a0 bd 51 6d f0 bd 80 01 8c be 67 0c bb bd
       -0.07838784 -0.117396004 -0.27344894 -0.09133225
000240 fc 78 cf bd bd 91 15 3d 07 6f 1c be 29 c6 10 be
       -0.10130498 0.03651594 -0.15276729 -0.14138092
000250 42 c5 39 be 87 ab 2b be eb 1c eb bd 08 57 34 be
       -0.18141654 -0.16764651 -0.11480125 -0.17611325
000260 50 91 6f be c4 c2 10 be ef 1b f9 bd b2 70 3a 3e
       -0.23395276 -0.14136797 -0.12163531 0.18207052
000270 21 18 52 3e 3d bd 72 3e 75 47 b9 3e a7 02 a2 3e
       0.20517017 0.23705001 0.3618733 0.3164265
000280 24 ef 0b be fe 4a b3 bd 0f 50 08 be 7a 04 cb bd
       -0.13665444 -0.08754538 -0.1331179 -0.09912963
000290 d4 bb 1b bd 24 75 a2 3d b9 74 bc 3c 62 41 19 3c
       -0.038020924 0.07932499 0.023004876 0.009353967
0002a0 f3 70 95 3d 46 c8 5e 3c 2b 12 f8 bd 3f 1e a6 bd
       0.07296934 0.013597554 -0.1211284 -0.08111238
0002b0 12 0c db bd 4d f8 36 be 46 c3 9f bd ec 13 48 be
       -0.106956616 -0.17868157 -0.07800917 -0.1953885
0002c0 5b dd 06 be ea c5 da bc d9 6c c4 bb e9 26 90 3d
       -0.13170378 -0.0267057 -0.005994421 0.070386715
0002d0 ce 8b d9 bd 2f 51 f1 bc ce 4c 50 3d d6 70 0c bd
       -0.10622369 -0.029457657 0.050854497 -0.034287296
0002e0 2e 64 b8 bd 5d 9b 0b bd 81 d8 fd bc 48 d5 dd 3c
       -0.09003483 -0.034083713 -0.030987026 0.02707924
0002f0 0a 50 5f bd 48 8f d6 bc 78 05 23 bd ea 2f 41 3c
       -0.05451969 -0.026191369 -0.039800137 0.011791209
000300 19 bb b1 bc 59 bb c9 ba 8e 4f 2f bd cf a9 81 bd
       -0.02169566 -0.0015390917 -0.04280048 -0.063312165
000310 29 16 ff 3c c0 4f c0 3d 1f 16 02 3e 84 5e 3f 3e
       0.031138496 0.09390211 0.12703751 0.18688399
000320 d0 df 4b bd cb a2 25 be 27 c2 31 be ad f1 4e be
       -0.04977399 -0.16175382 -0.1735922 -0.2020938
000330 65 98 bc bd 44 6e c4 3d c4 bd 67 3e 6a 9b d9 3d
       -0.092087545 0.09591344 0.22630984 0.10625346
000340 6b 81 8c 3d 34 fd 06 3e 4d f1 c4 3d 02 a7 4f bd
       0.06860622 0.13182527 0.09616337 -0.05069638
000350 7f 41 ff bc 8a c8 b6 bd fe f1 3f be 29 1d d4 bd
       -0.03115916 -0.089249685 -0.18744656 -0.10357124
000360 b7 85 6a be 5d 4c 5f be e2 73 95 bd 71 3a b6 3c
       -0.2290257 -0.21806474 -0.072974935 0.022244664
000370 1f 12 af bc 3f ff 4f 3c 18 f0 11 bc 24 60 2c 3e
       -0.021370945 0.012695133 -0.0089073405 0.1683355
000380 dd 12 db 3c 3a 0a 13 39 49 ad 26 3d 81 46 52 3c
       0.026742393 0.00014022822 0.0406926 0.012834192
000390 26 fd 3a 3d c2 6e 82 bd b0 10 9a 3d c0 83 7c 3d
       0.045651577 -0.063687816 0.07522714 0.061649084
0003a0 a2 25 9b 3d 45 4e 9f 3d 5e e8 38 bb 71 35 37 bd
       0.07575537 0.077786006 -0.0028214674 -0.0447287
0003b0 27 1b 41 bd 94 ba 3f 3d 2f 9b e1 3d ef a7 ee 3d
       -0.047145035 0.046808794 0.11015927 0.116531245
0003c0 6a a4 fd 3d 79 3e d3 3d 44 1f c3 3d a2 a0 b5 3d
       0.12384875 0.1031465 0.09527448 0.08868529
0003d0 fa 63 af 3d ee fc 24 be e7 51 40 be 04 2a 62 be
       0.08563991 -0.1611211 -0.18781243 -0.2208634
0003e0 4d b7 0c bd 33 82 1f bc 4a 08 a8 bc 7c f4 a1 3c
       -0.034354497 -0.009735632 -0.020511765 0.0197699
0003f0 7a 16 d8 3d 26 b2 b0 3d 7c 78 36 3e c0 2a 6e 3e
       0.10551162 0.08627729 0.17819399 0.23258495

sfeb.4.weight f4 [32]
000000 6c 62 3d 3f a9 80 d2 3e 3e c3 49 3f 59 bb 92 3f
       0.73978305 0.41113785 0.7881354 1.1463424
000010 68 7e a8 3e 62 ec ba 3e 57 f9 12 3f 69 78 15 3a
       0.3290894 0.3650847 0.5741171 0.00057018414
000020 85 06 dc 3e d5 5f 04 3f 22 9b 5d 3c 12 82 1d 3f
       0.42973724 0.5170873 0.013525756 0.61526597
000030 97 f2 16 3f 1e cf 3e 3f 76 3a 64 3f 31 45 40 ba
       0.5896391 0.74534786 0.89151704 -0.0007334529
000040 2f ee 11 3f c2 1d da 3e 26 b5 0d 3f 8b 50 80 39
       0.57004064 0.42600828 0.55354536 0.00024474072
000050 65 f5 02 3f ab 3c 0f 3f e6 be 33 3f 04 0c d8 3e
       0.5115569 0.55951947 0.7021316 0.42196667
000060 ba 4c 1d 3a a7 31 43 3a cf aa c5 3e fc 3c 05 3f
       0.0006000508 0.00074460584 0.3860688 0.5204618
000070 08 42 b7 3e 2d 50 0a 3f 99 01 d5 3e d4 7b ca 3e
       0.35792565 0.5402859 0.4160278 0.39547598

sfeb.4.bias f4 [32]
000000 9e cf 29 3e 52 6f 43 be 80 8f 0b be 6f 74 30 bd
       0.16583106 -0.19085434 -0.1362896 -0.04307979
000010 5a c1 74 bd dc 47 3d bc e5 48 08 3e e8 1f 84 bd
       -0.059754707 -0.011552777 0.13309057 -0.06451398
000020 86 90 e1 3c 43 2a 97 bd 8d f1 ba bc 0d b4 24 3d
       0.027534734 -0.07381108 -0.022820259 0.040210772
000030 24 da eb 3d 2e 62 8e 3d 93 b6 06 3d 9e 17 1c bd
       0.115162164 0.0695232 0.03288896 -0.03810846
000040 85 dc 86 bd f3 5a 92 3d 44 ea d3 bc 4d 66 ad bc
       -0.065850295 0.071462534 -0.025868542 -0.021166945
000050 ac 80 d4 3b db 03 18 be be bd bf bd 99 2d 1c 3d
       0.0064850654 -0.1484522 -0.09362362 0.038129423
000060 8a e5 8f bc dc 9b 9e bc bc 72 8a 3c 33 b7 34 bd
       -0.017565507 -0.019361429 0.016900413 -0.044120025
000070 bd a0 f5 bd f4 e9 9a bd e3 94 de bd 75 16 96 3d
       -0.11993549 -0.07564154 -0.10868242 0.07328502

sfeb.4.running_mean f4 [32]
000000 ab 9d 38 bd d5 46 53 be a0 11 c2 be e2 2f 72 be
       -0.04507224 -0.20632489 -0.37904072 -0.23651078
000010 8b b3 8e be 49 40 26 be 30 ec db bd 6e fd 32 3c
       -0.27871355 -0.1623546 -0.107384086 0.01092468
000020 5f 31 6c be a4 27 ee bd 70 d5 22 bd 00 ca 58 be
       -0.23065709 -0.116286546 -0.03975433 -0.21170807
000030 9b 24 65 bd 56 4e c8 3d b8 85 36 be 40 cf 15 bb
       -0.055943113 0.097805664 -0.17824447 -0.0022859126
000040 63 71 8d be 6d 7e 64 be 3a 78 8a be 70 f8 f5 bb
       -0.2762557 -0.22313853 -0.2704485 -0.0075064227
000050 0d 0c 9d be 71 40 e8 be 2a 09 9b be 0e df 5e be
       -0.30673257 -0.45361665 -0.3028043 -0.21764776
000060 51 9c 87 bc e0 6b 72 bc 0a 20 a0 be b5 83 20 be
       -0.01655403 -0.014796227 -0.31274444 -0.15675242
000070 ba cd a0 be c2 43 bc be 6b fe 47 bd 11 05 92 bd
       -0.31406957 -0.36770445 -0.048826616 -0.071298726

sfeb.4.running_var f4 [32]
000000 2e 21 93 3e 83 80 9d 3e 60 00 09 3f 79 59 68 3f
       0.28736252 0.3076211 0.535162 0.90761524
000010 23 24 80 3e 9c da a2 3e ba c6 d0 3e 5a a6 c5 3b
       0.2502757 0.3180741 0.40776616 0.0060317935
000020 9f da 8b 3e 80 eb 3b 3e a7 ac 40 3b 7c 33 bd 3e
       0.27315232 0.18351555 0.0029399784 0.36953342
000030 52 6b c4 3e 54 40 2a 3f 56 d8 4d 3f e8 59 f5 3a
       0.3836313 0.66504407 0.8040823 0.0018718811
000040 05 ec e9 3e 37 24 00 3f 42 2a 30 3f 17 4b b5 3a
       0.4568788 0.5005526 0.6881448 0.0013831583
000050 a0 49 0d 3f 57 f6 26 3f 54 48 30 3f 92 d6 d4 3e
       0.5519047 0.65219635 0.68860364 0.41569954
000060 f5 56 5f 3a e4 07 46 3a 4e 15 d3 3e 79 18 e2 3e
       0.00085197325 0.00075542764 0.41227192 0.44159296
000070 4c 38 b4 3e 9f 29 d7 3e 77 37 43 3e 77 1b 25 3e
       0.351992 0.42023942 0.19064127 0.16123758

tfeb.0.weight f4 [13, 1, 3, 3]
000000 ab 2c 06 3d 95 60 21 3a 74 10 b0 bb 4d d7 88 3b
       0.032757442 0.00061560544 -0.005373055 0.0041760565
000010 81 53 fb 39 03 39 c9 3a 82 a3 fb 3a de e9 c3 3b
       0.00047936666 0.0015352074 0.0019198509 0.005978807
000020 75 e4 c5 3b 29 2e 0f 3c f1 15 23 bc c1 65 67 3c
       0.006039197 0.008739033 -0.009953962 0.014123381
000030 17 91 79 3c a1 b9 3a bc 13 af 57 3c 50 7d 80 3c
       0.015232346 -0.011396796 0.0131643 0.015684754
000040 26 4d ed bb fb aa 84 3c 65 fd 4d 3e 6a f5 04 3e
       -0.007241863 0.016194811 0.20116194 0.12984243
000050 e2 66 c7 be 68 e8 c1 3e 2f d5 ee 3e bd 0d 26 bf
       -0.3894568 0.37872624 0.4664702 -0.6486471
000060 0b 7b 48 3e da 04 19 3e 8e 50 e4 be fd 6b 60 be
       0.19578187 0.14943257 -0.44592708 -0.21916194
000070 a6 83 c1 bc 1a 32 ee 3d 4a 5f 14 bf 41 f6 f2 3e
       -0.023622345 0.1163065 -0.579579 0.47453502
000080 a3 f6 03 3f 7a f3 95 be 11 78 1e 3e 3a 01 45 3e
       0.5154821 -0.2928732 0.15475489 0.19238749
000090 98 ac 0b 3d 20 b6 d0 3e 5a 60 f4 be d1 3f c5 3d
       0.034100145 0.4076395 -0.4772976 0.09631313
0000a0 a7 ce ff 3d 27 6f a3 be ff 4b 28 be 7b ca 68 bd
       0.12490588 -0.3192074 -0.1643524 -0.056833725
0000b0 5d d4 a0 be d9 aa 26 3d 04 b9 18 be af 77 32 be
       -0.3141202 0.040690277 -0.14914328 -0.17428468
0000c0 5f 4e dd 3c 1a 9d 50 be 03 e7 91 be 6d 1f 76 3e
       0.02701491 -0.2037243 -0.2849656 0.24035425
0000d0 8b cb 34 be 07 8c 0d be 0d 5b 57 3f 4d 23 f8 be
       -0.1765577 -0.13822947 0.8412331 -0.48464432
0000e0 ec 8a fe be 37 33 64 3f f4 40 0a bf 3d 6e 25 bf
       -0.49715364 0.8914065 -0.5400536 -0.64621335
0000f0 e9 0c dd 3e c8 08 94 be 72 22 e2 be 13 fc f6 bd
       0.43173912 -0.2891295 -0.44166905 -0.12059798
000100 77 8e 31 be 06 e9 08 be 91 b2 a0 bd 6d 55 14 be
       -0.17339502 -0.13370141 -0.07846559 -0.14485712
000110 a4 0d dc bd 98 b1 e0 3d 6e 5a 65 3e c1 b0 00 3e
       -0.10744789 0.10971373 0.22397777 0.12567426
000120 3c c8 23 be 4a 67 92 be 70 2b e8 bd 92 ed 24 be
       -0.15994352 -0.28594428 -0.1133641 -0.16106251
000130 fa 87 88 be 49 7d 9b bd 73 03 c8 bd 16 0b 26 be
       -0.26666242 -0.075922556 -0.09766283 -0.16215166
000140 93 f9 c1 bd 7b 48 36 bd 7b c0 97 bd 7d 28 42 3d
       -0.09471431 -0.044502717 -0.074097596 0.047401894
000150 90 a0 d5 bd 5c 5e 0a be 49 30 eb bc 8f ae df 3d
       -0.104310155 -0.13512558 -0.028709548 0.10921966
000160 00 00 ec be 4c 6a d6 3e b7 b6 9a 3e 0c 1a d1 3d
       -0.4609375 0.41877973 0.30217525 0.10210046
000170 89 de ed 3d 25 ba 92 3e ce be 83 3d 63 c1 98 3d
       0.11614711 0.28657642 0.064328775 0.074587606
000180 24 58 93 bd 0f b8 ac bd 91 a8 d6 bc 12 ec a8 bd
       -0.07194546 -0.08433544 -0.026203426 -0.08248152
000190 3c f0 36 be 96 6c 62 bd dd ce 33 be 2e e9 7b be
       -0.1786508 -0.055279337 -0.17559381 -0.2460067
0001a0 67 11 02 be c3 a5 b3 3c 1e a4 eb bd b8 8e 1f bd
       -0.12701951 0.021929627 -0.11505912 -0.038954467
0001b0 3a fa 8d be 21 9a 5e be 1d d3 9f 3e 37 56 24 bf
       -0.2772997 -0.21738483 0.31215754 -0.64194053
0001c0 ce 08 0d bf b2 1b 8c 3f 9c d7 bb be f9 d5 94 be
       -0.5509156 1.0945952 -0.36687934 -0.29069498
0001d0 ff 63 a3 3e
       0.31912228

tfeb.1.weight f4 [13]
000000 30 6c 54 ba 40 eb 0d bb 7a 0c 8c 3e 1c d9 8d 3e
       -0.00081032794 -0.0021655113 0.2735327 0.27704704
000010 11 bf b1 3e 87 63 99 3e 61 cc 0f 3f 66 0a 9f 3e
       0.34716085 0.29958746 0.5617123 0.3106262
000020 3d 27 69 3f 7a c7 c5 3e 57 6f 86 3e d1 6f fb 3e
       0.910755 0.3862875 0.2625682 0.49108747
000030 de 8b f0 3e
       0.4698171

tfeb.1.bias f4 [13]
000000 73 41 42 bc c4 e1 65 bc 13 16 22 3e 5a 2b 79 3e
       -0.011856425 -0.0140308775 0.15828733 0.24332944
000010 cf fa 94 3e 3c 5f bb 3e b0 a7 c1 3c 50 a2 6c 3d
       0.29097602 0.36596096 0.02363953 0.05777198
000020 25 82 99 be 61 9b 05 bd 34 b2 45 3e 69 ff 90 3c
       -0.29982105 -0.032618884 0.1930626 0.017699914
000030 90 ca 17 3e
       0.14823365

tfeb.1.running_mean f4 [13]
000000 83 e4 88 3c 4b 92 9a 3c ec 37 9d 3c e5 96 fd 3d
       0.016710525 0.018868586 0.019191705 0.123822965
000010 25 93 67 be c9 89 95 be 5d 56 84 be 44 94 ec bd
       -0.22614725 -0.29206684 -0.2584714 -0.11551717
000020 b8 1a ff be fa 44 cf bd e6 d9 8c 3e 27 af b5 be
       -0.49825072 -0.10120578 0.27509993 -0.35485193
000030 dc b1 5c be
       -0.21552223

tfeb.1.running_var f4 [13]
000000 d4 a0 3a 3a 64 1c 5b 3a 41 cc af 3d dc bf fe 3d
       0.0007119302 0.00083584175 0.0858388 0.12438938
000010 48 25 2b 3e cf 73 5f 3e 72 c8 b5 3e 20 38 03 3e
       0.1671344 0.21821521 0.3550449 0.12814379
000020 99 2a 10 3f c3 1a 3a 3d 21 26 6e 3e 54 24 9a 3e
       0.56315 0.04543568 0.23256733 0.3010584
000030 70 01 7f 3e
       0.24902892

tfeb.4.weight f4 [25, 13, 3, 3]
000000 a9 c9 16 3b c2 38 25 bb cf 46 8a 3a ba 72 56 ba
       0.0023008382 -0.0025210832 0.0010549667 -0.0008180548
000010 43 c3 9b bb ee e0 3c bb d0 78 12 3b 11 e5 b5 ba
       -0.0047535016 -0.0028820592 0.0022349842 -0.0013877471
000020 54 04 cf b9 fd 6a de 3a 81 77 aa bb 3c ab 73 3b
       -0.0003948534 0.0016969141 -0.0052022343 0.003718092
000030 83 37 0c 3b 4e b3 cb bb 65 af 3f 3b 8e 27 3a 3b
       0.0021395392 -0.006216443 0.002924883 0.0028404924
000040 90 3c 3e bb 5c e7 94 3b 52 bf 8b 3d ca f1 b1 bb
       -0.0029027797 0.0045441817 0.06823601 -0.005430435
000050 e5 ad 54 3d 3a 5c c3 bd a4 49 33 be f7 4a 0c be
       0.05192365 -0.09539075 -0.1750856 -0.13700472
000060 f1 a3 58 3d cc b4 cc bd b9 e3 17 bd ae 71 0f bd
       0.05289072 -0.09995422 -0.037082408 -0.035020523
000070 12 1b 95 bd 5c 65 a5 bc b3 c4 9d bd 4e 7a 7a bd
       -0.07280554 -0.020189933 -0.07703533 -0.061151795
000080 39 60 06 bb 11 0f d7 bd a4 54 15 bd bc c1 0d 3c
       -0.002050413 -0.105009206 -0.036457673 0.008652147
000090 bf 9f a2 3d 10 8e 4c 3d 8d 56 b8 3d d3 cd ae bc
       0.079406254 0.04994017 0.09000883 -0.021338379
0000a0 eb 21 59 bd ee 0e 7e bd bc 44 c9 3c 9f 7b 38 3c
       -0.053010862 -0.062025957 0.024568908 0.011259942
0000b0 db 6b a7 3c 36 f3 70 bd 1e 45 24 bc 2c 81 46 bd
       0.020437172 -0.058825694 -0.010026244 -0.04846303
0000c0 4e ae f7 3c 95 c4 e3 3c 95 2e 08 bd cf 92 2c 3d
       0.030234482 0.027803699 -0.03324755 0.042132195
0000d0 f6 76 9d bb 70 5c 45 3b 2e 32 cf 3d 1d b3 b4 3d
       -0.004805441 0.0030114911 0.10116993 0.08823226
0000e0 b1 f8 1c bd e5 04 12 be cb a5 24 bd 00 c7 8a be
       -0.038323108 -0.1425968 -0.040197175 -0.2710495
0000f0 fc e2 f6 3c 9b 75 06 be 74 21 cf bd e5 87 53 bd
       0.030137531 -0.131308 -0.101138026 -0.05164327
000100 e2 87 bd bc 99 0a 74 3c 93 ac 68 3d 15 2a 8d 3d
       -0.023136083 0.014895105 0.056805205 0.06892792
000110 86 15 a1 3d cd 1a 6b 3b fe 70 29 bc d5 05 74 bc
       0.078654334 0.0035874129 -0.010341881 -0.014893969
000120 f4 9c 98 3b 57 99 65 3c d5 97 49 3d 46 7f ee 3c
       0.004657382 0.01401361 0.049217064 0.029113423
000130 f0 6e 76 ba b6 5b db ba 41 a0 b5 3d 9e b2 0d 3d
       -0.0009400686 -0.0016735706 0.08868457 0.03459417
000140 04 bb 1c bb ac 19 a4 b8 f1 a7 ec bd 49 e2 b7 3c
       -0.002391518 -7.824911e-05 -0.1155547 0.022446768
000150 ed d9 7d 3a 49 2c d4 bd 92 94 cd 3c 06 db bf bc
       0.00096836576 -0.10360009 0.025095258 -0.023419868
000160 5a b5 95 bd e0 87 01 3c d2 92 7c 3d bb 70 c3 3d
       -0.07309981 0.00790593 0.061663456 0.09542986
000170 9a 2c 9e 3d a9 55 17 be 42 76 a4 bd 52 13 92 bd
       0.07723351 -0.1477877 -0.080303684 -0.07132591
000180 03 e0 43 bd 10 a7 f0 bc 0c 68 8b bc ae 03 1d bd
       -0.047821056 -0.029376537 -0.017017387 -0.038333587
000190 fa b1 34 bc b9 2c 82 bc b5 94 8d 3d f1 94 50 3d
       -0.011028761 -0.015890466 0.06913129 0.05092329
0001a0 db 00 82 3c a6 7e 16 3d c6 8a 95 3c 57 49 9c bc
       0.015869549 0.036741875 0.018254649 -0.01907794
0001b0 41 ad e3 3c 27 98 39 be 87 84 1b bd 1d be 57 3d
       0.027792575 -0.18124448 -0.037968185 0.05267154
0001c0 0c 7e 35 be 44 44 19 bc a1 1c e0 bb 5e 66 59 bd
       -0.17723864 -0.009354655 -0.0068393503 -0.05307614
0001d0 e9 1b 98 bc 49 5c b8 3a 94 45 a9 ba fb d6 3f b9
       -0.018567996 0.0014065589 -0.0012914413 -0.00018295266
0001e0 47 97 2f ba 5e 35 3c ba 51 65 1f ba 95 c3 05 3b
       -0.00066982623 -0.0007179583 -0.0006080466 0.0020410765
0001f0 b8 92 8e 3a 76 ae 09 ba 3c 33 23 bb 26 be 25 bb
       0.0010877466 -0.0005252132 -0.0024902364 -0.002529034
000200 be 0f 8e ba 0c 90 29 3b 21 fc 96 3a 55 48 0b 3b
       -0.0010838432 0.0025873212 0.0011519232 0.002125283
000210 28 0d 26 3b d2 8e f8 3a 5d af 5c 3b 45 cc cc bc
       0.0025337432 0.0018963462 0.003367386 -0.024999747
000220 a9 1d 4b bc e6 35 a0 bd 17 97 fb bc 9d be 68 3d
       -0.012397208 -0.0782278 -0.030711694 0.056822408
000230 f3 9d 18 bd c4 a0 1e 3d b6 7a 43 3d 82 6d e4 3b
       -0.037260007 0.038727537 0.04772445 0.006971062
000240 0b de 72 3d 27 45 a1 3c 92 61 0e bd 7e b3 d3 3c
       0.059293788 0.019686295 -0.03476102 0.025842424
000250 3d f3 9f bd 74 a4 11 be d8 60 56 3d fa b2 92 bc
       -0.07810066 -0.1422289 0.05233845 -0.017907608
000260 52 10 72 bd a4 ac 8d 3b e7 6d a2 bd 61 02 8c bd
       -0.059097596 0.004323559 -0.079311185 -0.06836391
000270 c3 35 c9 bd 42 a4 05 be 7a 10 91 bd e5 79 84 bd
       -0.09824707 -0.1305094 -0.07083221 -0.06468562
000280 77 d3 7b bd cb 18 5a bc 74 5b d2 3c 85 de 7d 3b
       -0.061480965 -0.013311575 0.025678374 0.0038737368
000290 57 46 ac bc 06 84 a8 bd 8d 64 8a bd 2d 27 22 bd
       -0.021029634 -0.082283065 -0.0675746 -0.039588142
0002a0 29 71 be bd 74 99 aa bd 07 17 a5 bc 70 72 1f bd
       -0.09298927 -0.0833005 -0.020152582 -0.038927495
0002b0 c5 23 94 bd 07 4d 33 be e1 0c 41 be 92 0b 3c bd
       -0.07233385 -0.17509852 -0.18852569 -0.04590947
0002c0 36 90 28 be f5 6d 76 bd e9 a3 14 bd d2 66 9f bd
       -0.16461262 -0.060163457 -0.03628913 -0.07783283
0002d0 2e 6f b2 3d 1a 8d b3 3d 2e 1e 68 3d 9c b9 9d bd
       0.08712612 0.08767147 0.056669407 -0.07701418
0002e0 5b 0f a2 bd 8f 8b 7c bd 77 5b 56 b8 32 e3 8c 3c
       -0.07913085 -0.06165653 -5.110676e-05 0.017198179
0002f0 8b 13 6a 3d 43 2c 21 3d 55 95 de 3b 54 44 e2 bb
       0.057147544 0.039348852 0.006792704 -0.006905118
000300 5d e3 eb bb 92 cb 10 bd f4 c6 2d bb 89 9a 97 bc
       -0.0071987347 -0.03535039 -0.002651629 -0.018506305
000310 17 cb 07 bd bb 5a 7f 3c 52 6a f3 3c e9 04 47 bd
       -0.033152666 0.015585597 0.029713783 -0.048588667
000320 94 67 d1 bc 24 75 29 bd df 02 17 be 71 93 ae bd
       -0.025562085 -0.04137148 -0.14747189 -0.08524216
000330 96 d8 19 bd 59 be 5d bd 06 e7 5a bc ae ce 14 bd
       -0.037560068 -0.054136608 -0.013360744 -0.036329918
000340 58 f7 fe 3a ff ec 64 bd a7 a9 42 3c b0 55 c2 3d
       0.0019452376 -0.05589008 0.011881269 0.09489
000350 34 80 92 bc 84 09 90 3d 40 cc df 3d 71 26 8f 3c
       -0.017883398 0.07033065 0.109276295 0.017474385
000360 0a 55 9b 3d f1 46 7e 3d 1f 6b 39 3d 05 19 e1 bc
       0.07584579 0.062079374 0.045268174 -0.02747775
000370 08 35 26 bd 2a e0 5b bc ec 16 92 bd 45 e0 6f bd
       -0.04057792 -0.013420144 -0.07133278 -0.05856349
000380 3e 98 7b bb 26 35 14 3d 8b 5c b7 bd 9d 3d f8 bd
       -0.0038390304 0.0361835 -0.08953198 -0.12121127
000390 03 f2 c6 bb 16 88 5a be f6 f4 48 be 73 e3 a2 bd
       -0.0060713305 -0.21340975 -0.19624695 -0.07953539
0003a0 ad b4 f5 bd 47 37 cb bd 1f 30 fc b9 47 55 8f 3a
       -0.11997352 -0.09922653 -0.0004810104 0.0010935449
0003b0 c8 d2 a1 3a 65 5a 13 bb 5e a6 13 bc 45 aa 55 bb
       0.0012346143 -0.00224843 -0.009011833 -0.003260271
0003c0 15 a2 a9 bb 55 f9 76 ba 9a 9c 38 bb 10 4e 23 bb
       -0.0051767924 -0.00094213086 -0.0028169514 -0.0024918355
0003d0 a4 1a 9a 3a e2 29 da b8 7b d4 d1 bb 6f 5d 39 bb
       0.0011757207 -0.00010402851 -0.0064035035 -0.002828445
0003e0 12 0c 95 bb 75 05 41 bb 8e 53 c2 ba b6 ed c9 3a
       -0.004548558 -0.0029452716 -0.0014825927 0.0015405926
0003f0 e0 c6 f1 bc 9b 95 91 bd 74 88 9e 3d 04 27 76 bd
       -0.029513776 -0.07108613 0.0774087 -0.060095802

tfeb.5.weight f4 [25]
000000 b9 55 dc 3e 4e 39 28 3e 9e 09 ad 3e 9f 0e 8e 3e
       0.4303415 0.1642811 0.337964 0.2774553
000010 4f 58 e0 3e a5 33 b5 3e 24 3b 76 3e fa f6 89 3e
       0.43817374 0.35390964 0.24045998 0.2694624
000020 81 37 1b 3f 42 e1 a7 3e fa b1 59 3e 95 aa 13 3f
       0.6063157 0.32789046 0.21259299 0.5768216
000030 0f 23 f5 3e 40 e6 16 3f ec 83 31 3e 5a 86 76 3e
       0.4787831 0.58945084 0.1733548 0.24074689
000040 31 34 a8 3e 14 7a 75 3e 6a e4 e9 3e 04 5d 51 3e
       0.3285232 0.2397235 0.4568208 0.20445639
000050 43 4c df 3e 44 05 37 3e 3b 25 59 3e b7 18 a4 3d
       0.4361287 0.17873102 0.21205609 0.080125265
000060 d7 32 5e 3e
       0.21699081

tfeb.5.bias f4 [25]
000000 79 74 03 3d e7 69 71 3e 79 a5 37 bb 9c 25 14 3d
       0.0320935 0.23575555 -0.0028022213 0.03616868
000010 7f c4 6b bd 12 ac 9f 3d 78 11 36 3e d0 91 66 3d
       -0.05756044 0.07796492 0.17780101 0.0562914
000020 a1 b5 9e bd 8b c5 3a bd 4b be f7 3d a7 6e ae bd
       -0.07749487 -0.045598548 0.120968424 -0.08517199
000030 1b 83 31 be 92 2f e0 bd ed 88 34 3e 4f 07 ef 3d
       -0.17335169 -0.10946573 0.17630358 0.11671316
000040 aa cc 13 bd 71 69 fa bc 70 f7 a0 bd 2c 91 9b 3e
       -0.036083855 -0.030567857 -0.07859695 0.30384195
000050 98 55 1b be 87 60 93 3e 68 f8 79 3e b8 75 73 3d
       -0.1516937 0.28784582 0.24411166 0.059438437
000060 b8 10 53 bd
       -0.051529616

tfeb.5.running_mean f4 [25]
000000 2c 21 e6 be 89 4b 67 bf b0 ab 4e bd 36 86 3a 3d
       -0.44947183 -0.9034963 -0.050456703 0.04553815
000010 48 d3 19 bf 48 45 ae be 50 d1 e8 be 26 1a b4 be
       -0.60088015 -0.34037232 -0.45472193 -0.351762
000020 a9 fa eb be 24 05 cf be a0 a1 ce be 85 49 d3 be
       -0.46089676 -0.4043361 -0.40357685 -0.41267028
000030 73 54 a6 3d 59 8e 97 be d9 74 b3 be c7 78 04 be
       0.08121576 -0.2960079 -0.35050085 -0.12936698
000040 5f ba 14 bf 4a c5 86 bd 6e 19 ba be cd 9c ae be
       -0.5809688 -0.06580599 -0.36347526 -0.34104005
000050 01 d0 b2 bd 99 2a 0c bf 54 c4 20 be 0c 27 52 be
       -0.0873108 -0.547525 -0.15699893 -0.20522708
000060 b6 36 04 3e
       0.12911496

tfeb.5.running_var f4 [25]
000000 7f 8c 16 3e e0 c5 08 3e 03 92 e9 3d b2 2c 05 3d
       0.14702033 0.13356733 0.11404803 0.032513328
000010 23 0c 2f 3e aa ca b4 3d 6a e3 9a 3d f4 70 4a 3d
       0.17094474 0.088277176 0.07562907 0.049424127
000020 ff 71 4b 3e 69 83 69 3d 15 1e 00 3e 48 40 5e 3e
       0.19867705 0.057010088 0.12511475 0.21704209
000030 14 4d a0 3d 31 cd ad 3d 37 7c 8a 3d 3c 4a c5 3d
       0.078272015 0.08486403 0.06761973 0.096333
000040 f9 3e 88 3d d7 93 a8 3c 2f 6b c6 3d b4 b7 92 3d
       0.06652636 0.020578308 0.096884124 0.07163945
000050 02 e9 af 3d 71 22 52 3e 12 df f0 3d 1b c5 3f 3c
       0.085893646 0.20520951 0.11761297 0.011704708
000060 fc 06 c2 3c
       0.023684971

tfeb.7.weight f4 [28, 25, 3, 3]
000000 2f 32 b7 3c f0 fb b0 3c 4c 6f 20 3d 49 1c e5 3c
       0.022362797 0.021604508 0.03916864 0.027967589
000010 0f db 83 3c 77 fa ab 3b 9c 87 01 3c 90 1d 09 3d
       0.016095666 0.0052483636 0.007905867 0.03347546
000020 b4 40 e3 3c 7f 23 df 3b 4e 06 7a bc 73 b3 c2 bc
       0.027740814 0.0068096514 -0.015260292 -0.023767209
000030 80 21 93 3d c6 4c c2 3d 7e 10 84 3d c7 88 05 3d
       0.07184124 0.094872996 0.06448458 0.032601144
000040 bb af 63 3c 56 72 a3 bc f5 b2 ec bc fb b0 3e bc
       0.013896878 -0.01995198 -0.028893927 -0.011638875
000050 bc e0 03 bd bb a3 e7 bd 4b b7 ab bd 74 fa 87 bd
       -0.032196745 -0.11310526 -0.0838457 -0.06639567
000060 e9 3a cd bc 59 5a 87 3c e0 e2 01 3d 9b b5 11 bd
       -0.025052505 0.016522573 0.031710505 -0.035573583
000070 a9 5e d9 bc d3 15 0d bd b8 ba 28 bd 14 0b 59 bd
       -0.026534395 -0.03444464 -0.041193694 -0.05298908
000080 d4 9a c0 bc 3d 12 ec bb 08 34 a6 bc 1a e0 9e 3d
       -0.023511328 -0.0072043226 -0.020288482 0.07757588
000090 c2 2d 7d 3b 6d 53 21 3d 37 eb 8d 3d 77 ac 1d 3d
       0.003863201 0.0393862 0.06929629 0.038494553
0000a0 76 7b 7b 3d c7 b5 98 3d ee ab 06 3b c5 78 bf 3c
       0.06139704 0.07456546 0.0020549255 0.023373017
0000b0 d7 86 3f 3d e6 d6 8e bd c4 98 57 bd 85 d2 07 bc
       0.046759453 -0.069745824 -0.052635923 -0.008289938
0000c0 2c 57 a0 bc 2e 0e b6 3c 43 19 8e 3c 8c a7 1c bd
       -0.019572817 0.022223558 0.01734603 -0.038245723
0000d0 05 bb 7f 3c 0b 4b 2d 3c 6f 21 d8 bd e3 29 05 bd
       0.015608554 0.010576974 -0.10553252 -0.03251065
0000e0 61 e1 53 bd d4 af 08 3c 55 82 a0 bb 23 b5 4d bd
       -0.05172861 0.008342702 -0.0048983493 -0.050221574
0000f0 f3 d6 18 3c fa 2b 17 3d e6 6f 93 bb cb f7 70 bc
       0.009328592 0.036907174 -0.0044994233 -0.014707516
000100 f2 c9 7a bc bc 8e 4b ba d3 91 1b 3c 3b 87 54 3d
       -0.015306937 -0.00077651045 0.009495216 0.05188678
000110 eb bf ed 3c a9 b1 44 3b 33 52 bb 3c 1f 4b 4f 3c
       0.029022178 0.003001312 0.022866344 0.012652188
000120 f1 26 3c bd 74 e0 62 bc 93 85 12 bd 9e f6 2b 3d
       -0.045935575 -0.013847459 -0.035771918 0.04198324
000130 83 20 e9 3d c1 bb 94 3d d5 a7 ed 3b be 80 3b 3d
       0.11383154 0.07262374 0.007252673 0.045777075
000140 8b 5e 42 3d 21 16 2f 3c b9 57 0b 3c 16 b3 a0 3c
       0.047453444 0.010686428 0.008504801 0.019616645
000150 33 0d f2 3b 15 35 a3 3c 80 72 43 3c 24 c7 7e 3c
       0.0073868274 0.019922772 0.011929154 0.0155504085
000160 fa d4 cf 3c 8f 5c 33 3c 19 dc 04 bd e6 14 df bc
       0.02537011 0.010947361 -0.032436464 -0.027231645
000170 8c 66 75 bd 9c 28 83 3d 06 ab a7 3d 3e df 80 3d
       -0.05991225 0.0640423 0.08186917 0.0629258
000180 ad 11 e6 3c 83 e8 88 3b 67 1f 57 bd 43 6f a6 bb
       0.0280846 0.004178108 -0.052520182 -0.0050791814
000190 91 d8 1d 3d 80 d0 21 3d 4a 56 a2 3c c8 d0 9e 3d
       0.038536612 0.03950548 0.019816536 0.077546656
0001a0 a5 fa 16 3d e1 20 2e bd b4 89 92 ba d7 1b 6f bd
       0.036860127 -0.042511825 -0.0011179955 -0.05837616
0001b0 b2 b3 fd bc b2 6e 3a bb 72 52 24 bb 85 ad 05 bd
       -0.030969474 -0.0028447327 -0.0025073555 -0.032636184
0001c0 45 db e4 bc 49 74 0e bc 58 7f d5 3a f7 52 0e bd
       -0.027936587 -0.008694717 0.0016288562 -0.03474709
0001d0 b1 89 26 3d ab 42 9f bc e1 99 6a bc ee 82 b1 3b
       0.040658657 -0.01944097 -0.014318914 0.0054172194
0001e0 97 19 1d 3b 88 c0 59 bc 28 68 f1 bc 9d c3 89 3c
       0.0023971552 -0.013290532 -0.02946861 0.016816908
0001f0 94 af 3d bb 9c 2c 25 bd 2e 50 83 bc 73 e3 92 bc
       -0.0028943764 -0.040325746 -0.016029444 -0.017930722
000200 15 40 16 3a 43 64 d0 bc e5 40 86 bc 4a 6a bc bc
       0.0005731595 -0.025438434 -0.016388366 -0.022999901
000210 d4 c9 39 3d d5 b3 93 3d 7b 9a 7b 3d 66 7c 93 3d
       0.045358494 0.072120346 0.06142662 0.072014615
000220 44 7c 7c 3d d9 10 22 3d f8 f6 bf bb d0 dd 6a 3b
       0.061641946 0.03956685 -0.0058582984 0.0035837777
000230 22 af 35 3d 87 0d aa bd 7f c8 a1 bd 84 48 11 bd
       0.044356473 -0.083033614 -0.0789957 -0.035469547
000240 68 05 40 bd ce 8f e9 bc 61 5e 3a bc 7e 38 e9 3b
       -0.046880156 -0.028510954 -0.011375041 0.00711733
000250 fe 24 1b 3a bb bc 0c bc 19 a1 27 bb 99 1d c3 3c
       0.0005918293 -0.008589919 -0.00255782 0.023817824
000260 86 73 0a 3d 19 1a 92 3b a5 8f a1 3c 32 c7 4a 3d
       0.033801578 0.0044586775 0.019721815 0.049506374
000270 69 44 c5 bc 85 e5 dd bc 81 ed bd 3b 2d 09 f1 bb
       -0.024080472 -0.027086983 0.005796135 -0.00735583
000280 ea 24 5b bc 13 5e 85 bb 58 ab 24 bc b2 84 a3 bc
       -0.0133755 -0.0040700524 -0.010050617 -0.019960735
000290 cd c0 cc bc 3e 71 b8 ba fc 91 23 3d 67 d8 f7 3c
       -0.024994278 -0.0014071835 0.039934143 0.030254556
0002a0 a5 66 0b 3d 2b 85 89 3d 0c bd 20 3d ca 2c 10 3d
       0.034033436 0.06714853 0.03924279 0.035198964
0002b0 de a5 7a 3c 42 d2 f4 3c eb 6d 42 bb 32 80 d2 bc
       0.015298335 0.029885415 -0.0029667567 -0.025695894
0002c0 c6 19 09 3d 5f 6a 1b bc 49 f7 f1 bc 0c 10 4d 3c
       0.033471845 -0.00948581 -0.02953686 0.012516033
0002d0 b6 1c d7 bc 48 fd 0e bc 57 f1 c6 3c 26 e1 2a bd
       -0.026258808 -0.008727379 0.024285002 -0.041718625
0002e0 46 77 67 bd 3e b3 7a bd 4c 02 d2 3b 52 c1 20 bc
       -0.056510232 -0.061206095 0.006408965 -0.009811716
0002f0 98 d2 f0 bc ce 94 68 bd 06 4c dd bc ee 01 86 bb
       -0.029397294 -0.056782536 -0.02701379 -0.0040895855
000300 80 4d 85 3d be 06 ae 3d 5d 82 c1 3d 88 42 04 bd
       0.065089226 0.0849738 0.09448693 -0.03229001
000310 14 d2 a9 bb 05 e7 41 3d 22 80 19 3d f9 34 1e 3d
       -0.005182514 0.047339458 0.037475713 0.038624737
000320 58 c7 f6 3c 86 61 31 bd 04 fc 7b bd d6 a5 98 bd
       0.030124351 -0.043305896 -0.061519638 -0.07453506
000330 e1 b3 a7 3d c0 d5 c2 3d 65 95 ad 3d 2b 25 89 3b
       0.08188606 0.09513426 0.0847576 0.004185339
000340 c2 c5 91 bb 01 eb a0 bb 6a c5 d0 3c f8 cc c7 3c
       -0.0044486234 -0.004910827 0.02548476 0.024389729
000350 ef 9e 13 3d 03 16 32 3c 5a 6d 28 bc c4 3a 28 3c
       0.036040243 0.010869506 -0.010279978 0.010267917
000360 b3 b1 96 bc c4 ba fb bc 48 d8 d3 bb 77 fe bd 3c
       -0.01839528 -0.030728705 -0.0064649917 0.023192627
000370 df 6e d6 3c a2 36 8a 3d c1 d8 c2 bc 29 d7 08 bd
       0.026175914 0.06748702 -0.023784997 -0.033408318
000380 f9 4e 4c bc 6f 8f a4 3d 5f 97 34 bd 76 ac 7a bd
       -0.01247 0.0803517 -0.04408967 -0.061199628
000390 0c 95 29 3d 3c 67 f9 bd f0 07 00 be 6e ab 27 3e
       0.041401908 -0.121778935 -0.12503028 0.16373989
0003a0 e9 3c 1b bd b1 09 82 bd e1 ca 13 3d f9 a7 72 3c
       -0.037899885 -0.06349505 0.036082152 0.014810556
0003b0 26 23 59 3d 8a 2a ab 3d 35 23 53 3d eb 46 c0 3b
       0.053012036 0.08357723 0.051547248 0.005867829
0003c0 2c ab 31 3d 4f f0 12 bc 82 5a dd bc 80 ce 29 bd
       0.043376133 -0.008968427 -0.027020697 -0.0414567
0003d0 d5 1c aa 3d 0c ff 46 3d 70 a9 44 bd c6 95 55 bd
       0.083062805 0.048583075 -0.04801315 -0.05214479
0003e0 52 ce 6d bd be 7b f4 bc be 26 82 bd b4 19 1e be
       -0.05805809 -0.029844161 -0.06355046 -0.15439492
0003f0 1f 25 a4 3c 97 39 8d bc d3 64 aa bd 29 2f 80 bd
       0.020037232 -0.017239375 -0.08320012 -0.06258995

tfeb.8.weight f4 [28]
000000 dc 32 7a 3e 07 01 f0 3e 56 b9 77 3e de 42 ad 3e
       0.24433464 0.46875784 0.24191794 0.33840078
000010 fa de cb 3e c5 f4 b4 3e b4 1a 94 3e 3e ca 6e 3e
       0.39818555 0.35342994 0.28926623 0.23319337
000020 1f 20 31 3e f9 bf d0 3e a1 3b 93 3e 42 29 d4 3e
       0.1729741 0.40771464 0.2875643 0.41437727
000030 10 3d 98 3e 66 9c 60 3e 0c e8 6c 3e b7 6c af 3e
       0.29734087 0.21934661 0.23135394 0.3426263
000040 29 18 c1 3e 03 0a f1 3e a2 d4 d1 3e d8 8b cc 3e
       0.37713745 0.4707795 0.40982538 0.39950442
000050 eb 20 fe 3e 1f 06 a3 3e da a0 7e 3e 4f c8 8f 3e
       0.4963449 0.31840608 0.24866048 0.2808251
000060 9b 95 f3 3e 26 46 b6 3e 88 91 c6 3e 0b a1 63 3e
       0.47575077 0.35600394 0.38782907 0.22229402

tfeb.8.bias f4 [28]
000000 73 57 0d 3e 57 62 e9 bd 12 70 dd 3c 2a 5f 5a bd
       0.1380289 -0.1139571 0.027030978 -0.05331341
000010 78 c1 df bd 09 a8 4c 3c 06 c2 b1 3c ba 90 af 3d
       -0.10925573 0.012491235 0.021698963 0.08572526
000020 fa e6 23 3d 3d c7 81 bd c2 9b 1f be e0 38 9f bd
       0.0400152 -0.0633683 -0.1558676 -0.0777452
000030 8a e6 ff bc af 40 ca 3d 6d 37 2d 3e 87 7b 34 bd
       -0.03123786 0.09875619 0.16915675 -0.044063117
000040 b3 f1 02 be af 98 c9 bd 6c 96 8f bd 27 fc 83 bd
       -0.12787513 -0.09843575 -0.070111126 -0.064445786
000050 b3 f4 42 be 18 53 1d bd a4 e7 9b 3d eb 73 85 bc
       -0.19038658 -0.038409323 0.07612541 -0.016290626
000060 a8 90 1c bd d4 64 32 bd 13 45 7b bc 56 8d eb 3d
       -0.038223892 -0.04355319 -0.015336293 0.11501567

tfeb.8.running_mean f4 [28]
000000 88 0b 43 3e 60 d9 8e be 90 79 19 be d4 87 a1 bd
       0.19047368 -0.2790022 -0.14987779 -0.07887235
000010 c4 61 ad be 36 e2 1c 3c 44 9e 83 be e9 d0 90 be
       -0.33863652 0.009575417 -0.25706685 -0.28284386
000020 a2 0c 88 bd 70 6e 1a 3d 92 cc e5 3d 92 7c 05 3e
       -0.066430345 0.037702978 0.11220659 0.13035801
000030 6a 4b dd bd da da e8 3c 2f ea f6 3d 3f ae d8 be
       -0.108054 0.028424669 0.12056386 -0.4232044
000040 ce 7a 8f be b0 44 27 bd a5 c1 2b be 60 03 60 3d
       -0.2802338 -0.04083699 -0.16773088 0.05469072
000050 d9 b0 69 be d2 74 6c be 41 d9 22 bf 4b 39 52 be
       -0.22821368 -0.23091438 -0.63612753 -0.20529668
000060 01 ac e7 bd 92 8b b9 bd dc 45 bc be 74 b1 d9 3e
       -0.11312104 -0.09059824 -0.36772048 0.42518198

tfeb.8.running_var f4 [28]
000000 fd 37 d5 3c ed 6c d5 3d ca f4 6c 3c 67 5a f2 3c
       0.026027674 0.104211666 0.014462659 0.029584123
000010 19 86 7d 3d 84 a4 f8 3c 57 94 aa 3c c8 d3 10 3d
       0.061895464 0.030351885 0.020822687 0.03535822
000020 20 ad fc 3b be fa a6 3d 97 b7 98 3c 3a b7 fa 3c
       0.007711068 0.08153294 0.01864223 0.030604947
000030 06 43 85 3d f9 17 4e 3d 5b 77 44 3d 89 9c f4 3c
       0.06506924 0.05031583 0.04796539 0.029859798
000040 13 79 4b 3d 74 e4 fd 3d 4e e7 be 3d 83 cf 44 3d
       0.049676012 0.123970896 0.093214616 0.04804946
000050 dd 87 8a 3d 06 8a 88 3d 0a 77 fa 3c 83 52 88 3d
       0.06764195 0.06666951 0.03057434 0.06656363
000060 01 a4 45 3d 3d 03 03 3d 86 b8 cf 3c bb b2 20 3d
       0.04825211 0.03198551 0.025356542 0.03923295

tfeb.11.weight f4 [32, 28, 3, 3]
000000 4b 3f 8d bc 8b 1b cb bc f6 3c e5 bc 45 38 0b 3d
       -0.017242095 -0.024793407 -0.02798317 0.03398921
000010 ac f3 12 3d ac 21 a1 3c 08 cc 9a 3d 71 74 7b 3d
       0.035876915 0.019669376 0.07558447 0.061390344
000020 4b 08 5a 3d 1e fd f2 bc e7 27 54 3c 83 8d 12 ba
       0.053230565 -0.029661711 0.012948967 -0.0005590545
000030 af b2 bd 3b 84 79 84 3c 05 eb fa 3c 7f 67 88 bc
       0.005789123 0.016171224 0.030629644 -0.016650913
000040 de d5 a3 ba ce f3 f0 3c eb c1 7d bc a8 89 f6 bc
       -0.001249965 0.02941313 -0.015488128 -0.030094936
000050 55 42 d6 bc eb 8e 87 bc 90 81 cd bc 8c dc a1 bc
       -0.026154676 -0.01654764 -0.025086194 -0.019758485
000060 9d b7 07 3d 29 29 8f 3c ed e0 d1 3c c8 12 01 3d
       0.03313409 0.017475681 0.025619948 0.03151205
000070 63 36 ba 3c 73 98 e7 3c 04 4b 26 3d 85 b0 a0 3c
       0.022731012 0.028270936 0.040598884 0.019615421
000080 9e ad ef bb fe b6 d7 bb fa 81 69 3c 65 c7 f4 bc
       -0.007314398 -0.0065830937 0.01425218 -0.029880235
000090 e7 cf c5 3c 0b ca 80 3c de 6d 15 3d 79 aa 66 3c
       0.024146987 0.015721342 0.03648173 0.01407873
0000a0 65 34 50 bb 7a a5 56 3c 55 38 e1 bc f6 27 a1 bd
       -0.003176951 0.013100976 -0.027492682 -0.0786895
0000b0 9c 1e c0 bc 81 07 68 bc f6 15 92 bc 7e 0c 1c bc
       -0.023452096 -0.014161945 -0.017832737 -0.009524463
0000c0 ae dd c6 3c 13 0b 8c 3c 97 08 ff bb 88 3a a9 bc
       0.024275627 0.017095124 -0.0077830064 -0.020657793
0000d0 ad 27 ba bc ff c4 2d 3c a8 ef 1e 3c 0b fe 7c 3c
       -0.022723997 0.01060605 0.009700693 0.015441428
0000e0 97 2a 49 3c 26 4b c3 bc b6 70 a4 bc 62 30 8b bc
       0.012278221 -0.023839545 -0.020073276 -0.016990844
0000f0 48 96 92 bb 9f 87 8d bc 30 76 50 ba 86 7d fe bc
       -0.0044734813 -0.017276583 -0.00079521816 -0.031065714
000100 05 af b2 bb c5 39 81 bc aa f8 71 bd 3f 22 fd bc
       -0.005452993 -0.015774617 -0.059075035 -0.030900119
000110 09 24 79 bc 2e 7f df bc 91 d2 1f bc fd b3 bc 3c
       -0.015206345 -0.027282324 -0.009754793 0.023035044
000120 3a c2 ed bc 16 87 e9 bc c0 6e e0 bc 26 e5 ad bc
       -0.029023279 -0.028506797 -0.02739656 -0.02122743
000130 f8 f3 b9 bc 23 c1 5b bc 47 f6 c4 3b fd c9 6d 3b
       -0.022699341 -0.013412747 0.006010804 0.0036283724
000140 42 9c 35 3c 9c 54 b4 bb 6e f8 5f 3b 48 c9 c7 3c
       0.011084618 -0.0055032503 0.0034175175 0.02438797
000150 17 d3 80 3c 4f f7 40 3d 2b 0e b3 3c 5f 67 c9 bb
       0.015725655 0.04711085 0.021857342 -0.006146356
000160 7e 45 51 3c a9 e8 ed 3c 54 da 54 3c 63 50 47 3c
       0.012772916 0.029041605 0.012991507 0.012165162
000170 f8 c2 51 3c d3 5b 1f 3d 14 d1 19 3d 1e 0a 30 3c
       0.012802832 0.03890593 0.037552908 0.0107446
000180 4f f9 04 3d fa 4d 27 3d 6b bf 07 3d 46 89 27 3c
       0.03246432 0.04084585 0.033141535 0.0102256
000190 86 49 43 3d 88 c3 d2 3c 9b f3 44 bc ff e7 50 3c
       0.04767754 0.025728002 -0.012020971 0.012750625
0001a0 4d e6 a1 bc 67 38 cf 3c 43 9f b1 3c 40 56 97 3c
       -0.019763136 0.02529545 0.021682387 0.018473744
0001b0 a5 d6 31 bd 83 73 69 bd 20 56 59 bd 75 df 95 bd
       -0.04341759 -0.056994926 -0.05306065 -0.07318012
0001c0 97 6b a9 bd bb 81 96 bd 63 a5 ab 3c 56 45 07 3d
       -0.08272474 -0.07348963 0.020952886 0.03302511
0001d0 87 90 3e 3d ec 56 c5 bc 24 6c 9c bc 21 1e 1f bc
       0.04652455 -0.0240893 -0.019094534 -0.009711773
0001e0 1d 85 62 3c dc fc 4d 3c dd 62 96 3c 47 a6 1a 3c
       0.013825682 0.012572493 0.018357689 0.009439058
0001f0 3a 95 d9 3c ef 3a 26 3d c2 9b 88 bd 3c 73 8f bd
       0.026560415 0.040583547 -0.066703334 -0.07004401
000200 47 0e 98 bd 0c aa e6 3c 13 70 bc 3c 7d a3 25 3d
       -0.07424598 0.028157257 0.02300266 0.040439118
000210 3f 4d 44 3d d2 30 ff 3c ee 57 3a 3d 04 d2 ce 3c
       0.04792523 0.031151209 0.045494013 0.025246628
000220 b9 af 39 3d 31 58 21 3d 67 f3 00 3b 23 59 3c 3c
       0.045333598 0.039390747 0.001967633 0.011495861
000230 ec 1c b1 3c 43 5f a4 3c 36 e6 e6 bb d6 67 bd 3b
       0.021620236 0.020064956 -0.0070464863 0.0057802005
000240 1b eb 17 bd 4f 02 03 3d 1e b5 ce 3b 1f 51 3b bd
       -0.03708945 0.031984624 0.006308212 -0.04573166
000250 8a 34 2d 3d da 5e a3 3c c8 ba 4d bd e9 2d c5 3c
       0.042286433 0.01994269 -0.050226957 0.024069743
000260 89 ae 5b 3d 82 ed 27 bd 73 a7 05 bd 14 ea 16 bd
       0.053633247 -0.04099799 -0.032630395 -0.036844328
000270 ed ac 35 bd de b6 54 3d bf a3 0f 3d 41 52 5b bd
       -0.044354368 0.05193221 0.03506827 -0.05354524
000280 83 7f a5 bb 5e b9 d3 3c 31 2f 17 3c 7a 1f 17 3c
       -0.005050601 0.025845226 0.00922756 0.009223813
000290 cc c5 9d 3c 30 0f 9a 39 09 bc c3 bc fc 7a 34 bd
       0.019259356 0.00029384485 -0.023893373 -0.0440626
0002a0 a6 2e 20 bc ca 7c 04 bd cd a1 14 bd 94 38 2d bb
       -0.009776747 -0.03234557 -0.036287118 -0.0026431428
0002b0 78 1e 29 bc a7 3d d4 bb a3 06 e5 3c 5f 11 06 3d
       -0.010322206 -0.006477076 0.027957266 0.03273141
0002c0 cb 92 2a 3d 1b 4c ca bc d6 6d 96 bc 26 02 74 bc
       0.0416439 -0.024694493 -0.01836292 -0.01489309
0002d0 21 59 57 3c fe 4d 9f bb 24 5a bd 3b eb 4d 77 bb
       0.013143809 -0.0048615923 0.005778568 -0.0037735652
0002e0 38 d1 b0 bc d2 23 e4 bc cb ed 9f bc c4 fa 1c bd
       -0.021584138 -0.027849112 -0.019522568 -0.038325086
0002f0 0f b5 29 bd ee 3d 28 bd b3 cb 7c bc 2a 61 83 bc
       -0.041432437 -0.041074686 -0.015429425 -0.016037542
000300 e0 1d e7 bc be 12 b2 ba ec 19 cb 3c 59 51 28 bd
       -0.028212488 -0.0013585908 0.024792634 -0.041093204
000310 12 81 49 bc d3 8c 0c 3c 78 fb a9 bc 9f 85 dd 3c
       -0.012298839 0.008578497 -0.020749792 0.027041255
000320 15 f3 0f 3c f3 e7 8d bd fb 29 a6 bc 1a 81 16 bd
       0.008785983 -0.069290064 -0.02028369 -0.036744215
000330 59 15 a3 bc a4 22 4f 3c c5 86 87 3c 7e df 47 bd
       -0.01990764 0.012642536 0.016543755 -0.048797123
000340 bb e3 f3 bc 78 e2 63 bc 5d 5a c3 bc 00 83 98 bb
       -0.029771676 -0.013908975 -0.0238468 -0.0046542883
000350 9f 86 76 bc 5d aa c8 bc cd 35 42 bb 8a 38 07 3b
       -0.015046745 -0.024495298 -0.0029634119 0.0020633065
000360 47 65 90 3b e1 3b db bb 2f f1 20 3c 63 fa fa b9
       0.0044066045 -0.0066904877 0.009823128 -0.00047870268
000370 e1 b6 83 bc 54 41 8f bc 89 15 d5 bd e7 cf bf bd
       -0.016078414 -0.017487206 -0.10404498 -0.09365826
000380 d6 5e b6 bd 96 c8 1f bc a9 c1 4c bb 88 67 18 3b
       -0.08904807 -0.009752413 -0.003124336 0.0023255069
000390 f4 ab 66 bb bc a3 ce 3b 91 cb 8c 3b 2f e3 a1 3c
       -0.0035197707 0.0063061398 0.004296728 0.01976165
0003a0 47 53 32 3d a0 cb 4b 3d 3d f9 39 3b 3f 58 fd 3b
       0.04353645 0.04975474 0.0028377317 0.007731467
0003b0 66 c1 f4 3b dd 11 8f 3b 32 03 44 3c b2 d9 bf bb
       0.007469344 0.004366143 0.011963652 -0.0058548087
0003c0 bf a3 11 bc 42 6e 2f 3c a0 6a 06 3c ad 13 d4 bc
       -0.008889138 0.01070744 0.008204132 -0.025888288
0003d0 0c 99 02 bd 0f 41 3c bd b9 69 66 3d 59 8b 7a 3d
       -0.031884238 -0.045960482 0.05625317 0.06116805
0003e0 4a ab 86 3d 8c cd 83 3d ad eb 67 3d 74 f7 8c 3d
       0.065756395 0.06435689 0.056621242 0.068831354
0003f0 ad 1c 07 be 81 e5 88 bd eb 7b 2f 3c a3 80 18 be
       -0.13194533 -0.066843994 0.010710697 -0.14892821

tfeb.12.weight f4 [32]
000000 db f6 a7 3e 32 f3 ac 3e 94 6d ae 3e 0b d2 98 3e
       0.32805523 0.33779293 0.34067976 0.2984775
000010 87 c3 80 3e ef d3 df 3e 25 b8 b7 3e ac 43 d1 3e
       0.25149176 0.4371638 0.3588268 0.40871942
000020 17 12 13 3f 85 3f 9c 3e 02 65 b4 3e a2 6e c0 3e
       0.5744948 0.30517212 0.35233313 0.37584406
000030 68 c0 bb 3e cd ed 93 3e 9a 8a ac 3e 64 d0 85 3e
       0.36670232 0.28892365 0.33699495 0.26135552
000040 b0 02 bf 3e c5 89 7d 3e 9c 2c 9f 3e d1 c4 9d 3e
       0.37306738 0.24759586 0.31088722 0.30814222
000050 25 26 bb 3e e3 6a b0 3e 1f 83 bf 3e 03 0c 8a 3e
       0.3655254 0.34456548 0.37404725 0.2696229
000060 31 1d 90 3e d4 0d eb 3e 03 5c 32 3e 07 26 81 3e
       0.2814727 0.45908988 0.17417912 0.25224325
000070 f2 49 a4 3e 7f 83 dd 3e 7f 1c ce 3e 72 b5 0d 3f
       0.32087666 0.43264386 0.40256116 0.5535499

tfeb.12.bias f4 [32]
000000 99 fd 44 be 4b 5a 11 3d e9 95 0b be 5c 51 4a bd
       -0.19237365 0.0354865 -0.13631405 -0.049393997
000010 9c d8 a0 bd 69 2c 65 be 54 89 a2 bd 56 69 2b be
       -0.07853815 -0.22380222 -0.079363495 -0.16739401
000020 46 6c c9 be a4 9d 18 3d 16 e1 01 be 33 7e b3 bd
       -0.3934042 0.037259713 -0.1268352 -0.08764305
000030 f8 c2 da bd dc b2 d0 bb e3 e3 35 be bd a7 a3 bd
       -0.106817186 -0.006368978 -0.17762713 -0.07990978
000040 db 0b 3c be d1 7e 20 3e 29 2a 98 bd 17 8c 02 3d
       -0.18363898 0.15673377 -0.074299164 0.03187188
000050 fc 2d db bd 90 2d fc bd 23 b1 95 bd 80 ee 0a 3e
       -0.1070213 -0.12313378 -0.07309177 0.13567543
000060 d0 f0 17 bd 29 dc 6c bd 25 c9 0a be 2e 58 9b bd
       -0.03709489 -0.05782715 -0.13553293 -0.07585178
000070 50 59 a9 bd ed 59 2c be 4e 68 32 be 39 27 48 be
       -0.08268988 -0.16831179 -0.17422602 -0.19546212

tfeb.12.running_mean f4 [32]
000000 09 b1 2c bd d4 43 fc be 32 37 65 be 59 75 1e 3e
       -0.04216102 -0.492705 -0.22384337 0.15474452
000010 20 7d 24 be 86 11 53 bf 62 2c 50 be 9c 09 ca be
       -0.16063356 -0.82448614 -0.2032943 -0.39460456
000020 79 93 24 bf 01 be ec bd 18 77 7a be 44 47 05 bf
       -0.64287525 -0.11559678 -0.24459493 -0.5206187
000030 04 45 c9 be 80 65 08 bf 30 81 9d bd 05 f0 86 bd
       -0.39310467 -0.53279877 -0.07690656 -0.06588749
000040 30 cd 8d be 85 df bd bd e3 df 11 be f2 1b d2 be
       -0.27695608 -0.092711486 -0.14245562 -0.41036946
000050 47 ae a2 be 4f 9d 04 bf 3d 87 a8 be d9 8f dc be
       -0.31773588 -0.51802534 -0.3291568 -0.43078497
000060 31 d6 c1 bd 62 5f 2e bf 04 3c 09 be f3 06 58 bd
       -0.09464682 -0.6811429 -0.134018 -0.052741002
000070 7a d1 13 be 01 a7 c6 be f3 fc 75 be 1b 5d 37 bf
       -0.14435378 -0.3879929 -0.24022274 -0.7162644

tfeb.12.running_var f4 [32]
000000 ab 12 2e 3d a4 bc 98 3e 74 c9 ef 3d 64 bb c7 3d
       0.042498272 0.2983142 0.11708346 0.09752539
000010 28 f4 c9 3c a9 6e 95 3e 6e de 3a 3e 8e 30 18 3e
       0.024652556 0.2918599 0.18248913 0.14862272
000020 19 6d 6d 3e 7f 79 00 3e aa 75 38 3e f0 5c 68 3e
       0.23186149 0.12546347 0.18013635 0.22691703
000030 c9 85 05 3e a8 1f 01 3e ed 48 c2 3d 86 37 cc 3d
       0.13039316 0.12609732 0.09486566 0.09971528
000040 b1 3b b4 3d 17 a8 95 3e ef 91 bb 3d 82 0d 1c 3e
       0.08800448 0.29229805 0.09158694 0.15239528
000050 da 88 ac 3d 3a 19 2c 3e 71 91 6f 3e ba cc 89 3e
       0.0842454 0.16806498 0.23395325 0.26914006
000060 8a 59 bf 3c 5b 5a fb 3e 55 e8 40 3c 82 05 d1 3d
       0.023358125 0.49092373 0.011774142 0.10206129
000070 60 27 78 3d 82 14 85 3e be f3 0c 3e 14 c4 de 3e
       0.060584426 0.2599221 0.13764855 0.4350897
