trained_models/step_5_retrain_after_step_4/retrain_4C_after_2nd_pruning_prunratio0.85_2024060419/retrained_4Cmodel_ratio85.0_vaacc91.78743743896484_tracc_80.42763157894737@513epoch_20240604215850.pt (torch, 309234 bytes, 62 tensors)

sfeb.0.weight f4 [8, 1, 1, 9]
0	0x3e4f8b64	0.20268017
1	0x3e0528da	0.13003865
2	0x3e932c4a	0.28744727
3	0x3ebf8b3d	0.37410918
4	0x3d8cea4b	0.06880625
5	0xbe91f854	-0.28509772
6	0xbf0a8d76	-0.541221
7	0xbea04137	-0.31299755
8	0xbd99162b	-0.07474931
9	0x3d34565d	0.044027675
10	0x3d31435c	0.04327713
11	0xbd9ca55b	-0.076487266
12	0xbea79500	-0.32730865
13	0x3d59429e	0.053042047
14	0xbe48d2fa	-0.19611731
15	0xbea16645	-0.31523338
16	0x3eb9b2a4	0.36269104
17	0x3f1946b8	0.59873533
18	0xbe637a3b	-0.22214596
19	0xbe86227f	-0.26198193
20	0x3e4ce5ec	0.20009583
21	0x3d75ad69	0.05997983
22	0xbe23ec5a	-0.1600813
23	0xbe591234	-0.2119835
24	0x3e056a29	0.13028778
25	0xbeadeb48	-0.33968568
26	0xbee5821a	-0.44825822
27	0x3f3a1bd4	0.7269871
28	0x3ec5f9c1	0.3866711
29	0xbd99e286	-0.07513909
30	0xba85995c	-0.0010192799
31	0xbe5ead01	-0.21745683
32	0x3b51fe90	0.00320426
33	0x3e1c53db	0.15266363
34	0xbc917fe0	-0.01776117
35	0x3da1135e	0.07865022
36	0xbf1fcf75	-0.6242593
37	0xbeca518e	-0.39515346
38	0x3ccce91b	0.025013497
39	0x3cb76c42	0.022390489
40	0x3e992669	0.29912117
41	0x3e78effd	0.24310298
42	0xbe26cedd	-0.1628985
43	0x3d6f561f	0.05843174
44	0xbe5764d4	-0.21034557
45	0xbe9a72fb	-0.30165848
46	0xbd39ac52	-0.045330353
47	0x3e452395	0.19251855
48	0x3d963b5a	0.07335539
49	0xbeeb308e	-0.45935482
50	0x3dd0e009	0.10198981
51	0x3f28f958	0.6600547
52	0xbbccef9b	-0.006254149
53	0xbf044dc0	-0.5168114
54	0xbd23252d	-0.039830375
55	0xbe5738dd	-0.21017785
56	0x3e7d7ab3	0.24753837
57	0xbdd00c81	-0.10158635
58	0xbf0717f2	-0.5277091
59	0x3f00b1a7	0.50271076
60	0x3d90f9c7	0.07078891
61	0xbee5c873	-0.44879493
62	0x3edd98b4	0.43280566
63	0x3cbba988	0.022907987
64	0xbc72f921	-0.014829905
65	0xbe460611	-0.19338252
66	0xbde47608	-0.11155325
67	0x3e54b2bc	0.20771307
68	0x3e5bc9fe	0.21463773
69	0xbc5c7bb5	-0.013457228
70	0x3eb30813	0.34967098
71	0x3f1b4299	0.60648495

sfeb.1.weight f4 [8]
0	0x3f6d602f	0.9272489
1	0x3f5bdd5e	0.85884655
2	0x3f41f999	0.7577148
3	0x3f4ae2be	0.7925223
4	0x3f5149b9	0.81753117
5	0x3f149242	0.5803567
6	0x3eddee05	0.43345657
7	0x3f42ff69	0.76170975

sfeb.1.bias f4 [8]
0	0x3d3b554d	0.045735646
1	0x3d26439f	0.040591832
2	0x3d86b077	0.06576627
3	0x3e1fc416	0.15602145
4	0x3df6319f	0.12021183
5	0x3e230e4b	0.15923421
6	0x3e63edf1	0.22258736
7	0x3d4d718f	0.050157126

sfeb.1.running_mean f4 [8]
0	0xb8821cbe	-6.204237e-05
1	0x38f08534	0.00011468903
2	0xba42ec02	-0.00074356806
3	0x3a1e5ae3	0.0006040765
4	0xb9eb2615	-0.00044851066
5	0xb93c9a58	-0.00017986575
6	0xb8068ea5	-3.2080938e-05
7	0x3a242e91	0.00062630425

sfeb.1.running_var f4 [8]
0	0x3cdf6bd0	0.027273089
1	0x3c6fea04	0.014643196
2	0x3c54af67	0.012981272
3	0x3cbc6a4a	0.022999901
4	0x3cb3f5b1	0.02196774
5	0x3c235979	0.009970062
6	0x3b00eead	0.0019673512
7	0x3c8cfa28	0.017209128

sfeb.3.weight f4 [32, 8, 1, 5]
0	0x3d364e4b	0.04450826
1	0xbe416100	-0.18884659
2	0xbd0b2f44	-0.033980623
3	0xbbc62905	-0.0060473704
4	0xbe08c272	-0.13355425
5	0xbdbdef09	-0.09274108
6	0xbde88143	-0.1135278
7	0xbd9ec77c	-0.077528924
8	0x399f4d2b	0.00030384338
9	0xbcafbc7b	-0.02145218
10	0x3e8d703c	0.2762469
11	0x3e653d05	0.22386558
12	0x3e6bdc5c	0.23033279
13	0x3e0e0090	0.13867402
14	0x3de33f2b	0.11096033
15	0xbe161383	-0.1465588
16	0xbd8c547e	-0.06852053
17	0xbe89f160	-0.26941967
18	0xbd1cdbb9	-0.03829548
19	0xbde5b254	-0.11215654
20	0x3e4b9d82	0.19884303
21	0x3e305eda	0.17223683
22	0x3d425f34	0.047454074
23	0x3e4657d2	0.19369438
24	0x3df0c7ed	0.11756883
25	0x3d493fc8	0.049133092
26	0xbb846664	-0.004040526
27	0xbd8f4971	-0.0699643
28	0xbb2974a0	-0.0025856867
29	0x3cc137c0	0.023586154
30	0x3d063724	0.03276743
31	0xbd38fa72	-0.04516072
32	0x3d2ec157	0.042664852
33	0x3d8d5fd8	0.06903046
34	0x3902d05d	0.00012475387
35	0xbd51b095	-0.051193792
36	0xbda0bd11	-0.078485616
37	0xbe109bd2	-0.1412194
38	0xbd23c182	-0.039979465
39	0xbd3cd438	-0.046100825
40	0xbe262f00	-0.16228867
41	0xbe385e13	-0.18004636
42	0xbd01287e	-0.031532757
43	0x3d51cdf7	0.051221814
44	0x3da0ae25	0.078457154
45	0xbc9a8527	-0.01886232
46	0xbe1277ad	-0.14303465
47	0xbdfffc1a	-0.124992564
48	0xbd0bf294	-0.034166887
49	0xbdb47fb0	-0.08813417
50	0x3ddb0706	0.10694699
51	0x3dbf3ade	0.093374
52	0x3db1051c	0.08643553
53	0x3e7eb7b5	0.24874766
54	0x3ea11c5a	0.31466943
55	0xbe6c2842	-0.23062232
56	0xbdea1b73	-0.11431017
57	0xbe0e1f8e	-0.13879225
58	0xbc547ada	-0.012968743
59	0xbd354568	-0.044255644
60	0x3e3167aa	0.17324701
61	0x3e1e88e2	0.15481904
62	0x3ca1ba01	0.019742014
63	0xbd9dcedd	-0.07705472
64	0x3c8af418	0.016962096
65	0x3b1829e9	0.002321834
66	0x3df73654	0.12070909
67	0xbca1e8ff	-0.019764422
68	0x3b5a0b10	0.0033270754
69	0x3cdf51d4	0.027260698
70	0xbc227cbf	-0.009917437
71	0xbd358cd1	-0.044323746
72	0xbc1b6abc	-0.009485897
73	0xbdda3991	-0.10655511
74	0xbcedc5a4	-0.029024906
75	0xbd876f06	-0.06612973
76	0xbd867c92	-0.06566729
77	0xbe8adec3	-0.2712308
78	0xbe4513c9	-0.19245829
79	0xbe065e99	-0.13122024
80	0xbddef6ee	-0.10886942
81	0xbe5c6f57	-0.21526848
82	0xbd130c94	-0.035900667
83	0xbbd5ee40	-0.0065286458
84	0xbd06eb12	-0.032939024
85	0xbe1986f8	-0.14992893
86	0xbd5ecbb0	-0.05439347
87	0xbcbbc4d1	-0.022920998
88	0xbe490396	-0.19630274
89	0xbe07aac4	-0.13248736
90	0x3e2d6d0c	0.1693613
91	0x3e6718fa	0.22568122
92	0x3e0ac60e	0.13552114
93	0x3e6a0865	0.22854765
94	0x3e900686	0.28129977
95	0xbe595a06	-0.21225747
96	0xbde35c85	-0.11101631
97	0xbe70665a	-0.23476544
98	0xbdc28796	-0.09498517
99	0xbe026a82	-0.12735942
100	0xbd8e3c66	-0.06945114
101	0x3d0cbc6f	0.03435939
102	0x3d2305ba	0.039800383
103	0x3e1188d3	0.1421235
104	0x3dafad7d	0.08578012
105	0xbcd6b8f4	-0.02621124
106	0x3d0dfdf7	0.034666028
107	0xbcf68767	-0.030093862
108	0x3e151f59	0.1456274
109	0xba7b9d86	-0.0009598363
110	0xbd04bccd	-0.032406617
111	0xbd0979d5	-0.033563454
112	0xbd2d75bf	-0.04234862
113	0xbdccdbca	-0.10002859
114	0xbe0dc8a6	-0.13846073
115	0xbe0cf791	-0.13766314
116	0xbe84a469	-0.25906685
117	0xbe7ad446	-0.24495038
118	0xbe06d40e	-0.1316683
119	0xbe13d8ec	-0.14438218
120	0xbd3296e6	-0.04360094
121	0x3d99732f	0.07492673
122	0xbe6a08c8	-0.22854912
123	0xbd6fc5f3	-0.05853839
124	0xbe639357	-0.22224174
125	0xbe2d98b5	-0.16952784
126	0xbd63e8aa	-0.055641808
127	0x3d752fc6	0.059860013
128	0xbd82f859	-0.06395025
129	0xbe051c21	-0.12999012
130	0xbead5b39	-0.3385866
131	0xbe804bac	-0.25057733
132	0xbe50224a	-0.2032558
133	0xbe677275	-0.22602256
134	0xbea62eae	-0.3245749
135	0x3dc1de6c	0.09466252
136	0x3e730706	0.23733148
137	0x3e9e6829	0.30938843
138	0x3dd9a1f5	0.10626594
139	0x3db13fea	0.08654769
140	0xbddf4bfc	-0.10903165
141	0xbe428b92	-0.18998554
142	0xbea5bc18	-0.32370067
143	0xbe0332c7	-0.12812339
144	0xbdba55eb	-0.09098419
145	0x3d1e6f00	0.038680077
146	0xbe43247c	-0.19056886
147	0xbe17eaa2	-0.14835599
148	0xbe661a7e	-0.22471043
149	0xbe38693a	-0.18008891
150	0xbe00ce9a	-0.12578812
151	0xbe3287ac	-0.17434567
152	0xbe649e2d	-0.22325964
153	0xbe30b0cc	-0.17254943
154	0xbe0369c4	-0.12833315
155	0x3e429ea7	0.19005834
156	0x3e6dce91	0.2322333
157	0x3e8e2b51	0.27767423
158	0x3ecd087d	0.4004554
159	0x3ea33906	0.31879443
160	0xbe18bc75	-0.1491564
161	0xbdc1e1eb	-0.094669186
162	0xbe15afd8	-0.1461786
163	0xbde879e8	-0.11351377
164	0xbd8058c0	-0.06266928
165	0x3da3eb75	0.08003894
166	0x3c3a551f	0.0113728335
167	0x3c13ed22	0.009028705
168	0x3cc96dbc	0.024588458
169	0xbcb19de1	-0.021681728
170	0xbe11110c	-0.14166659
171	0xbdcc866a	-0.09986575
172	0xbdfffa68	-0.12498933
173	0xbe4991be	-0.19684502
174	0xbdcb0cd0	-0.09914553
175	0xbe637302	-0.22211841
176	0xbdff7ad1	-0.12474597
177	0xbd09335a	-0.03349624
178	0xbc7f48ff	-0.0155813685
179	0x3d9a9983	0.07548811
180	0xbde791cf	-0.11307108
181	0xbd227ed1	-0.039671723
182	0x3d0811c8	0.033220083
183	0xbd387273	-0.045031022
184	0xbdc9f060	-0.09860301
185	0xbd4b3ece	-0.049620442
186	0xbd255a36	-0.040369235
187	0x3ca86a0f	0.020558385
188	0xbd73a41c	-0.05948268
189	0xbd44beaa	-0.048033394
190	0xbd4d0639	-0.050054763
191	0x3aa3a6d4	0.0012485632
192	0xbd37ef27	-0.044905808
193	0xbc8e3b23	-0.017362183
194	0xbd854796	-0.065077946
195	0xbd862851	-0.065506585
196	0x3d19ccb0	0.03754872
197	0x3deccf5d	0.11562989
198	0x3e06949c	0.13142627
199	0x3e2cd505	0.16878136
200	0xbd2b44e7	-0.041813757
201	0xbe3bc63f	-0.18337344
202	0xbe457872	-0.19284227
203	0xbe3a69a0	-0.18204355
204	0xbdcf9054	-0.1013495
205	0x3dea6279	0.114445634
206	0x3e7f6367	0.24940263
207	0x3dd4d2c2	0.10391761
208	0x3d635f2d	0.05551069
209	0x3e06c57a	0.13161269
210	0x3dc5748e	0.09641372
211	0xbd5773f7	-0.052600827
212	0xbd0f6225	-0.035005707
213	0xbd92420e	-0.07141505
214	0xbe46f2d8	-0.19428575
215	0xbdc72970	-0.097247005
216	0xbe850b49	-0.25985172
217	0xbe7312b6	-0.23737606
218	0xbdea8d6e	-0.11452757
219	0x3d0492ae	0.032366447
220	0xbb74291d	-0.003725595
221	0x3c41ef3d	0.011836824
222	0xbb0d2159	-0.002153477
223	0x3e57c1b2	0.21069983
224	0x3d0c46c7	0.034247186
225	0xbc9209bb	-0.017826905
226	0x3d8e3bae	0.06944977
227	0x3c308866	0.010774707
228	0x3d4267e4	0.04746236
229	0xbd85c19a	-0.06531067
230	0x3dbe86ec	0.09303078
231	0x3da67799	0.0812828
232	0x3dae0fd5	0.084991135
233	0x3db3a81e	0.087723
234	0xbc61e167	-0.01378665
235	0xbd734a73	-0.059397172
236	0xbd8806ba	-0.06641908
237	0x3d470e07	0.048597362
238	0x3dd91259	0.10599203
239	0x3db21e6c	0.08697209
240	0x3e012bbe	0.12614343
241	0x3de6baac	0.112660736
242	0x3dcff52d	0.101541854
243	0x3ddf892a	0.10914834
244	0x3d9b3500	0.07578468
245	0xbe36c804	-0.17849737
246	0xbe71b243	-0.23603158
247	0xbe7038bf	-0.23459147
248	0xbcb5d587	-0.022196544
249	0xbc85721d	-0.016289765
250	0xbd242dd3	-0.040082764
251	0xbc2bc77a	-0.010484571
252	0x3dddd8ba	0.10832353
253	0x3db40686	0.08790307
254	0x3e2bc05e	0.16772601
255	0x3e5b2231	0.21399762

sfeb.4.weight f4 [32]
0	0x3f3a8251	0.728551
1	0x3ef051aa	0.46937305
2	0x3f50fffb	0.81640595
3	0x3f9cf2b2	1.2261565
4	0x3eb99f69	0.36254433
5	0x3ebada02	0.36494452
6	0x3f17de7e	0.5932387
7	0x3a2718a1	0.00063742144
8	0x3ef2ac16	0.47396916
9	0x3f0c947b	0.54914063
10	0x3c77d423	0.015126261
11	0x3f3637e1	0.71179014
12	0x3f2656c9	0.64976174
13	0x3f42a6d3	0.76035804
14	0x3f7bd17f	0.9836654
15	0xba56f1fa	-0.00081995095
16	0x3f2211bd	0.63308316
17	0x3ee5f26c	0.44911516
18	0x3f0e813e	0.5566596
19	0x398f71ce	0.00027359877
20	0x3f131c62	0.57465184
21	0x3f0d57f7	0.5521235
22	0x3f3949b7	0.72378105
23	0x3ef7844e	0.48343128
24	0x3a2fdbad	0.00067084545
25	0x3a5a3673	0.00083241536
26	0x3edf7790	0.43645906
27	0x3f04bf4f	0.51854414
28	0x3ebaaac5	0.36458412
29	0x3f0fc0a2	0.5615331
30	0x3eec8d8e	0.46201748
31	0x3ece4876	0.40289658

sfeb.4.bias f4 [32]
0	0x3e106777	0.14101969
1	0xbe6c5466	-0.2307907
2	0xbde43b09	-0.111440726
3	0xbd46413c	-0.048402056
4	0xbd4f2b34	-0.05057831
5	0x3d1972d6	0.03746303
6	0x3e252e88	0.16131032
7	0xbd93b3ad	-0.07212005
8	0x3d86dd9a	0.06585236
9	0xbd4ce19d	-0.05001985
10	0xbcd0f88f	-0.025509147
11	0x3d8d3382	0.0689459
12	0x3db24884	0.087052375
13	0x3d87fb26	0.066397
14	0x3d533035	0.051559646
15	0xbd2e7fd3	-0.04260237
16	0xbd6a5eff	-0.0572195
17	0x3d7e7c48	0.062130243
18	0xbd58d9f2	-0.052942224
19	0xbcc1d9a0	-0.023663342
20	0xbd0a2cb5	-0.033734042
21	0xbdf9f916	-0.122057125
22	0xbdc830d1	-0.09774936
23	0x3d0df0fa	0.03465364
24	0xbca0ddb5	-0.019636968
25	0xbcb14eba	-0.021643985
26	0x3d438cd7	0.047741737
27	0xbd655578	-0.055989712
28	0xbe05a159	-0.1304983
29	0xbdd228fd	-0.10261724
30	0xbe0f5727	-0.1399809
31	0x3ce1b37b	0.027551403

sfeb.4.running_mean f4 [32]
0	0x3d81d726	0.063398644
1	0xbe41af4b	-0.18914525
2	0xbec61404	-0.38687146
3	0xbf0fa75b	-0.5611474
4	0xbed74ad2	-0.4204927
5	0xbdbff80f	-0.09373485
6	0xbe5bf538	-0.21480262
7	0x3c6c0ea2	0.014407786
8	0xbe9e0a16	-0.3086707
9	0xbe4badac	-0.1989047
10	0xbd4d4a4e	-0.05011969
11	0xbe9bc9b9	-0.3042734
12	0x3daf97a7	0.08573847
13	0x3c909d08	0.017653003
14	0xbe8f0f42	-0.27941328
15	0xbb9e3d54	-0.004829088
16	0xbec11129	-0.37708405
17	0xbeab81dd	-0.33497515
18	0xbe958884	-0.29205716
19	0xbbff6cd4	-0.0077949557
20	0xbeb8e697	-0.36113426
21	0xbf0d95f6	-0.5530695
22	0xbeb51967	-0.35370943
23	0xbeb8f5ca	-0.36125022
24	0xbc806781	-0.015674355
25	0xbc91387f	-0.017727135
26	0xbeb9f212	-0.36317497
27	0xbe6695a0	-0.22518015
28	0xbee8dafa	-0.45479566
29	0xbec457be	-0.38348192
30	0xbe4d32e3	-0.20038943
31	0x3ab571e6	0.0013843148

sfeb.4.running_var f4 [32]
0	0x3ed5e9fd	0.4178008
1	0x3ee2fd55	0.44333902
2	0x3f397325	0.7244132
3	0x3fa5a3bd	1.2940594
4	0x3ecedcc1	0.40402797
5	0x3ece653a	0.40311605
6	0x3f128a13	0.57241935
7	0x3c07d0c8	0.008289523
8	0x3ec0a084	0.37622464
9	0x3e86985a	0.2628811
10	0x3b888bec	0.0041670706
11	0x3f1543bc	0.5830648
12	0x3f1e1585	0.61751586
13	0x3f7dd1ed	0.99148446
14	0x3f9c546a	1.2213261
15	0x3b1d45ef	0.0023997982
16	0x3f2945fd	0.6612242
17	0x3f32cd62	0.6984464
18	0x3f4f4ec5	0.8097957
19	0x3af289f3	0.0018504247
20	0x3f2f41da	0.68459857
21	0x3f79ed5a	0.97627795
22	0x3f4c3b91	0.7977839
23	0x3f10fddf	0.56637377
24	0x3a9f04a1	0.0012132117
25	0x3a8ad9cb	0.0010593472
26	0x3f0f3f38	0.5595584
27	0x3f1bd62d	0.6087368
28	0x3ef3920b	0.4757236
29	0x3f075a9e	0.52872646
30	0x3e852b21	0.26009467
31	0x3e5459c7	0.20737372

tfeb.0.weight f4 [13, 1, 3, 3]
0	0x3d15fe77	0.03661963
1	0x3a346764	0.00068818615
2	0xbbc4d514	-0.006006846
3	0x3b98f9fb	0.004668472
4	0x3a0c7ada	0.00053588825
5	0x3ae0f621	0.0017163196
6	0x3b0ca76b	0.0021462094
7	0x3bdb04ca	0.0066839205
8	0x3bdd3a5c	0.0067513417
9	0x3c20110a	0.009769687
10	0xbc36545c	-0.011128511
11	0x3c8158b9	0.015789377
12	0x3c8b8002	0.017028812
13	0xbc50c1f6	-0.012741556
14	0x3c711e24	0.014716659
15	0x3c8fa333	0.017533874
16	0xbc04a987	-0.008097059
17	0x3c9450e6	0.018104982
18	0x3e849ff1	0.25903276
19	0x3e27de55	0.16393407
20	0xbed39afb	-0.41329178
21	0x3ecf956c	0.40543687
22	0x3ee3e37a	0.44509488
23	0xbf28db1e	-0.65959346
24	0x3e6e5bc3	0.23277192
25	0x3e44c6c7	0.19216453
26	0xbeee9850	-0.4660058
27	0xbe62e7e8	-0.22158778
28	0xbcb3c5a3	-0.021944826
29	0x3e29f35f	0.16596745
30	0xbf1a75c6	-0.6033596
31	0x3efb0656	0.4902827
32	0x3f172e8c	0.590554
33	0xbe93c212	-0.28859
34	0x3e2a8184	0.16650969
35	0x3e7cd999	0.24692382
36	0x3d30c999	0.04316101
37	0x3ef4eced	0.4783701
38	0xbefdd89d	-0.49579325
39	0x3db2efa7	0.08737116
40	0x3d8d17b6	0.06889288
41	0xbeb71fca	-0.3576644
42	0xbe1e8676	-0.1548098
43	0xbc8ebb1f	-0.01742321
44	0xbea6ba82	-0.3256417
45	0x3d19456d	0.037419725
46	0xbe4273df	-0.18989514
47	0xbe35b056	-0.17743048
48	0x3d3376e2	0.043814547
49	0xbe505a83	-0.20347027
50	0xbe9fee75	-0.31236616
51	0x3e77f97f	0.24216269
52	0xbe462c25	-0.19352777
53	0xbe353ca5	-0.17698915
54	0x3f6704ba	0.9024159
55	0xbf06cc7b	-0.5265576
56	0xbf13af88	-0.57689714
57	0x3f7dd6f7	0.99156135
58	0xbf039464	-0.513983
59	0xbf2cd6dd	-0.67515355
60	0x3eff0fcd	0.49816743
61	0xbe99d9cc	-0.30048978
62	0xbf040888	-0.5157552
63	0xbe257d8f	-0.16161178
64	0xbe4daee2	-0.20086244
65	0xbe279203	-0.16364293
66	0xbda305a5	-0.07960061
67	0xbe17a90e	-0.14810583
68	0xbdd72390	-0.1050483
69	0x3dc69778	0.09696859
70	0x3e5b0c17	0.2139133
71	0x3e08495b	0.13309233
72	0xbe5db27e	-0.2165012
73	0xbea871ca	-0.32899314
74	0xbe0d26bc	-0.13784307
75	0xbe2bb64e	-0.16768762
76	0xbe81ae7e	-0.2532844
77	0xbd4ba854	-0.049721077
78	0xbd8ecfcc	-0.06973228
79	0xbe1c9f5d	-0.15295167
80	0xbdf38e50	-0.11892378
81	0xbd91b47e	-0.07114504
82	0xbdcf72f0	-0.101293445
83	0x3d2b8d10	0.041882575
84	0xbde2a717	-0.11067026
85	0xbe10bc1d	-0.1413426
86	0xbc2be830	-0.0104923695
87	0x3d918e07	0.07107168
88	0xbee54334	-0.44777834
89	0x3ef1dbf3	0.4723812
90	0x3eb1bd27	0.34714624
91	0x3de50fb2	0.11184634
92	0x3df1517c	0.1178312
93	0x3ea05366	0.31313628
94	0x3d3623b4	0.044467643
95	0x3d46af01	0.04850674
96	0xbd69d5ca	-0.05708865
97	0xbd9dea64	-0.07710722
98	0xbd3f54d4	-0.046711758
99	0xbd9e859c	-0.07740328
100	0xbe3576c0	-0.17721081
101	0xbd87854e	-0.06617223
102	0xbe4d16ff	-0.20028304
103	0xbe8b02e3	-0.2715064
104	0xbe151083	-0.1455708
105	0x3cd7fe6d	0.026366437
106	0xbdf4eaf8	-0.11958879
107	0xbd1494e3	-0.036274802
108	0xbea4384d	-0.32074204
109	0xbe684103	-0.2268105
110	0x3eb121eb	0.3459619
111	0xbf2fd731	-0.6868773
112	0xbf1daa31	-0.61587816
113	0x3f976cf7	1.1830128
114	0xbeb484fa	-0.35257703
115	0xbe8b259c	-0.2717713
116	0x3eb6e0ff	0.35718533

tfeb.1.weight f4 [13]
0	0xba6d7ab5	-0.00090591173
1	0xbb1ee672	-0.0024246243
2	0x3ea13416	0.3148505
3	0x3eac947d	0.33707038
4	0x3eb24269	0.34816292
5	0x3ead41d3	0.33839282
6	0x3f1e7ce4	0.6190932
7	0x3e98b0c3	0.29822358
8	0x3f710e61	0.94162565
9	0x3eb674db	0.3563603
10	0x3e8f8774	0.2803303
11	0x3f047164	0.5173552
12	0x3f102315	0.5630353

tfeb.1.bias f4 [13]
0	0xbc592964	-0.013254497
1	0xbc807f82	-0.0156858
2	0x3e3af476	0.18257317
3	0x3e76f0b8	0.24115264
4	0x3eb2b097	0.34900352
5	0x3eb6fe61	0.3574095
6	0x3c2b8e47	0.010470933
7	0x3d8dc5f3	0.069225214
8	0xbe9a7449	-0.30166844
9	0xbb47668c	-0.0030426113
10	0x3e537044	0.20648295
11	0x3ddf264f	0.10895979
12	0x3e576df2	0.21038035

tfeb.1.running_mean f4 [13]
0	0x3ca678a7	0.020321203
1	0x3cbbfd7a	0.022948015
2	0x3d7a9859	0.061180446
3	0x3e465160	0.1936698
4	0xbe7ef79c	-0.24899143
5	0xbeb53276	-0.3539006
6	0xbe87e5ea	-0.26542598
7	0xbe2ed830	-0.17074656
8	0xbf120b18	-0.5704818
9	0xbde92bfe	-0.11385344
10	0x3ea0d4c5	0.3141233
11	0xbed1f72c	-0.4100889
12	0xbe6b4e9e	-0.22979209

tfeb.1.running_var f4 [13]
0	0x3a7c3aba	0.0009621788
1	0x3a95a503	0.0011416975
2	0x3de3df69	0.111265965
3	0x3e43d9ef	0.19126104
4	0x3e435cd2	0.19078377
5	0x3e92a4df	0.28641412
6	0x3ed98641	0.4248524
7	0x3e37ebfe	0.17961118
8	0x3f2edf70	0.6830969
9	0x3d6be462	0.05759085
10	0x3e8e15f9	0.2775114
11	0x3ebf10af	0.37317416
12	0x3e988725	0.29790607

tfeb.4.weight f4 [25, 13, 3, 3]
0	0x3b289464	0.0025723213
1	0xbb38b434	-0.0028183581
2	0x3a9a9746	0.001179435
3	0xba6fbe05	-0.00091454416
4	0xbbae209b	-0.0053139455
5	0xbb532740	-0.003221944
6	0x3b23becf	0.0024985557
7	0xbacb59d9	-0.0015514448
8	0xb9e76fef	-0.0004414315
9	0x3af8a33a	0.0018969544
10	0xbbbe91e6	-0.0058157323
11	0x3b883530	0.004156731
12	0x3b1cc16b	0.0023918997
13	0xbbe3baf5	-0.0069497772
14	0x3b564a01	0.0032697918
15	0x3b501bfe	0.0031754966
16	0xbb54ad1e	-0.0032451819
17	0x3ba67791	0.0050801714
18	0x3d7ff950	0.062493622
19	0xbb5e7827	-0.0033946128
20	0x3d9e45b3	0.07728138
21	0xbde266fc	-0.11054799
22	0xbe400e59	-0.18755473
23	0xbe07f198	-0.13275754
24	0x3d21cbe7	0.039501097
25	0xbdf7fd08	-0.12108809
26	0xbcf4850a	-0.029848594
27	0xbcf89f27	-0.030349327
28	0xbd830b5f	-0.06398653
29	0xbc8c42e6	-0.017121743
30	0xbd8a5bbb	-0.067557774
31	0xbd58ffce	-0.05297833
32	0x3ad7f704	0.0016476815
33	0xbe00e82e	-0.1258857
34	0xbd236671	-0.039892618
35	0x3a0d5bbf	0.00053923944
36	0x3d8aa1d8	0.067691505
37	0x3d3b61d5	0.045747597
38	0x3dc2ed59	0.09517927
39	0xbd162c6e	-0.036663465
40	0xbd8a5ebf	-0.06756353
41	0xbd936077	-0.071961336
42	0x3cc44bf1	0.023961993
43	0x3c5e54bf	0.01357001
44	0x3d083764	0.03325595
45	0xbd8b074d	-0.06788502
46	0xbc206ea2	-0.009792002
47	0xbd3d59e3	-0.0462283
48	0x3c24e964	0.01006541
49	0x3c6a44eb	0.014298658
50	0xbd4cf064	-0.050033942
51	0x3d47f986	0.04882195
52	0x3bfe608a	0.007762973
53	0x3c7ef73e	0.015561877
54	0x3d934ef9	0.07192797
55	0x3da06093	0.0783092
56	0xbd3a6cf2	-0.045514055
57	0xbe378bba	-0.17924395
58	0xbd5bf4bd	-0.053700197
59	0xbea3810e	-0.31934398
60	0x3c3609a7	0.0111107
61	0xbe0a4417	-0.13502537
62	0xbdf50db9	-0.11965508
63	0xbd8473df	-0.06467413
64	0xbcfbcffe	-0.030738827
65	0x3c9170fd	0.017754072
66	0x3d630149	0.055421147
67	0x3d8c9580	0.06864452
68	0x3da22701	0.07917596
69	0xbbe9e5f2	-0.0071380073
70	0xbc898a15	-0.016789475
71	0xbcb1d7a9	-0.02170928
72	0xbc02785d	-0.007963267
73	0x3b20d3f9	0.0024540408
74	0x3d1affdd	0.037841666
75	0x3cdf1b12	0.027234588
76	0xbbd86a1d	-0.0066044466
77	0xbc2ee66c	-0.010675054
78	0x3db8bc66	0.09020309
79	0x3d0dd38e	0.034625582
80	0xbc196b7d	-0.009364006
81	0x3c6cb6ca	0.014447877
82	0xbde9884c	-0.1140295
83	0x3d36ccfd	0.044629086
84	0x3ba62e74	0.0050714556
85	0xbde97525	-0.11399297
86	0x3d082651	0.033239666
87	0xbc821eac	-0.015883766
88	0xbd86608d	-0.06561384
89	0x3cb816bc	0.022471778
90	0x3d7aad71	0.061200563
91	0x3ddcbe8d	0.10778532
92	0x3db376a2	0.08762862
93	0xbe207eb3	-0.15673332
94	0xbda0062c	-0.07813677
95	0xbd946525	-0.07245854
96	0xbd72ee20	-0.059309125
97	0xbcfcacb8	-0.030844077
98	0xbca6c861	-0.02035922
99	0xbd50a582	-0.05093909
100	0xbc9b5fb2	-0.01896653
101	0xbc9a6a34	-0.01884947
102	0x3d6908b4	0.056893066
103	0x3d1c3bd5	0.038142998
104	0x3b38ea49	0.0028215817
105	0x3d2eeaa5	0.042704243
106	0x3cdfbc29	0.027311401
107	0xbc4d6766	-0.012536859
108	0x3d40e731	0.04709548
109	0xbe47b4ca	-0.1950256
110	0xbcc52ad7	-0.02406828
111	0x3d866435	0.06562082
112	0xbe524cd7	-0.20537125
113	0xbba73771	-0.0051030447
114	0xbc0549a4	-0.008135233
115	0xbd617f5d	-0.055053104
116	0xbc6090d9	-0.013706409
117	0x3ace1c36	0.001572496
118	0xbabd3fe9	-0.0014438602
119	0xb9567679	-0.00020452765
120	0xba444f32	-0.00074886077
121	0xba52672e	-0.0008026239
122	0xba3231d4	-0.0006797586
123	0x3b1589bd	0.0022817694
124	0x3a9f6547	0.001216092
125	0xba19eb9e	-0.00058715965
126	0xbb367398	-0.0027839895
127	0xbb394954	-0.0028272467
128	0xba9ed041	-0.0012116508
129	0x3b3d9337	0.0028926858
130	0x3aa8cf52	0.0012879169
131	0x3b1bb9e1	0.0023761916
132	0x3b39a3a5	0.00283263
133	0x3b0af07b	0.0021200466
134	0x3b76b684	0.003764541
135	0xbcb1aa72	-0.02168772
136	0xbca0e1a4	-0.019638844
137	0xbdae4eda	-0.085111335
138	0xbccf3ca8	-0.025297478
139	0x3d6d7e30	0.05798167
140	0xbd338eec	-0.043837473
141	0x3d37c98e	0.044869952
142	0x3d5693d0	0.05238706
143	0x3b9dcd2a	0.004815717
144	0x3da0a204	0.07843402
145	0x3cea4b25	0.028600285
146	0xbcc10279	-0.02356075
147	0x3d0b2ab8	0.033976287
148	0xbdaf3250	-0.08554518
149	0xbe19a999	-0.15006103
150	0x3d3f742b	0.046741646
151	0xbcb4f718	-0.02209048
152	0xbd887ade	-0.0666406
153	0xbb578ba5	-0.003288963
154	0xbdb22919	-0.08699245
155	0xbd9ae477	-0.075631075
156	0xbde5e16b	-0.11224636
157	0xbe12bae5	-0.14329107
158	0xbda40915	-0.08009545
159	0xbd8dd924	-0.06926182
160	0xbd7786a3	-0.060431134
161	0xbc2addd6	-0.010428866
162	0x3ccb974e	0.024852421
163	0x3b83d362	0.0040230015
164	0xbcc6ce06	-0.024268162
165	0xbdbb20ee	-0.0913714
166	0xbd939fc4	-0.07208207
167	0xbd376b92	-0.04478032
168	0xbdc6b55f	-0.097025625
169	0xbdaa4cf8	-0.08315462
170	0xbc858b77	-0.016301854
171	0xbd3df3fe	-0.046375267
172	0xbdbbb4b1	-0.091653235
173	0xbe44120b	-0.19147508
174	0xbe5301e9	-0.20606197
175	0xbd4635ce	-0.048391156
176	0xbe3be481	-0.18348886
177	0xbd95778a	-0.07298191
178	0xbce36681	-0.027758839
179	0xbda8ac77	-0.0823602
180	0x3dba3b13	0.09093299
181	0x3db7183f	0.089401715
182	0x3d702464	0.058628455
183	0xbda781ba	-0.0817904
184	0xbdb324be	-0.087472424
185	0xbd8ffb29	-0.07030327
186	0xba0c0375	-0.00053410913
187	0x3c8f5e7e	0.017501112
188	0x3d7187d7	0.058967438
189	0x3d15c51e	0.03656494
190	0x3b85c4df	0.0040823068
191	0xbc183359	-0.009289586
192	0xbbd960ac	-0.0066338386
193	0xbd036807	-0.03208163
194	0x3b9f84c6	0.0048681227
195	0xbc8109e2	-0.015751783
196	0xbcfab4a1	-0.030603709
197	0x3cb8450a	0.022493858
198	0x3ce743b0	0.028230518
199	0xbd4f60a8	-0.050629288
200	0xbcd65160	-0.02616185
201	0xbd2eb088	-0.042648822
202	0xbe21a900	-0.15787125
203	0xbdb6791b	-0.08909818
204	0xbd181b7a	-0.03713558
205	0xbd54a477	-0.05191466
206	0xbc675d62	-0.014121385
207	0xbd272938	-0.040810794
208	0xb9fd56e0	-0.00048320647
209	0xbd6d8f1d	-0.05799781
210	0x3c71785c	0.014738169
211	0x3dd0e5e2	0.10200097
212	0xbc7f53f8	-0.015583985
213	0x3da4a160	0.08038592
214	0x3df4dd2c	0.11956248
215	0x3ca85453	0.020548021
216	0x3d97d639	0.074139066
217	0x3d705527	0.058674958
218	0x3d2123f4	0.03934093
219	0xbd162851	-0.036659542
220	0xbd5625ae	-0.052282028
221	0xbcc6ee3f	-0.024283526
222	0xbda44de0	-0.08022666
223	0xbd8a427c	-0.06750962
224	0xbbf7a08c	-0.0075569805
225	0x3d2aacf7	0.04166886
226	0xbdb334a2	-0.08750273
227	0xbde2c32f	-0.110723846
228	0xbc78d982	-0.015188577
229	0xbe7b4061	-0.24536277
230	0xbe5d457f	-0.21608542
231	0xbdb58649	-0.088635035
232	0xbe040b4b	-0.12894933
233	0xbdd6c915	-0.10487572
234	0xba0cf544	-0.00053771236
235	0x3aa03d21	0.0012225249
236	0x3ab4e6f2	0.0013801737
237	0xbb24bc52	-0.0025136662
238	0xbc251247	-0.010075158
239	0xbb6ede0f	-0.0036448275
240	0xbbbda665	-0.005787658
241	0xba8a0d21	-0.0010532477
242	0xbb4e6439	-0.0031492843
243	0xbb3691f1	-0.0027857984
244	0x3aac47ea	0.0013143991
245	0xb8f3c074	-0.0001162299
246	0xbbea9517	-0.007158886
247	0xbb4f3933	-0.0031619787
248	0xbba69fa0	-0.0050849468
249	0xbb57c997	-0.0032926553
250	0xbad93e5f	-0.0016574374
251	0x3ae1c081	0.0017223508
252	0xbcbac57c	-0.022799246
253	0xbda177ec	-0.078842014
254	0x3dbdb8b8	0.09263748
255	0xbd7328c0	-0.059365034

tfeb.5.weight f4 [25]
0	0x3edf657a	0.43632108
1	0x3e4554b1	0.19270588
2	0x3ea81e1b	0.3283547
3	0x3e97d5fb	0.29655442
4	0x3ef0c41b	0.47024617
5	0x3ecbc1d5	0.3979632
6	0x3e7f1db5	0.24913676
7	0x3e8eb4fc	0.27872455
8	0x3f269bc7	0.6508145
9	0x3eaae8fe	0.33380884
10	0x3e7bdad2	0.24595192
11	0x3f1afe9a	0.6054474
12	0x3f0743b9	0.5283771
13	0x3f200246	0.6250347
14	0x3e52c377	0.20582376
15	0x3e85a1c1	0.2609997
16	0x3eb09ecf	0.3449616
17	0x3e4307e7	0.19045983
18	0x3eed8ffc	0.46398914
19	0x3e5331bf	0.20624445
20	0x3eee7cc3	0.4657956
21	0x3e64f125	0.22357614
22	0x3e81a071	0.2531772
23	0x3dc42a58	0.09578389
24	0x3e853e05	0.2602388

tfeb.5.bias f4 [25]
0	0x3d6972f2	0.056994386
1	0x3e80695f	0.25080392
2	0x3c4b1336	0.012394717
3	0x3cfe557b	0.03104662
4	0xbd537acd	-0.051630784
5	0x3dd0ce51	0.10195602
6	0x3e376ab5	0.17911799
7	0x3d89f79c	0.06736681
8	0xbd4a8843	-0.049446356
9	0xbccb78db	-0.024837902
10	0x3e229a59	0.15879191
11	0xbd5ad7e0	-0.05342853
12	0xbe3ca020	-0.18420458
13	0xbd8b27cd	-0.06794701
14	0x3e4363bd	0.19081016
15	0x3e16d13c	0.14728254
16	0xbc080eee	-0.008304341
17	0xbd6e53ab	-0.05818526
18	0xbd71ff87	-0.05908158
19	0x3ea7955b	0.32731137
20	0xbe00b482	-0.12568858
21	0x3e99318f	0.29920623
22	0x3e9b0daf	0.30283877
23	0x3d96145a	0.073281005
24	0xbd65fa3e	-0.056146853

tfeb.5.running_mean f4 [25]
0	0xbf15e111	-0.5854655
1	0xbf91f80a	-1.140382
2	0xbd15f205	-0.03660776
3	0x3dd9719e	0.10617374
4	0xbf47bff8	-0.78027296
5	0xbeede595	-0.4646422
6	0xbf12df7c	-0.5737226
7	0xbee58729	-0.44829682
8	0xbf0ce47b	-0.55036134
9	0xbef80e34	-0.48448336
10	0xbf0d8f29	-0.5529657
11	0xbf0a2dba	-0.53976023
12	0x3dfb9688	0.12284571
13	0xbe8fbb86	-0.28072757
14	0xbec88b26	-0.39168662
15	0xbe30ae30	-0.17253947
16	0xbf408d92	-0.7521602
17	0xbe5bd5fa	-0.21468344
18	0xbecdf0a0	-0.40222645
19	0xbec4e2d5	-0.3845431
20	0xbe03d7d0	-0.12875295
21	0xbf2200fd	-0.6328276
22	0xbe1badfb	-0.15203087
23	0xbe954296	-0.29152364
24	0x3dca0433	0.09864082

tfeb.5.running_var f4 [25]
0	0x3e80bc34	0.25143588
1	0x3e6f8f85	0.23394592
2	0x3e31b6fa	0.17354956
3	0x3d2db501	0.042408947
4	0x3ea946ff	0.33061978
5	0x3e2f4b6c	0.17118615
6	0x3e0d30bf	0.13788126
7	0x3da7bc33	0.08190193
8	0x3ea88fe1	0.3292227
9	0x3ddd2d1d	0.1079962
10	0x3e498832	0.1968086
11	0x3eb69c42	0.3566609
12	0x3e222c1f	0.15837143
13	0x3e27ec31	0.16398694
14	0x3df66301	0.12030602
15	0x3e284d14	0.16435653
16	0x3df1ba12	0.11803068
17	0x3d2a7816	0.04161843
18	0x3e103005	0.14080818
19	0x3dffe294	0.12494388
20	0x3e417d5a	0.18895474
21	0x3eb65475	0.3561131
22	0x3e41fec3	0.1894484
23	0x3ca2d9a3	0.019879168
24	0x3d140cdd	0.03614508

tfeb.7.weight f4 [28, 25, 3, 3]
0	0x3c848f11	0.0161815
1	0x3c28cffd	0.0103034945
2	0x3d278d4d	0.04090624
3	0x3d0a914b	0.03382997
4	0x3d000ec1	0.03126407
5	0x3caaf0fd	0.020866865
6	0x3c781445	0.015141551
7	0x3d34da3c	0.044153437
8	0x3d1eb7f6	0.038749658
9	0x3c8390cf	0.016060261
10	0xbb8c9b35	-0.004290963
11	0xbc2cde94	-0.010551114
12	0x3d9f2f47	0.07772689
13	0x3dcbdee4	0.099546224
14	0x3d8ff627	0.07029372
15	0x3d5eb523	0.054371964
16	0x3cc9a985	0.024616966
17	0xbbe007b1	-0.0068368544
18	0xbcd43730	-0.025905222
19	0xbc8bdc3e	-0.017072793
20	0xbca4a40a	-0.020097751
21	0xbdfc7af0	-0.12328136
22	0xbdb9980c	-0.09062204
23	0xbd80a744	-0.062819034
24	0xbcda7b02	-0.026669983
25	0x3c20ca7b	0.0098139
26	0x3d126d1a	0.03574858
27	0xbd28a8cc	-0.041176602
28	0xbcebf8d4	-0.028805174
29	0xbd2a0152	-0.041505165
30	0xbd58dbd4	-0.05294402
31	0xbd594dee	-0.053052835
32	0xbc698849	-0.014253684
33	0xbcbdbc41	-0.023161056
34	0xbd1ef5c5	-0.038808603
35	0x3d941548	0.072306216
36	0x3bf142cf	0.0073627005
37	0x3d292c20	0.041301847
38	0x3d936285	0.071965255
39	0x3cd98076	0.026550513
40	0x3d4fd262	0.050737746
41	0x3d8b8c9d	0.06813929
42	0x3be770fa	0.0070630284
43	0x3d063146	0.032761835
44	0x3d82f6b3	0.063947104
45	0xbd6f0845	-0.058357496
46	0xbd4178c7	-0.047234323
47	0x3c279ab0	0.0102297515
48	0xbc4e73d0	-0.012600854
49	0x3ce62b97	0.028096957
50	0x3c80285d	0.015644247
51	0xbd3d420d	-0.04620557
52	0x3bda5945	0.006663474
53	0x3cd026be	0.025409099
54	0xbde917c7	-0.11381488
55	0xbd180d0f	-0.03712183
56	0xbd625d18	-0.055264562
57	0x3bcf6990	0.0063297227
58	0xba0f2921	-0.0005461146
59	0xbd377ca2	-0.044796593
60	0x3c8d4975	0.017246941
61	0x3d2f8a9c	0.042856798
62	0xbbf2fc9b	-0.007415367
63	0xbb8026b7	-0.003910865
64	0xbbb68de3	-0.0055711134
65	0xbba1674b	-0.0049256436
66	0x3c654756	0.013994059
67	0x3d4ea1b3	0.050447177
68	0x3c4736a1	0.012159021
69	0x3c82e470	0.015978068
70	0x3cf1e2e5	0.029527137
71	0x3c9e25b1	0.019305082
72	0xbd07749d	-0.033070195
73	0x3ba60502	0.005066515
74	0xbcd6e127	-0.026230408
75	0x3d5037c2	0.050834425
76	0x3de845d5	0.113414444
77	0x3dbd68ae	0.09248482
78	0x3c124eb7	0.0089299
79	0x3d3f73e0	0.046741366
80	0x3d822e27	0.06356459
81	0x3c5a6ebb	0.013332064
82	0x3bee89aa	0.0072795944
83	0x3c93a9da	0.018025327
84	0x3b1a509f	0.002354659
85	0x3c7a0e5e	0.0152622145
86	0x3b7721e9	0.003770942
87	0x3ccb0f0e	0.024787452
88	0x3d08cb2b	0.03339688
89	0x3cba73dd	0.022760326
90	0xbceef702	-0.029170517
91	0xbcb35542	-0.02189124
92	0xbd4d00e0	-0.050049663
93	0x3d6546e7	0.05597582
94	0x3d9b90d7	0.075959854
95	0x3d85e390	0.06537545
96	0x3d196604	0.037450805
97	0x3beb192f	0.007174633
98	0xbd690368	-0.056888014
99	0x3c47d684	0.012197141
100	0x3d33f069	0.043930445
101	0x3d58bb17	0.052912798
102	0x3cdba3ab	0.026811441
103	0x3d9c982a	0.076462105
104	0x3d6edea3	0.05831779
105	0xbd069cfd	-0.03286456
106	0xba8205d7	-0.0009919953
107	0xbd494e59	-0.049146984
108	0xbd406545	-0.04697158
109	0xbc9234fa	-0.017847527
110	0xbc8acb53	-0.016942656
111	0xbd21b2fe	-0.03947734
112	0xbccc4b7c	-0.024938338
113	0xbbaf2d32	-0.005345964
114	0xba1cd462	-0.0005982575
115	0xbcfd7c6e	-0.030943122
116	0x3d6ccbd2	0.057811566
117	0xbcf1e414	-0.029527701
118	0xbca2fd99	-0.019896315
119	0xbc8c8a0f	-0.017155675
120	0x3bca0acd	0.0061658383
121	0xbc204efd	-0.009784457
122	0xbd194735	-0.037421424
123	0x3c6c7b40	0.014433682
124	0xbb9042ce	-0.004402495
125	0xbd44c48a	-0.048038997
126	0xba0fda07	-0.00054875057
127	0xbbadf7c7	-0.0053090784
128	0x3bf09158	0.007341545
129	0xbc921970	-0.017834395
130	0xbbf2b807	-0.0074071917
131	0xbcbe3d64	-0.023222633
132	0x3d523ecf	0.05132943
133	0x3da4fd0f	0.080560796
134	0x3d71e9fb	0.05906103
135	0x3db30f60	0.08743167
136	0x3dadaaba	0.08479829
137	0x3d62a672	0.055334516
138	0xbb450d7c	-0.0030067852
139	0x3c48cc39	0.012255722
140	0x3d80a734	0.062818915
141	0xbd961e90	-0.07330048
142	0xbda2a11c	-0.079408854
143	0xbcae1e32	-0.021254633
144	0xbd199aa0	-0.037500978
145	0xbc94cb25	-0.018163273
146	0xbbe1eb7f	-0.0068945284
147	0x3ae6266e	0.001755906
148	0xbc0a1dfc	-0.00843
149	0xbc9eca5e	-0.019383606
150	0x3bc480a8	0.0059967823
151	0x3cf012a2	0.02930576
152	0x3d1c33ce	0.038135342
153	0xbb480f77	-0.0030526796
154	0x3c86993c	0.01643049
155	0x3d182c43	0.037151586
156	0xbc590e34	-0.013248015
157	0xbca6bbcc	-0.02035322
158	0x3c6ffb12	0.014647262
159	0xbc16bc43	-0.0092001585
160	0xbc989b7a	-0.018628825
161	0xbc51b0a9	-0.012798467
162	0xbb93fe1a	-0.0045163753
163	0xbc09c08c	-0.008407723
164	0xbcaa0855	-0.020755926
165	0xbc205c1e	-0.009787587
166	0x3d1b54fe	0.03792285
167	0x3d036563	0.03207911
168	0x3d2164bc	0.03940271
169	0x3d855c9e	0.06511806
170	0x3d395dfd	0.04525565
171	0x3d0db86f	0.034599718
172	0x3c95ff64	0.018310256
173	0x3cf49830	0.029857725
174	0xbc1c33e2	-0.009533854
175	0xbcc6fc85	-0.024290333
176	0x3cfcb127	0.030846192
177	0xbba8b429	-0.00514843
178	0xbc7e3f28	-0.015517987
179	0x3c95779a	0.018245507
180	0xbd2fe416	-0.04294213
181	0xbca9df05	-0.020736227
182	0x3c93ee4f	0.01805797
183	0xbd2e7712	-0.042594023
184	0xbd61af89	-0.055099044
185	0xbd751584	-0.059834972
186	0xbb6fe41d	-0.0036604472
187	0xbc5b9d33	-0.013404178
188	0xbcd54f2b	-0.026038727
189	0xbd7f644f	-0.06235152
190	0xbd0e466a	-0.03473512
191	0xbc147454	-0.009060938
192	0x3d8ea2a5	0.06964616
193	0x3dae8ad0	0.0852257
194	0x3dbc9b31	0.09209288
195	0xbcadd948	-0.021221772
196	0x3b256d77	0.0025242248
197	0x3d85ebb7	0.065391
198	0x3d4f841b	0.050663095
199	0x3d37f071	0.044907037
200	0x3d0a337a	0.033740498
201	0xbd09d03a	-0.033645846
202	0xbd6586ef	-0.056036886
203	0xbd955f8e	-0.07293616
204	0x3d9a1e20	0.07525277
205	0x3dbdf6e5	0.09275607
206	0x3db42f21	0.087980516
207	0x3c1ce342	0.009575667
208	0x3ab371e8	0.0013690563
209	0x3b2b832f	0.002617072
210	0x3cef598e	0.029217508
211	0x3cb582fa	0.022157181
212	0x3d2f3344	0.0427735
213	0x3c894578	0.016756758
214	0xbbafcec2	-0.0053652236
215	0x3c91e9d4	0.017811693
216	0xbb9a4203	-0.0047075762
217	0xbc05075c	-0.00811943
218	0x3bb04dc5	0.0053803646
219	0x3bc88b05	0.006120088
220	0x3c44cd63	0.012011859
221	0x3d57140d	0.052509356
222	0xbccdeccb	-0.025137326
223	0xbcfdfd1e	-0.031004485
224	0xbbfa6b6b	-0.0076421998
225	0x3dcb959a	0.099406436
226	0xbd357b5c	-0.044307098
227	0xbd5983c0	-0.053104162
228	0x3d5b4cf8	0.0535402
229	0xbe0c5366	-0.13703689
230	0xbe02df52	-0.12780502
231	0x3e28bcc6	0.16478261
232	0xbd7568e4	-0.059914485
233	0xbd90f22e	-0.07077442
234	0x3d186558	0.037206024
235	0x3c6bf61b	0.014401938
236	0x3d60dcfc	0.054898247
237	0x3d9e1527	0.07718878
238	0x3d80b1f8	0.06283945
239	0x3c050573	0.008118975
240	0x3d03f71f	0.032218095
241	0xbbfebfa3	-0.0077743097
242	0xbd050d37	-0.032483306
243	0xbcd3fb2d	-0.025876606
244	0x3daa265f	0.083081
245	0x3d2035b8	0.03911373
246	0xbd31552a	-0.04329411
247	0xbd91a9ff	-0.07112502
248	0xbd8e7440	-0.06955767
249	0xbc803eab	-0.015654882
250	0xbd7d4d25	-0.06184115
251	0xbe1ceeb9	-0.1532544
252	0x3c39974c	0.011327576
253	0xbcae71ce	-0.0212945
254	0xbdba4df2	-0.09096898
255	0xbd845938	-0.064623296

tfeb.8.weight f4 [28]
0	0x3e7720ab	0.24133556
1	0x3f045fca	0.5170866
2	0x3e445220	0.19171953
3	0x3ebb2251	0.3654962
4	0x3eda0180	0.4257927
5	0x3eb8c035	0.36084142
6	0x3e973acd	0.2953705
7	0x3e7be46b	0.24598853
8	0x3e0b9cd0	0.13634038
9	0x3ecd2847	0.40069792
10	0x3ea4b1c5	0.32166877
11	0x3ee85ae8	0.45381856
12	0x3ec503e3	0.38479528
13	0x3e85972d	0.260919
14	0x3e55ae19	0.20867194
15	0x3ec0ff95	0.37694994
16	0x3ec87b78	0.391567
17	0x3f07d7f5	0.530639
18	0x3ee0f476	0.4393651
19	0x3ed4a3e0	0.41531277
20	0x3f0f77fa	0.56042445
21	0x3ebdbd6f	0.3705859
22	0x3e9438f0	0.2894969
23	0x3eab530a	0.3346179
24	0x3f038e58	0.51389074
25	0x3ec58aa7	0.38582346
26	0x3ecf4729	0.40483978
27	0x3e71dc07	0.2361909

tfeb.8.bias f4 [28]
0	0x3e26c2e9	0.1628529
1	0xbdfeb6cd	-0.1243721
2	0x3c307069	0.010768988
3	0xbd6320df	-0.05545127
4	0xbdaf8f82	-0.08572294
5	0x3d92ad28	0.07161933
6	0x3ca8cb78	0.020604834
7	0x3d7dd7cd	0.06197338
8	0x3d194a23	0.037424218
9	0xbdbeeb3b	-0.093222104
10	0xbe0306cb	-0.1279556
11	0xbd8dde60	-0.0692718
12	0xbc93105e	-0.01795214
13	0x3db2a72b	0.08723291
14	0x3e4216ff	0.18954085
15	0xbce38b6a	-0.027776439
16	0xbdfd3cef	-0.12365138
17	0xbddd9418	-0.10819262
18	0xbd348395	-0.0440708
19	0xbd374d4d	-0.044751454
20	0xbe244e2f	-0.1604545
21	0xbccd600d	-0.025070215
22	0x3daec00e	0.08532725
23	0xbc8470cb	-0.016167065
24	0xbc927482	-0.01787782
25	0xbcfb3e2a	-0.03066929
26	0xbbcd2839	-0.0062608984
27	0x3df6c619	0.12049503

tfeb.8.running_mean f4 [28]
0	0x3eaa8381	0.33303455
1	0xbea175cb	-0.3153518
2	0xbe5472fa	-0.20746985
3	0xbdd9630f	-0.10614597
4	0xbeb5924f	-0.35463187
5	0x3d954675	0.07288829
6	0xbea0507e	-0.3131141
7	0xbece0a25	-0.40242115
8	0xbdb584a8	-0.08863193
9	0x3d68f4ed	0.056874204
10	0x3e4cb3b7	0.19990431
11	0x3e36189e	0.17782828
12	0xbe5d6abb	-0.21622746
13	0x3d89d578	0.06730169
14	0x3e3ae3ee	0.18251011
15	0xbf05ed3e	-0.5231513
16	0xbe76dcd1	-0.24107672
17	0xbbd60322	-0.006531135
18	0xbe1f13ca	-0.15534893
19	0x3d32f348	0.043689042
20	0xbe71ab95	-0.2360061
21	0xbe80c754	-0.25152075
22	0xbf5451ab	-0.82937115
23	0xbe81beb1	-0.25340798
24	0xbdd12e80	-0.10213947
25	0xbe1444e7	-0.14479409
26	0xbec5d6b2	-0.38640362
27	0x3ee1964a	0.44059974

tfeb.8.running_var f4 [28]
0	0x3d1300ef	0.035889562
1	0x3e21eb07	0.15812312
2	0x3c9f4753	0.01944319
3	0x3d37cf04	0.04487516
4	0x3dac5cf4	0.08416167
5	0x3d448652	0.04797966
6	0x3d101be0	0.035182834
7	0x3d5e979b	0.0543438
8	0x3c4c6d32	0.012477206
9	0x3df35948	0.118822634
10	0x3d24a846	0.04019954
11	0x3d258ac1	0.04041553
12	0x3dd1ee5c	0.102505416
13	0x3da32ed5	0.07967917
14	0x3d99bd52	0.07506813
15	0x3d4818f8	0.048851937
16	0x3db77c6b	0.08959278
17	0x3e49fcdd	0.19725366
18	0x3e02451d	0.12721677
19	0x3dafe031	0.08587683
20	0x3dc3e6fc	0.09565541
21	0x3dd7a775	0.10529987
22	0x3d57f2f2	0.052721925
23	0x3deea711	0.11652959
24	0x3d975671	0.07389534
25	0x3d4acc56	0.049511276
26	0x3d2bdadd	0.04195677
27	0x3d7ff512	0.062489577

tfeb.11.weight f4 [32, 28, 3, 3]
0	0xbc8f4bd5	-0.017492214
1	0xbcbe6b10	-0.02324441
2	0xbcea1637	-0.028575046
3	0x3d0f1eb1	0.03494138
4	0x3d244670	0.040106237
5	0x3cea4706	0.02859832
6	0x3d925bec	0.07146439
7	0x3d70641b	0.058689218
8	0x3d42896f	0.04749435
9	0xbcdd564d	-0.02701869
10	0x3bc6428c	0.0060504135
11	0xbc5e6108	-0.013572939
12	0x3c801ef3	0.015639758
13	0x3c69da0e	0.01427318
14	0x3c9408d8	0.018070623
15	0xbcaea9da	-0.021321226
16	0xbc2da802	-0.010599138
17	0x3c1768a7	0.00924126
18	0xbc57b5af	-0.013165875
19	0xbcfdd2ff	-0.0309844
20	0xbce6349d	-0.02810126
21	0xbc7517c3	-0.0149592785
22	0xbc96aad0	-0.018391997
23	0xbc3e77b4	-0.011625219
24	0x3cf525e0	0.029925287
25	0x3c7b714a	0.015346834
26	0x3c9004b6	0.017580371
27	0x3d15ca03	0.036569607
28	0x3cfa4d3c	0.030554406
29	0x3d379c84	0.044827
30	0x3ce98c3b	0.02850925
31	0x3c851a44	0.016247876
32	0xbc1c700a	-0.009548197
33	0xbaa979fc	-0.0012930031
34	0x3cb05eb4	0.021529533
35	0xbc8d0b78	-0.017217383
36	0x3d2000f0	0.039063394
37	0x3cd4cb18	0.025975749
38	0x3d4e69a9	0.050393734
39	0x3c79816d	0.015228611
40	0x3bc85ea3	0.006114797
41	0x3ca58701	0.020205976
42	0xbc956941	-0.018238666
43	0xbd98abeb	-0.07454666
44	0xbcf7cd74	-0.030249335
45	0xbca95864	-0.02067203
46	0xbc95b509	-0.0182748
47	0xbc52fe0e	-0.012877954
48	0x3cb254dd	0.021768982
49	0x3ca1a719	0.019732999
50	0x39407e90	0.00018357695
51	0xbd26fabd	-0.040766466
52	0xbd144466	-0.036198042
53	0xbc5e647d	-0.013573763
54	0x3b4bf61d	0.0031122037
55	0x3c3c2170	0.0114825815
56	0x3c085d4a	0.008323023
57	0xbca1e1b4	-0.019760944
58	0xbc844ec9	-0.016150849
59	0xbc98e5f7	-0.018664343
60	0xbb44f997	-0.0030055994
61	0xbc84c6d5	-0.016208092
62	0xbbf9c342	-0.0076221535
63	0xbd166c53	-0.0367244
64	0xbc2118ba	-0.009832555
65	0xbc90c650	-0.017672688
66	0xbd667ca6	-0.056271218
67	0xbceff9a1	-0.029293837
68	0xbc8c9cde	-0.017164644
69	0xbcdddc4c	-0.027082585
70	0xbc9311bf	-0.017952798
71	0x3c8b0432	0.016969774
72	0xbd0bebe8	-0.034160525
73	0xbcdcf6a3	-0.026973074
74	0xbcf76104	-0.030197628
75	0xbc8e8404	-0.017396934
76	0xbc3ea8b7	-0.011636904
77	0xbb9a39a5	-0.004706579
78	0x3ba9b6fb	0.0051792837
79	0x3b2e7220	0.0026618317
80	0x3c2c875d	0.01053032
81	0xba48d502	-0.0007661135
82	0xb928e7a8	-0.00016108027
83	0x3cc113d7	0.02356903
84	0x3ca35af3	0.019940829
85	0x3d3d4669	0.046209726
86	0x3cac7c22	0.021055285
87	0xbc3808e8	-0.011232592
88	0x3ad3b615	0.0016152287
89	0x3bd3227b	0.0064433194
90	0x3c1d8bac	0.00961582
91	0x3c114ecd	0.008868885
92	0x3b80c366	0.0039295433
93	0x3cc46dde	0.02397817
94	0x3cb8646d	0.022508824
95	0xbaeb62f8	-0.0017958572
96	0x3cc0d3da	0.023538519
97	0x3cff12ba	0.03113686
98	0x3caab502	0.020838264
99	0x3c10c6b5	0.008836438
100	0x3d1e5284	0.03865291
101	0x3cde5eba	0.027144779
102	0x3aaf6b50	0.0013383422
103	0x3c10809c	0.008819725
104	0xbc5c2ece	-0.0134388935
105	0x3d0cd903	0.034386646
106	0x3cb13a8a	0.021634359
107	0x3c1e84b9	0.009675198
108	0xbd2bd501	-0.041951183
109	0xbd858366	-0.06519203
110	0xbd75dde8	-0.06002608
111	0xbd85f9d4	-0.065417916
112	0xbd92bb8d	-0.07164679
113	0xbd6c667a	-0.057714917
114	0x3d00a07c	0.03140305
115	0x3d2bdda6	0.041959427
116	0x3d38ef78	0.04515025
117	0xbc8707fa	-0.016483296
118	0xbc4f0ef5	-0.012637843
119	0xbbf83299	-0.007574391
120	0x3cb2edf7	0.021841986
121	0x3c8facf3	0.017538523
122	0x3cb19bee	0.021680798
123	0x3c463365	0.012097214
124	0x3d0173c8	0.03160456
125	0x3d267297	0.040636625
126	0xbd8bc4ee	-0.06824671
127	0xbd9691a8	-0.073520005
128	0xbda6c5ec	-0.08143219
129	0x3cd56fd8	0.026054308
130	0x3cadbfd9	0.021209644
131	0x3d1f6650	0.038915932
132	0x3d53fbc2	0.051753767
133	0x3d1f1b1a	0.038844205
134	0x3d54a0d0	0.051911175
135	0x3ccdfe0c	0.025145553
136	0x3d4a9e7b	0.049467545
137	0x3d30824c	0.04309301
138	0xbbb0c576	-0.005394633
139	0x3c68ac5b	0.014201249
140	0x3c99fa15	0.018796006
141	0x3bafb2f4	0.005361909
142	0xbc7666f8	-0.015039198
143	0xbbb04550	-0.0053793564
144	0xbd36dcfc	-0.04464434
145	0x3cd0b203	0.025475508
146	0x3bc50ce1	0.006013498
147	0xbd23af95	-0.03996237
148	0x3d1d5786	0.038413547
149	0x3cb2a00d	0.021804834
150	0xbd2aaf54	-0.041671112
151	0x3cdf2e03	0.02724362
152	0x3d2deb4c	0.042460725
153	0xbd07c067	-0.033142474
154	0xbce118fb	-0.027477732
155	0xbd12a52f	-0.035802063
156	0xbd312011	-0.04324347
157	0x3d4cbba2	0.049983628
158	0x3d0ab9df	0.033868667
159	0xbd398d73	-0.045300912
160	0xbc4b2a48	-0.012400217
161	0x3c84d387	0.016214145
162	0x3c748fee	0.014926894
163	0x3c3e0d3f	0.011599838
164	0x3c88b779	0.01668905
165	0x3bd0f5ce	0.0063769585
166	0xbc8aa2f6	-0.016923409
167	0xbd27b1cb	-0.04094104
168	0xbc118907	-0.0088827675
169	0xbcc8ba49	-0.02450289
170	0xbce68bf3	-0.028142905
171	0x3c6c903d	0.014438686
172	0x3acb7f78	0.001552566
173	0xbb5a677b	-0.003332584
174	0x3d0a17ea	0.033714212
175	0x3d334f13	0.043776583
176	0x3d50bb5a	0.050959922
177	0xbc53b2e3	-0.012921068
178	0xbc3b8091	-0.011444227
179	0xbb6b95f4	-0.0035947533
180	0x3c39bc1c	0.011336353
181	0xbbbd9fe7	-0.005786884
182	0x3b1251db	0.0022326622
183	0xbb9ddb2e	-0.004817388
184	0xbc842985	-0.01613308
185	0xbcb964b9	-0.022631036
186	0xbc98fb27	-0.018674446
187	0xbd0b98bf	-0.034081217
188	0xbd10565c	-0.03523861
189	0xbd33e76a	-0.043921866
190	0xbc410f82	-0.0117834825
191	0xbc63e5d2	-0.013909774
192	0xbd12ea96	-0.03586825
193	0x3b89c37a	0.004204211
194	0x3ce18578	0.027529463
195	0xbd40bfab	-0.04705779
196	0xbc8d0bb7	-0.0172175
197	0x3bc0cf79	0.0058841077
198	0xbcb348d4	-0.021885313
199	0x3cc95295	0.024575511
200	0x3c543de7	0.012954212
201	0xbd7c8545	-0.061650533
202	0xbc99e68a	-0.018786687
203	0xbd038e97	-0.032118406
204	0xbccc6e0d	-0.02495482
205	0x3c2c6fa8	0.010524668
206	0x3c7bb650	0.015363291
207	0xbd2e2cd7	-0.04252323
208	0xbccb73aa	-0.024835426
209	0xbc594680	-0.013261437
210	0xbcb71d02	-0.0223527
211	0xbb3d1606	-0.0028852238
212	0xbc4506f2	-0.012025582
213	0xbc93fa91	-0.018063815
214	0x384c5a62	4.8721566e-05
215	0x3bc6ee7a	0.006070909
216	0x39a4014e	0.0003128149
217	0xbbc2ab03	-0.0059407963
218	0x3be9ca23	0.0071346923
219	0xbb959790	-0.004565187
220	0xbca60622	-0.020266596
221	0xbd063352	-0.032763787
222	0xbdd3b393	-0.103369854
223	0xbdac6368	-0.08417398
224	0xbd9029b6	-0.07039206
225	0xbc057f2d	-0.008147997
226	0xbc567543	-0.013089481
227	0x3be79f87	0.0070685777
228	0x3b733b9c	0.0037114387
229	0x3c281fd4	0.010261495
230	0x3c9f87f4	0.019474007
231	0x3c60910e	0.013706459
232	0x3d173a65	0.036920924
233	0x3d2f968f	0.042868193
234	0x3bd8e10e	0.0066186255
235	0x3c11a64c	0.008889746
236	0x3c5482dd	0.012970653
237	0xbc0a32bb	-0.008434947
238	0xbb846859	-0.0040407595
239	0xbc998569	-0.018740373
240	0xbcc076fe	-0.02349424
241	0xbb94fd78	-0.0045468174
242	0xba709aee	-0.000917836
243	0xbcf7f4ff	-0.03026819
244	0xbd13599b	-0.035974126
245	0xbd5569fa	-0.05210302
246	0x3d7089c3	0.05872513
247	0x3d83c147	0.06433349
248	0x3d8edde9	0.0697592
249	0x3d887c8f	0.06664383
250	0x3d66c8ee	0.056343965
251	0x3d8a3e0a	0.06750114
252	0xbe09d6ba	-0.13460818
253	0xbd726a8e	-0.05918365
254	0x3cb0f635	0.021601776
255	0xbe2dbb10	-0.1696589

tfeb.12.weight f4 [32]
0	0x3ea5e6e8	0.3240273
1	0x3ecc344a	0.39883643
2	0x3eb1c35e	0.34719366
3	0x3ea7b5d3	0.32755908
4	0x3e538ee9	0.20659985
5	0x3ef1dea0	0.47240162
6	0x3ec4c87b	0.38434204
7	0x3edddd77	0.43333027
8	0x3f2380fd	0.63868695
9	0x3e92f3f4	0.28701746
10	0x3ec80652	0.39067322
11	0x3ed2d981	0.41181567
12	0x3ec30092	0.38086373
13	0x3e8f38aa	0.2797292
14	0x3eb6bc6a	0.35690624
15	0x3e8ba120	0.27271366
16	0x3ece42d6	0.40285367
17	0x3e9e4e1f	0.30918977
18	0x3eba3612	0.36369377
19	0x3e9c5cb0	0.30539465
20	0x3eb3f6c3	0.35149202
21	0x3eb8cdfe	0.3609466
22	0x3ed8cb49	0.42342594
23	0x3ea4f1d7	0.3221576
24	0x3e6f470d	0.23366947
25	0x3f03024c	0.5117538
26	0x3e36e717	0.17861591
27	0x3e88dbf7	0.2673032
28	0x3eaca35b	0.3371838
29	0x3f0047e3	0.5010969
30	0x3edac71a	0.42730027
31	0x3f17c077	0.59278053

tfeb.12.bias f4 [32]
0	0xbe5069dd	-0.20352884
1	0x3cc7709a	0.024345685
2	0xbdd74f39	-0.105131574
3	0xbdb2264b	-0.0869871
4	0xbdaaae23	-0.08333995
5	0xbe541a54	-0.20713168
6	0xbde4983d	-0.1116185
7	0xbe265586	-0.16243562
8	0xbed12360	-0.408473
9	0x3d9c9d7a	0.07647224
10	0xbe06a0c2	-0.13147262
11	0xbdcfe56c	-0.101511806
12	0xbdd2da39	-0.10295529
13	0x3c3995c0	0.011327207
14	0xbe403ae9	-0.18772472
15	0xbdb4fcc5	-0.088372745
16	0xbe382567	-0.17983018
17	0x3e3c48b7	0.18387114
18	0xbd83aa8a	-0.06429012
19	0x3cfa52bb	0.030557027
20	0xbd985bf2	-0.07439412
21	0xbe24865d	-0.1606688
22	0xbd953b6d	-0.07286725
23	0x3e2b8ea5	0.16753633
24	0xbd714985	-0.058908004
25	0xbd5cf71f	-0.05394661
26	0xbe09039e	-0.13380286
27	0xbd95671c	-0.07295057
28	0xbd43a619	-0.047765825
29	0xbe3d7993	-0.18503408
30	0xbe3e7a94	-0.18601447
31	0xbe4867d8	-0.19570863

tfeb.12.running_mean f4 [32]
0	0xbd830564	-0.063975126
1	0xbf1e670e	-0.61876
2	0xbed339e8	-0.41255116
3	0x3e179dad	0.14806242
4	0xbe4e3a14	-0.20139343
5	0xbf824257	-1.0176495
6	0xbe673fb7	-0.22582899
7	0xbeb24da6	-0.34824866
8	0xbf2da1da	-0.6782509
9	0xbddff99d	-0.10936282
10	0xbea3efd4	-0.32018912
11	0xbf414173	-0.7549049
12	0xbeea958a	-0.45817214
13	0xbf2d5adc	-0.67716765
14	0xbd717ceb	-0.05895702
15	0x3b353fbc	0.0027656397
16	0xbeb1848b	-0.34671435
17	0xbe1a2401	-0.15052797
18	0xbd1a88d9	-0.037728164
19	0xbf09097d	-0.535301
20	0xbe959c19	-0.29220656
21	0xbf15efe0	-0.58569145
22	0xbf013ef3	-0.5048668
23	0xbf1353df	-0.5754985
24	0xbdc5ef40	-0.09664774
25	0xbf5406d3	-0.8282291
26	0xbe354949	-0.17703737
27	0xbc5a7664	-0.013333891
28	0xbe56b3fb	-0.20967095
29	0xbeb4bb4f	-0.35299155
30	0xbe45fd7a	-0.19334975
31	0xbf6d16ea	-0.9261309

tfeb.12.running_var f4 [32]
0	0x3d521cec	0.051297113
1	0x3edcd365	0.4313003
2	0x3e46571f	0.19369172
3	0x3e267cab	0.16258495
4	0x3d3bd860	0.04586065
5	0x3ef5e5d2	0.480269
6	0x3e934482	0.28763205
7	0x3e64ce05	0.22344215
8	0x3ec8d745	0.39226738
9	0x3e384d75	0.17998298
10	0x3e9e0662	0.30864245
11	0x3ecb4918	0.39704204
12	0x3e45b7bf	0.19308375
13	0x3e410bbc	0.18852133
14	0x3e1de5e4	0.15419728
15	0x3e3d971b	0.18514673
16	0x3e074518	0.13209951
17	0x3ed1e717	0.4099662
18	0x3e07ed03	0.13274007
19	0x3e69660b	0.22792833
20	0x3e0ec080	0.1394062
21	0x3e819531	0.25309137
22	0x3eb9f8a2	0.36322504
23	0x3ed45d58	0.41477466
24	0x3cf6068c	0.030032419
25	0x3f2fc35c	0.6865747
26	0x3cb57841	0.022152068
27	0x3e359ff4	0.17736799
28	0x3dae43fa	0.08509059
29	0x3ebf732c	0.37392557
30	0x3e4a74c5	0.19771107
31	0x3f2280a5	0.63477546
