trained_models/step_5_retrain_after_step_4/retrain_4C_after_2nd_pruning_prunratio0.85_2024060419/retrained_4Cmodel_ratio85.0_vaacc92.75362396240234_tracc_80.92105263157895@562epoch_20240604221127.pt (torch, 309234 bytes, 62 tensors)

sfeb.0.weight f4 [8, 1, 1, 9]
0	0x3e5da599	0.21645202
1	0x3e219df1	0.15782906
2	0x3ea908e2	0.3301459
3	0x3ebdacf7	0.37046024
4	0x3dad0e9a	0.08450051
5	0xbe85dbcd	-0.26144257
6	0xbefba92b	-0.49152502
7	0xbe8f6821	-0.28009132
8	0xbd83b905	-0.06431774
9	0xbb3654b3	-0.002782148
10	0x3bb61eef	0.005557887
11	0xbd593e84	-0.053038135
12	0xbe9c3013	-0.30505428
13	0x3d9d718d	0.07687674
14	0xbe295fa9	-0.16540398
15	0xbe8e4a55	-0.27791086
16	0x3ec54092	0.38525826
17	0x3f176857	0.59143585
18	0xbe66d67c	-0.22542757
19	0xbe7905f3	-0.24318676
20	0x3e4f602e	0.20251533
21	0x3d958ee7	0.07302647
22	0xbe24d56b	-0.16097037
23	0xbe6a89d3	-0.22904138
24	0x3de2bbdf	0.1107099
25	0xbeae3a2b	-0.34028754
26	0xbed2df88	-0.41186166
27	0x3f34f6c3	0.7068903
28	0x3ec57b9f	0.38570878
29	0xbd311a90	-0.043238223
30	0x3b190ea4	0.0023354674
31	0xbe38bcdd	-0.18040796
32	0x3c9ce16d	0.01915046
33	0x3e0f81ea	0.14014402
34	0xbc378f63	-0.01120362
35	0x3dd285f5	0.102794565
36	0xbf1fe6ea	-0.6246172
37	0xbeb906bc	-0.3613795
38	0x3d0347de	0.03205096
39	0x3d5019d2	0.050805874
40	0x3e963e64	0.29344475
41	0x3e60a2e5	0.2193714
42	0xbe3dc7cd	-0.18533249
43	0x3d3f3392	0.04668004
44	0xbe2e8698	-0.17043531
45	0xbea9253e	-0.33036226
46	0xbd40d85e	-0.047081344
47	0x3e389caf	0.1802852
48	0x3d83049a	0.06397362
49	0xbef1d61b	-0.47233662
50	0x3d9d4e66	0.07680969
51	0x3f1dd942	0.61659634
52	0xbc49c63a	-0.012315327
53	0xbef4e580	-0.47831345
54	0xbd1da184	-0.03848411
55	0xbe27714f	-0.16351818
56	0x3e7436e3	0.23849063
57	0xbddc92e2	-0.10770203
58	0xbf0278ca	-0.5096556
59	0x3ef5a921	0.47980598
60	0xbbfef55c	-0.007780714
61	0xbefad4cc	-0.48990476
62	0x3ecad386	0.39614505
63	0x3d4999df	0.04921901
64	0x3bec815f	0.0072175707
65	0xbe4162be	-0.18885323
66	0xbdfa2926	-0.1221488
67	0x3e47563e	0.19466493
68	0x3e6164d8	0.22011125
69	0xbc08f523	-0.008359226
70	0x3eb1bb11	0.34713033
71	0x3f138ebb	0.57639664

sfeb.1.weight f4 [8]
0	0x3f6a4561	0.91512114
1	0x3f48eaca	0.7848326
2	0x3f316dce	0.69308174
3	0x3f561294	0.836221
4	0x3f544061	0.82910734
5	0x3f147af6	0.58000124
6	0x3ef9a377	0.48757526
7	0x3f32ed5c	0.6989343

sfeb.1.bias f4 [8]
0	0x3d09486d	0.033516336
1	0x3d72389b	0.059136014
2	0x3d9e0ca4	0.07717255
3	0x3e297152	0.16547135
4	0x3d3e09a9	0.04639593
5	0x3e038967	0.12845384
6	0x3e316381	0.17323114
7	0x3d37a3d2	0.044833966

sfeb.1.running_mean f4 [8]
0	0x37ae82ee	2.0803385e-05
1	0x38b95f4d	8.8392386e-05
2	0xb9def61b	-0.00042526503
3	0x39cc1304	0.0003892408
4	0xb9801fb0	-0.00024437672
5	0xb911632f	-0.00013865226
6	0xb89d14b8	-7.4902026e-05
7	0x39c3b7c2	0.0003733021

sfeb.1.running_var f4 [8]
0	0x3cc7dc29	0.024396973
1	0x3c58d1c8	0.0132336095
2	0x3c3a72eb	0.011379938
3	0x3ca6bd09	0.02035381
4	0x3ca2f40c	0.019891761
5	0x3bf6592d	0.007517955
6	0x3b0328d0	0.002001334
7	0x3c70dd89	0.014701256

sfeb.3.weight f4 [32, 8, 1, 5]
0	0x3d3854ff	0.045002934
1	0xbe345467	-0.17610322
2	0x3bc6eeed	0.0060709626
3	0x3d90a681	0.07063008
4	0xbdffff33	-0.12499847
5	0xbda85de5	-0.08221034
6	0xbe01a5ed	-0.12660952
7	0xbd374b04	-0.044749275
8	0x3b175f48	0.0023097564
9	0x3c613f30	0.013747975
10	0x3e7f328d	0.24921627
11	0x3e5c1881	0.21493722
12	0x3e7e4f06	0.24834833
13	0x3e1da04d	0.15393181
14	0x3dbea90d	0.09309588
15	0xbdecb963	-0.11558797
16	0xbd6a9e22	-0.057279713
17	0xbe80c21e	-0.251481
18	0xbc839bb6	-0.01606546
19	0xbdc5666c	-0.09638676
20	0x3e4dcfae	0.20098755
21	0x3e46d965	0.19418867
22	0x3d837d2f	0.06420361
23	0x3e3cf150	0.18451428
24	0x3e1b4239	0.1516198
25	0x3d80251c	0.06257078
26	0x3b3d0fed	0.0028848604
27	0xbd888a2a	-0.06666978
28	0x3b85b204	0.004080059
29	0x3c6b0f32	0.014346885
30	0x3c0e8a6e	0.008699996
31	0xbcea3d47	-0.028593672
32	0x3cdb0d30	0.026739687
33	0x3d559ce5	0.05215158
34	0xbac53372	-0.0015045239
35	0xbd1f280a	-0.038856544
36	0xbdbc3cd1	-0.09191287
37	0xbe14076e	-0.14455959
38	0xbccd84bd	-0.025087709
39	0xbd1518f6	-0.036400758
40	0xbe28f8dc	-0.16501182
41	0xbe2ec065	-0.1706558
42	0xbcff1527	-0.031138016
43	0x3d9c354b	0.07627352
44	0x3dac8955	0.084246315
45	0xbc1c22a9	-0.009529748
46	0xbe16f98d	-0.14743634
47	0xbdea0195	-0.11426083
48	0xbcf39725	-0.029735157
49	0xbd9b0220	-0.07568765
50	0x3dcee1d9	0.10101671
51	0x3db0a483	0.08625128
52	0x3d8c9383	0.06864073
53	0x3e733992	0.2375243
54	0x3e9251f4	0.2857815
55	0xbe71c12f	-0.2360885
56	0xbde93159	-0.113863654
57	0xbde5df53	-0.11224236
58	0xbc5c3612	-0.013440626
59	0xbc8cfd96	-0.017210763
60	0x3e40556d	0.18782587
61	0x3e1bc219	0.15210761
62	0x3c826cbb	0.015920987
63	0xbd95025f	-0.07275843
64	0x3c7b63cf	0.01534362
65	0xbb1ca398	-0.002390122
66	0x3e07a835	0.1324776
67	0xbd154d85	-0.03645088
68	0xbb51eb91	-0.0032031278
69	0x3cadb502	0.021204475
70	0xbb664928	-0.003513882
71	0xbd64203c	-0.055694804
72	0xbc3ba88b	-0.011453758
73	0xbdcbd8f4	-0.0995349
74	0xbd19300b	-0.037399333
75	0xbd430f9e	-0.047622316
76	0xbd88c4b8	-0.06678146
77	0xbe840904	-0.25788128
78	0xbe386400	-0.18006897
79	0xbdf0ebdb	-0.11763736
80	0xbe09d6db	-0.13460867
81	0xbe64ba15	-0.2233661
82	0xbd2e6b83	-0.042583
83	0x3b98e699	0.0046661613
84	0xbd1cd43c	-0.03828834
85	0xbe090602	-0.13381198
86	0xbd83ef52	-0.06442131
87	0xbd7aa124	-0.061188832
88	0xbe442f84	-0.19158751
89	0xbe0db032	-0.13836744
90	0x3e09bcc5	0.13450916
91	0x3e53a649	0.20668902
92	0x3e038678	0.12844265
93	0x3e5e0b9c	0.21684116
94	0x3e916b9e	0.28402418
95	0xbe5e899a	-0.21732178
96	0xbdd544b3	-0.10413494
97	0xbe4f753e	-0.20259568
98	0xbde82a61	-0.11336208
99	0xbddaef74	-0.10690203
100	0xbd4a3260	-0.049364448
101	0x3ce37f45	0.027770648
102	0x3ce264fd	0.027636046
103	0x3e03e90a	0.12881866
104	0x3d3b75eb	0.045766752
105	0xbd320aaf	-0.04346722
106	0x3d70a1cf	0.058748063
107	0xbd054efe	-0.032546036
108	0x3ddea373	0.10871019
109	0x3c85cad8	0.016332075
110	0xbd394e5f	-0.045240756
111	0xbc85e521	-0.016344609
112	0xbd75d6dc	-0.06001936
113	0xbda69cea	-0.08135398
114	0xbe03c037	-0.12866293
115	0xbe0fccdf	-0.14042996
116	0xbe850ffb	-0.25988755
117	0xbe82b161	-0.25525954
118	0xbe016545	-0.12636288
119	0xbe0f523c	-0.13996214
120	0xbd92539f	-0.07144856
121	0x3d6c1690	0.057638705
122	0xbe2cbf49	-0.16869844
123	0xbd8bb746	-0.06822066
124	0xbe7880fb	-0.24267952
125	0xbe0f780c	-0.14010638
126	0xbd1db4bf	-0.03850245
127	0x3d96bb36	0.073599264
128	0xbce027f4	-0.027362801
129	0xbe0b4659	-0.13601054
130	0xbea6550f	-0.3248677
131	0xbe84bd46	-0.25925654
132	0xbe5230dc	-0.20526451
133	0xbe730baf	-0.23734926
134	0xbeab80f8	-0.33496833
135	0x3d895e27	0.06707411
136	0x3e812d7a	0.25230008
137	0x3e92d269	0.28676155
138	0x3e03ab56	0.12858328
139	0x3de78cf4	0.113061816
140	0xbdc5780b	-0.09642037
141	0xbe295e3f	-0.16539858
142	0xbe92af84	-0.28649533
143	0xbdfa932a	-0.122351006
144	0xbdd115ed	-0.1020926
145	0x3d058214	0.032594755
146	0xbe27e0f8	-0.16394413
147	0xbe2ac858	-0.16677988
148	0xbe4b83bb	-0.1987447
149	0xbe2b6915	-0.16739304
150	0xbe035b7f	-0.12827872
151	0xbe3084a3	-0.17238097
152	0xbe6d6ddd	-0.23186441
153	0xbe180a82	-0.14847758
154	0xbe15ddc8	-0.14635384
155	0x3e3a6f88	0.18206608
156	0x3e614a19	0.22000922
157	0x3e882e04	0.26597607
158	0x3ec482b7	0.38380978
159	0x3ea05960	0.31318188
160	0xbe122219	-0.1427082
161	0xbdb79ddc	-0.08965656
162	0xbe0cc4e8	-0.13746989
163	0xbddcf4b2	-0.107888594
164	0xbd63ffb9	-0.055663798
165	0x3d89c13d	0.067263104
166	0x3c78f476	0.015195003
167	0x3bd60627	0.006531495
168	0x3d47ab92	0.048747607
169	0xbac57dc1	-0.0015067385
170	0xbe0fed91	-0.14055468
171	0xbdc8e763	-0.098097585
172	0xbdf6aec5	-0.120450534
173	0xbe4366ff	-0.19082259
174	0xbdb92d30	-0.09041822
175	0xbe448c4b	-0.19194143
176	0xbdf4bc89	-0.11950023
177	0xbceb68df	-0.02873653
178	0xbab4b417	-0.0013786581
179	0x3d937348	0.071997225
180	0xbe05861d	-0.13039441
181	0xbd4fee6d	-0.05076449
182	0x3d187f80	0.03723097
183	0xbd379407	-0.044818904
184	0xbdc97df5	-0.098384775
185	0xbd24f43f	-0.040271994
186	0xbd484bad	-0.048900295
187	0x3ce02201	0.027359964
188	0xbd87a271	-0.0662278
189	0xbd089cf0	-0.033352792
190	0xbd396f50	-0.04527217
191	0xbc077232	-0.008266972
192	0xbd330150	-0.043702424
193	0xbb3a97a2	-0.0028471728
194	0xbd64152a	-0.055684246
195	0xbd8e11ff	-0.06937026
196	0x3cfa3b20	0.030545771
197	0x3dc02f06	0.09383969
198	0x3e08c4eb	0.13356368
199	0x3e3fa638	0.18715751
200	0xbd2a6d24	-0.04160799
201	0xbe35641c	-0.1771397
202	0xbe3bfcce	-0.18358156
203	0xbe3edc93	-0.1863883
204	0xbdbf22d1	-0.093328126
205	0x3ddf0be2	0.10890938
206	0x3e7c12de	0.24616572
207	0x3dd41418	0.10355395
208	0x3d863102	0.06552316
209	0x3e1643e9	0.14674343
210	0x3db5b950	0.08873236
211	0xbd61eaf3	-0.055155706
212	0xbd2825cb	-0.041051667
213	0xbda20b48	-0.07912308
214	0xbe47d87b	-0.19516174
215	0xbdb5c841	-0.08876086
216	0xbe7917c3	-0.2432547
217	0xbe63b381	-0.22236444
218	0xbdad2923	-0.08455112
219	0x3d38d1d9	0.045122
220	0xbbc17d4a	-0.005904828
221	0x3c80681c	0.015674643
222	0xbbdc93df	-0.006731495
223	0x3e499702	0.19686511
224	0x3ccd47df	0.025058685
225	0xbc104e20	-0.008807689
226	0x3d794e89	0.060865913
227	0x3cb9a2a0	0.022660553
228	0x3d24eb8e	0.040263705
229	0xbd847e8b	-0.06469449
230	0x3dbbc633	0.09168663
231	0x3d97465c	0.07386467
232	0x3d872f64	0.06600836
233	0x3dc1694e	0.094439134
234	0xbb6d891e	-0.0036245058
235	0xbd3e816a	-0.046510138
236	0xbd423f34	-0.047423556
237	0x3d5c6a0e	0.05381208
238	0x3defb28d	0.11703978
239	0x3de4ee13	0.111782216
240	0x3e0662a4	0.13123566
241	0x3df9c5aa	0.121959046
242	0x3da5d8cf	0.080979936
243	0x3dad5e00	0.08465195
244	0x3daa6f4d	0.0832201
245	0xbe37a24c	-0.17933005
246	0xbe522c9a	-0.20524827
247	0xbe6ea9a9	-0.23306908
248	0xbd40a4bf	-0.047032114
249	0xbc6dff06	-0.014526134
250	0xbc87425c	-0.016511135
251	0x3c3c8545	0.011506383
252	0x3dd725ac	0.10505232
253	0x3dc75ee8	0.09734899
254	0x3e36ac16	0.17839083
255	0x3e5ceb43	0.2157412

sfeb.4.weight f4 [32]
0	0x3f39b425	0.72540504
1	0x3eed7bf4	0.4638363
2	0x3f4b2a04	0.79360986
3	0x3f9af093	1.2104667
4	0x3eb12cf1	0.346046
5	0x3eaeedb8	0.3416574
6	0x3f149103	0.5803377
7	0x3a1f7e35	0.0006084175
8	0x3ee90bab	0.45516714
9	0x3f081a8f	0.53165525
10	0x3c6c8d48	0.014437981
11	0x3f2d09f4	0.6759331
12	0x3f1dea4f	0.6168565
13	0x3f47731d	0.77910024
14	0x3f760775	0.9610513
15	0xba4d2a2c	-0.00078264135
16	0x3f1bbffc	0.6083982
17	0x3ec9be8d	0.3940319
18	0x3f149bc7	0.580502
19	0x3988eae0	0.00026114937
20	0x3f0d629e	0.552286
21	0x3f08375e	0.53209484
22	0x3f39cf42	0.72581875
23	0x3ef22c21	0.47299293
24	0x3a27db31	0.00064032065
25	0x3a504895	0.0007945386
26	0x3ec5ada4	0.3860904
27	0x3f0baf59	0.54564434
28	0x3ebfcc77	0.37460682
29	0x3f0ffd76	0.56246126
30	0x3eeb4b22	0.4595576
31	0x3ec7d69d	0.39030924

sfeb.4.bias f4 [32]
0	0x3e1a8a7f	0.15091895
1	0xbe487d66	-0.19579086
2	0xbdf87017	-0.121307544
3	0xbd1d5293	-0.038408827
4	0xbd50b6b1	-0.050955478
5	0x3c4e8a5b	0.012606229
6	0x3dfcdcfd	0.12346838
7	0xbd8cfb2a	-0.06883843
8	0x3d98e5ac	0.074656814
9	0xbdc73233	-0.097263716
10	0xbcc77656	-0.02434842
11	0x3c7b71e3	0.015346977
12	0x3d44d538	0.048054904
13	0x3d95a8c5	0.07307581
14	0x3d378452	0.044803925
15	0xbd268f29	-0.040663872
16	0xbd74b52f	-0.059743103
17	0x3d80026a	0.062504604
18	0xbc8d8ef0	-0.017280072
19	0xbcb9078c	-0.022586606
20	0xbc8d8e3d	-0.017279739
21	0xbe4e9212	-0.20172909
22	0xbda65cdd	-0.08123181
23	0x3d2690f8	0.040665597
24	0xbc998bdb	-0.018743446
25	0xbca93d5a	-0.020659138
26	0x3c5d09b6	0.013491085
27	0xbcb7b2ce	-0.022424128
28	0xbe0275e0	-0.12740278
29	0xbd80d732	-0.06291045
30	0xbdf1125f	-0.11771082
31	0x3d760861	0.060066584

sfeb.4.running_mean f4 [32]
0	0x3d8e595a	0.06950636
1	0xbe3ad032	-0.18243483
2	0xbed2f285	-0.41200653
3	0xbedbe88d	-0.4295086
4	0xbeb73fac	-0.35790765
5	0xbdb19748	-0.08671433
6	0xbe2096e6	-0.15682563
7	0x3c86d354	0.016458191
8	0xbe5b46ce	-0.21413729
9	0xbe1edd36	-0.15514073
10	0xbd34aff4	-0.044113114
11	0xbe4fed6b	-0.20305412
12	0x3c8b4b45	0.017003665
13	0x3d501272	0.05079884
14	0xbe4f6826	-0.20254573
15	0xbb5ece35	-0.003399742
16	0xbebf43e0	-0.37356472
17	0xbe81b2d0	-0.25331736
18	0xbe928f5c	-0.28625
19	0xbc120d94	-0.00891437
20	0xbe9f266f	-0.3108401
21	0xbf04b09d	-0.5183199
22	0xbe8c95f8	-0.27458167
23	0xbea6fdfb	-0.32615647
24	0xbc8ab505	-0.01693202
25	0xbc8dba24	-0.017300673
26	0xbeabec51	-0.33578733
27	0xbe4b95a8	-0.19881308
28	0xbeb27ff2	-0.3486324
29	0xbed04736	-0.4067933
30	0xbe1cb5b0	-0.15303683
31	0xbcfaf941	-0.030636432

sfeb.4.running_var f4 [32]
0	0x3ec58bea	0.38583308
1	0x3eb863f4	0.36013758
2	0x3f2967f9	0.66174275
3	0x3fa43ce6	1.2831085
4	0x3eac0935	0.33600774
5	0x3eaf0d89	0.34190014
6	0x3eef7b2c	0.4677366
7	0x3be60c63	0.0070205196
8	0x3e985052	0.2974878
9	0x3e5bd894	0.21469337
10	0x3b686970	0.0035463236
11	0x3eea69a8	0.45783734
12	0x3f099ecd	0.53757936
13	0x3f53f0a1	0.82789046
14	0x3f824ea8	1.0180254
15	0x3b1279c7	0.0022350417
16	0x3f182496	0.59430826
17	0x3f1a51c5	0.6028102
18	0x3f45f9ea	0.77334464
19	0x3aea96b4	0.0017897696
20	0x3f13b119	0.57692105
21	0x3f4eb1c2	0.80739987
22	0x3f3683c1	0.7129479
23	0x3ef37d7a	0.4755667
24	0x3a86bd68	0.0010279836
25	0x3a6fc896	0.0009147016
26	0x3ef1b754	0.4721018
27	0x3f003090	0.500741
28	0x3ec2850d	0.37992135
29	0x3f064f96	0.5246519
30	0x3e715ad7	0.23569809
31	0x3e516730	0.20449519

tfeb.0.weight f4 [13, 1, 3, 3]
0	0x3d0f2b40	0.034953356
1	0x3a2c31f0	0.00065687206
2	0xbbbbe042	-0.0057335207
3	0x3b920406	0.004456046
4	0x3a061678	0.00051150424
5	0x3ad6b9a7	0.0016382233
6	0x3b0640ff	0.0020485518
7	0x3bd10d87	0.0063797864
8	0x3bd32960	0.0064441413
9	0x3c18c911	0.009325282
10	0xbc2e0520	-0.010621339
11	0x3c76ecf0	0.015071139
12	0x3c852755	0.016254107
13	0xbc4740bc	-0.01216143
14	0x3c6626bf	0.014047324
15	0x3c891a69	0.016736226
16	0xbbfd3866	-0.0077276705
17	0x3c8d91d1	0.017281445
18	0x3e72b216	0.23700747
19	0x3e1d9a8d	0.15390988
20	0xbed7719e	-0.4207887
21	0x3ecd52b0	0.40102148
22	0x3ee7f71f	0.45305726
23	0xbf27c1d5	-0.6553014
24	0x3e500456	0.20314154
25	0x3e2280af	0.15869401
26	0xbee95132	-0.4556976
27	0xbe450873	-0.19241504
28	0xbc81f085	-0.015861759
29	0x3e358e98	0.17730176
30	0xbf1790cb	-0.5920531
31	0x3ef3eda1	0.47642234
32	0x3f1343d1	0.57525355
33	0xbe95113a	-0.29114705
34	0x3e2363f2	0.15956095
35	0x3e648e8d	0.22320004
36	0x3d68b705	0.056815166
37	0x3ef02a0c	0.4690708
38	0xbef3ffcc	-0.47656095
39	0x3d9fcb35	0.078024305
40	0x3d930358	0.07178372
41	0xbebb66f6	-0.3660199
42	0xbe18c31b	-0.14918177
43	0xbca009b9	-0.019535886
44	0xbe9c2cfe	-0.30503076
45	0x3d246dee	0.0401439
46	0xbe3e0273	-0.18555622
47	0xbe39e123	-0.18152289
48	0x3d3250a3	0.043533932
49	0xbe50029e	-0.20313498
50	0xbe995986	-0.29951113
51	0x3e820cf7	0.25400516
52	0xbe31b296	-0.17353281
53	0xbe0cc098	-0.13745344
54	0x3f64035c	0.89067626
55	0xbef92822	-0.4866343
56	0xbf0880d6	-0.5332159
57	0x3f752edb	0.9577462
58	0xbf0687f4	-0.525512
59	0xbf2a6038	-0.6655307
60	0x3ee91f46	0.45531672
61	0xbe97c26f	-0.2964053
62	0xbefd3c53	-0.49460086
63	0xbe01cc15	-0.12675507
64	0xbe2f8433	-0.17140274
65	0xbe0b74fe	-0.13618848
66	0xbdbcc48f	-0.09217178
67	0xbe1f0ba5	-0.15531786
68	0xbdf3880b	-0.118911825
69	0x3deba838	0.115066946
70	0x3e709556	0.23494467
71	0x3e09477b	0.13406174
72	0xbe395214	-0.18097717
73	0xbe96e58d	-0.29472008
74	0xbde68b6d	-0.11257062
75	0xbe316b16	-0.17326006
76	0xbe8ac9da	-0.27107126
77	0xbd887ad0	-0.066640496
78	0xbdbc4651	-0.09193099
79	0xbe3888ca	-0.18020931
80	0xbdedf312	-0.116186276
81	0xbda8d1bf	-0.08243131
82	0xbdd10e88	-0.1020785
83	0x3d119b0a	0.035548247
84	0xbdea6026	-0.1144412
85	0xbe163d07	-0.14671718
86	0xbcc7e9d2	-0.024403486
87	0x3d7e5938	0.062096804
88	0xbef59aca	-0.47969657
89	0x3ed66031	0.41870263
90	0x3eaa6aa7	0.33284494
91	0x3ddf9fa8	0.10919124
92	0x3dfb4b71	0.12270249
93	0x3e9855b7	0.29752895
94	0x3d3e9332	0.046527095
95	0x3d83f9bf	0.0644412
96	0xbd62676f	-0.055274423
97	0xbda10194	-0.07861629
98	0xbd2d5c90	-0.042324603
99	0xbd8eec7a	-0.06978698
100	0xbe3977d6	-0.1811212
101	0xbd887d6e	-0.06664549
102	0xbe38016d	-0.17969294
103	0xbe835d31	-0.25657037
104	0xbe06e9cf	-0.13175128
105	0x3c218636	0.009858659
106	0xbe107406	-0.1410676
107	0xbd761d99	-0.06008682
108	0xbe8d7ae9	-0.27632836
109	0xbe5a8e36	-0.21343312
110	0x3eb784ef	0.35843608
111	0xbf279785	-0.65465575
112	0xbf14c0ac	-0.58106494
113	0x3f9418da	1.1570084
114	0xbeb9567d	-0.36198798
115	0xbe9cca59	-0.3062313
116	0x3ea6d7f9	0.3258665

tfeb.1.weight f4 [13]
0	0xba62ac6a	-0.00086469075
1	0xbb1763c3	-0.0023100234
2	0x3e9249c5	0.28571907
3	0x3e8ce84d	0.2752098
4	0x3eb65e12	0.35618645
5	0x3ea27ac4	0.31734288
6	0x3f1c5455	0.6106618
7	0x3e9d31ef	0.3070216
8	0x3f6c7eaa	0.92380774
9	0x3ebafe34	0.36522067
10	0x3e8a1bbc	0.26974285
11	0x3f02f504	0.51155114
12	0x3f10e732	0.56602776

tfeb.1.bias f4 [13]
0	0xbc4f47c2	-0.012651386
1	0xbc754ee9	-0.014972427
2	0x3e2f4483	0.17115979
3	0x3e7a161a	0.24422494
4	0x3ea4e678	0.32207084
5	0x3ec14c38	0.37753463
6	0x3d24cc54	0.040233925
7	0x3d873af9	0.06603045
8	0xbe90e025	-0.2829601
9	0xba80d402	-0.0009828808
10	0x3e3cbb5b	0.18430845
11	0x3d0531bf	0.032518145
12	0x3e383d95	0.17992242

tfeb.1.running_mean f4 [13]
0	0x3c9c9dc6	0.019118201
1	0x3cb0e7be	0.021594878
2	0x3d10bebf	0.03533816
3	0x3e516537	0.20448767
4	0xbe6c2a83	-0.23063092
5	0xbea44fcc	-0.3209213
6	0xbe782ed9	-0.24236621
7	0xbe03c010	-0.12866235
8	0xbf0f6954	-0.5602009
9	0xbe2ea765	-0.17056043
10	0x3e9d7439	0.30752733
11	0xbed1d772	-0.40984684
12	0xbe6ac625	-0.22927149

tfeb.1.running_var f4 [13]
0	0x3a6379aa	0.0008677492
1	0x3a84d346	0.0010133765
2	0x3dd7ef1a	0.10543652
3	0x3e424eb4	0.18975335
4	0x3e2fe236	0.17176136
5	0x3e7c54b2	0.24641684
6	0x3ec4801e	0.38378996
7	0x3e1e22e7	0.15443002
8	0x3f276cfa	0.6540066
9	0x3dac57d3	0.08415189
10	0x3e89f413	0.26944026
11	0x3eba4331	0.36379388
12	0x3e9436ba	0.28948003

tfeb.4.weight f4 [25, 13, 3, 3]
0	0x3b20e8ab	0.0024552743
1	0xbb304cb1	-0.002690118
2	0x3a938e82	0.0011257681
3	0xba64d560	-0.0008729305
4	0xbba63446	-0.0050721494
5	0xbb498b9b	-0.0030753377
6	0x3b1c4b67	0.0023848654
7	0xbac21917	-0.0014808503
8	0xb9dce806	-0.0004213454
9	0x3aed525f	0.0018106214
10	0xbbb5e661	-0.005551145
11	0x3b82025b	0.003967566
12	0x3b159fac	0.0022830768
13	0xbbd95e35	-0.006633545
14	0x3b4c8a0e	0.0031210217
15	0x3b46a3d1	0.0030310045
16	0xbb4affa2	-0.0030975123
17	0x3b9ee486	0.0048490195
18	0x3d9d8737	0.07691806
19	0xb8e81b83	-0.000110677465
20	0x3d9378e7	0.07200795
21	0xbdc45356	-0.095862076
22	0xbe386bf4	-0.18009931
23	0xbe0959a3	-0.134131
24	0x3d782f40	0.060591936
25	0xbddb99a0	-0.10722661
26	0xbcf20c80	-0.029546976
27	0xbd02e290	-0.031954348
28	0xbd8e034f	-0.06934225
29	0xbcaf30dc	-0.021385603
30	0xbd97d275	-0.07413188
31	0xbd5e9841	-0.05434442
32	0xbb82a796	-0.003987263
33	0xbddf840b	-0.10913857
34	0xbcd6b96d	-0.026211465
35	0x3c761370	0.015019283
36	0x3d90efd3	0.07076993
37	0x3d422a6c	0.047403738
38	0x3dc244aa	0.09485753
39	0xbcf738c8	-0.030178443
40	0xbd769cf2	-0.06020827
41	0xbd8d7e85	-0.06908897
42	0x3cf3be06	0.029753696
43	0x3c6dfdf5	0.01452588
44	0x3cd92e66	0.026511382
45	0xbd8f8008	-0.07006842
46	0xbc2975f3	-0.010343063
47	0xbd45141d	-0.048114885
48	0x3c55d1fd	0.013050553
49	0x3c97d2a6	0.018533062
50	0xbd357f7e	-0.04431104
51	0x3d47552d	0.048665214
52	0x3bbe601f	0.0058097984
53	0x3c39b82f	0.011335417
54	0x3db20b5c	0.08693573
55	0x3db76165	0.089541234
56	0xbd220b84	-0.039561763
57	0xbe287749	-0.16451754
58	0xbd377d3c	-0.044797167
59	0xbe98a6eb	-0.29814848
60	0x3d02cf23	0.031935822
61	0xbdfe9257	-0.12430256
62	0xbde12aaf	-0.109944694
63	0xbd80d94d	-0.06291447
64	0xbcf54028	-0.029937819
65	0x3c6de322	0.014519485
66	0x3d775c1b	0.060390573
67	0x3d97ef73	0.07418718
68	0x3dabe823	0.08393886
69	0x3bb8e1f1	0.0056421687
70	0xbbd91194	-0.00662441
71	0xbc5f8443	-0.0136423735
72	0xbc035ea4	-0.00801817
73	0x3b479bea	0.0030457922
74	0x3d20ea8a	0.039286174
75	0x3ccdd7df	0.02512735
76	0xbb931bef	-0.004489414
77	0xbba9affe	-0.0051784506
78	0x3db15df8	0.08660501
79	0x3d03d1e5	0.032182593
80	0xbb9a5541	-0.00470987
81	0x3ab779af	0.0013998057
82	0xbdf2467a	-0.118298486
83	0x3d02cbea	0.03193275
84	0xbb343b12	-0.002750103
85	0xbde9dd08	-0.114191115
86	0x3cdc2789	0.02687432
87	0xbc9a9a96	-0.01887254
88	0xbd8bfca2	-0.06835295
89	0x3c9c65a4	0.019091435
90	0x3d8f370c	0.06992921
91	0x3ddaf034	0.10690346
92	0x3dac569c	0.08414957
93	0xbe15e781	-0.14639093
94	0xbd9c99db	-0.07646533
95	0xbd92afe7	-0.07162457
96	0xbd2e48ea	-0.042550005
97	0xbcad58ea	-0.021160562
98	0xbc4755a5	-0.012166415
99	0xbd5c6efc	-0.05381678
100	0xbc9ee482	-0.01939607
101	0xbc981152	-0.018562946
102	0x3d69aebe	0.057051413
103	0x3d2abf7a	0.041686513
104	0x3c0a064c	0.008424353
105	0x3d2217df	0.039573546
106	0x3ccb52a1	0.024819674
107	0xbc5a5e26	-0.013328111
108	0x3c99a287	0.018754257
109	0xbe4f3a65	-0.2023712
110	0xbd1f7253	-0.038927387
111	0x3d384831	0.044990722
112	0xbe47d8f0	-0.19516349
113	0xbc958363	-0.018251127
114	0xbc48e6b1	-0.012262032
115	0xbd5e1bea	-0.05422584
116	0xbc62d286	-0.013844138
117	0x3ac4bb56	0.0015009444
118	0xbab4a36e	-0.0013781616
119	0xb94cb44a	-0.00019522119
120	0xba3b6079	-0.00071478594
121	0xba48d449	-0.00076610275
122	0xba2a161a	-0.0006488279
123	0x3b0ebbd7	0.0021779442
124	0x3a98248e	0.0011607574
125	0xba12eaa8	-0.00056044245
126	0xbb2e2672	-0.0026573208
127	0xbb30dbc0	-0.002698645
128	0xba9797e9	-0.0011565658
129	0x3b34f2b1	0.0027610476
130	0x3aa11f4e	0.0012292655
131	0x3b14a311	0.0022680203
132	0x3b31312f	0.0027037372
133	0x3b049e03	0.0020235784
134	0x3b6b7c8a	0.0035932385
135	0xbcad4974	-0.02115319
136	0xbc2f1e42	-0.010688366
137	0xbd99781d	-0.07493613
138	0xbcbbed4a	-0.022940297
139	0x3d8d777e	0.06907557
140	0xbd150e41	-0.036390547
141	0x3d5bbf9d	0.053649534
142	0x3d860c18	0.065452754
143	0x3c834f35	0.01602898
144	0x3da43421	0.08017755
145	0x3d0991a9	0.033586178
146	0xbcaac8b1	-0.02084765
147	0x3d3338c3	0.043755304
148	0xbd950f39	-0.07278294
149	0xbe0a840b	-0.13526933
150	0x3d7bb9de	0.061456554
151	0xbc215a03	-0.009848121
152	0xbd4f0473	-0.050541352
153	0xb9eda4f9	-0.00045327077
154	0xbda93e57	-0.082638435
155	0xbd9490a2	-0.07254149
156	0xbddfb0fa	-0.109224275
157	0xbe0d0d46	-0.13774595
158	0xbd9ff466	-0.07810287
159	0xbd83b7e1	-0.064315565
160	0xbd6e7051	-0.058212582
161	0xbc0e8307	-0.008698232
162	0x3cbea82c	0.02327355
163	0x3b246d66	0.002508962
164	0xbcba8a81	-0.022771122
165	0xbdb90aa1	-0.090352304
166	0xbd918e6a	-0.071072415
167	0xbd34c71d	-0.0441352
168	0xbdc125c2	-0.0943103
169	0xbda45f36	-0.080259725
170	0xbc7dc1ea	-0.015488127
171	0xbd34932b	-0.044085663
172	0xbda8948b	-0.08231457
173	0xbe3dcd1d	-0.18535276
174	0xbe4beb36	-0.19913945
175	0xbd2c8f3c	-0.042128786
176	0xbe35e20d	-0.17762013
177	0xbd864bf5	-0.065574564
178	0xbcb91d23	-0.022596901
179	0xbda5ad4b	-0.08089694
180	0x3dbbe433	0.09174385
181	0x3db8913a	0.09012075
182	0x3d73b1f1	0.05949587
183	0xbda4b395	-0.08042065
184	0xbdabe146	-0.08392577
185	0xbd8a1aad	-0.06743369
186	0x3a677e3e	0.0008830762
187	0x3ca17ca4	0.019712754
188	0x3d748345	0.0596955
189	0x3d3601db	0.044435363
190	0x3c3fe897	0.011713169
191	0xbb081dcc	-0.0020769713
192	0xbb9a243e	-0.0047040274
193	0xbd02c491	-0.03192574
194	0x3b81ae5b	0.0039575524
195	0xbc501019	-0.0126991505
196	0xbce5691a	-0.028004218
197	0x3cbdf88f	0.023189811
198	0x3ceeacad	0.029135073
199	0xbd44a420	-0.048008084
200	0xbcbfd88e	-0.023418691
201	0xbd2b1a5b	-0.04177318
202	0xbe1e5450	-0.1546185
203	0xbdaf9582	-0.08573438
204	0xbd0fe5d7	-0.0351313
205	0xbd51ed30	-0.05125159
206	0xbc2ca2b0	-0.010536835
207	0xbceffcb5	-0.029295305
208	0x3c21a8ba	0.009866888
209	0xbd4b2816	-0.049598776
210	0x3ca07d68	0.019591048
211	0x3dd833cc	0.105567545
212	0xbc3a5fae	-0.011375351
213	0x3dad9120	0.08474946
214	0x3dfc9c02	0.12334444
215	0x3cd54bec	0.026037179
216	0x3da0afc9	0.07846028
217	0x3d81c70b	0.063367926
218	0x3d39ed83	0.045392524
219	0xbcfec234	-0.031098463
220	0xbd3ac4d5	-0.04559787
221	0xbc938a1a	-0.018010188
222	0xbd97d713	-0.07414069
223	0xbd791413	-0.06081016
224	0xbb3383a1	-0.002739169
225	0x3d226e93	0.039656233
226	0xbdc1ffbe	-0.09472607
227	0xbdec1121	-0.115267046
228	0xbc0f3ce0	-0.008742541
229	0xbe6fea53	-0.23429231
230	0xbe4f3be6	-0.20237693
231	0xbda3d445	-0.079994716
232	0xbdfc990c	-0.12333879
233	0xbdc73733	-0.09727325
234	0xba068b4f	-0.0005132453
235	0x3a98f293	0.0011668972
236	0x3aacabaf	0.0013173724
237	0xbb1d3d5c	-0.0023992872
238	0xbc1d8f6b	-0.009616713
239	0xbb63ff97	-0.0034789795
240	0xbbb5053d	-0.005524306
241	0xba83c50d	-0.0010053233
242	0xbb45000c	-0.0030059842
243	0xbb2e4352	-0.002659042
244	0x3aa471c9	0.0012546118
245	0xb8e8814f	-0.00011086708
246	0xbbdfe888	-0.00683314
247	0xbb45cbd4	-0.0030181305
248	0xbb9f0a8d	-0.0048535527
249	0xbb4df820	-0.0031428412
250	0xbacf5c2f	-0.001582032
251	0x3ad779ff	0.0016439556
252	0xbcc4413d	-0.02395689
253	0xbd9d4a12	-0.076801434
254	0x3dbf30cc	0.09335479
255	0xbd68ca17	-0.056833353

tfeb.5.weight f4 [25]
0	0x3ee2ac7b	0.44272217
1	0x3e356778	0.17715251
2	0x3ea17fbf	0.31542775
3	0x3e981d1e	0.29709715
4	0x3eec1866	0.46112365
5	0x3ec50a2e	0.3848433
6	0x3e945c43	0.2897664
7	0x3e87a45f	0.26492593
8	0x3f243e5a	0.6415764
9	0x3ea0d8ac	0.31415308
10	0x3e765e4e	0.24059412
11	0x3f16e0df	0.58936876
12	0x3f0377ce	0.5135468
13	0x3f1874ea	0.59553397
14	0x3e58e9a8	0.21182883
15	0x3e6c8d68	0.23100817
16	0x3eac833a	0.33693868
17	0x3e5f459d	0.21803899
18	0x3eee2b08	0.46517205
19	0x3e4f1be1	0.20225479
20	0x3ee6e5ab	0.45097098
21	0x3e55544e	0.20832941
22	0x3e68d603	0.22737889
23	0x3dab2c42	0.08358051
24	0x3e7ebf8a	0.24877754

tfeb.5.bias f4 [25]
0	0x3d15110c	0.03639321
1	0x3e813de5	0.25242534
2	0xbc83ca3b	-0.016087642
3	0x3cdd986d	0.027050221
4	0xbd7ecc8a	-0.062206782
5	0x3de6d5c7	0.112712435
6	0x3e3e677b	0.18594162
7	0x3d7a6c69	0.061138544
8	0xbdbf52ab	-0.093419395
9	0xbd468d72	-0.048474737
10	0x3e133fc1	0.14379789
11	0xbd2091bc	-0.039201483
12	0xbe372603	-0.17885594
13	0xbdb46845	-0.0880895
14	0x3e334f0f	0.17510627
15	0x3e10cab6	0.14139828
16	0xbc7d66aa	-0.015466372
17	0xbcf112ca	-0.029427905
18	0xbdb98032	-0.090576544
19	0x3ea963ab	0.33083853
20	0xbe29a7bb	-0.1656789
21	0x3e96868c	0.29399526
22	0x3e82aae7	0.25521013
23	0x3d95089c	0.07277033
24	0xbd84e016	-0.064880535

tfeb.5.running_mean f4 [25]
0	0xbf0796ef	-0.5296468
1	0xbf808305	-1.0039984
2	0xbd655e12	-0.055997916
3	0x3d8ecca1	0.069726236
4	0xbf2f1790	-0.6839533
5	0xbed0ef31	-0.4080749
6	0xbf048940	-0.51771927
7	0xbec2cf63	-0.38048849
8	0xbf03c0db	-0.5146615
9	0xbee7fa7b	-0.4530829
10	0xbefe0fb1	-0.49621347
11	0xbede833f	-0.43459508
12	0x3dbffc36	0.09374277
13	0xbea6cd02	-0.32578284
14	0xbed287a0	-0.411191
15	0xbe2f5fb3	-0.1712635
16	0xbf2c9cf7	-0.6742701
17	0xbe5b3178	-0.2140559
18	0xbed3ae3e	-0.41343874
19	0xbea1cb6c	-0.3160051
20	0xbcec9e22	-0.028883997
21	0xbf2af300	-0.6677704
22	0xbe026fd2	-0.12737969
23	0xbe6f617f	-0.23377036
24	0x3de84841	0.11341906

tfeb.5.running_var f4 [25]
0	0x3e3ece0a	0.18633285
1	0x3e4dd8d3	0.20102243
2	0x3e17df21	0.1483121
3	0x3d36a67a	0.04459236
4	0x3e6288af	0.22122453
5	0x3e175301	0.14777757
6	0x3dd79d92	0.10528101
7	0x3d81460d	0.06312189
8	0x3e8c20e1	0.27368835
9	0x3db47f65	0.08813361
10	0x3e24ccd6	0.16093764
11	0x3e8df1ae	0.2772345
12	0x3e007b5b	0.12547056
13	0x3e074b65	0.13212354
14	0x3dc07b18	0.09398478
15	0x3e06f0e9	0.13177837
16	0x3dc5e5ae	0.096629485
17	0x3cfb00e0	0.030640066
18	0x3df5bdec	0.11999115
19	0x3dac77b2	0.084212676
20	0x3e19f657	0.15035377
21	0x3e8f9d6a	0.28049785
22	0x3e0de4b0	0.13856769
23	0x3c9e29b5	0.019306997
24	0x3d05e01b	0.032684427

tfeb.7.weight f4 [28, 25, 3, 3]
0	0x3cad986d	0.021190846
1	0x3ca273c1	0.019830586
2	0x3d2ce588	0.042211086
3	0x3cd07433	0.025446033
4	0x3cd780be	0.026306506
5	0x3c451ccf	0.012030794
6	0x3c0f66c2	0.008752527
7	0x3d2668f0	0.04062742
8	0x3d0d6d28	0.034527928
9	0x3c3f1313	0.0116622625
10	0xbc1a7263	-0.009426686
11	0xbcb4ceca	-0.022071261
12	0x3da34553	0.07972207
13	0x3dcc8073	0.09985437
14	0x3d85ef44	0.06539777
15	0x3d499a68	0.04921952
16	0x3cb6058e	0.022219446
17	0xbc619d0c	-0.013770353
18	0xbce3133c	-0.027719133
19	0xbc3623be	-0.01111692
20	0xbcb87665	-0.022517392
21	0xbdf2dd60	-0.1185863
22	0xbdae8bee	-0.08522783
23	0xbd8334e2	-0.06406571
24	0xbce5c61a	-0.028048564
25	0x3c34d685	0.011037474
26	0x3d139541	0.03603101
27	0xbd207833	-0.03917713
28	0xbc937a8f	-0.018002776
29	0xbd04b130	-0.03239554
30	0xbd4fdfb5	-0.050750453
31	0xbd3b0118	-0.04565534
32	0xbc7bca77	-0.015368096
33	0xbc8b6fac	-0.017021023
34	0xbd05d878	-0.032677144
35	0x3d965fc5	0.07342485
36	0x3b812c7f	0.003942072
37	0x3d2c6afd	0.04209422
38	0x3d979e29	0.074032135
39	0x3cde7845	0.027156958
40	0x3d5c6c5e	0.053814285
41	0x3d90be9e	0.07067607
42	0x3b2a245c	0.0025961613
43	0x3ce3a9ee	0.02779099
44	0x3d74509a	0.05964718
45	0xbd5bce73	-0.053663682
46	0xbd41907c	-0.04725693
47	0x3af1dc78	0.0018452546
48	0xbc6bdee2	-0.014396401
49	0x3ca4099f	0.020024119
50	0x3c608fc3	0.01370615
51	0xbd1ec3d3	-0.03876097
52	0x3b560f67	0.003266299
53	0x3c8d7da2	0.01727182
54	0xbde8ebfd	-0.11373136
55	0xbd0303cc	-0.031986043
56	0xbd66c62c	-0.056341335
57	0x38c03b80	9.166356e-05
58	0xbac8460b	-0.0015279663
59	0xbd42cb22	-0.047557004
60	0x3c1c9dff	0.009559154
61	0x3d38b9b8	0.04509899
62	0x3ac8bc6e	0.0015314945
63	0xbbe7167a	-0.00705224
64	0xbc5728b7	-0.013132266
65	0xbb9c04d8	-0.0047613196
66	0x3c6c7239	0.01443153
67	0x3d4c3585	0.049855728
68	0x3c8f51d5	0.017495075
69	0x3c4f1b8b	0.012640844
70	0x3cd6a91f	0.02620369
71	0x3c89cac3	0.016820317
72	0xbd1f2ad8	-0.03885922
73	0x38b5ba72	8.665481e-05
74	0xbd000415	-0.031253893
75	0x3d1f9782	0.03896285
76	0x3de9c4ce	0.11414491
77	0x3d96b582	0.073588386
78	0x3c40547f	0.011738895
79	0x3d4ca898	0.04996547
80	0x3d7db1df	0.06193721
81	0x3c54845a	0.012971008
82	0x3ba93427	0.0051636877
83	0x3c9ed018	0.019386336
84	0x3b954bcc	0.004556155
85	0x3c678efa	0.014133209
86	0x3bd9d8f9	0.0066481796
87	0x3ca29d9c	0.019850545
88	0x3cd83d70	0.026396483
89	0x3c92025c	0.01782339
90	0xbcfb42a1	-0.03067142
91	0xbcc6fcaf	-0.02429041
92	0xbd7c45d2	-0.061590023
93	0x3d92e688	0.071728766
94	0x3dbdd6e7	0.09269505
95	0x3d8bb562	0.068217054
96	0x3d1159fc	0.035486206
97	0x3c3daed1	0.011577324
98	0xbd69cc11	-0.05707938
99	0x3c0e5521	0.0086872885
100	0x3d37b4cb	0.044850152
101	0x3d43ce2f	0.047804054
102	0x3cf5dc76	0.03001235
103	0x3dbaa757	0.09113949
104	0x3d3f6f0a	0.046736754
105	0xbd23c1d0	-0.039979756
106	0x3b35459d	0.00276599
107	0xbd4d4490	-0.050114214
108	0xbd254281	-0.040346626
109	0xbb9e1003	-0.004823686
110	0xbc233dee	-0.009963496
111	0xbd215021	-0.039383058
112	0xbca607a9	-0.020267325
113	0xba6df119	-0.0009076759
114	0xbab5222b	-0.0013819387
115	0xbcec7e3f	-0.028868793
116	0x3d4ea5ed	0.050451208
117	0xbcbe64cf	-0.023241429
118	0xbc8de8ad	-0.017322863
119	0x3b5222e0	0.0032064244
120	0xbb83bccb	-0.0040203086
121	0xbc581fe0	-0.013191193
122	0xbcc96230	-0.024582952
123	0x3c8bf6fa	0.017085541
124	0xbbc2cb3e	-0.0059446385
125	0xbd2a36a5	-0.04155602
126	0xbc1cc5cc	-0.009568643
127	0xbc7f161e	-0.015569238
128	0x3af93a22	0.0019014517
129	0xbcd80981	-0.02637172
130	0xbcae6cfd	-0.021292204
131	0xbcda3b4e	-0.026639607
132	0x3d59f7c8	0.05321482
133	0x3d9c9ae7	0.07646733
134	0x3d83e754	0.06440607
135	0x3d989fc8	0.07452351
136	0x3d88f591	0.06687463
137	0x3d36c913	0.044625353
138	0xbc20aacd	-0.009806347
139	0x3b422095	0.0029621471
140	0x3d360753	0.04444058
141	0xbd9d7a17	-0.076893024
142	0xbd9bf5b1	-0.07615221
143	0xbcdfc47b	-0.027315369
144	0xbd3a1a3d	-0.04543518
145	0xbcd51750	-0.026012093
146	0xbbecf137	-0.0072309035
147	0xbb57c85d	-0.0032925822
148	0xbc563ac0	-0.0130755305
149	0xbc743be8	-0.014906861
150	0xba19e797	-0.00058709964
151	0x3ca4438d	0.020051742
152	0x3d223174	0.039597943
153	0x3b132407	0.0022451894
154	0x3cabc483	0.020967728
155	0x3d4280ce	0.04748612
156	0xbcaf2b6f	-0.021383015
157	0xbcb60ec6	-0.022223841
158	0x3c6078d3	0.013700682
159	0xbc1a893f	-0.009432136
160	0xbc2b78ae	-0.010465784
161	0xbc210884	-0.00982869
162	0xbc1c215b	-0.009529437
163	0xbc564cd7	-0.0130798435
164	0xbce1b3b2	-0.027551506
165	0xbc7f7c4e	-0.015593601
166	0x3d12a0f7	0.03579804
167	0x3cd28fa9	0.025703268
168	0x3d2ecd8d	0.042676497
169	0x3d95fd7f	0.07323741
170	0x3d3ce5b6	0.046117507
171	0x3cfab4a1	0.030603709
172	0x3c78265b	0.015145863
173	0x3cfd9867	0.03095646
174	0xbc057055	-0.008144458
175	0xbcc89efd	-0.024489874
176	0x3d032cf4	0.032025293
177	0xbc002842	-0.007822098
178	0xbc86f119	-0.016472386
179	0x3cab79ff	0.020932196
180	0xbd07dec0	-0.033171415
181	0xbc742013	-0.014900225
182	0x3cc30930	0.023808092
183	0xbd2950e0	-0.041336894
184	0xbd658db5	-0.056043345
185	0xbd7b0309	-0.06128219
186	0x3a753add	0.00093547796
187	0xbc0f3c85	-0.008742456
188	0xbce84ef8	-0.028357968
189	0xbd6919fa	-0.05690954
190	0xbcc15f53	-0.023605024
191	0x3a168d9f	0.0005743149
192	0x3d8bd809	0.06828315
193	0x3db9aa9d	0.09065745
194	0x3dcd480c	0.100235075
195	0xbcef4656	-0.029208343
196	0xbb2c8b16	-0.002632802
197	0x3d785927	0.060631897
198	0x3d28aec6	0.041182302
199	0x3d304f31	0.043044273
200	0x3d08f15f	0.033433314
201	0xbd21f45a	-0.039539672
202	0xbd7270d7	-0.059189644
203	0xbd93ec43	-0.07222798
204	0x3dab9819	0.0837862
205	0x3dc8b150	0.09799445
206	0x3db9258c	0.090403646
207	0x3ba8ac7c	0.005147515
208	0xbb128919	-0.0022359549
209	0xbae98291	-0.0017815401
210	0x3ced4f8a	0.028968591
211	0x3caec46f	0.021333901
212	0x3d24e075	0.04025312
213	0x3c6ed7ea	0.014577845
214	0xbc0b0be6	-0.0084867235
215	0x3c80c105	0.015717039
216	0xbb0f9a55	-0.0021912057
217	0xbc27523b	-0.010212476
218	0x3c71cc68	0.014758207
219	0x3c799693	0.015233654
220	0x3c8bbda9	0.01705821
221	0x3d8bca7d	0.06825731
222	0xbcba60c2	-0.022751216
223	0xbcc052a4	-0.023476906
224	0xbb6837f3	-0.003543374
225	0x3dbab34e	0.09116231
226	0xbd52727c	-0.051378712
227	0xbd6e2363	-0.058139216
228	0x3d379fb8	0.044830054
229	0xbe07883f	-0.13235568
230	0xbdfc7fc3	-0.12329056
231	0x3e285af1	0.16440941
232	0xbd58dca1	-0.052944783
233	0xbd8e6092	-0.06952013
234	0x3d142c6b	0.036175173
235	0x3c8c280b	0.017108938
236	0x3d5eea17	0.054422464
237	0x3d9f39d2	0.077747
238	0x3d7674b0	0.060169876
239	0x3c21b8b8	0.009870701
240	0x3d1507af	0.03638428
241	0xbb124851	-0.0022320936
242	0xbcd66b07	-0.026174081
243	0xbd08085f	-0.03321111
244	0x3daa8cd4	0.08327642
245	0x3d45ae89	0.048262153
246	0xbd418e37	-0.047254767
247	0xbd87d250	-0.06631911
248	0xbd7f2b2f	-0.062297042
249	0xbcb8c81f	-0.022556363
250	0xbd7f4181	-0.06231833
251	0xbe1b26d5	-0.15151532
252	0x3b8f5d1c	0.004375113
253	0xbcbbab07	-0.0229087
254	0xbdb8ea7a	-0.09029098
255	0xbd823eea	-0.06359656

tfeb.8.weight f4 [28]
0	0x3e81e60d	0.25370827
1	0x3f02b800	0.5106201
2	0x3e70b5c2	0.23506835
3	0x3eba3629	0.36369446
4	0x3ec2c817	0.3804328
5	0x3eb6e3ce	0.35720676
6	0x3e89b600	0.26896667
7	0x3e8c569d	0.2740983
8	0x3e205232	0.15656355
9	0x3ed2e430	0.41189718
10	0x3ea8be2e	0.32957596
11	0x3ee1368f	0.43986937
12	0x3eaa8c2b	0.33310065
13	0x3e81086f	0.25201747
14	0x3e65ddbe	0.22447869
15	0x3eb523ec	0.3537897
16	0x3eccc641	0.39995006
17	0x3f0171f9	0.50564533
18	0x3edc3fbf	0.43017384
19	0x3ecff281	0.40614703
20	0x3f059d75	0.52193385
21	0x3eba04b1	0.36331704
22	0x3e8d599c	0.2760743
23	0x3ea31df6	0.31858796
24	0x3ef87ae1	0.4853125
25	0x3eb9bc11	0.36276296
26	0x3eca09d0	0.3946061
27	0x3e60c664	0.2195068

tfeb.8.bias f4 [28]
0	0x3e23ed73	0.16008548
1	0xbdcef668	-0.10105592
2	0x3d154f97	0.036452856
3	0xbd315c3b	-0.04330085
4	0xbdd45aa2	-0.10368849
5	0x3cf61153	0.030037558
6	0x3c41602c	0.011802714
7	0x3db9a1cc	0.090640634
8	0x3d39388a	0.045219935
9	0xbd83b5ec	-0.06431183
10	0xbde0f8d4	-0.1098496
11	0xbda16291	-0.07880128
12	0xbd674bc2	-0.056468733
13	0x3dca9193	0.09891047
14	0x3e447a1c	0.19187206
15	0xbd519dcb	-0.051175874
16	0xbe06ed5b	-0.13176481
17	0xbde0e36f	-0.109808795
18	0xbd6450a7	-0.05574098
19	0xbd845bea	-0.06462844
20	0xbe35e390	-0.1776259
21	0xbd2a4add	-0.0415753
22	0x3dba3a17	0.09093111
23	0xbd01a9f7	-0.03165623
24	0xbcaae6b9	-0.02086197
25	0xbcb55880	-0.022136927
26	0xbc90fa75	-0.017697552
27	0x3dfab7b9	0.122420736

tfeb.8.running_mean f4 [28]
0	0x3e8e870e	0.27837414
1	0xbe8c59d6	-0.2741229
2	0xbe3ad9df	-0.18247174
3	0xbe11b73d	-0.14230056
4	0xbed2e994	-0.4119383
5	0xbcbfceab	-0.023413977
6	0xbe98e0f8	-0.29859138
7	0xbea893d3	-0.3292528
8	0xbdb6a144	-0.08917478
9	0x3de4842c	0.11158022
10	0x3e2032ec	0.15644425
11	0x3e348594	0.17629081
12	0xbdf48863	-0.11940076
13	0x3d374085	0.044739265
14	0x3e31d99a	0.17368165
15	0xbefdad03	-0.4954606
16	0xbe584f1c	-0.21123928
17	0x3c173dcb	0.009231041
18	0xbe16f931	-0.14743496
19	0x3d7ee230	0.062227428
20	0xbe8fa25c	-0.28053558
21	0xbe8440f7	-0.25830814
22	0xbf417380	-0.75566864
23	0xbe4d059f	-0.20021676
24	0xbd338cee	-0.043835573
25	0xbe0f68f2	-0.14004877
26	0xbece3a42	-0.40278822
27	0x3ee5b21c	0.4486245

tfeb.8.running_var f4 [28]
0	0x3d1256d0	0.035727322
1	0x3e10b37a	0.14130965
2	0x3c8d741b	0.017267277
3	0x3d2a86f4	0.041632608
4	0x3db087e6	0.086196706
5	0x3d206594	0.039159372
6	0x3cf67d1f	0.03008896
7	0x3d4fc52c	0.050725147
8	0x3c25f0d5	0.01012822
9	0x3dd3c074	0.10339442
10	0x3cc91905	0.024548063
11	0x3d1f20d5	0.03884967
12	0x3db3f277	0.08786481
13	0x3d844a5e	0.06459497
14	0x3d817c32	0.063225165
15	0x3d40df16	0.04708775
16	0x3d8d2115	0.068910755
17	0x3e2fdbbb	0.17173664
18	0x3df98a1a	0.12184544
19	0x3d6fa01d	0.058502305
20	0x3db994f5	0.090616144
21	0x3dcaf76d	0.09910474
22	0x3d487050	0.048935235
23	0x3db032af	0.08603417
24	0x3d834c4b	0.06411036
25	0x3d38cc89	0.045116935
26	0x3d254c7a	0.040356137
27	0x3d6d7165	0.05796947

tfeb.11.weight f4 [32, 28, 3, 3]
0	0xbccaa427	-0.024736477
1	0xbcff1d98	-0.031142041
2	0xbd0b2c97	-0.03397807
3	0x3cf3105b	0.029670885
4	0x3d088d76	0.033338033
5	0x3ca9bd81	0.020720245
6	0x3d99b5d5	0.07505385
7	0x3d707e58	0.05871424
8	0x3d3ea840	0.046547174
9	0xbd0cfa93	-0.034418654
10	0x3b4b7db6	0.0031050271
11	0xbc5a1851	-0.013311462
12	0x3c2d749d	0.010586885
13	0x3c189af8	0.009314291
14	0x3c984018	0.01858525
15	0xbc94cfaa	-0.018165428
16	0xbc1ed506	-0.009694343
17	0x3c8ab34f	0.016931204
18	0xbc954bed	-0.01822468
19	0xbd09f7e9	-0.03368369
20	0xbd00de0a	-0.031461753
21	0xbc8af3de	-0.016961988
22	0xbcb25f2e	-0.0217739
23	0xbc5bbdbd	-0.013411936
24	0x3d0294e8	0.03188029
25	0x3c8e8117	0.01739554
26	0x3cbdca3a	0.023167718
27	0x3cdeff6f	0.02722141
28	0x3cac321e	0.021019991
29	0x3cc7097e	0.024296518
30	0x3ce2c67d	0.027682537
31	0x3c634661	0.01387176
32	0xbc923128	-0.017845705
33	0xba9d78d7	-0.0012014162
34	0x3cc033f3	0.023462271
35	0xbcb017d7	-0.021495743
36	0x3d005b4b	0.031337064
37	0x3ca5dad8	0.020245954
38	0x3d2cf3ac	0.04222457
39	0x3cbfa9aa	0.023396332
40	0x3c047283	0.008083942
41	0x3cc200b3	0.023681974
42	0xbc9e7877	-0.019344551
43	0xbd96149f	-0.07328152
44	0xbcab1ea6	-0.020888638
45	0xbcd0c9de	-0.025486883
46	0xbccb8547	-0.024843825
47	0xbc85fa71	-0.016354771
48	0x3cd9bc52	0.026579056
49	0x3ca74108	0.020416752
50	0xbab4bff2	-0.0013790114
51	0xbcf8c643	-0.030367976
52	0xbd073acf	-0.03301507
53	0xbbd68c9e	-0.0065475246
54	0x3b01e585	0.0019820642
55	0x3be0fbb2	0.006865942
56	0x3be37645	0.006941589
57	0xbcacc610	-0.021090537
58	0xbc96374e	-0.018336918
59	0xbc73a7b9	-0.014871531
60	0x3a7f5f21	0.00097416533
61	0xbc5c3513	-0.013440388
62	0x3a6eca64	0.0009109138
63	0xbd175427	-0.03694549
64	0xbc63748a	-0.013882766
65	0xbcbabdb5	-0.022795537
66	0xbd707434	-0.05870457
67	0xbd16089d	-0.036629308
68	0xbc9d2266	-0.019181442
69	0xbcef4477	-0.029207451
70	0xbc6dee29	-0.014522114
71	0x3cb070e6	0.02153821
72	0xbd0a54de	-0.033772342
73	0xbd0110f6	-0.031510316
74	0xbcfb0547	-0.030642165
75	0xbca982fb	-0.02069234
76	0xbca1c5fc	-0.019747727
77	0xbc0fd9e5	-0.008779977
78	0x3b7dd6a3	0.003873267
79	0x3ac91231	0.0015340504
80	0x3c3017e4	0.0107478835
81	0xbbd36833	-0.0064516305
82	0x3b839bde	0.0040163836
83	0x3d03195b	0.032006603
84	0x3c3c085e	0.011476604
85	0x3d4a2590	0.04935223
86	0x3d165f20	0.036711812
87	0xbbfee6c9	-0.0077789766
88	0x3c48631a	0.012230659
89	0x3cea8f80	0.02863288
90	0x3bc1b4dd	0.005911453
91	0x3be94703	0.007119061
92	0x3b658a11	0.003502492
93	0x3cb8d8c2	0.022564296
94	0x3cbb92f2	0.022897217
95	0xbba35440	-0.0049844086
96	0x3ce00455	0.027345816
97	0x3d168f74	0.0367579
98	0x3ccc50b9	0.024940835
99	0x3b9adffe	0.004726409
100	0x3d1e9681	0.03871775
101	0x3cdd99e2	0.027050916
102	0xbc5b085c	-0.013368692
103	0xbab56c95	-0.0013841564
104	0xbcc4856a	-0.023989398
105	0x3d1163ff	0.035495754
106	0x3cc86177	0.024460537
107	0x3c27d5b6	0.010243824
108	0xbd3c8e12	-0.046033926
109	0xbd7fe233	-0.06247158
110	0xbd6591bf	-0.056047197
111	0xbd928a60	-0.07155299
112	0xbd93b58f	-0.07212364
113	0xbd57d495	-0.05269297
114	0x3d058098	0.03259334
115	0x3d40f899	0.04711208
116	0x3d766eb3	0.060164165
117	0xbcba603c	-0.022750966
118	0xbc9dbd2b	-0.019255241
119	0xbc43a8d4	-0.011942107
120	0x3c9f8305	0.019471655
121	0x3c84efaf	0.016227571
122	0x3c90d44c	0.017679356
123	0x3c608a8f	0.01370491
124	0x3cfe28c7	0.031025304
125	0x3d29c1bd	0.04144453
126	0xbd9210c8	-0.07132107
127	0xbd9b3b6a	-0.07579692
128	0xbda952a7	-0.08267718
129	0x3cee8d4d	0.029120112
130	0x3cc1ab8b	0.023641368
131	0x3d2825cd	0.041051675
132	0x3d4e2977	0.050332513
133	0x3d0a1019	0.03370676
134	0x3d433629	0.047659073
135	0x3cac4d79	0.021033036
136	0x3d2e1bb1	0.042506877
137	0x3d04d1cf	0.03242665
138	0x3b8014c4	0.0039087255
139	0x3c8ad0d6	0.016945284
140	0x3c8d2035	0.017227272
141	0x3c884e00	0.016638756
142	0xbba7a657	-0.005116265
143	0x3aeca106	0.001805336
144	0xbd451a40	-0.048120737
145	0x3ccf343d	0.025293464
146	0xbb3f5e76	-0.002920059
147	0xbd377a4a	-0.04479436
148	0x3d135120	0.03596604
149	0x3c83f29b	0.016106894
150	0xbd305e8e	-0.043058924
151	0x3cff3899	0.031154918
152	0x3d3dae29	0.04630867
153	0xbd333916	-0.043755613
154	0xbd06a9a1	-0.032876614
155	0xbcec86e3	-0.028872913
156	0xbd4801bf	-0.04882979
157	0x3d4bb763	0.049735438
158	0x3d5121d5	0.051057655
159	0xbd5d0798	-0.05396232
160	0xbbda8c62	-0.006669567
161	0x3d02b564	0.03191127
162	0x3bce00f2	0.006286734
163	0x3ba9dfa4	0.0051841307
164	0x3c7d043d	0.015442905
165	0x3b9618b4	0.0045805816
166	0xbcca9fdd	-0.024734432
167	0xbd3f4cdb	-0.046704154
168	0xbbc7d1d0	-0.0060980096
169	0xbd06ac96	-0.032879435
170	0xbd20e8c5	-0.039284486
171	0xba541047	-0.0008089584
172	0xbbe9facc	-0.007140493
173	0xbc0dfe27	-0.008666552
174	0x3d03c23c	0.03216766
175	0x3d2f44fb	0.042790394
176	0x3d4e447d	0.050358284
177	0xbcab41b3	-0.020905351
178	0xbc3fd074	-0.011707414
179	0xbb45c66f	-0.003017809
180	0x3bffad65	0.0078026527
181	0xbc3ef4f6	-0.011655083
182	0xbbadf69b	-0.0053089387
183	0xbb560103	-0.0032654412
184	0xbcaedce1	-0.021345558
185	0xbcf552d2	-0.029946718
186	0xbc373a2e	-0.011183305
187	0xbd0d8c73	-0.03455777
188	0xbd217cc4	-0.039425626
189	0xbd2f38f2	-0.042778917
190	0xbc9ec570	-0.019381255
191	0xbcc2f153	-0.023796713
192	0xbcf81329	-0.030282574
193	0xbb94f13b	-0.0045453585
194	0x3ca17b9f	0.019712267
195	0xbd24f542	-0.04027296
196	0xbc7c97e9	-0.015417078
197	0x3c086a18	0.008326076
198	0xbcc8740d	-0.0244694
199	0x3c977400	0.01848793
200	0x3a0a1df7	0.00052687473
201	0xbd7b5add	-0.06136595
202	0xbc9e862b	-0.019351086
203	0xbd0ccbea	-0.034374155
204	0xbc91a4e2	-0.017778818
205	0x3c77160e	0.015080942
206	0x3c997b34	0.018735506
207	0xbd466b5e	-0.048442237
208	0xbd004bbb	-0.031322222
209	0xbc7d75dc	-0.015469994
210	0xbcc1e807	-0.02367021
211	0xbba965c9	-0.0051696044
212	0xbc729074	-0.014804948
213	0xbcaeeedd	-0.021354133
214	0xbb027e9a	-0.0019911886
215	0x3b592ec5	0.003313945
216	0xbbcbade4	-0.0062157977
217	0xbc328352	-0.010895567
218	0xbbeaa40a	-0.0071606683
219	0x3917cc13	0.00014476506
220	0xbc65329f	-0.01398912
221	0xbcc17b8c	-0.023618482
222	0xbddbf5c5	-0.10740236
223	0xbdbc3d2d	-0.09191356
224	0xbd8bf7de	-0.06834386
225	0xbc2f603a	-0.010704095
226	0xbc0f6125	-0.008751188
227	0xba853ff9	-0.001016616
228	0x3b3a0c13	0.0028388544
229	0x3c2d4130	0.010574624
230	0x3c7973ea	0.01522539
231	0x3ca254a1	0.019815745
232	0x3d31e676	0.043432675
233	0x3d4c8be1	0.049938086
234	0xbb4d9868	-0.0031371359
235	0x3b37a457	0.0028021538
236	0xb8c43bdc	-9.357158e-05
237	0xbb9510db	-0.0045491285
238	0x3c17d9f7	0.009268275
239	0xbc12ba44	-0.008955542
240	0xbc89722f	-0.01677808
241	0x3ba4352a	0.0050112205
242	0x3aac2633	0.0013133943
243	0xbd05ddbb	-0.03268216
244	0xbd1604be	-0.036625616
245	0xbd430a63	-0.047617327
246	0x3d6eac3b	0.05826972
247	0x3d8683d8	0.06568116
248	0x3d9f9367	0.07791787
249	0x3d879312	0.06619848
250	0x3d6a1418	0.05714807
251	0x3d95c76e	0.07313429
252	0xbe0439f8	-0.12912738
253	0xbd6038b1	-0.054741565
254	0x3c864377	0.016389592
255	0xbe2b5230	-0.16730571

tfeb.12.weight f4 [32]
0	0x3e9d3988	0.30707955
1	0x3ec71a9f	0.38887498
2	0x3eaf3aef	0.3422465
3	0x3e8997cd	0.26873627
4	0x3e52598d	0.20541973
5	0x3eeb46c3	0.45952424
6	0x3ec51991	0.38496068
7	0x3ed92c86	0.4241678
8	0x3f20d321	0.6282216
9	0x3e9fb067	0.31189272
10	0x3eb41b24	0.35176957
11	0x3ec731a9	0.38905075
12	0x3ebe767b	0.37199768
13	0x3e9d4a88	0.30720925
14	0x3eaccec5	0.33751503
15	0x3e8f3bf1	0.2797542
16	0x3ecdca2e	0.40193313
17	0x3e9c888c	0.30572927
18	0x3ea6ca1f	0.3257608
19	0x3ea4f977	0.32221577
20	0x3eb505fc	0.35356128
21	0x3eaf2085	0.34204498
22	0x3ec92c5b	0.39291653
23	0x3e9db8c7	0.30805036
24	0x3e891de8	0.2678063
25	0x3f0214f4	0.5081322
26	0x3e405ec4	0.1878615
27	0x3e84f1ff	0.25965878
28	0x3e9f593b	0.31122765
29	0x3ef1f0c9	0.47254017
30	0x3edc6b32	0.43050534
31	0x3f15ddd0	0.58541584

tfeb.12.bias f4 [32]
0	0xbe4e192d	-0.20126791
1	0x3d8566c2	0.0651374
2	0xbe1b1d91	-0.15147997
3	0xbdae5642	-0.08512546
4	0xbdae7e9c	-0.085202426
5	0xbe50f137	-0.20404516
6	0xbdd56076	-0.10418789
7	0xbe415a4a	-0.18882099
8	0xbec74733	-0.38921508
9	0x3d6273fa	0.055286385
10	0xbdf9fa2b	-0.12205919
11	0xbd1be5ad	-0.038060833
12	0xbdd71c95	-0.105034985
13	0x3d2184f2	0.039433427
14	0xbe31bb66	-0.17356643
15	0xbd92b3bd	-0.071631886
16	0xbe3d543c	-0.18489164
17	0x3e3a65e5	0.18202932
18	0xbd9ec30f	-0.07752048
19	0x3cf41faf	0.029800264
20	0xbdbfa10a	-0.09356888
21	0xbe1f5e34	-0.1556328
22	0xbda2ecfa	-0.07955356
23	0x3e1414be	0.14461038
24	0xbd1c5c04	-0.03817369
25	0xbcaf12e7	-0.021371318
26	0xbdf99968	-0.12187463
27	0xbdd4715f	-0.10373186
28	0xbd7256b8	-0.059164733
29	0xbe428da7	-0.18999349
30	0xbe3b3673	-0.1828249
31	0xbe38dbac	-0.18052548

tfeb.12.running_mean f4 [32]
0	0xbdbc0963	-0.09181478
1	0xbf214cb4	-0.63007665
2	0xbe88565e	-0.26628393
3	0x3e160485	0.14650162
4	0xbe4d1cc2	-0.20030501
5	0xbf6c17b3	-0.9222366
6	0xbe341726	-0.17586955
7	0xbee0849c	-0.43851173
8	0xbf309f73	-0.689933
9	0xbe04afcc	-0.12957686
10	0xbeb59f87	-0.35473272
11	0xbf1d55e0	-0.6145916
12	0xbf051869	-0.5199037
13	0xbf0fffd4	-0.5624974
14	0xbdc215fc	-0.094768494
15	0xbd216ad8	-0.039408535
16	0xbe90b3f7	-0.28262302
17	0xbe6c7cb3	-0.23094444
18	0xbdcf39f0	-0.101184726
19	0xbeda4f1e	-0.42638487
20	0xbeaa08dc	-0.33209884
21	0xbf14aa2e	-0.58072174
22	0xbec75e96	-0.3893935
23	0xbf143bd8	-0.57903814
24	0xbe2a040f	-0.1660311
25	0xbf43f446	-0.76544607
26	0xbe2fee46	-0.17180738
27	0xbdad0b90	-0.08449471
28	0xbe72ba58	-0.23703897
29	0xbee33f13	-0.4438406
30	0xbe7f9bb2	-0.24961737
31	0xbf50e370	-0.8159704

tfeb.12.running_var f4 [32]
0	0x3d8b3447	0.067970805
1	0x3eeb4105	0.45948043
2	0x3e34164d	0.17586632
3	0x3e04ce0a	0.12969223
4	0x3d12c4ab	0.03583209
5	0x3ed0ea16	0.40803593
6	0x3e830084	0.2558633
7	0x3e6cee83	0.2313786
8	0x3ec761d8	0.38941836
9	0x3e376507	0.17909633
10	0x3e8f20c0	0.27954674
11	0x3eb37c9a	0.35056
12	0x3e58cf8d	0.21172924
13	0x3e3dff99	0.18554534
14	0x3e1008de	0.14065883
15	0x3e14c306	0.1452752
16	0x3dfa52ce	0.12222825
17	0x3ed05a77	0.4069402
18	0x3e058060	0.13037252
19	0x3e5eee9e	0.21770713
20	0x3e03c525	0.12868173
21	0x3e71ee19	0.23625983
22	0x3ead4841	0.33844188
23	0x3ecc8ae6	0.3994972
24	0x3d073549	0.0330098
25	0x3f2fb2ca	0.68632185
26	0x3cbe4f9c	0.02323132
27	0x3e0ab979	0.13547315
28	0x3dc4a552	0.09601845
29	0x3eb675de	0.356368
30	0x3e4e0f5c	0.20123047
31	0x3f264711	0.6495219
