trained_models/step_5_retrain_after_step_4/retrain_4C_after_2nd_pruning_prunratio0.85_2024060419/retrained_4Cmodel_ratio85.0_vaacc92.75362396240234_tracc_82.40131578947368@901epoch_20240604233849.pt (torch, 309234 bytes, 62 tensors)

sfeb.0.weight f4 [8, 1, 1, 9]
0	0x3e7cbf1a	0.24682274
1	0x3e12f9f2	0.14353159
2	0x3e8ddc37	0.27707073
3	0x3eb04050	0.34424067
4	0x3dbbceec	0.091703266
5	0xbe812b10	-0.25228167
6	0xbeef5c06	-0.46749896
7	0xbe900fa6	-0.2813694
8	0xbd878315	-0.06616799
9	0x3c1017b7	0.008794717
10	0x3cc45c31	0.023969742
11	0xbd57a2ba	-0.052645423
12	0xbe918d34	-0.28428042
13	0x3d694f6d	0.056960512
14	0xbe4469c9	-0.19180979
15	0xbe92c143	-0.28663072
16	0x3eb689d5	0.35652032
17	0x3f0e65be	0.55623996
18	0xbe344836	-0.17605671
19	0xbe66984a	-0.22519031
20	0x3e497709	0.19674315
21	0x3d897614	0.06711975
22	0xbe36e1f0	-0.17859626
23	0xbe5ffa87	-0.21872912
24	0x3e02b567	0.12764512
25	0xbea009cd	-0.31257477
26	0xbed20738	-0.41021132
27	0x3f2dc167	0.67873234
28	0x3eba7c01	0.36422732
29	0xbd366da9	-0.044538174
30	0xbbff7d93	-0.007796952
31	0xbe24ca88	-0.16092885
32	0x3c818e26	0.015814852
33	0x3e003c69	0.12523045
34	0xbc0bc8cf	-0.008531763
35	0x3d9df8a5	0.07713441
36	0xbf1bca92	-0.6085597
37	0xbeaa2b49	-0.3323615
38	0x3d79d8f5	0.060997922
39	0x3dabaf7b	0.083830796
40	0x3e9320d5	0.28735986
41	0x3e476a19	0.19474067
42	0xbe39c082	-0.18139842
43	0x3d2a3112	0.041550703
44	0xbdf5e5f9	-0.120067544
45	0xbe9b185a	-0.30292016
46	0xbd0ab1fb	-0.03386114
47	0x3e3f8ee1	0.18706848
48	0x3daa8c0b	0.08327492
49	0xbed44b70	-0.41463804
50	0x3db5a1dd	0.088687636
51	0x3f14341a	0.57892
52	0xbd04c7fd	-0.032417286
53	0xbef95e16	-0.48704594
54	0xbd36fa3c	-0.044672236
55	0xbe524325	-0.20533426
56	0x3e69f9c0	0.22849178
57	0xbd9e0709	-0.077161856
58	0xbee8a969	-0.4544175
59	0x3ef8613d	0.48511687
60	0x3c2132f8	0.009838812
61	0xbedbc112	-0.42920738
62	0x3ed8baf3	0.4233013
63	0x3d461879	0.048363183
64	0x3c680ebe	0.014163671
65	0xbe42bda8	-0.1901766
66	0xbdfd40de	-0.12365888
67	0x3e31a2dd	0.17347284
68	0x3e5dff59	0.21679439
69	0xbc8bead0	-0.01707974
70	0x3ea12692	0.3147474
71	0x3f0cfb78	0.5507121

sfeb.1.weight f4 [8]
0	0x3f697832	0.9119903
1	0x3f446377	0.7671427
2	0x3f30b97f	0.69033045
3	0x3f3f7696	0.7479032
4	0x3f45d76e	0.77281845
5	0x3f040d9a	0.51583254
6	0x3ee9cc70	0.45663786
7	0x3f2f425f	0.6846065

sfeb.1.bias f4 [8]
0	0x3d1b4f3e	0.037917368
1	0x3d0d2ff2	0.034469552
2	0x3d46b0a1	0.04850829
3	0x3e6639f7	0.2248305
4	0x3d63c68f	0.055609282
5	0x3e4129bd	0.18863578
6	0x3d8856bb	0.066571675
7	0x3d6301bb	0.055421572

sfeb.1.running_mean f4 [8]
0	0x365f6ab8	3.3291708e-06
1	0x379d1eea	1.8730254e-05
2	0xb8e7bbde	-0.00011049931
3	0x38d47fd6	0.00010132759
4	0xb86a9776	-5.5931007e-05
5	0xb808a7c4	-3.258117e-05
6	0xb6ce5f28	-6.150356e-06
7	0x38cb0818	9.681302e-05

sfeb.1.running_var f4 [8]
0	0x3caa0686	0.020755064
1	0x3c3cf96b	0.011534075
2	0x3c242d50	0.010020569
3	0x3c9316a2	0.017955128
4	0x3c8f058c	0.0174587
5	0x3bb6364d	0.0055606724
6	0x3abce68e	0.0014411972
7	0x3c50ea4e	0.012751175

sfeb.3.weight f4 [32, 8, 1, 5]
0	0x3d5530cd	0.052048493
1	0xbe356e30	-0.17717814
2	0xbc9edf1a	-0.019393492
3	0x3d48b215	0.048997957
4	0xbe104662	-0.14089349
5	0xbda0603e	-0.07830857
6	0xbdede0bd	-0.11615131
7	0xbd60889a	-0.054817773
8	0xbbc7089a	-0.0060740234
9	0xbc960521	-0.018312993
10	0x3e6f5c9d	0.23375173
11	0x3e4b6030	0.19860911
12	0x3e71db67	0.23618852
13	0x3e0bc4f1	0.13649346
14	0x3daade13	0.083431385
15	0xbde316aa	-0.11088307
16	0xbd21fd36	-0.03954812
17	0xbe841827	-0.25799677
18	0xbd529f39	-0.051421378
19	0xbde14efa	-0.11001392
20	0x3e249b24	0.16074806
21	0x3e31e5a4	0.17372757
22	0x3d8c66cc	0.068555444
23	0x3e31edf4	0.17375928
24	0x3e15c06b	0.14624183
25	0x3d662cee	0.056195192
26	0xbc939a17	-0.018017812
27	0xbd6f2c8e	-0.0583921
28	0xbb8a1897	-0.004214357
29	0x3ccfa95d	0.025349313
30	0x3beafd66	0.0071713207
31	0xbcaeeff1	-0.021354647
32	0x3d01b8d4	0.031670406
33	0x3d16d814	0.036827162
34	0xbc190ed7	-0.009341917
35	0xbd71db34	-0.05904694
36	0xbdc07efd	-0.09399221
37	0xbe167959	-0.14694728
38	0xbce3442b	-0.027742466
39	0xbd327f0a	-0.043578185
40	0xbe2f0fc5	-0.1709586
41	0xbe1e6baa	-0.15470758
42	0xbd1b3636	-0.037893496
43	0x3d7fc16c	0.06244032
44	0x3db2065b	0.086926185
45	0xbc5b1715	-0.013372202
46	0xbe14439d	-0.14478917
47	0xbdea7b88	-0.11449343
48	0xbd05664d	-0.032568265
49	0xbd81bd00	-0.06334877
50	0x3dad40e7	0.08459645
51	0x3d9fdc69	0.07805712
52	0x3d8dbc4d	0.06920681
53	0x3e6990cc	0.22809142
54	0x3e92329f	0.28554246
55	0xbe62c6ed	-0.22146197
56	0xbddad126	-0.10684423
57	0xbdbe0195	-0.092776455
58	0xbc5f0bc9	-0.01361365
59	0xbcf03098	-0.029320046
60	0x3e16c472	0.14723375
61	0x3e084290	0.13306642
62	0x3c3c3801	0.011487962
63	0xbdacebf1	-0.0844344
64	0x3c31a9fb	0.010843749
65	0xbc07144e	-0.008244587
66	0x3dddaa35	0.1082348
67	0xbcd1eb29	-0.025624828
68	0xbae42933	-0.0017407298
69	0x3c935994	0.01798705
70	0xbc384db0	-0.011248991
71	0xbd507e8f	-0.050901946
72	0xbc5e2ba4	-0.013560209
73	0xbdd2305b	-0.10263129
74	0xbd172d14	-0.036908224
75	0xbd793275	-0.060839135
76	0xbd889d42	-0.066706195
77	0xbe7c8920	-0.24661684
78	0xbe2d6531	-0.16933133
79	0xbdd38dcc	-0.1032978
80	0xbe06fc28	-0.13182127
81	0xbe552789	-0.20815863
82	0xbcfa248e	-0.030535009
83	0xbca88f34	-0.020576097
84	0xbdc282d6	-0.09497611
85	0xbde19b01	-0.11015893
86	0xbd6d29aa	-0.057901062
87	0xbd73a4c8	-0.05948332
88	0xbe34e672	-0.17666033
89	0xbe0e8002	-0.13916019
90	0x3e13b20d	0.1442339
91	0x3e5d43b7	0.21607862
92	0x3e01a9ba	0.12662402
93	0x3e3ae7d9	0.18252505
94	0x3e843ad5	0.25826135
95	0xbe3ec24a	-0.18628803
96	0xbdae6adc	-0.085164756
97	0xbe42c6bb	-0.19021122
98	0xbde0f310	-0.109838605
99	0xbdbaf526	-0.091287896
100	0xbd3b2aff	-0.0456953
101	0x3c3b9cd0	0.011450961
102	0x3d4451e2	0.047929652
103	0x3df72beb	0.120689236
104	0x3d54c33f	0.051944014
105	0xbd240af3	-0.040049504
106	0x3d7e5421	0.06209195
107	0xbd4ba955	-0.049722034
108	0x3dcc533c	0.09976813
109	0x3d18e07b	0.037323456
110	0xbd38c2f5	-0.0451078
111	0xbba48d8e	-0.0050217574
112	0xbd4a6d2d	-0.049420524
113	0xbd82eaaf	-0.063924186
114	0xbdf24107	-0.11828809
115	0xbe12d82d	-0.14340277
116	0xbe7e9ce0	-0.2486453
117	0xbe84fb32	-0.25972897
118	0xbdfe1a9e	-0.124074206
119	0xbdfa9424	-0.12235287
120	0xbdd199cd	-0.10234413
121	0x3d6d0c32	0.05787296
122	0xbdf8cab3	-0.12148037
123	0xbd8bb656	-0.06821887
124	0xbe68169a	-0.22664872
125	0xbdf61b2a	-0.120169
126	0xbce30cf1	-0.027716132
127	0x3d6dfbad	0.058101345
128	0xbc7f1b9e	-0.015570549
129	0xbdab6ac3	-0.083699726
130	0xbea23db7	-0.3168771
131	0xbe8551a5	-0.26038852
132	0xbe66e127	-0.22546826
133	0xbe65d150	-0.22443128
134	0xbea89923	-0.32929334
135	0x3dd19037	0.10232585
136	0x3e52636c	0.20545739
137	0x3e8edf66	0.27904814
138	0x3e22de23	0.15905051
139	0x3df842bb	0.12122103
140	0xbd9f7ae8	-0.077871144
141	0xbdf090ff	-0.11746406
142	0xbe8bd0be	-0.27307695
143	0xbdbb10be	-0.09134053
144	0xbdcff992	-0.10155024
145	0x3d14c87b	0.036324006
146	0xbe1c3e4d	-0.15258141
147	0xbe110a13	-0.14164
148	0xbe39db10	-0.18149972
149	0xbe2bab4c	-0.16764563
150	0xbdea6912	-0.11445822
151	0xbe345cc3	-0.17613511
152	0xbe6f8ce1	-0.23393585
153	0xbe10bb07	-0.14133845
154	0xbdf938d2	-0.12169041
155	0x3e3a9ec8	0.18224633
156	0x3e525dad	0.20543547
157	0x3e7312c0	0.23737621
158	0x3eb96ec6	0.36217326
159	0x3ea2354b	0.31681284
160	0xbe0c0e4d	-0.1367733
161	0xbdb322f6	-0.08746903
162	0xbe0851e0	-0.13312483
163	0xbdcb3ffc	-0.099243134
164	0xbd1cdae8	-0.038294703
165	0x3da25da5	0.079280175
166	0x3cbab1b6	0.022789817
167	0x3c18e176	0.009331098
168	0x3d953fe3	0.07287576
169	0x3c5bef24	0.013423715
170	0xbdf84f44	-0.12124494
171	0xbda6178f	-0.08109962
172	0xbddb61a0	-0.1071198
173	0xbe36f567	-0.17867051
174	0xbd9fd8f8	-0.078050554
175	0xbe481a5a	-0.19541302
176	0xbe06fe6b	-0.1318299
177	0xbcda6af6	-0.026662331
178	0xbbc83b5e	-0.0061105927
179	0x3d8fd5c1	0.07023192
180	0xbdd9bf23	-0.106321596
181	0xbcf0dc70	-0.029401988
182	0x3d50277c	0.050818905
183	0xbd0cdc9f	-0.03439009
184	0xbdb87085	-0.090058364
185	0xbd0c05c8	-0.0341852
186	0xbcfd5451	-0.030923994
187	0x3cdd029f	0.026978789
188	0xbd5f7ff1	-0.054565374
189	0xbcd7554f	-0.026285795
190	0xbd235f06	-0.039885543
191	0x3c4012f8	0.0117232725
192	0xbcb260a7	-0.021774603
193	0xbad8dc17	-0.0016545084
194	0xbd2f2b1c	-0.04276572
195	0xbd81d74b	-0.06339892
196	0x3cfd56da	0.030925203
197	0x3dc015e5	0.09379176
198	0x3e021dcd	0.1270668
199	0x3e3f7e30	0.1870048
200	0xbd4e26a3	-0.050329816
201	0xbe261287	-0.16218005
202	0xbe3209a3	-0.17386489
203	0xbe4f3f1c	-0.20238918
204	0xbdbd38c6	-0.09239344
205	0x3dc3e6bf	0.09565496
206	0x3e67676f	0.2259805
207	0x3dd89246	0.105747744
208	0x3d8bc43e	0.068245396
209	0x3e06bfc6	0.13159093
210	0x3dc483d7	0.09595459
211	0xbd50c15d	-0.050965656
212	0xbd0051e0	-0.031328082
213	0xbdb6df10	-0.089292645
214	0xbe40337e	-0.18769643
215	0xbdd4b861	-0.1038673
216	0xbe6afa38	-0.22947013
217	0xbe5fc96c	-0.2185418
218	0xbd961345	-0.07327894
219	0x3cb45848	0.022014752
220	0xbcb197f5	-0.021678904
221	0x3c4bc94b	0.012438129
222	0xbc129965	-0.008947705
223	0x3e2c1208	0.16803753
224	0x3cd80f30	0.02637443
225	0x3853e454	5.0518967e-05
226	0x3d263875	0.040581185
227	0x3c509bb4	0.012732435
228	0x3d3a4900	0.045479774
229	0xbd82d8af	-0.06388985
230	0x3d99f0d1	0.07516635
231	0x3d7bc45a	0.061466552
232	0x3d9abf7d	0.07556055
233	0x3d9ecbd1	0.07753719
234	0xbb4a3cb8	-0.0030858945
235	0xbd38c58b	-0.045110267
236	0xbd428c6e	-0.047497205
237	0x3d3d9829	0.04628769
238	0x3de0be96	0.109738514
239	0x3dede065	0.116150655
240	0x3dfd3d5c	0.12365219
241	0x3dd2f4bb	0.10300585
242	0x3dc31b3f	0.09526681
243	0x3db577d3	0.08860745
244	0x3daf6954	0.085650116
245	0xbe253b67	-0.16135941
246	0xbe4054a3	-0.18782286
247	0xbe627f78	-0.22118938
248	0xbd0cae90	-0.034346163
249	0xbc22abca	-0.009928653
250	0xbca76ed5	-0.020438591
251	0x3ca064f5	0.01957939
252	0x3dd8886e	0.10572897
253	0x3db0c60f	0.08631527
254	0x3e36861c	0.17824596
255	0x3e6e064b	0.23244588

sfeb.4.weight f4 [32]
0	0x3f3d4df5	0.7394708
1	0x3ed1c9ba	0.40974218
2	0x3f49d170	0.788352
3	0x3f92cd46	1.1468894
4	0x3ea92358	0.33034778
5	0x3ebb1f0e	0.3654713
6	0x3f13340d	0.575013
7	0x3a158449	0.0005703611
8	0x3edbefc9	0.4295638
9	0x3f0476b5	0.5174363
10	0x3c5dabc2	0.01352972
11	0x3f1d5559	0.61458355
12	0x3f16f297	0.5896391
13	0x3f3f0970	0.74623775
14	0x3f645f20	0.8920765
15	0xba405371	-0.00073366525
16	0x3f11e014	0.5698254
17	0x3ed9692c	0.42463052
18	0x3f0db414	0.553529
19	0x39805a0b	0.0002448115
20	0x3f035932	0.51307976
21	0x3f0f8dfb	0.5607602
22	0x3f33e215	0.7026685
23	0x3ed86115	0.42261568
24	0x3a1d589a	0.00060022774
25	0x3a433fe7	0.0007448182
26	0x3ec5cd20	0.3863306
27	0x3f051e09	0.51998955
28	0x3eb50a63	0.35359487
29	0x3f09eb80	0.5387497
30	0x3ed3ffc0	0.4140606
31	0x3ecab102	0.3958817

sfeb.4.bias f4 [32]
0	0x3e29dc0c	0.16587847
1	0xbe45c097	-0.19311748
2	0xbe0b99c6	-0.13632879
3	0xbd2f7095	-0.042831976
4	0xbd6cbf76	-0.05779978
5	0xbc0a7599	-0.008450889
6	0x3e098389	0.13429083
7	0xbd842968	-0.0645321
8	0x3ce2f3d5	0.027704159
9	0xbd984727	-0.07435446
10	0xbcbaffcd	-0.022827053
11	0x3d23834f	0.039920148
12	0x3df251ee	0.11832033
13	0x3d8fac8c	0.070153326
14	0x3d0aab03	0.033854496
15	0xbd1c237e	-0.038119785
16	0xbd86b58c	-0.06577596
17	0x3d8efdfb	0.06982037
18	0xbcc6f8e8	-0.02428861
19	0xbcad748d	-0.02117374
20	0x3bfbc7f6	0.0076837493
21	0xbe17bf79	-0.14819135
22	0xbdc136d2	-0.09434284
23	0x3d1b297e	0.037881367
24	0xbc8ff16a	-0.01757117
25	0xbc9ea7bc	-0.019367091
26	0x3c86df65	0.016463945
27	0xbd445df4	-0.047941163
28	0xbe02d493	-0.12776403
29	0xbda0f7dc	-0.078597754
30	0xbde65031	-0.11245764
31	0x3d96a9ea	0.07356627

sfeb.4.running_mean f4 [32]
0	0xbd4af44f	-0.049549397
1	0xbe5c79f6	-0.215309
2	0xbec9b02d	-0.39392224
3	0xbe70ec06	-0.23527536
4	0xbe8ffff7	-0.28124973
5	0xbe27686b	-0.16348426
6	0xbdee488a	-0.116349295
7	0x3c2f077f	0.01068294
8	0xbe7550be	-0.23956582
9	0xbdf0ac63	-0.1175163
10	0xbd270c93	-0.040783476
11	0xbe5f450a	-0.2180368
12	0xbd6f82c2	-0.05847431
13	0x3dcd6d3c	0.100306004
14	0xbe37b8b9	-0.1794156
15	0xbb326623	-0.0027221523
16	0xbe9112a0	-0.28334522
17	0xbe6a012f	-0.22852014
18	0xbe8e8eed	-0.2784342
19	0xbbf86d10	-0.0075813606
20	0xbea1b0ca	-0.31580192
21	0xbeed361a	-0.4633034
22	0xbe9d7541	-0.3075352
23	0xbe641d3f	-0.22276781
24	0xbc88e82b	-0.016712269
25	0xbc775523	-0.015095982
26	0xbea386f2	-0.31938893
27	0xbe1e81cd	-0.15479203
28	0xbea79bd7	-0.32736084
29	0xbebf230e	-0.37331432
30	0xbd59bda5	-0.053159375
31	0xbd9e6831	-0.07734717

sfeb.4.running_var f4 [32]
0	0x3ea81e90	0.32835817
1	0x3ea79e64	0.3273803
2	0x3f149a0e	0.5804757
3	0x3f84635e	1.0342824
4	0x3e80f110	0.25183916
5	0x3ea1567a	0.3151129
6	0x3eca9d11	0.39572957
7	0x3bbd0ea8	0.0057695694
8	0x3e843e6f	0.25828883
9	0x3e341894	0.17587501
10	0x3b393c17	0.0028264576
11	0x3eb48bc3	0.3526288
12	0x3ecd7cf7	0.40134403
13	0x3f293a58	0.6610465
14	0x3f590ef4	0.8478844
15	0x3aedb797	0.0018136379
16	0x3ee1edef	0.4412684
17	0x3f07566f	0.5286626
18	0x3f21a5f8	0.63143873
19	0x3aa7b1c5	0.0012794068
20	0x3f02845c	0.50983214
21	0x3f1ddada	0.61662066
22	0x3f270ee9	0.65257126
23	0x3ecb67d7	0.3972766
24	0x3a5e1370	0.00084715243
25	0x3a3862b2	0.000703375
26	0x3ed57bb6	0.41695946
27	0x3ede6a62	0.4344054
28	0x3eb13f7f	0.34618756
29	0x3ed34767	0.41265413
30	0x3e4562d2	0.19275978
31	0x3e3314dc	0.17488426

tfeb.0.weight f4 [13, 1, 3, 3]
0	0x3d06362b	0.032766502
1	0x3a216c75	0.0006157824
2	0xbbb01eb4	-0.005374754
3	0x3b88e0cd	0.004177189
4	0x39fb6681	0.00047950822
5	0x3ac949a3	0.0015357028
6	0x3afbb682	0.0019204172
7	0x3bc3f81e	0.0059805056
8	0x3bc5f2b5	0.006040896
9	0x3c0f3a09	0.008741864
10	0xbc2321e8	-0.009956814
11	0x3c6778b6	0.014127901
12	0x3c79a417	0.015236876
13	0xbc3ac7e2	-0.011400195
14	0x3c57bfb3	0.013168263
15	0x3c8086d0	0.015689284
16	0xbbed6024	-0.007244127
17	0x3c84b47b	0.016199341
18	0x3e4e81e8	0.20166743
19	0x3e056a93	0.13028936
20	0xbec758f7	-0.38935062
21	0x3ec26983	0.37971124
22	0x3eef3073	0.4671665
23	0xbf25e1a3	-0.6479742
24	0x3e4a38dc	0.19748253
25	0x3e1a9923	0.1509748
26	0xbee3a7f9	-0.4446409
27	0xbe5ffd45	-0.21873958
28	0xbcba7a15	-0.022763291
29	0x3df02cb9	0.1172728
30	0xbf14984f	-0.58044904
31	0x3ef2f52b	0.47452673
32	0x3f03df7f	0.515129
33	0xbe978470	-0.2959323
34	0x3e1bb735	0.15206607
35	0x3e425937	0.18979345
36	0x3d0f0cd6	0.03492435
37	0x3ed1858f	0.4092221
38	0xbef40839	-0.47662523
39	0x3dc666e8	0.096875966
40	0x3e009db1	0.12560154
41	0xbea33382	-0.31875235
42	0xbe27f3a4	-0.16401535
43	0xbd66bd61	-0.05633295
44	0xbea0b6db	-0.31389508
45	0x3d25dc22	0.040493138
46	0xbe18ca4f	-0.14920925
47	0xbe3297a8	-0.17440665
48	0x3cdd98e6	0.027050447
49	0xbe50865e	-0.20363757
50	0xbe91f697	-0.28508446
51	0x3e767709	0.24068846
52	0xbe349f81	-0.17638971
53	0xbe0d835e	-0.13819644
54	0x3f5757ef	0.8411855
55	0xbef8566d	-0.48503438
56	0xbefed197	-0.4976928
57	0x3f63dabe	0.8900565
58	0xbf0aa706	-0.5416111
59	0xbf25d6ec	-0.6478107
60	0x3eddabcc	0.43295133
61	0xbe939991	-0.288281
62	0xbee1a76c	-0.44073045
63	0xbdf648eb	-0.12025627
64	0xbe313004	-0.17303473
65	0xbe0890ab	-0.13336436
66	0xbda16015	-0.07879654
67	0xbe14b516	-0.14522204
68	0xbddce873	-0.10786524
69	0x3de14918	0.1100027
70	0x3e658046	0.22412214
71	0x3e00ce21	0.12578632
72	0xbe244870	-0.16043258
73	0xbe92b38f	-0.28652617
74	0xbde93791	-0.113875516
75	0xbe24b20f	-0.16083549
76	0xbe88a127	-0.2668545
77	0xbd9c0c07	-0.076194815
78	0xbdc5e4cb	-0.096627794
79	0xbe2569ad	-0.16153593
80	0xbdc0ba01	-0.094104774
81	0xbd2df927	-0.04247394
82	0xbd93f4d4	-0.07224432
83	0x3d4cecce	0.050030522
84	0xbdd3c385	-0.10340027
85	0xbe0983f3	-0.13429241
86	0xbce07ab8	-0.027402267
87	0x3de0f361	0.10983921
88	0xbeebbf53	-0.46044406
89	0x3ed72e7e	0.42027658
90	0x3e9ac606	0.30229205
91	0x3dd0e936	0.102007315
92	0x3ded4239	0.115848966
93	0x3e92e8a5	0.2869312
94	0x3d840178	0.06445593
95	0x3d989ebd	0.07452152
96	0xbd92f364	-0.07175329
97	0xbdac683c	-0.08418319
98	0xbcd5b5a3	-0.026087588
99	0xbda93620	-0.08262277
100	0xbe370166	-0.17871627
101	0xbd6366c6	-0.055517934
102	0xbe33c908	-0.17557156
103	0xbe7c120c	-0.2461626
104	0xbe0244f3	-0.12721615
105	0x3cb89e65	0.022536466
106	0xbdeadc53	-0.11467805
107	0xbd1ddb67	-0.038539317
108	0xbe8e0cb5	-0.2774407
109	0xbe5ef4f3	-0.21773128
110	0x3e9fdc08	0.31222558
111	0xbf23e695	-0.64023715
112	0xbf0cb654	-0.5496571
113	0x3f8c6585	1.0968481
114	0xbebb8cef	-0.3663096
115	0xbe949d5b	-0.29026303
116	0x3ea3ccbe	0.31992143

tfeb.1.weight f4 [13]
0	0xba547cd0	-0.0008105757
1	0xbb0df703	-0.0021662123
2	0x3e8b1360	0.2716322
3	0x3e8dceaa	0.27696735
4	0x3eb0dff4	0.34545863
5	0x3e98ee26	0.29869193
6	0x3f0fd9c2	0.5619165
7	0x3e9ef2ef	0.3104472
8	0x3f695f87	0.9116139
9	0x3ec62a6f	0.3870425
10	0x3e86d3bc	0.26333416
11	0x3efb8350	0.4912362
12	0x3ef1e32f	0.4724364

tfeb.1.bias f4 [13]
0	0xbc424fb3	-0.011859822
1	0xbc65f461	-0.014035315
2	0x3e219d4d	0.15782662
3	0x3e798606	0.24367532
4	0x3e94f2ae	0.290914
5	0x3ebbc285	0.36671844
6	0x3cad9f12	0.021194015
7	0x3d6cd7c5	0.05782296
8	0xbe987684	-0.2977792
9	0xbd049a89	-0.03237394
10	0x3e4506b7	0.19240843
11	0x3c93676d	0.017993653
12	0x3e187907	0.14889918

tfeb.1.running_mean f4 [13]
0	0x3c8da324	0.017289706
1	0x3c9ffbce	0.01952925
2	0x3cb60670	0.022219867
3	0x3e00b171	0.12567689
4	0xbe6daac2	-0.2320967
5	0xbe9a91cf	-0.30189368
6	0xbe896342	-0.2683354
7	0xbdf38903	-0.11891367
8	0xbf03e003	-0.5151369
9	0xbdcd964e	-0.10038434
10	0x3e91a9c6	0.2844984
11	0xbebbbe5e	-0.36668676
12	0xbe6207c4	-0.22073275

tfeb.1.running_var f4 [13]
0	0x3a3c2b2e	0.0007178065
1	0x3a5f8ad8	0.0008527464
2	0x3dba937f	0.09110164
3	0x3e014cdd	0.12626977
4	0x3e2eb9ac	0.17063016
5	0x3e60ef0a	0.21966186
6	0x3ebbc26e	0.36671776
7	0x3e065c03	0.13121037
8	0x3f10ae9a	0.5651642
9	0x3d3cb3e6	0.046070002
10	0x3e710d6e	0.2354028
11	0x3e9ac462	0.30227953
12	0x3e82c179	0.25538233

tfeb.4.weight f4 [25, 13, 3, 3]
0	0x3b16d589	0.002301546
1	0xbb2544a2	-0.002521791
2	0x3a8a52af	0.0010553206
3	0xba56835a	-0.0008183025
4	0xbb9bcf23	-0.004754917
5	0xbb3cef2e	-0.0028829086
6	0x3b1284b0	0.002235692
7	0xbab5f351	-0.0013881718
8	0xb9cf14f4	-0.00039497728
9	0x3ade7b9d	0.0016974095
10	0xbbaa85c1	-0.005203933
11	0x3b73be3c	0.0037192246
12	0x3b0c4363	0.002140247
13	0xbbcbc3ee	-0.006218425
14	0x3b3fbda5	0.0029257324
15	0x3b3a35ce	0.0028413418
16	0xbb3e4ad0	-0.002903629
17	0x3b94f33c	0.0045455974
18	0x3d8b7470	0.06809318
19	0xbbb56245	-0.0055353963
20	0x3d5475b8	0.051870078
21	0xbdc3683a	-0.09541364
22	0xbe3350b4	-0.17511255
23	0xbe0c51f5	-0.13703139
24	0x3d587fc2	0.052856214
25	0xbdccc562	-0.09998585
26	0xbd180957	-0.037118282
27	0xbd0fc7cb	-0.035102647
28	0xbd955725	-0.07292012
29	0xbca55c1c	-0.020185523
30	0xbd9e1018	-0.077179134
31	0xbd7b4098	-0.0613409
32	0xbb0b79f0	-0.0021282397
33	0xbdd74d20	-0.10512757
34	0xbd160308	-0.036623985
35	0x3c0db289	0.008648523
36	0x3da214ef	0.07914149
37	0x3d4af500	0.049550056
38	0x3db7b5a1	0.0897019
39	0xbcad6d33	-0.021170234
40	0xbd58a959	-0.052895878
41	0xbd7d2d2f	-0.06181067
42	0x3cc702ab	0.024293264
43	0x3c33b1ad	0.010967654
44	0x3ca56bcb	0.020193001
45	0xbd72b29e	-0.059252374
46	0xbc2c99fc	-0.01053476
47	0xbd483ffa	-0.048889138
48	0x3cf8bfd0	0.0303649
49	0x3ce4491a	0.027866889
50	0xbd078808	-0.033088714
51	0x3d2bf97d	0.041985977
52	0xbba4b5b0	-0.0050265417
53	0x3b3e6a91	0.0029055218
54	0x3dced2ac	0.10098776
55	0x3db45e2e	0.08807026
56	0xbd1da0fd	-0.03848361
57	0xbe121d6b	-0.14269035
58	0xbd24b783	-0.040214073
59	0xbe8abdf1	-0.2709804
60	0x3cf4b110	0.029869586
61	0xbe06ccb2	-0.13164023
62	0xbdcf804e	-0.10131894
63	0xbd542bdf	-0.05179965
64	0xbcbf2b06	-0.023335945
65	0x3c71705b	0.01473626
66	0x3d691242	0.056902178
67	0x3d8d4772	0.06898393
68	0x3da14561	0.07874561
69	0x3b6bcd25	0.003598043
70	0xbc2954fb	-0.010335202
71	0xbc729f53	-0.014808494
72	0x3b959ccf	0.004565812
73	0x3c62d5ba	0.013844902
74	0x3d48e9fa	0.049051262
75	0x3cef8017	0.029235883
76	0xba6c93f6	-0.00090247334
77	0xbad6d2b2	-0.0016389696
78	0x3db539e5	0.08848933
79	0x3d0c887d	0.034309853
80	0xbb2fa249	-0.002679961
81	0xb93dacd4	-0.00018088828
82	0xbded1cd9	-0.11577768
83	0x3cb7d1f3	0.022438979
84	0x3a8b1521	0.0010611155
85	0xbdd4134c	-0.10355243
86	0x3ccf1523	0.025278633
87	0xbcc01c01	-0.023450853
88	0xbd95d58f	-0.07316124
89	0x3c0255c0	0.007955015
90	0x3d7c52fd	0.06160258
91	0x3dc355d3	0.09537854
92	0x3d9e2959	0.0772273
93	0xbe1756f9	-0.14779271
94	0xbda47db8	-0.080317914
95	0xbd920dd8	-0.07131547
96	0xbd43e055	-0.04782136
97	0xbcf0d445	-0.029398093
98	0xbc8b61a1	-0.017014327
99	0xbd1de6af	-0.038550075
100	0xbc390b74	-0.011294235
101	0xbc83fa58	-0.016110584
102	0x3d8dc6d5	0.0692269
103	0x3d50c2f5	0.050967176
104	0x3c8302e1	0.015992584
105	0x3d161c9e	0.036648385
106	0x3c945d78	0.018110976
107	0xbc9cf118	-0.019157931
108	0x3ce17846	0.027523171
109	0xbe39f421	-0.18159534
110	0xbd1bf854	-0.03807862
111	0x3d57bb40	0.05266881
112	0xbe3592fd	-0.17731853
113	0xbc174491	-0.009232656
114	0xbbe93bc3	-0.00711772
115	0xbd5acc4b	-0.053417485
116	0xbc9889ad	-0.018620336
117	0x3ab86a89	0.0014069836
118	0xbaa953d4	-0.001291866
119	0xb93fe53b	-0.00018300574
120	0xba2fa587	-0.0006700386
121	0xba3c439e	-0.00071817066
122	0xba1f7131	-0.00060822355
123	0x3b05cd15	0.0020416428
124	0x3a8e9e98	0.0010881005
125	0xba09ba56	-0.00052539015
126	0xbb233f1c	-0.0024909442
127	0xbb25ca06	-0.0025297417
128	0xba8e1b9d	-0.001084197
129	0x3b299e4c	0.0025881706
130	0x3a970801	0.0011522771
131	0x3b0b5431	0.0021259899
132	0x3b261908	0.002534451
133	0x3af8a1d2	0.0018969125
134	0x3b5cbffd	0.003368377
135	0xbccc4960	-0.024937332
136	0xbc4bd406	-0.012440687
137	0xbd9ffce0	-0.07811904
138	0xbcfc4269	-0.030793386
139	0x3d67decc	0.05660896
140	0xbd18d967	-0.037316706
141	0x3d1ec9ee	0.038766794
142	0x3d43222a	0.047640003
143	0x3be14cd4	0.0068756137
144	0x3d7387e3	0.059455764
145	0x3ca1bfa9	0.019744711
146	0xbd0e3478	-0.034718007
147	0x3cd37eb4	0.025817253
148	0xbda02577	-0.07819646
149	0xbe11b4d2	-0.14229134
150	0x3d565ddf	0.052335616
151	0xbc932978	-0.01796411
152	0xbd721e60	-0.059111
153	0x3b93b549	0.004507695
154	0xbda2122c	-0.07913622
155	0xbd8b8fb0	-0.068145156
156	0xbdc973cc	-0.098365396
157	0xbe05cb1d	-0.13065763
158	0xbd913ad7	-0.07091301
159	0xbd8460f2	-0.06463803
160	0xbd7ba6e7	-0.061438467
161	0xbc590db5	-0.013247897
162	0x3cd3f88c	0.025875352
163	0x3b856a91	0.0040715416
164	0xbcaa8bc4	-0.020818599
165	0xbda8785a	-0.0822608
166	0xbd8a599a	-0.067553714
167	0xbd2213a7	-0.039569523
168	0xbdbe499c	-0.092913836
169	0xbdaa68fa	-0.08320804
170	0xbca46e4a	-0.020072121
171	0xbd1f04c5	-0.038822908
172	0xbd9440a2	-0.0723889
173	0xbe334976	-0.17508492
174	0xbe410ec0	-0.18853283
175	0xbd3cb14f	-0.046067532
176	0xbe28be2c	-0.16478795
177	0xbd75f1ed	-0.06004517
178	0xbd14a236	-0.03628751
179	0xbd9f9197	-0.07791441
180	0x3db2b7af	0.08726441
181	0x3db3cae7	0.08778935
182	0x3d689253	0.05678017
183	0xbd9d9b39	-0.07695622
184	0xbda1fb5e	-0.079092726
185	0xbd7c4fbf	-0.06159949
186	0xb80f3086	-3.4139048e-05
187	0x3c8cf448	0.017206326
188	0x3d6a312e	0.057175808
189	0x3d210b19	0.039317224
190	0x3bddbfb3	0.006767237
191	0xbbe36e06	-0.006940606
192	0xbbebf3a9	-0.0072006774
193	0xbd10bd77	-0.035336938
194	0xbb2ca9e9	-0.0026346392
195	0xbc96c63d	-0.018405074
196	0xbd075254	-0.0330375
197	0x3c80ad89	0.015707748
198	0x3cf33f96	0.029693406
199	0xbd46c82e	-0.04853075
200	0xbcd1b1aa	-0.025597412
201	0xbd29c206	-0.0414448
202	0xbe1700bc	-0.14746374
203	0xbdaec7f0	-0.08534229
204	0xbd1a2c2a	-0.037639774
205	0xbd5ddb8d	-0.054164458
206	0xbc5bd498	-0.0134173855
207	0xbd1462d2	-0.036227055
208	0x3b048075	0.0020218168
209	0xbd64b657	-0.055837955
210	0x3c41b525	0.011822973
211	0x3dc22b27	0.09480887
212	0xbc931b67	-0.017957402
213	0x3d9033b0	0.070411086
214	0x3ddfe66e	0.10932623
215	0x3c8fa614	0.017535247
216	0x3d9b8766	0.075941846
217	0x3d7ec3a4	0.062198296
218	0x3d39f4db	0.045399528
219	0xbce0b166	-0.02742834
220	0xbd25ee4c	-0.04051046
221	0xbc5aa718	-0.013345502
222	0xbd91d5f6	-0.07120888
223	0xbd6f3eb9	-0.058409426
224	0xbb712697	-0.0036796683
225	0x3d13fb40	0.036128283
226	0xbdb76aa6	-0.089558885
227	0xbdf86fa5	-0.121306695
228	0xbbcfbec8	-0.0063398816
229	0xbe5ab303	-0.2135735
230	0xbe492bbd	-0.19645591
231	0xbda31e4b	-0.07964762
232	0xbdf5db56	-0.12004726
233	0xbdcb4b97	-0.09926527
234	0xb9fc431f	-0.00048115195
235	0x3a8f6127	0.0010938988
236	0x3aa1dea8	0.0012349682
237	0xbb136645	-0.0022491377
238	0xbc13b23e	-0.009014664
239	0xbb55bae5	-0.0032612619
240	0xbba9b055	-0.005178491
241	0xba770c55	-0.000942414
242	0xbb38aada	-0.0028178007
243	0xbb2359f0	-0.0024925433
244	0x3a9a2681	0.0011760743
245	0xb8da3a4a	-0.00010405907
246	0xbbd1e51b	-0.0064054853
247	0xbb396bb2	-0.0028292951
248	0xbb9517f2	-0.0045499736
249	0xbb4113b5	-0.002946121
250	0xbac261cf	-0.0014830175
251	0x3ac9fe56	0.0015410881
252	0xbceed0c1	-0.029152276
253	0xbd913581	-0.07090283
254	0x3d9f8db6	0.07790701
255	0xbd751259	-0.05983195

tfeb.5.weight f4 [25]
0	0x3edc911c	0.4307946
1	0x3e2a233d	0.16615005
2	0x3eacd1d9	0.3375385
3	0x3e8dd96c	0.27704942
4	0x3ee14279	0.43996027
5	0x3eb45378	0.35219932
6	0x3e75b6ef	0.23995565
7	0x3e89f4fb	0.26944718
8	0x3f1b3784	0.60631585
9	0x3ea81545	0.32828727
10	0x3e596be4	0.21232563
11	0x3f13c62e	0.57724273
12	0x3ef55833	0.47918853
13	0x3f16fba0	0.589777
14	0x3e31c956	0.1736196
15	0x3e787bc5	0.24265964
16	0x3ea84473	0.32864723
17	0x3e760001	0.24023439
18	0x3eea1d1f	0.45725343
19	0x3e51ecc9	0.20500483
20	0x3edf1ca7	0.43576548
21	0x3e33cd94	0.1755889
22	0x3e589e14	0.21154052
23	0x3da549db	0.080707274
24	0x3e5e584e	0.21713373

tfeb.5.bias f4 [25]
0	0x3d06a09c	0.032868013
1	0x3e727d48	0.23680604
2	0xbb7d95d0	-0.0038694032
3	0x3d140bb1	0.036143962
4	0xbd60067d	-0.054693688
5	0x3d9ce927	0.07661658
6	0x3e358e24	0.17730004
7	0x3d6a8925	0.057259697
8	0xbd9e9e45	-0.07745031
9	0xbd36bdbc	-0.04461454
10	0x3df92240	0.12164736
11	0xbdac4af8	-0.08412737
12	0xbe31a587	-0.173483
13	0xbde0d6f2	-0.109784976
14	0x3e33c3b7	0.17555128
15	0x3defe193	0.11712947
16	0xbd13165d	-0.03591
17	0xbcfc4c6f	-0.030798165
18	0xbd9fb564	-0.077982694
19	0x3e9be547	0.30448362
20	0xbe1b44ba	-0.15162936
21	0x3e939001	0.28820804
22	0x3e78cfac	0.2429797
23	0x3d75a8b5	0.059975345
24	0xbd4e7020	-0.0503999

tfeb.5.running_mean f4 [25]
0	0xbeea3f3e	-0.45751375
1	0xbf6a7628	-0.9158654
2	0xbd3a350d	-0.04546075
3	0x3d2f0157	0.042725887
4	0xbf1bbef5	-0.6083825
5	0xbeb1ac9d	-0.34702006
6	0xbeea55d8	-0.4576862
7	0xbeb6f077	-0.35730335
8	0xbef0c489	-0.47024944
9	0xbed13a04	-0.40864575
10	0xbed2aeaa	-0.41148883
11	0xbed79d36	-0.4211213
12	0x3daf871d	0.08570693
13	0xbe99f131	-0.30066827
14	0xbeb49185	-0.35267273
15	0xbe0c554a	-0.1370441
16	0xbf160c95	-0.5861295
17	0xbd87c72f	-0.06629788
18	0xbebda845	-0.37042442
19	0xbeb0de37	-0.34544536
20	0xbdac16f0	-0.084028125
21	0xbf0d04ec	-0.55085635
22	0xbe20e4c3	-0.15712266
23	0xbe5541c7	-0.20825873
24	0x3dfe1f20	0.124082804

tfeb.5.running_var f4 [25]
0	0x3e2525bd	0.16127677
1	0x3e1ac205	0.15113075
2	0x3de72a30	0.112873435
3	0x3d0bebb5	0.034160335
4	0x3e3c14d1	0.18367316
5	0x3dc109cf	0.09425699
6	0x3da4e176	0.08050816
7	0x3d5de254	0.05417092
8	0x3e5cb3cc	0.21552962
9	0x3d7b1d91	0.061307494
10	0x3e048e67	0.12944947
11	0x3e6d4fe5	0.23175009
12	0x3da97410	0.0827409
13	0x3dbb94a7	0.091592126
14	0x3d908514	0.07056633
15	0x3dc4324a	0.095799044
16	0x3d928cbf	0.071557514
17	0x3ca9cbaf	0.020727007
18	0x3dd224cb	0.10260924
19	0x3d99bb53	0.075064324
20	0x3dbf214c	0.09332523
21	0x3e59460f	0.21218131
22	0x3df59ef7	0.11993211
23	0x3c4e8189	0.012604126
24	0x3ccf9271	0.025338383

tfeb.7.weight f4 [28, 25, 3, 3]
0	0x3cb7a86c	0.022419177
1	0x3cb16840	0.021656156
2	0x3d208570	0.039189756
3	0x3ce62b6e	0.02809688
4	0x3c8472a5	0.016167948
5	0x3baeaa3c	0.005330352
6	0x3bfcfe8a	0.007720773
7	0x3d086026	0.03329482
8	0x3ce1d63f	0.02756798
9	0x3bee7dcf	0.007278181
10	0xbc726db2	-0.014796661
11	0xbcbf0a03	-0.023320204
12	0x3d93b3a8	0.07212001
13	0x3dc2e61a	0.09516545
14	0x3d84ad1b	0.0647833
15	0x3d06a19e	0.032868974
16	0x3c683462	0.014172645
17	0xbca1041c	-0.01965528
18	0xbcec55a4	-0.02884943
19	0xbc3eb48e	-0.011639727
20	0xbd03c366	-0.03216877
21	0xbde7b6df	-0.11314177
22	0xbdabd13a	-0.08389516
23	0xbd881838	-0.06645244
24	0xbccd5847	-0.025066508
25	0x3c871e0c	0.01649382
26	0x3d01ce57	0.03169092
27	0xbd1082bc	-0.035280928
28	0xbcd7090f	-0.026249437
29	0xbd0be132	-0.03415031
30	0xbd291378	-0.041278332
31	0xbd59e4ab	-0.05319659
32	0xbcc18992	-0.023625169
33	0xbbef857d	-0.007309614
34	0xbca7606f	-0.020431725
35	0x3d9eb5a6	0.077494904
36	0x3b79b21b	0.0038100544
37	0x3d2114ea	0.039326586
38	0x3d8dd80f	0.069259755
39	0x3d1d6267	0.038423922
40	0x3d7b2fb7	0.0613248
41	0x3d988e4c	0.07449016
42	0x3b056e11	0.0020359794
43	0x3cbf6dbb	0.023367753
44	0x3d3f665f	0.046728488
45	0xbd8e6bc0	-0.069541454
46	0xbd5637c9	-0.052299295
47	0xbc02e841	-0.007989944
48	0xbca2f427	-0.019891812
49	0x3cb4361f	0.021998463
50	0x3c8d5194	0.017250814
51	0xbd1c1262	-0.03810347
52	0x3c81c08c	0.015838884
53	0x3c3249f6	0.0108818915
54	0xbdd7e047	-0.105408244
55	0xbd04db32	-0.032435603
56	0xbd5347bc	-0.051582083
57	0x3c0d7250	0.008633211
58	0xbb9ad624	-0.0047252346
59	0xbd4c84b5	-0.049931247
60	0x3c19a50b	0.009377728
61	0x3d168b6f	0.036754068
62	0xbb92d1f4	-0.004480595
63	0xbc706d58	-0.014674507
64	0xbc7a04c8	-0.015259929
65	0xba2ec66d	-0.0006667141
66	0x3c1b2a8e	0.009470595
67	0x3d548e60	0.051893592
68	0x3cee0a90	0.029057771
69	0x3b47a5c2	0.003046379
70	0x3cbc1c7c	0.022962801
71	0x3c50f9e4	0.012754891
72	0xbd3bc488	-0.045841724
73	0xbc629efc	-0.01383185
74	0xbd12af71	-0.035811845
75	0x3d2b4329	0.041812096
76	0x3de89dd6	0.1135823
77	0x3d946f59	0.072478004
78	0x3bef41ea	0.0073015587
79	0x3d3b6d59	0.04575858
80	0x3d423906	0.047417663
81	0x3c2f5e5b	0.010703648
82	0x3c0b3f99	0.00849905
83	0x3ca09fad	0.01960739
84	0x3bf183ce	0.0073704487
85	0x3ca35534	0.019938089
86	0x3c43abe8	0.011942841
87	0x3c7e2535	0.015511801
88	0x3ccffa90	0.025388032
89	0x3c333cf7	0.010939828
90	0xbd042cdf	-0.032269355
91	0xbcdd52cd	-0.027017022
92	0xbd74e3f8	-0.05978772
93	0x3d836d93	0.06417384
94	0x3da809c0	0.08204985
95	0x3d813cbe	0.06310414
96	0x3ce8de3c	0.028426282
97	0x3b950672	0.0045478875
98	0xbd558b2a	-0.05213467
99	0xbb9c7e65	-0.0047758096
100	0x3d1e7f29	0.038695488
101	0x3d21ea55	0.039530117
102	0x3ca2cb15	0.019872228
103	0x3d9f068e	0.07764922
104	0x3d173d2d	0.036923576
105	0xbd2de3a9	-0.04245344
106	0xba901790	-0.001099335
107	0xbd6f0506	-0.0583544
108	0xbcff1870	-0.031139582
109	0xbb4acd76	-0.0030945218
110	0xbb35aaf7	-0.0027720311
111	0xbd067db4	-0.032834724
112	0xbce702fc	-0.028199665
113	0xbc1151d6	-0.008869609
114	0x3acc2b13	0.0015576802
115	0xbd0f307f	-0.03495836
116	0x3d262fca	0.04057292
117	0xbca01506	-0.019541275
118	0xbc6c91c2	-0.014439048
119	0x3bb028ea	0.005375971
120	0x3b0cda11	0.0021492282
121	0xbc5d4cd3	-0.013507086
122	0xbcf4225e	-0.029801544
123	0x3c87ce4b	0.01657786
124	0xbb434d43	-0.002980069
125	0xbd25dca5	-0.040493626
126	0xbc80ca38	-0.015721425
127	0xbc90cc7b	-0.017675629
128	0x3a75c33f	0.0009375102
129	0xbcceda39	-0.025250541
130	0xbc84a7a3	-0.016193217
131	0xbcba7a47	-0.022763385
132	0x3d3a1fc9	0.04544047
133	0x3d93ec7a	0.07222839
134	0x3d7beee7	0.061507132
135	0x3d944795	0.07240216
136	0x3d7daa6b	0.0619301
137	0x3d229469	0.039692316
138	0xbbb7d304	-0.005609872
139	0x3b79210e	0.0038014087
140	0x3d366ad6	0.04453548
141	0xbda9fae3	-0.08299806
142	0xbda1e52d	-0.0790504
143	0xbd115e85	-0.03549053
144	0xbd3feb7e	-0.046855442
145	0xbce9ce51	-0.028540762
146	0xbc3a3ac1	-0.011366547
147	0x3be8f51b	0.007109297
148	0x3a154932	0.0005694806
149	0xbc0c945d	-0.008580294
150	0xbb2789ec	-0.0025564386
151	0x3cc36199	0.02385025
152	0x3d0a776b	0.033805292
153	0x3b950b14	0.0045484398
154	0x3ca31687	0.019908203
155	0x3d4afdd0	0.04955846
156	0xbcc4d527	-0.02402742
157	0xbcdd6929	-0.027027683
158	0x3bbf8d28	0.0058456846
159	0xbbef0fb1	-0.0072955717
160	0xbc5ac374	-0.013352264
161	0xbb82c43d	-0.0039906786
162	0xbc210863	-0.00982866
163	0xbca35887	-0.019939674
164	0xbccc977e	-0.02497458
165	0xbac6b941	-0.0015161411
166	0x3d22fbdb	0.03979097
167	0x3cf6b7ec	0.030116998
168	0x3d0c5b66	0.03426685
169	0x3d89d75c	0.0673053
170	0x3d211aec	0.039332315
171	0x3d11a7e0	0.03556049
172	0x3c7f1eb4	0.015571285
173	0x3cf6874d	0.030093813
174	0xbb40b9a0	-0.0029407516
175	0xbcd2f4c5	-0.02575148
176	0x3d08e557	0.03342184
177	0xbc1adbc4	-0.00945181
178	0xbcf25e78	-0.029586062
179	0x3c4c79fc	0.012480255
180	0xbcd7b46b	-0.026331147
181	0xbc11a32f	-0.008889004
182	0x3cc5dcc0	0.024153113
183	0xbd2ae74d	-0.041724492
184	0xbd67d066	-0.05659523
185	0xbd7adcb8	-0.06124565
186	0x3bd0ea17	0.006375562
187	0xbc221bfa	-0.009894365
188	0xbcf18e5e	-0.029486831
189	0xbd66535d	-0.056231845
190	0xbcd9aa94	-0.026570596
191	0xbb695f25	-0.003560969
192	0x3d85ec8a	0.06539257
193	0x3dae536b	0.085120045
194	0x3dc1e81a	0.09468098
195	0xbd02dfe3	-0.031951796
196	0xbba31966	-0.004977393
197	0x3d42f3bb	0.04759572
198	0x3d1a28ed	0.037636686
199	0x3d1ec37c	0.038760647
200	0x3cf80994	0.030278005
201	0xbd31e65b	-0.043432575
202	0xbd7c630d	-0.0616179
203	0xbd98d356	-0.07462184
204	0x3da787ce	0.081801996
205	0x3dc2b2b4	0.09506741
206	0x3dad7ab4	0.084706694
207	0x3b9041d6	0.0044023795
208	0xbb8ce7eb	-0.0043001077
209	0xbb9b7ff9	-0.00474548
210	0x3cd16211	0.025559457
211	0x3cc7fe43	0.024413234
212	0x3d13c1e1	0.03607357
213	0x3c35314d	0.0110591175
214	0xbc25de1f	-0.010123759
215	0x3c2a8287	0.010407097
216	0xbc96939e	-0.018380936
217	0xbcfbd35b	-0.03074043
218	0xbbd796c2	-0.006579251
219	0x3cbea695	0.023272792
220	0x3cd6f572	0.026240084
221	0x3d8a11ec	0.067416996
222	0xbcc31ae0	-0.023816526
223	0xbd091d34	-0.033475116
224	0xbc4d8051	-0.0125428
225	0x3da4de55	0.08050219
226	0xbd33c3f4	-0.043888047
227	0xbd791bc1	-0.060817484
228	0x3d2aa8ab	0.04166476
229	0xbdf8e092	-0.121522084
230	0xbdff654f	-0.12470495
231	0x3e27c209	0.16382612
232	0xbd1ac017	-0.037780847
233	0xbd81dcab	-0.06340917
234	0x3d125a33	0.035730552
235	0x3c6e9e7f	0.014564156
236	0x3d58233d	0.05276798
237	0x3daa7701	0.083234794
238	0x3d523b33	0.051325988
239	0x3bba43f4	0.00568437
240	0x3d3035e7	0.043020155
241	0xbc153722	-0.009107383
242	0xbcde9c69	-0.027174192
243	0xbd2957a4	-0.041343346
244	0x3daa127b	0.08304306
245	0x3d472636	0.048620425
246	0xbd43a0aa	-0.047760643
247	0xbd5513cd	-0.052020837
248	0xbd6d3db9	-0.05792019
249	0xbcf24dc4	-0.029578097
250	0xbd81ff86	-0.06347565
251	0xbe1df43f	-0.15425204
252	0x3ca5b6ac	0.020228706
253	0xbc8badb7	-0.017050607
254	0xbdaa21f4	-0.08307257
255	0xbd7f933c	-0.062396273

tfeb.8.weight f4 [28]
0	0x3e7b5486	0.24543962
1	0x3ef02b1e	0.46907896
2	0x3e77f12c	0.24213094
3	0x3ead4a4c	0.33845747
4	0x3ecb72ac	0.39735925
5	0x3eb4dd8f	0.35325286
6	0x3e9438df	0.2894964
7	0x3e6e838e	0.23292372
8	0x3e316a8b	0.17325799
9	0x3ed11258	0.40834308
10	0x3e93a54d	0.28837052
11	0x3ed3ece2	0.41391665
12	0x3e9846be	0.29741472
13	0x3e6096e7	0.21932565
14	0x3e6e5359	0.23273982
15	0x3eaf9e17	0.343003
16	0x3ec1ce4f	0.37852713
17	0x3ef0f60d	0.47062722
18	0x3ed1b224	0.40956223
19	0x3ecc39f0	0.39887953
20	0x3efea4a5	0.4973499
21	0x3ea33ae7	0.31880876
22	0x3e7e939e	0.24860999
23	0x3e8f3750	0.27971888
24	0x3ef321cf	0.4748673
25	0x3eb66ed0	0.35631418
26	0x3ec6ec6d	0.38852254
27	0x3e64ce0d	0.22344227

tfeb.8.bias f4 [28]
0	0x3e0d9b8f	0.13828872
1	0xbde7cb58	-0.113180816
2	0x3ce1261d	0.027483994
3	0xbd581397	-0.052753057
4	0xbde1de73	-0.11028757
5	0x3c4b7987	0.012419111
6	0x3cb14b09	0.021642225
7	0x3daf707b	0.08566376
8	0x3d232335	0.039828498
9	0xbd7e8709	-0.0621405
10	0xbe1ecc21	-0.15507556
11	0xbd9f8f2c	-0.0779098
12	0xbd02e128	-0.031953007
13	0x3dc9b3fe	0.09848784
14	0x3e2d213b	0.16907208
15	0xbd357f32	-0.044310756
16	0xbe01eda0	-0.12688303
17	0xbdc843bc	-0.09778544
18	0xbd8f86ae	-0.0700811
19	0xbd83ab70	-0.064291835
20	0xbe41c8d5	-0.18924268
21	0xbd1d6c95	-0.03843363
22	0x3d9c608a	0.07635601
23	0xbc8a6737	-0.01689492
24	0xbd1d2892	-0.03836877
25	0xbd3412d2	-0.04396326
26	0xbc7a391f	-0.015272408
27	0x3decfa39	0.11571164

tfeb.8.running_mean f4 [28]
0	0x3e477dd4	0.19481593
1	0xbe8d3825	-0.27581897
2	0xbe1afd05	-0.15135582
3	0xbda009ba	-0.07814355
4	0xbeaead99	-0.3411682
5	0x3c11fd04	0.008910421
6	0xbe867e56	-0.26268262
7	0xbe920992	-0.28522927
8	0xbd88af4f	-0.066740625
9	0x3d026b46	0.031840585
10	0x3df264f6	0.11835663
11	0x3e0969ab	0.13419215
12	0xbde735f5	-0.11289588
13	0x3d08c9e7	0.033395674
14	0x3dfbdd44	0.122980624
15	0xbed92df8	-0.42417884
16	0xbe907d35	-0.28220525
17	0xbd35abe4	-0.04435338
18	0xbe2c30be	-0.16815469
19	0x3d62bab4	0.055353835
20	0xbe6aeee6	-0.22942695
21	0xbe6d210a	-0.23157135
22	0xbf233377	-0.63750404
23	0xbe51fb34	-0.20505983
24	0xbde488bd	-0.11158893
25	0xbdb7b072	-0.08969201
26	0xbebcf9cf	-0.3690934
27	0x3edaa117	0.42701027

tfeb.8.running_var f4 [28]
0	0x3cd8f6a8	0.026484802
1	0x3dce8198	0.10083312
2	0x3c72056e	0.014771802
3	0x3cf69d07	0.030104173
4	0x3d7d9dc9	0.061918054
5	0x3cfc92b3	0.03083167
6	0x3ca3b561	0.01998395
7	0x3d126ec8	0.03575018
8	0x3bfdf2ce	0.007749892
9	0x3da39d43	0.0798898
10	0x3ca6e0fe	0.020370957
11	0x3cfa6877	0.03056739
12	0x3d8146a7	0.06312304
13	0x3d4e2dee	0.05033677
14	0x3d44eb66	0.048076056
15	0x3cecad6e	0.028891291
16	0x3d4ab49c	0.04948865
17	0x3dfad33b	0.1224732
18	0x3db54ec6	0.088529155
19	0x3d4a872e	0.049445324
20	0x3d8560c2	0.06512596
21	0x3d8927cd	0.066970445
22	0x3d002375	0.031283814
23	0x3d87b824	0.06626919
24	0x3d441eca	0.047880925
25	0x3d020cbd	0.03175043
26	0x3ccc82f4	0.024964787
27	0x3d1ad5c4	0.03780152

tfeb.11.weight f4 [32, 28, 3, 3]
0	0xbc8bf7be	-0.017085906
1	0xbcc949fe	-0.024571415
2	0xbce3a006	-0.027786266
3	0x3d09ffd6	0.03369125
4	0x3d11beae	0.035582237
5	0x3c9ed656	0.019389313
6	0x3d9b1b45	0.075735606
7	0x3d7be9cf	0.061502274
8	0x3d5a532e	0.053301983
9	0xbcf329f9	-0.0296831
10	0x3c538055	0.012909015
11	0xba0db3b3	-0.00054055004
12	0x3bb80d24	0.005616801
13	0x3c834fe1	0.0160293
14	0x3cf94aef	0.030431239
15	0xbc885f46	-0.016646992
16	0xba947459	-0.0011326178
17	0x3cf20b2a	0.029546339
18	0xbc7b90af	-0.0153543195
19	0xbcf50ab3	-0.029912328
20	0xbcd4ddeb	-0.025984725
21	0xbc893b0c	-0.016751789
22	0xbccf4254	-0.025300182
23	0xbca365b5	-0.019945959
24	0x3d084824	0.033271924
25	0x3c905f53	0.01762358
26	0x3cd2f456	0.025751274
27	0x3d00be16	0.03143128
28	0x3cb9bb94	0.022672452
29	0x3ce60020	0.028076231
30	0x3d26e80d	0.040748645
31	0x3ca2ad74	0.0198581
32	0xbbeab888	-0.007163111
33	0xbbd78c73	-0.006578022
34	0x3c6bcbf0	0.014391884
35	0xbcf42c6c	-0.029806338
36	0x3cc6ae4c	0.024253033
37	0x3c827b0b	0.015927812
38	0x3d16baed	0.03679936
39	0x3c64a730	0.013955876
40	0xbb58b64b	-0.003306764
41	0x3c5479c8	0.012968488
42	0xbce15fa3	-0.027511423
43	0xbda150ef	-0.07876765
44	0xbcc1860b	-0.023623487
45	0xbc67b5f2	-0.0141425
46	0xbc911867	-0.017711831
47	0xbc1aca93	-0.0094477115
48	0x3cc7e2fd	0.024400229
49	0x3c8c917c	0.017159216
50	0xbbfb318c	-0.0076658186
51	0xbca85ffc	-0.020553581
52	0xbcba2641	-0.022723319
53	0x3c2eb3a0	0.010662943
54	0x3c1dd961	0.009634347
55	0x3c7c3450	0.015393332
56	0x3c49b0d4	0.0123102255
57	0xbcc3b416	-0.023889583
58	0xbca4a897	-0.020099921
59	0xbc8ade76	-0.01695178
60	0xbb90cb6a	-0.00441878
61	0xbc8d7078	-0.017265543
62	0xba44c51f	-0.000750618
63	0xbcfe4e5f	-0.03104323
64	0xbbb186f5	-0.0054176995
65	0xbc7f61a8	-0.015587248
66	0xbd728de5	-0.059217352
67	0xbcfe9ce4	-0.03108067
68	0xbc7a2112	-0.015266674
69	0xbce039ff	-0.027371405
70	0xbc20d736	-0.009816935
71	0x3cbcff35	0.023070911
72	0xbced0f84	-0.028938062
73	0xbce8db36	-0.02842484
74	0xbcdf811d	-0.027283246
75	0xbcaf1da3	-0.021376437
76	0xbcbbb164	-0.022911735
77	0xbc5e4537	-0.013566307
78	0x3bc4f5ea	0.0060107606
79	0x3b6de14d	0.003629762
80	0x3c368d48	0.0111420825
81	0xbbb49712	-0.005511173
82	0x3b757264	0.0037452215
83	0x3cc93bd7	0.024564667
84	0x3c7e6c17	0.0155287
85	0x3d41740c	0.04722981
86	0x3cb27ffe	0.021789547
87	0xbbcbc271	-0.0062182476
88	0x3c527352	0.012844877
89	0x3ced2ac7	0.028951062
90	0x3c53bc6f	0.012923344
91	0x3c46a887	0.012125141
92	0x3c506de2	0.012721511
93	0x3d1f7809	0.038932834
94	0x3d1a162f	0.037618812
95	0x3c307b9d	0.010771659
96	0x3d05a2a3	0.032625806
97	0x3d28348d	0.04106574
98	0x3d08902c	0.033340618
99	0x3c276b57	0.010218463
100	0x3d43be01	0.047788624
101	0x3cd3ae2c	0.025839888
102	0xbc475a15	-0.012167473
103	0x3c50a63b	0.012734945
104	0xbca29bb9	-0.019849645
105	0x3cd11f95	0.025527755
106	0x3cb300e5	0.021851012
107	0x3c980123	0.01855523
108	0xbd31989f	-0.04335844
109	0xbd68ca2a	-0.056833424
110	0xbd58b34a	-0.05290536
111	0xbd960f0a	-0.07327087
112	0xbda97b3c	-0.08275458
113	0xbd96b0bd	-0.07357929
114	0x3cac8e20	0.021063864
115	0x3d07de61	0.03317106
116	0x3d3ebad9	0.04656491
117	0xbcc457c1	-0.023967626
118	0xbc9bca4f	-0.019017367
119	0xbc1ea7b3	-0.009683537
120	0x3c639b35	0.013891985
121	0x3c4f0964	0.012636516
122	0x3c96828f	0.018372802
123	0x3c1afc2e	0.009459538
124	0x3cd9e0b0	0.026596397
125	0x3d2672f7	0.040636983
126	0xbd885ed2	-0.066587105
127	0xbd8f3244	-0.06992009
128	0xbd97e0a3	-0.07415893
129	0x3ce5a25b	0.028031519
130	0x3cbb8322	0.022889677
131	0x3d2502f9	0.040286038
132	0x3d445cf3	0.047940206
133	0x3cff8377	0.031190617
134	0x3d3a78f3	0.045525502
135	0x3cd0350b	0.025415918
136	0x3d39bab7	0.04534408
137	0x3d21ce27	0.039503243
138	0x3b02e173	0.0019970804
139	0x3c3aa27c	0.011391278
140	0x3cb0cb52	0.021581326
141	0x3ca5416f	0.020172803
142	0xbbe62587	-0.0070235166
143	0x3bbfe785	0.0058564567
144	0xbd18215a	-0.03714118
145	0x3d034924	0.032052174
146	0x3bd15f6d	0.0063895495
147	0xbd3c0488	-0.04590276
148	0x3d2cd51a	0.042195417
149	0x3ca2edad	0.019888723
150	0xbd4d7b40	-0.05016637
151	0x3cc606d5	0.02417318
152	0x3d5c8686	0.05383923
153	0xbd280cbc	-0.04102777
154	0xbd050f7a	-0.032485463
155	0xbd154dbf	-0.036451098
156	0xbd3674d6	-0.044545017
157	0x3d5461e5	0.051851172
158	0x3d106fb7	0.03526279
159	0xbd5ba0df	-0.053620216
160	0xbba69cda	-0.005084616
161	0x3cd476b6	0.025935512
162	0x3c17f47f	0.009274601
163	0x3c17410a	0.009231815
164	0x3c9dd6d8	0.019267485
165	0x39b2bf3d	0.0003409329
166	0xbcc344f0	-0.023836583
167	0xbd34b269	-0.044115458
168	0xbc1eab07	-0.009684331
169	0xbd041ccb	-0.03225402
170	0xbd14519a	-0.036210634
171	0xbb2ad330	-0.002606582
172	0xbc28106c	-0.0102578215
173	0xbbcfc4c0	-0.006340593
174	0x3ce50444	0.027956136
175	0x3d065eb2	0.032805152
176	0x3d2b45e3	0.041814696
177	0xbcca8840	-0.024723172
178	0xbc9574bf	-0.018244145
179	0xbc730d62	-0.014834734
180	0x3c56224c	0.0130697
181	0xbba365d4	-0.004986504
182	0x3bb97536	0.0056597246
183	0xbb7193f3	-0.0036861866
184	0xbcafded5	-0.02146856
185	0xbce3a441	-0.027788283
186	0xbca00c76	-0.019537192
187	0xbd1d0aa0	-0.03834021
188	0xbd29da2c	-0.04146783
189	0xbd280054	-0.041015938
190	0xbc7d0e2c	-0.015445273
191	0xbc82673e	-0.01591837
192	0xbce77958	-0.028256103
193	0xbac1e777	-0.0014793713
194	0x3ccac728	0.024753168
195	0xbd281442	-0.041034944
196	0xbc4987f7	-0.012300483
197	0x3c0de218	0.008659862
198	0xbca9752a	-0.020685751
199	0x3cde59fd	0.02714252
200	0x3c129627	0.008946932
201	0xbd8e3ea1	-0.06945539
202	0xbca6d8e0	-0.020367086
203	0xbd16af88	-0.036788493
204	0xbca35949	-0.019940035
205	0x3c4f9866	0.012670612
206	0x3c87eadd	0.016591484
207	0xbd477d67	-0.048703577
208	0xbcf3aaaf	-0.029744474
209	0xbc63fc75	-0.013915171
210	0xbcc35164	-0.023842521
211	0xbb999a2d	-0.0046875686
212	0xbc7748ff	-0.015093087
213	0xbcc84c5b	-0.024450472
214	0xbb40662e	-0.002935778
215	0x3b0ace3c	0.0021180054
216	0x3b902d04	0.0043998975
217	0xbbd9062b	-0.0066230497
218	0x3c1f7fb2	0.009735035
219	0xba0905d9	-0.00052270066
220	0xbc846a4e	-0.016163971
221	0xbc908892	-0.017643247
222	0xbdd55d91	-0.10418237
223	0xbdbfb34d	-0.09360371
224	0xbdb60c34	-0.08889046
225	0xbc1f944c	-0.009739947
226	0xbb3f8ae1	-0.0029227065
227	0x3b18ca32	0.0023313877
228	0xbb6cd680	-0.0036138594
229	0x3bd18d33	0.006395006
230	0x3b894858	0.0041895323
231	0x3ca1e43f	0.019762157
232	0x3d334126	0.043763302
233	0x3d4c2b5c	0.04984604
234	0x3b396510	0.0028288998
235	0x3bfef0f9	0.007780191
236	0x3bf37e95	0.0074308612
237	0x3b8d9c4f	0.004321612
238	0x3c44c488	0.012009747
239	0xbbbee1b7	-0.005825247
240	0xbc156c1b	-0.009120013
241	0x3c2d2705	0.010568385
242	0x3c04aff7	0.008098594
243	0xbcd37a27	-0.025815083
244	0xbd021018	-0.03175363
245	0xbd3b8e8a	-0.045790233
246	0x3d661805	0.05617525
247	0x3d7a62c2	0.06112934
248	0x3d86af9d	0.06576464
249	0x3d83bcff	0.064325325
250	0x3d67e6d5	0.056616623
251	0x3d8cf40e	0.06882487
252	0xbe0752ac	-0.1321513
253	0xbd8940ef	-0.06701838
254	0x3c2c8099	0.010528707
255	0xbe1896b8	-0.14901245

tfeb.12.weight f4 [32]
0	0x3ea7d3e0	0.32778835
1	0x3ead39f2	0.3383327
2	0x3eaec49d	0.3413438
3	0x3e983bfa	0.29733258
4	0x3e80a9ac	0.2512945
5	0x3ee0289b	0.4378098
6	0x3eb7dd75	0.35911146
7	0x3ed1367c	0.4086188
8	0x3f13bf29	0.5771356
9	0x3e9b94fa	0.30387098
10	0x3eb476fd	0.3524703
11	0x3ec0ff5b	0.3769482
12	0x3ebb7897	0.3661544
13	0x3e93ab56	0.28841656
14	0x3eac7a1c	0.33686912
15	0x3e85f535	0.2616364
16	0x3ebf75b4	0.37394488
17	0x3e7ceaf9	0.2469901
18	0x3e9ed0d5	0.310187
19	0x3e9e0a64	0.30867302
20	0x3ebaea2f	0.36506793
21	0x3eb018ad	0.34393826
22	0x3ebf03c7	0.3730757
23	0x3e8a83c0	0.27053642
24	0x3e901f11	0.28148702
25	0x3eeb7751	0.4598947
26	0x3e32fb0e	0.17478582
27	0x3e80ab35	0.2513062
28	0x3ea46546	0.32108516
29	0x3edd5be9	0.43234184
30	0x3ece5edc	0.40306747
31	0x3f0dab61	0.5533963

tfeb.12.bias f4 [32]
0	0xbe455e7d	-0.19274326
1	0x3d10f1d0	0.03538686
2	0xbe0b4284	-0.13599592
3	0xbd4e217c	-0.050324902
4	0xbda1baf4	-0.078969866
5	0xbe643ed0	-0.22289586
6	0xbda0ad30	-0.07845533
7	0xbe2be487	-0.16786395
8	0xbec87bc5	-0.3915693
9	0x3d165f50	0.03671199
10	0xbe02e9dd	-0.12784524
11	0xbdaff586	-0.08591752
12	0xbddbb573	-0.10727968
13	0xbbd589ab	-0.0065166554
14	0xbe35a2f7	-0.17737947
15	0xbda4ea90	-0.08052552
16	0xbe3b9697	-0.18319164
17	0x3e21a010	0.15783715
18	0xbd97f9e3	-0.07420709
19	0x3d07c197	0.033143606
20	0xbddc2991	-0.10750116
21	0xbdfda522	-0.12385012
22	0xbd99d054	-0.075104386
23	0x3e0b62e6	0.13611946
24	0xbd17aa42	-0.037027605
25	0xbd697efb	-0.057005864
26	0xbe0a5e0a	-0.13512436
27	0xbd9de4b4	-0.07709637
28	0xbda70d76	-0.08156864
29	0xbe2cf11b	-0.1688885
30	0xbe32b190	-0.17450547
31	0xbe494a90	-0.1965735

tfeb.12.running_mean f4 [32]
0	0xbd24dfaa	-0.040252365
1	0xbf01072e	-0.5040158
2	0xbe685eff	-0.22692488
3	0x3e1ee887	0.1551839
4	0xbe296829	-0.1654364
5	0xbf5898b5	-0.8460801
6	0xbe5afabb	-0.21384709
7	0xbecd5416	-0.40103215
8	0xbf27d019	-0.65551907
9	0xbe018625	-0.12648828
10	0xbe7540f8	-0.23950565
11	0xbf0a3a3c	-0.5399511
12	0xbecd1143	-0.40052232
13	0xbf0db70c	-0.5535743
14	0xbdad7dbd	-0.08471248
15	0xbd81666a	-0.06318362
16	0xbe919c0b	-0.28439364
17	0xbdb3cff4	-0.08779898
18	0xbe1aceb0	-0.15117908
19	0xbedb4779	-0.42827967
20	0xbea77e42	-0.32713515
21	0xbf066288	-0.52494097
22	0xbeac9f0f	-0.33715102
23	0xbee0ed4e	-0.4393105
24	0xbdb59efe	-0.08868216
25	0xbf31fa32	-0.6952239
26	0xbe0d7687	-0.13814746
27	0xbd70647b	-0.058689576
28	0xbe1e92f2	-0.15485743
29	0xbeccae70	-0.39976835
30	0xbe75dfa8	-0.240111
31	0xbf3c743f	-0.7361488

tfeb.12.running_var f4 [32]
0	0x3d3a8a6b	0.045542162
1	0x3e99e2e1	0.30055907
2	0x3dedd8b2	0.11613597
3	0x3dcfcb20	0.10146165
4	0x3cd423e5	0.025896022
5	0x3e9bf3ad	0.30459347
6	0x3e3f54a2	0.18684629
7	0x3e1921af	0.14954256
8	0x3e66e7a4	0.22549301
9	0x3e02f3bd	0.12788291
10	0x3e381442	0.17976478
11	0x3e6cbfb5	0.23120005
12	0x3e04304b	0.12909047
13	0x3e049ca1	0.12950374
14	0x3dcb0c01	0.09914399
15	0x3dcefaa2	0.10106398
16	0x3db83d12	0.08996023
17	0x3e982caf	0.2972159
18	0x3dc037a2	0.09385611
19	0x3e1e67d3	0.15469293
20	0x3db6c712	0.089246884
21	0x3e2d3247	0.1691371
22	0x3e743a8b	0.23850457
23	0x3e86fa35	0.26362768
24	0x3cbf9a47	0.023388995
25	0x3ef1f9de	0.47260946
26	0x3c44fd56	0.012023291
27	0x3dd47ca4	0.10375336
28	0x3d7a86c3	0.061163675
29	0x3e878d0a	0.26474792
30	0x3e0c8d3b	0.1372575
31	0x3ee01b93	0.43771037
