trained_models/step_5_retrain_after_step_4/retrain_4C_after_2nd_pruning_prunratio0.85_2024060419/retrained_4Cmodel_ratio85.0_vaacc92.99516296386719_tracc_80.42763157894737@398epoch_20240604212944.pt (torch, 309234 bytes, 62 tensors)

sfeb.0.weight f4 [8, 1, 1, 9]
0	0x3e2e5e38	0.17028129
1	0x3e21e5fd	0.1581039
2	0x3eb0145c	0.34390533
3	0x3ed5f023	0.41784772
4	0x3de64714	0.11244026
5	0xbe8672b7	-0.26259395
6	0xbf13f05c	-0.57788634
7	0xbeaec787	-0.34136602
8	0xbdf15fda	-0.1178586
9	0xbd43ccc8	-0.047802716
10	0x3d1649ef	0.036691602
11	0xbcd8e26e	-0.026475158
12	0xbea9ecf4	-0.33188593
13	0x3cfae609	0.030627267
14	0xbe78b73c	-0.24288648
15	0xbebdd809	-0.37078884
16	0x3ebec054	0.3725611
17	0x3f268d74	0.6505959
18	0xbe4b6801	-0.19863893
19	0xbe5faa3f	-0.21842287
20	0x3e5c83ba	0.21534625
21	0x3d3b85e2	0.045781977
22	0xbe2dded9	-0.16979541
23	0xbe60b71a	-0.21944848
24	0x3d946629	0.07246048
25	0xbedd6174	-0.43238413
26	0xbf00550f	-0.5012979
27	0x3f4ff3fd	0.8123167
28	0x3ed194f5	0.40933958
29	0xbd5e9bf7	-0.05434796
30	0x3d96eb6f	0.07369124
31	0xbe2bb9ec	-0.16770142
32	0x3d3c719e	0.04600679
33	0x3e117c66	0.1420761
34	0xbda6f387	-0.08151918
35	0x3da77485	0.08176521
36	0xbf345756	-0.70445764
37	0xbece1f07	-0.40258047
38	0x3d4804e6	0.048832797
39	0xbcd6326e	-0.026147094
40	0x3ea30f43	0.3184758
41	0x3e72589b	0.23666613
42	0xbe4ba620	-0.1988759
43	0x3d88b688	0.0667544
44	0xbe5cd9f3	-0.21567516
45	0xbebad90c	-0.3649372
46	0xbd9430a3	-0.07235839
47	0x3e29fc04	0.16600043
48	0x3d51bdbf	0.051206347
49	0xbf0c544a	-0.54816115
50	0x3d59e67a	0.053198315
51	0x3f32e72c	0.6988399
52	0xbd487983	-0.048944008
53	0xbf0d80a0	-0.5527439
54	0xbbc118bc	-0.005892841
55	0xbe69ab1b	-0.22819178
56	0x3e864fca	0.2623275
57	0xbdd011b3	-0.10159626
58	0xbf090a7b	-0.53531617
59	0x3f0aac60	0.54169273
60	0x3dd090bf	0.10183858
61	0xbf01f935	-0.50770885
62	0x3ef5f18b	0.48035845
63	0x3c91d82a	0.01780327
64	0xbc9d1460	-0.019174755
65	0xbe32f30c	-0.17475528
66	0xbdbe77b8	-0.09300178
67	0x3e7a800f	0.24462913
68	0x3e881e5e	0.26585668
69	0x3c16f1f1	0.009212957
70	0x3ec65915	0.3873984
71	0x3f254f3f	0.64574045

sfeb.1.weight f4 [8]
0	0x3f6dc764	0.9288237
1	0x3f5ebd4c	0.87007594
2	0x3f53c632	0.827243
3	0x3f61a1dd	0.8813761
4	0x3f5f6770	0.8726721
5	0x3f2389eb	0.6388232
6	0x3f058d1c	0.5216844
7	0x3f52c525	0.8233207

sfeb.1.bias f4 [8]
0	0x3dcbf782	0.09959318
1	0x3d40d2ab	0.04707591
2	0x3d8f8d3f	0.070093624
3	0x3e896ef7	0.26842472
4	0x3db8cab3	0.09023037
5	0x3e3675ee	0.17818424
6	0x3e6eb358	0.23310602
7	0x3dd3a111	0.10333455

sfeb.1.running_mean f4 [8]
0	0xb7971e79	-1.8014793e-05
1	0x376fc6f6	1.4291834e-05
2	0xb95d2b79	-0.00021092397
3	0x394800e4	0.00019073818
4	0xb908171f	-0.00012978584
5	0xb8c085c3	-9.1801885e-05
6	0x362da2ac	2.5873696e-06
7	0x394b58e9	0.0001939271

sfeb.1.running_var f4 [8]
0	0x3d12bb5e	0.03582322
1	0x3c9f2645	0.019427428
2	0x3c9bd819	0.019023942
3	0x3ce6c0ce	0.028168108
4	0x3cd8fb45	0.026487002
5	0x3c53a2d8	0.012917243
6	0x3b289ad0	0.002572704
7	0x3cc39e32	0.023879144

sfeb.3.weight f4 [32, 8, 1, 5]
0	0x3d69d21c	0.05708514
1	0xbe243e10	-0.160393
2	0xbd30e3ef	-0.043186124
3	0xbd212917	-0.039345827
4	0xbe1af66c	-0.15133065
5	0xbdff6175	-0.1246976
6	0xbdddb783	-0.10826018
7	0xbdd48d37	-0.10378497
8	0xbd225487	-0.039631393
9	0xbb8613b1	-0.004091703
10	0x3e9c1c44	0.30490315
11	0x3e5aa454	0.21351749
12	0x3e70acfa	0.23503485
13	0x3e385673	0.18001728
14	0x3e0e8625	0.1391836
15	0xbe46ce7e	-0.19414708
16	0xbcfc14e1	-0.030771675
17	0xbe858775	-0.26079908
18	0xbd95eb50	-0.07320273
19	0xbdd09e9b	-0.101865016
20	0x3e8169c9	0.2527602
21	0x3e126f34	0.14300233
22	0x3cc5d834	0.024150945
23	0x3e629884	0.22128493
24	0x3dd35d8e	0.103205785
25	0x3d26c3b9	0.040714
26	0xbcb1e1cb	-0.021714112
27	0xbd84e0f7	-0.06488221
28	0xbcfc226f	-0.030778138
29	0x3b25540a	0.0025227093
30	0x3cc036f7	0.02346371
31	0xbdac432b	-0.08411249
32	0x3d138d31	0.036023322
33	0x3d7a7824	0.06114973
34	0x3d48c4e2	0.049015887
35	0xbd85ce5e	-0.06533502
36	0xbda7a630	-0.081859946
37	0xbe052327	-0.13001691
38	0xbd7df0f9	-0.061997388
39	0xbd8dc183	-0.06921675
40	0xbe17fa57	-0.14841591
41	0xbe524431	-0.20533825
42	0xbd04877d	-0.032355774
43	0x3da4005a	0.080078796
44	0x3dcaf210	0.09909451
45	0xbac99caa	-0.0015381773
46	0xbe188246	-0.14893445
47	0xbe123dc6	-0.14281377
48	0xbd3c849d	-0.046024907
49	0xbe022fd3	-0.12713556
50	0x3dbe446d	0.09290395
51	0x3da84508	0.08216292
52	0x3db31853	0.08744874
53	0x3e97ff8f	0.29687163
54	0x3eb7fcd6	0.35935086
55	0xbe6eb599	-0.23311462
56	0xbdf78ff2	-0.12088002
57	0xbe42624b	-0.18982808
58	0xbd368de4	-0.04456891
59	0xbd34a5bf	-0.04410338
60	0x3e22558a	0.15852943
61	0x3df84183	0.1212187
62	0x3d0863d6	0.033298336
63	0xbd994998	-0.0748474
64	0x38efe515	0.00011439078
65	0xbcdb0a0a	-0.026738185
66	0x3e14b3a7	0.14521657
67	0xbd49e3b6	-0.049289428
68	0x3c452ed0	0.012035087
69	0x3c2b2249	0.010445186
70	0xbc669dce	-0.0140757095
71	0xbd4fa773	-0.0506968
72	0xbcc33497	-0.023828788
73	0xbde43063	-0.111420415
74	0xbcfa55da	-0.030558515
75	0xbda0bd1a	-0.07848568
76	0xbda824f0	-0.0821017
77	0xbe95505e	-0.29162878
78	0xbe5967d8	-0.2123102
79	0xbe16070d	-0.14651127
80	0xbdb6bbee	-0.089225635
81	0xbe7ddbe0	-0.24790907
82	0xbd4f1a2d	-0.050562073
83	0x3c9e92b1	0.019357057
84	0xbd9da010	-0.07696545
85	0xbe372f96	-0.17889246
86	0xbdd0f857	-0.10203617
87	0xbd96f964	-0.07371786
88	0xbe2f80a3	-0.17138915
89	0xbe0cd0fa	-0.13751593
90	0x3e443be9	0.19163479
91	0x3e638f56	0.22222647
92	0x3e2f5e72	0.17125872
93	0x3e7b83bb	0.2456197
94	0x3e992f0c	0.29918706
95	0xbe869a8f	-0.26289794
96	0xbe05243b	-0.13002102
97	0xbe935fbc	-0.28783977
98	0xbdd05038	-0.101715505
99	0xbe0a1621	-0.13485004
100	0xbd87e522	-0.066355005
101	0xbd204e1b	-0.039136987
102	0x3d7b8cc4	0.06141354
103	0x3dfb8c6b	0.12282642
104	0x3d4f97f3	0.05068202
105	0xbd226353	-0.039645504
106	0x3c918103	0.017761713
107	0xbd51f51f	-0.051259156
108	0x3d8c97f2	0.06864919
109	0x3cdc5882	0.026897673
110	0xbd345357	-0.04402479
111	0xbdb7f23c	-0.089817494
112	0xbd3f298d	-0.046670485
113	0xbd98c187	-0.074587874
114	0xbe0aaebc	-0.13543218
115	0xbe1664ff	-0.14686964
116	0xbe918a05	-0.28425613
117	0xbe8adafc	-0.27120197
118	0xbdfdcb50	-0.123922944
119	0xbe1a3692	-0.1505988
120	0xbc38e4a7	-0.011284984
121	0x3d51e01e	0.051239125
122	0xbe8d9f4d	-0.276606
123	0xbd72e952	-0.059304543
124	0xbe77328d	-0.24140377
125	0xbe4f3d1e	-0.20238158
126	0xbdad5e85	-0.08465294
127	0x3d8ca845	0.06868032
128	0xbdd51f1a	-0.10406323
129	0xbe19c624	-0.15016991
130	0xbeb8e87a	-0.36114866
131	0xbe8373d5	-0.2567431
132	0xbe57de8d	-0.2108099
133	0xbe7242db	-0.23658316
134	0xbeb730a4	-0.35779297
135	0x3e0f80f3	0.14014034
136	0x3e8ab452	0.27090698
137	0x3e9f4766	0.3110916
138	0x3db8246c	0.08991322
139	0x3db9dd0c	0.090753645
140	0xbe2236c7	-0.15841208
141	0xbe7d405e	-0.24731585
142	0xbebd7607	-0.3700411
143	0xbe12ce36	-0.14336476
144	0xbd826c95	-0.06368367
145	0x3d208edf	0.039198752
146	0xbe440ba6	-0.19145069
147	0xbe3d7aaa	-0.18503824
148	0xbe753d60	-0.23949194
149	0xbe53cfd7	-0.20684753
150	0xbe10db96	-0.14146265
151	0xbe43e3b8	-0.19129837
152	0xbe878165	-0.26465908
153	0xbe20ba74	-0.15696126
154	0xbdf774a6	-0.12082796
155	0x3e59fbac	0.21287411
156	0x3e7fa8cc	0.24966735
157	0x3e9714f1	0.29508165
158	0x3ed3cdd8	0.41367984
159	0x3e95f5da	0.29289132
160	0xbe258b20	-0.16166353
161	0xbde11cce	-0.10991822
162	0xbe1d1252	-0.1533902
163	0xbde0e76b	-0.109816395
164	0xbdb444bd	-0.08802173
165	0x3dc12629	0.094311066
166	0x3a36ff1a	0.0006980762
167	0x3c7798a2	0.015112074
168	0xbc9bdd0a	-0.019026298
169	0xbc5c7a71	-0.013456927
170	0xbe1b620e	-0.15174124
171	0xbdf2b018	-0.118499935
172	0xbe09f5b4	-0.13472635
173	0xbe5289ce	-0.20560381
174	0xbdfe54d6	-0.12418525
175	0xbe771028	-0.24127257
176	0xbdec220a	-0.1152993
177	0xbccfdae0	-0.025372922
178	0xbb82a3b4	-0.0039868
179	0x3da4b836	0.08042948
180	0xbdfa3359	-0.12216825
181	0xbd20df6f	-0.039275583
182	0x3d6b634c	0.057467744
183	0xbd69df1f	-0.05709755
184	0xbde894ee	-0.11356531
185	0xbd38a025	-0.0450746
186	0xbd08c908	-0.033394843
187	0x3bb3b091	0.005483695
188	0xbd6fa2f0	-0.058505
189	0xbdb05689	-0.08610255
190	0xbd7aab5c	-0.061198577
191	0xbbc15801	-0.0059003835
192	0xbd698be8	-0.05701819
193	0xbc73c606	-0.014878755
194	0xbd96d21e	-0.073642954
195	0xbd843b1f	-0.06456589
196	0x3d0b4e76	0.034010373
197	0x3e0a82d7	0.13526474
198	0x3e047847	0.12936507
199	0x3e3dcac2	0.18534377
200	0xbd87b135	-0.066255964
201	0xbe3bcf53	-0.18340807
202	0xbe51b226	-0.20478114
203	0xbe2fb771	-0.17159821
204	0xbde97729	-0.11399681
205	0x3dec55ba	0.115397885
206	0x3e940872	0.28912693
207	0x3dd9d09c	0.10635492
208	0x3d5ea0c6	0.054352544
209	0x3e32325c	0.17402023
210	0x3dc8b428	0.09799987
211	0xbd671f42	-0.056426294
212	0xbd2c6712	-0.042090483
213	0xbd65b4e4	-0.056080714
214	0xbe744217	-0.23853336
215	0xbd9b1cc2	-0.075738445
216	0xbe8e82aa	-0.27834064
217	0xbe60143f	-0.21882723
218	0xbdfd113d	-0.123568036
219	0x3d29d957	0.041467037
220	0x3c860b10	0.016362697
221	0x3c9bb8a4	0.019008942
222	0xbc6ad6dd	-0.014333454
223	0x3e731ea2	0.23742154
224	0x3cc2ace2	0.023764078
225	0xbd009aa4	-0.031397477
226	0x3d7cf0d9	0.061753128
227	0x3d11a29e	0.035555474
228	0x3c713287	0.014721519
229	0xbd899fb7	-0.06719916
230	0x3e01493f	0.12625597
231	0x3d76c79d	0.06024896
232	0x3d7d6d7c	0.06187199
233	0x3dfd7d54	0.1237742
234	0xbced18e5	-0.028942535
235	0xbd4285d8	-0.047490925
236	0xbd6039de	-0.054742686
237	0x3d5ad33d	0.05342411
238	0x3e0c0e4c	0.13677329
239	0x3df08caf	0.11745583
240	0x3e16a2ab	0.1471049
241	0x3dfa0a5b	0.122090064
242	0x3de0870a	0.10963257
243	0x3e000d74	0.12505132
244	0x3dc2e3c5	0.095161
245	0xbe4c1609	-0.1993028
246	0xbe76162d	-0.24031897
247	0xbe876e21	-0.2645121
248	0xbd1859e2	-0.037195094
249	0xbcb2c226	-0.021821093
250	0xbd0122f9	-0.031527493
251	0xbce7465d	-0.028231794
252	0x3deba747	0.11506515
253	0x3e08eb07	0.13370906
254	0x3e43427e	0.19068334
255	0x3e84a1d1	0.25904706

sfeb.4.weight f4 [32]
0	0x3f3b8727	0.732531
1	0x3f12b827	0.57312244
2	0x3f63d146	0.889912
3	0x3fa9a16d	1.3252388
4	0x3ec4448b	0.38333544
5	0x3eb3ef29	0.35143402
6	0x3f1dac31	0.6159087
7	0x3a3a650c	0.0007110394
8	0x3ef7e3ca	0.48415977
9	0x3f0b4503	0.5440218
10	0x3c8a39c7	0.016873254
11	0x3f3b33c0	0.7312584
12	0x3f2d9fe0	0.67822075
13	0x3f537877	0.8260569
14	0x3f840d54	1.0316567
15	0xba6fc525	-0.0009146503
16	0x3f37c9fb	0.7179257
17	0x3ee8c2df	0.45461175
18	0x3f1dfb99	0.6171203
19	0x39a002ef	0.00030519764
20	0x3f182e34	0.594455
21	0x3f1a90c6	0.60377157
22	0x3f42d886	0.7611164
23	0x3f03d5aa	0.514979
24	0x3a442b2a	0.00074832386
25	0x3a736a34	0.000928554
26	0x3ed8cdd9	0.4234455
27	0x3f1ec53c	0.62019706
28	0x3ec72041	0.38891795
29	0x3f1c123b	0.6096532
30	0x3ef3bd91	0.47605565
31	0x3ee53c5e	0.4477262

sfeb.4.bias f4 [32]
0	0x3e028d0f	0.12749122
1	0xbe801ba0	-0.25021076
2	0xbddcdf1e	-0.10784744
3	0xbca4a1bb	-0.02009665
4	0xbcdb68fa	-0.026783455
5	0x3caeeb41	0.021352412
6	0x3e3e89eb	0.18607299
7	0xbda4c2b0	-0.08044946
8	0x3d6caf0c	0.057784125
9	0xbd46cc26	-0.048534535
10	0xbce91b16	-0.028455298
11	0x3d2ec27a	0.042665936
12	0x3de0b570	0.109721065
13	0x3dd47bd9	0.103751846
14	0x3d8d6e4f	0.06905805
15	0xbd42a721	-0.047522668
16	0xbde5314d	-0.11191044
17	0x3dbed76f	0.093184344
18	0xbd40577a	-0.046958424
19	0xbcd83d12	-0.026396308
20	0xbd676793	-0.05649526
21	0xbdad31a4	-0.08456734
22	0xbcb6ac43	-0.022298938
23	0x3db4cdfa	0.088283494
24	0xbcb371f1	-0.021904917
25	0xbcc5c90c	-0.024143718
26	0x3d3d2152	0.046174355
27	0xbd69c699	-0.057074163
28	0xbde56885	-0.11201576
29	0xbda42464	-0.080147535
30	0xbe1bb922	-0.15207341
31	0x3d69688f	0.05698448

sfeb.4.running_mean f4 [32]
0	0xbdd01374	-0.101599604
1	0xbebbf1db	-0.3670796
2	0xbf29e6d8	-0.66367865
3	0xbf068eae	-0.5256146
4	0xbf02a182	-0.5102769
5	0xbe20d4e7	-0.15706216
6	0xbe0d9219	-0.13825263
7	0x3cb2ba9a	0.021817494
8	0xbeb47fcd	-0.35253754
9	0xbe7acd3f	-0.24492358
10	0xbd7c5ce8	-0.06161204
11	0xbec212d9	-0.37905005
12	0x3d422dec	0.047407076
13	0x3cde0927	0.027103974
14	0xbebcd61a	-0.36882097
15	0xbb2c1c91	-0.0026262144
16	0xbeaeb525	-0.34122577
17	0xbf07d93c	-0.5306585
18	0xbec16901	-0.37775424
19	0xbc518060	-0.012786955
20	0xbf01c2f1	-0.5068808
21	0xbf2c2443	-0.6724283
22	0xbec09295	-0.37611833
23	0xbf070152	-0.5273639
24	0xbccb6e94	-0.024833001
25	0xbcc28b2e	-0.023748007
26	0xbee43fd5	-0.4457995
27	0xbeb7d0a3	-0.35901365
28	0xbf02b7a5	-0.5106147
29	0xbf07412f	-0.5283384
30	0xbe65486d	-0.2239091
31	0xbdaa9235	-0.08328668

sfeb.4.running_var f4 [32]
0	0x3f0c1af4	0.5472863
1	0x3f24010d	0.64064103
2	0x3f88f1ab	1.0698751
3	0x3ff913e0	1.945919
4	0x3f1391ff	0.5764465
5	0x3f0b663c	0.5445287
6	0x3f43d950	0.7650347
7	0x3c391ee9	0.011298873
8	0x3efdeef0	0.49596357
9	0x3ec96db8	0.3934152
10	0x3bbf7673	0.0058429777
11	0x3f4d42c4	0.8018
12	0x3f468c99	0.77558285
13	0x3f9e0096	1.2343929
14	0x3fbe96e9	1.4889804
15	0x3b5e154d	0.0033887208
16	0x3f50f6ed	0.8162678
17	0x3f69bc4d	0.9130295
18	0x3f8b5bec	1.0887427
19	0x3b35c089	0.0027733168
20	0x3f80089c	1.0002627
21	0x3fa805ac	1.3126731
22	0x3f8b2113	1.0869468
23	0x3f62280b	0.8834235
24	0x3ae61984	0.0017555212
25	0x3ac52633	0.0015041291
26	0x3f3d3f13	0.7392437
27	0x3f46b683	0.7762224
28	0x3f38a3e1	0.7212506
29	0x3f37634f	0.7163591
30	0x3edef34f	0.43545005
31	0x3e85808d	0.2607464

tfeb.0.weight f4 [13, 1, 3, 3]
0	0x3d27513c	0.040848956
1	0x3a493d46	0.0007676672
2	0xbbdb90b1	-0.006700598
3	0x3baaa4ef	0.00520765
4	0x3a1cb457	0.00059778005
5	0x3afaf16f	0.0019145439
6	0x3b1ce60a	0.0023940825
7	0x3bf4505d	0.007455869
8	0x3bf6c74b	0.007531082
9	0x3c3289ed	0.010897142
10	0xbc4b7087	-0.012416965
11	0x3c904683	0.017611748
12	0x3c9b9add	0.018994743
13	0xbc68e9c5	-0.014215891
14	0x3c86794e	0.016415264
15	0x3ca038b0	0.01955828
16	0xbc140492	-0.009034293
17	0x3ca56fee	0.020194974
18	0x3e888c48	0.26669526
19	0x3e3faa3b	0.18717282
20	0xbeed00da	-0.46289712
21	0x3ed299de	0.41133016
22	0x3ee0dfad	0.4392065
23	0xbf2e5d8a	-0.6811148
24	0x3e708c6d	0.23491068
25	0x3e3fe2c7	0.18738852
26	0xbf05b8e0	-0.5223522
27	0xbe8b2f78	-0.27184653
28	0xbd0bf498	-0.03416881
29	0x3e3fdb5b	0.18736021
30	0xbf2d8834	-0.67785954
31	0x3eecf817	0.46283028
32	0x3f1d59c0	0.6146507
33	0xbeb88a5a	-0.36043054
34	0x3e37080d	0.17874165
35	0x3e8aef42	0.27135664
36	0x3be87cf8	0.0070949756
37	0x3f067e60	0.5253658
38	0xbf0d41bd	-0.55178434
39	0x3dcee706	0.10102658
40	0x3d83e940	0.06440973
41	0xbeaf8396	-0.3428008
42	0xbe22293e	-0.15836045
43	0xbc538d86	-0.01291216
44	0xbeac1951	-0.33613065
45	0x3d7f38c0	0.06230998
46	0xbe56b34c	-0.20966834
47	0xbe1b3894	-0.15158302
48	0x3d895b70	0.067068934
49	0xbe6b5a02	-0.22983554
50	0xbea9afe5	-0.3314201
51	0x3e9ae59a	0.30253297
52	0xbe44422d	-0.19165869
53	0xbe3fcebf	-0.18731211
54	0x3f76c4e0	0.9639416
55	0xbf1b63e1	-0.6069928
56	0xbf209f3f	-0.6274299
57	0x3f87e919	1.0618011
58	0xbf154550	-0.5830889
59	0xbf33d5a0	-0.7024784
60	0x3f0c4687	0.54795116
61	0xbeb17ef2	-0.34667164
62	0xbf0ffd95	-0.5624631
63	0xbe0828fd	-0.13296886
64	0xbe42ea8d	-0.19034787
65	0xbe135846	-0.14389142
66	0xbdb61cb4	-0.088921934
67	0xbe2a4f7b	-0.16631882
68	0xbe05790d	-0.13034458
69	0x3e0e9517	0.13924061
70	0x3e7373ca	0.23774639
71	0x3e2a773d	0.16647048
72	0xbe87e834	-0.26544344
73	0xbebe5fe2	-0.37182528
74	0xbe135859	-0.1438917
75	0xbe281c39	-0.16417016
76	0xbe6bd6f4	-0.23031217
77	0x3cb15fda	0.02165215
78	0xbd40bfdd	-0.047057975
79	0xbe32651e	-0.17421386
80	0xbe0f8f9b	-0.14019625
81	0xbd5fe294	-0.05465944
82	0xbdf578a2	-0.119858995
83	0x3d954a0a	0.072895125
84	0xbe03f4d0	-0.12886357
85	0xbe1ec064	-0.15503079
86	0x3c11cf9e	0.008899597
87	0xbcbfb962	-0.023403827
88	0xbef8d792	-0.48601967
89	0x3ef59606	0.4796602
90	0x3ebd27aa	0.36944324
91	0x3deb9476	0.11502926
92	0x3db0d121	0.08633638
93	0x3ebf7dfe	0.37400812
94	0x3cd9f50c	0.026606105
95	0x3d67ef2b	0.056624573
96	0x3adea6e4	0.0016986993
97	0xbd71d92c	-0.059045002
98	0xbd1f3897	-0.038872328
99	0xbdcc3a3b	-0.09972044
100	0xbe56f1cf	-0.2099068
101	0xbdcc4faf	-0.09976136
102	0xbe4a0997	-0.1973022
103	0xbe8ee4d3	-0.27908954
104	0xbe13d1b2	-0.14435461
105	0x3cebe1a0	0.02879411
106	0xbe056c84	-0.13029677
107	0xbdb5fb85	-0.08885864
108	0xbebd501c	-0.3697518
109	0xbe88b31c	-0.2669915
110	0x3ebc4e03	0.36778268
111	0xbf444943	-0.7667429
112	0xbf26dc2a	-0.65179694
113	0x3fa1973c	1.2624278
114	0xbed68d66	-0.41904753
115	0xbeb33fa6	-0.35009497
116	0x3ea66597	0.32499382

tfeb.1.weight f4 [13]
0	0xba847412	-0.0010105392
1	0xbb326e32	-0.0027226326
2	0x3e9c20b5	0.30493703
3	0x3eac3348	0.33632874
4	0x3ebd1f14	0.36937773
5	0x3eb49ce8	0.3527596
6	0x3f38f9ab	0.72255963
7	0x3eafe8fd	0.34357443
8	0x3f7f5409	0.997376
9	0x3eaa26b7	0.33232662
10	0x3e94a126	0.29029197
11	0x3f0e32f5	0.55546504
12	0x3f1b5d3a	0.6068913

tfeb.1.bias f4 [13]
0	0xbc723e15	-0.014785309
1	0xbc8f51ed	-0.01749512
2	0x3e3338b6	0.17502102
3	0x3e8dc3d9	0.27688482
4	0x3ece751f	0.4032373
5	0x3ecd2508	0.40067315
6	0x3dcaf9e1	0.09910942
7	0x3da30601	0.079601295
8	0xbe8aa87e	-0.27081674
9	0x3cc1425a	0.02359121
10	0x3e6412d2	0.22272804
11	0x3d8b2ed9	0.06796045
12	0x3e6711a9	0.2256533

tfeb.1.running_mean f4 [13]
0	0x3cc6d9d5	0.024273792
1	0x3ce0f7b9	0.027461873
2	0x3c92e4b3	0.017931318
3	0x3e27da60	0.16391897
4	0xbe9374a6	-0.28799933
5	0xbeb7cc05	-0.35897842
6	0xbeb408c8	-0.3516295
7	0xbe0ac6d2	-0.13552406
8	0xbf1df77b	-0.6170575
9	0xbe2f9793	-0.17147665
10	0x3ec35498	0.38150477
11	0xbf00fdb4	-0.5038712
12	0xbeb2a673	-0.34892616

tfeb.1.running_var f4 [13]
0	0x3aaf5d4b	0.0013379244
1	0x3ad1cf75	0.0016007262
2	0x3df4b3f3	0.11948385
3	0x3e3bb668	0.18331301
4	0x3e700262	0.23438409
5	0x3e99c781	0.30035022
6	0x3f13da4a	0.5775496
7	0x3e4cd277	0.20002161
8	0x3f4c49dc	0.798002
9	0x3db3aeea	0.087735966
10	0x3ebbb8e8	0.3666451
11	0x3f085788	0.5325856
12	0x3ef36724	0.47539628

tfeb.4.weight f4 [25, 13, 3, 3]
0	0x3b3c0ca9	0.002869407
1	0xbb4e0938	-0.00314386
2	0x3aac71f6	0.0013156522
3	0xba85b72b	-0.0010201683
4	0xbbc23ce9	-0.005927671
5	0xbb6b8a49	-0.0035940579
6	0x3b36a82a	0.002787123
7	0xbae2d637	-0.0017306273
8	0xba01155b	-0.00049241417
9	0x3b0aadbe	0.0021160687
10	0xbbd494d0	-0.0064874664
11	0x3b97f075	0.004636819
12	0x3b2edbb8	0.0026681256
13	0xbbfe086c	-0.007752469
14	0x3b6f0a37	0.0036474594
15	0x3b6824f7	0.0035422423
16	0xbb6d3d50	-0.0036199875
17	0x3bb9b1ae	0.005666933
18	0x3d91b36d	0.07114301
19	0xbc1aebea	-0.00945566
20	0x3dbb37d3	0.09141507
21	0xbdee9900	-0.11650276
22	0xbe4dcba9	-0.20097221
23	0xbe0b403f	-0.13598727
24	0x3d26c11b	0.040711503
25	0xbe0cb569	-0.13741077
26	0xbca8d38d	-0.020608688
27	0xbcee9e65	-0.029128263
28	0xbd6595cc	-0.05605106
29	0xbc29e246	-0.010368889
30	0xbda43ca1	-0.080193765
31	0xbd5aff83	-0.05346633
32	0x3a120681	0.0005570427
33	0xbe0fcbd2	-0.14042595
34	0xbd336eec	-0.043806955
35	0xbbd5802b	-0.006515523
36	0x3d874fda	0.06607027
37	0x3d131744	0.03591086
38	0x3dd0f56e	0.10203062
39	0xbd0ca83d	-0.034340132
40	0xbd91ae67	-0.07113343
41	0xbd8a4f70	-0.06753433
42	0x3c0b543f	0.008503973
43	0x3b4fd9e6	0.003171557
44	0x3d06cb19	0.032908533
45	0xbdb29374	-0.08719531
46	0xbc92a715	-0.017901937
47	0xbd6b7715	-0.057486612
48	0x3b91b3c3	0.004446478
49	0x3c60991e	0.013708381
50	0xbd66a6a9	-0.056311283
51	0x3d2b8ab0	0.04188031
52	0x3bb8f258	0.005644124
53	0x3c2d8a5b	0.010592069
54	0x3d4c5faa	0.04989592
55	0x3dc08ec5	0.09402231
56	0xbd887b91	-0.066641934
57	0xbe497001	-0.19671632
58	0xbd716793	-0.058936667
59	0xbeb9d1ab	-0.36292776
60	0x3c5f13d4	0.013615567
61	0xbe108b7d	-0.1411571
62	0xbe1637a7	-0.14669667
63	0xbda1c6d6	-0.07899253
64	0xbd303c39	-0.043026183
65	0x3c3f50d3	0.011676985
66	0x3d9015a1	0.070353754
67	0x3dac0bc3	0.08400681
68	0x3dbddb03	0.09270289
69	0xbc98b80f	-0.018642453
70	0xbcb13fa5	-0.021636793
71	0xbce0e150	-0.027451187
72	0x3b94f916	0.004546295
73	0x3ca3f136	0.02001248
74	0x3d818e02	0.06325914
75	0x3d04cb7e	0.032420628
76	0xba17fc0f	-0.00057977525
77	0xbb8ea342	-0.004352958
78	0x3dd7b319	0.10532207
79	0x3d598325	0.053103585
80	0x3bf732f8	0.0075439177
81	0x3c256c9f	0.010096698
82	0xbdf8ca33	-0.121479414
83	0x3d524bc2	0.05134178
84	0x3c1508ae	0.009096308
85	0xbde9be3f	-0.1141324
86	0x3d3f67af	0.04672974
87	0xbca9189a	-0.020641614
88	0xbd87ee50	-0.066372514
89	0x3cf6c0d0	0.030121237
90	0x3d4fae40	0.050703287
91	0x3dcbac02	0.09944917
92	0x3d9a9506	0.07547955
93	0xbe211777	-0.15731607
94	0xbd99df14	-0.07513252
95	0xbd92dae0	-0.07170653
96	0xbd884d0a	-0.06655319
97	0xbd140dbe	-0.036145918
98	0xbccd7117	-0.02507834
99	0xbd7d9b7a	-0.061915852
100	0xbcab4f70	-0.020911902
101	0xbc6eb847	-0.014570302
102	0x3d6fc500	0.058537483
103	0x3d34cf97	0.044143286
104	0x3c05b627	0.008161104
105	0x3d2665cb	0.04062442
106	0x3d046274	0.032320455
107	0xbc05ebe2	-0.008173915
108	0x3d2e3d97	0.042539205
109	0xbe58442b	-0.21119754
110	0xbc0902ac	-0.008362453
111	0x3d4bd5dc	0.0497645
112	0xbe6650ad	-0.22491713
113	0xbc00fe64	-0.007873151
114	0xbd1a4f25	-0.037673134
115	0xbd8a8193	-0.067629956
116	0xbbdfd18f	-0.0068304013
117	0x3ae5ea27	0.0017541096
118	0xbad31b54	-0.0016106167
119	0xb96f3b5e	-0.00022814932
120	0xba5afb58	-0.0008353493
121	0xba6ab407	-0.0008953218
122	0xba46c664	-0.0007582663
123	0x3b26cf0a	0.0025452995
124	0x3ab1ce07	0.0013565429
125	0xba2bb27d	-0.0006549729
126	0xbb4b8633	-0.003105533
127	0xbb4eb02b	-0.003153811
128	0xbab12948	-0.0013516331
129	0x3b5377f4	0.0032267543
130	0x3abc4d58	0.0014366312
131	0x3b2db53b	0.0026505727
132	0x3b4f1450	0.00315978
133	0x3b1afc6f	0.0023648997
134	0x3b899a59	0.004199308
135	0xbca9cb2b	-0.02072676
136	0xbd2c1ec1	-0.042021517
137	0xbdb419ea	-0.08794005
138	0x3a826506	0.000994832
139	0x3d5828ce	0.05277329
140	0xbd260d72	-0.040540166
141	0x3dcaa7d9	0.09895296
142	0x3d779273	0.0604424
143	0x3c6cf4ee	0.014462693
144	0x3da838bc	0.08213946
145	0x3ce8c255	0.028412977
146	0xbcf237a9	-0.029567556
147	0x3d247074	0.040146306
148	0xbdb43cda	-0.08800669
149	0xbe288211	-0.16455866
150	0x3d61b1af	0.055101093
151	0xbc201194	-0.009769816
152	0xbd8d9a09	-0.069141455
153	0x3b371de5	0.0027941403
154	0xbdcb6c5e	-0.09932779
155	0xbd9d4793	-0.07679667
156	0xbdf134db	-0.117776595
157	0xbe233669	-0.15938725
158	0xbdb9f598	-0.090800464
159	0xbd719fad	-0.05899017
160	0xbd79cea5	-0.060988087
161	0xbbd71e47	-0.0065648886
162	0x3d2e82d7	0.042605247
163	0x3c6ca7b4	0.01444428
164	0xbc76d398	-0.015065096
165	0xbdb19e0f	-0.086727254
166	0xbd97146d	-0.07376943
167	0xbd3ca7ea	-0.046058573
168	0xbdc86507	-0.097848944
169	0xbdb2737f	-0.087134354
170	0xbc8661a8	-0.016403988
171	0xbd750c9f	-0.05982649
172	0xbdebf0c1	-0.115205295
173	0xbe585165	-0.211248
174	0xbe5efea1	-0.2177682
175	0xbd3bcea7	-0.045851376
176	0xbe4595b4	-0.19295388
177	0xbd834538	-0.06409687
178	0xbb5ec71a	-0.0033993185
179	0xbda3a0dd	-0.079896666
180	0x3dc9abf6	0.09847252
181	0x3dbe3bda	0.092887595
182	0x3d705dc4	0.058683172
183	0xbdc10c5c	-0.094261855
184	0xbddda331	-0.10822142
185	0xbdc1a3b4	-0.09455052
186	0xba470f93	-0.00075935683
187	0x3c777b39	0.015105062
188	0x3d6940fe	0.056946747
189	0x3d04d4aa	0.032429375
190	0xbb8108fc	-0.0039378386
191	0xbc8e102f	-0.017341701
192	0xbc2fe8ea	-0.010736683
193	0xbd142eea	-0.036177553
194	0x3b8d895b	0.0043193526
195	0xbcab3db7	-0.020903451
196	0xbd0fa3b6	-0.035068236
197	0x3cb41acf	0.02198544
198	0x3ce7620c	0.028244995
199	0xbd2e7b85	-0.042598266
200	0xbcca3e7d	-0.024688
201	0xbd4209e7	-0.047372725
202	0xbe20b553	-0.1569417
203	0xbdb94e42	-0.090481296
204	0xbd1b7469	-0.037952814
205	0xbd3548b0	-0.044258773
206	0xbcabbd8c	-0.020964406
207	0xbd718335	-0.05896302
208	0xbc9c6971	-0.019093247
209	0xbd9c6019	-0.07635517
210	0x3c9402c6	0.018067729
211	0x3dd77664	0.10520628
212	0xbc85e5dc	-0.016344957
213	0x3ddb0f8e	0.10696326
214	0x3e0c258e	0.13686201
215	0x3d012ead	0.031538654
216	0x3db6ff94	0.089354664
217	0x3d8f8642	0.070080295
218	0x3d50c8c7	0.050972726
219	0xbd01214c	-0.031525895
220	0xbd517dfa	-0.05114553
221	0xbcb436d4	-0.0219988
222	0xbdbb169e	-0.09135173
223	0xbda39667	-0.07987671
224	0xbc83ff9c	-0.016113095
225	0x3d24514f	0.040116604
226	0xbdb44d26	-0.088037774
227	0xbdfaec68	-0.12252122
228	0xbce59d45	-0.028029094
229	0xbe84865a	-0.25883752
230	0xbe757621	-0.23970844
231	0xbdbfdaa6	-0.09367876
232	0xbe002fc4	-0.12518221
233	0xbde970b1	-0.11398447
234	0xba1d3cdb	-0.0005998143
235	0x3ab2bed2	0.0013637191
236	0x3ac9cb8a	0.0015395742
237	0xbb37c2f2	-0.002803978
238	0xbc3822d8	-0.011238776
239	0xbb853a43	-0.004065783
240	0xbbd38da4	-0.006456094
241	0xba99fed1	-0.0011748915
242	0xbb663a76	-0.003513006
243	0xbb4ba99a	-0.0031076432
244	0x3ac02fe9	0.0014662716
245	0xb907c5e8	-0.00012948329
246	0xbc02d67f	-0.00798571
247	0xbb672b5a	-0.0035273642
248	0xbbb9de49	-0.0056722504
249	0xbb70b5bd	-0.0036729418
250	0xbaf25476	-0.0018488306
251	0x3afbca80	0.001921013
252	0xbd3d779b	-0.046256643
253	0xbda133c9	-0.07871205
254	0x3dc062fa	0.09393878
255	0xbda9fceb	-0.083001934

tfeb.5.weight f4 [25]
0	0x3efbd734	0.49187624
1	0x3e718064	0.23584133
2	0x3ea9231f	0.33034608
3	0x3e9c1122	0.3048182
4	0x3f08052c	0.5313289
5	0x3ec94724	0.39312088
6	0x3e91ad79	0.28452662
7	0x3e9df127	0.30848047
8	0x3f301dfe	0.68795764
9	0x3eb28d96	0.34873646
10	0x3e81504c	0.25256574
11	0x3f258a50	0.64664173
12	0x3f13d690	0.5774927
13	0x3f1d1cb6	0.61371934
14	0x3e6c0cce	0.2305176
15	0x3e8d1c01	0.27560428
16	0x3ec04c7f	0.37558362
17	0x3e387118	0.18011892
18	0x3ef050a9	0.4693654
19	0x3e61ce2b	0.22051303
20	0x3f0027b7	0.500606
21	0x3e562a71	0.20914628
22	0x3e768dcf	0.24077533
23	0x3dcabe96	0.09899633
24	0x3e77e1ab	0.24207179

tfeb.5.bias f4 [25]
0	0x3d9d2d32	0.07674636
1	0x3e8c95f8	0.27458167
2	0xbbad5aa1	-0.005290345
3	0x3d8a4b88	0.06752688
4	0xbc182a9b	-0.009287502
5	0x3dc1a876	0.094559595
6	0x3e5ffc9f	0.21873711
7	0x3d900512	0.07032217
8	0xbcbdad02	-0.023153786
9	0xbd496959	-0.049172733
10	0x3e2c33d9	0.16816653
11	0xbd54c6a0	-0.051947236
12	0xbe6a65f0	-0.22890449
13	0xbdfa9138	-0.122347295
14	0x3e264470	0.16237044
15	0x3e255932	0.16147307
16	0x3c838d3b	0.016058555
17	0xbd8288d0	-0.06373751
18	0x3bb8a046	0.0056343405
19	0x3eaebb6a	0.3412736
20	0xbe19073f	-0.1494417
21	0x3ec3bd34	0.38230288
22	0x3ebca8b4	0.3684746
23	0x3db78ff2	0.08963002
24	0xbdb5b326	-0.088720605

tfeb.5.running_mean f4 [25]
0	0xbf4d5d47	-0.80220455
1	0xbfacf924	-1.3513532
2	0xbe55d5c1	-0.20882322
3	0x3dee8189	0.116458006
4	0xbf7fb984	-0.9989245
5	0xbf28be0c	-0.6591499
6	0xbf2ae52e	-0.6675595
7	0xbf0f5d83	-0.5600206
8	0xbf32d733	-0.6985962
9	0xbf1adcf6	-0.6049341
10	0xbf315068	-0.69263315
11	0xbf0f8aae	-0.56070983
12	0x3e19b9be	0.15012261
13	0xbe85fd8e	-0.2617001
14	0xbf19c20a	-0.60061705
15	0xbe1fccaf	-0.15605424
16	0xbf5a6471	-0.8530951
17	0xbe8bd3d4	-0.2731005
18	0xbee6d36e	-0.45083183
19	0xbeb8a808	-0.36065698
20	0xbd9e39ea	-0.0772589
21	0xbf71b6a8	-0.94419336
22	0xbe61367f	-0.21993445
23	0xbec1dd28	-0.3786404
24	0xbd21a2ce	-0.039461903

tfeb.5.running_var f4 [25]
0	0x3e6f8019	0.23388709
1	0x3e8f2ec1	0.27965358
2	0x3e74887f	0.23880194
3	0x3d6425ad	0.055699993
4	0x3e8ebaab	0.2787679
5	0x3e463125	0.19354685
6	0x3e194f34	0.1497162
7	0x3daaeec0	0.08346319
8	0x3eb188ee	0.34674782
9	0x3db96c86	0.09053902
10	0x3e69d297	0.2283424
11	0x3ea1e5de	0.31620687
12	0x3e408738	0.18801582
13	0x3e18aa26	0.14908656
14	0x3e089fa2	0.13342145
15	0x3e4d572f	0.20052789
16	0x3de846e5	0.11341647
17	0x3d3296cb	0.04360084
18	0x3e162a62	0.14664605
19	0x3dd8241c	0.10553762
20	0x3e23501c	0.15948528
21	0x3ee53fbe	0.44775194
22	0x3e5c9231	0.21540143
23	0x3ceed8b0	0.029156059
24	0x3d4afd0f	0.04955774

tfeb.7.weight f4 [28, 25, 3, 3]
0	0x3cad5942	0.021160726
1	0x3c673176	0.0141109135
2	0x3d11aec6	0.035567068
3	0x3d0bad00	0.034100533
4	0x3d082307	0.03323653
5	0x3cbe3a91	0.023221286
6	0x3caff4cb	0.021479031
7	0x3d679c61	0.05654562
8	0x3d6e57e7	0.0581893
9	0x3d03724b	0.03209142
10	0x3c924374	0.01785443
11	0x3c3caa4d	0.011515212
12	0x3db0256b	0.08600887
13	0x3de26897	0.11055105
14	0x3da43907	0.080186896
15	0x3d85c582	0.06531812
16	0x3cef2105	0.02919055
17	0xbbb64332	-0.0055622095
18	0xbce5723c	-0.028008573
19	0xbc1a6687	-0.0094238585
20	0xbc8ef8ea	-0.017452676
21	0xbe0377c6	-0.12838659
22	0xbdb660ab	-0.08905157
23	0xbd6d97bc	-0.058006033
24	0xbd02b84d	-0.031914044
25	0x3c7b97cb	0.0153560145
26	0x3d34f8e0	0.04418266
27	0xbd1ccb1c	-0.038279638
28	0xbd1df21c	-0.03856097
29	0xbd4e1d76	-0.050321065
30	0xbd542c2c	-0.051799938
31	0xbd3b05d4	-0.045659855
32	0xbbbe78e5	-0.0058127516
33	0xbd36e849	-0.04465512
34	0xbd543691	-0.05180985
35	0x3d3a8b3e	0.045542948
36	0x3c9a97b8	0.018871173
37	0x3d48ecb3	0.04905386
38	0x3d96fcad	0.07372413
39	0x3cd8fc4a	0.026487488
40	0x3d5a8d80	0.0533576
41	0x3d930bc6	0.0717998
42	0xbbcf2602	-0.0063216696
43	0x3cd6c6ac	0.026217781
44	0x3d7021d0	0.058625996
45	0xbd30f70e	-0.04320436
46	0xbcfd63fb	-0.030931463
47	0x3b5645ca	0.0032695406
48	0x3b99c338	0.0046924613
49	0x3d2a15d3	0.04152472
50	0x3cd3fdfe	0.025877949
51	0xbd32acdc	-0.043621883
52	0x3c9a4ec7	0.018836392
53	0x3d464138	0.04840204
54	0xbdede5e7	-0.11616116
55	0xbd2d9492	-0.042378016
56	0xbda1ab22	-0.07893969
57	0x3c894a2c	0.016759
58	0x3c06231b	0.008187081
59	0xbd4bc0d1	-0.04974443
60	0x3ce82a92	0.028340612
61	0x3d8522ec	0.065008014
62	0x3c0a97c7	0.008459038
63	0x3c269579	0.010167473
64	0x3c21225f	0.009834855
65	0x3a54d298	0.0008118539
66	0x3cf3950f	0.029734163
67	0x3d66d54c	0.05635576
68	0x3c445dc8	0.01198525
69	0x3ca74b0a	0.020421524
70	0x3d0b38f5	0.033989865
71	0x3cb93ab2	0.022610996
72	0xbcece3b7	-0.028917177
73	0x3baa5958	0.005198639
74	0xbcf46ab9	-0.029836046
75	0x3d67a74a	0.056556024
76	0x3dfe8626	0.124279305
77	0x3de82f25	0.11337117
78	0xba17f078	-0.00057960255
79	0x3cbe8316	0.023255866
80	0x3d643e51	0.055723492
81	0x3c648d00	0.013949633
82	0x3c5089ef	0.012728198
83	0x3c93beda	0.018035341
84	0x3a8e76fe	0.0010869203
85	0x3c8d6f55	0.017265001
86	0xba39cb03	-0.0007087441
87	0x3ce1e8f1	0.027576895
88	0x3d0b9da0	0.03408587
89	0x3cc6ee62	0.024283592
90	0xbcb14d62	-0.021643344
91	0xbbea6397	-0.0071529853
92	0xbd170b5d	-0.03687607
93	0x3d3bcbfd	0.045848835
94	0x3da33a61	0.07970119
95	0x3d85bf53	0.06530633
96	0x3d5e8570	0.054326475
97	0x3ca02b3d	0.019551868
98	0xbd866607	-0.06562429
99	0x3cbd25cc	0.023089312
100	0x3d37af6c	0.04484503
101	0x3d766686	0.060156368
102	0x3c96cae7	0.018407298
103	0x3d5ace42	0.05341936
104	0x3d69978d	0.057029296
105	0xbce4306e	-0.027855124
106	0xbc47547e	-0.012166141
107	0xbd4db61b	-0.050222497
108	0xbd56bd55	-0.052426655
109	0xbcd56e3f	-0.026053546
110	0xbcea9e1a	-0.028639842
111	0xbd0c3332	-0.03422851
112	0xbce81686	-0.028331053
113	0xbc0da983	-0.008646372
114	0x3bd91f2e	0.0066260314
115	0xbce69f4d	-0.028152132
116	0x3d6f0c8b	0.05836157
117	0xbcedfd4c	-0.029051445
118	0xbc91c98c	-0.0177963
119	0xbca75015	-0.020423928
120	0x3cf9e46f	0.030504433
121	0x3c5159d0	0.012777761
122	0xbcdb7c3d	-0.02679264
123	0x3bc88d61	0.0061203693
124	0xbc4893ca	-0.012242267
125	0xbd44601b	-0.047943216
126	0xb6e7be06	-6.906458e-06
127	0x39b1ba16	0.00033898716
128	0x3bc427fd	0.0059862123
129	0xbc615278	-0.013752572
130	0xb9737cd1	-0.00023220784
131	0xbcca4d97	-0.0246952
132	0x3d77ad9a	0.060468294
133	0x3db7a564	0.08967093
134	0x3d9bb408	0.076026976
135	0x3da36051	0.07977355
136	0x3d8c4707	0.06849485
137	0x3d687bcd	0.05675869
138	0xbc89a62e	-0.016802873
139	0x39e45270	0.0004354897
140	0x3d920b83	0.07131102
141	0xbda9de0f	-0.082943074
142	0xbdbae886	-0.091263816
143	0xbcc29ca6	-0.023756336
144	0xbd00955c	-0.03139244
145	0xbc5854dd	-0.013203827
146	0xbb0b3669	-0.0021242148
147	0x3affb63d	0.0019509267
148	0xbb89a5e4	-0.004200684
149	0xbc700220	-0.014648944
150	0xbb9b8d30	-0.0047470555
151	0x3cd9c7d7	0.026584549
152	0x3d21707d	0.039413918
153	0xbc5c527c	-0.0134474
154	0x3beaa960	0.0071613044
155	0x3cf39b50	0.029737145
156	0xbc6bb8db	-0.014387335
157	0xbc94b726	-0.018153738
158	0x3c8796a0	0.016551316
159	0xbc38ce6d	-0.0112796845
160	0xbc86eb9d	-0.016469771
161	0xbc82dc99	-0.01597433
162	0xbc8c0eb0	-0.017096847
163	0xbc9f893d	-0.01947462
164	0xbcccf3e1	-0.025018634
165	0xbcc86652	-0.024462853
166	0x3d15a8fe	0.036538117
167	0x3d56683c	0.0523455
168	0x3d1814d4	0.03712924
169	0x3d45bf6d	0.04827826
170	0x3d498ac8	0.049204618
171	0x3d2209d4	0.039560154
172	0x3c8205e4	0.01587195
173	0x3d18b7c0	0.037284613
174	0xbca1931c	-0.019723468
175	0xbcf7a519	-0.030230092
176	0x3cfee465	0.031114766
177	0xbb7c6048	-0.0038509537
178	0xbc666845	-0.014062946
179	0x3c72e027	0.01482395
180	0xbd5df140	-0.054185152
181	0xbce4b5cc	-0.027918719
182	0x3c7d38ba	0.015455419
183	0xbd35d93e	-0.04439663
184	0xbd71622b	-0.05893151
185	0xbd882704	-0.06648067
186	0xbc8d5cee	-0.017256226
187	0xbc89faa5	-0.01684315
188	0xbcf3740c	-0.029718421
189	0xbd51d3f7	-0.051227536
190	0xbc8b0256	-0.016968887
191	0x3b7d9d3d	0.0038698458
192	0x3da6cb31	0.081442244
193	0x3dd270fa	0.10275455
194	0x3ddca658	0.10773915
195	0xbca57d3e	-0.020201322
196	0x3c57d2ad	0.013172788
197	0x3db2b6a0	0.08726239
198	0x3d512430	0.0510599
199	0x3d33b88f	0.04387718
200	0x3ce761cf	0.028244881
201	0xbd40c46f	-0.047062334
202	0xbd81929f	-0.06326794
203	0xbdaf138d	-0.08548651
204	0x3d80bafc	0.062856644
205	0x3dc0d9c5	0.09416536
206	0x3dc04af7	0.093892984
207	0x3c7a39bb	0.015272553
208	0x3bab77ec	0.0052328017
209	0x3c4c2aa7	0.012461341
210	0x3cd4f04a	0.025993485
211	0x3cca77a9	0.024715262
212	0x3d437ff8	0.047729462
213	0x3c777e50	0.015105799
214	0xbb86c412	-0.004112729
215	0x3ca95266	0.020669173
216	0x3ab38a12	0.0013697764
217	0xbb50c91a	-0.0031858147
218	0x3c576bf5	0.013148298
219	0xbc380a48	-0.01123292
220	0x3b508239	0.00318159
221	0x3d1ae480	0.03781557
222	0xbd11b6ae	-0.035574608
223	0xbd1cfc88	-0.03832677
224	0xbc77cf49	-0.015125104
225	0x3dd126e7	0.10212498
226	0xbd5feb74	-0.054667905
227	0xbd6801bd	-0.056642283
228	0x3d827a64	0.063710004
229	0xbe1f4d0d	-0.15556736
230	0xbe056800	-0.13027954
231	0x3e19722c	0.1498496
232	0xbdbc07ad	-0.091811515
233	0xbdab019e	-0.08349918
234	0x3d3be19b	0.04586945
235	0x3bbbf42b	0.005735894
236	0x3d4893d1	0.048969094
237	0x3db5393f	0.088488095
238	0x3d8175ff	0.06321334
239	0x3c65565f	0.013997643
240	0x3cbcf2e1	0.023065032
241	0xbc4debc8	-0.012568422
242	0xbcd2927c	-0.025704615
243	0xbcd888cc	-0.026432417
244	0x3dac7c36	0.08422129
245	0x3d2a3649	0.041555677
246	0xbd4f180a	-0.050560035
247	0xbdb73fb7	-0.089476995
248	0xbd9c59df	-0.07634329
249	0xbc883038	-0.016624555
250	0xbda850cb	-0.08218535
251	0xbe1d5738	-0.15365303
252	0xbc6db495	-0.014508386
253	0xbceac770	-0.028659552
254	0xbdbcb4f4	-0.092142016
255	0xbd51d076	-0.051224194

tfeb.8.weight f4 [28]
0	0x3e71bbe9	0.23606838
1	0x3f0d87ac	0.55285144
2	0x3e60e442	0.21962073
3	0x3ecd5bfb	0.40109238
4	0x3ef3cb7e	0.4761619
5	0x3ec0009f	0.37500474
6	0x3ea0cd32	0.31406552
7	0x3e98ecdb	0.29868206
8	0x3e22a407	0.15882884
9	0x3ed80795	0.42193285
10	0x3ebf16c7	0.37322065
11	0x3ee9386a	0.45550853
12	0x3ed23bd3	0.41061267
13	0x3e91ca46	0.28474635
14	0x3e817970	0.25287962
15	0x3ec2bb2d	0.3803343
16	0x3edef34c	0.43544996
17	0x3f119978	0.568748
18	0x3edd350f	0.43204543
19	0x3ef291f3	0.47376975
20	0x3f182ae7	0.59440464
21	0x3ee5cb95	0.44881883
22	0x3e983c7e	0.29733652
23	0x3eaaf0f8	0.3338697
24	0x3f0fab7b	0.56121033
25	0x3ed0a7fb	0.4075316
26	0x3ed49e09	0.4152682
27	0x3e919ec5	0.28441444

tfeb.8.bias f4 [28]
0	0x3e4204d9	0.18947162
1	0xbd97a4c4	-0.074044734
2	0x3d273dea	0.04083053
3	0xbd495ff3	-0.04916377
4	0xbda28730	-0.07935941
5	0x3de0d8fc	0.109788865
6	0x3d11f0d4	0.035630062
7	0x3da0a292	0.07843508
8	0x3d4ec0b4	0.050476745
9	0xbddb15ca	-0.10697515
10	0xbdc6800f	-0.09692394
11	0xbda5df1e	-0.08099197
12	0xbd8c1326	-0.0683959
13	0x3e004166	0.12524948
14	0x3e599024	0.21246392
15	0xbd0f138d	-0.034930754
16	0xbdd2421c	-0.102665156
17	0xbdf0cf63	-0.11758306
18	0xbd33256f	-0.04373687
19	0xbc9a2c40	-0.018819928
20	0xbe39cba2	-0.18144086
21	0xbd5e182f	-0.054222282
22	0x3dbbf86a	0.091782406
23	0xbd0a356d	-0.033742357
24	0x3ca52713	0.020160234
25	0xbce76993	-0.028248584
26	0x3d3171af	0.043321308
27	0x3dde41d2	0.10852398

tfeb.8.running_mean f4 [28]
0	0x3ef547d4	0.47906363
1	0xbeb791fc	-0.35853565
2	0xbe155165	-0.14581831
3	0xbe3d81ac	-0.18506497
4	0xbeef2a3b	-0.46711907
5	0xbd429a9f	-0.04751074
6	0xbecfa198	-0.40552974
7	0xbee43e9e	-0.44579023
8	0xbd59b3c8	-0.05314997
9	0x3e3131e7	0.17304192
10	0x3e5db79c	0.21652073
11	0x3e9e93b2	0.30972058
12	0xbdceb6d0	-0.100934625
13	0x3daec0be	0.085328564
14	0x3e94086d	0.28912678
15	0xbf57f828	-0.8436303
16	0xbe83e076	-0.25757188
17	0x3ccba6a8	0.024859741
18	0xbe0bbb76	-0.1364573
19	0x3e1c30a0	0.15252924
20	0xbeaf3915	-0.34223238
21	0xbebf43c0	-0.37356377
22	0xbf7ef642	-0.9959451
23	0xbeacf6d7	-0.33782074
24	0xbde08635	-0.10963098
25	0xbd256af2	-0.040385194
26	0xbef719a4	-0.4826175
27	0x3f00302d	0.5007351

tfeb.8.running_var f4 [28]
0	0x3d94a441	0.072578914
1	0x3e8c3d2c	0.2739042
2	0x3d169ea7	0.036772396
3	0x3da000d4	0.07812658
4	0x3e1a35bc	0.1505956
5	0x3d7cf024	0.061752453
6	0x3d85c5d4	0.06531873
7	0x3dc4b058	0.096039474
8	0x3cbae496	0.022814076
9	0x3e36ca62	0.1785064
10	0x3d206810	0.03916174
11	0x3d900a9d	0.07033274
12	0x3e0b4463	0.13600306
13	0x3df5bb08	0.11998564
14	0x3e0d0f0c	0.13775271
15	0x3dceed3c	0.101038426
16	0x3e18783c	0.14889616
17	0x3ea01441	0.31265453
18	0x3e5557c3	0.2083426
19	0x3def5c84	0.11687568
20	0x3e2d41c5	0.1691962
21	0x3e2c63bf	0.16834925
22	0x3db57936	0.0886101
23	0x3e1735fb	0.14766686
24	0x3ddbb4ca	0.10727842
25	0x3da09399	0.07840652
26	0x3d90a199	0.07062072
27	0x3e0b54d2	0.13606575

tfeb.11.weight f4 [32, 28, 3, 3]
0	0xbcc39c3d	-0.023878211
1	0xbcf7613d	-0.030197734
2	0xbd0a32c0	-0.033739805
3	0x3cc3bc04	0.023893364
4	0x3d06ebd5	0.03293975
5	0x3cf18d60	0.029486358
6	0x3d70394b	0.05864839
7	0x3d536702	0.051611908
8	0x3d3eed38	0.04661295
9	0xbcfc7bd9	-0.030820774
10	0xbb8b7a88	-0.00425655
11	0xbcdf82b6	-0.027284008
12	0x3c157f16	0.009124538
13	0x3af8f437	0.001899368
14	0x3c6789d8	0.014131986
15	0xbcaf144f	-0.021371989
16	0xbc4594fe	-0.012059448
17	0x3c2d63d5	0.010582884
18	0xbc830e63	-0.015998071
19	0xbd0504fe	-0.032475464
20	0xbce3e53f	-0.027819274
21	0xbca4e278	-0.02012752
22	0xbca24887	-0.019809974
23	0xbc43b11c	-0.011944082
24	0x3cad27da	0.021137167
25	0x3c824b58	0.015905067
26	0x3c8504c7	0.01623763
27	0x3d07d2d2	0.03316004
28	0x3cf7dc16	0.030256312
29	0x3d344652	0.044012375
30	0x3d075f4e	0.033049874
31	0x3cd9c925	0.026585171
32	0x3b768949	0.003761845
33	0x37f62b2d	2.934559e-05
34	0x3d13eef2	0.036116548
35	0x3a1fb7ee	0.00060927763
36	0x3ce45e2a	0.027876932
37	0x3cb29ade	0.021802362
38	0x3d5eb919	0.05437574
39	0xbaa086e3	-0.0012247231
40	0x3c137696	0.009000441
41	0x3ce746e0	0.028232038
42	0xbc8f8651	-0.017520102
43	0xbd68c266	-0.056826018
44	0xbca094a7	-0.019602133
45	0xbcbff057	-0.023430033
46	0xbcbe388c	-0.023220323
47	0xbc552d25	-0.013011252
48	0x3c1ee9c1	0.009699286
49	0x3c2abbe5	0.010420774
50	0xbc0a72f0	-0.008450255
51	0xbd6a2aac	-0.0571696
52	0xbd59909d	-0.05311643
53	0xbd0cec19	-0.034404848
54	0x39bcacc1	0.00035986866
55	0x3c2d13cc	0.010563802
56	0x3c096eec	0.008388262
57	0xbc62c350	-0.013840511
58	0xbc489d6f	-0.012244566
59	0xbc5a4b57	-0.0133236265
60	0xbbc9fe5b	-0.0061643547
61	0xbcc8c97a	-0.024510134
62	0xbc83d130	-0.01609096
63	0xbd34bf64	-0.044127837
64	0xbc9929e2	-0.01869673
65	0xbcd31c26	-0.025770258
66	0xbd713c1c	-0.058895215
67	0xbd1ddd20	-0.03854096
68	0xbcb729ba	-0.022358764
69	0xbcbb5f00	-0.022872448
70	0xbcb2d793	-0.02183131
71	0x3c8cd5a0	0.017191708
72	0xbd0c7a0c	-0.03429608
73	0xbd07f4cd	-0.033192445
74	0xbd10f83b	-0.03539298
75	0xbc9168dc	-0.017750196
76	0xbc775bf5	-0.015097608
77	0xbba9c273	-0.005180651
78	0xb9d55d7a	-0.0004069617
79	0xbb914352	-0.004433074
80	0x3c2df5cc	0.010617685
81	0xbc6ee2fa	-0.014580483
82	0xbbabcbfd	-0.005242823
83	0x3c21f1fc	0.009884354
84	0x3c71b35b	0.014752234
85	0x3d5c68e7	0.05381098
86	0x3c80bd3b	0.015715232
87	0xbc378c73	-0.011202919
88	0x3c3cfabe	0.011534391
89	0xbaec07a6	-0.001800765
90	0x396df84c	0.00022694579
91	0xbac2a6af	-0.0014850701
92	0xbb8fe950	-0.0043918267
93	0x3c0f3720	0.00874117
94	0x3bc6d2bf	0.0060676034
95	0xbc5494fb	-0.012974973
96	0x3beeec0e	0.0072913235
97	0x3ca1041d	0.019655282
98	0x3c60c39a	0.01371851
99	0xbbfc9adc	-0.0077088904
100	0x3ce73c99	0.028227137
101	0x3c67b8de	0.014143197
102	0xbb81e4d5	-0.0039640465
103	0x3c2528e6	0.010080552
104	0xbc9d6526	-0.01921327
105	0x3cd66a2f	0.02617368
106	0x3ca803a3	0.020509547
107	0x3b838430	0.0040135607
108	0xbd3138df	-0.043267127
109	0xbd85bc82	-0.06530096
110	0xbd8b1562	-0.06791188
111	0xbd8aa981	-0.067706116
112	0xbd8ee411	-0.06977094
113	0xbd863cb4	-0.06554547
114	0x3d0833b8	0.033252448
115	0x3d4b6b62	0.049662955
116	0x3d3763fd	0.04477309
117	0xbcaca5ae	-0.021075096
118	0xbc9585b4	-0.018252231
119	0xbc81d158	-0.015846893
120	0x3cbc6faa	0.023002464
121	0x3c3220fa	0.01087212
122	0x3c92ef85	0.017936477
123	0x3cfc49e4	0.030796953
124	0x3d24c79a	0.040229417
125	0x3d43208a	0.047638454
126	0xbd8a0527	-0.06739264
127	0xbd96149c	-0.0732815
128	0xbdaf035d	-0.08545563
129	0x3cbb3471	0.022852154
130	0x3c6f475b	0.014604415
131	0x3d0d9567	0.03456631
132	0x3d56e91e	0.05246841
133	0x3d106c91	0.035259787
134	0x3d4899dd	0.04897486
135	0x3c194576	0.00935494
136	0x3d0ba283	0.03409053
137	0x3d0e6889	0.03476766
138	0xbc1cb768	-0.009565212
139	0x3c40cbdb	0.011767353
140	0x3c9a25d1	0.01881686
141	0x3c1f903f	0.009738981
142	0xbc073907	-0.0082533425
143	0xbb6f9c9f	-0.003656186
144	0xbd6d3168	-0.057908446
145	0x3c5fb336	0.013653567
146	0xbc371a9a	-0.011175776
147	0xbd327337	-0.04356691
148	0x3ce035c4	0.027369387
149	0xba85daf7	-0.0010212351
150	0xbd213fe6	-0.03936758
151	0x3c847bb3	0.016172266
152	0x3cbf7213	0.023369825
153	0xbd40f102	-0.047104843
154	0xbd2ea28d	-0.04263549
155	0xbd39d9a7	-0.045373585
156	0xbd6f0e46	-0.05836322
157	0x3d2b444a	0.041813172
158	0x3d29b2eb	0.041430395
159	0xbd7789b8	-0.060434073
160	0xbbf5a2c1	-0.0074962084
161	0x3cb30838	0.021854505
162	0x3c73490e	0.014848961
163	0x3c345645	0.011006896
164	0x3c780011	0.015136735
165	0x3c2c0c0d	0.01050092
166	0xbc862f9c	-0.016380124
167	0xbd2e0e15	-0.0424939
168	0xbb9fe608	-0.004879717
169	0xbcad02a8	-0.02111943
170	0xbcd09c2d	-0.025465095
171	0x3c58debd	0.013236699
172	0xbbd30b75	-0.006440575
173	0xbb06a174	-0.002054301
174	0x3cdf2dd0	0.027243525
175	0x3d3ee7fd	0.04660796
176	0x3d94c763	0.072645925
177	0xbc53b358	-0.012921177
178	0x3c53d142	0.012928309
179	0x3cdf0a13	0.027226483
180	0x3c4e124f	0.012577607
181	0x3ac249c3	0.0014823008
182	0x3a0ee20a	0.00054505526
183	0xbafefd0e	-0.0019454078
184	0xbc28a868	-0.010294057
185	0xbc9ca107	-0.019119753
186	0xbcb2d4c7	-0.021829976
187	0xbd1885c7	-0.037236955
188	0xbd392bd9	-0.045207832
189	0xbd5528cb	-0.052040856
190	0xbd033736	-0.032035075
191	0xbc899c1b	-0.01679807
192	0xbd4cd3ad	-0.050006557
193	0xbc814d29	-0.015783863
194	0x3ca98c27	0.020696713
195	0xbd580984	-0.05274345
196	0xbcd13fd4	-0.025543131
197	0xba86632f	-0.0010252948
198	0xbcf7f109	-0.030266302
199	0x3c82d911	0.015972646
200	0xb9b580fe	-0.00034619117
201	0xbd78f753	-0.06078274
202	0xbcd3a854	-0.025837101
203	0xbd23a59d	-0.039952863
204	0xbc1e9a7a	-0.009680385
205	0x3c83c083	0.016083008
206	0x3c8b7e5d	0.017028028
207	0xbd1b1fbc	-0.03787206
208	0xbcb46382	-0.022020105
209	0xbc545427	-0.012959517
210	0xbcc451a0	-0.023964703
211	0xbc5487e5	-0.012971853
212	0xbc802acc	-0.015645407
213	0xba89748c	-0.0010487004
214	0x3b947700	0.0045307875
215	0x3c784780	0.015153766
216	0x3b57ce64	0.0032929415
217	0xbc53fbe2	-0.0129384715
218	0xbc19b480	-0.009381413
219	0x3b59109e	0.0033121477
220	0xbc14b9b3	-0.009077477
221	0xbcf4f024	-0.029899664
222	0xbde59a5e	-0.11211084
223	0xbd99fdd2	-0.075191155
224	0xbd5a8761	-0.053351764
225	0xbc9b3947	-0.01894821
226	0xbc8567b4	-0.016284801
227	0xb9ef8c67	-0.0004569024
228	0xbac957b3	-0.0015361219
229	0x3b7e5091	0.0038805346
230	0x3beb1a5c	0.007174773
231	0x3ca21786	0.019786607
232	0x3d1cf349	0.038317952
233	0x3d021d09	0.03176597
234	0x3afb14b4	0.001915595
235	0x3b982371	0.004642897
236	0x3c61ca4f	0.013781144
237	0xbb88546c	-0.0041604545
238	0x3b84b89b	0.004050327
239	0xbc123845	-0.0089245485
240	0xbd0a4411	-0.03375632
241	0xbb01dd9f	-0.0019815934
242	0x3becc58f	0.0072256993
243	0xbcf72dbc	-0.030173175
244	0xbd3cc1b8	-0.046083182
245	0xbd63bdb9	-0.055600855
246	0x3d31eab8	0.043436736
247	0x3d4ccbf9	0.04999921
248	0x3d881319	0.066442676
249	0x3d631a57	0.05544504
250	0x3d5da4a3	0.054112088
251	0x3d971d92	0.07378687
252	0xbe135589	-0.14388098
253	0xbd6458a7	-0.055748608
254	0x3cf46e62	0.02983779
255	0xbe3e6baf	-0.18595766

tfeb.12.weight f4 [32]
0	0x3e995aa1	0.29951957
1	0x3ee27d33	0.44236144
2	0x3ec4042f	0.38284442
3	0x3ea29365	0.31753078
4	0x3e5a1885	0.21298416
5	0x3f0bbe33	0.54587096
6	0x3ecb4742	0.39702803
7	0x3ee8443b	0.45364556
8	0x3f30073c	0.6876104
9	0x3e9d2212	0.30690056
10	0x3ecd3a2c	0.40083444
11	0x3ee3daa9	0.44502762
12	0x3ec4730c	0.38369024
13	0x3e98a288	0.29811502
14	0x3ed35dc0	0.41282463
15	0x3e9e0647	0.30864164
16	0x3ee58ed3	0.4483553
17	0x3e9eece9	0.31040123
18	0x3ebae602	0.36503607
19	0x3eb212b3	0.3477989
20	0x3ec0e1a3	0.37672147
21	0x3ece7b56	0.40328473
22	0x3eeb4fc8	0.45959306
23	0x3ebeb074	0.37243998
24	0x3e71e2c1	0.23621656
25	0x3f10130d	0.5627907
26	0x3e355e68	0.17711794
27	0x3e8b4e7a	0.2720831
28	0x3ea62bb2	0.32455212
29	0x3f07ad35	0.5299867
30	0x3ef9c1ea	0.48780757
31	0x3f281302	0.65654004

tfeb.12.bias f4 [32]
0	0xbe4da408	-0.20082104
1	0x3d5b9678	0.053610295
2	0xbdfcba15	-0.1234018
3	0xbdd67e0f	-0.104732625
4	0xbd6f9c60	-0.05849874
5	0xbe78dea5	-0.24303682
6	0xbdb7e425	-0.08979062
7	0xbde0682c	-0.10957369
8	0xbeee4247	-0.4653494
9	0x3dac6ef9	0.08419604
10	0xbdf5b315	-0.11997048
11	0xbd8eb356	-0.06967799
12	0xbd691221	-0.056902055
13	0x3cb8221a	0.022477198
14	0xbe358a95	-0.17728646
15	0xbdd5cc9b	-0.10439416
16	0xbe11bfbc	-0.14233297
17	0x3e719065	0.23590238
18	0xbd4ccb3a	-0.0499985
19	0x3d0c8a54	0.034311607
20	0xbd9ec401	-0.077522285
21	0xbe177b31	-0.14793088
22	0xbda1dc39	-0.07903332
23	0x3e2d3a9b	0.16916887
24	0xbcc17de6	-0.023619603
25	0xbcb1b262	-0.021691505
26	0xbe0f8d34	-0.14018708
27	0xbdaaeb73	-0.083456896
28	0xbdb1adb1	-0.08675707
29	0xbe162475	-0.14662345
30	0xbe4c5582	-0.19954494
31	0xbe23d820	-0.16000414

tfeb.12.running_mean f4 [32]
0	0xbe7af4bc	-0.24507421
1	0xbf4a3de6	-0.790007
2	0xbedd9b99	-0.43282774
3	0x3e8f015a	0.2793072
4	0xbe945fb0	-0.28979254
5	0xbfa82787	-1.3137063
6	0xbe6fc60d	-0.23415394
7	0xbf04c08f	-0.5185632
8	0xbf5dc6f6	-0.86631715
9	0x3d873b51	0.066031106
10	0xbeb13a34	-0.34614718
11	0xbf6bfcd6	-0.9218267
12	0xbf0a23b8	-0.5396075
13	0xbf5d730d	-0.8650368
14	0x3cf576ac	0.029963814
15	0x3d595a27	0.05306449
16	0xbef7c826	-0.4839489
17	0xbce01880	-0.027355433
18	0xbe3e14ad	-0.18562575
19	0xbf2784fe	-0.65437305
20	0xbeb5caed	-0.35506383
21	0xbf4355a4	-0.7630255
22	0xbf2b32e5	-0.66874534
23	0xbf2407e5	-0.64074546
24	0xbdf9edd2	-0.12203564
25	0xbf8ad3de	-1.0845907
26	0xbe490d5d	-0.19634004
27	0xbd97fb8f	-0.07421028
28	0xbe6f9d4c	-0.23399848
29	0xbf0fa2b3	-0.56107634
30	0xbe796a97	-0.24357067
31	0xbf9e06e1	-1.2345849

tfeb.12.running_var f4 [32]
0	0x3dccae7e	0.09994219
1	0x3f24f5e2	0.6443769
2	0x3e92fc5e	0.28708166
3	0x3e750034	0.23925859
4	0x3d71f2ea	0.05906955
5	0x3f2abb00	0.6669159
6	0x3ebd138d	0.3692898
7	0x3ebb6b4d	0.36605301
8	0x3f1f90d7	0.62330383
9	0x3e8386e0	0.2568884
10	0x3f2334a2	0.63752186
11	0x3f1a4b2b	0.6027095
12	0x3e897215	0.2684485
13	0x3ea42e2c	0.32066476
14	0x3e6aade4	0.22917897
15	0x3eb05db0	0.34446478
16	0x3e61b339	0.22041024
17	0x3f320bf8	0.6954951
18	0x3e5fe9ba	0.21866503
19	0x3eb74310	0.35793352
20	0x3e2d5331	0.16926266
21	0x3eb67d04	0.35642254
22	0x3f10930b	0.5647437
23	0x3f2e8e36	0.68185747
24	0x3cebccd6	0.028784197
25	0x3f891fb4	1.07128
26	0x3d02c95f	0.031930324
27	0x3e9c4d3b	0.30527672
28	0x3e230337	0.15919195
29	0x3f1467bb	0.5797078
30	0x3ea64381	0.32473376
31	0x3f80e1e0	1.0068932
