trained_models/step_5_retrain_after_step_4/retrain_4C_after_2nd_pruning_prunratio0.85_2024060419/retrained_4Cmodel_ratio85.0_vaacc93.47826385498047_tracc_82.23684210526315@628epoch_20240604222838.pt (torch, 309234 bytes, 62 tensors)

sfeb.0.weight f4 [8, 1, 1, 9]
000000 9d de 83 3e be b5 25 3e bb 82 96 3e 0f 27 af 3e
       0.25755778 0.1618261 0.29396614 0.34209487
000010 4a ae 93 3d b6 56 89 be 1d 64 f7 be 06 7a 8c be
       0.072109774 -0.26823968 -0.48318568 -0.27436846
000020 55 4a 27 bd c0 87 26 3c a9 78 6e 3c 07 15 98 bd
       -0.040842373 0.010164201 0.014555135 -0.07425886
000030 c8 c9 98 be d8 15 83 3d ed d1 3f be 0b fe 92 be
       -0.29841447 0.06400651 -0.18732424 -0.28709444
000040 5e e7 bc 3e 57 72 11 3f 9d 89 3c be 92 69 66 be
       0.3689527 0.56815094 -0.1841187 -0.2250121
000050 ac 02 5f 3e 5e 8c 8b 3d 4b e2 47 be cd 67 77 be
       0.21778363 0.06813882 -0.19519918 -0.2416069
000060 42 6a 06 3e 71 77 9c be 35 8e d1 be 34 ff 31 3f
       0.13126472 -0.30559877 -0.40928808 0.69530034
000070 87 e2 bd 3e dc d8 4a bd db 20 b8 bb f4 5f 39 be
       0.3708689 -0.04952322 -0.005619151 -0.1810301
000080 0c 58 c8 3b 48 a6 df 3d 9b f2 0e bd db 9d a4 3d
       0.0061140116 0.109203875 -0.034899335 0.08037921
000090 0d cf 1f bf 42 1f b9 be be 62 43 3d 39 3b 78 3d
       -0.6242531 -0.3615666 0.04770159 0.060603354
0000a0 9e 49 8c 3e 84 21 43 3e a5 7e 3e be 59 8c dd 3c
       0.27399915 0.19055754 -0.18602999 0.027044462
0000b0 fb ab 15 be 74 78 9f be 9c 76 20 bd 9b 57 4b 3e
       -0.14616387 -0.31146586 -0.039175615 0.19857638
0000c0 ab e0 c3 3d 50 a2 d4 be ee 40 b0 3d f1 96 16 3f
       0.095643364 -0.41530085 0.08606134 0.5882407
0000d0 a4 0e 42 bd d2 1a 02 bf 84 2d 8a bd 93 bd 6a be
       -0.047377244 -0.50822175 -0.06746963 -0.2292388
0000e0 9d 3e 6b 3e 9b 51 a5 bd 0a 08 e3 be b6 4a 02 3f
       0.22973104 -0.08072206 -0.4434207 0.5089525
0000f0 32 47 b2 3c e6 13 e7 be fc 69 d7 3e ac 8e 21 3d
       0.021762464 -0.4513237 0.42073047 0.039442703
000100 ad b8 ab 3b f8 4b 47 be 1c c2 df bd 19 dc 48 3e
       0.005240521 -0.19462574 -0.10925695 0.1961521
000110 70 fe 5d 3e 0d 14 07 bd f9 7d a0 3e d0 db 11 3f
       0.21679091 -0.032978106 0.3134611 0.5697603

sfeb.1.weight f4 [8]
000000 c4 f1 6b 3f be 2c 45 3f 4a f5 37 3f 4e 32 45 3f
       0.9216578 0.77021396 0.71858656 0.77029884
000010 fe 9d 4b 3f b8 21 0c 3f e8 35 fa 3e b8 93 2d 3f
       0.7953795 0.5473895 0.48869252 0.67803526

sfeb.1.bias f4 [8]
000000 b7 71 71 3d 11 6a ff 3c da 2a 95 3d 5e c9 60 3e
       0.058946338 0.031178506 0.07283564 0.21951815
000010 27 42 83 3d 51 23 58 3e 8a 85 9e 3d 48 44 5d 3d
       0.06409102 0.21107222 0.07740314 0.054020196

sfeb.1.running_mean f4 [8]
000000 db c4 71 36 24 04 1d 37 71 be 6a b8 37 6a 4d 38
       3.6026383e-06 9.358893e-06 -5.596731e-05 4.897473e-05
000010 b4 30 17 b8 d6 5b 97 b7 46 5f 8c b6 13 9e 4c 38
       -3.6046564e-05 -1.8043367e-05 -4.1834164e-06 4.878461e-05

sfeb.1.running_var f4 [8]
000000 0e ad dd 3c 8b b6 76 3c 0d a5 34 3c f1 0e ad 3c
       0.027060058 0.01505817 0.011025679 0.021125289
000010 0a ff b5 3c 0a 36 16 3c 77 33 01 3b 89 79 76 3c
       0.022216339 0.009168157 0.0019714513 0.015043625

sfeb.3.weight f4 [32, 8, 1, 5]
000000 ec 29 64 3d 7c 1c 30 be 4f 40 f0 bc d0 58 0e 3d
       0.055704042 -0.17198366 -0.02932754 0.034752667
000010 39 02 18 be 81 d8 aa bd 38 1f f4 bd 99 0e 4e bd
       -0.14844598 -0.08342076 -0.11920017 -0.05030689
000020 f6 26 e0 ba 28 f2 15 bd de 34 7a 3e d4 43 4f 3e
       -0.0017101455 -0.03660789 0.2443423 0.20240718
000030 ff 7b 6e 3e 4d f9 06 3e 10 ad bc 3d 76 3e d9 bd
       0.23289488 0.13181038 0.092126966 -0.106076166
000040 50 4a 60 bd 60 b7 87 be 0e a7 39 bd ed f1 f5 bd
       -0.05475837 -0.26507092 -0.04532533 -0.12009034
000050 e0 91 1f 3e c8 88 33 3e 91 61 81 3d e3 9c 35 3e
       0.1558299 0.17532647 0.063174374 0.17735629
000060 20 b6 25 3e f8 63 7b 3d 17 56 e7 bc 80 df 88 bd
       0.16182756 0.061374635 -0.028239293 -0.06683254
000070 9a 0a 85 bb d3 0c 2c 3d 73 c4 62 ba 10 fc fa bc
       -0.0040601017 0.042004418 -0.0008650489 -0.03063777
000080 cb 21 29 3d b9 b1 0a 3d 8e 23 14 bc 03 70 7b bd
       0.041291993 0.033860896 -0.00904168 -0.06138612
000090 d6 99 c7 bd 4a 8d 1a be 85 66 a4 bc 85 b8 62 bd
       -0.09746139 -0.1509296 -0.020068416 -0.055351753
0000a0 dd 61 2f be 31 b3 26 be 5a 05 16 bd e3 0a 80 3d
       -0.17127176 -0.16279294 -0.036626197 0.062520765
0000b0 b5 9d ae 3d cf ce e9 bb 0d 68 10 be 77 31 f6 bd
       0.08526174 -0.007135249 -0.14102192 -0.120211534
0000c0 23 17 0d bd 0e eb 88 bd b2 e7 b6 3d e8 94 ab 3d
       -0.034445893 -0.06685458 0.08930911 0.08378011
0000d0 53 ac 9a 3d c2 88 72 3e 66 01 94 3e 19 38 66 be
       0.075523995 0.23684981 0.28907317 -0.22482337
0000e0 13 13 ea bd 2b 30 de bd cd b8 ae bc 96 0f 0b bd
       -0.11429419 -0.10849031 -0.021328354 -0.03395041
0000f0 7f 0e 1d 3e b2 7f 0f 3e a9 83 a5 3c 09 1b 9f bd
       0.15337561 0.14013556 0.020204382 -0.077688284
000100 a4 d3 f2 3b 5b ae c1 bb 64 0e f2 3d 7d 4c a9 bc
       0.0074104834 -0.0059106774 0.11819151 -0.020666355
000110 b3 4b 15 3a ee be 72 3c 8f e4 c1 bb fb fb 45 bd
       0.0005695179 0.014816029 -0.005917139 -0.04833601
000120 dc 40 88 bc 52 a5 d4 bd e6 6a 06 bd 98 f6 73 bd
       -0.01663249 -0.10383095 -0.03281679 -0.059561342
000130 b5 44 87 bd 0d 4b 80 be 07 64 30 be 4a 6c d8 bd
       -0.06604902 -0.2505726 -0.17225657 -0.105675295
000140 a2 03 0d be 2f 80 61 be c3 55 32 bd bc 02 c1 bc
       -0.13770917 -0.22021554 -0.04353882 -0.023560874
000150 a3 48 ca bd cd 5c f1 bd a4 d0 88 bd 99 ce 8f bd
       -0.098771356 -0.117852785 -0.0668042 -0.07021827
000160 71 92 38 be b0 5d 17 be 9f de 0d 3e e2 c3 56 3e
       -0.18024613 -0.14781833 0.13854454 0.20973161
000170 89 16 fc 3d 07 90 34 3e 98 e7 83 3e 7a 1e 4b be
       0.12308986 0.17633067 0.2576263 -0.19835845
000180 1f ff c0 bd 32 a9 4d be ac 8c f8 bd 9a 2f cc bd
       -0.094236605 -0.20084074 -0.12136206 -0.09970017
000190 c8 d5 52 bd 35 9d 3c 3b 32 e5 25 3d 7e 98 ed 3d
       -0.05147341 0.0028780226 0.04050178 0.11601351
0001a0 f6 a9 33 3d 28 1e 38 bd 38 72 77 3d 44 d5 46 bd
       0.04386326 -0.044950634 0.060411662 -0.04854323
0001b0 08 1c b7 3d 5e 88 25 3d d5 37 45 bd fb 9f 17 bb
       0.089408934 0.040413253 -0.04814895 -0.0023136127
0001c0 a7 be 76 bd f0 03 8b bd 6b 03 fa bd 34 58 16 be
       -0.060240414 -0.067878604 -0.12207683 -0.14682084
0001d0 ce 69 83 be 9d a6 87 be b1 d3 01 be 1a 3e 08 be
       -0.2566666 -0.26494303 -0.1267841 -0.1330494
0001e0 a0 28 d9 bd 19 b5 ad 3d 72 8e e5 bd 91 7b 8b bd
       -0.10603452 0.08481807 -0.1120881 -0.06810678
0001f0 08 4b 71 be 4a 23 07 be 81 90 0f bd 82 49 14 3d
       -0.23563778 -0.13197055 -0.03504992 0.036202915
000200 f5 7d c8 bc ec 9b 8f bd 86 96 aa be 68 27 83 be
       -0.024474123 -0.070121616 -0.33317965 -0.25616002
000210 49 5e 65 be 58 7a 67 be 1b 87 b0 be c3 64 c1 3d
       -0.22399248 -0.22605264 -0.34478077 0.09443047
000220 85 80 54 3e a1 47 a0 3e 65 10 1f 3e b5 07 f1 3d
       0.20752151 0.3130465 0.15533598 0.11769048
000230 95 fd 5e bd 94 8f f5 bd da c4 94 be 45 83 c0 bd
       -0.054441053 -0.11990276 -0.29056436 -0.09400038
000240 d0 45 e9 bd 94 d4 2d 3d 8c b2 19 be 4d f5 11 be
       -0.11390269 0.04243906 -0.15009516 -0.14253731
000250 78 ec 46 be d7 15 37 be d6 b5 e6 bd ae 3a 3b be
       -0.19426143 -0.17879425 -0.11265151 -0.18284103
000260 49 6d 7c be 68 f0 15 be ac 4d f3 bd 72 9f 39 3e
       -0.24651064 -0.14642489 -0.11880049 0.1812723
000270 f1 17 4c 3e f2 b8 6b 3e 99 1b b6 3e fa ef a9 3e
       0.19931008 0.2301977 0.3556793 0.331909
000280 28 b6 13 be d0 df bc bd 9c 52 0f be 4e 01 d9 bd
       -0.14424956 -0.09222376 -0.13996357 -0.10595952
000290 ff 82 34 bd 8a a7 98 3d 0a 3e 81 3c 1d 45 f8 3b
       -0.04407024 0.074538305 0.015776653 0.0075765983
0002a0 74 90 61 3d 7a c4 c2 3b ab c6 04 be d5 d3 af bd
       0.0550694 0.005943832 -0.12966411 -0.08585326
0002b0 40 3d f1 bd c0 f2 3e be 97 8e ae bd a9 c0 4d be
       -0.11779261 -0.1864729 -0.085232906 -0.20093025
0002c0 c9 86 07 be 2e df bd bc e9 03 6b bb 4b f8 8a 3d
       -0.1323501 -0.02317771 -0.0035860485 0.067856394
0002d0 6a 18 e7 bd 80 d0 ec bc bf 88 26 3d 83 55 27 bd
       -0.112839535 -0.028908014 0.040657755 -0.040853035
0002e0 a6 6c c4 bd ca 98 11 bd 75 d9 0c bd 96 97 d5 3c
       -0.095910355 -0.0355461 -0.03438707 0.026073258
0002f0 2c 99 62 bd 93 b0 06 bd ca ab 30 bd 70 13 9e 3b
       -0.055321857 -0.032883238 -0.04313258 0.0048240945
000300 90 28 f9 bc 85 e9 b0 bb f9 3e 3a bd a0 87 80 bd
       -0.03041485 -0.0053989314 -0.04547021 -0.062758684
000310 d7 e8 e5 3c a9 9b c1 3d 7e 28 fa 3d 6c 06 3b 3e
       0.028065128 0.09453518 0.122147545 0.18264169
000320 fc 33 3c bd 55 81 2e be 5b 44 39 be ac f1 53 be
       -0.045948014 -0.17041524 -0.18092482 -0.20697659
000330 5c 66 b9 bd b3 fa b8 3d a1 3e 71 3e b6 6f e9 3d
       -0.090527266 0.09032192 0.23559047 0.1139826
000340 5a f4 67 3d 5e 3d 09 3e 6b 6d c6 3d 0a 20 64 bd
       0.056629516 0.13402316 0.096888386 -0.055694617
000350 29 04 14 bd 59 a5 ad bd 09 cb 41 be 42 f1 cc bd
       -0.03613678 -0.08478803 -0.18925108 -0.10006954
000360 92 56 6b be b7 ed 66 be 49 7c 9f bd 0e 01 a3 3c
       -0.22982243 -0.22551619 -0.077873774 0.019897964
000370 7a fd bb bc 34 3b 18 3c 5c 13 5f bc 3e 08 36 3e
       -0.022948015 0.009291459 -0.0136154555 0.17776582
000380 e2 81 e8 3c f0 8f 00 bb bf f8 24 3d 61 4f 09 3c
       0.028382245 -0.0019617043 0.040276285 0.008380742
000390 f2 4f 63 3d a5 50 8a bd a5 a2 a1 3d 46 99 76 3d
       0.055496164 -0.06753663 0.0789235 0.060204767
0003a0 1d 47 a8 3d 9b 80 ac 3d ec 44 36 bc e4 5b 4c bd
       0.08216689 0.08422967 -0.011124831 -0.04989232
0003b0 95 5b 56 bd f1 39 66 3d 37 3f dd 3d 69 9c e8 3d
       -0.052333433 0.0562076 0.10803073 0.11357958
0003c0 c7 41 0b 3e 27 f2 d0 3d 32 1c b4 3d f3 f2 9f 3d
       0.13599311 0.10202437 0.0879444 0.07810011
0003d0 4b ee a3 3d 32 9f 29 be a6 ed 44 be b3 c0 67 be
       0.08004435 -0.16564634 -0.1923128 -0.22632103
0003e0 87 c1 26 bd 20 9a c2 bc 8e b1 97 bc 98 16 cf 3b
       -0.040711906 -0.023755133 -0.018517282 0.006319832
0003f0 49 ec cf 3d 8e 0e 9f 3d 90 5d 36 3e ec 9d 79 3e
       0.1015249 0.07766448 0.17809129 0.24376649

sfeb.4.weight f4 [32]
000000 9d d5 3e 3f 5d 7c de 3e ec 2e 4a 3f 76 85 96 3f
       0.745447 0.43454257 0.7897785 1.1759479
000010 d1 19 ae 3e 89 12 be 3e 8b bc 14 3f 00 6e 19 3a
       0.3400407 0.37123516 0.58100194 0.0005852878
000020 52 6f df 3e 3b 94 03 3f 3c 72 63 3c 5d 65 20 3f
       0.43639618 0.51398057 0.013882216 0.6265467
000030 54 ef 17 3f bf 21 3f 3f 12 9e 69 3f 14 5c 45 ba
       0.5934956 0.7466087 0.9125682 -0.00075286743
000040 5e a6 19 3f 01 ad da 3e 9d 6e 11 3f 3a b6 83 39
       0.6001948 0.42710117 0.5680941 0.00025122036
000050 19 61 09 3f 89 a7 11 3f 9d 58 3c 3f a6 c9 e3 3e
       0.53663784 0.56896263 0.73572713 0.44489783
000060 d1 78 21 3a 14 5c 48 3a 1b df c7 3e 42 78 0b 3f
       0.00061596656 0.0007643115 0.39037403 0.54480374
000070 f8 44 bb 3e 48 77 0d 3f eb 8b dc 3e 78 58 cd 3e
       0.36576056 0.55260134 0.430755 0.4010656

sfeb.4.bias f4 [32]
000000 6a 9e 32 3e a1 95 50 be ee 07 26 be b2 7d 46 bd
       0.17443243 -0.20369579 -0.16213962 -0.048459716
000010 fa fe 4d bd d8 ad 96 3b e1 eb 0b 3e 7c 9e 87 bd
       -0.050291993 0.0045983605 0.136642 -0.06622025
000020 39 ed 32 3d 8a bc be bd 8f e7 bf bc b0 2d f0 3c
       0.043683264 -0.09313305 -0.023425845 0.02931866
000030 58 4c d4 3d 8c 59 d3 3d fc f8 68 3d 8d 38 20 bd
       0.10366124 0.10319814 0.056878075 -0.03911643
000040 66 9b be bd a6 8b 5d 3d 3c 65 38 bd d6 fe b1 bc
       -0.09306984 0.054088257 -0.04501842 -0.02172796
000050 c1 29 aa 3c f5 be 17 be 65 8f ac bd 05 30 2a 3d
       0.020771863 -0.14818938 -0.08425788 0.0415497
000060 4c b5 93 bc 65 ce a2 bc 19 27 02 3d ed 59 25 bd
       -0.018030785 -0.019873807 0.031775568 -0.040368963
000070 3c 79 07 be d4 6c a0 bd 62 c8 e6 bd 57 68 a5 3d
       -0.13229841 -0.07833257 -0.11268689 0.08076542

sfeb.4.running_mean f4 [32]
000000 71 60 01 bd 84 46 49 be 8c 41 de be 7c 2b aa be
       -0.031586114 -0.19655806 -0.43409383 -0.332363
000010 87 77 b5 be 4e 55 3c be b5 14 07 be 6c bb 4b 3c
       -0.35442755 -0.18391916 -0.13191493 0.012434822
000020 13 fc 91 be 25 48 1d be 24 1f 36 bd 54 e3 6a be
       -0.2851263 -0.15359552 -0.04446329 -0.22938281
000030 fe c0 94 bd 0c 27 e9 3d 1c 31 55 be 30 57 0f bb
       -0.07263373 0.11384401 -0.20819515 -0.0021872036
000040 74 31 9e be c3 78 94 be 99 05 aa be b7 e7 00 bc
       -0.30897105 -0.28998384 -0.33207396 -0.007867745
000050 f2 87 be be f9 07 f9 be d4 a8 bd be ee 5b 79 be
       -0.37213093 -0.48638895 -0.37042868 -0.24351475
000060 52 2b 94 bc 17 e3 84 bc 5c 2b be be 98 57 39 be
       -0.018087063 -0.016221566 -0.37142456 -0.1809982
000070 61 e7 c3 be e6 69 e7 be b2 a5 d9 bd 48 f6 20 bd
       -0.38262466 -0.45197982 -0.10627307 -0.039297372

sfeb.4.running_var f4 [32]
000000 3e 2d a5 3e f6 d0 a2 3e dd b5 15 3f 87 83 7b 3f
       0.3226108 0.3180005 0.58480626 0.9824757
000010 c9 c4 9a 3e 40 b0 b5 3e 1d da e1 3e b4 08 da 3b
       0.3022826 0.3548603 0.4411172 0.0066538695
000020 34 d0 97 3e 92 48 59 3e 4c cd 4b 3b 52 66 ba 3e
       0.29651034 0.2121909 0.0031097708 0.3640619
000030 1b 0e dc 3e af 3c 3a 3f 61 41 68 3f 00 40 0b 3b
       0.42979512 0.72748846 0.9072476 0.0021247864
000040 d4 04 03 3f b1 8f 10 3f e6 93 49 3f ba 79 c8 3a
       0.5117924 0.56469256 0.787413 0.0015295066
000050 39 d8 1e 3f 25 c8 34 3f f9 e0 42 3f c8 ef ef 3e
       0.6204868 0.70617896 0.7612453 0.46862626
000060 da cd 7a 3a 6f e7 55 3a 0f c2 f8 3e c9 82 fc 3e
       0.00095674174 0.00081597915 0.48585555 0.4931853
000070 4f 25 d0 3e da 8c fb 3e 39 9a 64 3e 6e 4e 2d 3e
       0.40653464 0.491309 0.22324456 0.1692445

tfeb.0.weight f4 [13, 1, 3, 3]
000000 af b9 09 3d 15 a6 25 3a a0 bb b4 bb 84 76 8c 3b
       0.033624347 0.00063189986 -0.0055155307 0.004286589
000010 9b fd 00 3a 7f 8e ce 3a 95 26 01 3b 0c 1a c9 3b
       0.00049206027 0.001575902 0.0019706835 0.006137138
000020 a9 20 cb 3b 2b f9 12 3c de 69 27 bc a1 87 6d 3c
       0.0061989618 0.008970539 -0.010218112 0.0144976685
000030 a7 16 80 3c 48 ae 3f bc a9 64 5d 3c b4 e3 83 3c
       0.015635801 -0.011699267 0.013512769 0.016099788
000040 a2 99 f3 bb 78 2e 88 3c a6 5e 53 3e 38 28 06 3e
       -0.007434086 0.01662372 0.20641574 0.1310128
000050 e7 79 d0 be c3 6c c6 3e 54 94 ef 3e 3e 0b 2a bf
       -0.40718004 0.38754854 0.46792853 -0.66423404
000060 df 1d 45 3e 0b 8c 16 3e f7 37 ec be 91 f9 6b be
       0.19249676 0.1470186 -0.46136448 -0.23044421
000070 df 6a 13 bd 21 21 fc 3d 55 cc 17 bf f3 56 f3 3e
       -0.035990592 0.12311006 -0.5929616 0.47527274
000080 05 61 09 3f 87 58 9e be 06 eb 16 3e 74 9f 40 3e
       0.53663665 -0.30926916 0.14738092 0.18810827
000090 b1 25 d7 3c 2a 6f d6 3e b3 a3 fd be c9 66 b5 3d
       0.02626309 0.41881686 -0.49538955 0.08857495
0000a0 f3 ba e0 3d d2 fa aa be b9 c4 26 be a9 fe 54 bd
       0.10973158 -0.33394486 -0.16285981 -0.052000675
0000b0 85 ab a2 be 3a 48 22 3d e3 0d 20 be da 13 31 be
       -0.31771484 0.039619662 -0.15630297 -0.17292729
0000c0 eb cf ae 3c fd 86 5a be c8 7d 96 be c6 01 80 3e
       0.021339377 -0.21340556 -0.29392838 0.25001353
0000d0 0a fd 39 be e1 99 03 be 0f 17 5c 3f e0 7c ff be
       -0.18162933 -0.12851669 0.85972685 -0.4989996
0000e0 d5 5f 02 bf 16 af 69 3f 4f 5d 0c bf 1e 73 29 bf
       -0.5092748 0.91282785 -0.5482988 -0.6619128
0000f0 27 d2 e4 3e 75 03 97 be 31 97 eb be f5 17 ed bd
       0.44691584 -0.29494825 -0.46013787 -0.11576835
000100 d9 bb 2a be c4 14 03 be a8 ec cf bd b5 42 29 be
       -0.1667322 -0.1280089 -0.101525605 -0.16529353
000110 79 f1 00 be 5e b7 d7 3d 4e 32 64 3e 2e b9 01 3e
       -0.12592115 0.105330214 0.22284815 0.12668297
000120 0a 12 2e be 4c 8c 96 be ec c0 f1 bd 76 9f 1b be
       -0.16999069 -0.29403913 -0.11804375 -0.15197548
000130 14 74 83 be 82 e2 75 bd ff db e0 bd 68 1c 3b be
       -0.25674498 -0.060030468 -0.10979461 -0.18272555
000140 5f 3c f1 bd 56 31 5f bd 48 81 b0 bd 6d 5c 35 3d
       -0.11779093 -0.05449041 -0.086184084 0.044277597
000150 12 f0 de bd 59 a7 0f be b4 71 bf bc e2 e2 d4 3d
       -0.108856335 -0.14028682 -0.023369648 0.10394837
000160 4c 9f ed be f9 aa dd 3e a7 d6 a2 3e 3d 7d f0 3d
       -0.46410596 0.43294504 0.31804392 0.11742637
000170 22 02 e7 3d 84 da 94 3e 2e ad 70 3d 21 6d 74 3d
       0.11279704 0.29072964 0.058758907 0.059674386
000180 ad a6 89 bd 7f 31 a6 bd 4f 2c f6 bc 86 42 99 bd
       -0.06721244 -0.081149094 -0.030050425 -0.074833915
000190 de b7 32 be 90 14 60 bd 21 80 3f be 05 86 81 be
       -0.17452952 -0.05470711 -0.18701221 -0.2529756
0001a0 cf ef 06 be d3 dd a9 3c 43 c7 f9 bd 2d e0 3a bd
       -0.13177417 0.020735657 -0.12196209 -0.045623947
0001b0 cc 6b 90 be d6 49 65 be 41 e6 a5 3e c2 f5 2b bf
       -0.28207242 -0.22391447 0.32402232 -0.6717187
0001c0 0f 6f 12 bf e8 94 8e 3f 7f 18 b6 be f4 46 92 be
       -0.5720071 1.1139193 -0.35565564 -0.28569758
0001d0 66 f0 af 3e
       0.34363097

tfeb.1.weight f4 [13]
000000 f4 0c 5a ba 83 de 11 bb fb d9 97 3e 16 46 8f 3e
       -0.000831797 -0.0022257871 0.29658493 0.2798316
000010 84 47 b4 3e 86 96 a5 3e 0a 0c 1a 3f 7a 4c 96 3e
       0.35210812 0.32341403 0.6017462 0.29355222
000020 15 c4 6c 3f c5 c4 c6 3e b9 6b 89 3e a0 00 00 3f
       0.924867 0.38821998 0.26839998 0.50000954
000030 21 be 03 3f
       0.5146199

tfeb.1.bias f4 [13]
000000 44 66 47 bc cd f8 6b bc 1c 19 28 3e 1b e1 6b 3e
       -0.012170378 -0.01440258 0.16415828 0.2303509
000010 bb fc 96 3e 71 4c c0 3e af 7f 15 3d 47 46 73 3d
       0.29489693 0.3755832 0.03649872 0.059393194
000020 7d 84 87 be 93 19 15 bd 64 37 3f 3e b1 8c 37 3d
       -0.26468268 -0.036401343 0.18673474 0.04481191
000030 44 e5 06 3e
       0.13173395

tfeb.1.running_mean f4 [13]
000000 70 0a 95 3c 69 5f a8 3c 22 a6 f2 3b 55 84 f2 3d
       0.018193454 0.020553308 0.0074050585 0.118416466
000010 46 08 85 be f2 4b a2 be 63 19 90 be d6 75 10 be
       -0.25982875 -0.31698567 -0.2814437 -0.14107451
000020 06 22 0b bf e6 8a ed bd 34 7c 98 3e 1a ca c5 be
       -0.5434879 -0.115987584 0.2978226 -0.38630754
000030 9c 37 66 be
       -0.22482151

tfeb.1.running_var f4 [13]
000000 18 e8 41 3a 9e fb 62 3a f5 ef b9 3d 9f ea 00 3e
       0.00073969504 0.00086587097 0.09078971 0.12589501
000010 f8 1d 3c 3e b9 d0 66 3e cc e4 bc 3e bb 5f 11 3e
       0.18370807 0.22540559 0.36893308 0.14196675
000020 9a 1d 14 3f a3 fe 50 3d b9 2e 74 3e 65 62 9e 3e
       0.5785767 0.05102409 0.23845948 0.30934444
000030 f0 a4 7e 3e
       0.24867606

tfeb.4.weight f4 [25, 13, 3, 3]
000000 8c c9 1a 3b 67 97 29 bb ea f0 8d 3a cd 21 5c ba
       0.0023618666 -0.0025877596 0.0010829244 -0.00083973707
000010 7e e2 9f bb 70 e0 41 bb 55 5a 16 3b cd b7 ba ba
       -0.004879295 -0.0029583238 0.0022942026 -0.0014245451
000020 93 80 d4 b9 cf 4e e4 3a 2a fc ae bb 1c 20 7a 3b
       -0.00040531586 0.0017418506 -0.005340119 0.0038166111
000030 82 ef 0f 3b fd 18 d1 bb e9 c1 44 3b 1e 15 3f 3b
       0.0021962826 -0.0063811527 0.0030022806 0.0029156874
000040 56 47 43 bb fe d9 98 3b 47 a8 98 3d ab ce 09 bb
       -0.0029797158 0.0046646586 0.07453971 -0.0021027725
000050 ab 1d 76 3d 0d 11 c6 bd e8 d6 36 be 1c 82 0c be
       0.060086887 -0.09671221 -0.17855418 -0.13721508
000060 27 78 4d 3d 26 61 d7 bd a0 af 18 bd 51 76 03 bd
       0.050163414 -0.105165765 -0.037276864 -0.032095257
000070 92 7c 92 bd a9 04 92 bc b7 5b 9b bd 5e 1e 6b bd
       -0.07152666 -0.017824488 -0.075858526 -0.057402007
000080 c1 ec 52 3a 3e a8 dd bd 30 99 0e bd 0f 14 04 3c
       0.00080461433 -0.10823105 -0.03481406 0.008061423
000090 8d 1c a8 3d 5a e4 4f 3d 38 ec c5 3d d1 8a ad bc
       0.08208571 0.050754882 0.09664196 -0.021184357
0000a0 f7 6a 61 bd 07 1d 80 bd 10 36 c5 3c ea df 29 3c
       -0.05503365 -0.062555365 0.02407363 0.010368327
0000b0 3f 79 b4 3c c1 21 6e bd 34 6e de bb af c4 39 bd
       0.02203047 -0.05813766 -0.0067880396 -0.045353588
0000c0 ec 38 dc 3c 71 85 c9 3c 6f 5d 16 bd 04 6a 31 3d
       0.026882611 0.024599763 -0.0367102 0.043313995
0000d0 79 ed 9b bb 7e e0 56 3b c1 fd db 3d 8f d4 ba 3d
       -0.0047585336 0.0032787616 0.10741759 0.091225736
0000e0 18 1f 3a bd 2e 70 15 be 84 ce 31 bd 5d b2 91 be
       -0.04543981 -0.14593574 -0.04340984 -0.28456393
0000f0 fd d2 f2 3c 32 23 0c be 44 a9 e1 bd b9 be 57 bd
       0.029641623 -0.13685301 -0.11018613 -0.05267212
000100 f0 95 bb bc a8 4e 90 3c b3 d5 6c 3d 0a b6 8f 3d
       -0.022898644 0.017615631 0.057820987 0.07017143
000110 46 0f a4 3d 91 97 0c 3b 0b 06 33 bc 44 87 80 bc
       0.08010726 0.0021452645 -0.010926734 -0.0156895
000120 3e 5e 69 3b 4b 54 5a 3c 60 17 47 3d 34 c6 e8 3c
       0.0035609151 0.013325761 0.048606277 0.028414823
000130 0e 1e 08 bb 7e a8 2c bb 4b 11 b6 3d 84 50 0a 3d
       -0.0020769867 -0.0026345546 0.08890017 0.033768192
000140 b5 14 45 bb 22 2c 83 3b 35 bf ed bd 9d 10 f6 3c
       -0.0030072157 0.004003064 -0.116087355 0.030037219
000150 e1 35 21 3b 9f f1 da bd 5a 46 eb 3c 94 55 b2 bc
       0.0024598765 -0.10690617 0.02872007 -0.021769322
000160 69 ee 99 bd 61 82 15 3c bd ec 6f 3d 5a 10 be 3d
       -0.07516176 0.009125323 0.05857538 0.092804626
000170 55 c2 97 3d a7 3e 17 be 94 65 a2 bd 5d c4 90 bd
       0.07410113 -0.14769994 -0.07929531 -0.07068703
000180 bc 1d 4a bd 39 c6 f0 bc 02 df 86 bc ff 6f 23 bd
       -0.049344763 -0.029391395 -0.01646376 -0.03990173
000190 fb ee 39 bc 77 ac 6c bc 9f 54 87 3d 43 bd 42 3d
       -0.011348481 -0.014445416 0.06607937 0.047543775
0001a0 50 cf 4f 3c cd bb 18 3d b5 c1 92 3c 0c bc a3 bc
       0.0126837045 0.037288476 0.017914632 -0.019987129
0001b0 53 28 05 3d 67 ac 40 be 07 cc f6 bc d5 d6 57 3d
       0.03250916 -0.18815766 -0.030126585 0.052695114
0001c0 9e 74 3b be 70 8a 10 bc 6d dc fe bb 4f d3 67 bd
       -0.18306205 -0.008822069 -0.0077777416 -0.056598004
0001d0 d3 f8 9c bc 0c 40 bd 3a ad c4 ad ba 5e ea 44 b9
       -0.019161617 0.0014438643 -0.0013257466 -0.00018779325
0001e0 5c 40 34 ba b7 31 41 ba 66 9d 23 ba 35 4e 09 3b
       -0.00068760454 -0.0007369774 -0.0006241411 0.0020951156
0001f0 44 5b 92 3a f6 54 0d ba 14 87 27 bb b0 21 2a bb
       0.0011166115 -0.00053913833 -0.002556269 -0.002596002
000200 03 d5 91 ba db 10 2e 3b be fd 9a 3a 01 fb 0e 3b
       -0.0011126105 0.002656034 0.0011824889 0.002181709
000210 c3 73 2a 3b f4 24 ff 3a 50 88 62 3b a4 3e e4 bc
       0.002600894 0.0019465969 0.0034566112 -0.0278619
000220 cb a3 76 bc a1 6b a2 bd fb 02 04 bd c9 6d 68 3d
       -0.0150537 -0.07930685 -0.032229405 0.056745324
000230 cd 68 13 bd 8e 72 24 3d a4 84 4e 3d f5 9e 1b 3c
       -0.035988618 0.04014831 0.050419465 0.0094983475
000240 f7 1e 71 3d c2 27 9c 3c e7 20 1a bd 63 c7 f4 3c
       0.05886742 0.019061927 -0.037629034 0.029880231
000250 92 84 9e bd 4f 6a 15 be d3 a9 60 3d 67 d6 87 bc
       -0.077401295 -0.14591335 0.054849457 -0.016581727
000260 53 99 81 bd e9 03 97 3b f2 ee a1 bd ce df 88 bd
       -0.063280724 0.0046086204 -0.07906903 -0.06683312
000270 2b a8 d1 bd 99 48 0a be 29 d3 94 bd 92 7f 8b bd
       -0.102371536 -0.13504256 -0.07266838 -0.068114415
000280 dd 96 83 bd c7 b2 5e bc ed 15 dd 3c 27 a7 a4 3b
       -0.06425259 -0.0135924285 0.026987994 0.005024809
000290 02 d3 a2 bc 37 48 af bd 9a 59 90 bd d1 06 29 bd
       -0.019876007 -0.08558696 -0.0704834 -0.041266266
0002a0 47 f1 c5 bd b4 61 af bd 18 83 a7 bc d2 70 36 bd
       -0.096651606 -0.08563557 -0.020448253 -0.044541188
0002b0 57 d6 98 bd 45 36 37 be 8b 29 49 be 88 12 3d bd
       -0.07462757 -0.17891796 -0.19644754 -0.04616025
0002c0 33 74 2a be 14 02 89 bd 94 b5 12 bd 50 6f a1 bd
       -0.16645889 -0.066898495 -0.035817698 -0.07882559
0002d0 eb 17 b6 3d 2e dd b5 3d 65 4d 69 3d 7b 82 9e bd
       0.08891281 0.08880077 0.056958575 -0.07739731
0002e0 47 03 a4 bd b2 83 81 bd 8c ac 12 bb c8 52 7d 3c
       -0.080084376 -0.06323947 -0.0022380678 0.015461631
0002f0 37 f8 62 3d 9b 16 2f 3d f7 73 13 3c 20 ca 95 bb
       0.055412497 0.042746168 0.008999816 -0.0045712143
000300 a4 59 ad bb 40 41 0a bd 4b 71 57 39 80 f1 82 bc
       -0.005290227 -0.033753633 0.00020546203 -0.015984297
000310 15 95 fd bc 0e ea 9c 3c 56 66 09 3d e9 b4 37 bd
       -0.030954877 0.019154575 0.03354486 -0.044850264
000320 41 1e b4 bc 76 e5 23 bd a3 73 18 be 3c 3b ae bd
       -0.021987082 -0.040013753 -0.14887862 -0.08507392
000330 ff 93 11 bd 45 6c 5a bd e2 8e 3c bc b2 dc 2c bd
       -0.03554153 -0.05332591 -0.011508675 -0.04220266
000340 86 ad 28 bb d2 bd 78 bd 1f 3e 3c 3c 18 e4 c5 3d
       -0.0025738194 -0.0607279 0.01148942 0.09662646
000350 4a fd 8e bc 8e 82 93 3d 02 6b e6 3d 4f 97 98 3c
       -0.017454762 0.07202636 0.11250879 0.018626837
000360 fa ca 9e 3d db 35 80 3d d6 98 3a 3d 36 66 ee bc
       0.077535585 0.06260272 0.045555912 -0.029101472
000370 b1 68 32 bd 49 7a 81 bc 2c 6d 96 bd 59 c4 79 bd
       -0.043556873 -0.01580538 -0.07345042 -0.060978267
000380 dd ac 98 bb 9e 5b 1d 3d 8b 1a b2 bd 93 29 fa bd
       -0.004659279 0.03841745 -0.08696469 -0.12214961
000390 77 d0 d7 bb e7 6d 5e be 67 2e 51 be 37 ce a4 bd
       -0.0065861302 -0.21721612 -0.20427857 -0.08047145
0003a0 ef b0 fe bd c3 27 db bd ce 6d 01 ba f7 21 93 3a
       -0.12436091 -0.10700943 -0.00049373216 0.0011225332
0003b0 6f 1a a6 3a a4 41 17 bb c8 90 17 bc 9d 53 5b bb
       0.0012672673 -0.0023079896 -0.009250827 -0.0033466585
0003c0 00 23 ae bb 7c 84 7d ba 4f 82 3d bb 6e a2 27 bb
       -0.005314231 -0.0009670926 -0.0028916781 -0.0025578993
0003d0 fb 30 9e 3a 81 e0 df b8 9e 63 d7 bb 78 46 3e bb
       0.0012069041 -0.00010675286 -0.0065731546 -0.0029033702
0003e0 c5 ff 98 bb 71 22 46 bb af 78 c7 ba 9f 48 cf 3a
       -0.004669162 -0.003023293 -0.0015218462 0.001581449
0003f0 b6 70 e0 bc 69 b5 9b bd f3 58 9e 3d ad fe 6d bd
       -0.027397495 -0.076029606 0.077318095 -0.058104206

tfeb.5.weight f4 [25]
000000 8f 44 e4 3e f0 38 44 3e 8a 44 ac 3e 98 8d 8a 3e
       0.44583556 0.19162345 0.3364604 0.27061152
000010 c3 f3 e6 3e 70 d8 bb 3e b0 57 7b 3e b5 4e 8c 3e
       0.4510785 0.36688566 0.24545169 0.274038
000020 97 b6 20 3f 6f 9a a6 3e cb 5c 62 3e 32 6b 19 3f
       0.6277861 0.32539698 0.2210571 0.5992919
000030 2a b7 f8 3e e3 28 18 3f b5 98 46 3e 0c 18 7e 3e
       0.48577243 0.5943739 0.1939419 0.2481386
000040 49 e7 a7 3e a0 14 70 3e 51 8c ef 3e a7 d6 5f 3e
       0.32793644 0.23445368 0.4678674 0.21859227
000050 4d d0 e3 3e a1 7f 64 3e 7b a3 6b 3e 54 dd a0 3d
       0.44494858 0.22314312 0.23011582 0.07854715
000060 83 db 50 3e
       0.20396237

tfeb.5.bias f4 [25]
000000 f3 cb 2f 3d 75 60 71 3e 3f 9d 46 bc f9 07 33 3d
       0.04291911 0.23571952 -0.012122451 0.043708775
000010 41 20 1f bd 29 a6 f1 3d 92 9f 25 3e bc e3 4e 3d
       -0.03884912 0.11799271 0.16174152 0.050510153
000020 8f e9 8c bd 92 b6 13 bd 3d 98 00 3e 28 93 97 bd
       -0.06880485 -0.036062784 0.12558074 -0.07401115
000030 3d 68 40 be 5d f2 bd bd d9 45 3b 3e 4e 30 12 3e
       -0.18789764 -0.09274743 0.18288364 0.1427624
000040 1b ec 19 bc 94 fb 01 bd b9 d6 8a bd 79 5e 9d 3e
       -0.009394671 -0.031734064 -0.06779236 0.3073614
000050 16 b7 0f be b8 da 92 3e 74 6a 7f 3e 76 cb 81 3d
       -0.14034685 0.28682494 0.24942952 0.06337635
000060 6b 99 93 bd
       -0.072069965

tfeb.5.running_mean f4 [25]
000000 e7 b7 f2 be a0 e8 7a bf 79 89 af bd 8e b3 03 3d
       -0.4740593 -0.9801121 -0.08571143 0.03215366
000010 06 8b 27 bf c3 e4 d9 be ee 46 fc be 38 41 c0 be
       -0.6544651 -0.42557344 -0.49272865 -0.37549758
000020 74 70 03 bf 21 54 e1 be 72 d1 f0 be c4 e6 eb be
       -0.51343465 -0.44009498 -0.47034794 -0.46074498
000030 fb db e7 3d 86 d5 91 be 9a e4 d0 be 24 81 1d be
       0.11321255 -0.28483218 -0.4079941 -0.15381294
000040 69 d1 1b bf c0 1c d5 bd 98 db d6 be 29 12 b1 be
       -0.6086641 -0.10405874 -0.41964412 -0.34584168
000050 2f f3 78 bd 7e 02 2a bf 54 e2 21 be 22 bd 75 be
       -0.060778793 -0.6641005 -0.15808994 -0.2399793
000060 05 41 ee 3d
       0.11633495

tfeb.5.running_var f4 [25]
000000 9f 2e 2e 3e 4c 30 30 3e 69 87 f4 3d 2c fd 32 3d
       0.17009972 0.17205924 0.1193989 0.043698475
000010 f9 77 48 3e 66 c4 df 3d 9d 9c b3 3d 56 81 6f 3d
       0.19577016 0.10926132 0.08770106 0.058472954
000020 ad bf 6b 3e c5 93 85 3d 7a 66 18 3e b8 f3 84 3e
       0.23022337 0.065223254 0.14882842 0.25967193
000030 66 dd dd 3d 54 88 e1 3d 37 49 a6 3d 1c 2a e2 3d
       0.10833244 0.11012331 0.081194334 0.11043188
000040 71 d1 a5 3d 7d a5 d8 3c 5d 40 ef 3d 0b ee a9 3d
       0.080965884 0.026446098 0.11682198 0.08297356
000050 1f 62 e6 3d 4e 97 6d 3e ec d9 f5 3d 75 3b 7a 3c
       0.11249184 0.2320225 0.12004456 0.015272965
000060 4f a4 11 3d
       0.035557088

tfeb.7.weight f4 [28, 25, 3, 3]
000000 94 4a c0 3c cf 1c ae 3c 3a ff 2e 3d cd a9 e4 3c
       0.023473062 0.021253971 0.04272387 0.027912999
000010 fd 17 93 3c 57 8c de 3b 3a c0 1c 3c 67 73 12 3d
       0.017955774 0.006791632 0.009567315 0.035754588
000020 b7 9a f3 3c e4 a3 f1 3b 85 5f 6f bc a8 1a d3 bc
       0.02973686 0.0073742736 -0.014610176 -0.025769547
000030 29 e3 98 3d c7 33 cb 3d f7 d9 86 3d c7 94 0d 3d
       0.07465202 0.09921985 0.06584542 0.034565713
000040 84 3e 85 3c a7 7d a2 bc 5f 0a fc bc 94 90 6a bc
       0.016265161 -0.019835306 -0.030766664 -0.014316697
000050 03 31 06 bd 99 49 ed bd 73 01 b1 bd 97 1e 87 bd
       -0.032761585 -0.11586303 -0.086428545 -0.065976314
000060 45 6f d8 bc a4 7d 5d 3c 7e 69 0b 3d 61 05 18 bd
       -0.026420245 0.013518725 0.034036152 -0.037114505
000070 b7 1e da bc 2c 3d 10 bd b7 8a 1b bd 3a 03 43 bd
       -0.026625974 -0.035214588 -0.037974086 -0.0476105
000080 2b b0 9a bc 27 09 0c bc 96 e3 bf bc 4c 16 a6 3d
       -0.018882832 -0.008547104 -0.023423951 0.081097215
000090 36 b5 d2 3b 57 62 2b 3d 92 63 94 3d 3e 12 1f 3d
       0.0064302934 0.04184183 0.07245554 0.038835756
0000a0 cd 97 7e 3d d1 76 9b 3d c1 1f 89 3b 52 e1 d8 3c
       0.062156487 0.07591022 0.0041846936 0.026474629
0000b0 5a 5a 52 3d ce cb 8f bd 15 ba 55 bd fe 8b c7 bb
       0.051355697 -0.070212945 -0.052179415 -0.0060896864
0000c0 d9 8a 89 bc 28 c0 dd 3c 04 5d 9a 3c 6c f2 14 bd
       -0.01678984 0.027069166 0.018843181 -0.036364004
0000d0 68 3b 96 3c 96 bc 7f 3c be 87 e2 bd e7 a9 21 bd
       0.018338874 0.015608927 -0.11061047 -0.039468672
0000e0 ba 18 5b bd 4a 7d af 3b 7a b8 1b bc 8c 03 4c bd
       -0.053490378 0.005355512 -0.009504432 -0.04980807
0000f0 94 56 2c 3c 7a 0c 13 3d 93 cf e3 ba 07 5c 43 bc
       0.010518689 0.03590057 -0.0017380588 -0.0119237965
000100 7b 27 61 bc 76 51 90 ba 7d 62 35 3c a1 d3 5f 3d
       -0.013742323 -0.0011010605 0.011070845 0.054645184
000110 da bc e7 3c 28 ac a2 3b 8b 9c d5 3c a3 bb 63 3c
       0.028288294 0.0049643703 0.026075622 0.013899717
000120 aa e8 36 bd c5 2a 11 bc d7 d1 0b bd 69 74 29 3d
       -0.04465548 -0.008860295 -0.034135666 0.041370783
000130 a9 1b f2 3d 2c 55 99 3d 7f 3d 10 3c 35 2d 3e 3d
       0.11821682 0.07486948 0.008803724 0.04642983
000140 87 9d 55 3d 46 5f 33 3c 73 bc ea 3b c5 52 92 3c
       0.052152183 0.010948008 0.007163578 0.017861733
000150 e4 58 eb 3b 91 d7 a3 3c d6 1f 39 3c f8 a3 8e 3c
       0.0071822274 0.020000251 0.011299094 0.01741217
000160 d1 d0 e0 3c be 2d 54 3c c3 b0 08 bd bc 56 ce bc
       0.027443321 0.012950359 -0.033371698 -0.025187843
000170 6f 91 82 bd 24 b0 81 3d c1 95 af 3d 56 bd 7e 3d
       -0.063753955 0.06332424 0.08573485 0.062192284
000180 e2 18 c6 3c da 54 bc 3b a8 be 69 bd 78 1d 31 bb
       0.024181787 0.00574742 -0.05706659 -0.0027025621
000190 d5 13 3d 3d 0f 69 30 3d f9 c9 bf 3c 17 81 b7 3d
       0.04616149 0.04306894 0.023411738 0.08960169
0001a0 bb 96 26 3d fc 7b 32 bd f3 e2 1c ba 0b 4b 6a bd
       0.04067109 -0.043575272 -0.0005984746 -0.057200473
0001b0 fe 9c 0d bd fe 50 cf bb 45 39 ec bb 1c fd 00 bd
       -0.034573548 -0.0063267937 -0.0072089755 -0.031491384
0001c0 c1 8e e2 bc cb 94 e4 bb 4d 6a 88 3b 9e 06 04 bd
       -0.027655961 -0.0069757453 0.0041630627 -0.032232873
0001d0 1a 77 3a 3d f7 de 95 bc c3 38 78 bc d0 74 a7 3b
       0.04552374 -0.018294794 -0.015150252 0.0051103607
0001e0 ac 88 21 3c 01 cd 02 bc a7 47 be bc ea f7 bd 3c
       0.009859245 -0.007983447 -0.023227526 0.023189504
0001f0 8a 4f 35 bb 47 c7 18 bd c0 cd 97 bc 44 03 c4 bc
       -0.0027665817 -0.03729942 -0.018530726 -0.023927338
000200 8f a3 42 bb 4f 26 df bc e1 a2 a1 bc 1f 28 c6 bc
       -0.002969954 -0.027239947 -0.019730987 -0.024189053
000210 94 fb 45 3d ef eb 95 3d ac 11 81 3d 3a 2f 99 3d
       0.048335627 0.073203914 0.06302199 0.07479711
000220 44 5a 87 3d c8 3f 1b 3d 9d c2 9b bb e6 3f fa 3b
       0.06609014 0.037902623 -0.0047534243 0.007637012
000230 c1 f5 34 3d 45 27 a3 bd 5d ee 9b bd 03 5c 06 bd
       0.04417968 -0.079664744 -0.076138236 -0.032802593
000240 29 80 40 bd 2c 92 eb bc e2 09 4a bc 1d 5a 03 3c
       -0.046997223 -0.028756224 -0.012331458 0.00801709
000250 d6 89 93 b8 a8 54 0f bc d4 5c 59 3a 0c 25 d3 3c
       -7.03518e-05 -0.008748211 0.00082917255 0.025774501
000260 21 e0 11 3d b5 cb a2 3b d4 fa ac 3c b2 d1 40 3d
       0.035614137 0.0049681314 0.021115698 0.04707498
000270 17 bc b3 bc 0a 00 d2 bc ad e8 cc 3b 52 29 01 bc
       -0.021940274 -0.025634784 0.006253323 -0.007883387
000280 6a 5e 59 bc 3a 9e b3 bb b2 40 20 bc f1 27 9d bc
       -0.013267139 -0.0054815086 -0.00978105 -0.019184085
000290 1e 8c d6 bc 4b 7e c0 bb ff 3b 27 3d 1f cb e9 3c
       -0.02618986 -0.0058744303 0.0408287 0.028539238
0002a0 de cc 0b 3d 9c fa 8b 3d 73 5b 25 3d a7 5b 14 3d
       0.034130923 0.06834909 0.040370416 0.03622022
0002b0 8d b5 87 3c 8c f0 fa 3c b3 cc 14 bb d0 57 cc bc
       0.016566062 0.03063228 -0.0022705018 -0.024944216
0002c0 07 a6 11 3d 04 d5 2b bc f2 4a f5 bc d5 ac 6d 3c
       0.035558727 -0.010487799 -0.029942963 0.014506538
0002d0 99 e7 e3 bc 8c 52 24 bc 20 e6 c7 3c de 62 21 bd
       -0.027820395 -0.010029446 0.024401724 -0.039400928
0002e0 e4 e9 64 bd 1f 0c 6d bd c1 dd dc 3b 4b 0b 12 bc
       -0.055887118 -0.057872888 0.0067403023 -0.008913825
0002f0 6d 10 e2 bc de 51 66 bd ba 77 f5 bc 35 2f 75 bb
       -0.027595723 -0.05623042 -0.029964317 -0.003741217
000300 d5 ff 8b 3d 02 30 ac 3d 7d 76 c8 3d 87 17 00 bd
       0.068359055 0.08407594 0.09788225 -0.031272437
000310 28 ba f4 bb 25 a5 53 3d 56 e4 11 3d 6a 77 11 3d
       -0.0074684806 0.051671166 0.03561815 0.035514273
000320 de 1e dd 3c b2 59 41 bd 20 d8 86 bd 2a 08 a4 bd
       0.026992258 -0.04720468 -0.06584191 -0.0800937
000330 08 d5 a8 3d 99 d8 c3 3d 89 31 ad 3d e2 fc 90 3b
       0.082437575 0.09562797 0.08456714 0.004424677
000340 73 0f 86 bb be 7e bf bb a6 47 df 3c 8f de c8 3c
       -0.004091197 -0.0058439663 0.027255844 0.024520187
000350 94 82 18 3d 1b 49 46 3c e0 a0 2a bc 91 5c 3a 3c
       0.037233904 0.012102391 -0.010414332 0.011374609
000360 31 d7 11 bc 10 96 bf bc 65 6a 03 3a 41 9d b3 3c
       -0.008901403 -0.023386985 0.00050131074 0.02192557
000370 25 d3 c8 3c 6b e5 87 3d 8b 38 b9 bc e1 62 07 bd
       0.024514744 0.06635555 -0.02260997 -0.033053283
000380 4d d0 45 bc 11 71 a6 3d 8f e0 46 bd c1 5e 7a bd
       -0.012073589 0.081270345 -0.048554 -0.06112552
000390 8d 99 35 3d aa d0 03 be 99 4b 02 be 4c 82 25 3e
       0.04433589 -0.12872568 -0.1272415 0.16162986
0003a0 3b 08 4e bd da 94 8d bd 8e 9f 21 3d 27 89 97 3c
       -0.050300818 -0.06913157 0.039458804 0.018498017
0003b0 ca da 63 3d 8f 75 b0 3d 68 95 5e 3d 0b de e3 3b
       0.055628575 0.086161725 0.054341704 0.00695396
0003c0 0a 91 43 3d e8 3e 88 bb d4 2e c7 bc ee 06 17 bd
       0.047745742 -0.0041578896 -0.024314322 -0.036871843
0003d0 29 d6 ab 3d a4 21 54 3d 87 ce 53 bd 37 49 73 bd
       0.08390457 0.051789895 -0.05171063 -0.059395995
0003e0 a2 3c 7d bd 71 dc df bc f1 af 88 bd 03 fd 1d be
       -0.061825402 -0.027326794 -0.06674183 -0.15428548
0003f0 e5 69 bb 3c 82 9e 82 bc 87 cf ac bd 82 e4 7d bd
       0.022877643 -0.015944723 -0.0843802 -0.0619855

tfeb.8.weight f4 [28]
000000 be 37 7a 3e ff a0 fc 3e 59 50 75 3e 14 8e b1 3e
       0.24435326 0.4934158 0.23956431 0.3467871
000010 8b 43 d4 3e fa fe b5 3e 79 af 94 3e 7b 30 72 3e
       0.4145778 0.35546094 0.29040125 0.23651306
000020 7b 09 2c 3e 9b 6d db 3e a9 1f 99 3e 48 cb d5 3e
       0.16800492 0.4285706 0.29906967 0.41756654
000030 db 88 9a 3e be 1e 7f 3e 8f 0d 64 3e c0 e9 b5 3e
       0.30182537 0.24914071 0.22270797 0.355299
000040 63 d3 c5 3e 5d 04 fe 3e 27 60 d5 3e 24 80 c9 3e
       0.38637838 0.49612704 0.4167492 0.39355576
000050 8c 46 03 3f 33 20 b3 3e be e0 82 3e f7 65 97 3e
       0.5127952 0.34985504 0.2556209 0.2956998
000060 a8 a4 fa 3e 73 c2 bb 3e 9a f5 c7 3e ab 8d 66 3e
       0.48953748 0.3667179 0.39054567 0.2251498

tfeb.8.bias f4 [28]
000000 97 f9 12 3e 7f fc a7 bd 86 0e 82 3c 80 39 29 bd
       0.14353023 -0.08202457 0.015876066 -0.041314602
000010 d2 86 b6 bd 30 30 85 3c f4 d4 8d 3c 75 72 af 3d
       -0.08912434 0.01625833 0.017313458 0.08566753
000020 a3 32 36 3d 5a 7a 69 bd 1c 7b 12 be 49 92 95 bd
       0.044481885 -0.05700145 -0.14304775 -0.07303292
000030 d0 36 36 bd d3 81 dc 3d 8e a8 3b 3e 53 b5 2e bd
       -0.044485867 0.107669495 0.18326017 -0.042653393
000040 fc 71 ef bd 0d 68 b3 bd a2 8c 56 bd 1c f5 89 bd
       -0.11691663 -0.087600805 -0.05238021 -0.06736204
000050 84 34 31 be bd 20 f2 bc e1 8f a8 3d a8 40 fb bc
       -0.1730519 -0.029556626 0.08230568 -0.030670479
000060 c5 f5 fe bc ac 5c 4b bd 38 84 8b bc c9 e2 e5 3d
       -0.031123051 -0.049648926 -0.01703082 0.112248965

tfeb.8.running_mean f4 [28]
000000 95 19 61 3e 10 dd 92 be 4c 48 12 be 8a 0a a1 bd
       0.21982415 -0.28684282 -0.14285392 -0.07863338
000010 d7 49 bf be 4d c4 fe 3b 32 e6 91 be 0d c8 9a be
       -0.37361023 0.0077748657 -0.28495938 -0.30230752
000020 26 b9 90 bd c9 9f 9c 3d c9 e4 e4 3d ef 6a 33 3e
       -0.07066564 0.07647664 0.1117645 0.1752126
000030 65 62 11 be 57 dc cb 3c bf 62 f4 3d fb 83 e5 be
       -0.14197691 0.02488534 0.11932897 -0.44827256
000040 a6 41 8b be 6b 97 0b bd de 9e 40 be 1f 1d 7c 3d
       -0.27198523 -0.03407995 -0.18810603 0.06155121
000050 5a f3 79 be 35 f3 59 be 28 a9 34 bf 5c 1c 80 be
       -0.24409238 -0.21284182 -0.7057061 -0.25021636
000060 ea 8a 1f be 1f 99 8f bd 3e 15 d0 be 02 6d e3 3e
       -0.15580335 -0.070116274 -0.40641207 0.44419104

tfeb.8.running_var f4 [28]
000000 49 89 12 3d cd 6f 13 3e ae d9 96 3c 42 a0 2f 3d
       0.035775457 0.14398117 0.018414345 0.042877443
000010 80 b4 b1 3d b5 3b 22 3d 98 16 ed 3c de d6 3e 3d
       0.08677006 0.039607722 0.028941438 0.046591632
000020 ce d3 1c 3c 7a cf ce 3d 90 48 d3 3c 94 c1 1a 3d
       0.009571983 0.10098167 0.025791436 0.037782267
000030 c8 cc b2 3d d6 3a 82 3d ae 4e 86 3d 58 89 2e 3d
       0.08730465 0.06358878 0.06557976 0.04261145
000040 a1 fd 84 3d 14 99 25 3e 65 e4 05 3e 2d e8 85 3d
       0.064936884 0.16171676 0.13075407 0.06538425
000050 91 b6 c5 3d f1 e1 ab 3d 23 7e 31 3d 64 45 ac 3d
       0.096539624 0.08392704 0.043333184 0.08411673
000060 59 5a 82 3d 4f 07 30 3d 9e 35 25 3d d0 37 72 3d
       0.06364889 0.04297572 0.040334336 0.05913526

tfeb.11.weight f4 [32, 28, 3, 3]
000000 b4 59 d5 bc a4 a1 02 bd 21 67 11 bd b1 1c 05 3d
       -0.02604375 -0.031892434 -0.035498742 0.032498065
000010 76 da 1d 3d a4 6a bd 3c 24 1f 90 3d 86 38 72 3d
       0.03853842 0.02312214 0.070371896 0.059135936
000020 13 94 4e 3d 13 ce 12 bd cc cf c3 3b 77 de 03 bc
       0.050434183 -0.03584106 0.005975699 -0.008048645
000030 3a d3 26 b9 d6 67 25 3c c9 50 e8 3c e1 a0 c8 bc
       -0.00015909682 0.010095557 0.028358834 -0.024490776
000040 e2 5d f9 bb 7e e5 fb 3c b4 f6 96 bc 55 cc 03 bd
       -0.0076100687 0.030749079 -0.018428184 -0.032177288
000050 c3 b9 da bc 87 4a 7a bc b2 e4 b4 bc e9 97 88 bc
       -0.026699906 -0.015276558 -0.022081707 -0.016673999
000060 94 65 03 3d ab 17 9f 3c 2d df da 3c 8e ea 05 3d
       0.032079294 0.019420465 0.026717747 0.032694392
000070 23 56 c3 3c 8e 52 ed 3c 0d bf 21 3d 44 12 99 3c
       0.023844784 0.02897003 0.03948884 0.018685468
000080 f2 07 a2 bb 6b b0 c4 bb b4 76 70 3c f9 48 c5 bc
       -0.004944795 -0.006002476 0.0146767385 -0.024082648
000090 08 10 bc 3c 3f 2b 66 3c f9 b6 10 3d b8 5f c5 3c
       0.022956863 0.014048397 0.035330746 0.024093494
0000a0 5d 2a 3f 3c c5 3d e2 3c e8 e4 c5 bc e9 ef 97 bd
       0.011667815 0.027617345 -0.024157003 -0.07418806
0000b0 0b 69 af bc 1f fe 93 bc ae df b2 bc 55 61 5d bc
       -0.021412393 -0.01806551 -0.021835174 -0.013511975
0000c0 cb 09 b6 3c 53 c8 80 3c 32 44 08 bc 97 8f bc bc
       0.022221467 0.015720522 -0.00831704 -0.023017688
0000d0 4f 0b c9 bc 50 07 b3 3b aa 38 21 3c f0 15 7d 3c
       -0.024541525 0.005463518 0.00984017 0.015447125
0000e0 65 c1 51 3c fa 59 b7 bc 8d 79 9e bc 17 dc 8b bc
       0.0128024565 -0.022381771 -0.01934507 -0.01707272
0000f0 74 42 c6 bb 2b 16 a3 bc 5e 16 a8 bb 1c c0 17 bd
       -0.0060504023 -0.019908031 -0.0051296195 -0.037048444
000100 17 8e 25 bc a1 17 98 bc 1f 76 7d bd 1e f5 0b bd
       -0.010104678 -0.018565955 -0.061880227 -0.03416931
000110 a4 c5 86 bc 4a 68 ef bc c6 e5 46 bc 91 8c d1 3c
       -0.016451664 -0.029224534 -0.012139743 0.025579723
000120 13 df 06 bd 7b 44 00 bd 13 1e f2 bc a0 cb ab bc
       -0.032927584 -0.031315308 -0.029555356 -0.02097112
000130 e4 d0 b2 bc 21 b3 50 bc 67 b2 65 3b 36 94 5c 3b
       -0.021828122 -0.01273802 0.0035048963 0.0033657677
000140 be dc 25 3c 55 fa 02 bc d6 bc 20 3b 42 81 ea 3c
       0.01012343 -0.007994254 0.0024526617 0.028626088
000150 93 ee 7d 3c 8c 37 4e 3d b2 aa e4 3c 5b ac 3c bb
       0.015498775 0.050345942 0.027913425 -0.0028789255
000160 10 ed 89 3c db 4c 0c 3d 67 d7 30 3c f3 f5 2a 3c
       0.016836673 0.034252983 0.010793543 0.010434615
000170 c3 41 27 3c 6b fd 15 3d ed a3 14 3d 40 5a 14 3c
       0.01020855 0.03661863 0.036289144 0.00905472
000180 a1 31 ff 3c 73 01 26 3d 69 db 05 3d 90 a9 29 3b
       0.031151595 0.040528726 0.03267995 0.002588842
000190 26 d6 19 3d c5 6a 98 3c c3 1a 50 bc a1 d1 28 3c
       0.037557743 0.0186056 -0.012701693 0.010303886
0001a0 58 e3 a1 bc e4 76 be 3c b6 e0 a9 3c c7 8a 98 3c
       -0.019761726 0.02325005 0.020737033 0.018620862
0001b0 49 16 48 bd fa aa 79 bd 5d 61 63 bd 31 a9 8e bd
       -0.048849378 -0.06095407 -0.055512775 -0.069658644
0001c0 59 bb 9d bd a7 cb 89 bd a3 77 d9 3c 6e a9 29 3d
       -0.07701749 -0.06728297 0.026546305 0.041421346
0001d0 37 cc 61 3d 7d 59 e3 bc a3 b4 c2 bc bc 72 86 bc
       0.055126395 -0.027752632 -0.023767775 -0.016412131
0001e0 75 c6 3b 3c 97 1a 3b 3c b1 95 8e 3c ad 7c ca 3b
       0.01146089 0.011419914 0.017405363 0.0061794133
0001f0 25 ee ce 3c 90 8b 2a 3d 82 c3 98 bd fa 9a 9f bd
       0.02526004 0.041637003 -0.07459165 -0.07793231
000200 e4 ee a9 bd f4 d8 bf 3c 35 3e a7 3c 9d 7b 21 3d
       -0.08297518 0.023418881 0.020415405 0.039424527
000210 3e bd 2d 3d dc 1f e9 3c 0c 8b 36 3d e2 e5 bf 3c
       0.042416804 0.028457575 0.0445662 0.023425046
000220 f3 ac 2b 3d 67 7f 09 3d 64 f1 63 3b 7c 70 66 3c
       0.041912984 0.033568766 0.0034781331 0.014064904
000230 8e 20 90 3c 9d 44 a6 3c e1 4c c8 bb bb 9a 0c 3b
       0.017593648 0.02029639 -0.0061126803 0.0021454531
000240 3c 36 26 bd a7 e5 ef 3c a6 5b b5 3b 0d 5b 3d bd
       -0.040579066 0.029284311 0.005534607 -0.04622941
000250 9b 40 19 3d 3a d8 9f 3c 7a 22 46 bd ad a5 aa 3c
       0.03741513 0.019512285 -0.048372723 0.020830953
000260 bc 6a 5d 3d 56 a5 38 bd cf 74 08 bd 6f 9b 0a bd
       0.054056868 -0.04507955 -0.033314522 -0.03383964
000270 0c be 3e bd dc df 53 3d f6 aa 20 3d 07 b2 4e bd
       -0.04656796 0.05172716 0.03922554 -0.05046275
000280 a9 b2 db ba 94 a2 f4 3c 30 26 dc 3b ff e5 96 3b
       -0.0016761619 0.02986268 0.0067184195 0.0046050544
000290 d5 79 6c 3c 8d ef a7 bb aa 3c ea bc f9 20 43 bd
       0.014433344 -0.005124992 -0.02859338 -0.047638867
0002a0 21 a9 80 bc c0 1b 17 bd cc 58 18 bd b3 ff 7f bb
       -0.015705647 -0.0368917 -0.03719406 -0.003906232
0002b0 21 83 20 bc 94 d9 b2 bb 95 08 ef 3c 5b 64 15 3d
       -0.009796889 -0.0054580662 0.029178897 0.03647266
0002c0 da 12 49 3d 0e 08 bf bc b3 10 68 bc 90 a1 10 bc
       0.049090244 -0.02331927 -0.014164138 -0.008827582
0002d0 42 17 59 3c d8 c1 d2 bb 93 bb 3b 3b 34 60 bf bb
       0.013250174 -0.0064317994 0.0028645738 -0.0058403257
0002e0 97 b5 b9 bc 85 98 f2 bc ad cc b1 bc 5c 40 22 bd
       -0.022669597 -0.029613743 -0.021704042 -0.03961216
0002f0 c4 82 28 bd fc 1d 35 bd b6 f1 a1 bc 32 84 a5 bc
       -0.041140333 -0.04421805 -0.019768577 -0.020204637
000300 d4 f2 03 bd 69 f7 d6 bb 66 f2 b1 3c bd 6c 31 bd
       -0.032214 -0.0065602553 0.02172203 -0.04331659
000310 99 e3 5e bc 63 65 14 3c 3f ff b4 bc 1a 40 c1 3c
       -0.013604068 0.009057376 -0.022094367 0.023590136
000320 85 6b f2 3b e4 7c 83 bd a3 87 8b bc 9a 21 02 bd
       0.0073980712 -0.06420305 -0.01703245 -0.031770326
000330 0c 40 90 bc fd 1d 63 3c 8b 80 ae 3c d3 b3 4c bd
       -0.017608665 0.01386213 0.021301528 -0.04997618
000340 1e bb 06 bd dc 24 97 bc 86 f1 d9 bc 81 46 ea bb
       -0.032893293 -0.018450193 -0.026604425 -0.007149518
000350 ca ea 84 bc 56 2c d3 bc 1a ac 81 bb 30 8e 7d 3b
       -0.016225237 -0.025777977 -0.0039572837 0.0038689487
000360 7c 56 d5 3a c7 ad 8f bb ce 37 5f 3c 9a 86 99 bb
       0.0016276385 -0.0043847295 0.013624145 -0.004685235
000370 77 dc 97 bc 35 ca ac bc 9c 2f df bd cb ca bf bd
       -0.018537743 -0.021092514 -0.10897753 -0.093648516
000380 2a 98 ae bd 4a 5e 41 bc 89 9d e5 bb f1 99 26 3b
       -0.08525117 -0.011802265 -0.007007305 0.0025421346
000390 5d c5 9d bb 96 c3 81 3b 29 ac f0 3b 38 12 a5 3c
       -0.0048147873 0.0039600832 0.007344742 0.020150289
0003a0 44 dc 2c 3d ad ef 5d 3d 8b 1a 74 3b 67 11 16 3c
       0.04220225 0.05418365 0.0037247266 0.0091594225
0003b0 8f 87 14 3c 33 32 9f 3b cd 12 43 3c d2 c3 3b bb
       0.009065523 0.004858279 0.011906338 -0.0028650654
0003c0 b5 99 59 bc 3c dd bb 3b 57 a7 d9 3b a1 0d 12 bd
       -0.0132812755 0.0057331603 0.006642263 -0.03565753
0003d0 91 7c 1d bd 4f b6 51 bd 85 a4 5f 3d af 3b 80 3d
       -0.038448874 -0.051199254 0.054600257 0.06261384
0003e0 fe 21 8c 3d 06 3a 83 3d dd 83 7a 3d 64 ec 95 3d
       0.06842421 0.064075515 0.06116091 0.073204786
0003f0 7b 5e 0a be 34 3f 8f bd 72 81 32 3c 87 f9 18 be
       -0.13512604 -0.06994477 0.01089512 -0.14938937

tfeb.12.weight f4 [32]
000000 6f f9 98 3e d1 86 b7 3e ea c7 b1 3e d4 21 90 3e
       0.29877803 0.35845044 0.34722835 0.2815081
000010 c5 97 72 3e e2 0d e6 3e aa 89 bf 3e 35 cb d6 3e
       0.23690708 0.44932467 0.37409717 0.4195191
000020 85 31 15 3f 3f 70 a0 3e 73 d8 b5 3e df 62 d2 3e
       0.58278686 0.31335637 0.355167 0.41091058
000030 25 56 bc 3e e4 4b 9a 3e eb 98 b9 3e 07 1d 8b 3e
       0.36784473 0.30136025 0.3624948 0.27170584
000040 c7 74 cd 3e f8 d0 93 3e 67 5f a3 3e 6c b2 9a 3e
       0.40128157 0.28870368 0.31908724 0.3021425
000050 df 9e b6 3e fd c8 b7 3e 02 af c9 3e 2b 16 92 3e
       0.35668084 0.3589553 0.39391333 0.28532538
000060 7e 05 81 3e 5b 56 f6 3e 0e 35 30 3e 04 2d 79 3e
       0.25199503 0.4811276 0.17207739 0.24333578
000070 82 ab a2 3e a9 f5 e8 3e 44 5e d1 3e ab 3a 13 3f
       0.31771475 0.45499924 0.4089223 0.57511395

tfeb.12.bias f4 [32]
000000 0d 02 5b be e3 86 4b 3d 4c 63 13 be 66 97 20 bd
       -0.21387501 0.049689185 -0.14393348 -0.039206885
000010 4e b7 ae bd 58 c2 56 be 29 9b 9a bd f4 26 28 be
       -0.08531056 -0.20972574 -0.07549126 -0.1642111
000020 5e 92 d1 be 67 f7 8c 3d 51 b4 09 be 58 2d 9a bd
       -0.40931982 0.06883126 -0.13447692 -0.0752818
000030 d2 e6 e6 bd 10 f3 b7 3b cf 9b 2d be 65 6f b4 bd
       -0.11274494 0.005613692 -0.16953968 -0.08810309
000040 55 c1 25 be 9c 15 33 3e 07 36 72 bd 84 83 64 3d
       -0.16187032 0.17488712 -0.059133556 0.055789486
000050 6a b7 d2 bd bd c4 04 be d6 30 69 bd 97 4c 19 3e
       -0.1028889 -0.12965675 -0.05693134 0.14970623
000060 d4 84 39 bd f1 d3 71 bd 1a f3 0c be e4 e6 9a bd
       -0.04529269 -0.059040014 -0.13764611 -0.0756357
000070 3f 01 a1 bd a5 7b 31 be fd 2a 34 be 7f ae 3f be
       -0.07861566 -0.17332323 -0.17594524 -0.18718909

tfeb.12.running_mean f4 [32]
000000 75 cc bc bd b5 af 10 bf b7 47 95 be be c7 f6 3d
       -0.092186846 -0.5651811 -0.29156277 0.120498165
000010 5a ef 1f be 4f 34 64 bf 7a f2 15 be 83 58 ea be
       -0.15618649 -0.89142317 -0.14643279 -0.45770654
000020 56 25 34 bf 99 07 fa bd dc 56 5e be a1 7b 19 bf
       -0.7036947 -0.122084804 -0.21712822 -0.5995427
000030 6e 40 c8 be 49 43 1c bf a5 21 ea bd 17 5d a9 bc
       -0.39111656 -0.6104017 -0.114321984 -0.020674272
000040 93 a2 a8 be 08 3d e3 bd f7 9b 13 be 9f f4 fa be
       -0.32936534 -0.11095625 -0.14414965 -0.49014756
000050 24 67 b0 be 11 a9 21 bf 5e 68 ab be e7 79 e3 be
       -0.3445369 -0.631486 -0.33478063 -0.44428942
000060 8e db d3 bd 41 ba 42 bf a9 98 2d be db 9e bb bd
       -0.10344611 -0.7606545 -0.16952766 -0.09161159
000070 39 aa 08 be 59 15 d3 be 7e 9f 8d be 2a 6b 55 bf
       -0.13346185 -0.41227224 -0.27660745 -0.83366644

tfeb.12.running_var f4 [32]
000000 3f 95 7c 3d 27 24 c1 3e 8f e9 06 3e 45 cc ef 3d
       0.06166577 0.37722895 0.13175033 0.11708883
000010 d3 ea fd 3c 91 70 a8 3e e5 ae 54 3e 77 2e 38 3e
       0.030995762 0.3289838 0.20769842 0.17986475
000020 65 2f 97 3e 90 3a 20 3e a8 75 61 3e a4 ba 90 3e
       0.29528347 0.1564734 0.22017539 0.28267395
000030 04 02 1b 3e 90 f0 19 3e 8d 82 f2 3d 46 bd ff 3d
       0.15137488 0.15033174 0.11841307 0.12487273
000040 53 69 df 3d d9 f0 ad 3e 42 8d dd 3d 78 42 41 3e
       0.10908761 0.33972815 0.108179584 0.18873012
000050 a8 f0 c4 3d 1d 2f 41 3e 34 e1 89 3e cc 0c a1 3e
       0.09616214 0.18865629 0.2692963 0.31455076
000060 6f 78 e5 3c c5 4f 0c 3f 89 a4 8a 3c a4 91 fa 3d
       0.028011529 0.5480922 0.01692416 0.1223481
000070 a4 36 93 3d f6 2b 93 3e f7 96 30 3e 0f 8d 01 3f
       0.07188156 0.28744477 0.17245089 0.50605863
