trained_models/step_5_retrain_after_step_4/retrain_4C_after_2nd_pruning_prunratio0.85_2024060419/retrained_4Cmodel_ratio85.0_vaacc93.47826385498047_tracc_81.74342105263158@927epoch_20240604234527.pt (torch, 309234 bytes, 62 tensors)

sfeb.0.weight f4 [8, 1, 1, 9]
00000000: 6cb1 7b3e 7139 123e df86 8d3e aafe af3e
00000010: 58e1 ba3d 426d 81be 94b4 efbe b450 90be
00000020: c3c9 87bd 2957 0c3c aac7 bd3c 3617 5cbd
00000030: cee7 91be 2187 673d bbc8 44be e5eb 92be
00000040: 3b42 b63e 723e 0e3f 66b6 32be 1d75 65be
00000050: dc9d 493e 698b 893d 5bd6 36be 2131 60be
00000060: 2c10 023e 2f63 a0be 2446 d2be 63b9 2d3f
00000070: 465b ba3e bb28 37bd 40c1 01bc fbe5 24be
00000080: 8cf5 823c 8840 003e e36c 0bbc 3a8d 9d3d
00000090: 32bc 1bbf 170e aabe de9f 793d 5c0a ac3d
000000a0: 6244 933e e39b 473e d680 39be ed98 2b3d
000000b0: b803 f5bd b10f 9bbe 6732 0bbd 4161 3f3e
000000c0: bd65 aa3d 3136 d4be 6de0 b53d 5929 143f
000000d0: 0022 05bd e659 f9be 07ee 36bd 95d0 51be
000000e0: 8d39 6a3e 6dab 9ebd 9b06 e9be 50df f73e
000000f0: c11e 163c d9e0 dbbe d48b d83e 47de 433d
00000100: a390 5c3c bc9e 43be 648a febd e04c 313e
00000110: cfa2 5d3e 4dca 8ebc 96fc a03e 76ee 0c3f
0.245794 0.14279725 0.2764196 0.3437398 0.09125012 -0.2527867 -0.46817458 -0.28186572
-0.0663028 0.0085657025 0.023166496 -0.053733073 -0.28497165 0.056525353 -0.19217198 -0.28695598
0.35597405 0.55564034 -0.17452392 -0.22407956 0.19689125 0.067160435 -0.17855208 -0.21893741
0.12701482 -0.3132567 -0.41069138 0.67861 0.3639776 -0.044716578 -0.00791961 -0.16103356
0.015986226 0.12524617 -0.008509847 0.076929525 -0.6083404 -0.33213875 0.060943477 0.084004134
0.2876311 0.1949306 -0.18115553 0.04189389 -0.119636 -0.3028541 -0.033983614 0.18689443
0.08320186 -0.41447595 0.088806964 0.5787559 -0.032503128 -0.487014 -0.044660594 -0.20489724
0.22873516 -0.077475406 -0.45512852 0.4841256 0.009162606 -0.42944983 0.4229418 0.047819402
0.013462218 -0.19103521 -0.1242874 0.17314482 0.21644138 -0.017430449 0.31442708 0.5505136

sfeb.1.weight f4 [8]
00000000: da45 693f 39a9 443f 9c0a 313f f300 3f3f
00000010: aacc 453f 91fc 033f 701d ea3e ecec 2e3f
0.9112221 0.76820713 0.69156814 0.74610823 0.7726542 0.5155726 0.45725584 0.68330264

sfeb.1.bias f4 [8]
00000000: 14ba 203d a587 093d aa30 4c3d 94b0 663e
00000010: 3ccf 643d 05ca 413e 6c25 893d e7cc 5a3d
0.039239958 0.033576626 0.049851097 0.22528297 0.055861697 0.1892472 0.06696591 0.053418066

sfeb.1.running_mean f4 [8]
00000000: 6687 9d36 b45e e737 4f10 37b9 9699 2739
00000010: 5e55 b7b8 82b2 53b8 c317 3ab7 44c1 1e39
4.694727e-06 2.7581445e-05 -0.00017458315 0.00015983576 -8.742021e-05 -5.047257e-05 -1.1091996e-05 0.00015140051

sfeb.1.running_var f4 [8]
00000000: 1e63 d73c c305 693c 8c83 313c cbfa a23c
00000010: e16c ac3c 44ed d93b 7421 cc3a a384 6f3c
0.02629238 0.014222565 0.010834586 0.019894978 0.021048011 0.0066505987 0.0015573935 0.014619025

sfeb.3.weight f4 [32, 8, 1, 5]
00000000: bd1a 553d fdec 34be 475d 9bbc 4351 483d
00000010: 1b42 10be 407d a0bd a644 eebd 312a 60bd
00000020: 4bab c5bb 67ea 92bc 2c3b 6f3e 45c5 4b3e
00000030: 51ed 713e 49da 0b3e e38d aa3d c0a3 e2bd
00000040: 0bc5 22bd a6d3 83be 7189 51bd 369a e1bd
00000050: 61a4 243e 393c 323e 7e56 8c3d 33dd 313e
00000060: 7cc3 153e 12ba 663d f617 94bc 7918 70bd
00000070: b5f0 86bb 0770 cc3c 2885 ea3b 0b3e b0bc
00000080: 8b8e 003d e257 173d c12a 17bc 3e7c 71bd
00000090: de8e c0bd fb7f 16be 6fa5 e3bc 0979 31bd
000000a0: e601 2fbe 7a38 1ebe 1733 19bd 8f09 813d
000000b0: 8e12 b33d e54b 57bc 8020 14be cb07 eabd
000000c0: 8176 05bd a05b 81bd 15e8 ac3d b682 9f3d
000000d0: 2271 8d3d 468a 693e 4042 923e 0ece 62be
000000e0: 7fa0 dabd 740f bdbd f298 56bc bca2 edbc
000000f0: ac25 173e f081 083e 0484 3a3c e615 adbd
00000100: 15fc 313c a2b7 05bc 27dc dd3d 52e7 d1bc
00000110: c3ed e8ba 4068 923c 36d4 37bc b752 50bd
00000120: 7f2a 5fbc a630 d2bd 7959 17bd 2156 77bd
00000130: 7633 88bd 235b 7cbe 2343 2dbe 5355 d3bd
00000140: ab4a 06be fea1 54be bf5e f6bc 4cea a1bc
00000150: 751c c1bd e9e0 e0bd 453d 6cbd cdc5 73bd
00000160: 32f4 34be 3c27 0ebe a7e1 133e fb7f 5d3e
00000170: ce35 023e 15e1 3b3e ac8b 843e 1879 3ebe
00000180: f4b8 adbd b365 42be cbf1 e0bd 1050 babd
00000190: 0fcc 39bd f225 3c3c c3a0 453d a5db f73d
000001a0: 92bd 543d ee03 24bd d233 7f3d b679 4abd
000001b0: a8bb cc3d a250 183d ca7b 38bd b578 a8bb
000001c0: 5922 4abd 7c1a 83bd 21d8 f1bd 699b 12be
000001d0: 4c62 7ebe 65f1 84be 1e3a febd 7d5f fabd
000001e0: 9520 d2bd d190 6b3d 27d5 f8bd 90f7 8bbd
000001f0: e41c 68be 8c44 f7bd bbab e4bc 4d8a 6c3d
00000200: cbfe 82bc 97f4 abbd 043a a2be 3c5d 85be
00000210: ed17 67be a3f8 65be ad8e a8be 65c9 d13d
00000220: 0330 523e fbc4 8e3e e8c8 223e 844a f73d
00000230: 14d7 a0bd 5e95 f0bd e009 8cbe 1936 bbbd
00000240: 21b4 cfbd f6d2 143d 4765 1cbe a0e3 10be
00000250: 3dce 39be 1dc4 2bbe 9d46 ebbd 1f63 34be
00000260: 2c9e 6fbe f8d9 10be ec1d f9bd 4452 3a3e
00000270: 29ee 513e 027a 723e c227 b93e 28fe a13e
00000280: 84f6 0bbe 644b b3bd 633a 08be 7b16 cbbd
00000290: 4c68 1bbd 2ba4 a23d c2de bc3c 283d 1b3c
000002a0: 8790 953d db26 5d3c a50e f8bd 4bfb a5bd
000002b0: 8c09 dbbd ecf6 36be 3dc1 9fbd 7404 48be
000002c0: e2ea 06be 5fe2 dabc fdd8 c2bb f921 903d
000002d0: 149c d9bd 64b6 f0bc 1396 503d d741 0cbd
000002e0: 2c52 b8bd b6b0 0bbd 24a0 fdbc 2a70 dd3c
000002f0: 55fe 5ebd 2f8c d6bc c4c5 22bd a25d 423c
00000300: cbae b1bc d2e1 caba 5413 2fbd e387 81bd
00000310: 877a ff3c 7b9d c03d 6037 023e 1a68 3f3e
00000320: 064c 4bbd 6d95 25be 34b9 31be 2cee 4ebe
00000330: ca62 bcbd 167a c43d ddeb 673e 8cce d93d
00000340: c16a 8c3d ffe8 063e 1437 c53d 0a8f 4fbd
00000350: acca febc cf8e b6bd 92da 3fbe 02fd d3bd
00000360: b986 6abe c44c 5fbe 797d 95bd 32df b53c
00000370: f118 afbc 509b 503c 64b6 10bc 2384 2c3e
00000380: cce1 db3c 4528 4c39 3799 263d 04c8 523c
00000390: b35a 3b3d c559 82bd 3331 9a3d 93c9 7c3d
000003a0: fe72 9b3d 3f49 9f3d aa32 3cbb 6e3c 37bd
000003b0: 26fd 40bd ad26 403d 65a8 e13d 3c77 ee3d
000003c0: cdec fd3d 7e3e d33d 000b c33d 1ba4 b53d
000003d0: b998 af3d 8800 25be c941 40be 722f 62be
000003e0: e885 0cbd 006e 1fbc 0a09 a7bc 535b a23c
000003f0: fa68 d83d 4304 b13d 2396 363e df15 6e3e
0.052027453 -0.17668529 -0.018965377 0.048905622 -0.14087717 -0.078363895 -0.116341874 -0.054727737
-0.0060323826 -0.017934037 0.23362416 0.19899471 0.23625685 0.13657488 0.08327844 -0.11066389
-0.039738696 -0.25747412 -0.051156465 -0.110157415 0.1607833 0.17405786 0.068524346 0.17369537
0.14625353 0.056329794 -0.018077832 -0.05861709 -0.00411805 0.024955763 0.0071569867 -0.02151396
0.03138594 0.036949046 -0.009226502 -0.058956377 -0.0940225 -0.14697258 -0.027788846 -0.04332832
-0.17090568 -0.15451232 -0.03740224 0.06300651 0.087437734 -0.013140653 -0.14465523 -0.11427268
-0.032583717 -0.06316304 0.08442704 0.07788603 0.06906344 0.22806653 0.2856617 -0.22148916
-0.106751435 -0.09231463 -0.013097988 -0.029008262 0.14760464 0.13330817 0.011384014 -0.084514424
0.010863324 -0.008161457 0.10833006 -0.025622997 -0.0017771054 0.017871976 -0.011220029 -0.050860133
-0.013620972 -0.10263185 -0.036950562 -0.060384873 -0.066504404 -0.24644141 -0.16920142 -0.10319009
-0.13114421 -0.2076492 -0.030074475 -0.019765042 -0.09429256 -0.10980398 -0.05767562 -0.05951481
-0.17671278 -0.13882154 0.14441548 0.21630852 0.12715837 0.1834758 0.2588781 -0.18600881
-0.08482543 -0.18984108 -0.10983618 -0.09097302 -0.04536062 0.011483656 0.048249017 0.12102441
0.0519386 -0.04004281 0.06230528 -0.04943248 0.0999673 0.037186272 -0.04503993 -0.0051413425
-0.049349163 -0.06401536 -0.118088014 -0.14317097 -0.24842185 -0.2596542 -0.12413429 -0.12225244
-0.10260121 0.057511155 -0.121500306 -0.06834328 -0.22667271 -0.12073621 -0.027913919 0.05774908
-0.015990635 -0.08396261 -0.31684887 -0.26047695 -0.2256772 -0.22458129 -0.32921353 0.10243491
0.20526128 0.2788466 0.15896952 0.120747596 -0.07853523 -0.117472395 -0.27351284 -0.09141178
-0.10141779 0.036334 -0.15273009 -0.14149332 -0.1814508 -0.1677403 -0.11488078 -0.17615937
-0.23400182 -0.14145648 -0.1216391 0.18195444 0.20501007 0.23679355 0.36163145 0.31639218
-0.13668257 -0.08754614 -0.13303523 -0.09916397 -0.037941262 0.07941469 0.023055438 0.00947503
0.07302957 0.013498033 -0.12112168 -0.08104571 -0.1069518 -0.1786763 -0.07800529 -0.19532949
-0.13175538 -0.02671927 -0.005946277 0.0703773 -0.10625473 -0.029383846 0.050924372 -0.034242477
-0.09000048 -0.03410407 -0.03096015 0.027031023 -0.05444177 -0.026189892 -0.039739385 0.011863144
-0.021689793 -0.0015478677 -0.042743042 -0.063247465 0.031186355 0.09405037 0.12716436 0.18692055
-0.04963305 -0.16170283 -0.17355806 -0.20208043 -0.0919853 0.095935985 0.22648568 0.10635099
0.06856299 0.13174818 0.09629646 -0.050673522 -0.0311025 -0.08913957 -0.18735722 -0.10350992
-0.22902955 -0.21806628 -0.07299323 0.022201154 -0.021374198 0.012732342 -0.008832548 0.16847281
0.026841067 0.00019469958 0.04067346 0.01286507 0.045740794 -0.063647784 0.07528915 0.061715674
0.075902924 0.077776425 -0.0028716722 -0.044735365 -0.04711642 0.046911884 0.11018447 0.11643836
0.12398682 0.10314654 0.095235825 0.08869191 0.085740514 -0.16113484 -0.18775095 -0.22088411
-0.03430739 -0.009730816 -0.020390052 0.019818937 0.10566898 0.08643391 0.1783071 0.2325053

sfeb.4.weight f4 [32]
00000000: f659 3d3f 9679 d23e 85b1 493f 84b4 923f
00000010: e27d a83e 3409 bb3e 8702 133f a37a 153a
00000020: 83db db3e 585e 043f 409e 5d3c f171 1d3f
00000030: 20f8 163f a4e0 3e3f 3653 643f dd47 40ba
00000040: 8902 123f 4b17 da3e 69b7 0d3f 5352 8039
00000050: c90b 033f 9c53 0f3f d7b3 333f 54e2 d73e
00000060: f44e 1d3a 5334 433a cfc2 c53e be4d 053f
00000070: a5f2 b63e 2f4c 0a3f e5e0 d43e 5086 ca3e
0.73965394 0.41108388 0.787865 1.1461339 0.3290854 0.3653046 0.5742573 0.0005702173
0.42940912 0.5170646 0.013526499 0.61501986 0.5897236 0.74561524 0.8918947 -0.0007334927
0.5703512 0.42595896 0.55357987 0.000244754 0.5118986 0.5598695 0.7019629 0.42164862
0.00060008396 0.00074464566 0.3862519 0.5207175 0.35731998 0.54022497 0.4157783 0.39555597

sfeb.4.bias f4 [32]
00000000: 6793 293e 24da 43be ca9a 0cbe 2faa 2fbd
00000010: d347 76bd cd64 3dbc 7a67 083e b021 84bd
00000020: 7c3a d43c d22f 99bd 39f4 babc 0738 223d
00000030: dd7c ed3d ec04 903d 52ac 0b3d d819 1cbd
00000040: debc 84bd cc3f 933d cc84 cdbc f968 adbc
00000050: c32d de3b 61aa 17be b090 c1bd 80b6 173d
00000060: c4e7 8fbc 169e 9ebc aa49 8f3c adf4 33bd
00000070: 1e1a f7bd e930 9bbd 20cb debd 709e 963d
0.16560136 -0.19126183 -0.13730922 -0.04288691 -0.06012709 -0.011559677 0.13320723 -0.06451738
0.025906794 -0.07479824 -0.022821533 0.039604213 0.115960814 0.07032189 0.034099884 -0.038110584
-0.06481336 0.07189903 -0.025087737 -0.021168219 0.0067803576 -0.14811088 -0.09451425 0.03703928
-0.01756657 -0.01936249 0.01749118 -0.043934513 -0.12065528 -0.07577688 -0.10878587 0.07354438

sfeb.4.running_mean f4 [32]
00000000: a4a6 3dbd 927f 58be 2ade c6be 1832 7bbe
00000010: b326 91be bf81 26be 152f e6bd bee4 353c
00000020: ce26 71be a9f8 f0bd d5d0 26bd 7aac 5dbe
00000030: 1e3e 61bd 60b4 ca3d 943d 3bbe ef03 26bb
00000040: 1fbf 91be 2898 69be 66ad 8dbe a8db fabb
00000050: 1f46 a1be 1464 edbe 730f 9ebe a286 64be
00000060: 80c8 89bc b040 78bc 1d5a a4be 5de1 22be
00000070: faf3 a5be c9ca bfbe 5712 59bd 31a3 98bd
-0.0463015 -0.21142414 -0.38841373 -0.24530828 -0.28349838 -0.16260432 -0.11239449 0.0111019
-0.23549959 -0.11766178 -0.0407265 -0.21647826 -0.05499088 0.09897685 -0.18285209 -0.0025331934
-0.28466126 -0.22811949 -0.27671355 -0.0076555796 -0.3149881 -0.46365416 -0.30871162 -0.22316983
-0.016819239 -0.015152141 -0.321 -0.15906282 -0.32412702 -0.374594 -0.052996006 -0.07453001

sfeb.4.running_var f4 [32]
00000000: a1bb 863e 1c22 913e 00b8 003f d81c 5e3f
00000010: e3b1 763e 4a0c 953e a58c bd3e c4f2 b33b
00000020: 62dc 803e 51db 293e 9ebf 3c3b 0161 a93e
00000030: bb25 cf3e 0bae 353f 7bb6 5e3f 4619 0a3b
00000040: 1514 fe3e 5f0e 223f 9e5b 3f3f 22ee b43a
00000050: 1172 0a3f ad6c 1d3f 0ac3 1f3f 9897 c43e
00000060: 16ee 523a b9b0 333a 45ca d73e f773 cb3e
00000070: 556f ae3e b5e7 ca3e a118 3a3e c039 1f3e
0.26315024 0.28346336 0.5028076 0.8676276 0.24091296 0.29110938 0.37021366 0.0054915864
0.2516814 0.16587569 0.0028800736 0.3308182 0.40458474 0.70968693 0.86997193 0.0021072193
0.49624696 0.6330318 0.7474917 0.0013803879 0.540803 0.6149395 0.6240698 0.38396907
0.0008046342 0.0006854642 0.42146507 0.39736912 0.34069315 0.39629903 0.18173458 0.15549374

tfeb.0.weight f4 [13, 1, 3, 3]
00000000: 732e 063d cf62 213a 2013 b0bb 15d9 883b
00000010: 1157 fb39 213c c93a 12a7 fb3a 8aec c33b
00000020: 21e7 c53b 6330 0f3c 3018 23bc 4f69 673c
00000030: a794 793c 4dbc 3abc 31b2 573c 187f 803c
00000040: b750 edbb c3ac 843c 1049 4e3e 5d4c 053e
00000050: b446 c7be 03d8 c13e 5eb2 ee3e 1c24 26bf
00000060: bcb0 483e 8831 193e 8a41 e4be c071 60be
00000070: 6dac c0bc d475 ee3d c36d 14bf 8ce5 f23e
00000080: 73f4 033f fc65 96be b9a9 1d3e 683c 443e
00000090: 446b 0b3d 67b6 d03e ad6b f4be aa80 c43d
000000a0: d445 ff3d a198 a3be e93b 28be f713 68bd
000000b0: 67cd a0be 43b4 253d 96f1 18be 05a8 32be
000000c0: fa2e de3c 0e7c 50be 6fde 91be f115 763e
000000d0: e3d9 34be 8b8f 0dbe 010d 573f e9b3 f8be
000000e0: 2d10 ffbe 9f0f 643f e863 0abf 2f8d 25bf
000000f0: 180e dd3e 2614 94be 9822 e2be e393 f6bd
00000100: d351 31be 9ead 08be 19fa 9fbd 69f8 13be
00000110: 505b dbbd 4daf e13d 69d7 653e ca2c 013e
00000120: 62c3 23be 636a 92be d151 e8bd 44de 24be
00000130: 4595 88be ae9e 9bbd cab3 c7bd e003 26be
00000140: 98f8 c1bd 954d 38bd f3f2 98bd c813 403d
00000150: f642 d6bd f1b9 0abe cf9a edbc 5d57 de3d
00000160: 524e ecbe 3e09 d63e 23c8 9a3e a24c d13d
00000170: fbfa ed3d f8b5 923e bdb5 833d 9b90 983d
00000180: 020e 93bd 9768 acbd 957f d5bc 49f8 a8bd
00000190: 40e1 36be 1565 62bd 78d6 33be faf8 7bbe
000001a0: e32b 02be cf54 b53c fd67 ebbd 7de9 1ebd
000001b0: 6747 8ebe d156 5fbe f670 9f3e e07e 24bf
000001c0: 4f3b 0dbf aeff 8b3f 7f20 bcbe 421b 95be
000001d0: a314 a33e
0.03275914 0.0006156386 -0.0053733736 0.004176269 0.0004793932 0.0015353003 0.0019199571 0.0059791254
0.0060395156 0.008739564 -0.009954497 0.014124229 0.015233195 -0.0113974335 0.013165043 0.015685603
-0.007242288 0.01619566 0.20145059 0.13017412 -0.3892113 0.37860116 0.46620458 -0.6489885
0.19598669 0.14960301 -0.44581252 -0.21918392 -0.023519719 0.11643568 -0.57979983 0.47440755
0.51544875 -0.29374683 0.15396775 0.19163668 0.034037843 0.40764162 -0.477384 0.09594853
0.124644905 -0.31952384 -0.16429104 -0.056659665 -0.3140671 0.040455114 -0.14935908 -0.17446907
0.02712201 -0.20359823 -0.28490016 0.24031807 -0.17661242 -0.13824289 0.8400422 -0.4857476
-0.4981703 0.89086336 -0.54058695 -0.64668554 0.43174815 -0.28921622 -0.44167018 -0.12039926
-0.1731637 -0.1334748 -0.07811374 -0.1445023 -0.10710776 0.11019764 0.22445454 0.12614742
-0.15992501 -0.28596792 -0.1134373 -0.16100413 -0.26676384 -0.07598625 -0.09751089 -0.16212416
-0.094712436 -0.044995863 -0.07468214 0.046893865 -0.104619905 -0.13547494 -0.029004483 0.10856507
-0.46153504 0.41803926 0.30230817 0.10219695 0.11620136 0.28654456 0.06431148 0.07449456
-0.07180406 -0.084183864 -0.026061812 -0.08250482 -0.17859364 -0.05527218 -0.17562282 -0.24606696
-0.12712054 0.022135166 -0.114944436 -0.03879689 -0.2778885 -0.21810462 0.3114087 -0.64256096
-0.5516862 1.0937402 -0.36743543 -0.2912236 0.31851682

tfeb.1.weight f4 [13]
00000000: 4e6f 54ba a7ed 0dbb b0c6 8b3e 189f 8d3e
00000010: 7ab7 b13e dd6b 993e fdc0 0f3f 8140 9f3e
00000020: a122 693f eec1 c53e e1a7 863e 3972 fb3e
00000030: e3cc f03e
-0.0008103744 -0.0021656544 0.27300024 0.2766044 0.34710294 0.29965106 0.5615385 0.311039
0.91068465 0.3862452 0.26299956 0.49110582 0.47031316

tfeb.1.bias f4 [13]
00000000: 1f44 42bc 3ee5 65bc 74d0 213e c20a 793e
00000010: 2719 953e aa76 bb3e 4931 c63c d56d 6c3d
00000020: 1ea4 99be 5dcc 04bd e559 453e e2d1 913c
00000030: 850f 183e
-0.011857062 -0.014031706 0.15802175 0.2432051 0.29120752 0.3661397 0.024193423 0.05772193
-0.30008024 -0.03242146 0.19272573 0.017800275 0.1484967

tfeb.1.running_mean f4 [13]
00000000: 98e7 8c3c 6a19 9f3c be85 9e3c e6bd 013e
00000010: b9db 6ebe ddfc 99be 6626 89be f4e6 f0bd
00000020: 3c45 03bf 1d32 d8bd 4307 913e e5eb babe
00000030: 8917 65be
0.017200276 0.019421298 0.019350883 0.12670097 -0.23326005 -0.30075732 -0.26787108 -0.11762801
-0.5127752 -0.10556433 0.28325853 -0.36508098 -0.22372259

tfeb.1.running_var f4 [13]
00000000: fd81 343a d2c7 533a 91ea b13d cc84 fc3d
00000010: 58b2 273e 03cc 573e 3305 b53e b0dd 003e
00000020: dd85 0a3f 2fb9 3a3d 9702 673e 2846 943e
00000030: 86bb 7e3e
0.0006885825 0.0008078787 0.08687318 0.123300165 0.16376626 0.21073918 0.3535553 0.12584567
0.5411051 0.04558676 0.22559582 0.28959775 0.24876222

tfeb.4.weight f4 [25, 13, 3, 3]
00000000: e3cb 163b fc3a 25bb 0949 8a3a d875 56ba
00000010: 7dc5 9bbb 9ae3 3cbb 0a7b 123b bde7 b5ba
00000020: 7207 cfb9 1b6e de3a 2d7a aabb ccae 733b
00000030: bd39 0c3b 6cb6 cbbb 11b2 3f3b 3a2a 3a3b
00000040: 3c3f 3ebb 96e9 943b 81e4 8b3d 9dce afbb
00000050: cc17 553d b754 c3bd 4648 33be 5f48 0cbe
00000060: ebed 583d b3a6 ccbd c997 17bd 56ce 0ebd
00000070: 68b9 94bd 25d1 a3bc 64b5 9dbd 7347 7abd
00000080: 0ce6 01bb 94f1 d6bd 3bee 14bd 767e 0f3c
00000090: 62f1 a23d c0f3 4c3d 7a94 b83d 52cb aebc
000000a0: 2d34 59bd ec19 7ebd f11d c93c a6dd 373c
000000b0: 3b39 a73c 59ae 70bd f5ea 23bc ef66 46bd
000000c0: d2c3 f73c 6b96 e33c b444 08bd cc88 2c3d
000000d0: 7af0 9ebb 300a 433b 2c32 cf3d b2a6 b43d
000000e0: dbf4 1cbd 5a07 12be e3cb 24bd f7ca 8abe
000000f0: 9f19 f73c 7883 06be ab28 cfbd 7d7b 53bd
00000100: 8d8f bdbc ce06 743c d5e9 683d 1141 8d3d
00000110: 4b2c a13d 6672 6a3b 969f 29bc 24f0 73bc
00000120: 8394 993b 849b 653c ca8a 493d fff4 ee3c
00000130: 6a12 6dba 4322 d8ba 6fb2 b53d f7c1 0d3d
00000140: 2112 1cbb c8a0 aeb8 abba ecbd e0d7 b73c
00000150: 3cab 843a 2d17 d4bd ffd5 cd3c 4aaf bfbc
00000160: 87ab 95bd 9371 013c 5c60 7d3d eadf c33d
00000170: baa4 9e3d 2a48 17be fc5b a4bd 9bf0 91bd
00000180: f593 43bd 4e0d f0bc 45a8 8abc 8002 1dbd
00000190: 1a34 35bc bb79 82bc 9f9f 8d3d cd8c 503d
000001a0: 5aed 813c a365 163d a92a 953c 14a7 9cbc
000001b0: 072b e43c d083 39be 1933 1bbd 3ea0 573d
000001c0: b87a 35be 4513 19bc 431f e0bb 9348 59bd
000001d0: c200 98bc f55e b83a 4048 a9ba a7d9 3fb9
000001e0: f399 2fba 0a38 3cba 8b67 1fba 5dc5 053b
000001f0: f294 8e3a b0b0 09ba 7635 23bb 60c0 25bb
00000200: f811 8eba b892 293b 5bfe 963a 8f4a 0b3b
00000210: 620f 263b 6292 f83a 7bb2 5c3b bfd0 cbbc
00000220: 2e04 4abc e4ec 9fbd e6dd fabc beec 683d
00000230: af2c 18bd d2e0 1e3d 3f9b 433d cbdd e63b
00000240: b1ae 733d f80c a33c 5598 0dbd a8d8 d43c
00000250: 5ea2 9fbd 2281 11be b6c2 563d 39b1 91bc
00000260: 259e 71bd b879 8e3b 066e a2bd 26f7 8bbd
00000270: 8453 c9bd 13b7 05be cc27 91bd 3ab5 84bd
00000280: e147 7cbd 5db2 5bbc a759 d23c 9474 7c3b
00000290: 1c55 acbc 6da3 a8bd aa8f 8abd 3171 22bd
000002a0: 879f bebd 1cce aabd abd8 a5bc f353 1fbd
000002b0: f52b 94bd c043 33be 9ffc 40be 8a09 3cbd
000002c0: 6c85 28be 9b60 76bd 20c7 14bd 936a 9fbd
000002d0: 808c b23d 56a8 b33d 4054 683d a3af 9dbd
000002e0: 760a a2bd cf7b 7cbd e64a acb7 e117 8d3c
000002f0: 462c 6a3d bf0a 213d e81c dd3b 64e8 e3bb
00000300: 67ee ecbb 64f4 10bd 7374 30bb bb06 98bc
00000310: 3a06 08bd 6a61 7e3c 98ca f33c 95e2 46bd
00000320: dd62 d1bc 4536 29bd f3f2 16be e487 aebd
00000330: 56c1 19bd 379c 5dbd 66f8 5abc 6566 14bd
00000340: f6c7 073b 2055 64bd 2b73 443c af94 c23d
00000350: 1261 91bc 1a37 903d a7fa df3d d6fa 8f3c
00000360: 1545 9b3d ef16 7e3d ac3a 393d fa8d e1bc
00000370: ed7d 26bd f208 5dbc 344d 92bd f059 70bd
00000380: 9ba0 81bb 5bbc 143d b627 b7bd 6e27 f8bd
00000390: 15c4 c5bb e47d 5abe d6fc 48be 1bee a2bd
000003a0: 49bf f5bd 505e cbbd af33 fcb9 8157 8f3a
000003b0: 02d5 a13a 9f5c 13bb 98a8 13bc 63ad 55bb
000003c0: c1a4 a9bb e5fc 76ba 469f 38bb 4a50 23bb
000003d0: de1c 9a3a e62c dab8 99d7 d1bb 1b60 39bb
000003e0: 4c0e 95bb 2108 41bb 3a56 c2ba d4f0 c93a
000003f0: c516 f2bc b8c5 91bd 0860 9e3d b505 76bd
0.002300971 -0.002521216 0.0010550331 -0.0008181012 -0.004753767 -0.0028822185 0.002235117 -0.0013878267
-0.00039487664 0.001697007 -0.005202553 0.0037183044 0.002139672 -0.0062168147 0.0029250423 0.0028406517
-0.002902939 0.004544447 0.06830693 -0.0053652064 0.052024648 -0.095376424 -0.17508039 -0.13699482
0.05296127 -0.09992733 -0.037009988 -0.034864746 -0.07261926 -0.019997189 -0.07700613 -0.061103296
-0.0019820957 -0.10495296 -0.036360007 0.008758178 0.07956196 0.050037146 0.09012695 -0.021337185
-0.053028274 -0.06203644 0.02455041 0.011222279 0.020413032 -0.05876002 -0.010004749 -0.04843801
0.030244742 0.027781686 -0.033268645 0.042122647 -0.0048504444 0.002976071 0.101169914 0.08820857
-0.03831945 -0.14260617 -0.040233504 -0.27107975 0.030163584 -0.13136089 -0.10115179 -0.05163144
-0.02313974 0.0148942005 0.056863625 0.06897176 0.07869776 0.0035773753 -0.01035299 -0.014888797
0.0046868934 0.014014129 0.049204625 0.029169558 -0.00090435764 -0.0016489703 0.08871924 0.034608807
-0.0023814517 -8.3269144e-05 -0.115590416 0.022441804 0.0010121833 -0.10355983 0.025126455 -0.023399014
-0.07308107 0.007900613 0.061859474 0.095641926 0.07746263 -0.14773622 -0.08025357 -0.0712597
-0.047748525 -0.02930322 -0.01692594 -0.038332462 -0.011059785 -0.015927186 0.06915211 0.050915528
0.015860248 0.036718022 0.018208819 -0.019122638 0.027852548 -0.18116689 -0.037890527 0.052643053
-0.17722595 -0.009342973 -0.006839664 -0.053047728 -0.018555049 0.0014066385 -0.0012915209 -0.00018296261
-0.00066986604 -0.00071799813 -0.0006080798 0.0020411827 0.0010878129 -0.0005252464 -0.0024903691 -0.0025291666
-0.0010839095 0.0025874805 0.0011519896 0.0021254157 0.0025338759 0.0018964524 0.0033675719 -0.024879811
-0.012330098 -0.07808855 -0.030623388 0.0568664 -0.03715199 0.038788624 0.047755476 0.0070454828
0.05949277 0.019903645 -0.034569103 0.025982216 -0.07794641 -0.14209417 0.052431785 -0.017784702
-0.05898871 0.004348006 -0.079311416 -0.06834249 -0.098303825 -0.13058119 -0.07087669 -0.06479879
-0.061591987 -0.013409224 0.025677515 0.0038521634 -0.021036677 -0.08234296 -0.06765683 -0.03965873
-0.09307771 -0.083400935 -0.020244917 -0.03889842 -0.07234947 -0.17506313 -0.18846367 -0.045907535
-0.16457146 -0.060150724 -0.036322713 -0.07783999 0.087182045 0.08772342 0.056720972 -0.07699516
-0.079121515 -0.06164151 -2.0538875e-05 0.0172233 0.05717113 0.03931689 0.0067478307 -0.0069551934
-0.007230568 -0.03538932 -0.0026924878 -0.018557897 -0.033209063 0.015526155 0.02975969 -0.04855593
-0.025559837 -0.04131152 -0.14741115 -0.08522013 -0.037537895 -0.054104056 -0.013364887 -0.036230464
0.0020718551 -0.055745244 0.011990349 0.095010154 -0.017746482 0.0704176 0.1093648 0.017575663
0.07581536 0.06203359 0.04522197 -0.02753352 -0.040647436 -0.013490902 -0.071436316 -0.05867952
-0.0039559132 0.036312442 -0.08943121 -0.121168956 -0.0060353377 -0.21337086 -0.196277 -0.07955571
-0.119993754 -0.09930098 -0.00048103693 0.0010936112 0.0012346806 -0.0022485626 -0.009012364 -0.0032604567
-0.005177111 -0.00094218395 -0.0028171106 -0.0024919682 0.0011757871 -0.00010403413 -0.006403875 -0.0028286043
-0.0045488235 -0.0029454308 -0.0014826723 0.0015406855 -0.029551873 -0.0711779 0.0773316 -0.060064036

tfeb.5.weight f4 [25]
00000000: 5856 dc3e 047e 293e 5bf1 ac3e cef1 8d3e
00000010: a16b e03e 63e1 b43e e57d 753e 98f0 893e
00000020: bd1f 1b3f 41e3 a73e 400b 5a3e 07a3 133f
00000030: 0e4b f53e 83eb 163f bea7 313e 2019 773e
00000040: ea35 a83e 07ca 753e cce1 e93e 9c82 513e
00000050: 8969 df3e d4a7 363e cb28 593e 7d95 a43d
00000060: 098f 5e3e
0.43034625 0.16551977 0.3377789 0.27723545 0.43832114 0.35328206 0.23973806 0.2694137
0.60595304 0.32790568 0.21293354 0.57670635 0.47908825 0.5895311 0.17349145 0.24130678
0.32853633 0.24002849 0.45680082 0.2045998 0.43635204 0.17837459 0.21206968 0.08036325
0.21734251

tfeb.5.bias f4 [25]
00000000: e1dd 013d 8db7 713e ec4c 47bb f5f5 123d
00000010: f902 6cbd c53d 9e3d ba23 363e edac 663d
00000020: 2fba a0bd 9cda 3abd fab3 f73d 984d afbd
00000030: 3530 31be 0431 e0bd 217c 343e acd9 ee3d
00000040: 550e 14bd 1bd3 fabc f37d a1bd 36a6 9b3e
00000050: 913b 1bbe 5078 933e 45c1 793e acc7 733d
00000060: 3848 51bd
0.03170574 0.23605175 -0.003041084 0.035879094 -0.057620022 0.07726625 0.17787066 0.05631726
-0.07848012 -0.04561864 0.12094875 -0.08559722 -0.17303546 -0.10946849 0.17625476 0.11662611
-0.03614648 -0.030618241 -0.07885351 0.30400246 -0.15159442 0.2880273 0.24390133 0.059516594
-0.051094264

tfeb.5.running_mean f4 [25]
00000000: f5a2 e8be cafc 6abf 821c 49bd 6698 3b3d
00000010: e21c 1cbf a8fa b0be 100d ecbe 7eea b6be
00000020: c55b f0be 29e4 d1be a3f4 d2be 6b55 d7be
00000030: aaba ae3d c78d 99be 7784 b5be bf5b 08be
00000040: 9054 16bf b568 88bd 0533 bdbe c57b b0be
00000050: f34f afbd c0e9 0dbf b4cf 21be 1172 55be
00000060: 1c11 033e
-0.45436826 -0.91791975 -0.049099453 0.045799635 -0.6098157 -0.34566236 -0.46103716 -0.35725778
-0.46945015 -0.40994385 -0.41202268 -0.42057356 0.08531697 -0.2999098 -0.35452625 -0.13316248
-0.5872278 -0.06660596 -0.36952987 -0.3446943 -0.08560171 -0.554348 -0.15801889 -0.20844294
0.12799495

tfeb.5.running_var f4 [25]
00000000: 2cb5 1d3e ce75 183e 92bd e93d 99db 0c3d
00000010: 5679 323e 7ef1 bd3d 542a a33d e829 533d
00000020: 8164 583e 1736 713d d4a6 053e 1612 673e
00000030: ea8c a93d 41c4 b73d 9cea 8f3d df09 c73d
00000040: 1fc9 8d3d 2ac0 a83c f951 cd3d 3631 973d
00000050: 1dfa b93d 4362 593e a4af f13d 0cb8 4d3c
00000060: b892 d03c
0.15401143 0.14888689 0.11413111 0.034389112 0.17429098 0.092745766 0.07967058 0.051553637
0.21132089 0.058889475 0.13051921 0.22565493 0.0827883 0.08972979 0.0702717 0.0971868
0.069231264 0.020599443 0.10025401 0.07382433 0.090809084 0.2122889 0.11801079 0.012556087
0.025460586

tfeb.7.weight f4 [28, 25, 3, 3]
00000000: 365a b73c f52a b13c 1272 203d 260b e53c
00000010: 7664 833c 6c57 aa3b d4e0 ff3b 40aa 083d
00000020: 1471 e23c c103 e43b e6cb 77bc bc4a c1bc
00000030: 327e 933d 7ca8 c23d b47c 843d 0be7 053d
00000040: e66d 653c 0282 a2bc 7f4b ecbc 5ff3 3dbc
00000050: 31ba 03bd f8a1 e7bd b4be abbd ee02 88bd
00000060: 5f71 cdbc 3d2f 873c bfb3 013d a1a3 11bd
00000070: 1027 d9bc 3a34 0dbd 52c1 28bd dc45 59bd
00000080: 547e c1bc 30a7 eebb e20c a7bc 93a9 9e3d
00000090: bd4a 7d3b 5b50 213d 59e7 8d3d e19f 1d3d
000000a0: 4f5b 7b3d a09a 983d 505b 043b 6014 bf3c
000000b0: b743 3f3d 208b 8ebd d805 57bd d077 05bc
000000c0: fecd 9fbc 4a48 b63c 664c 8e3c 0a1e 1cbd
000000d0: 78b8 803c 0420 2f3c b00c d8bd 29e8 04bd
000000e0: 5291 53bd f5cf 093c 09fd 9dbb 3a7f 4dbd
000000f0: 3ee8 183c 2126 173d e0c3 93bb 03dc 70bc
00000100: 0886 7abc 3e54 3dba 47dd 1b3c 13a8 543d
00000110: 3407 ee3c 2967 433b 9d5d bb3c 3ad7 4e3c
00000120: 602d 3cbd f28e 63bc 50ba 12bd 95bf 2b3d
00000130: b6ea e83d f887 943d 1032 ec3b 261a 3b3d
00000140: 4305 423d b39c 2f3c 46dd 0b3c adfd a03c
00000150: f8ea f13b 174c a33c 347e 433c 4de4 7e3c
00000160: 05e8 cf3c d73d 333c 8c9d 04bd 2a9c debc
00000170: 852b 75bd e459 833d 0ede a73d 1b2b 813d
00000180: 3189 e63c 6660 8b3b 84a8 56bd f26f a5bb
00000190: 43aa 1d3d 2cb0 213d 766e a23c 0abd 9e3d
000001a0: 19e4 163d 1533 2ebd 9c7e 9dba 536c 6fbd
000001b0: 48b5 fdbc 8f94 3bbb 27cb 26bb 05c9 05bd
000001c0: f33d e5bc d55b 0fbc 78df d63a ed61 0ebd
000001d0: 7e75 263d 8202 9fbc adcc 69bc 952f b43b
000001e0: 904c 1f3b 0ee1 58bc 2c4c f1bc 6949 8a3c
000001f0: 32f2 39bb 6d0e 25bd 5b69 82bc ffe3 91bc
00000200: 462e 403a e384 cfbc 8d5c 85bc 7c63 bbbc
00000210: 1039 3a3d 16f6 933d 2c0f 7c3d bea8 933d
00000220: d586 7c3d 2d2e 223d ff55 bebb 1f28 6d3b
00000230: 3f04 363d 9bfe a9bd 7bc4 a1bd 7713 11bd
00000240: e3f0 3fbd dd52 e9bc 25b2 39bc 68d9 ea3b
00000250: 5f88 293a ca2c 0cbc f021 25bb 4870 c33c
00000260: 078e 0a3d b69d 923b 13bc a13c faf7 4a3d
00000270: b269 c5bc d4f9 ddbc ad68 be3b 909e f0bb
00000280: 6fc6 5abc 9787 83bb d59c 23bc aeb8 a3bc
00000290: b5c5 ccbc b397 c3ba d61e 233d 6c50 f73c
000002a0: 4973 0b3d 8c5e 893d 84c2 203d 9260 103d
000002b0: 1eee 7a3c 3df5 f43c b1cb 46bb cc3d d3bc
000002c0: fce8 083d 9908 1dbc 72f7 f2bc 89b5 4b3c
000002d0: a844 d7bc e8b7 0fbc 6791 c63c 55d7 2abd
000002e0: 7878 67bd 7f9e 7abd 375b d13b e03b 21bc
000002f0: d4f6 f0bc 1bcb 67bd 85c3 dbbc f7a7 7ebb
00000300: b1ad 853d 3c58 ae3d 10d0 c13d 20dc 03bd
00000310: f339 a7bb d12c 423d ef9c 193d 4d4e 1e3d
00000320: e7f3 f63c 02c8 31bd dd68 7cbd 78e0 98bd
00000330: 6d8c a73d 29aa c23d 5965 ad3d 6443 8b3b
00000340: d852 90bb 8a13 9fbb 5a36 d13c 5534 c83c
00000350: c2d7 133d 5810 333c f35f 27bc 0386 293c
00000360: cd98 96bc 3ab7 fbbc b99e d3bb c650 be3c
00000370: 9700 d73c 9b4b 8a3d cacd c2bc 39f4 08bd
00000380: 024f 4cbc 4ec4 a43d 736b 34bd 2d3b 7abd
00000390: b795 293d af75 f9bd f20b 00be 16b8 273e
000003a0: 8d1a 1bbd 4ff4 81bd f9e4 133d ddeb 723c
000003b0: 4241 593d cf3e ab3d f828 533d 584f c03b
000003c0: 1fd1 313d 21ab 12bc 203f ddbc 60ea 29bd
000003d0: 2a16 aa3d bbf5 463d 46c2 44bd d675 55bd
000003e0: fecc 6dbd 9654 f4bc 8f02 82bd 6806 1ebe
000003f0: 859c a53c 9b15 8cbc 7835 aabd 3f2c 80bd
0.022381883 0.021626929 0.039171286 0.027959418 0.016039114 0.00519841 0.007808784 0.033365488
0.02764181 0.0069584553 -0.015124297 -0.023595206 0.07201804 0.09504792 0.06469098 0.032691043
0.014003253 -0.019837383 -0.028844593 -0.011593669 -0.032159988 -0.1131019 -0.08385983 -0.06641184
-0.025078474 0.016502017 0.03166556 -0.03555644 -0.026507884 -0.034473635 -0.04119999 -0.05304514
-0.023619808 -0.007283114 -0.020391885 0.077471875 0.0038649284 0.039383274 0.06928892 0.03848255
0.061366376 0.074513674 0.0020196028 0.023325145 0.046695437 -0.0696013 -0.052495807 -0.008146241
-0.019507404 0.022251267 0.017370414 -0.038114585 0.015712962 0.010688785 -0.10549295 -0.032447968
-0.05165226 0.008411397 -0.004821424 -0.05017016 0.009332715 0.036901597 -0.004509434 -0.014700892
-0.015290745 -0.0007222331 0.009513206 0.0519181 0.02905617 0.0029816127 0.022871787 0.012624556
-0.04594171 -0.013889061 -0.035822213 0.041930754 0.113728926 0.072524965 0.0072081164 0.045679234
0.0473683 0.010718512 0.008536642 0.019652212 0.007382747 0.019933743 0.011931945 0.015557361
0.02537919 0.010940037 -0.03237681 -0.027174074 -0.059855957 0.0641363 0.081966504 0.0630705
0.02814159 0.004253435 -0.052406803 -0.0050487453 0.038492452 0.03947465 0.019828063 0.077509
0.036838625 -0.042529184 -0.0012015882 -0.058452915 -0.03097023 -0.0028622483 -0.0025450678 -0.03266241
-0.027983641 -0.008749922 0.0016393503 -0.034761358 0.040639393 -0.019410376 -0.01426999 0.0054988363
0.002430711 -0.013237251 -0.029455267 0.016880708 -0.002837312 -0.04029696 -0.015919378 -0.017808912
0.0007331114 -0.02533192 -0.016279483 -0.022874586 0.045464575 0.072246715 0.061537907 0.072099194
0.061652023 0.039594818 -0.0058085914 0.0036187244 0.044437643 -0.08300515 -0.07898804 -0.035418954
-0.046860587 -0.028481895 -0.011333977 0.00716703 0.0006467159 -0.0085556 -0.002519723 0.02385725
0.033826854 0.004474367 0.019743001 0.049552895 -0.024098251 -0.027096666 0.005810818 -0.007343121
-0.013352974 -0.0040139663 -0.009986122 -0.019985523 -0.024996618 -0.0014922529 0.03982433 0.030189715
0.03404549 0.067074865 0.039248005 0.035248347 0.015315561 0.029902095 -0.0030333812 -0.025786303
0.033425316 -0.009584569 -0.029659007 0.012433418 -0.026277855 -0.008771874 0.024239255 -0.041709263
-0.056511372 -0.06118631 0.0063890475 -0.0098409355 -0.029414572 -0.05659018 -0.02682663 -0.003885744
0.0652727 0.08512923 0.09463513 -0.03219235 -0.0051033436 0.04740602 0.03750318 0.038648892
0.030145599 -0.043403633 -0.061623443 -0.07464689 0.08181081 0.09505112 0.08466596 0.004249977
-0.004404407 -0.004854624 0.025538612 0.024439016 0.036094435 0.01092919 -0.010215747 0.010346892
-0.018383408 -0.030727018 -0.00645813 0.023231875 0.026245398 0.06752702 -0.023779768 -0.033436034
-0.012470009 0.08045255 -0.044047784 -0.06109159 0.041402545 -0.121806495 -0.12504557 0.16378817
-0.037867118 -0.06345426 0.036107037 0.014826742 0.05304075 0.08361589 0.051552743 0.0058688335
0.043412324 -0.008951933 -0.02700764 -0.041483283 0.08305009 0.04857419 -0.048036836 -0.05211433
-0.058056824 -0.02982549 -0.06348144 -0.15432131 0.020216236 -0.017100146 -0.083109796 -0.06258439

tfeb.8.weight f4 [28]
00000000: 8553 7a3e b437 f03e 26e6 773e c954 ad3e
00000010: 51cd cb3e 08fc b43e fa28 943e 6a8a 6e3e
00000020: 7f1e 313e 2cc4 d03e 7344 933e 8c1d d43e
00000030: 0747 983e 72b0 603e 1649 6d3e 009b af3e
00000040: 5d41 c13e 3e01 f13e fcef d13e 7e6e cc3e
00000050: 6728 fe3e 1cfb a23e e06f 7e3e 2b91 8f3e
00000060: 8184 f33e c838 b63e 749e c63e b711 643e
0.24445923 0.46917498 0.24208888 0.33853748 0.3980508 0.35348535 0.28937513 0.23294988
0.1729679 0.40774667 0.2876316 0.41428792 0.2974169 0.21942309 0.23172411 0.34297943
0.3774518 0.4707126 0.41003406 0.3992805 0.496402 0.31832206 0.24847364 0.28040442
0.4756203 0.35590196 0.38792765 0.22272383

tfeb.8.bias f4 [28]
00000000: 8c3e 0d3e 5cad e8bd 0b9f dc3c 59e9 59bd
00000010: 3a3c e0bd 82b8 4d3c 9a26 b23c 9267 af3d
00000020: 649f 233d 741f 81bd 6887 1fbe d013 9fbd
00000030: a0e5 fdbc d30f ca3d f30b 2d3e 59e7 34bd
00000040: d64b 02be 2cf1 c8bd 4d3b 8fbd 572b 84bd
00000050: 5ed5 42be 0a4e 1dbd 0138 9c3d 405d 88bc
00000060: 7e8e 1cbd 439a 32bd 327d 79bc 6c7e eb3d
0.13793391 -0.11361191 0.026931306 -0.053201053 -0.10948987 0.012556197 0.021746922 0.08564676
0.03994693 -0.06304827 -0.15578997 -0.07767451 -0.030993283 0.098662995 0.1689909 -0.044165943
-0.12724242 -0.09811625 -0.069937326 -0.06453579 -0.19026706 -0.038404502 0.076278694 -0.016646028
-0.03822183 -0.043604147 -0.015227603 0.114987224

tfeb.8.running_mean f4 [28]
00000000: 7298 433e 35ea 8dbe 5ced 1bbe 87fd 9dbd
00000010: a729 afbe 3c62 163c 4929 85be 8958 92be
00000020: a133 8bbd a1e6 103d 0e12 f23d 77c3 053e
00000030: e356 e6bd 7f00 f73c 243a f13d d067 d9be
00000040: e829 90be 6835 2bbd 58e4 2dbe b3af 5f3d
00000050: 9726 6abe e9b5 6dbe 36ec 23bf 2510 56be
00000060: b9f3 e6bd 72fd babd 1747 bdbe 6ec3 d93e
0.19101122 -0.27717748 -0.15227264 -0.07714372 -0.34211466 0.009178694 -0.2600806 -0.28583172
-0.06796957 0.035376195 0.1181985 0.13062845 -0.11247041 0.030151604 0.117786676 -0.42462015
-0.28156972 -0.04179898 -0.16981637 0.05461092 -0.22866283 -0.23213924 -0.64032304 -0.20904596
-0.11276955 -0.09130372 -0.369683 0.42531914

tfeb.8.running_var f4 [28]
00000000: 8068 df3c 91bc d53d 634b 6f3c 6fba fa3c
00000010: 3fee 823d 76d2 ff3c 89b5 ab3c 9e00 123d
00000020: f113 003c b0f0 a43d 077e a23c 044b fd3c
00000030: d981 843d 4e65 4f3d c89b 4b3d 138a f53c
00000040: 91b5 4f3d ae4d fc3d 5e29 bc3d 548a 483d
00000050: 1c10 8d3d 8ee3 883d 44ab 003d e907 883d
00000060: a6ec 493d 573e 033d 1932 d43c fe71 263d
0.02727151 0.10436357 0.014605376 0.030606477 0.06393098 0.031228285 0.020960586 0.03564512
0.007817254 0.0805372 0.019835485 0.03091956 0.06470079 0.05063372 0.04970911 0.029973065
0.050710265 0.12319504 0.09187578 0.048960045 0.06887838 0.066840276 0.03141333 0.06642134
0.04929795 0.032041874 0.025902795 0.040636055

tfeb.11.weight f4 [32, 28, 3, 3]
00000000: f3da 8cbc 97bd cabc b9b0 e4bc 8a01 0b3d
00000010: 3eb1 123d 04cf a03c f3d0 9a3d 965b 7b3d
00000020: 2a09 5a3d 8404 f3bc 9d5d 543c a1a3 0fba
00000030: 7828 bd3b 012d 843c 9c7d fa3c 10fc 87bc
00000040: f102 9dba 04d1 f13c a91b 7dbc 0736 f6bc
00000050: 10ee d5bc ddc1 87bc 5eb5 cdbc 0333 a2bc
00000060: 3ef4 073d 7ea3 8f3c 1752 d23c 9c02 013d
00000070: 63fc b93c d116 e73c 825e 263d 7e01 a13c
00000080: 4ede eebb 7e40 d7bb 93e3 693c d2b5 f4bc
00000090: f0e4 c53c d834 813c 7fd5 153d 41fa 663c
000000a0: 73f2 4dbb fc71 573c 530c e1bc a916 a1bd
000000b0: 4bff bfbc aefa 67bc 5bda 91bc 405f 1bbc
000000c0: 173d c63c 8673 8b3c 6ab2 00bc 1f02 a9bc
000000d0: f212 babc 87db 2d3c 46f2 1e3c 11e7 7c3c
000000e0: 8252 493c 99ac c3bc 86ae a4bc d761 8bbc
000000f0: cdca 93bb f2d2 8dbc 3b16 5cba db67 febc
00000100: 48d3 b1bb 91e2 80bc c2d6 71bd e7db fcbc
00000110: 6293 78bc 0448 dfbc 846c 1fbc 1915 bd3c
00000120: bd96 edbc 424c e9bc d00f e0bc 77cc adbc
00000130: 9dcf b9bc 0433 5bbc 9cc0 c43b 241d 6d3b
00000140: 9fec 353c 25a0 b3bb 720f 663b a560 c83c
00000150: c4d5 803c 8a54 413d 1149 b33c 3356 c9bb
00000160: 5329 523c 92b6 ed3c 2bfc 543c 5694 473c
00000170: f8d5 513c 503a 1f3d a8ab 193d 605e 2f3c
00000180: ecee 043d bd3c 273d dea8 073d 02cd 273c
00000190: 3b41 433d 6b27 d33c b174 46bc 19a5 4f3c
000001a0: dc86 a2bc 5e23 cf3c c890 b13c 6087 963c
000001b0: 4db8 31bd e92e 69bd f50e 59bd 77b2 95bd
000001c0: d324 a9bd 8954 96bd 35da ac3c c505 083d
000001d0: 2e24 3f3d d742 c5bc f78a 9cbc 095b 1fbc
000001e0: e5ed 633c 6cc8 4e3c 76bb 963c d856 1c3c
000001f0: 4a22 da3c d096 263d 5e90 88bd 8e6c 8fbd
00000200: ce07 98bd 802f e73c a0b8 bc3c e1ce 253d
00000210: ad98 443d a073 ff3c 9488 3a3d 771e cf3c
00000220: ef9b 393d c955 213d 2977 023b 5c07 3c3c
00000230: d405 b13c 7ab5 a43c ff76 e6bb 4369 bd3b
00000240: 9ae1 17bd 0c14 033d 90c4 cf3b 1257 3bbd
00000250: d744 2d3d 8d54 a33c c3b5 4dbd ce45 c53c
00000260: 638b 5b3d 43ee 27bd 8f49 05bd 7069 16bd
00000270: 67d1 35bd ecf4 543d 380a 103d 2663 5bbd
00000280: c8fa a2bb 907a d43c 6510 173c f5d8 163c
00000290: e9c1 9d3c 6799 9939 e5c2 c3bc 6fa4 34bd
000002a0: dbda 1fbc 697d 04bd aa94 14bd d609 2ebb
000002b0: 750f 29bc e355 d4bb 1b43 e53c 7d2a 063d
000002c0: 2ecc 2a3d 3bf6 cabc 28df 96bc 1f79 74bc
000002d0: a049 573c 555a 9fbb b1ed bd3b 55d3 79bb
000002e0: 6ce3 b0bc ba51 e4bc 1f02 a0bc 7cfa 1cbd
000002f0: cbcb 29bd fc3c 28bd fcf8 7cbc 6dea 82bc
00000300: 292c e7bc 2307 b5ba 3369 cb3c 4835 28bd
00000310: 6c5d 49bc 2ce8 0d3c d786 a9bc 19d6 dd3c
00000320: 92df 103c becb 8dbd dccd a5bc 8666 16bd
00000330: 5c74 a2bc f44b 503c 0416 883c 17df 47bd
00000340: bf05 f4bc 873d 64bc 29b5 c2bc 8eaf 97bb
00000350: bc40 76bc adcf c7bc f0f2 3ebb a689 0b3b
00000360: 9d33 903b 0e49 dbbb 53f8 1f3c cd5d c0b9
00000370: 17bd 82bc 0cca 8ebc cc23 d5bd 2cd8 bfbd
00000380: d94a b6bd 5e1b 1fbc aa8e 48bb 1415 1d3b
00000390: b851 64bb c7f4 cf3b 5456 8d3b 2f9c a23c
000003a0: 5ab1 323d 0f0f 4c3d ac7b 3e3b 3ac0 fe3b
000003b0: 7bb7 f43b 8466 913b 7c84 453c dc60 bdbb
000003c0: ead6 11bc 7e3c 2f3c 9aba 053c 38f7 d3bc
000003d0: 686c 02bd 2d07 3cbd f96d 663d 46b4 7a3d
000003e0: 80d7 863d b2da 833d 4118 683d 0326 8d3d
000003f0: 062b 07be 7205 89bd 1031 2e3c 1484 18be
-0.017194247 -0.024748607 -0.0279163 0.033937015 0.035813563 0.019629963 0.07559385 0.06136664
0.053231396 -0.02966524 0.012961772 -0.00054793997 0.0057726465 0.01613474 0.030577473 -0.016599685
-0.0011979026 0.029518612 -0.015448489 -0.03005506 -0.026114494 -0.016571933 -0.025110897 -0.019799715
0.033191912 0.017534014 0.02567391 0.03149663 0.022703355 0.028209122 0.040617473 0.019654032
-0.0072896844 -0.0065689674 0.014275449 -0.029871855 0.024157017 0.015772268 0.03658056 0.014097751
-0.0031425029 0.013149735 -0.027471697 -0.0786565 -0.023437163 -0.014158888 -0.017804315 -0.009483159
0.024199052 0.01702286 -0.007855037 -0.020630894 -0.022714112 0.010611421 0.009701317 0.01543595
0.012287738 -0.023886012 -0.02010275 -0.017014427 -0.0045102597 -0.0173125 -0.00083956466 -0.031055382
-0.005426798 -0.015733035 -0.0590427 -0.030866576 -0.015171858 -0.02725602 -0.009730462 0.02308135
-0.029002542 -0.028478745 -0.02735129 -0.02121566 -0.022682006 -0.013378862 0.006004406 0.00361807
0.011103778 -0.005481737 0.003510442 0.024460146 0.015726931 0.047199763 0.021885427 -0.006144309
0.012827235 0.02901772 0.012999575 0.012181362 0.012807362 0.03887397 0.03751722 0.010703653
0.032454416 0.04082941 0.03312003 0.010241749 0.04766963 0.025775632 -0.012112782 0.01267364
-0.019839697 0.02528542 0.021675482 0.018375099 -0.043388654 -0.056929503 -0.05299278 -0.0730943
-0.08258977 -0.073403426 0.021100143 0.033208627 0.046665363 -0.024079723 -0.019109232 -0.009726294
0.013911699 0.0126210265 0.018399935 0.00954219 0.026627678 0.04067117 -0.06668161 -0.07003127
-0.074233636 0.028220892 0.023037255 0.0404805 0.047997165 0.031183064 0.045540407 0.025283081
0.045314725 0.03938845 0.001990745 0.011476364 0.021609224 0.020106066 -0.0070332284 0.0057803704
-0.037080385 0.03200154 0.0063405707 -0.045737334 0.04230198 0.019937778 -0.05022217 0.024081137
0.053599726 -0.04099871 -0.032540854 -0.036721647 -0.044389155 0.05199139 0.035165995 -0.053561352
-0.004973743 0.025937349 0.009220217 0.009207 0.019257503 0.00029296728 -0.023896644 -0.04410213
-0.009756769 -0.032346163 -0.03627459 -0.0026556156 -0.010318627 -0.006479965 0.0279861 0.032755364
0.041698627 -0.024775615 -0.018416956 -0.014921456 0.013140112 -0.0048630633 0.0057961573 -0.0038120348
-0.021592818 -0.027871002 -0.019532261 -0.038324818 -0.041454118 -0.041073784 -0.015440222 -0.015980924
-0.0282193 -0.0013811331 0.024830436 -0.041066438 -0.01229034 0.008661311 -0.02069418 0.027079629
0.008842366 -0.06923626 -0.020239763 -0.036718868 -0.019830875 0.012713421 0.01661206 -0.04879674
-0.029787896 -0.013930685 -0.023768025 -0.004629082 -0.015030082 -0.02439102 -0.0029136501 0.0021291762
0.004400684 -0.0066920584 0.009763795 -0.0003669098 -0.015959306 -0.017430328 -0.10407218 -0.093674034
-0.08900995 -0.009711115 -0.0030602613 0.0023968862 -0.0034838747 0.0063463184 0.0043132696 0.019849865
0.043626167 0.04981905 0.0029065413 0.00777438 0.0074681616 0.0044372696 0.0120555125 -0.005779369
-0.008901337 0.010695575 0.008162165 -0.025874719 -0.031841666 -0.04590528 0.05625722 0.06120708
0.06584072 0.06438197 0.056663755 0.06892016 -0.13200006 -0.06690492 0.010631815 -0.14894134

tfeb.12.weight f4 [32]
00000000: e7de a73e cdf2 ac3e 6093 ae3e 97d4 983e
00000010: 51bd 803e 379e df3e 21bc b73e 3641 d13e
00000020: 4321 133f 8815 9c3e 9097 b43e 375d c03e
00000030: 29e6 bb3e 04fb 933e 4d7d ac3e e3ee 853e
00000040: 7f2c bf3e 7a5e 7e3e 460f 9f3e fdbe 9d3e
00000050: 6ee9 ba3e ea46 b03e 1f68 bf3e 8306 8a3e
00000060: 9334 903e a6fe ea3e cd33 323e 085e 813e
00000070: 604d a43e c282 dd3e 3c20 ce3e 1aa8 0d3f
0.32787248 0.33778992 0.34096813 0.29849693 0.25144437 0.43675396 0.35885718 0.40870064
0.5747263 0.30485177 0.35271883 0.37571117 0.36699036 0.28902447 0.33689347 0.2615882
0.37338635 0.24840727 0.3106634 0.30809775 0.36506218 0.34429103 0.37384126 0.26958093
0.2816511 0.45897406 0.17402573 0.25267053 0.32090282 0.43263823 0.40258968 0.5533463

tfeb.12.bias f4 [32]
00000000: 7847 45be 64f6 123d 1047 0bbe 65a5 4abd
00000010: 95ba a0bd dba1 65be b95d a2bd ba9f 2bbe
00000020: df5a c9be 91d9 173d 385e 01be 97fc b3bd
00000030: c231 dabd 6325 cbbb 70d4 35be 2e55 a3bd
00000040: e112 3cbe 079f 203e 868f 98bd f4e8 013d
00000050: 2777 dcbd 51e4 fcbd 9705 96bd c60c 0b3e
00000060: 9899 17bd 99f7 6dbd 26eb 0abe ef13 9bbd
00000070: 7ce3 a8bd 84fe 2bbe 6faa 32be 5aac 48be
-0.19265544 0.035879508 -0.13601327 -0.04947414 -0.07848088 -0.22425024 -0.079280324 -0.1676015
-0.39327142 0.037072722 -0.12633598 -0.08788412 -0.10654022 -0.006199525 -0.1775682 -0.07975231
-0.18366577 0.15685664 -0.0744925 0.031716302 -0.10764914 -0.123482354 -0.07325285 0.13579091
-0.037011713 -0.058097456 -0.13566265 -0.075721614 -0.08246514 -0.16796309 -0.17447828 -0.19596997

tfeb.12.running_mean f4 [32]
00000000: 175a 2bbd f25e 00bf d584 6abe cf9a 213e
00000010: 6de4 29be 4e09 57bf 576e 56be 7bdb ccbe
00000020: c8df 26bf 4bce f8bd 2a4b 79be 51d4 08bf
00000030: 89b2 cbbe c5da 0bbf 896e a7bd 40b3 81bd
00000040: de7c 90be 24c1 b7bd 7e59 15be 71bd d7be
00000050: 49c9 a6be ac6d 06bf 673f acbe 8aca e1be
00000060: 8b59 c4bd 198d 32bf 4e9b 0bbe e3b5 6fbd
00000070: feed 18be b2b0 c9be 551f 7bbe 7c2a 3cbf
-0.041833963 -0.50144875 -0.22902234 0.15781711 -0.16591044 -0.8399857 -0.20940529 -0.400112
-0.65185213 -0.12148722 -0.24345079 -0.5344897 -0.3978465 -0.5463069 -0.0817538 -0.06333017
-0.28220266 -0.089723855 -0.1458492 -0.4213672 -0.32575443 -0.52511096 -0.33642122 -0.44099838
-0.095873915 -0.6974655 -0.13633463 -0.05852307 -0.14934537 -0.3939262 -0.24523671 -0.73502326

tfeb.12.running_var f4 [32]
00000000: 3a7a 363d c125 9b3e 742b ee3d df3b cb3d
00000010: 4cbc d03c 01fc 953e 009a 403e c4b1 193e
00000020: 039d 6a3e 88d4 013e a83d 3c3e 0f7a 6b3e
00000030: 54dc 043e d0ef 023e 73e6 c93d b1ed cf3d
00000040: cdfe b63d 6fa3 993e d0f6 bf3d defd 1c3e
00000050: 91a4 b23d 0972 2c3e 504b 713e 8b37 883e
00000060: c1ff c23c 3755 f53e 7352 433c 6470 d73d
00000070: 615d 773d e991 863e 8443 0e3e 1eb7 e03e
0.044550158 0.3030224 0.11629382 0.09923529 0.025480412 0.29293826 0.18808746 0.15009218
0.22911458 0.1267873 0.18382895 0.2299578 0.12974674 0.12786794 0.09858408 0.10152758
0.08935318 0.30007502 0.093732476 0.15331218 0.08722795 0.16840376 0.23563886 0.26604876
0.023803594 0.47916576 0.011921513 0.10519484 0.060391787 0.26283196 0.13892943 0.43889707

tfeb.14.weight f4 [34, 32, 3, 3]
00000000: 2c72 eaba 4226 b3ba 6a34 75ba 47bf 1bba
00000010: fba0 d2ba 02a6 31ba 30c0 973a a77e 1abb
00000020: 2e7d 0c39 8f53 8fb9 09c8 11ba 48d2 cbba
00000030: 03f5 1aba 3f88 3b3a 4d6e 5aba 90aa c7ba
00000040: d5f0 753a 89a6 44ba 7c7b bfb9 3b20 89b9
00000050: 9657 1dba 0cc9 8bba 82d1 873a 53d8 49b9
00000060: ba3f f1ba bfa9 333b e6f1 b0ba 7df9 31b6
00000070: f910 4c3a 22f0 c039 36c1 b0ba add2 663a
00000080: a763 75b7 1814 ffba b882 42b9 ba80 b7b9
00000090: 8d34 ccb9 36ea d5ba b893 a7b9 9db1 2d3a
000000a0: 4423 33ba 5d09 b13a 0fa2 61b9 87d0 dfba
000000b0: 00a1 373b fbca f6ba 12fa 97b9 4015 c2ba
000000c0: ca14 a838 4a9b c9ba 8634 20ba b0bd 043a
000000d0: 8fc0 4bba 100c e939 5c40 70ba 69ba 1738
000000e0: 8c76 e339 c070 ffb9 faec e1ba 45a8 12b7
000000f0: 803b bf38 24ef e9ba f3f0 e93a 37c0 c9b6
00000100: 41a6 32bb 5943 66ba 740a 91b9 d51a a8b9
00000110: c593 9a38 51cf d8b9 d795 523b 489a eeba
00000120: 7e62 07ba c732 afb9 98a1 a2b9 bac6 c2ba
00000130: 6c48 403a 0cf0 adba 2468 0f3b efcd 36ba
00000140: 97cb 6ebb 4d06 9a3a 7bc1 f2ba 64c5 f9ba
00000150: a56c 29ba b738 3bba c2a2 2eba 72f3 bfba
00000160: 75ae 64ba 812e 323b 199f a0b9 2885 aab8
00000170: e428 8839 8a84 b4ba a3e7 c5b9 5a65 8039
00000180: 4064 2aba eede eaba bf0a 883a 7913 8dba
00000190: b217 c0ba b0d0 80b9 0342 9db9 0af9 f3b8
000001a0: c159 dcba 6f66 0bb8 4084 70ba 6821 2538
000001b0: c8b2 d4ba 2a56 1339 59ea 37bb 19df b8b9
000001c0: 8078 b43a a7bf 6abb e53a ac3a 6bf2 4fba
000001d0: 7c8e 0dbb 4125 8939 3ee1 abb8 74ce 12ba
000001e0: 46ca cab9 7e34 3f3a 264f dbb9 3149 ca38
000001f0: e32f 84ba 1bc0 c639 a693 3a3a 43cb 4bba
00000200: 3f42 ccba ef3f c139 068b 10bb 7b9d a0b9
00000210: 8d77 3dba b9b8 8dba 7126 543b 578e a2b8
00000220: 7d16 56ba 70bd f5ba 544a bdb9 4b4d b4ba
00000230: bfe8 823a 6c06 a1ba 81c2 b339 4e87 12ba
00000240: 10e4 ad38 3897 3937 6e2f b6ba b222 a5b8
00000250: b5b2 0eba 4dd6 03b8 52c9 a23a f510 f6ba
00000260: c1bc 87b9 f6a5 bcba 007f c43a c366 ecb9
00000270: 53d5 d6b9 9bd0 c23a 268f 173a 88be cfba
00000280: 9858 563a ecc6 0939 6b14 453a 8318 bf38
00000290: a6d2 1aba 1bff 47ba bc50 2fba 7013 093a
000002a0: 6d71 84ba f21c 10bb 62a0 403b d3d2 d8b9
000002b0: 0b3a 103a d7d6 acba cd28 f5ba 16b2 2a3a
000002c0: 572c 4eba 117f d3ba 8a9f e5b8 0473 2539
000002d0: b914 8139 74bd 1e39 68db daba 6c52 aa39
000002e0: fe2d 50ba 1435 8aba b93d 11bb 7980 1dbb
000002f0: 7777 9e3a ba65 37b9 b380 443a 7da0 f738
00000300: b09f ecb9 b4e0 7139 a1b9 c338 ed2c 38ba
00000310: e3b1 743b 3463 56bb efe8 00bb 66a7 07bb
00000320: 2afb 0fbb 2545 6f3a 26bf a5ba 7fa6 27bb
00000330: 41bf e93a 0d9c 01b8 b318 feb9 6c01 703a
00000340: d13a a939 12b1 c0ba 6117 6bba b385 a7ba
00000350: ce8f 1d3a 66e6 feba 43c1 27bb 8aa0 bb3a
00000360: cfd1 0f39 e5fe 8cba c299 a5ba a274 5cb9
00000370: c8d2 89ba bc20 87ba 63e6 60b9 352a 50ba
00000380: 80ef b039 a37a 3e39 6842 fdba 3acb f8ba
00000390: 3822 ccba e257 82bb 1731 58ba 3033 a83a
000003a0: a00b caba 036c eeba 1871 823a 3e8f a6ba
000003b0: d49e 2dba 395a 073a 3270 15bb 6895 c7b9
000003c0: 771f f237 4f22 cfba 2b60 ae3a 4bb6 0cbb
000003d0: c280 13bb 3727 e2b9 9ba5 84ba 9a4b 3cba
000003e0: f059 a4ba 61a1 e7ba f129 4139 ca44 63ba
000003f0: eb85 dcb9 f47f 353a 89a7 8bb9 d01c 953a
-0.0017886809 -0.0013668018 -0.00093538186 -0.00059412833 -0.0016069704 -0.0006776751 0.0011577662 -0.0023574026
0.00013398073 -0.0002733734 -0.00055611186 -0.001555034 -0.00059111434 0.0007153786 -0.0008332476 -0.0015233327
0.0009381895 -0.00075016223 -0.00036522362 -0.0002615469 -0.0006002126 -0.0010664775 0.0010362121 -0.00019249441
-0.0018405833 0.002741441 -0.0013499826 -2.6520277e-06 0.00077845115 0.00036800007 -0.0013485316 0.0008805197
-1.462634e-05 -0.0019460944 -0.00018549978 -0.0003500039 -0.00038949065 -0.0016320411 -0.0003196278 0.0006625893
-0.0006833563 0.0013506819 -0.00021518044 -0.0017075696 0.0028019547 -0.0018828803 -0.0002898728 -0.0014807358
8.0147365e-05 -0.0015381363 -0.0006111342 0.0005063666 -0.0007772529 0.0004445021 -0.0009164864 3.6174813e-05
0.00043385138 -0.00048721395 -0.0017236762 -8.741456e-06 9.1186725e-05 -0.0017847759 0.0017848298 -6.0126436e-06
-0.002725974 -0.00087838393 -0.00027664343 -0.00032063448 7.3708165e-05 -0.00041353193 0.0032132769 -0.0018203938
-0.0005164518 -0.00033416433 -0.00031019445 -0.001486025 0.00073350105 -0.0013270392 0.002188214 -0.00069734355
-0.0036437267 0.0011751145 -0.0018520796 -0.0019056019 -0.00064630277 -0.0007141935 -0.0006661826 -0.0014644696
-0.0008723506 0.0027188363 -0.00030636115 -8.131034e-05 0.00025970407 -0.001377241 -0.0003774735 0.00024489575
-0.0006499924 -0.0017919221 0.0010379179 -0.001076325 -0.0014655499 -0.00024569547 -0.00029994556 -0.0001163353
-0.0016811417 -3.323558e-05 -0.000917498 3.9370178e-05 -0.0016227597 0.00014051111 -0.0028063266 -0.00035261436
0.0013768822 -0.00358198 0.001314011 -0.00079325464 -0.002159982 0.00026158433 -8.19587e-05 -0.0005600222
-0.00038679148 0.0007293894 -0.00041829905 9.6457436e-05 -0.0010085072 0.00037908633 0.0007117338 -0.0007774124
-0.0015583708 0.00036859463 -0.002205552 -0.0003063491 -0.0007227592 -0.0010812498 0.0032371546 -7.751275e-05
-0.0008166803 -0.0018748473 -0.00036104268 -0.0013755945 0.0009987577 -0.0012285239 0.00034286457 -0.000558962
8.291763e-05 1.1062068e-05 -0.0013899633 -7.8742756e-05 -0.00054434995 -3.1432417e-05 0.0012419617 -0.0018773364
-0.0002588984 -0.0014392722 0.0014991462 -0.0004508999 -0.000409762 0.0014863195 0.00057815237 -0.0015849629
0.00081766536 0.00013139442 0.0007517996 9.1121554e-05 -0.0005906023 -0.0007629261 -0.00066877506 0.00052290317
-0.0010104604 -0.002198991 0.002939247 -0.00041355807 0.0005501813 -0.0013186586 -0.0018704176 0.0006511522
-0.00078648835 -0.0016135891 -0.000109492874 0.00015778473 0.00024620237 0.00015138631 -0.0016697468 0.00032486336
-0.00079414237 -0.0010544383 -0.0022162034 -0.0024032874 0.0012090047 -0.00017490136 0.00074959843 0.00011807771
-0.00045132404 0.0002306726 9.332901e-05 -0.00070257374 0.0037337474 -0.0032712938 -0.001967009 -0.0020699142
-0.0021969774 0.000912743 -0.0012645468 -0.0025581417 0.0017833487 -3.090133e-05 -0.00048465058 0.00091554853
0.00032278014 -0.0014701209 -0.00089680223 -0.0012780934 0.0006010503 -0.0019447326 -0.002559737 0.0014314812
0.00013715703 -0.0010757117 -0.0012634324 -0.00021024284 -0.0010515088 -0.0010309438 -0.0002144813 -0.00079408597
0.00033747777 0.00018165498 -0.0019322159 -0.0018981465 -0.0015574163 -0.0039777616 -0.0008247061 0.0012832638
-0.0015414841 -0.0018190149 0.0009951917 -0.0012707484 -0.00066230935 0.00051632855 -0.002280247 -0.00038067554
2.88633e-05 -0.0015803071 0.0013303807 -0.002147096 -0.0022507166 -0.00043135296 -0.0010120155 -0.00071828964
-0.001253901 -0.0017671996 0.00018421539 -0.0008669613 -0.00042061447 0.00069236686 -0.0002663697 0.0011376385
