trained_models/step_5_retrain_after_step_4/retrain_4C_after_2nd_pruning_prunratio0.85_2024060419/retrained_4Cmodel_ratio85.0_vaacc91.54589080810547_tracc_81.33223684210526@526epoch_20240604220208.pt (torch, 309234 bytes, 62 tensors)

sfeb.0.weight f4 [8, 1, 1, 9]
000000 5e be 50 3e 41 81 0d 3e 4b d5 94 3e 1e 00 ba 3e
       0.2038512 0.13818838 0.2906898 0.36328214
000010 6a dd 94 3d 1b b4 8d be d6 f0 09 bf de d9 a0 be
       0.07268794 -0.27676472 -0.5388311 -0.3141622
000020 8d 23 5a bd 39 6f 1a 3d 17 2b fc 3c 0a 12 9e bd
       -0.05325656 0.037703726 0.030782266 -0.077182844
000030 ab 9b a8 be 3d 4b 73 3d ed 00 43 be a5 85 9b be
       -0.32931265 0.059397925 -0.19043322 -0.303754
000040 8e 19 c1 3e 27 a3 16 3f c0 5e 4b be 7e af 72 be
       0.3771481 0.588427 -0.19860363 -0.23699757
000050 60 47 4b 3e 29 ae 1d 3d 79 75 31 be cd 79 65 be
       0.19851446 0.03849617 -0.17329969 -0.22409745
000060 bb a1 f6 3d f4 fa b1 be 31 78 e7 be b0 79 38 3f
       0.120425664 -0.34761775 -0.45208886 0.7206068
000070 75 f4 c5 3e b5 d6 86 bd 7e 8f 64 bc 6a a6 55 be
       0.38663068 -0.06583921 -0.013950227 -0.20864263
000080 78 f7 6b 3b 20 61 10 3e 7c ad 35 bc 6d 09 cc 3d
       0.0036005657 0.1409955 -0.011088725 0.09962735
000090 1b 69 20 bf 62 7c cb be c1 18 53 3c bb 49 6e 3c
       -0.6266038 -0.39743334 0.01288432 0.014543946
0000a0 02 58 8e 3e e6 bf 6e 3e 5d a2 2c be bc 34 3e 3d
       0.2780152 0.23315391 -0.16858812 0.04643701
0000b0 61 67 53 be 30 0e 9b be 71 8c e9 bc 1e f6 4f 3e
       -0.20644905 -0.30284262 -0.02850935 0.2030873
0000c0 ad 8b 85 3d b1 de f0 be c6 e3 c4 3d ec 60 26 3f
       0.06520782 -0.470449 0.09613757 0.6499164
0000d0 bc f9 70 bc 4c 8f ff be 73 30 89 bd 53 8c 58 be
       -0.014707979 -0.49914014 -0.06698694 -0.2114728
0000e0 e3 c7 73 3e da af c8 bd 24 83 05 bf c9 93 00 3f
       0.2380672 -0.09799166 -0.5215323 0.502255
0000f0 9f 7d 86 3d 73 5c e4 be 92 31 da 3e 28 ec de 3c
       0.06566929 -0.44601783 0.42615944 0.027212217
000100 dd 81 af bc f6 f5 59 be 3d 80 0f be 13 b5 37 3e
       -0.021424228 -0.21285233 -0.14013763 0.17940168
000110 d4 1d 62 3e fc 4d 08 bc b7 0f b8 3e 6b f0 15 3f
       0.22081691 -0.008319374 0.3594949 0.58569974

sfeb.1.weight f4 [8]
000000 1d 14 69 3f 9b a7 5d 3f 20 1c 41 3f e7 81 49 3f
       0.91046315 0.8658387 0.7543354 0.7871384
000010 ea eb 52 3f f5 fa 1a 3f fb 18 dc 3e 99 92 3a 3f
       0.82391226 0.6053918 0.4298781 0.7287994

sfeb.1.bias f4 [8]
000000 5b f8 45 3d c9 16 88 3d 9d 6a 83 3d 21 0c 1c 3e
       0.048332553 0.06644971 0.06416819 0.15239002
000010 d6 6e 85 3d 04 ca 0b 3e 93 8f 5d 3e 27 02 35 3d
       0.06515281 0.13651282 0.216368 0.044191506

sfeb.1.running_mean f4 [8]
000000 d3 c4 86 b8 9f a1 9d 38 dd 51 08 ba 18 90 e2 39
       -6.426279e-05 7.516448e-05 -0.0005200187 0.00043213437
000010 7e ae ac b9 e1 48 04 b9 0e 1e 81 b8 08 90 d2 39
       -0.00032936403 -0.0001261565 -6.1567975e-05 0.00040161633

sfeb.1.running_var f4 [8]
000000 97 d9 d2 3c 9d 08 61 3c 9c 07 4f 3c 89 03 ac 3c
       0.02573852 0.013734964 0.012636092 0.02099778
000010 a7 f5 ae 3c 19 4b e7 3b be 52 01 3b 31 53 81 3c
       0.02135737 0.007058513 0.0019733156 0.015786739

sfeb.3.weight f4 [32, 8, 1, 5]
000000 4f 84 33 3d 8f d0 30 be 6e 68 14 bd 9c f0 75 3c
       0.04382735 -0.17267059 -0.036232404 0.015010979
000010 80 5d fd bd 3a 3f d2 bd e9 0b 0d be e0 55 43 bd
       -0.12371349 -0.10265966 -0.13774075 -0.04768932
000020 9e 16 d2 bc 8b ea 1d bd 6d b6 84 3e a2 c6 6a 3e
       -0.02564555 -0.038553756 0.2592043 0.22927335
000030 2b 54 5e 3e 11 59 1e 3e 58 90 fa 3d 80 dc 16 be
       0.21711795 0.15463664 0.12234563 -0.14732552
000040 c2 b4 98 bd c5 88 89 be 57 b1 60 bd 0d 29 f5 bd
       -0.07456352 -0.2686216 -0.054856624 -0.119707204
000050 52 83 3f 3e e7 38 1a 3e 26 c7 12 3d 9c 00 42 3e
       0.18702438 0.15060769 0.035834454 0.18945545
000060 ec 49 08 3e 1d 47 e8 3c 8f e2 03 bc fa 24 ba bd
       0.13309449 0.028354222 -0.008049621 -0.09089084
000070 a3 c4 99 3c 01 b5 84 3b c3 71 98 3c 0f cb 3f bd
       0.018770522 0.0040498977 0.018608933 -0.04682451
000080 0a 5a 32 3c df 78 9e 3d 6b e2 9c bc 8a 8b 6d bd
       0.010885725 0.07737898 -0.019150933 -0.057994403
000090 ad b2 b8 bd 32 57 15 be f3 cd 3b bd 58 1a 6c bd
       -0.09018455 -0.14584044 -0.045850705 -0.05764231
0000a0 fa 30 27 be 38 97 36 be c6 23 1d bd bc 6d 80 3d
       -0.16327277 -0.17831123 -0.038364194 0.0627093
0000b0 2e 35 ad 3d 37 40 98 bc 66 1e 13 be 64 a1 f6 bd
       0.08457409 -0.018585308 -0.14367065 -0.120425016
0000c0 2f 7c 1c bd a9 2b c1 bd a3 42 cd 3d 97 a5 b1 3d
       -0.03820437 -0.09432156 0.100224756 0.08674162
0000d0 bd 1a 9d 3d f3 92 80 3e 18 7d 9d 3e c9 73 6f be
       0.076711155 0.25112113 0.307595 -0.23384012
0000e0 d9 7b ed bd 7e b9 06 be 5b 5f b3 bc 98 cf 12 bd
       -0.11595888 -0.13156697 -0.021896055 -0.035842508
0000f0 11 ff 2b 3e 2f 38 15 3e b2 96 65 3c 14 d2 9b bd
       0.16796519 0.14572214 0.014012979 -0.076084286
000100 77 e4 3d 3c c3 28 5c bc 85 de fb 3d 0a 20 cd bc
       0.011590115 -0.013437453 0.122983016 -0.025039691
000110 28 3f d2 ba 33 2e bf 3c 4f e9 17 bc c1 d3 4d bd
       -0.001604055 0.02333746 -0.009271934 -0.050250772
000120 0f 8b 33 bc 0a 37 d9 bd 23 d9 0d bd e9 7f 78 bd
       -0.010958447 -0.10606201 -0.034630906 -0.06066886
000130 e3 46 81 bd 0b 64 88 be 4a 13 42 be 54 fa 07 be
       -0.06312349 -0.26638827 -0.1895267 -0.13279086
000140 ec fe f9 bd 1d 28 56 be dc 22 14 bd 9a 00 38 bb
       -0.122068256 -0.2091374 -0.036166057 -0.002807653
000150 d1 72 35 bd 1b ee 21 be 18 99 87 bd 9f 7e 1a bd
       -0.04429895 -0.15813486 -0.06620997 -0.03771841
000160 fa 76 46 be 45 26 0c be 1d ee 2a 3e 45 5f 5d 3e
       -0.19381323 -0.13686474 0.16692396 0.21618374
000170 bf 93 0c 3e 87 e4 67 3e 91 42 8b 3e 88 b1 66 be
       0.13728236 0.2264577 0.27199224 -0.2252866
000180 d0 41 dd bd 3e d8 64 be 88 0b d0 bd 00 23 fd bd
       -0.10803568 -0.22348115 -0.101584494 -0.12360191
000190 e1 f1 57 bd a3 19 b7 3c 99 03 de 3c c6 d1 fa 3d
       -0.052720908 0.022351092 0.027101325 0.12247042
0001a0 76 3e 93 3d a3 91 b0 bc 6e 1d 15 3d 8d 79 1e bd
       0.07189648 -0.02155382 0.03640502 -0.03869014
0001b0 08 1f 02 3e a4 c5 8e ba 21 45 46 bd c7 45 1e bd
       0.1270715 -0.0010892642 -0.04840577 -0.038640764
0001c0 96 ed 32 bd 62 2a ca bd 10 e6 0b be 5d d1 12 be
       -0.04368361 -0.09871365 -0.1366198 -0.14337678
0001d0 a6 2e 87 be ae fc 82 be 32 f2 06 be b0 05 0e be
       -0.26402777 -0.25583404 -0.13178328 -0.13869357
0001e0 a1 ab 53 bd 50 88 79 3d 9e 49 7c be 68 6b 88 bd
       -0.05167735 0.060921013 -0.24637458 -0.06661111
0001f0 cb a4 5f be 43 2a 2e be 16 dc 64 bd ad 30 8a 3d
       -0.21840207 -0.17008309 -0.055873953 0.067475654
000200 94 74 a7 bd 2a 92 04 be cd ea ae be b2 b8 88 be
       -0.081765324 -0.12946382 -0.34163514 -0.2670341
000210 63 39 52 be 65 ec 68 be ac 5e a9 be f7 1b a4 3d
       -0.20529704 -0.22746427 -0.3308004 0.08013146
000220 68 03 70 3e eb d2 98 3e 91 43 b5 3d 2c 49 a8 3d
       0.234388 0.29848418 0.08850778 0.082170814
000230 91 d2 e3 bd f4 10 4b be c2 f3 a1 be ed 98 f7 bd
       -0.11124147 -0.19830686 -0.31631285 -0.12089715
000240 e9 60 d9 bd d1 e8 60 3c 31 48 3f be c1 af 1d be
       -0.10614187 0.013727383 -0.18679883 -0.15399076
000250 9d 36 59 be c6 c8 4a be 38 e0 f5 bd bb fd 2b be
       -0.2121224 -0.19803151 -0.12005657 -0.16796009
000260 88 4f 6c be fc b8 29 be fc 82 0c be 79 5b 32 3e
       -0.23077214 -0.16574472 -0.13721842 0.17417707
000270 f6 88 65 3e 58 02 90 3e 4b 59 c0 3e 76 f2 9a 3e
       0.22415528 0.28126788 0.37568125 0.30263108
000280 8c 9e 17 be 4e 44 bb bd b5 f4 13 be 3e 6d eb bd
       -0.14806575 -0.091438875 -0.14448817 -0.11495446
000290 f7 9d 70 bd db 3c 81 3d 5b 47 90 3b 4f 42 72 3b
       -0.058744397 0.063104354 0.0044030375 0.0036965793
0002a0 cb 8e a1 3c 5d 4c a4 bc 9d c2 14 be 9f 5b d0 bd
       0.01972141 -0.020055944 -0.14527364 -0.10173725
0002b0 56 9f 02 be 0c 9b 49 be 1f b7 c6 bd b8 63 5e be
       -0.12756094 -0.19688052 -0.09702896 -0.21717727
0002c0 a2 d8 f4 bd eb af cf bc 5c 7f 21 bc 2e 59 8a 3d
       -0.11955382 -0.025352439 -0.009857025 0.06755291
0002d0 99 68 f2 bd cd f2 61 bd 3a d5 98 3c 2a b7 49 bd
       -0.11836357 -0.055163193 0.018656362 -0.049246944
0002e0 93 07 d4 bd b2 29 40 bd b6 06 51 bd da 65 9d 3c
       -0.10353007 -0.046914764 -0.05103179 0.019213606
0002f0 90 78 7e bd d1 d2 65 bd 4d 96 68 bd 0b 2b 9a bb
       -0.062126696 -0.056109253 -0.056783963 -0.004704838
000300 f7 77 49 bd 2f 28 71 bc 20 a6 79 bd 29 fb 90 bd
       -0.049186673 -0.014719053 -0.060949445 -0.07079155
000310 18 a2 f5 3c 79 5f d7 3d 25 2f fc 3d 67 dd 2c 3e
       0.029984519 0.10516257 0.123136796 0.16881333
000320 ff c8 de bc 8a ca 3a be 1b 88 40 be a2 f8 33 be
       -0.027195452 -0.18241325 -0.1880192 -0.17575315
000330 15 4e c3 bd e5 a5 f5 3d 95 51 85 3e 45 d9 d8 3d
       -0.09536377 0.119945325 0.26038805 0.10588316
000340 13 95 83 3d 21 ac 06 3e 90 a2 ba 3d 12 04 53 bd
       0.06424918 0.131516 0.091130376 -0.051517554
000350 6a df e4 bc eb cc 97 bd ab d8 40 be 35 cd ab bd
       -0.027938563 -0.07412132 -0.18832652 -0.083887495
000360 84 51 82 be 5f 03 72 be f9 8d ce bd dc 2b 3a 3d
       -0.25452816 -0.23634098 -0.10085673 0.045451984
000370 5b 3a 4d bc 10 38 22 3c 70 88 d8 3a 6a 19 5e 3e
       -0.01252612 0.009901062 0.0016520154 0.21689382
000380 1c 2d 1a 3d e0 8e 90 bc 5a 2e 8c 3d 56 95 b6 3c
       0.037640676 -0.017646253 0.06844778 0.022288006
000390 a1 d2 1f 3d 25 57 5d bd 3d 00 b2 3d 1b 64 b3 3d
       0.03901923 -0.054038186 0.08691452 0.08759328
0003a0 80 f7 9a 3d 7d 5c bc 3d 89 3d b4 bb dd f1 40 bd
       0.07566738 0.09197328 -0.0055004996 -0.04710566
0003b0 04 68 49 bd 5b 35 71 3d 20 6e f7 3d 7b 7d b6 3d
       -0.049171463 0.058888774 0.120815516 0.08910652
0003c0 9d ec e2 3d d5 ef f0 3d 6f 76 c2 3d 54 b8 b1 3d
       0.11080287 0.11764494 0.09495246 0.08677736
0003d0 d0 23 94 3d 23 c4 3b be 7e ae 75 be 27 82 74 be
       0.07233393 -0.18336539 -0.23992345 -0.23877774
0003e0 64 49 8c bc ff cc cd bc e0 24 15 bd 10 e5 e8 39
       -0.01712484 -0.025122164 -0.03641212 0.00044421153
0003f0 49 70 d8 3d a9 f6 a4 3d a7 29 31 3e 6d 1d 64 3e
       0.10568292 0.08054859 0.17301045 0.2227685

sfeb.4.weight f4 [32]
000000 e9 6d 3a 3f e3 41 f4 3e 39 22 52 3f 88 50 9e 3f
       0.7282396 0.47706518 0.8208347 1.2368326
000010 45 b8 b8 3e 48 98 b5 3e 23 f1 12 3f 5e 0b 25 3a
       0.36078086 0.35467744 0.57399195 0.00062959443
000020 57 62 ee 3e b2 2f 08 3f 16 c9 74 3c 40 1a 34 3f
       0.46559402 0.5319778 0.014940521 0.70352554
000030 ab 38 21 3f d3 aa 45 3f 8c 71 7b 3f 4e 4e 54 ba
       0.62977093 0.7721378 0.98220134 -0.00080988265
000040 e1 c3 20 3f a8 10 dc 3e a3 b2 12 3f de ae 8d 39
       0.6279889 0.42981458 0.5730383 0.00027023902
000050 ab 6b 0e 3f b7 bc 07 3f 61 ce 39 3f 89 93 f0 3e
       0.5563304 0.5302233 0.72580534 0.4698756
000060 e0 b2 2d 3a 7d 88 57 3a 74 82 dd 3e ff f4 03 3f
       0.0006626081 0.00082219375 0.4326359 0.5154571
000070 f9 48 c5 3e 91 52 10 3f e0 21 e7 3e cb 63 d0 3e
       0.38532236 0.56375986 0.45143032 0.40701136

sfeb.4.bias f4 [32]
000000 8b 33 30 3e f4 c3 4a be 4a c4 c7 bd b8 ef 0e bc
       0.17207162 -0.19801313 -0.09754236 -0.008724146
000010 67 79 7d bd 14 c4 8f bc b1 26 fc 3d 5f e3 91 bd
       -0.061883356 -0.017549552 0.12312067 -0.07123446
000020 8a 00 04 3d ee 0e bd bd a6 67 ce bc 15 c2 c3 3c
       0.032227077 -0.09231363 -0.025195908 0.023896256
000030 27 7a 0a 3e 7a df 63 3d 34 9a 05 3d 4a 5b 2c bd
       0.1352316 0.055633046 0.032617763 -0.042079248
000040 91 f8 99 bd 74 7e 88 3d 35 81 20 bd 44 78 bf bc
       -0.075181134 0.06664744 -0.03918572 -0.023372777
000050 5e 35 0e ba 42 d3 13 be 49 91 cc bd 2d b9 15 3d
       -0.00054248224 -0.14436057 -0.099886484 0.03655355
000060 09 e4 9e bc 5d 21 af bc 64 ac 86 3d f1 1c 62 bd
       -0.019395845 -0.021378214 0.0657585 -0.055203382
000070 50 a5 d3 bd f1 ae d4 bd 3a f9 fd bd 4c 78 4c 3d
       -0.10334265 -0.1038493 -0.12401052 0.04991941

sfeb.4.running_mean f4 [32]
000000 64 85 33 bd bd 1b 6a be cf fe da be 6f 57 10 bf
       -0.043828383 -0.22862144 -0.4277253 -0.56383413
000010 ab 5d d7 be 56 01 3a bd fd 60 5a be 3f 0c 8a 3c
       -0.4206365 -0.04541143 -0.2132606 0.016851543
000020 14 d5 82 be 62 98 3d be 28 2b 43 bd c8 c7 76 be
       -0.2555319 -0.1851516 -0.04764858 -0.24099648
000030 87 b7 6c 3d 8a a9 f0 3c f4 4f 94 be c4 01 93 bb
       0.057792213 0.029377718 -0.2896725 -0.0044862945
000040 02 c9 c5 be d8 31 9a be 43 fa 80 be 80 33 12 bc
       -0.3862992 -0.30116153 -0.25190935 -0.008923411
000050 fd 14 d1 be a2 98 0b bf 98 7c 8d be b1 eb b6 be
       -0.40836325 -0.54529774 -0.2763412 -0.35726693
000060 6b 85 89 bc 0d af 95 bc d6 c8 ba be e2 a8 7c be
       -0.016787251 -0.018271947 -0.3648135 -0.24673799
000070 77 c1 cc be bc 8c c6 be d5 52 65 be 39 12 99 bc
       -0.39991352 -0.38779247 -0.22394879 -0.018685447

sfeb.4.running_var f4 [32]
000000 2f 47 c9 3e 29 ba cf 3e ec 10 2e 3f 20 38 aa 3f
       0.3931212 0.40571716 0.6799457 1.3298378
000010 3a 89 cf 3e cc b5 b7 3e 04 29 09 3f 6c ef f1 3b
       0.40534383 0.35880888 0.5357821 0.0073832776
000020 d6 e1 b3 3e b6 75 74 3e ff 27 85 3b 79 a0 f3 3e
       0.35133237 0.23873028 0.004063606 0.47583368
000030 3b ee 0e 3f b9 b3 79 3f 60 61 9a 3f 35 2b 26 3b
       0.5583226 0.9753986 1.2060966 0.0025355343
000040 cc 40 2e 3f e5 52 43 3f 20 61 5d 3f 0e 22 e7 3a
       0.6806762 0.7629836 0.86476326 0.001763405
000050 ea ba 33 3f f5 62 6d 3f 33 f8 33 3f 19 2c 0b 3f
       0.70207083 0.9272912 0.70300597 0.5436416
000060 23 7b 91 3a 6a ad 7c 3a 11 3c 0e 3f 44 5b 0b 3f
       0.001109932 0.0009638878 0.55560404 0.54436135
000070 83 fa e0 3e 0d 8d fb 3e a4 87 95 3e 2c d7 4c 3e
       0.43941125 0.4913105 0.29205048 0.20003957

tfeb.0.weight f4 [13, 1, 3, 3]
000000 f5 26 14 3d 4d 30 32 3a 55 6a c2 bb 1c 19 97 3b
       0.036169965 0.00067973585 -0.005933086 0.0046111476
000010 46 c1 0a 3a f7 32 de 3a 42 ed 0a 3b 4d 54 d8 3b
       0.0005293082 0.0016952445 0.0021198546 0.0066018463
000020 ee 82 da 3b ee 19 1e 3c 10 18 34 bc ca 83 7f 3c
       0.00666844 0.009649737 -0.010992065 0.015595386
000030 7e c9 89 3c ed 31 4e bc e1 27 6e 3c bc df 8d 3c
       0.016819712 -0.012585145 0.014535875 0.017318599
000040 2d 08 03 bc 9f 7e 92 3c 21 20 87 3e bd 9b 21 3e
       -0.007997555 0.017882643 0.263917 0.15782066
000050 9b 6c d6 be 1f d0 ca 3e f7 75 dc 3e 68 07 2a bf
       -0.41879734 0.3961191 0.4305875 -0.6641755
000060 6d 78 70 3e 26 dd 47 3e 69 da e9 be 5e f6 3c be
       0.23483439 0.19517955 -0.45674446 -0.18453357
000070 00 3e 83 bb df 8d 49 3e 73 7e 16 bf a8 8e fb 3e
       -0.0040051937 0.19683026 -0.58786696 0.49132276
000080 c0 e8 18 3f c3 d6 97 be 14 9d 26 3e d7 51 66 3e
       0.5973015 -0.29656038 0.16270858 0.22492157
000090 4a 40 0b 3d 66 f0 ef 3e a5 18 01 bf ed f1 aa 3d
       0.033996858 0.46863097 -0.5042823 0.08346925
0000a0 ac 5c 8d 3d 9f d7 b3 be b8 da 24 be 6a 95 8a bc
       0.069024414 -0.35125443 -0.1609906 -0.01691695
0000b0 14 da a2 be d3 04 1b 3d 66 ac 3b be 9f 89 2f be
       -0.31807005 0.037846398 -0.18327484 -0.17142342
0000c0 64 84 1c 3d 12 ee 4b be 0a 49 a0 be d9 3f 78 3e
       0.038212195 -0.19915035 -0.31305724 0.24243106
0000d0 d3 13 48 be fc a6 32 be 3d 9d 6b 3f 3d 90 01 bf
       -0.19538812 -0.17446512 0.920368 -0.50610715
0000e0 60 41 0e bf 43 7b 7f 3f ce 6a fb be 8e 9a 26 bf
       -0.55568504 0.9979746 -0.49104923 -0.6507958
0000f0 1f f5 ec 3e 73 52 a7 be 93 80 05 bf 73 c3 1b be
       0.46280763 -0.3268009 -0.52149314 -0.15211277
000100 60 b0 46 be 90 e2 1d be dc e5 a1 bd 8c 07 13 be
       -0.19403219 -0.15418458 -0.0790517 -0.14358348
000110 ae dc d0 bd ab 1d de 3d e0 9a 66 3e 58 d1 0d 3e
       -0.10198341 0.108455025 0.22520018 0.1384939
000120 09 11 52 be 55 4a 9e be 54 45 f5 bd 42 bb 3e be
       -0.20514311 -0.30916086 -0.11976114 -0.1862612
000130 31 37 85 be 98 cb 81 bd d8 5b b1 bd 6b 28 23 be
       -0.2601867 -0.063376606 -0.08660096 -0.15933387
000140 1b 3c fd bd c6 c8 7a bd 94 c3 ab bd a7 60 61 3d
       -0.1236498 -0.06122663 -0.08386913 0.055023815
000150 12 dc f2 bd 68 e2 16 be 9b 58 89 bc 5f 63 8d 3d
       -0.11858381 -0.14734805 -0.016765883 0.06903719
000160 a7 14 e5 be 77 eb ee 3e 76 02 af 3e a1 eb f0 3d
       -0.4474232 0.4666402 0.34181565 0.11763693
000170 55 42 e8 3d 81 27 9f 3e 41 35 30 3d 7c 6f 70 3d
       0.11340777 0.31084827 0.043019537 0.05870007
000180 c0 0f 58 bd 4d c3 9c bd bb da 21 bd 25 f1 91 bd
       -0.052749395 -0.07654438 -0.03951524 -0.07126073
000190 f8 92 2d be c0 e5 59 bd a4 8b 4c be dc 2e 8a be
       -0.16950595 -0.053197622 -0.19975144 -0.26988876
0001a0 c5 fb 16 be f4 af 67 3c 3b 7e 01 be 6e 9e 51 bd
       -0.1474448 0.014141072 -0.1264581 -0.05117648
0001b0 c3 1e 9f be 9e 59 5a be 55 b5 ab 3e 8d cc 31 bf
       -0.31078157 -0.21323249 0.33536783 -0.69452745
0001c0 55 6f 1c bf 20 7d 95 3f 45 97 b8 be e3 89 8d be
       -0.6110738 1.167881 -0.3605291 -0.27644262
0001d0 29 1d b4 3e
       0.35178497

tfeb.1.weight f4 [13]
000000 33 90 6a ba e7 ef 1c bb e6 c8 a3 3e 87 f6 a4 3e
       -0.0008947879 -0.0023946704 0.3198921 0.32219335
000010 18 7f b0 3e 3a 4c 9e 3e dc d1 1c 3f 01 8b a4 3e
       0.34471965 0.3091753 0.6125772 0.32137302
000020 fc 49 74 3f 1c 4e b7 3e 45 30 87 3e 94 58 05 3f
       0.9542539 0.3580178 0.26404014 0.52088284
000030 58 0b 0e 3f
       0.5548606

tfeb.1.bias f4 [13]
000000 be 7e 56 bc 47 d7 7d bc 24 2a 34 3e a7 6a 75 3e
       -0.013091741 -0.015493221 0.175942 0.23966466
000010 b6 e7 af 3e 32 fa bd 3e 65 b0 44 3d ce 4e 62 3d
       0.3435647 0.37104946 0.048019785 0.055250935
000020 e6 c0 8e be 71 90 87 bb 08 6c 4c 3e 72 2c 8a 3d
       -0.27881545 -0.004137092 0.19963086 0.067467585
000030 3f 18 3d 3e
       0.1846628

tfeb.1.running_mean f4 [13]
000000 66 ee 9f 3c 66 b3 b4 3c 48 3d 7e 3d 9d e6 6f 3e
       0.019522857 0.0220582 0.06207016 0.23427816
000010 e9 ec 83 be 80 22 b1 be fe 47 85 be 22 72 08 be
       -0.25766686 -0.34596634 -0.26031488 -0.13324788
000020 3e f6 0f bf a1 91 ec bd 8b 01 9f 3e 4a c9 cd be
       -0.5623511 -0.11551214 0.31055865 -0.40192634
000030 b1 7d 69 be
       -0.22801854

tfeb.1.running_var f4 [13]
000000 11 c3 70 3a 8c 01 8f 3a 47 e0 ca 3d de 8a 5c 3e
       0.00091843406 0.0010910495 0.09906059 0.21537349
000010 ab f6 48 3e 45 e6 8f 3e da 7b ca 3e 4d 6e 23 3e
       0.19625346 0.2810537 0.39547616 0.15960045
000020 16 64 2e 3f 5a e2 6a 3d 4b 9b 8d 3e 69 c0 bc 3e
       0.6812147 0.057344772 0.27657542 0.36865547
000030 47 27 8d 3e
       0.2756903

tfeb.4.weight f4 [25, 13, 3, 3]
000000 78 82 26 3b 9b 6f 36 bb 4e b1 98 3a 64 cc 6c ba
       0.0025407355 -0.0027837518 0.0011649521 -0.0009033142
000010 3d fd ab bb 7e 8f 50 bb 13 bc 21 3b 9c da c8 ba
       -0.005248694 -0.003182381 0.0024678751 -0.001532394
000020 69 98 e4 b9 6b 95 f5 3a c9 3a bc bb f5 88 86 3b
       -0.00043601103 0.0018736547 -0.0057443124 0.004105682
000030 ae d4 1a 3b 0d ef e0 bb 6a a8 53 3b d3 8d 4d 3b
       0.0023625302 -0.0068644346 0.0032296428 0.0031365051
000040 88 10 52 bb 4d 6c a4 3b 53 0a 6e 3d ed 24 6a bb
       -0.003205331 0.0050177933 0.058115315 -0.0035727576
000050 f0 f2 9d 3d f7 62 ec bd b1 d2 43 be cf c7 07 be
       0.07712352 -0.115423135 -0.19123341 -0.13259815
000060 3b 42 31 3d 5f 35 f3 bd 96 54 dc bc bf 8e f6 bc
       0.043276053 -0.11875414 -0.026895802 -0.030097364
000070 90 9b 81 bd 35 ea 91 bc a0 46 93 bd 69 18 5a bd
       -0.06328499 -0.017811874 -0.07191205 -0.053245936
000080 b2 66 36 bb 95 f7 f4 bd eb db f6 bc 17 f4 f0 3b
       -0.0027832207 -0.11961285 -0.030134162 0.0073533165
000090 07 df 8d 3d 2e df 56 3d 42 c3 ce 3d 27 a7 11 bd
       0.06927305 0.052458934 0.10095836 -0.0355598
0000a0 85 e9 80 bd 23 27 8b bd 7e 9b da 3c eb 81 86 3c
       -0.0629454 -0.06794574 0.026685473 0.016419372
0000b0 c7 63 13 3d 8a 92 84 bd 9e 2c c3 bb ed ee 34 bd
       0.035983827 -0.064732626 -0.0059562465 -0.04417317
0000c0 a6 f2 75 3c 70 fc 9d 3c db 95 3a bd 83 0d 59 3d
       0.015011465 0.01928541 -0.04555307 0.0529914
0000d0 22 5e 30 3c 30 5a 95 3c 62 be a1 3d e8 cf aa 3d
       0.0107646305 0.018231481 0.07897641 0.08340436
0000e0 0c b6 2f bd fc 0d 32 be 91 ca 4f bd fd 6d a0 be
       -0.042898223 -0.17388147 -0.05073029 -0.31333914
0000f0 4e 7a 98 3c d7 15 0a be f4 16 e8 bd 1a 45 81 bd
       0.018613007 -0.13484894 -0.11332503 -0.06312008
000100 56 89 f4 bc 55 ff 8f 3c e5 ba 77 3d 81 20 98 3d
       -0.029850643 0.017577806 0.06048097 0.07428075
000110 f9 ba ae 3d 54 62 57 bb 09 c8 4b bc d5 e1 87 bc
       0.08531756 -0.0032865005 -0.012437829 -0.016587177
000120 9c e8 fa ba bc 20 22 3c 81 61 38 3d d2 89 0a 3d
       -0.0019142809 0.0098955 0.045014862 0.033822842
000130 9c 2e 08 3b b8 a0 46 bb 23 89 c0 3d 0c 68 20 3d
       0.0020779734 -0.0030308198 0.09401157 0.039161727
000140 ba f8 ad bb a8 a6 81 3c 62 0c e3 bd 5a b2 2b 3d
       -0.0053091915 0.015826538 -0.11086346 0.041918136
000150 8f dd 18 3c 32 18 db bd f4 5b 0a 3d 88 ee 68 bc
       0.009330167 -0.10697974 0.0337791 -0.0142170265
000160 0a 32 80 bd 0d 8d a9 3c ec 98 79 3d e0 8f dc 3d
       -0.06259544 0.020697141 0.060936853 0.107696295
000170 c3 cc b3 3d 75 0c 23 be 1d f1 a4 bd ea 21 97 bd
       0.087792896 -0.1592272 -0.08053801 -0.073795155
000180 b9 a0 60 bd 25 d3 d7 bc 46 eb 6b bc fd c7 3c bd
       -0.054840777 -0.026345799 -0.014399355 -0.04608916
000190 88 26 63 bc 79 18 79 bc 9d 6f 83 3d 1c 0c 3e 3d
       -0.013864167 -0.015203589 0.06417773 0.046398267
0001a0 4c 87 1b 3c a7 31 38 3d 0c 5e fa 3c ff 5d 2f bc
       0.0094927065 0.044969227 0.030562423 -0.010703563
0001b0 cd c9 4b 3d ce 30 41 be fc 6c d4 bc 4e 91 8b 3d
       0.049753 -0.18866274 -0.025930874 0.06814824
0001c0 8d 15 45 be 0d a7 0d bc d2 7a 5d ba a8 67 24 bd
       -0.19246502 -0.008645785 -0.00084487826 -0.040137917
0001d0 ad 14 48 bc 4e 94 cb 3a 02 ed ba ba 4c d4 53 b9
       -0.012211961 0.0015531869 -0.0014261308 -0.00020201615
0001e0 1a e6 41 ba c8 d1 4f ba ac 01 30 ba ab b3 13 3b
       -0.00073966535 -0.0007927683 -0.00067141163 0.002253751
0001f0 3c 70 9d 3a c6 07 18 ba 1c 36 34 bb 7c 03 37 bb
       0.0012011598 -0.0005799498 -0.0027498072 -0.002792566
000200 2c de 9c ba 1d 3f 3b 3b 73 bb a6 3a d7 cf 19 3b
       -0.0011968068 0.0028571554 0.0012720659 0.002346983
000210 16 5c 37 3b bb 3b 09 3b f6 ae 73 3b 5d 28 aa bc
       0.0027978471 0.0020940143 0.0037183142 -0.0207712
000220 1d 9e 92 bc 23 6d a1 bd d0 a9 c1 bc 65 f8 7b 3d
       -0.01789766 -0.07882144 -0.023640543 0.061516184
000230 56 3e 1c bd b5 cd 56 3d d7 be 6f 3d 8c 11 41 3c
       -0.038145386 0.05244227 0.05853161 0.011783969
000240 f4 20 a8 3d 13 da 15 3d 4e 4f 8d bc 8b a1 20 3d
       0.0820941 0.036584925 -0.01724973 0.03921656
000250 5d f6 a3 bd 9c d6 15 be 6f 16 52 3d 76 b3 8e bc
       -0.080059744 -0.14632648 0.051290926 -0.017419558
000260 f3 89 7f bd 15 1b 07 bb 4d bb b3 bd 54 80 9a bd
       -0.062387418 -0.0020615507 -0.08775959 -0.07544008
000270 e6 a2 e5 bd 06 6b 13 be f2 92 a3 bd 5f f1 8c bd
       -0.11212711 -0.14396295 -0.07987012 -0.068819754
000280 94 84 7d bd ef 10 2d bc 9a 3e d2 3c 7b b8 54 3b
       -0.061894014 -0.010563119 0.025664616 0.0032458592
000290 e4 05 cc bc c4 3c b4 bd 7e c3 8f bd fb 42 34 bd
       -0.024905153 -0.088006526 -0.07019709 -0.04400919
0002a0 43 c6 c6 bd db 5b ad bd aa 3e 9f bc 7c 34 42 bd
       -0.09705784 -0.08464786 -0.01943906 -0.047413334
0002b0 6f c6 ba bd 9c b9 3e be 4d 18 52 be 70 a9 41 bd
       -0.091198795 -0.18625492 -0.20517083 -0.04728073
0002c0 4b 63 38 be 31 b1 90 bd 91 8d ef bc c2 e1 a8 bd
       -0.18006627 -0.070650466 -0.029242309 -0.08246185
0002d0 24 9e be 3d 2c 6d ba 3d cb 2b 78 3d 98 a8 9e bd
       0.09307507 0.09102854 0.06058864 -0.077470005
0002e0 cf 38 ab bd f2 76 88 bd 0a d2 bc b9 36 25 8d 3c
       -0.08360445 -0.06663312 -0.00036014646 0.017229658
0002f0 26 bf 6c 3d 07 37 29 3d 32 7b 09 3c e5 9b a2 bb
       0.05779948 0.041312244 0.008391188 -0.0049624317
000300 c4 29 a5 bb b1 7a ff bc 2f 2f c0 3b 7b 08 94 bc
       -0.0050403792 -0.031186434 0.0058649997 -0.01807045
000310 d2 ac 06 bd 80 fa a5 3c 2e bd 04 3d 12 7b 45 bd
       -0.032879658 0.02026105 0.03240698 -0.048213072
000320 8d d9 c4 bc 08 41 1b bd e6 f8 1e be f9 09 b1 bd
       -0.024029518 -0.037903816 -0.15524635 -0.0864448
000330 19 4b 14 bd cc 0f 56 bd 9d 02 67 bc 30 1c 10 bd
       -0.03620443 -0.05226116 -0.014099744 -0.03518313
000340 f0 78 f1 3b 34 02 46 bd 73 d0 81 3c dd 1a d7 3d
       0.007369153 -0.048341945 0.015846467 0.10503171
000350 bc 71 3f bc bc fd ac 3d cf 97 fd 3d 48 50 cc 3c
       -0.011684831 0.084468335 0.12382471 0.024940625
000360 b9 68 9c 3d 6b 46 74 3d 7e 77 24 3d 16 ea 0d bd
       0.07637162 0.05963747 0.04015302 -0.03464707
000370 bb 6b 51 bd 63 ab c5 bc af c0 a6 bd 0c 24 8e bd
       -0.05112813 -0.024129575 -0.0814222 -0.06940469
000380 28 40 35 bc bb b9 46 3d 7d 27 af bd ce d6 e1 bd
       -0.011062659 0.04851697 -0.08552454 -0.11027299
000390 c6 63 f6 bb e1 73 78 be 5f 09 5a be 89 0a b0 bd
       -0.007519218 -0.24262954 -0.21292637 -0.085957594
0003a0 d9 0a 03 be 30 33 d1 bd 26 3a 0b ba 6d 45 9e 3a
       -0.12797107 -0.10214841 -0.0005311094 0.0012075134
0003b0 46 ae b2 3a 77 b6 22 bb 5b 0b 23 bc 2b ef 6b bb
       0.001363226 -0.0024827996 -0.009951438 -0.003600071
0003c0 3c 52 bb bb 2e 5b 88 ba 6f db 4b bb ec 53 34 bb
       -0.00571659 -0.001040315 -0.0031106134 -0.0027515842
0003d0 c1 29 aa 3a ab c1 f0 b8 a3 b3 e7 bb 38 ae 4c bb
       0.0012982414 -0.00011480165 -0.007070975 -0.0031231772
0003e0 16 94 a4 bb 45 23 55 bb a6 93 d6 ba e0 fa de 3a
       -0.005022536 -0.0032522243 -0.0016370907 0.0017012022
0003f0 95 d3 c7 bc 75 90 97 bd 02 66 b9 3d 67 c6 6c bd
       -0.024392882 -0.074006 0.090526596 -0.0578064

tfeb.5.weight f4 [25]
000000 9c ac e2 3e 02 64 30 3e 5e b0 a3 3e 20 ce 99 3e
       0.44272316 0.1722565 0.31970495 0.30040073
000010 8d d9 ef 3e 9e cc c8 3e 12 50 83 3e 6b 0e 8b 3e
       0.46845666 0.3921861 0.25647026 0.27159438
000020 57 6a 23 3f d6 cb ab 3e 46 f8 68 3e 8c cc 1b 3f
       0.63834137 0.33553952 0.22750959 0.6085899
000030 d9 90 ff 3e 1a 2e 1f 3f b6 5c 5c 3e f7 0b 74 3e
       0.49915197 0.6217972 0.21519741 0.23832689
000040 55 61 af 3e 50 a7 51 3e aa a0 f4 3e 98 35 41 3e
       0.34253946 0.20473981 0.47778827 0.188681
000050 fb de ed 3e 58 46 64 3e e2 bf 7b 3e 86 f4 9b 3d
       0.46459183 0.22292459 0.24584916 0.076149985
000060 aa dd 84 3e
       0.25950366

tfeb.5.bias f4 [25]
000000 db 84 33 3d 6b f2 89 3e 03 d5 74 bc 5f d3 4d 3d
       0.043827873 0.26942763 -0.014943364 0.050250407
000010 6b 6f 0b bd 1a 67 f5 3d 49 f1 3c 3e 1d 41 a2 3d
       -0.034041803 0.11982556 0.18451418 0.079225756
000020 91 84 78 bd 63 76 7c bc bc fd 2b 3e 03 74 87 bd
       -0.0606733 -0.015409085 0.1679601 -0.06613924
000030 40 bc 54 be 31 3f c2 bd a6 9e 43 3e 94 d8 17 3e
       -0.20774937 -0.09484709 0.19103488 0.14828712
000040 2e 61 46 bc 86 c2 61 bd ad 86 8b bd 08 1c a9 3e
       -0.01210813 -0.055117153 -0.06812797 0.330292
000050 f8 3a 0a be cb ac 95 3e 32 b9 8e 3e ff ca a5 3d
       -0.13499057 0.29233393 0.27875668 0.08095359
000060 0f 88 79 bd
       -0.06092077

tfeb.5.running_mean f4 [25]
000000 f6 08 02 bf bc bc 89 bf b5 08 10 bd 65 0f 0f 3e
       -0.50794923 -1.0760722 -0.035164554 0.13970716
000010 a8 b7 40 bf 87 d9 fd be 32 d4 11 bf 3a 44 ea be
       -0.7528024 -0.49580023 -0.5696441 -0.45755178
000020 30 0b 1a bf ce 33 f1 be d8 39 09 bf cd d7 fa be
       -0.6017332 -0.47109836 -0.5360389 -0.48992768
000030 5b 9f be 3d 8d 2f aa be bf b0 e8 be c8 25 24 be
       0.093077384 -0.33239403 -0.45447347 -0.16030037
000040 16 a9 3d bf dd 53 40 be 56 87 a8 be a7 11 a7 be
       -0.7408613 -0.18781991 -0.32915753 -0.32630655
000050 4b 4f c1 bd 1f 77 29 bf e1 12 1c be c9 01 8e be
       -0.09438952 -0.6619739 -0.15241577 -0.27735737
000060 7d fd 42 3d
       0.047605027

tfeb.5.running_var f4 [25]
000000 db 5a 63 3e 49 51 45 3e 35 d0 28 3e 9f f7 19 3d
       0.22202627 0.19269289 0.16485675 0.037589666
000010 42 87 95 3e 0b fd 16 3e 2c 82 fa 3d b2 6e 92 3d
       0.29204756 0.14744966 0.122318596 0.0715002
000020 c8 89 a3 3e 99 0f b7 3d ca 2f 2c 3e 38 5a 9e 3e
       0.31941056 0.08938522 0.16815105 0.30928206
000030 95 6b 12 3e 2b 2e 20 3e b1 92 db 3d 5f 7a 15 3e
       0.14298852 0.15642612 0.107213385 0.14597462
000040 3a c0 d8 3d 4f 5b 00 3d 02 a4 02 3e ef 7d cd 3d
       0.10583539 0.03133708 0.12757877 0.100337856
000050 fc f5 25 3e 1f 66 ab 3e 95 17 39 3e 87 89 90 3c
       0.16207117 0.3347635 0.18075402 0.017643703
000060 1e e7 12 3d
       0.03586494

tfeb.7.weight f4 [28, 25, 3, 3]
000000 e1 8c 66 3c c6 52 4c 3c c6 39 18 3d 95 07 c5 3c
       0.014071674 0.012470907 0.037164472 0.024051467
000010 a3 ab e0 3c 4b 5c 51 3c d6 55 64 3c cc d0 36 3d
       0.027425593 0.012778352 0.0139364805 0.044632718
000020 d7 0d 10 3d be 53 1b 3c 47 89 09 bc ec 60 b2 bc
       0.03516945 0.009480415 -0.008394546 -0.021774732
000030 86 7b a8 3d 3e 9d d3 3d 0c bb 87 3d c2 f4 62 3d
       0.08226685 0.10332726 0.06627473 0.0554092
000040 f1 8f cc 3c a0 f7 5f bc 52 f0 fd bc b6 31 84 bc
       0.02497098 -0.013669878 -0.030998383 -0.016136985
000050 fb 13 b2 bc 42 49 fc bd f2 33 b1 bd da 06 73 bd
       -0.021738043 -0.1231866 -0.08652486 -0.059332706
000060 b6 f1 00 bd 5a cc 01 3c 85 bc 1a 3d 9b 7a 18 bd
       -0.031480514 0.007922256 0.037777442 -0.0372263
000070 f8 3a cf bc af aa 14 bd c1 c3 4e bd 1c 7b 3c bd
       -0.025296673 -0.03629559 -0.050479654 -0.046015844
000080 9f 69 1f bc e3 38 df bc c1 fa 0f bd b6 4a 8e 3d
       -0.009729772 -0.027248805 -0.035151247 0.06947844
000090 33 38 c1 3b 43 22 23 3d 12 53 94 3d 1a 35 de 3c
       0.005896592 0.039827596 0.07242407 0.02712493
0000a0 80 06 50 3d 11 4d 8e 3d 8c 07 a3 3b 7d 93 f9 3c
       0.05078745 0.06948293 0.004975265 0.030465836
0000b0 d6 e1 7f 3d c8 b5 87 bd 76 4e 41 bd a8 5d 24 3c
       0.062471233 -0.06626469 -0.047193967 0.010032095
0000c0 c8 17 7f bc 4c 7d 04 3d 6d 5f af 3c 24 51 59 bd
       -0.015569635 0.032346055 0.021407807 -0.053055897
0000d0 fd 5e 40 3b 80 1c a0 3c 34 ec ed bd 41 3e 2d bd
       0.0029353492 0.01954484 -0.11617318 -0.042295698
0000e0 98 a7 65 bd 7d 48 ee 3a 38 e6 f4 bb 2b df 2e bd
       -0.056068033 0.0018179562 -0.0074737333 -0.0426933
0000f0 e8 69 87 3c 7a 48 3a 3d 89 b3 9d 3b b9 2a d9 bb
       0.016529992 0.045479275 0.004812662 -0.0066274074
000100 cc 27 01 bc df f2 fc bb 24 15 88 3c 1c 1a 45 3d
       -0.0078830235 -0.007719382 0.016611643 0.048120603
000110 7c a9 27 3c 2b 53 8e 3c 52 81 c3 3c 2c f7 83 3c
       0.010233279 0.017373642 0.023865376 0.016109072
000120 b3 52 25 bd 3e 85 c2 3b f1 44 0b bd eb 9f 3f 3d
       -0.04036207 0.005936294 -0.034001295 0.04678337
000130 65 28 f0 3d 90 f4 ac 3d 2d 10 25 3c 24 f0 60 3d
       0.11726455 0.08445084 0.010074657 0.054916516
000140 55 63 70 3d 15 83 3a 3c eb a9 be 3b 77 bc 8d 3c
       0.05868848 0.011383791 0.0058185956 0.017301781
000150 0b 0d 6c 3b ae ff 7c 3c f5 e9 a5 3b ff 2f b2 3c
       0.0036018516 0.015441818 0.0050632902 0.021751402
000160 38 c4 e5 3c fe 81 9d 3c 51 a7 fd bc 5d f6 b7 bc
       0.028047666 0.019227024 -0.030963572 -0.022456342
000170 ec 37 67 bd 8f 8f 85 3d 13 4c b3 3d 61 b1 8a 3d
       -0.056449816 0.06521522 0.087547444 0.067721136
000180 2f 85 2d 3d a3 5d 77 3c 34 d3 65 bd 47 1b 21 3c
       0.042363342 0.015098008 -0.056109622 0.009833164
000190 c3 b2 47 3d bc 04 4c 3d 2a e3 c9 3c 58 c9 a9 3d
       0.048754465 0.049809203 0.024644453 0.082903564
0001a0 1d 83 55 3d 59 76 05 bd 72 74 a4 3b 9a da 45 bd
       0.052126992 -0.03258357 0.005018764 -0.048304178
0001b0 dd 9b 34 bd 14 36 17 bc a6 55 46 bc d1 4c 21 bd
       -0.044093955 -0.009229202 -0.012105381 -0.0393799
0001c0 dc 2a b2 bc 17 4d af bb 80 84 92 3a 06 55 df bc
       -0.021748953 -0.005349766 0.0011178404 -0.027262222
0001d0 c6 c7 64 3d af 44 df bc bb 5f c3 bc 4a 4f 15 bc
       0.05585458 -0.02725443 -0.023849359 -0.009113142
0001e0 21 a1 28 3c 6a 4c 19 bc 5d 15 e9 bc cf a9 95 3c
       0.010292322 -0.009356597 -0.02845257 0.018269448
0001f0 c7 fd 97 bb a5 65 2a bd db 4c 0b bc 7c 7c 2c bc
       -0.004638407 -0.041600842 -0.0085022105 -0.010527726
000200 b3 02 32 3b 22 41 a8 bc 71 8e 50 bc dd 95 c3 bc
       0.0027162253 -0.02053887 -0.012729273 -0.023875171
000210 26 c4 59 3d 66 ba 99 3d 6a ff 75 3d 43 e8 a5 3d
       0.053165577 0.07506256 0.060058035 0.08100941
000220 7e 2a a2 3d 5f 87 40 3d dd ac 0b bc 60 5a 2c 3c
       0.07918261 0.0470041 -0.008525101 0.010519594
000230 ec ba 5e 3d c1 ae 94 bd 54 bc 95 bd de 97 b6 bc
       0.05437748 -0.07259894 -0.07311311 -0.022289213
000240 a5 24 29 bd ac 20 b2 bc e8 df ef bb 72 a6 ce ba
       -0.041294713 -0.021744095 -0.007320393 -0.0015766157
000250 10 88 2f bc da b9 89 bc d8 b3 c6 3b 9e 9e ce 3c
       -0.010713592 -0.016812254 0.0060639195 0.025222119
000260 cd 94 29 3d 7c 48 a2 3a 34 4e 92 3c 10 a2 21 3d
       0.041401673 0.0012381221 0.017859556 0.039461195
000270 1f c0 50 bc c3 5e a2 bc e2 61 83 3c 81 68 18 bc
       -0.012741118 -0.019820577 0.016037885 -0.009302259
000280 d5 b1 8c bc c7 17 32 bc 67 c0 74 bc c0 65 39 bc
       -0.01717464 -0.010869927 -0.01493845 -0.011315763
000290 d4 ab f7 bc d0 c4 8b bc f9 e7 29 3d c7 f2 ee 3c
       -0.030233301 -0.017061621 0.041480992 0.0291685
0002a0 11 cd 21 3d 96 89 9c 3d b2 c7 2d 3d 32 96 e0 3c
       0.039502207 0.0764343 0.042426772 0.027415369
0002b0 44 e8 0b 3c 53 f0 bb 3c 25 c5 e9 bb 3e 48 ca bc
       0.008539263 0.022941744 -0.007134097 -0.02469265
0002c0 81 b6 02 3d b8 ea 23 bc 67 a2 aa bc 94 2e 5e 3c
       0.03191233 -0.010004692 -0.020829393 0.01356091
0002d0 4d f1 2b bd 67 99 cc bc e6 bd bb 3c eb 6d 13 bd
       -0.04197817 -0.024975492 0.0229177 -0.035993498
0002e0 97 88 5b bd 80 00 58 bd fd ad 7f bb bd bb 80 bc
       -0.05359706 -0.05273485 -0.0039013617 -0.01571452
0002f0 3a f0 e0 bc 0c ab 79 bd 66 eb f6 bc 38 5a 8d bb
       -0.027458299 -0.06095414 -0.030141544 -0.0043137334
000300 1a a7 98 3d 43 a6 b9 3d 28 40 ca 3d 52 3d ba bc
       0.07453747 0.09064915 0.09875518 -0.022734318
000310 af ea 1f 3b 28 99 8b 3d 73 2c 22 3d fc 72 11 3d
       0.0024401357 0.068163216 0.03959317 0.03551005
000320 7f 50 cc 3c 12 f1 22 bd e9 46 77 bd 66 93 98 bd
       0.024940727 -0.039780684 -0.06037036 -0.07449989
000330 20 dc 95 3d 98 ac b5 3d bf db ac 3d 55 ab 94 3b
       0.07317376 0.0887081 0.08440351 0.004537026
000340 77 3e bb ba 8f 8a 03 bb 7f 11 f8 3c e8 a4 c7 3c
       -0.0014285584 -0.00200716 0.03028178 0.024370626
000350 ca ad 2b 3d 38 97 8c 3c 0b ad be bb 22 a9 87 3c
       0.041913785 0.01716195 -0.005818968 0.016560141
000360 1c 87 b6 3a b3 c5 d0 bb 16 ea 17 3c 74 18 96 3c
       0.0013925764 -0.006371224 0.009272119 0.018322207
000370 44 42 88 3c 2a 28 73 3d 5d 9e 93 bc 6f 29 b6 bc
       0.01663316 0.059364475 -0.01801985 -0.022236554
000380 8f 59 d1 39 ee be b9 3d 62 a1 45 bd d9 f9 5f bd
       0.00039930313 0.0906962 -0.04824961 -0.054681633
000390 14 a4 3d 3d 1c 83 0f be d4 7b 03 be 19 71 20 3e
       0.046299055 -0.14014858 -0.12840205 0.15668143
0003a0 a7 20 7f bd e0 35 93 bd 83 25 0e 3d c6 96 30 3c
       -0.062287 -0.0718801 0.034703743 0.010778135
0003b0 06 18 51 3d b1 1a b0 3d 70 0c 8a 3d f2 55 41 3c
       0.0510483 0.08598841 0.067406535 0.011800276
0003c0 1d 6b 18 3d 1e 3c dc bb bd 7c 05 bd 08 a6 01 bd
       0.037211526 -0.0067210337 -0.032589663 -0.03165248
0003d0 28 71 a4 3d 78 d9 17 3d 76 d5 47 bd ca 4e 97 bd
       0.08029395 0.03707263 -0.048787557 -0.07388075
0003e0 d1 6d 90 bd da cc dd bc 0a 42 8a bd 25 07 1f be
       -0.07052196 -0.02707522 -0.06750877 -0.15530069
0003f0 3f 4e fd 3b 6f ae a6 bc 1f ad b7 bd 65 0b 8e bd
       0.007730275 -0.020346848 -0.08968567 -0.06935767

tfeb.8.weight f4 [28]
000000 6b fd 87 3e 6e d2 fe 3e 12 ac 5b 3e df d9 b7 3e
       0.2656053 0.4976992 0.21452358 0.3590841
000010 dc ed dd 3e a7 6d b5 3e c4 11 95 3e 4a dc 85 3e
       0.43345535 0.3543522 0.29115117 0.2614463
000020 74 81 0e 3e 0c 2f ce 3e b5 9d a3 3e c3 9e d9 3e
       0.1391657 0.4027027 0.31956258 0.42503938
000030 7a c4 ab 3e ab 5e 8c 3e 2c 70 6e 3e 92 95 c5 3e
       0.33548337 0.27415976 0.23284978 0.38590676
000040 4a f3 c6 3e 10 e6 07 3f aa ba e5 3e 3e 29 d4 3e
       0.3885749 0.5308542 0.44868976 0.41437715
000050 ea 10 0c 3f 5c 48 c2 3e 16 50 83 3e 86 9e ad 3e
       0.5471331 0.3794583 0.25647038 0.33910006
000060 cb e2 00 3f 6d 3d c1 3e 7a 6a d0 3e be ee 64 3e
       0.5034606 0.37742177 0.40706235 0.22356698

tfeb.8.bias f4 [28]
000000 40 b4 1b 3e 6b 94 11 be 76 5c 1d 3d 8e 72 7f bd
       0.15205479 -0.14216773 0.038418256 -0.062365107
000010 4c 2a d4 bd 1c 73 44 3d 2b 6f 9b 3c 75 5c 93 3d
       -0.1035963 0.04796134 0.018973907 0.07195369
000020 da 30 15 3d 8d 07 aa bd eb 4d fb bd 15 4b 95 bd
       0.03642354 -0.083022214 -0.12270721 -0.072897114
000030 4b cf 84 bd df ad aa 3d 1c 70 41 3e 95 f9 19 bd
       -0.064848505 0.083339445 0.18890423 -0.037591536
000040 f5 f3 f8 bd 3e dd fe bd 1d 70 17 bd 1a e2 20 bd
       -0.12155906 -0.12444542 -0.036972154 -0.039278127
000050 09 a9 2c be e5 41 9f bc e7 7d b6 3d c0 26 5b b8
       -0.16861357 -0.0194406 0.08910733 -5.2249758e-05
000060 5c 7f 56 bc d7 30 41 bc d8 2b a2 bb 57 3a 08 3e
       -0.013091888 -0.0117914295 -0.0049490742 0.13303505

tfeb.8.running_mean f4 [28]
000000 0a 63 9c 3e ed 99 b4 be 63 13 53 be 79 54 f6 bd
       0.3054431 -0.35273686 -0.20612864 -0.12027831
000010 5d 04 b7 be 7c ca 06 3d 59 b1 a4 be 98 0e c5 be
       -0.35745516 0.032907948 -0.32166556 -0.38487697
000020 2a 4f 8c bd 4f 57 12 3d 2a a4 4c 3e b2 10 69 3e
       -0.06851037 0.035727795 0.19984499 0.22760275
000030 4c dd 3d be 1e 29 84 3d 21 dc 5f 3e a7 5a 0a bf
       -0.1854145 0.06453155 0.21861316 -0.54044574
000040 24 09 88 be cf 67 0b bd 61 0b 1c be 22 5a 10 3d
       -0.26569474 -0.034034546 -0.15238716 0.035242207
000050 fe e7 8f be 45 a1 8d be 57 ad 55 bf d6 2c 67 be
       -0.28106683 -0.276621 -0.8346762 -0.22575697
000060 4f 30 99 bc ef c8 c9 bd 6e 37 c5 be e4 9e f8 3e
       -0.018699793 -0.09852778 -0.38518852 0.48558724

tfeb.8.running_var f4 [28]
000000 0e 37 13 3d f1 b2 28 3e 8e 0b 9f 3c 8a ce 1e 3d
       0.035941176 0.1647451 0.01941469 0.03877119
000010 7f 33 ad 3d 43 2f 58 3d dc 5b 0f 3d 39 43 58 3d
       0.08457088 0.052779447 0.034999713 0.052798484
000020 85 e7 53 3c 3d fa e5 3d f4 10 17 3d 40 be 1c 3d
       0.0129336165 0.1122937 0.036881402 0.038267374
000030 30 f9 d7 3d 8d 35 92 3d 4a a7 85 3d 13 8f 44 3d
       0.105455756 0.0713912 0.065260485 0.04798801
000040 b9 3b 9e 3d c0 0d 37 3e 09 a6 00 3e 3d 7c 9a 3d
       0.07726235 0.17876339 0.12563337 0.07543228
000050 9b 20 e5 3d dd 25 cf 3d f1 8a 5c 3d ba eb da 3d
       0.111878596 0.10114644 0.053843442 0.106894925
000060 9a 9e 8f 3d db 09 39 3d 22 e8 24 3d d7 be 7c 3d
       0.07012673 0.045175415 0.04026044 0.061705437

tfeb.11.weight f4 [32, 28, 3, 3]
000000 87 e6 98 bc c5 c9 d6 bc e5 8b f7 bc 1e b2 cd 3c
       -0.018664612 -0.026219258 -0.030218074 0.025109347
000010 18 00 f0 3c 2c 3e 99 3c 16 90 8c 3d ed 35 5f 3d
       0.02929692 0.018706404 0.0686342 0.054494787
000020 ca de 34 3d f6 2a e1 bc 8e 41 b5 3b e6 68 4a bc
       0.04415778 -0.027486306 0.0055314964 -0.012354111
000030 2b 53 16 3c e9 45 42 3c dc 15 6b 3c d0 d1 8c bc
       0.009175102 0.011857488 0.014348473 -0.01718989
000040 f8 c3 c8 bb a8 a7 64 3c a1 8b 4c bc 32 82 f0 bc
       -0.006126877 0.013955988 -0.012484462 -0.029358957
000050 09 02 dd bc ef 07 a9 bc 9b 12 c5 bc c2 7e 93 bc
       -0.02697851 -0.020633666 -0.024056723 -0.018004779
000060 38 8d 08 3d 64 62 8b 3c be 45 97 3c 26 f9 01 3d
       0.0333378 0.01701469 0.018465873 0.031731747
000070 ef e6 d8 3c 49 da 1c 3d 98 31 12 3d d8 05 cb 3c
       0.026477305 0.03829411 0.035691828 0.02478306
000080 3b ea 0b ba 4e 10 3d 3a 9c 9d d5 3c 8e 52 96 bc
       -0.0005337332 0.00072122074 0.02607613 -0.018349912
000090 21 2c 11 3d 56 f7 bc 3c 3e ef 31 3d 38 c7 af 3c
       0.035442475 0.023067158 0.04344105 0.0214573
0000a0 72 31 3a 3c a5 0c aa 3c 2c 6a 95 bc 93 e9 9a bd
       0.011364328 0.020757983 -0.018239103 -0.07564082
0000b0 cd fa 00 bd 31 fa c9 bc 15 3a b5 bc 6a 25 82 bc
       -0.031489182 -0.024655433 -0.022122422 -0.015886981
0000c0 c8 2a a6 3c 21 2f 9a 3c 2f 33 c4 b8 6d 18 21 bd
       0.020284072 0.018821301 -9.355542e-05 -0.039329935
0000d0 3c f4 05 bd 0d bb 3b bc 06 64 48 3b e3 d0 22 3c
       -0.032703623 -0.011458171 0.0030577197 0.009937498
0000e0 be c2 e8 3b 2b 9c 8d bc 29 11 65 bc 06 23 79 bc
       0.007103293 -0.01728638 -0.013981142 -0.015206104
0000f0 bf 43 17 bb 68 49 7d bc 18 37 ad bb c7 63 0a bd
       -0.0023081151 -0.015459396 -0.0052861087 -0.03378656
000100 0b 4e 1f bc a5 ca 8f bc 08 d0 64 bd 9a dd fb bc
       -0.009723197 -0.017552683 -0.055862457 -0.030745316
000110 4c c9 a3 bc 68 6e cb bc 1d 5b 89 bc 8e 79 88 3c
       -0.019993447 -0.02483292 -0.016767079 0.016659524
000120 52 0f 0c bd 80 47 df bc 0e e9 ed bc fe cd ab bc
       -0.034194298 -0.027255774 -0.029041793 -0.020972248
000130 ef ff 81 bc f1 b6 e9 bb d6 7c 6b 3b 61 92 73 3a
       -0.015869109 -0.007132404 0.0035932562 0.00092915265
000140 1e bc 1b 3c e8 62 84 ba 14 14 fd ba 2e c3 a5 3c
       0.0095053 -0.0010100277 -0.0019308352 0.02023467
000150 da 31 95 3c 26 2d 34 3d 64 28 ae 3c 4c 9c 3f bc
       0.018212248 0.04398837 0.021259494 -0.011694979
000160 05 e2 6e b9 32 0c 15 3c 80 82 04 3c 4f 83 11 3c
       -0.00022781648 0.009097146 0.008087754 0.008881404
000170 61 f1 1a 3b d6 ca c6 3c ef 84 dc 3c df b6 23 b9
       0.0023642408 0.024266642 0.026918856 -0.00015613016
000180 0a e3 d0 3c 8d 54 14 3d 4b 5b c8 3c ed b7 13 3c
       0.025498886 0.036213446 0.024457594 0.009016019
000190 d5 14 0b 3d a1 31 c7 3c 1c 4d 25 bb be d8 b8 3a
       0.033955414 0.024315657 -0.0025222963 0.001410268
0001a0 27 a0 9e bc 40 4f 1d 3d f9 7d a7 3c 45 15 66 3c
       -0.019363476 0.038405657 0.02044581 0.014043157
0001b0 b6 6f 26 bd 36 a4 85 bd 77 22 79 bd ea 68 86 bd
       -0.04063388 -0.065254614 -0.060823884 -0.065629795
0001c0 64 27 9d bd bb 21 80 bd 34 2d 2c 3d 80 8d 39 3d
       -0.07673529 -0.062564336 0.042035297 0.04530096
0001d0 f6 7b 4f 3d f1 d6 99 bc b8 55 81 bc 54 38 0f bc
       0.050655328 -0.01877925 -0.015787944 -0.008741457
0001e0 a3 d3 c8 3c bb 17 a8 3c 60 82 dc 3c f7 70 95 3c
       0.024514979 0.020519128 0.026917636 0.018242342
0001f0 b8 8b 1a 3d 39 6c 42 3d 60 c8 91 bd a6 23 9d bd
       0.037730902 0.04746649 -0.071182966 -0.07672815
000200 bd 2c ab bd fe d5 ab 3c 56 1f 83 3c ba ac 0c 3d
       -0.083581425 0.020976063 0.016006153 0.034344412
000210 55 05 4d 3d 8c 7e 0f 3d 83 fc 44 3d 80 4a c2 3c
       0.050053913 0.035032794 0.048092376 0.023717165
000220 a5 d9 3f 3d 74 95 1b 3d 0f 96 90 38 05 a0 81 3c
       0.04683842 0.037984326 6.894406e-05 0.015823374
000230 6b 25 9f 3c 18 58 37 3c 61 01 2e bc 81 f7 5e 3a
       0.019427022 0.011190437 -0.010620446 0.0008505509
000240 1a 15 3c bd d0 bd b9 3c a0 74 29 3b ff 6c 22 bd
       -0.04591856 0.022673517 0.0025856867 -0.039654728
000250 7f 86 22 3d 99 0c a3 3c 90 da 1f bd 62 26 ed 3c
       0.039679047 0.019903468 -0.039026797 0.028948966
000260 b8 f6 2e 3d 21 85 16 bd 0d 9c fe bc 4c 38 28 bd
       0.042715758 -0.036748055 -0.03108027 -0.041069314
000270 e4 cc 2d bd e9 fa 5b 3d 96 0d 05 3d 66 e1 35 bd
       -0.042431727 0.053706083 0.03248366 -0.04440441
000280 d4 51 27 bc 92 43 82 3c 89 75 45 3c 28 4b 05 3c
       -0.01021238 0.01590136 0.012051948 0.008135594
000290 97 7d 86 3c d8 74 8e 3b 62 bf ab bc cf b5 2d bd
       0.016417308 0.004347425 -0.020965282 -0.042409714
0002a0 dc f0 d0 bb 69 8f c7 bc f2 af e1 bc a4 4c c2 3b
       -0.006376369 -0.024360375 -0.027549718 0.0059295464
0002b0 32 8c 57 bb b9 0b e8 bb f5 c7 1d 3d f2 23 5e 3d
       -0.003288996 -0.0070814756 0.038520772 0.0542335
0002c0 55 b1 63 3d 10 8f 70 bc 9c f8 1b bc 09 a4 ca bb
       0.05558904 -0.014682546 -0.009519722 -0.0061841053
0002d0 dc a9 25 3c 0b e1 fc bb e1 41 71 3a 37 9b 23 bb
       0.010111298 -0.007717257 0.0009203237 -0.0024964341
0002e0 f1 cd 87 bc 4a ae b4 bc 99 ee 87 bc 49 b2 13 bd
       -0.016577693 -0.022055764 -0.016593264 -0.036058698
0002f0 c5 2e 1f bd fa 39 36 bd 36 64 41 bc b1 cf 8b bc
       -0.038862962 -0.044488885 -0.011803677 -0.017066808
000300 e0 d0 10 bd d9 ec ad 3b e7 20 dd 3c 02 f0 32 bd
       -0.03535545 0.0053077755 0.026993228 -0.04368592
000310 80 dd 6f bc 83 42 f6 3b b0 85 9c bc 2f 1d c0 3c
       -0.014640212 0.007515253 -0.019106716 0.023451416
000320 1b a8 20 3c 72 e7 61 bd 62 73 72 bc 9b a8 ff bc
       0.0098057045 -0.055152364 -0.014798017 -0.031208327
000330 2c cd 7d bc 03 6f 86 3c 5a f7 99 3c 1d 03 38 bd
       -0.015490811 0.016410356 0.018794704 -0.044924844
000340 a7 ca e3 bc 47 1d 62 bc 01 b4 d2 bc de 33 b0 bb
       -0.027806593 -0.013800926 -0.025720598 -0.005377277
000350 72 65 64 bc e1 92 62 bc 42 81 94 3b c4 60 25 3c
       -0.013940202 -0.013828964 0.0045320103 0.0100938715
000360 c3 aa 95 bb f1 20 1d bc 1a f5 5d 3b 6e d6 e8 ba
       -0.0045674755 -0.009590373 0.0033868016 -0.00177641
000370 60 9e 77 bc 49 88 dc bc f6 af dc bd 94 4b b1 bd
       -0.015113443 -0.026920455 -0.107757494 -0.086569935
000380 ea 27 9d bd 7c fa c8 bb 58 af 6c bc 15 0d b9 3a
       -0.07673629 -0.0061333757 -0.014446102 0.0014118279
000390 3d 72 cb 3b 72 22 36 3c 19 ad a5 3c b0 c0 9e 3c
       0.0062086866 0.011116611 0.020224141 0.01937899
0003a0 a9 4c 20 3d bd 8a 33 3d f0 01 0e 3b d3 56 db 3b
       0.03913561 0.043833483 0.0021668635 0.0066937
0003b0 36 2f 12 3c 8d 37 1a bb f2 a6 8b 3b 95 4b 45 bc
       0.008922389 -0.0023531646 0.004261845 -0.012041946
0003c0 ed 47 b2 bc 30 08 7f bb c1 a4 d1 bb 1a bf 0e bd
       -0.021762813 -0.0038914792 -0.006397814 -0.034850217
0003d0 91 86 22 bd 48 9e 5b bd fa b2 5e 3d 50 e9 79 3d
       -0.039679114 -0.053617746 0.054369904 0.06101352
0003e0 5d ca 89 3d 00 85 85 3d 8a 75 60 3d 9d ca 85 3d
       0.06728051 0.06519508 0.054799594 0.06532786
0003f0 0d 27 09 be 5b fc 63 bd ce aa bb 3c f2 16 29 be
       -0.13393803 -0.055660587 0.022908594 -0.16512659

tfeb.12.weight f4 [32]
000000 4c fc a5 3e e7 44 c3 3e 1c 00 b2 3e 31 60 a0 3e
       0.3241905 0.38138506 0.34765708 0.31323388
000010 ac 15 61 3e 62 28 f3 3e 31 9d c4 3e 4c e9 d9 3e
       0.21980923 0.47491747 0.38401178 0.42560804
000020 77 ca 21 3f 0d 65 9a 3e d5 a8 ca 3e 80 39 d7 3e
       0.6319956 0.3015522 0.39581934 0.42036057
000030 e6 3a c5 3e ff 1c 96 3e 5b 25 bc 3e bc 5b 8f 3e
       0.38521498 0.29318997 0.3674725 0.27999675
000040 53 b6 c2 3e 5c 04 9a 3e 76 82 b6 3e 84 b6 aa 3e
       0.38029727 0.3008145 0.3564641 0.33342373
000050 b1 20 af 3e 23 9b bc 3e 1c 12 d8 3e ff 9a a5 3e
       0.3420463 0.3683711 0.42201316 0.32344815
000060 4e 16 75 3e 20 de fb 3e 2e ac 3d 3e 09 0e 89 3e
       0.2393429 0.49192905 0.18522713 0.2676852
000070 b4 c0 a7 3e 4c ae fa 3e 6a 75 cf 3e fb ae 16 3f
       0.32764208 0.48961103 0.40519267 0.5886075

tfeb.12.bias f4 [32]
000000 12 d7 51 be 52 1a 3d 3d 4e 19 12 be 3f 0d a3 bd
       -0.20492199 0.04616768 -0.14267465 -0.07961511
000010 74 03 a2 bd 96 3e 4a be 30 d1 f7 bd ef 0c 1f be
       -0.07910815 -0.19750437 -0.12100446 -0.15532278
000020 af 6b cf be a1 ae 6a 3d d2 13 fb bd a4 f0 5f bd
       -0.40511844 0.057295445 -0.1225964 -0.054672852
000030 55 bd d5 bd 37 6a af 3c 9b 8b 1d be e6 5f bd bd
       -0.10436503 0.021412952 -0.15385287 -0.09246807
000040 d5 58 51 be af 52 53 3e 7e 76 7a bd 7c d4 5a 3d
       -0.20444043 0.2063701 -0.06114816 0.053425297
000050 42 70 b1 bd e5 3c 0e be 4f 5a 96 bd a8 72 14 3e
       -0.086639896 -0.13890417 -0.07341444 0.14496863
000060 ac df 5f bd 12 d9 61 bd 07 3d f9 bd 67 91 95 bd
       -0.05465667 -0.055138655 -0.12169843 -0.07303124
000070 12 69 5b bd 83 41 49 be d0 2d 4e be 08 8a 32 be
       -0.053567 -0.19653897 -0.20134664 -0.17435467

tfeb.12.running_mean f4 [32]
000000 06 ba 8d bd a9 1a 20 bf 54 43 a1 be 27 68 22 3e
       -0.06920247 -0.6254068 -0.3149668 0.15860043
000010 06 26 38 be 0c 54 85 bf 4c 56 ff bd 62 33 e9 be
       -0.17983255 -1.0416274 -0.12467632 -0.45547014
000020 59 7e 3f bf ba 19 cf bd 6b 87 c5 be 63 88 30 bf
       -0.74802166 -0.10112329 -0.38579878 -0.6895811
000030 c3 d0 fd be 6c bd 1c bf 7a df 2e bb 7f 87 d0 3c
       -0.49573335 -0.61226535 -0.0026683495 0.025455235
000040 8e a4 bd be 12 8c 32 be 46 9b cf bd 68 cc 05 bf
       -0.37039608 -0.17436245 -0.10137038 -0.52265024
000050 08 13 a4 be 79 39 1a bf 6a cf d8 be 7e 76 fc be
       -0.3204577 -0.60243946 -0.42345744 -0.49309152
000060 5c fb fb bd d0 77 5e bf a3 6e 55 be 54 ba 12 bd
       -0.12303802 -0.8690157 -0.20842986 -0.035822228
000070 64 14 80 be 05 0c c4 be b5 bb 8d be af 5d 5e bf
       -0.25015557 -0.3829042 -0.27682272 -0.868617

tfeb.12.running_var f4 [32]
000000 19 df 56 3d af c5 d7 3e 34 00 3e 3e 4d f4 1a 3e
       0.052458856 0.42143008 0.18554765 0.15132256
000010 39 5d 21 3d 12 9a ec 3e aa 8a 75 3e 17 64 6e 3e
       0.039395545 0.46211296 0.23978677 0.23280369
000020 cb df ab 3e 2f 8b 39 3e fb 4d 96 3e 75 67 b8 3e
       0.33569178 0.181195 0.2935637 0.3601643
000030 ea d3 3b 3e e2 fc 2f 3e 71 b7 19 3e 4d 23 37 3e
       0.18342558 0.17186311 0.15011384 0.1788456
000040 9d 3a 0a 3e 44 66 d9 3e 11 69 09 3e 69 f6 5f 3e
       0.13498922 0.42460835 0.13418986 0.21871342
000050 0b c1 f8 3d ca bc 7b 3e 4c c8 b5 3e 35 0f d1 3e
       0.12146195 0.24583736 0.35504377 0.40831915
000060 b2 a2 e6 3c a5 9b 2d 3f 13 95 bc 3c af d6 20 3e
       0.028153751 0.6781562 0.023020303 0.15706895
000070 25 de ba 3d db ff b6 3e 36 e4 46 3e 6f 9b 20 3f
       0.09124402 0.35742077 0.19422993 0.6273717
