trained_models/step_5_retrain_after_step_4/retrain_4C_after_2nd_pruning_prunratio0.85_2024060419/retrained_4Cmodel_ratio85.0_vaacc93.47826385498047_tracc_83.30592105263158@830epoch_20240604232044.pt (torch, 309234 bytes, 62 tensors)

sfeb.0.weight f4 [8, 1, 1, 9]
000000 66 2b 7c 3e bd 45 12 3e 12 fc 8d 3e a3 77 ad 3e
       0.2462593 0.14284416 0.27731377 0.33880338
000010 31 2f a4 3d 43 53 86 be 61 8c f3 be 70 24 91 be
       0.080168135 -0.262354 -0.47568038 -0.28348112
000020 56 f3 88 bd 89 3c c1 3b b6 cf 9f 3c 4a df 6b bd
       -0.06687038 0.005897109 0.019508224 -0.057585992
000030 6b 81 95 be 9d b5 61 3d 78 00 4b be bd 40 97 be
       -0.292003 0.05510484 -0.19824398 -0.2954158
000040 58 ba b4 3e 25 0d 0e 3f 7d 4e 2f be c8 71 60 be
       0.3529842 0.55488807 -0.17119785 -0.21918404
000050 17 db 55 3e ba 93 98 3d c8 a8 35 be bd 43 63 be
       0.20884357 0.074500516 -0.17740166 -0.22193809
000060 1c 14 00 3e 42 a2 a1 be d2 67 d3 be d1 b0 2e 3f
       0.12507671 -0.31569105 -0.41290146 0.6823855
000070 49 90 bb 3e 20 a9 3e bd 0f 8d 0f bc 68 78 2a be
       0.36633518 -0.04654801 -0.008761658 -0.16647494
000080 4e 33 72 3c d3 05 f4 3d 4e 0d 65 bc 47 0e ac 3d
       0.01478274 0.119151734 -0.013980223 0.08401161
000090 5d cf 1b bf d3 0d ac be fe 93 80 3d 8a 38 af 3d
       -0.60863286 -0.33604297 0.06278227 0.08555706
0000a0 be a5 97 3e b8 a9 4d 3e f6 fa 31 be 5e a3 34 3d
       0.2961864 0.20084274 -0.1738089 0.04410111
0000b0 69 3f f8 bd 1d ce 99 be 06 fe f8 bc 4c c9 45 3e
       -0.121214695 -0.30040064 -0.030394565 0.1931507
0000c0 2e 8c b4 3d 7c 60 d2 be 5d 7e bd 3d 56 1d 17 3f
       0.088158 -0.41089237 0.092526175 0.5902914
0000d0 77 c2 e4 bc 5e 13 f9 be 4c 14 49 bd 9f f3 56 be
       -0.02792476 -0.48647588 -0.049091622 -0.20991372
0000e0 8a 31 69 3e 3d cc b4 bd 3a cc eb be b1 d8 f9 3e
       0.22772804 -0.08828018 -0.4605425 0.48798135
0000f0 a5 c3 93 3c 7e 01 e2 be 72 9d d1 3e c8 34 4a 3d
       0.018037627 -0.44141763 0.40940434 0.049366742
000100 30 5b 8d 3c 20 88 3d be 03 20 f4 bd f9 60 37 3e
       0.017255396 -0.18508959 -0.11920168 0.17908086
000110 3b 26 5e 3e 1c 27 a4 bc b7 8e a1 3e 00 99 0e 3f
       0.21694271 -0.02003818 0.31554195 0.5570221

sfeb.1.weight f4 [8]
000000 f3 c2 69 3f 3e 60 45 3f fd 9a 33 3f 79 85 3f 3f
       0.91313094 0.7709998 0.7015837 0.7481304
000010 d9 13 47 3f cd 46 07 3f f3 9d f1 3e 6a c0 2c 3f
       0.7776466 0.5284241 0.47190818 0.674811

sfeb.1.bias f4 [8]
000000 9e 18 30 3d a6 18 e1 3c 65 da 6c 3d 39 b7 69 3e
       0.042992227 0.027477574 0.057825465 0.228238
000010 a0 0a 81 3d 99 e9 4a 3e c9 d6 5d 3d ff 7a 27 3d
       0.06300855 0.19815673 0.054159913 0.040888783

sfeb.1.running_mean f4 [8]
000000 86 87 12 b6 c4 80 0f 38 54 3e 9d b9 02 a8 8f 39
       -2.183458e-06 3.421378e-05 -0.00029991812 0.0002740026
000010 f4 7e 15 b9 04 ba 97 b8 21 34 0b b8 8f bc 8d 39
       -0.00014257041 -7.234889e-05 -3.318873e-05 0.00027034103

sfeb.1.running_var f4 [8]
000000 f0 5d bd 3c 69 ce 5d 3c 14 32 2f 3c ee 6c ab 3c
       0.023116082 0.013537982 0.010693092 0.020925965
000010 02 14 a7 3c 7f d6 0d 3c bb 45 ed 3a 40 6b 63 3c
       0.020395283 0.008657097 0.0018102446 0.013880551

sfeb.3.weight f4 [32, 8, 1, 5]
000000 a1 7b 65 3d ef 42 33 be 8a 15 7f bc 83 c1 4b 3d
       0.056026105 -0.17506002 -0.0155691 0.049745094
000010 3a 96 10 be 40 e1 9c bd 1a ae eb bd d7 89 56 bd
       -0.14119807 -0.076601505 -0.115078166 -0.052377548
000020 ab c9 58 bb 0d 8e 6d bc b1 3e 72 3e 63 49 50 3e
       -0.0033079188 -0.0144992 0.23656727 0.20340495
000030 a7 11 76 3e 2c 1b 0d 3e 99 e4 b1 3d 5b 68 d4 bd
       0.24030171 0.13779896 0.0868618 -0.10371467
000040 01 81 2e bd 7d e8 83 be 5f e2 3c bd 5d a0 e1 bd
       -0.042603496 -0.25763312 -0.04611432 -0.11016915
000050 26 73 22 3e 94 e7 36 3e b6 ed 93 3d 42 4a 34 3e
       0.15864238 0.17861778 0.07223074 0.17606452
000060 e1 24 19 3e d7 f3 68 3d 68 1a 96 bc b7 70 77 bd
       0.14955474 0.05687317 -0.018323138 -0.060410228
000070 f3 cc 8a bb bf 78 d0 3c 37 b3 46 3b d9 a1 bb bc
       -0.0042358576 0.025448201 0.0030319223 -0.022904323
000080 c9 48 1a 3d a7 d9 13 3d a3 e7 36 bc 96 b0 63 bd
       0.03766707 0.03609624 -0.011163625 -0.055588327
000090 97 3f be bd 29 16 16 be 78 ae d2 bc fc 1e 2d bd
       -0.092894726 -0.14656891 -0.025717959 -0.042265877
0000a0 43 e5 2e be a0 c9 1d be 67 67 16 bd d9 d5 80 3d
       -0.17079644 -0.15408945 -0.036719706 0.06290788
0000b0 b8 28 b0 3d e4 59 2d bc 03 4f 13 be 1b 93 ea bd
       0.086015165 -0.010580514 -0.1438561 -0.114538394
0000c0 74 2a 0b bd eb b7 83 bd 56 76 b1 3d 84 ad a4 3d
       -0.033976033 -0.06431564 0.08665149 0.08040908
0000d0 62 5a 95 3d 09 c4 6c 3e ca 3c 93 3e 25 41 64 be
       0.0729263 0.23121656 0.28757316 -0.22290476
0000e0 32 ec df bd dc b2 c5 bd 32 ef 72 bc 08 75 03 bd
       -0.109337226 -0.09653255 -0.014827536 -0.03209403
0000f0 66 e0 15 3e 08 30 0c 3e 4c c6 7e 3c 4f 70 a9 bd
       0.14636382 0.13690197 0.015550207 -0.08273374
000100 29 18 3d 3c 4c f6 c9 bb e8 a2 df 3d dc d0 bb bc
       0.011541405 -0.006163394 0.10919744 -0.02292674
000110 44 06 0e bb 75 95 85 3c cf 39 40 bc 06 ee 4b bd
       -0.0021671215 0.016306618 -0.011732533 -0.049787544
000120 35 11 7f bc 06 c5 d3 bd b7 33 11 bd e0 e4 7c bd
       -0.015568067 -0.103403136 -0.03544971 -0.06174171
000130 28 9b 87 bd 88 60 7d be cf 6a 2d be b6 10 d5 bd
       -0.066213906 -0.24743855 -0.16935275 -0.10403578
000140 10 8e 04 be d2 7c 53 be b7 b2 f0 bc 56 ba 82 bc
       -0.12944818 -0.20653084 -0.029382093 -0.015957993
000150 29 d8 b6 bd a6 72 e7 bd d8 ba 75 bd 49 e3 7b bd
       -0.08927948 -0.11301164 -0.05999264 -0.061496053
000160 93 58 36 be 20 e1 10 be e8 24 12 3e 0e 1d 5d 3e
       -0.17807226 -0.14148378 0.14271891 0.21593115
000170 40 e7 03 3e c6 66 42 3e 0d de 86 3e 56 75 3e be
       0.12881184 0.18984517 0.26341286 -0.18599448
000180 78 e3 a9 bd 79 b0 42 be 18 39 e9 bd 82 56 be bd
       -0.08295339 -0.19012631 -0.11387843 -0.09293844
000190 29 27 3d bd 0c 34 19 3c cd 01 3d 3d b0 cb f8 3d
       -0.046179924 0.009350788 0.046144295 0.12148225
0001a0 5c 66 4d 3d b4 08 2c bd 39 38 7e 3d 60 4a 4d bd
       0.050146446 -0.042000487 0.062065337 -0.050119758
0001b0 c5 b2 ce 3d 73 a8 12 3d ec a7 35 bd ed 13 ef bb
       0.10092691 0.035805177 -0.044349596 -0.0072960765
0001c0 60 0d 5d bd 15 d8 89 bd 28 04 ef bd 83 81 13 be
       -0.053967834 -0.067306675 -0.116707146 -0.14404874
0001d0 f9 5e 80 be 75 c3 84 be ed 81 00 be 41 72 ff bd
       -0.25072458 -0.25930372 -0.12549563 -0.12472964
0001e0 1e 6a d4 bd 0e c8 70 3d eb 0d ff bd e8 5b 8f bd
       -0.10371803 0.058784537 -0.124538265 -0.069999516
0001f0 87 52 6e be 4f fb ff bd 18 cf 10 bd 9e 64 4c 3d
       -0.23273669 -0.12499105 -0.03535375 0.049900644
000200 25 bc b6 bc 78 2d af bd 5d 24 a4 be c4 42 85 be
       -0.022306511 -0.08553594 -0.32058993 -0.260275
000210 ac 69 68 be 4f 1e 66 be 33 7f aa be 3f 98 cb 3d
       -0.2269656 -0.224725 -0.3330017 0.09941148
000220 2c 82 53 3e cf 2c 91 3e 96 48 1d 3e a9 ff f7 3d
       0.20655125 0.283545 0.1535972 0.1210931
000230 1e 91 a3 bd 34 45 02 be 5b 3d 8e be e0 eb ba bd
       -0.07986663 -0.12721711 -0.27781186 -0.09127021
000240 7d b4 dc bd 2e 1c 07 3d 58 ff 19 be f1 42 13 be
       -0.10776613 0.03298586 -0.15038812 -0.14381005
000250 16 a3 3b be 24 81 33 be f1 5e ec bd 56 b0 39 be
       -0.18323931 -0.17529732 -0.11541546 -0.18133673
000260 8b a2 76 be 59 7a 11 be ff 36 f9 bd a6 cb 38 3e
       -0.24085443 -0.14206828 -0.12168693 0.18046436
000270 2b f8 4b 3e e5 d6 6d 3e b2 7d b5 3e 62 82 a3 3e
       0.19918887 0.23226507 0.3544746 0.31935412
000280 57 0e 0e be f7 76 b5 bd fe cf 0a be f1 3a cf bd
       -0.13872658 -0.08860581 -0.13555905 -0.10118664
000290 5f ae 1e bd ee 10 9e 3d 16 8c ab 3c 27 f2 13 3c
       -0.038740512 0.07718073 0.020940822 0.009029902
0002a0 14 f9 86 3d e3 69 4e 3c 73 f1 fd bd c1 03 a8 bd
       0.06590477 0.012598488 -0.123995684 -0.08203841
0002b0 e1 cc e0 bd e0 95 38 be 85 29 a4 bd 5f 32 4a be
       -0.109765776 -0.18025923 -0.08015732 -0.19745778
0002c0 b5 aa 06 be 2d 9f c2 bc d8 db 8d bb c0 61 91 3d
       -0.13151057 -0.023757542 -0.004329186 0.070987225
0002d0 d8 40 de bd db 7e f7 bc e8 37 3e 3d 20 0b 13 bd
       -0.10852212 -0.030211857 0.046440035 -0.03589928
0002e0 30 9f bc bd 13 59 0f bd 94 b0 03 bd 82 e1 d5 3c
       -0.0921005 -0.034997057 -0.03215082 0.026108507
0002f0 10 93 5d bd 0f a6 eb bc f1 50 24 bd 7f 1a 16 3c
       -0.054095328 -0.028765706 -0.040116254 0.009161591
000300 45 97 cb bc 53 e4 4a bb 52 b7 2e bd 84 66 7a bd
       -0.024852404 -0.0030958846 -0.042655297 -0.061132923
000310 83 11 03 3d 71 fc c4 3d c2 9a 00 3e dd 97 3e 3e
       0.031999122 0.09618462 0.12559035 0.18612619
000320 69 6a 45 bd fa 35 27 be 36 b1 32 be f9 93 50 be
       -0.048197184 -0.16329184 -0.17450413 -0.20368947
000330 67 bd bc bd cb bd c3 3d 3c 53 6a 3e 67 0c dc 3d
       -0.09215813 0.095576845 0.22883314 0.10744553
000340 12 b4 81 3d d9 2b 06 3e 38 55 c5 3d f4 d3 54 bd
       0.06333174 0.13102664 0.09635395 -0.051959947
000350 bd 05 01 bd f7 ec b3 bd ee 60 40 be 80 73 d2 bd
       -0.031499613 -0.08785432 -0.18786976 -0.10275936
000360 3d 96 6a be 5f a4 61 be 86 1d 97 bd 83 b6 b5 3c
       -0.22908874 -0.22035359 -0.07378678 0.022181755
000370 0c 6d b8 bc 0f c6 23 3c 0a f3 12 bc 21 0a 31 3e
       -0.022512935 0.009995951 -0.008969078 0.1728902
000380 f2 50 d3 3c 5f 5e ca 39 9c c3 28 3d 24 2d 45 3c
       0.025795434 0.00038598754 0.041202173 0.012034688
000390 46 ee 4d 3d c3 de 88 bd 43 8b a3 3d 4e 68 76 3d
       0.050276063 -0.066831134 0.079855464 0.060158066
0003a0 7d 9d a1 3d 62 61 a5 3d 16 fa a2 bb b2 0d 3b bd
       0.07891367 0.08075215 -0.00497366 -0.045667358
0003b0 ea 45 49 bd d8 ef 4a 3d 6d 78 db 3d 83 2e ea 3d
       -0.04913894 0.04954514 0.10716329 0.11434653
0003c0 00 48 fe 3d 4d ec cd 3d c5 cd bc 3d 55 ce a7 3d
       0.12416077 0.100548364 0.09218935 0.081936516
0003d0 f3 af a4 3d 65 62 29 be 29 53 43 be 25 fd 62 be
       0.08041372 -0.16541441 -0.19074692 -0.2216688
0003e0 2c 93 17 bd 41 9b 85 bc 1f 97 ae bc 8d e3 61 3c
       -0.03700559 -0.016309382 -0.021312295 0.0137871625
0003f0 6c 34 ce 3d 07 5f a2 3d f0 4b 34 3e 66 62 6f 3e
       0.100685924 0.07928281 0.17607093 0.2337738

sfeb.4.weight f4 [32]
000000 3f 00 3e 3f e1 c7 d8 3e 82 3c 49 3f cf 7f 93 3f
       0.74219126 0.42339996 0.7860795 1.1523379
000010 42 b2 a8 3e a4 68 be 3e e2 75 12 3f 3a 83 16 3a
       0.329485 0.3718921 0.57211125 0.00057416
000020 94 87 dc 3e 13 ac 05 3f c2 2b 5f 3c 71 0f 1f 3f
       0.43072188 0.5221569 0.0136212725 0.62132937
000030 73 31 16 3f 0e 34 3f 3f 3d 84 66 3f 31 9b 41 ba
       0.58669204 0.74688804 0.9004553 -0.0007385491
000040 1d 8c 13 3f fc ba d6 3e 2d 04 10 3f 8b 34 81 39
       0.5763567 0.41939533 0.5625637 0.00024643945
000050 ce 24 05 3f 80 54 10 3f 73 aa 36 3f a4 a3 d7 3e
       0.52009284 0.56378937 0.71353835 0.42117035
000060 21 67 1e 3a d9 8c 44 3a e1 ae c4 3e b3 a5 05 3f
       0.0006042589 0.00074977946 0.38414672 0.5220596
000070 a1 49 b8 3e 32 fa 0a 3f 7e 27 da 3e 8a f4 c8 3e
       0.35993674 0.5428802 0.42608255 0.39249068

sfeb.4.bias f4 [32]
000000 32 cd 24 3e 6b 56 41 be d2 50 21 be 64 80 41 bd
       0.16093901 -0.18880622 -0.15753487 -0.047241583
000010 86 b5 8d bd 58 b3 fa bb d6 30 0c 3e d4 0a 85 bd
       -0.069193885 -0.007650774 0.13690504 -0.06496206
000020 21 06 17 3d c5 72 94 bd 16 3e bc bc b6 3c 23 3d
       0.03687108 -0.07248453 -0.022978824 0.03985282
000030 10 4b de 3d 38 52 b5 3d 70 e5 32 3d e8 2c 1d bd
       0.10854161 0.088535726 0.04367584 -0.038372904
000040 aa cc 88 bd 55 25 87 3d 12 5e dd bc 21 9d ae bc
       -0.066796616 0.065989174 -0.027022395 -0.02131516
000050 15 02 ff ba 68 97 17 be 1f cc b2 bd 30 60 1f 3d
       -0.0019455577 -0.1480385 -0.08730339 0.03891009
000060 f7 e5 90 bc 43 b6 9f bc 4a 80 d2 3c 44 4a 3c bd
       -0.01768778 -0.019496089 0.025695939 -0.045969263
000070 01 54 e8 bd 78 7c 9d bd 1f 4d cb bd 3f 9f 98 3d
       -0.113441475 -0.07689756 -0.09926819 0.07452249

sfeb.4.running_mean f4 [32]
000000 45 5f a0 bc 64 af 47 be 17 9c be be fa 3f 95 be
       -0.019576678 -0.195005 -0.37228462 -0.29150373
000010 d7 d0 9c be 0a d8 36 be 0d b5 f1 bd 34 ba 3e 3c
       -0.30628082 -0.1785585 -0.11802111 0.011641074
000020 18 54 82 be 34 dd 06 be 6a 62 28 bd 1c ac 64 be
       -0.25454783 -0.1317032 -0.04110948 -0.2233128
000030 d1 11 46 bd 79 22 d5 3d 7a 19 39 be 3c 4b 03 bb
       -0.048356835 0.10406966 -0.18076125 -0.0020033857
000040 16 3a 93 be ca 9e 7e be 7c 69 8f be 0b 65 f8 bb
       -0.28755254 -0.2486526 -0.28010166 -0.0075804046
000050 15 f3 9a be 33 4d ee be a3 b8 a3 be b2 00 6c be
       -0.30263582 -0.46543273 -0.31976804 -0.2304714
000060 9b fd 8b bc a7 47 76 bc 9c 25 ad be 81 55 30 be
       -0.017088702 -0.015031732 -0.33817756 -0.17220117
000070 d2 87 ac be 44 7e cb be 2d 99 47 bd fb 0f 74 bd
       -0.33697373 -0.3974477 -0.048730064 -0.059585553

sfeb.4.running_var f4 [32]
000000 45 bb 91 3e 86 8c 98 3e db a9 04 3f 7f bd 79 3f
       0.28463188 0.2979471 0.5182168 0.97554773
000010 88 0a 84 3e 82 49 9d 3e fa f3 c8 3e 87 f7 bf 3b
       0.25789285 0.30720145 0.3924864 0.005858365
000020 04 09 8b 3e 03 ba 46 3e 0c 51 43 3b ff 0b c6 3e
       0.27155316 0.19406895 0.0029802946 0.38681027
000030 75 fe db 3e 11 0d 36 3f 40 f9 6b 3f 55 ed ec 3a
       0.42967573 0.7111369 0.921772 0.0018076102
000040 ab a9 ee 3e 83 15 04 3f 41 fc 26 3f 69 76 ad 3a
       0.4661382 0.51595324 0.6522866 0.0013234142
000050 50 95 06 3f ac 53 21 3f 8b 52 29 3f 28 27 d5 3e
       0.5257158 0.630183 0.66141576 0.41631436
000060 00 76 62 3a f3 10 40 3a 39 6c db 3e d4 69 da 3e
       0.0008638799 0.00073267444 0.42856005 0.42658865
000070 05 43 ba 3e c7 a6 d5 3e 7e be 40 3e ea 08 21 3e
       0.36379257 0.41728804 0.18822667 0.15726057

tfeb.0.weight f4 [13, 1, 3, 3]
000000 0f 1b 07 3d 2e 80 22 3a 7a 4c b1 bb e3 ca 89 3b
       0.03298479 0.000619891 -0.005410728 0.004205094
000010 32 15 fd 39 0c a1 ca 3a 2d 66 fd 3a d2 46 c5 3b
       0.00048271712 0.0015459373 0.0019332819 0.0060204053
000020 d9 44 c7 3b 80 2e 10 3c 2c 3a 24 bc 1a 04 69 3c
       0.0060812053 0.008800149 -0.010023635 0.014222169
000030 a1 4e 7b 3c df 07 3c bc c5 30 59 3c 6a 61 81 3c
       0.015338571 -0.011476486 0.0132562565 0.015793521
000040 f7 f6 ee bb 90 98 85 3c 0d bd 4b 3e cb 3d 06 3e
       -0.007292624 0.016308099 0.19896336 0.1310951
000050 4b 58 c9 be 66 ef c2 3e 71 bc ee 3e 86 c4 27 bf
       -0.39325175 0.38073272 0.46628144 -0.65534246
000060 b7 7b 49 3e 79 7a 17 3e aa ca e5 be c9 9e 64 be
       0.196761 0.14792813 -0.44881183 -0.22326197
000070 9c 66 cb bc c1 2e f9 3d df be 15 bf 12 89 f2 3e
       -0.024829201 0.12167121 -0.5849437 0.473702
000080 1f 93 04 3f 70 a8 95 be bb 14 22 3e 7e 97 49 3e
       0.5178699 -0.2923007 0.1582822 0.19686696
000090 b2 6e 08 3d 9b 0b d3 3e 80 2d f6 be bf ac b4 3d
       0.033308692 0.41219792 -0.4808159 0.08822011
0000a0 20 b1 ec 3d d4 6a a7 be b6 43 27 be e6 30 62 bd
       0.115572214 -0.3269869 -0.16334423 -0.055222414
0000b0 1e 3d a1 be c0 f4 14 3d 18 8d 1e be 87 a9 35 be
       -0.3149194 0.036366224 -0.1548351 -0.17740451
0000c0 f9 34 e0 3c 07 cf 51 be 5b fd 91 be e4 49 78 3e
       0.02736901 -0.20489131 -0.28513607 0.24246937
0000d0 2a 32 36 be a7 8f 0a be e3 4a 5c 3f 45 2d f4 be
       -0.17792574 -0.13531362 0.8605177 -0.47690788
0000e0 c2 24 fa be 82 f6 65 3f 95 3c 0a bf 8d 9a 26 bf
       -0.4885617 0.89829266 -0.5399869 -0.65079576
0000f0 6f d4 df 3e 73 e4 93 be de 46 e3 be f7 b2 f3 bd
       0.4371676 -0.2888523 -0.44390005 -0.11899369
000100 d2 4e 2f be 79 45 07 be ec 06 ac bd 1b 00 1a be
       -0.17119911 -0.13210095 -0.08399758 -0.15039103
000110 8d 00 e3 bd 8b 87 e0 3d e5 fc 65 3e b5 a5 01 3e
       -0.110840894 0.10963353 0.22459753 0.12660868
000120 64 1a 27 be 8f 3c 95 be 40 14 f1 bd 27 6d 1f be
       -0.16318661 -0.29147765 -0.117714405 -0.15568982
000130 7d f3 85 be 12 4d 8a bd 9d 55 cb bd 51 2a 2c be
       -0.2616233 -0.06752981 -0.09928439 -0.16813017
000140 f3 9f d1 bd cb ff 47 bd b4 5f 9f bd a4 b9 3e 3d
       -0.10235586 -0.048827928 -0.07781926 0.04656376
000150 a2 a4 db bd 46 4d 0d be 04 03 e8 bc d6 34 d7 3d
       -0.107247606 -0.13799009 -0.02832175 0.105081245
000160 c8 91 ec be 43 ee d7 3e 0a b8 9e 3e e0 00 e1 3d
       -0.46204972 0.42173967 0.30999786 0.10986495
000170 aa 17 ed 3d 40 f9 91 3e bb 30 7c 3d d8 f2 86 3d
       0.11576779 0.28510475 0.06156991 0.065892875
000180 a7 ef 8d bd 78 bc a5 bd 51 37 ca bc 82 d9 a3 bd
       -0.06930476 -0.08092588 -0.02468458 -0.08000471
000190 be 5f 37 be c2 0e 65 bd be d7 35 be 20 76 7e be
       -0.17907616 -0.055922277 -0.1775808 -0.24849749
0001a0 fc da 01 be 7c 23 c5 3c a4 b2 ee bd 44 de 1e bd
       -0.12681192 0.024064772 -0.11655167 -0.038786188
0001b0 a8 6a 90 be 32 f4 64 be 4a 46 9e 3e f1 f5 24 bf
       -0.28206372 -0.22358778 0.30913 -0.64437777
0001c0 ae eb 0d bf f4 56 8d 3f 99 98 ba be 59 af 94 be
       -0.55437744 1.1042161 -0.36444548 -0.2904003
0001d0 26 9d a5 3e
       0.32346457

tfeb.1.weight f4 [13]
000000 01 e9 55 ba 2e fa 0e bb 2b 3f 8f 3e 69 b8 92 3e
       -0.00081600255 -0.00218166 0.2797788 0.2865632
000010 0d 2a b4 3e 55 b5 9d 3e 9e 7d 10 3f e2 45 9c 3e
       0.35188332 0.30802408 0.56441677 0.30522066
000020 56 57 68 3f 35 a3 c6 3e 85 79 89 3e e9 89 fd 3e
       0.90758264 0.38796392 0.26850525 0.4951928
000030 70 49 f6 3e
       0.48102903

tfeb.1.bias f4 [13]
000000 a5 9c 43 bc b2 7d 67 bc 63 b9 21 3e f8 f1 70 3e
       -0.011939202 -0.014129089 0.15793376 0.23529804
000010 64 e8 95 3e 8e ed bd 3e c3 9d c9 3c 47 1c 71 3d
       0.29278862 0.37095302 0.02461136 0.058864858
000020 58 e8 9b be 0f d6 10 bd 10 8c 41 3e f2 68 12 3d
       -0.30450702 -0.035360392 0.18901086 0.035744615
000030 28 73 1b 3e
       0.15180647

tfeb.1.running_mean f4 [13]
000000 f4 e4 8d 3c f3 3f a0 3c a5 9e 45 3c b6 f7 03 3e
       0.017321087 0.019561743 0.01206175 0.12887463
000010 a6 64 78 be e7 e8 9b be 12 54 82 be d3 5d f8 bd
       -0.24257144 -0.30451128 -0.25454766 -0.121272705
000020 ab 12 04 bf a4 3d e4 bd 46 a4 92 3e 5a 46 bb be
       -0.51590985 -0.111445695 0.28640956 -0.3657711
000030 d1 5f 63 be
       -0.2220452

tfeb.1.running_var f4 [13]
000000 76 c3 38 3a 67 91 59 3a 38 a5 b8 3d 36 f9 01 3e
       0.0007048169 0.00082995597 0.09015888 0.12692723
000010 d7 aa 32 3e a9 ba 5e 3e b9 6b b3 3e 55 38 04 3e
       0.17447983 0.21750893 0.35043123 0.12912114
000020 c3 0d 0d 3f 27 06 4d 3d d4 6d 6c 3e 44 05 96 3e
       0.55099124 0.050054695 0.23088771 0.29300892
000030 24 15 82 3e
       0.25406754

tfeb.4.weight f4 [25, 13, 3, 3]
000000 86 d8 17 3b cc 5d 26 bb 0e 3f 8b 3a 74 f2 57 ba
       0.002316983 -0.0025385497 0.001062365 -0.00082377275
000010 78 d8 9c bb bc 31 3e bb 6f 7e 13 3b 7b 2b b7 ba
       -0.0047865473 -0.0029021343 0.002250578 -0.001397475
000020 c1 76 d0 b9 63 f7 df 3a 26 a9 ab bb 6e 5e 75 3b
       -0.0003976133 0.0017087277 -0.00523867 0.0037440318
000030 bb 32 0d 3b 8b 20 cd bb 66 05 41 3b 2a 73 3b 3b
       0.002154513 -0.006259983 0.002945268 0.0028602579
000040 dc 90 3f bb 2d f2 95 3b 10 7c 92 3d 6a d2 7e bb
       -0.002923063 0.0045759887 0.07152569 -0.003888274
000050 8f 3a 60 3d f1 ca c1 bd eb 9f 34 be 65 c8 0c be
       0.054743346 -0.09462536 -0.17639129 -0.1374832
000060 ad 5b 5d 3d 62 43 ce bd 04 49 15 bd 57 06 02 bd
       0.054042507 -0.10071446 -0.036446586 -0.031744327
000070 b4 74 93 bd cc de 98 bc 23 81 9c bd ba a8 7a bd
       -0.07199994 -0.018660925 -0.076418184 -0.061196066
000080 0e c7 f2 ba 89 a3 d4 bd 78 b4 0b bd 19 ce 31 3c
       -0.0018522458 -0.10382754 -0.034107655 0.01085236
000090 20 60 a8 3d fb 0f 51 3d ad 4e bd 3d a2 e1 9e bc
       0.082214594 0.05104063 0.09243522 -0.0193947
0000a0 92 a8 58 bd 35 aa 7a bd 37 f0 d6 3c c7 27 3e 3c
       -0.052895136 -0.06119748 0.02623759 0.011606163
0000b0 ac 49 ad 3c b5 e4 6c bd e8 7f 12 bc d1 6e 42 bd
       0.021153294 -0.0578353 -0.008941628 -0.047468964
0000c0 03 33 fb 3c 84 78 e2 3c a6 ca 07 bd 91 0d 36 3d
       0.030663973 0.027645357 -0.033152245 0.04444653
0000d0 67 67 5d bb 3f 8a 98 3b 6c 6b d3 3d 95 45 b9 3d
       -0.0033783556 0.004655152 0.103232235 0.09046475
0000e0 e3 99 22 bd e5 cc 11 be ee cc 21 bd 1a b6 8b be
       -0.03969754 -0.14238317 -0.039502077 -0.2728737
0000f0 9d b7 04 3d a3 2c 06 be 4d b4 d1 bd bf ec 57 bd
       0.03240167 -0.13102965 -0.10239468 -0.052716013
000100 81 5c c5 bc c1 53 71 3c b5 25 6c 3d 60 f5 8e 3d
       -0.02409196 0.014729441 0.057653148 0.06980395
000110 3e 72 a3 3d 8f 46 4f 3b 75 67 28 bc 9a 98 6e bc
       0.07980774 0.003162775 -0.010278572 -0.01456275
000120 00 56 73 3b ef 67 5a 3c 72 b5 48 3d 35 ae ea 3c
       0.0037130117 0.013330444 0.049001165 0.028647522
000130 49 c4 b0 ba 4d 52 d4 ba 3a de b6 3d 12 46 10 3d
       -0.0013486232 -0.0016198844 0.08929105 0.035223074
000140 7b 1b 97 ba 84 15 89 3a 40 9e ec bd a9 19 c5 3c
       -0.0011528576 0.0010458683 -0.11553621 0.024060087
000150 98 dc b6 3a ce 2e d6 bd 65 94 d6 3c 56 2a b5 bc
       0.001395124 -0.10458146 0.026193807 -0.022114914
000160 2c ae 94 bd 0d 40 1a 3c f0 0d 7f 3d e9 58 c5 3d
       -0.07259783 0.009414685 0.06226915 0.09636099
000170 eb b4 9f 3d ae 41 18 be b9 9c a5 bd 80 5e 93 bd
       0.07798179 -0.14868805 -0.08086533 -0.07195759
000180 4b 9b 44 bd 81 d8 ee bc 94 3e 88 bc d3 17 1d bd
       -0.04799966 -0.029155971 -0.016631402 -0.0383528
000190 50 6a 31 bc 04 54 75 bc ef 22 8d 3d e1 e1 4e 3d
       -0.0108285695 -0.014973644 0.06891429 0.050508384
0001a0 f9 d5 80 3c 8d 70 1c 3d 12 88 9e 3c d1 f1 92 bc
       0.01572703 0.038193274 0.019351993 -0.017937573
0001b0 06 d6 01 3d 46 43 3b be d9 71 11 bd 4d c9 5d 3d
       0.03169825 -0.18287382 -0.035508964 0.054147054
0001c0 fc f3 36 be 74 00 0e bc 46 85 8b bb 5e c4 55 bd
       -0.1786651 -0.0086671 -0.004257831 -0.052189223
0001d0 01 9f 8b bc 05 a7 b9 3a 0b 77 aa ba fb 2c 41 b9
       -0.017043592 0.0014164156 -0.0013005448 -0.00018422671
0001e0 4d d3 30 ba 2c 86 3d ba 24 81 20 ba f9 b1 06 3b
       -0.00067453535 -0.0007229771 -0.0006122759 0.0020552857
0001f0 25 93 8f 3a 7f a4 0a ba c6 57 24 bb a9 e5 26 bb
       0.0010953887 -0.0005288794 -0.002507673 -0.0025466478
000200 15 10 8f ba ad c1 2a 3b 96 0b 98 3a 65 43 0c 3b
       -0.0010914827 0.0026055381 0.0011600133 0.0021402475
000210 2f 36 27 3b 31 4c fa 3a fd 39 5e 3b f3 ff d2 bc
       0.0025514474 0.0019096193 0.0033909075 -0.025756812
000220 ce f9 62 bc 44 21 a0 bd 2d bc 00 bd 10 34 67 3d
       -0.013853503 -0.07818845 -0.03142946 0.056446135
000230 74 76 16 bd 70 e0 1f 3d 15 bc 47 3d 76 40 ef 3b
       -0.03673406 0.0390324 0.048763353 0.0073013855
000240 29 e8 76 3d bd 01 aa 3c f3 69 0c bd 09 7e e1 3c
       0.06028 0.020752782 -0.03428073 0.027525919
000250 14 84 9e bd d7 86 12 be 94 20 5c 3d f1 8d 8d bc
       -0.07740036 -0.1430925 0.053742006 -0.017279597
000260 1b f6 74 bd eb aa 5f 3b b6 52 a4 bd 5a f5 8c bd
       -0.059805017 0.0034128975 -0.08023588 -0.068827346
000270 6a 1e cc bd d9 ce 06 be f6 d4 91 bd e7 81 87 bd
       -0.099667385 -0.13164844 -0.07120697 -0.06616574
000280 bd 2d 7f bd 9a 78 64 bc 3a 55 ce 3c 27 9c 62 3b
       -0.06229948 -0.013944769 0.025187124 0.0034577937
000290 dc 0e b0 bc 7b b8 ac bd 5b 9e 8d bd 38 25 27 bd
       -0.02149146 -0.08433624 -0.069149695 -0.04080698
0002a0 4f fc c1 bd 23 f0 ac bd bc d1 a9 bc 75 00 25 bd
       -0.09471952 -0.0844424 -0.020729892 -0.04028364
0002b0 28 77 96 bd 26 2e 34 be f7 82 43 be 3f 69 3a bd
       -0.07346946 -0.17595729 -0.19092928 -0.045510527
0002c0 21 a4 28 be 46 8b 7f bd a7 9e 11 bd fd 7c 9f bd
       -0.1646886 -0.06238868 -0.035551693 -0.077875115
0002d0 a3 5d b3 3d 2a a6 b4 3d fd fb 69 3d d3 7d 9f bd
       0.08758094 0.08820756 0.05712508 -0.07787671
0002e0 7c 02 a4 bd a1 c9 80 bd 14 f1 3f ba 29 10 89 3c
       -0.08008286 -0.06288458 -0.0007321995 0.016731339
0002f0 00 8b 67 3d a5 1b 28 3d 40 ec 04 3c 51 fa b6 bb
       0.056529045 0.04104199 0.008112967 -0.0055840393
000300 dc 61 ce bb 54 ce 0d bd 3e e6 c7 ba e9 59 93 bc
       -0.006298287 -0.034620598 -0.0015251113 -0.017987208
000310 0c 36 06 bd aa f1 84 3c 50 c7 fb 3c 25 c3 3f bd
       -0.032766387 0.016228516 0.030734688 -0.046816964
000320 bb 1d cc bc 11 e7 27 bd 0c e7 16 be 0e d9 ae bd
       -0.02491652 -0.040991846 -0.14736575 -0.08537494
000330 01 28 17 bd 62 65 5c bd 5f c9 4b bc c3 13 1d bd
       -0.036903385 -0.053807624 -0.012438147 -0.038348924
000340 6d 8a 1d 3a 50 78 68 bd 50 97 42 3c e6 7c c4 3d
       0.0006009702 -0.056755364 0.011876896 0.09594135
000350 e7 68 89 bc 78 00 90 3d d2 6b e1 3d 67 92 91 3c
       -0.016773654 0.070313394 0.11006893 0.017770005
000360 f5 36 9d 3d 87 80 80 3d cf cb 3b 3d 62 20 e2 bc
       0.07676498 0.06274515 0.045848664 -0.027603332
000370 8c b0 27 bd 44 5e 5c bc f8 2e 93 bd a4 3d 72 bd
       -0.040939853 -0.013450209 -0.07186693 -0.059140816
000380 f7 f1 7d bb 6f 34 1d 3d 2c e6 b2 bd 41 33 f8 bd
       -0.0038748959 0.038380083 -0.08735308 -0.12119151
000390 0b 8e 92 bb 3f 5b 5a be 24 64 4b be 4e b6 a0 bd
       -0.0044724992 -0.2132387 -0.1986242 -0.07847272
0003a0 58 aa f6 bd 72 6d cd bd ed f2 fd b9 b4 55 90 3a
       -0.12044209 -0.10030641 -0.00048436914 0.001101187
0003b0 61 f2 a2 3a ff 61 14 bb 8d af 14 bc 22 27 57 bb
       0.0012431854 -0.0022641418 -0.009075058 -0.0032829721
0003c0 b7 d3 aa bb bf b1 78 ba 36 e8 39 bb d2 72 24 bb
       -0.0052132267 -0.00094869355 -0.0028367168 -0.0025092852
0003d0 90 2f 9b 3a f9 ac db b8 1a 4c d3 bb 0e a9 3a bb
       0.0011839736 -0.000104749524 -0.006448281 -0.0028482112
0003e0 15 17 96 bb cf 5d 42 bb b6 ae c3 ba 54 57 cb 3a
       -0.0045803883 -0.0029657965 -0.0014929387 0.0015513697
0003f0 93 0a f0 bc e5 c9 94 bd 73 64 9a 3d 8a 79 78 bd
       -0.029301917 -0.07265071 0.075386904 -0.060662784

tfeb.5.weight f4 [25]
000000 b1 9d de 3e 43 a7 2c 3e 8d 3f ab 3e 1d 7a 8d 3e
       0.43479684 0.1686068 0.33446923 0.27632228
000010 3a 0a e3 3e 6d ef b6 3e 68 ae 70 3e 90 de 8a 3e
       0.4434374 0.35729542 0.2350403 0.27122927
000020 bd f3 1c 3f 2d 23 a7 3e 64 ed 61 3e 1f 4b 15 3f
       0.61309415 0.32644024 0.22063214 0.5831775
000030 45 e7 f3 3e a6 a4 17 3f b3 0c 38 3e 38 83 7f 3e
       0.47637382 0.5923561 0.17973594 0.249524
000040 65 4c a8 3e 11 76 73 3e 56 d6 ec 3e 52 4e 57 3e
       0.32870784 0.23775508 0.46257275 0.2102597
000050 05 65 e1 3e af 1e 37 3e 86 ef 58 3e 21 c8 a2 3d
       0.44022384 0.17882799 0.21185121 0.07948328
000060 7d 15 5e 3e
       0.21687885

tfeb.5.bias f4 [25]
000000 71 e7 19 3d 72 de 75 3e 03 a1 65 bc 66 e9 26 3d
       0.037574235 0.24010637 -0.014015439 0.04074993
000010 e3 e0 4e bd 4d 75 b0 3d 26 3e 2f 3e 1e 7b 6b 3d
       -0.050507437 0.08616123 0.17113551 0.05749046
000020 be 80 92 bd 71 8a 2c bd a5 b8 fc 3d dc 66 a2 bd
       -0.07153462 -0.042124216 0.12339906 -0.07929775
000030 64 bc 38 be c7 42 cd bd 77 6a 32 3e c9 8b fb 3d
       -0.18040615 -0.100225024 0.17423426 0.12282521
000040 9e d8 01 bd 0f 00 0d bd b4 fc 97 bd 23 b4 9c 3e
       -0.031700723 -0.034423884 -0.07421246 0.30606183
000050 91 07 13 be 28 18 94 3e a7 f0 7a 3e ae ee 80 3d
       -0.14358355 0.2892468 0.24505864 0.062955245
000060 d4 8c 5a bd
       -0.05335696

tfeb.5.running_mean f4 [25]
000000 e3 fb df be ef 66 6e bf 47 12 78 bd 7e 14 85 3d
       -0.43746862 -0.93125814 -0.060564306 0.06498049
000010 d3 25 1c bf ce 33 ba be 90 76 e2 be 1a 36 b7 be
       -0.60995215 -0.3636765 -0.4423108 -0.35783464
000020 72 49 ec be fe c7 cf be b4 38 d6 be 1c 1f d2 be
       -0.46149784 -0.4058227 -0.41840136 -0.4103936
000030 94 1c aa 3d 1a cf a4 be c9 57 b6 be c4 fe 12 be
       0.08306232 -0.32189256 -0.3561385 -0.14354998
000040 84 3a 19 bf a8 93 af bd c2 88 b6 be 61 1a af be
       -0.5985491 -0.08573085 -0.35651213 -0.34199813
000050 76 ee 9c bd 07 f7 12 bf af 9f 14 be 00 02 5a be
       -0.0766267 -0.57408184 -0.1451404 -0.21289825
000060 7f db ec 3d
       0.11565303

tfeb.5.running_var f4 [25]
000000 4f b0 2a 3e ae c5 22 3e c8 97 f6 3d e6 f8 06 3d
       0.16668819 0.15895721 0.12040669 0.03295221
000010 3c a9 3e 3e 7b af cc 3d 59 53 aa 3d f5 1d 63 3d
       0.18619245 0.09994408 0.083166786 0.05544849
000020 33 98 69 3e 62 de 7d 3d e3 fd 0a 3e 9d 5c 78 3e
       0.22811966 0.06197966 0.13573413 0.24254079
000030 20 14 b4 3d 04 0f d1 3d ba 36 99 3d 5f 46 cd 3d
       0.08792901 0.10207942 0.074811414 0.10023188
000040 5e 2d 97 3d 5e 5a c1 3c 32 f8 dc 3d e7 29 a2 3d
       0.073817 0.02360266 0.10789527 0.079181485
000050 0f 7a ce 3d 08 1c 5f 3e 67 ad f2 3d 07 c9 57 3c
       0.100818746 0.21788037 0.1184948 0.013170487
000060 66 40 de 3c
       0.027130317

tfeb.7.weight f4 [28, 25, 3, 3]
000000 ec 36 b7 3c 5f c0 b7 3c f2 fd 23 3d b5 e8 d9 3c
       0.022365056 0.022430597 0.040037103 0.026600221
000010 71 ed 71 3c 6b fb 8b 3b e0 d0 01 3c a6 a7 06 3d
       0.014766083 0.0042719147 0.007923335 0.032874726
000020 c1 a7 dd 3c 95 36 b8 3b 24 27 85 bc b2 c1 ce bc
       0.02705753 0.005621741 -0.016254015 -0.025238845
000030 33 3b 95 3d 47 39 c5 3d 1d 4a 88 3d 7a 86 06 3d
       0.07286682 0.096300654 0.06654761 0.03284309
000040 2c 27 6d 3c f4 07 9b bc ee f5 f0 bc 64 30 49 bc
       0.014474671 -0.01892469 -0.029414143 -0.012279604
000050 0b 3b 04 bd 42 9d e8 bd 0d 4d ab bd ef d3 86 bd
       -0.03228287 -0.113581195 -0.08364306 -0.06583392
000060 cf 46 c8 bc c5 19 86 3c 88 bd 00 3d 70 78 11 bd
       -0.024447827 0.01636971 0.03143075 -0.03551525
000070 3a b5 da bc 00 0f 08 bd ae c0 26 bd e3 86 54 bd
       -0.026697744 -0.03321743 -0.040711097 -0.05188645
000080 c4 f6 be bc 47 4a e5 bb 4c a9 ad bc 03 b6 a0 3d
       -0.023311026 -0.00699738 -0.021198891 0.07847216
000090 f0 a2 65 3b 41 73 22 3d 60 e9 8e 3d 46 c6 1b 3d
       0.0035039745 0.039660696 0.069781065 0.038030885
0000a0 b6 40 7b 3d 3d 75 98 3d 60 f0 0a 3b ed 9d c5 3c
       0.06134101 0.074442364 0.0021200404 0.024123156
0000b0 9a 09 43 3d ac e5 91 bd 92 a1 52 bd 2b be 01 bc
       0.04761658 -0.071238846 -0.051423617 -0.007918875
0000c0 f8 25 8c bc ea b3 da 3c 73 2f 9c 3c d8 cd 18 bd
       -0.017107949 0.026697118 0.019065594 -0.037305683
0000d0 f8 69 8b 3c e1 6d 38 3c 5f a1 db bd 19 44 0d bd
       0.017018303 0.011256666 -0.107241385 -0.03448877
0000e0 7f 07 58 bd a1 56 03 3c c6 26 af bb d5 76 4d bd
       -0.052741524 0.008016259 -0.0053451983 -0.050162155
0000f0 8b 83 21 3c 25 ac 16 3d 9a 71 bc bb 8d ab 7e bc
       0.009858022 0.036785264 -0.005750847 -0.015543831
000100 b3 2c 86 bc 63 0f ad ba 80 68 17 3c 89 1f 5a 3d
       -0.016378736 -0.0013203438 0.009241223 0.05325273
000110 92 f6 f2 3c 43 24 af 3a 5d b0 bc 3c 24 c6 43 3c
       0.02965859 0.0013362247 0.023033315 0.011949096
000120 fa eb 38 bd 88 d6 5e bc c6 f8 12 bd 4d b6 2a 3d
       -0.04514692 -0.013600953 -0.03588178 0.04167776
000130 3e 59 e6 3d e3 62 92 3d 42 ec 09 3c a8 10 34 3d
       0.1124749 0.071477674 0.008418145 0.043961197
000140 ca c6 47 3d 5c bc 1f 3c 4b 29 ff 3b 3e c9 99 3c
       0.048773564 0.009749498 0.007786905 0.018772718
000150 37 a2 d4 3b 31 28 a4 3c 1b d5 43 3c 8a 96 7c 3c
       0.006489064 0.020038696 0.011952664 0.015416751
000160 b7 7f d3 3c 7a 2a 33 3c 80 78 0d bd d3 a8 e8 bc
       0.025817735 0.01093542 -0.034538746 -0.028400814
000170 fa 07 81 bd 7e 5e 82 3d f7 86 a8 3d 90 bb 82 3d
       -0.063003495 0.06365679 0.082288675 0.06383431
000180 6c b9 d7 3c 5b 12 2d 3b bd 65 5c bd 81 31 6a bb
       0.026333533 0.0026408646 -0.053807963 -0.0035735073
000190 ae 13 26 3d f4 a1 26 3d 4e 1e b2 3c bd e1 a1 3d
       0.04054611 0.040681794 0.021742966 0.07904384
0001a0 b3 c8 1a 3d a3 fb 2a bd 8b d9 25 bb 9f b8 68 bd
       0.037789058 -0.041743886 -0.0025306668 -0.056816693
0001b0 01 31 04 bd 17 a6 a3 bb dd ab 99 bb 1b ee 03 bd
       -0.032273296 -0.0049941647 -0.004689677 -0.032209497
0001c0 df 60 f0 bc af 09 0e bc b1 db d3 3a 5b 81 10 bd
       -0.029343067 -0.008669301 0.0016163496 -0.035279613
0001d0 03 86 29 3d d9 7f 9e bc cb 6a 66 bc 6b 84 da 3b
       0.04138757 -0.019348072 -0.014063547 0.0066686175
0001e0 71 5b 8a 3b d6 15 2e bc b9 79 dc bc 90 b3 8f 3c
       0.0042223264 -0.010625323 -0.02691351 0.017541677
0001f0 cc f5 07 bb 0b da 20 bd 0f 84 87 bc b5 1d 9f bc
       -0.0020745872 -0.039270442 -0.016542463 -0.019423345
000200 9f a5 c7 39 d5 e3 cc bc 84 78 7e bc 3c db ad bc
       0.00038079635 -0.025010983 -0.015531663 -0.021222703
000210 0c 83 41 3d 56 0c 9a 3d d8 9a 82 3d 97 8a 94 3d
       0.047244117 0.07521884 0.0637719 0.072529964
000220 d3 7a 7d 3d 05 34 21 3d 58 cc ed bb c0 db e0 3a
       0.061884712 0.03935625 -0.0072570257 0.0017155334
000230 f1 a8 2f 3d 77 d2 aa bd 71 aa a4 bd 3b 74 0e bd
       0.042885724 -0.08340924 -0.080403216 -0.034778815
000240 85 1c 43 bd 15 46 ea bc 8f af 41 bc f9 cd e9 3b
       -0.04763462 -0.02859787 -0.011821642 0.0071351496
000250 ee 1c a9 3a b1 ca 0a bc d3 36 41 bb 88 c6 c7 3c
       0.0012902298 -0.008471177 -0.002948214 0.02438666
000260 46 27 08 3d fb ff 90 3b cb 0f a0 3c 22 bb 46 3d
       0.03324058 0.0044250465 0.01953878 0.048518308
000270 22 5f c0 bc a3 44 df bc 6c ca bb 3b 51 e3 07 bc
       -0.023482863 -0.027254408 0.0057309177 -0.008293943
000280 b9 3b 6a bc 3f a9 90 bb 0f 08 18 bc df 65 a5 bc
       -0.014296466 -0.004414707 -0.009279265 -0.020190177
000290 ae 5c d4 bc 48 a2 fa ba 68 b3 26 3d 49 f9 f8 3c
       -0.0259231 -0.001912185 0.04069844 0.030392306
0002a0 ef 0a 09 3d 2c 4e 82 3d 5f 05 1e 3d 27 04 0b 3d
       0.033457693 0.06362566 0.03857934 0.033939507
0002b0 33 1f 59 3c 73 78 e3 3c 26 dd 71 bb b9 e2 e0 bc
       0.013252067 0.027767396 -0.0036905496 -0.02745186
0002c0 65 aa 04 3d 93 02 32 bc ee 0a ff bc 86 be 42 3c
       0.032389063 -0.010864872 -0.031133141 0.011886245
0002d0 94 a0 da bc 90 d2 21 bc 0b 09 bf 3c e9 aa 26 bd
       -0.026687898 -0.009876862 0.023319742 -0.040690336
0002e0 ad 5e 69 bd 41 87 7a bd 8d 03 e8 3b 93 8e 22 bc
       -0.056975055 -0.061164144 0.0070805014 -0.009921688
0002f0 5f 27 ee bc c1 5e 6a bd 7f 34 e6 bc d7 b0 78 bb
       -0.029071508 -0.05721927 -0.028101204 -0.0037947202
000300 91 8b 89 3d cc 02 b2 3d 0b 4e c7 3d 8f 00 02 bd
       0.06716073 0.0869194 0.097316824 -0.031738814
000310 0f 1b a0 bb 1f 22 46 3d cf a8 15 3d a6 f8 1d 3d
       -0.004886038 0.048372384 0.03653794 0.038567208
000320 ed 63 f1 3c 66 44 38 bd 61 aa 80 bd d7 5d 9c bd
       0.029466594 -0.044987105 -0.06282497 -0.07635086
000330 4b 8e a8 3d db 73 c3 3d 9f a2 ab 3d b2 da 98 3b
       0.08230265 0.09543582 0.08380627 0.0046647424
000340 30 05 98 bb 11 9c a6 bb bf 18 d9 3c d6 9f c6 3c
       -0.0046392903 -0.0050845225 0.026501058 0.024246138
000350 61 43 17 3d 8b fe 37 3c 68 97 32 bc db 25 31 3c
       0.036929492 0.011230121 -0.010900356 0.010812248
000360 72 d5 7e bc 0d d0 ea bc d2 d1 84 bb ce 7c b8 3c
       -0.015553819 -0.02866366 -0.004053333 0.022520449
000370 ba 32 c9 3c d0 8a 8a 3d 1d ae c2 bc 8f 28 06 bd
       0.024560321 0.06764758 -0.023764664 -0.032753523
000380 cf 92 3d bc df 88 a4 3d ce 1f 32 bd 65 45 79 bd
       -0.011570646 0.080339186 -0.043487363 -0.060857195
000390 4b 70 2c 3d 9d 55 fb bd 2d f3 ff bd 3b 99 26 3e
       0.04209928 -0.12272189 -0.12497554 0.1626939
0003a0 83 a4 28 bd 48 0a 84 bd 6a 92 15 3d 20 9d 83 3c
       -0.041172516 -0.064472735 0.036516584 0.016066134
0003b0 be 1c 57 3d 72 4d b0 3d 1d 50 5c 3d 43 1e c1 3b
       0.052517645 0.086085215 0.05378734 0.0058935
0003c0 3c 0e 3b 3d 5f ff eb bb 27 03 db bc 01 41 2c bd
       0.04566787 -0.0072020735 -0.026734902 -0.04205418
0003d0 d2 74 a9 3d 33 cb 4a 3d 03 72 4f bd 70 64 61 bd
       0.08274235 0.049510192 -0.05064584 -0.055027425
0003e0 80 28 75 bd 72 2c ed bc 16 18 83 bd 25 ae 1c be
       -0.059853077 -0.028951857 -0.064010784 -0.15300806
0003f0 94 96 b8 3c 02 89 80 bc 4f 95 aa bd 2c a1 82 bd
       0.022532739 -0.01569033 -0.083292596 -0.06378397

tfeb.8.weight f4 [28]
000000 4b d9 79 3e 0b 5b f3 3e 80 97 76 3e b7 e2 ac 3e
       0.24399297 0.47530398 0.2408123 0.3376672
000010 c6 d9 cd 3e 30 86 b6 3e db d7 94 3e 54 1a 6d 3e
       0.4020521 0.35649252 0.29070935 0.23154575
000020 80 a6 2e 3e 8f 52 d0 3e b4 89 94 3e 56 fa d6 3e
       0.17055702 0.40687987 0.2901131 0.41987866
000030 69 76 98 3e 22 83 62 3e 36 b5 6b 3e 7f 3b b3 3e
       0.2977784 0.22120336 0.23018345 0.3500633
000040 ef 4e c2 3e 08 1a f3 3e 00 ed d3 3e 72 1d cb 3e
       0.37950847 0.47480798 0.41391754 0.39670902
000050 11 81 fe 3e f5 18 ab 3e 2b d1 80 3e 19 fb 92 3e
       0.49707845 0.33417478 0.25159582 0.28707197
000060 b5 61 f5 3e 1a bc b6 3e bd ca c7 3e fa 34 67 3e
       0.47926107 0.35690385 0.39021865 0.22578803

tfeb.8.bias f4 [28]
000000 ee 5a 0e 3e ac 11 cb bd ee 50 d8 3c c1 1b 57 bd
       0.13901874 -0.0991548 0.026405778 -0.052516703
000010 36 c3 d2 bd 4a 66 70 3c 6a a1 af 3c 30 a1 af 3d
       -0.1029114 0.014672825 0.021439273 0.08575666
000020 ec 27 2a 3d 2a 66 86 bd 93 45 19 be e3 a1 a0 bd
       0.04154198 -0.06562455 -0.14967947 -0.078433774
000030 9c ba 1d bd a8 0b c9 3d e4 3b 2e 3e 74 d5 36 bd
       -0.038508043 0.098166764 0.17015034 -0.04463716
000040 98 1c 01 be 96 68 c7 bd 28 44 8d bd c0 4e 8c bd
       -0.12608564 -0.09736745 -0.068977654 -0.06850958
000050 5b b6 40 be c3 2a 1f bd f2 ee 9b 3d ed f5 83 bc
       -0.18819563 -0.03885914 0.076139346 -0.016108477
000060 63 d7 15 bd 85 d5 4d bd c8 15 86 bc 3b 8c f4 3d
       -0.036582362 -0.050252456 -0.016367808 0.11940809

tfeb.8.running_mean f4 [28]
000000 cf 1a 4a 3e a7 b2 89 be 8e 08 18 be b8 60 9d bd
       0.19736789 -0.26894113 -0.14847013 -0.07684463
000010 23 fc ac be 7c ce fd 3b b7 01 8a be 72 9d 90 be
       -0.33786115 0.007745562 -0.26954433 -0.2824512
000020 99 06 8e bd 0a 43 06 3d b8 1e fa 3d 6a 8d 12 3e
       -0.06934852 0.032778777 0.122128904 0.14311758
000030 e3 8c 05 be 28 37 23 3d c6 de 00 3e 9e f4 d9 be
       -0.13042025 0.039847523 0.12584981 -0.4256944
000040 38 48 91 be 66 80 46 bd 33 d5 29 be c4 42 74 3d
       -0.2837541 -0.048462294 -0.16585235 0.059633985
000050 40 bb 6d be c9 ec 72 be 95 a2 27 bf 7e 25 54 be
       -0.23215961 -0.23723139 -0.65482455 -0.20717427
000060 1d 04 01 be 88 ba b3 bd 0d 02 c3 be 17 77 db 3e
       -0.12599225 -0.087758124 -0.38087502 0.42864296

tfeb.8.running_var f4 [28]
000000 ef 33 df 3c e4 dc dd 3d 4a 8f 81 3c 3f cd 03 3d
       0.027246444 0.10833147 0.015815396 0.03217816
000010 b3 4c 8b 3d 9c e9 04 3d 67 39 b3 3c a0 a6 17 3d
       0.068017386 0.03244935 0.021877958 0.03702414
000020 af 76 03 3c 94 29 ad 3d 7c c5 aa 3c 53 31 ff 3c
       0.008023902 0.08455196 0.020846121 0.03115145
000030 8e 96 8b 3d 2c a9 54 3d d4 1d 4a 3d 21 0c fd 3c
       0.068158254 0.051919147 0.049344853 0.030889573
000040 0a f1 56 3d ee e5 04 3e dd f3 c3 3d 4f 90 5a 3d
       0.052475967 0.12978336 0.095679976 0.05336028
000050 b0 6d 93 3d a4 17 8f 3d 08 a1 07 3d 2f 4c 8b 3d
       0.071986556 0.06986931 0.033112556 0.0680164
000060 76 24 4c 3d 9a 67 08 3d a5 b3 de 3c ea 8e 2b 3d
       0.04983946 0.033301927 0.02718527 0.04188434

tfeb.11.weight f4 [32, 28, 3, 3]
000000 e3 88 9a bc ef ce d1 bc a2 fe e5 bc 8f 2d 0b 3d
       -0.0188641 -0.025611369 -0.02807552 0.033978995
000010 40 4b 18 3d 7d a4 af 3c 0c 5f 95 3d 13 61 76 3d
       0.03718114 0.021440739 0.072935194 0.06015117
000020 77 6e 54 3d b5 27 02 bd 0f a1 2d 3c 89 b8 31 bb
       0.05186316 -0.03177615 0.010597481 -0.0027118048
000030 e3 35 4f 3b 39 f7 5f 3c 95 d8 e6 3c 1f 8a a9 bc
       0.0031617812 0.013669782 0.028179446 -0.020695744
000040 7f 7d 62 bb cd 29 f0 3c 07 1d 7c bc 82 6d f4 bc
       -0.0034559665 0.029316807 -0.01538778 -0.029837374
000050 d2 13 d0 bc 8b 36 8f bc 84 a1 cf bc 36 33 9d bc
       -0.025400076 -0.017482063 -0.025345571 -0.019189458
000060 a5 99 09 3d d0 54 9a 3c 64 2d d9 3c d7 24 00 3d
       0.033593792 0.01883927 0.026510902 0.031285133
000070 48 69 bc 3c e2 eb d9 3c 3f da 27 3d b3 a4 a9 3c
       0.02299942 0.026601736 0.04097962 0.020708418
000080 92 a2 c2 bb 5b 7b d2 bb a4 7c 6e 3c 4b 0d e8 bc
       -0.00593979 -0.0064233965 0.014556084 -0.028326651
000090 b3 e1 c6 3c 09 14 82 3c bc bc 1d 3d b4 d8 8b 3c
       0.024277544 0.015878694 0.03851007 0.017071106
0000a0 dd 44 bd 3a 42 53 97 3c 79 90 dc bc ee 26 9f bd
       0.0014440079 0.018472318 -0.026924359 -0.07771097
0000b0 48 f4 be bc 9e a9 74 bc 6a bf 95 bc 29 6d 0d bc
       -0.023309842 -0.014933018 -0.01827975 -0.008631983
0000c0 e5 d1 c1 3c 24 38 8a 3c fe 24 f1 bb 9a 3e a6 bc
       0.023659656 0.016872473 -0.007359146 -0.020293523
0000d0 ec d3 b4 bc 57 ae 2f 3c db 43 0f 3c 54 4b 69 3c
       -0.022073708 0.010722718 0.008744205 0.014239151
0000e0 0c 23 43 3c 71 59 c0 bc cc c8 9e bc 50 71 88 bc
       0.011910211 -0.023480149 -0.019382857 -0.016655594
0000f0 09 86 a2 bb 32 26 92 bc 8d e5 fd ba 84 82 08 bd
       -0.004959826 -0.017840479 -0.001937078 -0.033327594
000100 92 47 02 bc 3a 04 8a bc 01 67 75 bd ae 07 07 bd
       -0.007951634 -0.016847719 -0.059912685 -0.03296631
000110 99 6d 83 bc d9 f6 dc bc 27 90 23 bc bc 52 c4 3c
       -0.016043471 -0.026973175 -0.009983099 0.023965232
000120 6c 20 f6 bc 36 1a ef bc ab 06 e2 bc 1d 9e a7 bc
       -0.030044757 -0.029187303 -0.02759107 -0.020461136
000130 bb cc b4 bc 53 e3 4a bc 0f 66 be 3b 1d 31 8f 3b
       -0.02207028 -0.0123833 0.005810506 0.0043698684
000140 45 e6 3b 3c e1 e6 ac bb c8 6e 8b 3b f7 4d dd 3c
       0.011468475 -0.0052765463 0.0042551495 0.027014716
000150 fd 7b 86 3c 16 49 48 3d a5 ed cd 3c b0 ad 8c bb
       0.016416544 0.048897825 0.025137732 -0.004293166
000160 a7 e9 5e 3c 57 00 fd 3c 08 74 4a 3c d3 e4 3e 3c
       0.013605512 0.030883951 0.012356766 0.011651236
000170 31 32 42 3c cf f0 1a 3d f0 58 15 3d ca ad 17 3c
       0.011852787 0.03782731 0.03646177 0.009257743
000180 30 c1 03 3d 2b c6 26 3d bd f0 06 3d f2 a2 07 3c
       0.03216666 0.04071633 0.03294443 0.008278595
000190 f5 a4 37 3d ce 12 c7 3c 7d 57 3a bc f9 1c 45 3c
       0.04483505 0.024300959 -0.011373398 0.012030833
0001a0 a6 72 a3 bc fa e8 d0 3c 99 7a ae 3c 3d 71 98 3c
       -0.01995213 0.025501717 0.021298693 0.018608684
0001b0 51 92 32 bd a5 92 6b bd 72 e7 56 bd b7 8a 93 bd
       -0.04359657 -0.057512898 -0.052466817 -0.07204192
0001c0 87 ee a7 bd 6a f6 91 bd b3 14 c1 3c 97 22 11 3d
       -0.08199792 -0.07127078 0.02356944 0.035433378
0001d0 86 87 4c 3d 43 9b d3 bc 2e 2a ab bc e5 d2 48 bc
       0.049933933 -0.02583087 -0.020894136 -0.012257312
0001e0 2a 14 59 3c c9 01 53 3c 22 2f 93 3c 73 f0 05 3c
       0.013249436 0.012878844 0.01796681 0.008175003
0001f0 59 8f d5 3c 20 f2 27 3d 38 46 8d bd d2 83 93 bd
       0.02606933 0.041002393 -0.06898159 -0.07202877
000200 eb d8 9b bd c7 db dd 3c 1c ff bc 3c 3e bd 26 3d
       -0.07609733 0.027082337 0.023070864 0.04070782
000210 fb 3a 3a 3d 1f 64 f6 3c a9 ee 39 3d a4 07 c7 3c
       0.045466404 0.030077038 0.04539362 0.024295636
000220 b9 e6 31 3d 8c 5c 19 3d 92 a8 fd 3a 3d a8 4c 3c
       0.043432925 0.037441775 0.0019352606 0.012491283
000230 ba 10 a7 3c a0 c2 a4 3c 0e a8 c2 bb 50 58 a3 3b
       0.020393718 0.020112336 -0.005940444 0.004984893
000240 6c b1 1b bd ee 72 00 3d c4 32 da 3b ca 38 39 bd
       -0.038011 0.031359605 0.0066588838 -0.045220174
000250 e0 71 28 3d 2f 2c af 3c 3b 1d 48 bd 89 bb c0 3c
       0.041124225 0.021383373 -0.048856 0.023526924
000260 f1 0f 60 3d a7 20 29 bd 2d 8a 01 bd 74 cc 0b bd
       0.054702703 -0.041290905 -0.031625915 -0.03413053
000270 b6 83 35 bd 69 45 55 3d a6 37 1c 3d 3f 91 56 bd
       -0.044315062 0.052068148 0.038139008 -0.05238461
000280 71 ea 51 bb d2 87 e7 3c 08 9c fa 3b 57 0a e9 3b
       -0.0032030607 0.028263006 0.007647995 0.0071118283
000290 48 d1 90 3c 54 8e 23 bb 42 55 d3 bc f9 59 3c bd
       0.017677918 -0.002495666 -0.02579749 -0.045984242
0002a0 4d 71 49 bc c1 a3 0b bd f9 fe 15 bd 30 be 87 bb
       -0.012295079 -0.034091715 -0.036620114 -0.004142545
0002b0 c0 07 33 bc c0 99 dd bb b4 9f e7 3c a9 66 0e 3d
       -0.010927141 -0.006762713 0.028274395 0.034765873
0002c0 3d 24 38 3d c7 90 cd bc 10 ee 86 bc 00 6d 53 bc
       0.044956435 -0.02509345 -0.016470939 -0.012904406
0002d0 3d a9 4e 3c cb 06 d1 bb 9c 13 77 3b b3 00 87 bb
       0.012613592 -0.0063789836 0.0037700897 -0.0041199564
0002e0 33 41 b1 bc f5 03 e7 bc 6d 8d a7 bc a0 4c 21 bd
       -0.021637535 -0.028200129 -0.02045318 -0.039379716
0002f0 ec 2e 2b bd 9c 35 29 bd b8 ae 85 bc 88 f8 88 bc
       -0.041792795 -0.04131089 -0.016318664 -0.016720071
000300 f4 bb ea bc 15 99 28 bb 22 9f c5 3c e2 24 27 bd
       -0.028654076 -0.002572601 0.024123732 -0.04080666
000310 4f fd 3c bc 3b 65 1c 3c f5 45 b1 bc 37 17 cc 3c
       -0.011535003 0.00954562 -0.021639803 0.024913413
000320 2a 50 ff 3b 76 7e 8a bd 4d 48 a2 bc 9c d4 11 bd
       0.0077915387 -0.06762402 -0.019809866 -0.03560315
000330 2a 84 8f bc c3 a6 65 3c 7e 2d 97 3c ff 88 47 bd
       -0.017519075 0.01401681 0.01845431 -0.048714634
000340 f5 61 f5 bc 45 bd 6b bc ea 7c c7 bc da 46 91 bb
       -0.029953936 -0.014388387 -0.024351556 -0.004433495
000350 99 ed 78 bc dc 32 cb bc af 8d 21 bb b7 06 2b 3b
       -0.015193366 -0.024804525 -0.00246511 0.0026096532
000360 0a 61 91 3b 5c a1 9e bb 2a 1d 3f 3c f9 a6 a7 35
       0.004436617 -0.004841013 0.011664668 1.2491065e-06
000370 86 b4 7c bc 83 54 92 bc 70 65 d9 bd 2c 0e c2 bd
       -0.0154238995 -0.017862564 -0.10615051 -0.09475359
000380 cb a6 b2 bd e6 17 1d bc fa 09 52 bb c0 63 a8 3a
       -0.087232195 -0.009588217 -0.0032049404 0.0012847111
000390 9c d3 55 bb fc 91 b5 3b 0c b7 8f 3b 7c 82 ae 3c
       -0.003262735 0.0055410843 0.0043858346 0.021302454
0003a0 d9 5d 2e 3d d4 f7 54 3d 52 5b 1c 3b 86 ad 0a 3c
       0.04256997 0.05199416 0.0023858142 0.008464223
0003b0 d7 35 db 3b 2c 36 8f 3b 96 cc 4e 3c 37 fe 5f bb
       0.006689768 0.0043704715 0.012622019 -0.0034178623
0003c0 29 34 2a bc 24 f7 2a 3c 36 75 12 3c b0 f8 ea bc
       -0.0103884125 0.0104348995 0.008939078 -0.028683037
0003d0 78 9d 09 bd 9f 22 3d bd 50 9e 65 3d c7 ee 7c 3d
       -0.03359744 -0.046175595 0.05605918 0.061751153
0003e0 bc 6e 8a 3d ad eb 83 3d e7 76 70 3d 18 dc 92 3d
       0.06759402 0.06441436 0.058707144 0.07170886
0003f0 4a 75 08 be 99 9f 8a bd fd cb 35 3c 41 8f 17 be
       -0.13325992 -0.06768722 0.011095998 -0.14800741

tfeb.12.weight f4 [32]
000000 d6 ce a6 3e 22 35 b0 3e e2 53 ae 3e e1 2b 97 3e
       0.32579678 0.34415537 0.34048373 0.29525664
000010 5c ac 80 3e 02 a9 e3 3e 15 09 bb 3e 0a b0 d3 3e
       0.251315 0.4446488 0.36530367 0.41345245
000020 09 fc 13 3f ed 40 a2 3e 1a 6f b5 3e ec cb c7 3e
       0.5780645 0.3169016 0.35436326 0.39022768
000030 da 12 bb 3e ea 1c 96 3e 24 d5 b0 3e 47 c2 84 3e
       0.3653782 0.29318935 0.34537613 0.25929472
000040 49 0b c0 3e 0f 2b 81 3e b8 aa 9d 3e e8 1c 9e 3e
       0.3750861 0.25228164 0.3079431 0.3088143
000050 94 1a b8 3e c0 9f b3 3e a9 9d bf 3e d3 b1 89 3e
       0.35957778 0.35082817 0.37424973 0.26893482
000060 c5 b6 8d 3e 30 72 ec 3e 93 86 30 3e 30 e2 81 3e
       0.27678505 0.46180868 0.17238836 0.2536788
000070 c5 5f a6 3e a8 4f dd 3e 3f 36 d2 3e ee 27 0e 3f
       0.3249494 0.43224835 0.4105701 0.5552968

tfeb.12.bias f4 [32]
000000 d1 96 46 be a2 44 0f 3d e1 ce 0d be 74 ba 4f bd
       -0.1939347 0.034977563 -0.1384845 -0.050714925
000010 9e a1 a3 bd 6c ea 5b be 6d 21 a7 bd c3 bf 29 be
       -0.079898104 -0.21476144 -0.08160672 -0.16577058
000020 80 9b ca be 0c 4a 3a 3d ad 7e fe bd fd 73 a8 bd
       -0.39571762 0.045480773 -0.12426505 -0.08225248
000030 33 aa de bd 36 13 d0 39 f3 ec 2f be d0 63 a6 bd
       -0.10872307 0.00039687165 -0.17180233 -0.081245065
000040 21 eb 39 be fa 0a 21 3e 23 ee a1 bd 68 22 22 3d
       -0.18156101 0.15726843 -0.07906749 0.039583594
000050 28 7b e7 bd 8f 53 02 be b2 f6 97 bd b4 c2 09 3e
       -0.11302787 -0.12727188 -0.074201 0.1345318
000060 9a e3 11 bd 27 1e 64 bd 7d 3c 0c be 9e 0a 96 bd
       -0.03561745 -0.055692818 -0.1369495 -0.07326244
000070 d6 66 a0 bd 72 85 31 be de 8f 31 be 0e d5 4a be
       -0.078321144 -0.17336062 -0.17340037 -0.19807836

tfeb.12.running_mean f4 [32]
000000 0e 42 35 bd f4 32 05 bf 0a 33 74 be a4 d7 10 3e
       -0.044252448 -0.52030873 -0.23847595 0.1414476
000010 f0 74 12 be 79 77 5a bf 03 93 49 be e8 aa c5 be
       -0.1430242 -0.8533855 -0.19684987 -0.38606954
000020 fe c7 30 bf 5d bf f4 bd 5a a6 8a be d1 6b 11 bf
       -0.69055164 -0.11950562 -0.2708004 -0.5680514
000030 f5 f9 cc be 08 d7 0c bf d7 7c ad bd 89 b8 8e bd
       -0.40034452 -0.5501561 -0.08471077 -0.06968791
000040 56 c2 90 be 02 05 ea bd cc 6a 18 be cc 44 e8 be
       -0.28273267 -0.114267364 -0.1488449 -0.45364988
000050 99 ff 99 be 93 04 09 bf de 7d b8 be e8 68 e1 be
       -0.30077818 -0.53522605 -0.3603353 -0.4402535
000060 9c 3d a1 bd 4c 89 34 bf 46 49 10 be 50 4d 83 bd
       -0.07873079 -0.70522 -0.14090452 -0.064112306
000070 1e 42 fb bd 25 8e c6 be 44 17 7f be 66 bd 40 bf
       -0.1226847 -0.38780323 -0.24911219 -0.75289

tfeb.12.running_var f4 [32]
000000 74 60 46 3d 81 01 a2 3e 5c 2b f9 3d c4 d5 da 3d
       0.04843183 0.31641772 0.12166473 0.10685304
000010 91 9f dd 3c 5a 4c a6 3e e0 8d 43 3e ad c0 21 3e
       0.027053626 0.32480127 0.1909709 0.15796156
000020 21 31 82 3e 8b 63 04 3e 71 e6 3f 3e 88 53 86 3e
       0.25428107 0.12928598 0.1874025 0.26235604
000030 63 fc 11 3e 5b 23 09 3e 38 25 d3 3d a1 82 da 3d
       0.14256434 0.13392393 0.10309833 0.10669447
000040 b0 dc c5 3d 19 25 99 3e aa ea c1 3d 7a 6f 28 3e
       0.096612334 0.29911116 0.09468587 0.16448775
000050 1a d9 b1 3d 36 31 2e 3e ca 9e 80 3e 08 aa 92 3e
       0.08683987 0.1701096 0.25121146 0.2864535
000060 e9 37 bc 3c b7 dc fb 3e 4a 27 5f 3c f6 53 d6 3d
       0.022975879 0.4919183 0.013620207 0.10465233
000070 56 a5 7f 3d ea 02 8a 3e 63 2b 12 3e 5e 6c e9 3e
       0.062413536 0.26955348 0.14274363 0.4559049
