trained_models/step_5_retrain_after_step_4/retrain_4C_after_2nd_pruning_prunratio0.85_2024060419/retrained_4Cmodel_ratio85.0_vaacc92.75362396240234_tracc_85.60855263157895@982epoch_20240604235929.pt (torch, 309234 bytes, 62 tensors)

sfeb.0.weight f4 [8, 1, 1, 9]
0.24479857 0.14191489 0.27543905 0.3423956 0.09016164 -0.25388402 -0.4689865 -0.2825197
-0.06659826 0.0075259223 0.021735677 -0.055395763 -0.2860379 0.055682812 -0.19263975 -0.28749868
0.35522658 0.5545237 -0.17402172 -0.2237635 0.19653249 0.066856995 -0.17804033 -0.2187768
0.12666298 -0.31356725 -0.41086078 0.67838377 0.36393988 -0.0448728 -0.008763354 -0.162183
0.01403278 0.123166904 -0.010071856 0.07570345 -0.6079351 -0.33183715 0.060995396 0.08405206
0.28757915 0.19449112 -0.18157992 0.041120045 -0.12005294 -0.3034044 -0.03420592 0.18654862
0.083158046 -0.4142474 0.088665895 0.577846 -0.03294978 -0.48711988 -0.045243487 -0.2048387
0.2283034 -0.07788957 -0.45549932 0.48354647 0.0083785765 -0.42954734 0.42212373 0.048067253
0.013587087 -0.19088592 -0.12378289 0.17307544 0.21624483 -0.017658858 0.31420657 0.55036867
00000000: 7aac 7a3e 2352 113e 5906 8d3e 7a4e af3e
00000010: aaa6 b83d 16fd 81be 001f f0be 6ca6 90be
00000020: ab64 88bd 039c f63b 050f b23c abe6 62bd
00000030: 8f73 92be a913 643d 5b43 45be 0733 93be
00000040: 42e0 b53e 44f5 0d3f c032 32be 4222 65be
00000050: d03f 493e 52ec 883d 3450 36be 0707 60be
00000060: f1b3 013e e38b a0be 585c d2be 8faa 2d3f
00000070: 5456 ba3e 8bcc 37bd 2c94 0fbc 4d13 26be
00000080: bfe9 653c ee3e fc3d 6d04 25bc 690a 9b3d
00000090: a2a1 1bbf 8fe6 a9be 4fd6 793d 7d23 ac3d
000000a0: 933d 933e ae28 473e 16f0 39be 7e6d 283d
000000b0: 51de f5bd d257 9bbe 821b 0cbd 9a06 3f3e
000000c0: c44e aa3d 3c18 d4be 7796 b53d b7ed 133f
000000d0: 59f6 06bd c767 f9be 3c51 39bd 3cc1 51be
000000e0: 5ec8 693e 9184 9fbd 3537 e9be 6793 f73e
000000f0: 4c46 093c a1ed dbbe 9a20 d83e 2be2 443d
00000100: 609c 5e3c 9977 43be e281 fdbd b03a 313e
00000110: 496f 5d3e 4fa9 90bc afdf a03e f6e4 0c3f

sfeb.1.weight f4 [8]
0.91139704 0.7687041 0.6904026 0.7460538 0.7713721 0.5157959 0.4564468 0.68335783
00000000: 5151 693f cbc9 443f 3abe 303f 62fd 3e3f
00000010: a478 453f 330b 043f 65b3 e93e 8af0 2e3f

sfeb.1.bias f4 [8]
0.035370786 0.029035956 0.053339314 0.22282657 0.059227716 0.18983336 0.06798351 0.046946675
00000000: f5e0 103d d0dc ed3c 537a 5a3d a62c 643e
00000010: c398 723d ad63 423e f03a 8b3d 284b 403d

sfeb.1.running_mean f4 [8]
4.568258e-06 2.4264667e-05 -0.00015242252 0.00014122204 -7.9821824e-05 -4.7066147e-05 -8.683732e-06 0.00013328351
00000000: 0a49 9936 fa8b cb37 9cd3 1fb9 0115 1439
00000010: 0466 a7b8 e468 45b8 58b0 11b7 05c2 0b39

sfeb.1.running_var f4 [8]
0.023534013 0.013572256 0.010618415 0.02115128 0.021058913 0.0064322283 0.0015528998 0.013502004
00000000: 67ca c03c 2b5e 5e3c dcf8 2d3c 7345 ad3c
00000010: be83 ac3c 71c5 d23b ac8a cb3a 8237 5d3c

sfeb.3.weight f4 [32, 8, 1, 5]
0.05236355 -0.17645444 -0.018486483 0.04985161 -0.14025976 -0.07800306 -0.1158331 -0.054791886
-0.0064229043 -0.017948937 0.23332846 0.1990747 0.23644073 0.13747442 0.08388219 -0.110569455
-0.039718725 -0.25681093 -0.05127249 -0.10977777 0.16123022 0.17420629 0.06849416 0.17431764
0.14586037 0.055491667 -0.017788121 -0.058354523 -0.004062438 0.024981776 0.0071834396 -0.021035444
0.031219924 0.036624134 -0.00910201 -0.05847267 -0.093578935 -0.14650145 -0.027847731 -0.044008054
-0.17078806 -0.15449646 -0.037128434 0.063231826 0.08706757 -0.012972595 -0.14470649 -0.114068836
-0.032406855 -0.06270611 0.084293954 0.07807908 0.06940165 0.22807398 0.285342 -0.22126576
-0.10676377 -0.09244108 -0.013031862 -0.028810194 0.14714715 0.1336108 0.011525135 -0.08453413
0.010932961 -0.008286107 0.108600825 -0.025663696 -0.0017473637 0.017904367 -0.011192398 -0.05087147
-0.013588262 -0.1025943 -0.036873654 -0.06033856 -0.06665409 -0.24634305 -0.16911398 -0.10293117
-0.13124293 -0.20771056 -0.029850172 -0.019555204 -0.09410553 -0.1094938 -0.057452798 -0.059447136
-0.17667428 -0.13863368 0.14451964 0.21622889 0.1271388 0.18330671 0.2590287 -0.18598494
-0.0846852 -0.18970673 -0.10955673 -0.09078016 -0.04527664 0.011874982 0.04850774 0.120916806
0.051963437 -0.039792676 0.062231947 -0.049501434 0.09985454 0.03735808 -0.04497823 -0.0049738204
-0.04904196 -0.06394248 -0.11821535 -0.14294109 -0.24816994 -0.25950477 -0.12418296 -0.122069426
-0.10249283 0.058401354 -0.12042078 -0.06793763 -0.22630005 -0.12071273 -0.027928121 0.05831394
-0.015189617 -0.08353725 -0.31645864 -0.26008597 -0.22527869 -0.2243416 -0.32879978 0.103277214
0.20542824 0.27908522 0.15979037 0.12053012 -0.07866153 -0.11706419 -0.27320445 -0.0915598
-0.100709744 0.03721 -0.15280494 -0.14115551 -0.18133953 -0.16718182 -0.114696085 -0.17603697
-0.23371883 -0.14120089 -0.12103886 0.18215118 0.20510095 0.23678467 0.36196285 0.31658825
-0.13663349 -0.087542236 -0.13304335 -0.09902854 -0.037354965 0.07987869 0.023260973 0.009229921
0.07312556 0.013748574 -0.12109162 -0.08092961 -0.10679668 -0.17857516 -0.07777186 -0.19524334
-0.13193417 -0.026977785 -0.0059039253 0.070623964 -0.10603388 -0.028975232 0.051463835 -0.034201555
-0.090041734 -0.034006055 -0.030702285 0.027495747 -0.054229785 -0.02600896 -0.0395599 0.012164203
-0.02152262 -0.0014338475 -0.042617887 -0.06306275 0.031521555 0.09394039 0.12687723 0.18666556
-0.04973234 -0.16168422 -0.17341597 -0.20203592 -0.09190465 0.09615632 0.22618046 0.10643381
0.0683287 0.13166936 0.096113525 -0.05075637 -0.031213071 -0.08927327 -0.18736781 -0.103710435
-0.22871852 -0.21809696 -0.07284075 0.022326734 -0.021400975 0.01276703 -0.008822583 0.16799046
0.026793076 0.0003098771 0.040740285 0.012820785 0.045927335 -0.06386437 0.07532136 0.061840735
0.07564357 0.077849776 -0.002686903 -0.044529513 -0.046896864 0.047003258 0.11007355 0.11644122
0.1236525 0.10294737 0.0948484 0.088598676 0.08522715 -0.16121492 -0.18778105 -0.22096543
-0.034619946 -0.0094071245 -0.020765264 0.019361246 0.105158 0.08593152 0.17758672 0.23205186
00000000: 297b 563d 79b0 34be f770 97bc 3431 4c3d
00000010: 41a0 0fbe 11c0 9fbd e839 edbd 756d 60bd
00000020: 3a77 d2bb a609 93bc a8ed 6e3e 3dda 4b3e
00000030: 851d 723e 18c6 0c3e 6dca ab3d 3d72 e2bd
00000040: 1ab0 22bd b97c 83be 1a03 52bd 2bd3 e0bd
00000050: 8919 253e 2263 323e ab46 8c3d 5380 323e
00000060: 6c5c 153e 3b4b 633d 65b8 91bc 2705 6fbd
00000070: 331e 85bb 95a6 cc3c 0f63 eb3b 8652 acbc
00000080: edc0 ff3c 3003 163d 9920 15bc 0a81 6fbd
00000090: 50a6 bfbd 7a04 16be ed20 e4bc ca41 34bd
000000a0: 11e3 2ebe 5234 1ebe fc13 18bd b07f 813d
000000b0: 7b50 b23d 028b 54bc f02d 14be ec9c e9bd
000000c0: 0dbd 04bd 106c 80bd 4fa2 ac3d ede7 9f3d
000000d0: 7422 8e3d 3a8c 693e 5918 923e 7e93 62be
000000e0: f7a6 dabd c051 bdbd 9783 55bc 5b03 ecbc
000000f0: bead 163e 45d1 083e ebd3 3c3c 3b20 adbd
00000100: 2920 333c 74c2 07bc 1c6a de3d ac3c d2bc
00000110: cc07 e5ba 2eac 923c 5260 37bc 9a5e 50bd
00000120: 4da1 5ebc f61c d2bd d408 17bd 9125 77bd
00000130: f181 88bd 5a41 7cbe 372c 2dbe 94cd d2bd
00000140: 8c64 06be 14b2 54be 5988 f4bc 3c32 a0bc
00000150: 66ba c0bd 493e e0bd a053 6bbd d77e 73bd
00000160: 1aea 34be fdf5 0dbe f5fc 133e 1b6b 5d3e
00000170: ac30 023e c1b4 3b3e 699f 843e d672 3ebe
00000180: 6f6f adbd 7b42 42be 475f e0bd f3ea b9bd
00000190: 0074 39bd 498f 423c 0db0 463d 3ba3 f73d
000001a0: 9dd7 543d a5fd 22bd ede6 7e3d 04c2 4abd
000001b0: 8980 cc3d c904 193d 183b 38bd 6efb a2bb
000001c0: 39e0 48bd 46f4 82bd e41a f2bd 265f 12be
000001d0: 4320 7ebe cfdd 84be a353 febd 89ff f9bd
000001e0: c3e7 d1bd 4236 6f3d 2b9f f6bd e222 8bbd
000001f0: 33bb 67be 3c38 f7bd 84c9 e4bc 99da 6e3d
00000200: dfdd 78bc 9415 abbd de06 a2be fd29 85be
00000210: 75af 66be ceb9 65be 7258 a8be 0183 d33d
00000220: c85b 523e 42e4 8e3e 16a0 233e 7fd8 f63d
00000230: 4c19 a1bd 5abf efbd 74e1 8bbe b483 bbbd
00000240: e940 cebd 8369 183d e678 1cbe 128b 10be
00000250: 12b1 39be b631 2bbe c8e5 eabd 0943 34be
00000260: fd53 6fbe f796 10be 39e3 f7bd d785 3a3e
00000270: fc05 523e ae77 723e 3253 b93e db17 a23e
00000280: a6e9 0bbe 5849 b3bd 843c 08be 7acf cabd
00000290: 8501 19bd 7097 a33d cc8d be3c 1839 173c
000002a0: dbc2 953d b341 613c e2fe f7bd 6cbe a5bd
000002b0: 38b8 dabd 68dc 36be da46 9fbd dfed 47be
000002c0: c019 07be 8400 ddbc b775 c1bb 4ca3 903d
000002d0: 4a28 d9bd 775d edbc becb 523d ee16 0cbd
000002e0: cd67 b8bd ef49 0bbd 5c83 fbbc c33e e13c
000002f0: 0d20 5ebd be10 d5bc 9009 22bd 5e4c 473c
00000300: 3550 b0bc f0ef bbba 1890 2ebd 0b27 81bd
00000310: bf1c 013d d263 c03d 1bec 013e 4225 3f3e
00000320: 23b4 4bbd 8c90 25be f593 31be 81e2 4ebe
00000330: 8138 bcbd 9bed c43d da9b 673e f8f9 d93d
00000340: ebef 8b3d 55d4 063e 2bd7 c43d e9e5 4fbd
00000350: 8eb2 ffbc e7d4 b6bd 59dd 3fbe 2366 d4bd
00000360: 3035 6abe cf54 5fbe 882d 95bd 8ee6 b63c
00000370: 1951 afbc ce2c 513c 988c 10bc b105 2c3e
00000380: 277d db3c 0077 a239 49df 263d 450e 523c
00000390: 4d1e 3c3d 53cb 82bd 1642 9a3d b64c 7d3d
000003a0: 04eb 9a3d b46f 9f3d c116 30bb 9464 36bd
000003b0: ed16 40bd 7d86 403d 3e6e e13d bc78 ee3d
000003c0: 863d fd3d 12d6 d23d e13f c23d 3973 b53d
000003d0: 928b ae3d 8615 25be ad49 40be c344 62be
000003e0: a5cd 0dbd 5720 1abc ea1b aabc 7a9b 9e3c
000003f0: 145d d73d ddfc af3d 4bd9 353e 019f 6d3e

sfeb.4.weight f4 [32]
0.74098206 0.41231725 0.7873432 1.1462361 0.32840732 0.36499655 0.5733042 0.0005699132
0.42898417 0.51668555 0.013519677 0.61468405 0.5884116 0.74541014 0.89067614 -0.00073312776
0.569841 0.42522174 0.55295765 0.00024463233 0.5112482 0.55889046 0.7013575 0.42190695
0.0005997798 0.0007442807 0.38585463 0.51983905 0.3583752 0.5405667 0.41702434 0.39533603
00000000: 00b1 3d3f 3f1b d33e 538f 493f ddb7 923f
00000010: 0125 a83e d4e0 ba3e 10c4 123f 3a66 153a
00000020: d0a3 db3e 8145 043f a381 5d3c ef5b 1d3f
00000030: 25a2 163f 33d3 3e3f 5a03 643f 5f2f 40ba
00000040: 1ae1 113f aab6 d93e a28e 0d3f ff41 8039
00000050: 29e1 023f 7213 0f3f 2a8c 333f 3004 d83e
00000060: 8b3a 1d3a d51b 433a bd8e c53e 2c14 053f
00000070: f47c b73e 9462 0a3f 3784 d53e 7c69 ca3e

sfeb.4.bias f4 [32]
0.16512811 -0.18853381 -0.13803877 -0.043616608 -0.061264735 -0.011825392 0.13316795 -0.064486235
0.027993394 -0.07304731 -0.022809844 0.039463326 0.11539124 0.072089374 0.03204844 -0.03809112
-0.06610992 0.070601895 -0.027888902 -0.02115654 0.0066363732 -0.14964664 -0.09359489 0.038892347
-0.017556837 -0.019352758 0.01877653 -0.04201624 -0.11907269 -0.0742188 -0.107116945 0.074350744
00000000: 5817 293e 020f 41be 095a 0dbe 54a7 32bd
00000010: bbf0 7abd 4abf 41bc 2e5d 083e 5c11 84bd
00000020: 6752 e53c d499 95bd b6db babc 4ca4 213d
00000030: 3e52 ec3d 98a3 933d 3a45 033d 6f05 1cbd
00000040: a364 87bd ba97 903d 4477 e4bc 7b50 adbc
00000050: ef75 d93b f83c 19be adae bfbd 954d 1f3d
00000060: 5bd3 8fbc ad89 9ebc 3dd1 993c 3919 2cbd
00000070: 62dc f3bd 0700 98bd 2160 dbbd 3445 983d

sfeb.4.running_mean f4 [32]
-0.037475806 -0.20283307 -0.37559074 -0.2502507 -0.28312954 -0.16244975 -0.1106185 0.010927213
-0.23582126 -0.11946006 -0.04028739 -0.21422212 -0.05626776 0.09786942 -0.17925781 -0.0023265355
-0.2792514 -0.22740722 -0.27200052 -0.007459404 -0.30758333 -0.45656943 -0.30967462 -0.22003382
-0.016607415 -0.014912341 -0.31705192 -0.15993612 -0.31838685 -0.3727251 -0.051015675 -0.0689051
00000000: 3b80 19bd 79b3 4fbe 6e4d c0be dc20 80be
00000010: 5bf6 90be 3a59 26be f48b e2bd 0e08 333c
00000020: 217b 71be 7aa7 f4bd 6404 25bd 0b5d 5bbe
00000030: 0679 66bd c36f c83d 5c8f 37be ca78 18bb
00000040: 0afa 8ebe 70dd 68be a743 8bbe 046e f4bb
00000050: 907b 9dbe 78c3 e9be ac8d 9ebe 8c50 61be
00000060: 460c 88bc e452 74bc a154 a2be 4bc6 23be
00000070: 9a03 a3be d3d5 bebe d0f5 50bd 1e1e 8dbd

sfeb.4.running_var f4 [32]
0.2799234 0.2977336 0.5284633 0.91843873 0.24586456 0.30345112 0.3845 0.0056778993
0.25509378 0.16950338 0.0028833975 0.3618422 0.4275215 0.7001572 0.95896196 0.0016970703
0.428732 0.5036794 0.6070859 0.0012412817 0.51066875 0.61739224 0.64124465 0.4014044
0.0008420748 0.0007040329 0.41470274 0.41782904 0.34185714 0.41033748 0.18182884 0.15454449
00000000: 1f52 8f3e 8a70 983e 5f49 073f cd1e 6b3f
00000010: ebc3 7b3e f25d 9b3e 2fdd c43e ac0d ba3b
00000020: a79b 823e 4b92 2d3e 62f7 3c3b 6143 b93e
00000030: 19e4 da3e 813d 333f 887e 753f 3b70 de3a
00000040: c382 db3e 22f1 003f fb69 1b3f 81b2 a23a
00000050: 30bb 023f 6b0d 1e3f 9c28 243f e184 cd3e
00000060: afbe 5c3a d98e 383a eb53 d43e b0ed d53e
00000070: e607 af3e c117 d23e 5731 3a3e e940 1e3e

tfeb.0.weight f4 [13, 1, 3, 3]
0.03274357 0.0006153345 -0.005370454 0.0041743224 0.0004791499 0.0015344487 0.0019189839 0.0059762057
0.006036596 0.008734705 -0.009949536 0.014116498 0.0152254095 -0.011391565 0.013158232 0.015677817
-0.0072383927 0.016187875 0.20009895 0.12843104 -0.39018214 0.377226 0.46443516 -0.65031755
0.19518282 0.14867932 -0.44636822 -0.21912809 -0.023814699 0.115736045 -0.578797 0.47488624
0.5155522 -0.2938173 0.15353389 0.19109845 0.034662306 0.40819618 -0.4763924 0.09519176
0.123647764 -0.31998774 -0.16427784 -0.056897555 -0.313827 0.040630303 -0.14919612 -0.17433636
0.026816845 -0.2037359 -0.28484356 0.24029922 -0.17624092 -0.13794021 0.8397969 -0.48509076
-0.49767658 0.8911736 -0.5396954 -0.645573 0.4303461 -0.2902134 -0.44250602 -0.120789774
-0.17367052 -0.13398759 -0.078531004 -0.14505784 -0.107564 0.10941876 0.22337201 0.12511285
-0.15958083 -0.28559086 -0.113078564 -0.16160232 -0.26694438 -0.07623252 -0.097619526 -0.16165322
-0.09436004 -0.04671703 -0.07621978 0.044577226 -0.10551753 -0.13639735 -0.030305946 0.10824563
-0.46139964 0.41690683 0.3026611 0.10202983 0.11619565 0.2856888 0.06374968 0.073780455
-0.07245996 -0.08492139 -0.026843935 -0.08240148 -0.17858043 -0.055062838 -0.17566471 -0.24598229
-0.12694532 0.022045553 -0.11474793 -0.03873068 -0.27938998 -0.21937494 0.3095652 -0.6434409
-0.55235475 1.0916343 -0.3678198 -0.29150292 0.317718
00000000: 1f1e 063d 664e 213a a2fa afbb c1c8 883b
00000010: 6936 fb39 8e1f c93a 6a86 fb3a 0cd4 c33b
00000020: a3ce c53b 021c 0f3c 6103 23bc e248 673c
00000030: ff73 793c b0a3 3abc a095 573c c46e 803c
00000040: 0a30 edbb 6f9c 843c bde6 4c3e 6d83 033e
00000050: f4c5 c7be c423 c13e 72ca ed3e 367b 26bf
00000060: 01de 473e 643f 183e 608a e4be 1d63 60be
00000070: 0b17 c3bc 0507 ed3d 0a2c 14bf 4a24 f33e
00000080: 3bfb 033f 396f 96be fd37 1d3e 50af 433e
00000090: 10fa 0d3d 17ff d03e b4e9 f3be e6f3 c23d
000000a0: 0a3b fd3d 6fd5 a3be 7338 28be 690d 69bd
000000b0: efad a0be f66b 263d dec6 18be 3b85 32be
000000c0: 00af db3c 25a0 50be 04d7 91be 0011 763e
000000d0: 8078 34be 3340 0dbe eefc 563f d15d f8be
000000e0: 77cf febe f423 643f 7a29 0abf 4644 25bf
000000f0: 5356 dc3e da96 94be 2690 e2be a160 f7bd
00000100: afd6 31be 0b34 09be ddd4 a0bd 0b8a 14be
00000110: 844a dcbd f116 e03d a2bb 643e 951d 003e
00000120: 2869 23be f738 92be bc95 e7bd 147b 25be
00000130: efac 88be cc1f 9cbd bfec c7bd 6c88 25be
00000140: d63f c1bd 5b5a 3fbd 1e19 9cbd 9c96 363d
00000150: 9319 d8bd bfab 0bbe 2d44 f8bc e3af dd3d
00000160: 933c ecbe d074 d53e 65f6 9a3e 04f5 d03d
00000170: fcf7 ed3d cd45 923e 318f 823d 351a 973d
00000180: e365 94bd 44eb adbd d0e7 dbbc 1bc2 a8bd
00000190: cadd 36be 9289 61bd 73e1 33be c8e2 7bbe
000001a0: f4fd 01be e098 b43c f600 ebbd 10a4 1ebd
000001b0: 340c 8fbe d3a3 60be 547f 9e3e 8bb8 24bf
000001c0: 1f67 0dbf acba 8b3f e052 bcbe df3f 95be
000001d0: efab a23e

tfeb.1.weight f4 [13]
-0.0008099486 -0.0021642214 0.27407178 0.27425486 0.3488823 0.30040324 0.561348 0.3115263
0.9101169 0.38616037 0.2631747 0.49094218 0.46837527
00000000: bb52 54ba 9cd5 0dbb 2353 8c3e 226b 8c3e
00000010: b3a0 b23e 74ce 993e 81b4 0f3f 6080 9f3e
00000020: 6cfd 683f d0b6 c53e d6be 863e c65c fb3e
00000030: e2ce ef3e

tfeb.1.bias f4 [13]
-0.011851222 -0.014024244 0.15771176 0.24355452 0.2906833 0.36554095 0.025596095 0.058277275
-0.2994259 -0.031140378 0.19275253 0.018675605 0.14867444
00000000: a12b 42bc f1c5 65bc 317f 213e 5b66 793e
00000010: 71d4 943e 2f28 bb3e e7ae d13c 27b4 6e3d
00000020: 5a4e 99be 1b1a ffbc eb60 453e 95fd 983c
00000030: 1d3e 183e

tfeb.1.running_mean f4 [13]
0.017002111 0.019199062 0.01594942 0.12498781 -0.23052602 -0.29707533 -0.26452434 -0.11822705
-0.5068375 -0.10811141 0.27856335 -0.36074796 -0.22532706
00000000: 0348 8b3c 5a47 9d3c 5ca8 823c 9cf9 ff3d
00000010: 030f 6cbe 421a 98be bc6f 87be 0621 f2bd
00000020: 1ac0 01bf 8469 ddbd db9f 8e3e f5b3 b8be
00000030: 23bc 66be

tfeb.1.running_var f4 [13]
0.0006859721 0.00080542255 0.09338794 0.12824385 0.16548997 0.20997323 0.3704541 0.12615344
0.5365615 0.048465587 0.22283374 0.28706288 0.26451716
00000000: cfd2 333a fe22 533a 2d42 bf3d 5b52 033e
00000010: 3476 293e 3903 573e 29ac bd3e 5e2e 013e
00000020: 185c 093f da83 463d 872e 643e e8f9 923e
00000030: cb6e 873e

tfeb.4.weight f4 [25, 13, 3, 3]
0.0022997544 -0.0025199994 0.0010544248 -0.00081767543 -0.004751334 -0.0028807586 0.0022339004 -0.0013870968
-0.00039466374 0.001696155 -0.005199633 0.003716358 0.0021384556 -0.0062134084 0.0029235824 0.0028391918
-0.0029014791 0.004542014 0.0685323 -0.0049632867 0.052263174 -0.095395744 -0.1749046 -0.13704368
0.053003818 -0.09965734 -0.03706588 -0.03461214 -0.072381765 -0.01973695 -0.07684533 -0.061027765
-0.0017642351 -0.10455885 -0.036130786 0.009196498 0.07981214 0.05046595 0.090499654 -0.021587549
-0.053085938 -0.06223787 0.024632368 0.011461863 0.020470835 -0.05861285 -0.009722332 -0.048163254
0.030134864 0.02784919 -0.033272084 0.042171255 -0.0046147187 0.0030992278 0.10141541 0.08879265
-0.037617803 -0.14250779 -0.039876774 -0.2708439 0.030292023 -0.13083914 -0.10086671 -0.05166212
-0.023181321 0.01482065 0.05686259 0.06901312 0.078762345 0.0036126196 -0.010276771 -0.014820897
0.004731949 0.014168874 0.04940092 0.02901928 -0.00092098676 -0.0015793212 0.08872972 0.03474255
-0.0021678545 -7.1004004e-05 -0.11537265 0.022531698 0.0008817866 -0.1035668 0.025135227 -0.02334261
-0.07295528 0.008145293 0.06206913 0.09585944 0.07764597 -0.14776684 -0.08028515 -0.07130181
-0.047615897 -0.029166337 -0.016802726 -0.03824377 -0.010898381 -0.015740475 0.06907789 0.050978858
0.015913792 0.036744796 0.018367585 -0.018949961 0.02808739 -0.1807597 -0.03754171 0.0526124
-0.17721114 -0.0090475045 -0.0066150203 -0.05286087 -0.018002892 0.0014059086 -0.001290791 -0.00018287137
-0.0006695011 -0.0007176332 -0.00060777564 0.0020402095 0.0010872047 -0.00052494224 -0.0024891526 -0.00252795
-0.0010833017 0.0025860206 0.0011513813 0.0021241999 0.0025326593 0.0018954792 0.0033658687 -0.024711343
-0.0123057645 -0.07803964 -0.030568236 0.05684151 -0.03715602 0.03866555 0.047654048 0.00693043
0.059364993 0.020091578 -0.034395825 0.025815273 -0.077827215 -0.14197773 0.052277736 -0.01778105
-0.059014294 0.0043273284 -0.07940095 -0.06847241 -0.098188505 -0.1305171 -0.070828855 -0.064805664
-0.06164167 -0.01347059 0.025608964 0.0037346378 -0.021152375 -0.08238444 -0.06772326 -0.03974682
-0.093222015 -0.08356887 -0.020445997 -0.03876643 -0.0724177 -0.17499551 -0.18839586 -0.045988828
-0.16451132 -0.06020595 -0.036464017 -0.07795109 0.08702168 0.08757363 0.056614473 -0.077061124
-0.07918331 -0.061695244 -0.000116401396 0.017132912 0.057115294 0.039230533 0.0067180875 -0.006968564
-0.00729367 -0.035418432 -0.002717733 -0.018616155 -0.03324085 0.015474735 0.029662717 -0.048546944
-0.025499988 -0.041430905 -0.14747266 -0.08518424 -0.037551835 -0.054127105 -0.01333385 -0.036202934
0.0020285966 -0.055712834 0.012056584 0.095062554 -0.017598549 0.07031776 0.109275624 0.01757344
0.07570125 0.061914135 0.04508821 -0.027577225 -0.040673517 -0.013518865 -0.0715267 -0.05876075
-0.004053393 0.036262516 -0.08927393 -0.12100964 -0.005913576 -0.21308246 -0.1959574 -0.07947257
-0.11987984 -0.099225484 -0.00048079362 0.001093003 0.0012340724 -0.002247346 -0.009007498 -0.0032587536
-0.005174191 -0.00094169733 -0.0028156508 -0.0024907505 0.0011751789 -0.000103981016 -0.0064004688 -0.0028271442
-0.00454639 -0.002943971 -0.0014819417 0.001539837 -0.029563844 -0.07120109 0.077107355 -0.060147166
00000000: 7ab7 163b 9326 25bb a034 8a3a 4559 56ba
00000010: 14b1 9bbb 1ccb 3cbb a166 123b 3fcf b5ba
00000020: dfea ceb9 8551 de3a af61 aabb 248e 733b
00000030: 5525 0c3b d999 cbbb 9399 3f3b bc11 3a3b
00000040: be26 3ebb 2dd5 943b aa5a 8c3d 11a3 a2bb
00000050: e911 563d d85e c3bd 311a 33be 2e55 0cbe
00000060: 881a 593d 2619 ccbd 64d2 17bd 76c5 0dbd
00000070: e43c 94bd 62af a1bc 1661 9dbd 40f8 79bd
00000080: e83d e7ba f322 d6bd e0fd 13bd e9ac 163c
00000090: 8c74 a33d 62b5 4e3d e257 b93d 5fd8 b0bc
000000a0: a470 59bd 23ed 7ebd d2c9 c93c 8aca 3b3c
000000b0: 74b2 a73c 0714 70bd 6a4a 1fbc d546 45bd
000000c0: 64dd f63c fc23 e43c 4f48 08bd c4bb 2c3d
000000d0: 1137 97bb 6a1c 4b3b e2b2 cf3d ecd8 b53d
000000e0: 2015 1abd 90ed 11be d455 23bd 0dac 8abe
000000f0: fa26 f83c b2fa 05be 3593 cebd a99b 53bd
00000100: c1e6 bdbc 50d2 723c bfe8 683d c056 8d3d
00000110: 274e a13d b3c1 6c3b e75f 28bc 59d3 72bc
00000120: 770e 9b3b 9124 683c 9e58 4a3d d7b9 ed3c
00000130: 606e 71ba 3a01 cfba edb7 b53d 344e 0e3d
00000140: 9012 0ebb fce7 94b8 7f48 ecbd 6594 b83c
00000150: b227 673a d51a d4bd 64e8 cd3c 0039 bfbc
00000160: 9469 95bd d673 053c 333c 7e3d f451 c43d
00000170: da04 9f3d 3150 17be 8a6c a4bd af06 92bd
00000180: e308 43bd 3eee eebc dfa5 89bc 80a5 1cbd
00000190: 1f8f 32bc 2bf2 80bc b578 8d3d 35cf 503d
000001a0: a45d 823c b681 163d 9e77 963c f33c 9bbc
000001b0: 8717 e63c 1219 39be 56c5 19bd 1a80 573d
000001c0: d676 35be fc3b 14bc d0c2 d8bb a484 58bd
000001d0: cd7a 93bc 7746 b83a c22f a9ba 29c1 3fb9
000001e0: 7581 2fba 8c1f 3cba 2253 1fba 09b5 053b
000001f0: 8980 8e3a 479c 09ba 0d21 23bb f7ab 25bb
00000200: 93fd 8dba 3a7a 293b f2e9 963a 2936 0b3b
00000210: f9fa 253b ba71 f83a e895 5c3b 716f cabc
00000220: 1e9e 49bc 3fd3 9fbd 3d6a fabc a5d2 683d
00000230: e930 18bd c55f 1e3d e430 433d a918 e33b
00000240: b528 733d 1897 a43c a3e2 0cbd 8d7a d33c
00000250: e063 9fbd 9c62 11be 2e21 563d 91a9 91bc
00000260: f9b8 71bd 43cc 8d3b f79c a2bd 433b 8cbd
00000270: 0e17 c9bd 46a6 05be b80e 91bd d5b8 84bd
00000280: fa7b 7cbd c0b3 5cbc e4c9 d13c d3c0 743b
00000290: bf47 adbc 2cb9 a8bd 7eb2 8abd 90cd 22bd
000002a0: 2feb bebd 2826 abbd 5d7e a7bc 8cc9 1ebd
000002b0: bb4f 94bd 0632 33be d8ea 40be c85e 3cbd
000002c0: a875 28be 849a 76bd 4b5b 15bd d2a4 9fbd
000002d0: 6c38 b23d ce59 b33d 94e4 673d 39d2 9dbd
000002e0: dc2a a2bd 27b4 7cbd 861c f4b8 525a 8c3c
000002f0: baf1 693d 32b0 203d 6723 dc3b 8d58 e4bb
00000300: bdff eebb eb12 11bd fe1b 32bb e880 98bc
00000310: 8f27 08bd be89 7d3c 3aff f23c 29d9 46bd
00000320: 5ae5 d0bc 74b3 29bd 1303 17be 1375 aebd
00000330: f4cf 19bd 62b4 5dbd 3876 5abc 8749 14bd
00000340: 34f2 043b 2433 64bd fa88 453c 28b0 c23d
00000350: d52a 90bc c202 903d e6cb df3d 2df6 8f3c
00000360: 4209 9b3d ad99 7d3d 6aae 383d a2e9 e1bc
00000370: 4699 26bd 3b7e 5dbc 977c 92bd 1daf 70bd
00000380: 53d2 84bb 0188 143d 40d5 b6bd e7d3 f7bd
00000390: acc6 c1bb 4a32 5abe 0fa9 48be 84c2 a2bd
000003a0: 9083 f5bd bb36 cbbd 0713 fcb9 1843 8f3a
000003b0: 99c0 a13a 3648 13bb 2f94 13bc d090 55bb
000003c0: 438c a9bb 3ddc 76ba c886 38bb dc3b 23bb
000003d0: 7608 9a3a 6210 dab8 06bb d1bb 9c47 39bb
000003e0: e2f9 94bb a3ef 40bb b63d c2ba 5bd4 c93a
000003f0: e02f f2bc e1d1 91bd 76ea 9d3d e05c 76bd

tfeb.5.weight f4 [25]
0.4302285 0.16429472 0.3371461 0.2780029 0.43825567 0.35330376 0.24025057 0.2696159
0.6061712 0.32788375 0.21286894 0.57717735 0.47795084 0.58895445 0.17489792 0.2419196
0.32894588 0.23918098 0.45698547 0.2041162 0.43580514 0.17613341 0.211589 0.08032478
0.21795675
00000000: e946 dc3e e03c 283e 6a9e ac3e 6556 8e3e
00000010: 0c63 e03e 3be4 b43e 3f04 763e 180b 8a3e
00000020: 092e 1b3f 61e0 a73e 51fa 593e e5c1 133f
00000030: f9b5 f43e b8c5 163f 7118 333e c6b9 773e
00000040: 986b a83e dceb 743e 00fa e93e d603 513e
00000050: da21 df3e 515c 343e c9aa 583e 5181 a43d
00000060: 0e30 5f3e

tfeb.5.bias f4 [25]
0.031222237 0.23537828 -0.0030473652 0.035987705 -0.0576095 0.07636692 0.17743202 0.05579854
-0.07834028 -0.04536086 0.11987854 -0.08579295 -0.17389104 -0.10972034 0.17576611 0.1160419
-0.035048362 -0.030537732 -0.079353474 0.30295196 -0.15139574 0.28766835 0.24381623 0.059241533
-0.050897423
00000000: c7c5 ff3c 0107 713e 4eb6 47bb d867 133d
00000010: f0f7 6bbd 4266 9c3d bdb0 353e 038d 643d
00000020: de70 a0bd 4fcc 39bd e182 f53d 37b4 afbd
00000030: 7e10 32be 0fb5 e0bd 08fc 333e 60a7 ed3d
00000040: df8e 0fbd 442a fabc 1384 a2bd 851c 9b3e
00000050: 7c07 1bbe 4449 933e f6aa 793e 40a7 723d
00000060: d179 50bd

tfeb.5.running_mean f4 [25]
-0.4476141 -0.9133038 -0.051319476 0.049034003 -0.6056529 -0.3478803 -0.46094605 -0.35512656
-0.4650297 -0.40839964 -0.40926063 -0.4153729 0.08412357 -0.3026356 -0.3520631 -0.12739721
-0.5859013 -0.06888507 -0.3670172 -0.34190306 -0.085977264 -0.55575186 -0.15579985 -0.20741746
0.13193431
00000000: ad2d e5be 47ce 69bf 5f34 52bd e1d7 483d
00000010: 120c 1bbf 5e1d b2be 1f01 ecbe 26d3 b5be
00000020: 5f18 eebe c219 d1be 9c8a d1be c2ab d4be
00000030: fa48 ac3d 0ef3 9abe 9d41 b4be 6a74 02be
00000040: a1fd 15bf 9e13 8dbd aee9 bbbe eb0d afbe
00000050: d914 b0bd c145 0ebf ff89 1fbe 3e65 54be
00000060: ca19 073e

tfeb.5.running_var f4 [25]
0.15810564 0.15089002 0.11355382 0.034270193 0.17782275 0.09548147 0.07995574 0.053539433
0.21307226 0.06050654 0.12839164 0.22576927 0.082063615 0.09280336 0.07129432 0.09640659
0.07109917 0.020983964 0.10054529 0.07352209 0.091877535 0.21054637 0.117507264 0.012589374
0.02561361
00000000: 72e6 213e ea82 1a3e e88e e83d e75e 0c3d
00000010: 2b17 363e ca8b c33d d6bf a33d 2a4c 5b3d
00000020: 9d2f 5a3e b5d5 773d 1979 033e 0f30 673e
00000030: f810 a83d b00f be3d c202 923d d170 c53d
00000040: 719c 913d 90e6 ab3c b0ea cd3d c092 963d
00000050: 4a2a bc3d 7899 573e a6a7 f03d a943 4e3c
00000060: a2d3 d13c

tfeb.7.weight f4 [28, 25, 3, 3]
0.022147736 0.021544293 0.0391005 0.027897881 0.016153045 0.0053264187 0.0076028686 0.03316559
0.027560676 0.00673907 -0.015280774 -0.023837974 0.0718488 0.09486149 0.06446266 0.03229305
0.013583804 -0.020242283 -0.028987763 -0.011606598 -0.03198368 -0.113140956 -0.083841525 -0.06632003
-0.024985377 0.016586788 0.03183407 -0.035665356 -0.026657755 -0.034487747 -0.041270867 -0.053048577
-0.0235222 -0.0073272926 -0.020353775 0.07744335 0.0037852067 0.039331127 0.06925401 0.038526803
0.061442092 0.074609004 0.0018949695 0.023204004 0.04659864 -0.06979576 -0.05257242 -0.008207303
-0.01965893 0.022154717 0.01726825 -0.038085796 0.01562753 0.010579841 -0.10564984 -0.03252037
-0.05146371 0.008216866 -0.0049333847 -0.04996845 0.008925934 0.036696866 -0.004574477 -0.014794626
-0.015402331 -0.00074365904 0.009483105 0.051741667 0.029070323 0.002809873 0.022599703 0.012456044
-0.045963116 -0.013911326 -0.035873897 0.042130418 0.1138362 0.07258036 0.0072170296 0.045823004
0.047369365 0.010687804 0.008548375 0.019729871 0.0073864376 0.01988497 0.011961732 0.015556232
0.02529666 0.010939696 -0.032397714 -0.027202897 -0.05986785 0.0639809 0.08182169 0.062881656
0.027932558 0.003964265 -0.05263239 -0.004873423 0.038709506 0.0395659 0.019893777 0.077489614
0.03657967 -0.042288925 -0.0009837025 -0.058251515 -0.030753834 -0.0026170285 -0.0021826646 -0.032431837
-0.027738944 -0.008494282 0.0015910917 -0.034807548 0.040663436 -0.019371124 -0.014343314 0.0055440045
0.0023389154 -0.013335526 -0.029245105 0.016716428 -0.0030057607 -0.040348448 -0.016287295 -0.018155456
0.00047591113 -0.025508296 -0.016504472 -0.02300347 0.045255885 0.07201782 0.061438482 0.07199704
0.06168495 0.039485585 -0.005776818 0.0036205656 0.044268057 -0.0830143 -0.07904261 -0.035612334
-0.0469106 -0.028519107 -0.011303664 0.007253946 0.0007154878 -0.008381996 -0.002580807 0.023774667
0.033807874 0.0045130495 0.019647345 0.049377132 -0.023992725 -0.027148724 0.0057312357 -0.007301342
-0.01341438 -0.004005057 -0.009877365 -0.01978404 -0.024881558 -0.0013903313 0.03989143 0.030145505
0.034335516 0.067360155 0.039265018 0.03523094 0.015290155 0.029837953 -0.0030004506 -0.02574961
0.03333096 -0.0098130405 -0.029958187 0.012118533 -0.026241893 -0.008696453 0.02438971 -0.04167785
-0.05643826 -0.06111633 0.0063393055 -0.009828846 -0.02935052 -0.056810427 -0.027024645 -0.0039627883
0.06501482 0.08491318 0.09451581 -0.0326031 -0.005462594 0.04702152 0.03738258 0.038532145
0.030118663 -0.04340661 -0.061636683 -0.074556224 0.08171285 0.09490941 0.0845897 0.0041534076
-0.0044417465 -0.0049488423 0.025468402 0.024376133 0.03597393 0.010800191 -0.010332884 0.010182047
-0.018445583 -0.03072101 -0.006449229 0.023484575 0.026387688 0.06777267 -0.023822721 -0.03347234
-0.012498661 0.08042571 -0.043998897 -0.061291687 0.041235626 -0.12189109 -0.12532558 0.16369382
-0.0379135 -0.063700005 0.036229197 0.014958718 0.05320443 0.08390926 0.05183383 0.006219287
0.0436165 -0.008821734 -0.026817258 -0.04150756 0.08314739 0.0486028 -0.048047885 -0.05208097
-0.058098473 -0.02954384 -0.0633339 -0.15434057 0.020269066 -0.017175846 -0.08321227 -0.062620476
00000000: 2b6f b53c a87d b03c d927 203d 198a e43c
00000010: 6453 843c 3d89 ae3b 7c21 f93b a4d8 073d
00000020: edc6 e13c 6bd3 dc3b 365c 7abc db47 c3bc
00000030: 7725 933d be46 c23d 0005 843d b845 043d
00000040: 9a8e 5e3c 25d3 a5bc bf77 edbc 9a29 3ebc
00000050: 5201 03bd 72b6 e7bd 1bb5 abbd ccd2 87bd
00000060: 22ae ccbc 04e1 873c 7164 023d d615 12bd
00000070: 5d61 dabc 0643 0dbd a40b 29bd 7749 59bd
00000080: a1b1 c0bc c919 f0bb f6bc a6bc 9e9a 9e3d
00000090: 3b11 783b ad19 213d 0cd5 8d3d 48ce 1d3d
000000a0: b4aa 7b3d 9bcc 983d a060 f83a 5316 be3c
000000b0: 37de 3e3d 14f1 8ebd 2e56 57bd ec77 06bc
000000c0: c40b a1bc cf7d b53c 2576 8d3c daff 1bbd
000000d0: 4e05 803c 1257 2d3c f15e d8bd 1434 05bd
000000e0: 9ccb 52bd 09a0 063c 3ba8 a1bb b8ab 4cbd
000000f0: 153e 123c 744f 163d 7fe5 95bb 2965 72bc
00000100: 0f5a 7cbc 1df2 42ba 065f 1b3c 12ef 533d
00000110: e324 ee3c d925 383b 0323 b93c 6f14 4c3c
00000120: d243 3cbd 55ec 63bc 82f0 12bd f290 2c3d
00000130: f422 e93d 03a5 943d d57c ec3b e7b0 3b3d
00000140: 6106 423d e61b 2f3c 7c0e 0c3c 8aa0 a13c
00000150: ee09 f23b cee5 a23c 24fb 433c 91df 7e3c
00000160: f13a cf3c 693c 333c 77b3 04bd 9cd8 debc
00000170: fe37 75bd 6b08 833d 2192 a73d 19c8 803d
00000180: d2d2 e43c aae6 813b 1095 57bd 3cb1 9fbb
00000190: dc8d 1e3d da0f 223d 46f8 a23c e0b2 9e3d
000001a0: 90d4 153d 2737 2dbd 94ef 80ba 2499 6ebd
000001b0: 77ef fbbc 7482 2bbb 090b 0fbb 3fd7 04bd
000001c0: c83c e3bc 9a2b 0bbc 2e8c d03a 5c92 0ebd
000001d0: b48e 263d 31b0 9ebc 3800 6bbc 7baa b53b
000001e0: 7d48 193b 407d 5abc 6e93 efbc e4f0 883c
000001f0: 4cfc 44bb 6a44 25bd ef6c 85bc c0ba 94bc
00000200: b683 f939 c6f6 d0bc 6334 87bc c671 bcbc
00000210: 3c5e 393d 147e 933d eba6 7b3d 2f73 933d
00000220: 5ca9 7c3d a3bb 213d 764b bdbb 0347 6d3b
00000230: 6c52 353d 6703 aabd 18e1 a1bd 3dde 11bd
00000240: 5425 40bd e7a0 e9bc 0133 39bc 82b2 ed3b
00000250: 938f 3b3a a454 09bc c222 29bb 17c3 c23c
00000260: 207a 0a3d 34e2 933b 78f3 a03c ad3f 4a3d
00000270: 648c c4bc 0067 debc 17cd bb3b 1940 efbb
00000280: fdc7 5bbc da3c 83bb acd4 21bc 2412 a2bc
00000290: 69d4 cbbc c73b b6ba 3265 233d b5f3 f63c
000002a0: 66a3 0c3d 1ff4 893d 5bd4 203d 514e 103d
000002b0: 8f83 7a3c b96e f43c 35a3 44bb d9f0 d2bc
000002c0: 0b86 083d e0c6 20bc df6a f5bc d08c 463c
000002d0: 3df9 d6bc 917b 0ebc eecc c73c 65b6 2abd
000002e0: ce2b 67bd 1e55 7abd f3b9 cf3b 2b09 21bc
000002f0: 8070 f0bc 0db2 68bd ca62 ddbc 47da 81bb
00000300: 7d26 853d f6e6 ad3d 8191 c13d d48a 05bd
00000310: 8fff b2bb a399 403d 7a1e 193d e2d3 1d3d
00000320: 6abb f63c 21cb 31bd bf76 7cbd efb0 98bd
00000330: 1159 a73d dd5f c23d 5d3d ad3d 4f19 883b
00000340: 128c 91bb e629 a2bb 1ca3 d03c 75b0 c73c
00000350: 6659 133d 49f3 303c 424b 29bc 9ad2 263c
00000360: 311b 97bc a1aa fbbc 0e54 d3bb b962 c03c
00000370: fe2a d83c 66cc 8a3d de27 c3bc 4b1a 09bd
00000380: 2fc7 4cbc 3cb6 a43d 3038 34bd fe0c 7bbd
00000390: b0e6 283d 09a2 f9bd 5955 00be 5a9f 273e
000003a0: 304b 1bbd 2675 82bd 1165 143d 6915 753c
000003b0: e3ec 593d 9ed8 ab3d b64f 543d 29cb cb3b
000003c0: 37a7 323d 0989 10bc deaf dbbc d503 2abd
000003d0: 2e49 aa3d bb13 473d dccd 44bd db52 55bd
000003e0: aaf8 6dbd ec05 f2bc 34b5 81bd 740b 1ebe
000003f0: 500b a63c 5cb4 8cbc 326b aabd 2a3f 80bd

tfeb.8.weight f4 [28]
0.24404468 0.469043 0.2427378 0.33814204 0.3983594 0.35321757 0.2902985 0.23221059
0.17323245 0.40715998 0.28707993 0.41583997 0.2963522 0.21941172 0.23098585 0.34138322
0.3765287 0.4705887 0.4088274 0.3991169 0.4960066 0.3176677 0.24895054 0.28066662
0.47611153 0.35598347 0.38737282 0.22312576
00000000: d9e6 793e 6726 f03e 4290 783e f420 ad3e
00000010: c3f5 cb3e efd8 b43e 01a2 943e 9dc8 6d3e
00000020: d963 313e 4677 d03e 24fc 923e fae8 d43e
00000030: 7abb 973e 77ad 603e 8e87 6c3e c8c9 ae3e
00000040: 5fc8 c03e 01f1 f03e d351 d13e 0d59 cc3e
00000050: 94f4 fd3e 57a5 a23e e4ec 7e3e 89b3 8f3e
00000060: e4c4 f33e 7743 b63e bb55 c63e 147b 643e

tfeb.8.bias f4 [28]
0.13771136 -0.11462214 0.026900427 -0.053959515 -0.108438306 0.011988819 0.022663713 0.08537679
0.039650753 -0.06279505 -0.15583551 -0.077057175 -0.030472394 0.09775393 0.16830896 -0.04456237
-0.12872629 -0.097988516 -0.071056806 -0.06458298 -0.1906309 -0.03887038 0.075401664 -0.01628623
-0.039149743 -0.043458402 -0.01506501 0.11419157
00000000: 3504 0d3e 03bf eabd 495e dc3c a704 5dbd
00000010: e714 debd c06c 443c 40a9 b93c 07da ae3d
00000020: d468 223d b19a 80bd 5893 1fbe 27d0 9dbd
00000030: 3ea1 f9bc 3633 c83d 2f59 2c3e 0887 36bd
00000040: d3d0 03be 34ae c8bd 3b86 91bd 1544 84bd
00000050: bf34 43be 8c36 1fbd 306c 9a3d b36a 85bc
00000060: 7b5b 20bd 7001 32bd 3bd3 76bc 45dd e93d

tfeb.8.running_mean f4 [28]
0.1862556 -0.2765072 -0.15227126 -0.07906669 -0.3407438 0.0068208803 -0.25474724 -0.28138518
-0.06668663 0.03833279 0.11210463 0.12931436 -0.10669004 0.028632008 0.11748045 -0.42349282
-0.2794272 -0.040421553 -0.1694171 0.052146696 -0.22677185 -0.22967163 -0.63321733 -0.20328328
-0.11300093 -0.08878108 -0.36521447 0.4209465
00000000: cab9 3e3e 5a92 8dbe ffec 1bbe b7ed a1bd
00000010: f975 aebe b181 df3b 3b6e 82be b811 90be
00000020: 0093 88bd d802 1d3d 1d97 e53d fc6a 043e
00000030: 4f80 dabd ac8d ea3c 9799 f03d 0dd4 d8be
00000040: 1511 8fbe 1291 25bd ad7b 2dbe c697 553d
00000050: e136 68be 0a2f 6bbe 881a 22bf 7e29 50be
00000060: 086d e7bd dbd2 b5bd 64fd babe 4d86 d73e

tfeb.8.running_var f4 [28]
0.025822256 0.10082943 0.0142735485 0.02931163 0.061591443 0.030142039 0.020825097 0.03556215
0.007596678 0.078904144 0.01853539 0.029619522 0.061385036 0.0493823 0.047489416 0.02929234
0.049271446 0.120872006 0.08837433 0.048025537 0.06571751 0.06586696 0.031075051 0.064273596
0.047623925 0.031294152 0.025349462 0.03896156
00000000: 3289 d33c a97f ce3d 9adb 693c f21e f03c
00000010: 4f47 7c3d 70ec f63c 6599 aa3c 9ea9 113d
00000020: 8eed f83b 7f98 a13d 88d7 973c a4a4 f23c
00000030: e06e 7b3d 1845 4a3d 4384 423d 7df6 ef3c
00000040: dbd0 493d be8b f73d 9afd b43d 6db6 443d
00000050: e796 863d 42e5 863d 1b91 fe3c e0a1 833d
00000060: 4e11 433d 4c2e 003d ada9 cf3c 2896 1f3d

tfeb.11.weight f4 [32, 28, 3, 3]
-0.016853135 -0.024536071 -0.027730444 0.034034405 0.03583734 0.019641249 0.07573981 0.06149241
0.053358823 -0.029519074 0.013102641 -0.00040314603 0.0056338604 0.016003178 0.030429296 -0.016703555
-0.0013488258 0.029152393 -0.015284505 -0.029948484 -0.026024766 -0.016512258 -0.025036069 -0.019657524
0.03337241 0.017692557 0.025890471 0.03122241 0.0224994 0.028120248 0.04059424 0.019530127
-0.007451439 -0.0066937027 0.014100964 -0.030017246 0.02399713 0.015607782 0.03636135 0.0139817605
-0.0032924558 0.012935891 -0.027283052 -0.078470595 -0.023179382 -0.01397684 -0.017808862 -0.00942072
0.024285335 0.017065251 -0.007835487 -0.020777559 -0.022817366 0.010529495 0.009649218 0.015336531
0.012176397 -0.02383918 -0.020073827 -0.017045852 -0.004497881 -0.017298102 -0.00077773875 -0.030954644
-0.0053112144 -0.01573331 -0.05895892 -0.030780168 -0.015113815 -0.027167095 -0.009645254 0.02314364
-0.028877739 -0.028461315 -0.027364016 -0.021262934 -0.022758272 -0.013494542 0.0060638296 0.003654101
0.0111276675 -0.005443649 0.0033888326 0.024364848 0.015878946 0.047131516 0.021868952 -0.0061106877
0.012780204 0.02913247 0.0129488995 0.0120882 0.012784309 0.038869746 0.037428733 0.010663242
0.03250291 0.04079088 0.03307868 0.010521027 0.047769245 0.025711251 -0.012093194 0.012548035
-0.020055478 0.025425846 0.021575285 0.018424392 -0.04329108 -0.056899074 -0.052981522 -0.0733441
-0.08283341 -0.07353568 0.020928336 0.033073753 0.046644207 -0.024031188 -0.019006811 -0.00959641
0.013643421 0.0123494845 0.018165592 0.009388281 0.026450535 0.040429175 -0.06630686 -0.06970387
-0.07388723 0.028152242 0.022940017 0.040416762 0.0479734 0.031149266 0.045486875 0.025174111
0.04537233 0.03936651 0.001806466 0.011331321 0.021514408 0.019972455 -0.007181256 0.005701726
-0.0369802 0.03190295 0.006165037 -0.045576744 0.04228957 0.01977509 -0.050240595 0.024042485
0.053498678 -0.04092052 -0.032546747 -0.036938574 -0.04413291 0.0522081 0.03513771 -0.053513765
-0.004900821 0.025917524 0.009326636 0.009327195 0.019395959 0.00032529706 -0.023931105 -0.044032943
-0.009839654 -0.032445032 -0.036452204 -0.0027044404 -0.010395026 -0.0065953145 0.028024115 0.03280105
0.041589778 -0.02464135 -0.01833966 -0.014934802 0.013043102 -0.004922328 0.005733395 -0.0037285911
-0.021605479 -0.027920242 -0.019569527 -0.038402673 -0.041559674 -0.040961593 -0.015338393 -0.015941069
-0.028257601 -0.0013142608 0.024884384 -0.04113792 -0.0123904 0.00852049 -0.020718807 0.027060756
0.008801103 -0.0694932 -0.020528639 -0.03697322 -0.019778647 0.012700249 0.01662201 -0.048715502
-0.029644754 -0.0136958165 -0.023940746 -0.0047781197 -0.015097814 -0.024599632 -0.0030772693 0.0019057557
0.0042512296 -0.0068558725 0.009751517 -0.00031006383 -0.016136745 -0.01760047 -0.104020834 -0.09380073
-0.08945475 -0.009652218 -0.0030687158 0.0023781008 -0.0035865223 0.0061911424 0.0042503034 0.0198161
0.043483105 0.049789 0.002731241 0.0076369094 0.0073634675 0.004399341 0.011922841 -0.005965253
-0.008586431 0.010959569 0.008375195 -0.02560833 -0.03168404 -0.045798283 0.05624232 0.061160624
0.06573037 0.06443345 0.056667622 0.068877146 -0.13174424 -0.06664701 0.010870441 -0.14900953
00000000: 960f 8abc dfff c8bc f52a e3bc a967 0b3d
00000010: 2dca 123d afe6 a03c 791d 9b3d 77df 7b3d
00000020: c88e 5a3d fcd1 f1bc 76ac 563c 585d d3b9
00000030: 3f9c b83b 1919 833c dc46 f93c e5d5 88bc
00000040: 15cb b0ba 00d1 ee3c dc6b 7abc 8656 f5bc
00000050: e431 d5bc b744 87bc 7118 cdbc d108 a1bc
00000060: 82b1 083d fbef 903c 4118 d43c 24c6 ff3c
00000070: a950 b83c 6f5c e63c 2546 263d a5fd 9f3c
00000080: 332b f4bb d956 dbbb bb07 673c bae6 f5bc
00000090: a195 c43c c8b7 7f3c a4ef 143d c113 653c
000000a0: 3ec6 57bb 0ff1 533c b580 dfbc 31b5 a0bd
000000b0: b0e2 bdbc 1eff 64bc e4e3 91bc 5d59 1abc
000000c0: 0af2 c63c 6dcc 8b3c 6a60 00bc b335 aabc
000000d0: 7ceb babc e783 2c3c c117 1e3c 1346 7b3c
000000e0: 837f 473c 624a c3bc de71 a4bc bea3 8bbc
000000f0: f662 93bb c0b4 8dbc 2ae1 4bba 9894 fdbc
00000100: b209 aebb 24e3 80bc e97e 71bd b126 fcbc
00000110: ef9f 77bc 878d debc 2107 1ebc bb97 bd3c
00000120: 0291 ecbc b427 e9bc 802a e0bc 9b2f aebc
00000130: 8e6f babc 3618 5dbc 17b3 c63b a479 6f3b
00000140: d250 363c a360 b2bb 2d17 5e3b ca98 c73c
00000150: 9014 823c fa0c 413d 8426 b33c 2a3c c8bb
00000160: 1064 513c 38a7 ee3c 9f27 543c 960d 463c
00000170: 4775 513c e235 1f3d df4e 193d e1b4 2e3c
00000180: c521 053d 5614 273d 837d 073d 6360 2c3c
00000190: afa9 433d 67a0 d23c 8822 46bc 4696 4d3c
000001a0: 634b a4bc dd49 d03c a7be b03c c0ee 963c
000001b0: fd51 31bd 010f 69bd 2703 59bd 6e35 96bd
000001c0: 90a4 a9bd e099 96bd e771 ab3c 5878 073d
000001d0: ff0d 3f3d 0edd c4bc 2cb4 9bbc 433a 1dbc
000001e0: a888 5f3c 7e55 4a3c 02d0 943c 4ed1 193c
000001f0: cbae d83c 1099 253d e4cb 87bd e7c0 8ebd
00000200: 3052 97bd 889f e63c b4ec bb3c 0c8c 253d
00000210: c27f 443d bf2c ff3c 7250 3a3d f039 ce3c
00000220: 56d8 393d c73e 213d f1c6 ec3a 01a7 393c
00000230: fc3e b03c 469d a33c be50 ebbb 8bd5 ba3b
00000240: 8d78 17bd abac 023d 1404 ca3b aeae 3abd
00000250: d437 2d3d 5fff a13c 15c9 4dbd bff4 c43c
00000260: 6e21 5b3d 469c 27bd bd4f 05bd e74c 17bd
00000270: b6c4 34bd 29d8 553d 8fec 0f3d 4031 5bbd
00000280: 1197 a0bb fd50 d43c bfce 183c 17d1 183c
00000290: 46e4 9e3c a28c aa39 2a0b c4bc e35b 34bd
000002a0: 8036 21bc 15e5 04bd e84e 15bd fb3c 31bb
000002b0: e64f 2abc 821d d8bb d492 e53c 655a 063d
000002c0: 0b5a 2a3d a8dc c9bc 0e3d 96bc 1ab1 74bc
000002d0: bcb2 553c 7b4b a1bb 34df bb3b 615b 74bb
000002e0: f9fd b0bc feb8 e4bc 4650 a0bc 1f4c 1dbd
000002f0: 7a3a 2abd 58c7 27bd e24d 7bbc d896 82bc
00000300: 7c7c e7bc 4643 acba 56da cb3c 3c80 28bd
00000310: 1b01 4bbc 8699 0b3c 7dba a9bc 85ae dd3c
00000320: 8032 103c 7352 8ebd ad2b a8bc 3b71 17bd
00000330: d406 a2bc b514 503c e22a 883c e889 47bd
00000340: 8ed9 f2bc 6b64 60bc 621f c4bc c691 9cbb
00000350: d25c 77bc 2b85 c9bc 03ac 49bb 8dca f93a
00000360: e64d 8b3b 3aa7 e0bb d4c4 1f3c 1090 a2b9
00000370: 3531 84bc dc2e 90bc e008 d5bd 991a c0bd
00000380: 0d34 b7bd 5624 1ebc 821c 49bb e9d9 1b3b
00000390: dc0b 6bbb 11df ca3b 2146 8b3b 6055 a23c
000003a0: 571b 323d 8def 4b3d 9ffe 323b 0a3f fa3b
000003b0: 3e49 f13b 5928 903b 0558 433c 2b78 c3bb
000003c0: 1aae 0cbc c48f 333c 1d38 093c 8fc8 d1bc
000003d0: 20c7 01bd fb96 3bbd 595e 663d 9083 7a3d
000003e0: a59d 863d aff5 833d 4f1c 683d 760f 8d3d
000003f0: f6e7 06be 3a7e 88bd ef19 323c f495 18be

tfeb.12.weight f4 [32]
0.32938266 0.33777156 0.3389772 0.2983473 0.251305 0.43741694 0.35907844 0.4085552
0.572681 0.30514616 0.351191 0.37591794 0.3674949 0.2888525 0.33674794 0.2603099
0.37236682 0.24766482 0.3104598 0.30767626 0.3659588 0.34417892 0.3751028 0.26873818
0.2822649 0.45780346 0.17430235 0.25171652 0.32216474 0.4335132 0.40244916 0.5521804
00000000: d8a4 a83e 65f0 ac3e 6b8e ad3e fac0 983e
00000010: 0dab 803e 1df5 df3e 21d9 b73e 262e d13e
00000020: 399b 123f 1e3c 9c3e 4fcf b33e 5178 c03e
00000030: 4b28 bc3e 7ae4 933e 3a6a ac3e 5747 853e
00000040: dda6 be3e d99b 7d3e 96f4 9e3e be87 9d3e
00000050: f45e bb3e 3838 b03e 790d c03e 0d98 893e
00000060: 0685 903e 3765 ea3e 517c 323e fde0 803e
00000070: c7f2 a43e 71f5 dd3e d10d ce3e b25b 0d3f

tfeb.12.bias f4 [32]
-0.19114582 0.036340125 -0.13753328 -0.05032626 -0.078454725 -0.22320062 -0.0799027 -0.16805744
-0.3938516 0.035998 -0.12743779 -0.08755154 -0.10662451 -0.007586516 -0.17845169 -0.08056856
-0.18395565 0.15656209 -0.073925585 0.03215011 -0.10728639 -0.1224634 -0.07106499 0.13495104
-0.036972966 -0.059286736 -0.13535452 -0.07681554 -0.081380464 -0.16720812 -0.17369601 -0.19752213
00000000: bbbb 43be 62d9 143d 86d5 0cbe e922 4ebd
00000010: dfac a0bd b48e 64be 07a4 a3bd 4017 2cbe
00000020: eba6 c9be a472 133d 0d7f 02be 394e b3bd
00000030: f35d dabd 4f98 f8bb 0abc 36be 2101 a5bd
00000040: df5e 3cbe d051 203e 4c66 97bd d5af 033d
00000050: f8b8 dbbd 17ce fabd 858a 91bd 9b30 0a3e
00000060: f770 17bd a6d6 72bd 609a 0abe 7751 9dbd
00000070: cdaa a6bd 9b38 2bbe 5edd 31be 3e43 4abe

tfeb.12.running_mean f4 [32]
-0.04173574 -0.5027202 -0.23396029 0.1576281 -0.1641648 -0.83323133 -0.2023962 -0.3987943
-0.6572796 -0.11924963 -0.24492307 -0.5297411 -0.39654034 -0.539278 -0.08160661 -0.06297554
-0.2817686 -0.09030372 -0.14436896 -0.41725123 -0.31844226 -0.5241519 -0.33316767 -0.44020206
-0.098334424 -0.6940005 -0.13714127 -0.056117274 -0.14924513 -0.39051285 -0.24670114 -0.7325431
00000000: 18f3 2abd 45b2 00bf 4993 6fbe 4369 213e
00000010: d11a 28be a64e 55bf f340 4fbe c42e ccbe
00000020: 7a43 28bf 2639 f4bd 1dcd 7abe 1d9d 07bf
00000030: 5607 cbbe 1f0e 0abf 5e21 a7bd 52f9 80bd
00000040: f943 90be 28f1 b8bd 75d5 13be f4a1 d5be
00000050: dd0a a3be d22e 06bf f494 aabe 2a62 e1be
00000060: 8f63 c9bd 04aa 31bf c36e 0cbe 3adb 65bd
00000070: b7d3 18be 4df1 c7be 399f 7cbe f287 3bbf

tfeb.12.running_var f4 [32]
0.044268154 0.30557868 0.11605449 0.10152001 0.02564582 0.2934938 0.18296216 0.15158845
0.23474021 0.12711737 0.18421768 0.23083806 0.13347964 0.13045698 0.09763925 0.1024403
0.08990926 0.29441193 0.09196848 0.15262522 0.08477547 0.17164712 0.23873965 0.26746997
0.023628112 0.47652072 0.01205204 0.10237763 0.06159783 0.26455668 0.1367349 0.43683138
00000000: 8652 353d cf74 9c3e faad ed3d b9e9 cf3d
00000010: 2f17 d23c d244 963e 6f5a 3b3e 013a 1b3e
00000020: bd5f 703e 0e2b 023e 8fa3 3c3e d060 6c3e
00000030: e3ae 083e 8496 053e 16f7 c73d 38cc d13d
00000040: 5922 b83d 29bd 963e f859 bc3d c949 1c3e
00000050: c39e ad3d 43c4 2f3e 2b78 743e d3f1 883e
00000060: be8f c13c 86fa f33e eb75 453c 5dab d13d
00000070: 024e 7c3d f973 873e 3c04 0c3e 5da8 df3e

tfeb.14.weight f4 [34, 32, 3, 3]
-0.0017877077 -0.0013660719 -0.00093489524 -0.0005938242 -0.0016061189 -0.00067731016 0.0011571579 -0.002356186
0.0001339047 -0.00027322135 -0.0005558077 -0.0015541824 -0.0005908102 0.00071501365 -0.0008328218 -0.0015224811
0.0009377029 -0.00074979727 -0.00036504114 -0.00026142524 -0.00059990847 -0.0010658692 0.0010357255 -0.00019238796
-0.00183961 0.002739981 -0.0013492526 -2.650602e-06 0.00077802537 0.00036781759 -0.0013478016 0.00088003307
-1.4618737e-05 -0.0019451212 -0.00018540854 -0.0003498214 -0.00038927776 -0.0016311895 -0.00031947574 0.0006622243
-0.00068299135 0.001349952 -0.00021507399 -0.001706718 0.002800495 -0.0018819071 -0.00028972075 -0.0014800059
8.0101745e-05 -0.0015372847 -0.0006108301 0.0005061233 -0.0007768271 0.0004442588 -0.00091599976 3.6155805e-05
0.0004336385 -0.00048697065 -0.0017228246 -8.736704e-06 9.1141104e-05 -0.0017838026 0.0017838565 -6.009317e-06
-0.002724514 -0.0008778973 -0.00027649137 -0.000320452 7.367015e-05 -0.00041331904 0.0032115737 -0.0018194206
-0.00051620847 -0.00033398185 -0.00031004238 -0.0014852951 0.0007331361 -0.0013263093 0.0021869976 -0.0006969786
-0.0036417802 0.0011745063 -0.0018511064 -0.0019046287 -0.0006459378 -0.00071382854 -0.00066581764 -0.0014637397
-0.0008719248 0.0027173765 -0.00030620908 -8.126472e-05 0.00025958242 -0.0013765111 -0.00037729103 0.0002447741
-0.0006496274 -0.0017909489 0.0010374313 -0.0010757167 -0.00146482 -0.0002455738 -0.0002997935 -0.000116274474
-0.0016802901 -3.3216573e-05 -0.0009170114 3.935117e-05 -0.0016219082 0.00014043508 -0.0028048668 -0.00035243187
0.0013761523 -0.0035800335 0.0013132811 -0.00079282885 -0.0021587654 0.00026146267 -8.191308e-05 -0.00055971806
-0.00038657858 0.0007290244 -0.00041808616 9.640421e-05 -0.0010080206 0.00037887343 0.00071136886 -0.0007769866
-0.0015575192 0.00036841215 -0.0022043355 -0.00030619703 -0.00072239427 -0.0010806415 0.0032354514 -7.747473e-05
-0.0008162545 -0.0018738741 -0.0003608602 -0.0013748646 0.000998271 -0.0012279156 0.0003426821 -0.00055865786
8.287201e-05 1.1056365e-05 -0.0013892334 -7.870474e-05 -0.0005440458 -3.141721e-05 0.0012413535 -0.0018763632
-0.00025877674 -0.0014385423 0.0014984163 -0.0004506566 -0.0004095491 0.0014855895 0.00057784823 -0.0015841114
0.0008172396 0.00013131839 0.00075143465 9.107593e-05 -0.00059029815 -0.00076250033 -0.0006684101 0.00052265986
-0.0010099738 -0.0021977744 0.0029377872 -0.00041334517 0.0005498772 -0.0013179287 -0.0018694444 0.00065078726
-0.00078606256 -0.0016127375 -0.00010943205 0.0001577087 0.00024608072 0.00015131028 -0.0016688952 0.00032468088
-0.0007937166 -0.00105383 -0.0022149868 -0.002402071 0.0012083964 -0.00017481012 0.00074923347 0.000118016884
-0.00045108073 0.00023055094 9.328339e-05 -0.0007022088 0.003731801 -0.0032695907 -0.0019660357 -0.002068941
-0.0021957608 0.00091225636 -0.0012639385 -0.0025569252 0.0017823755 -3.0886124e-05 -0.00048440727 0.0009150619
0.00032259765 -0.0014693909 -0.0008963156 -0.0012774852 0.0006007462 -0.0019437594 -0.0025585205 0.0014307513
0.00013708099 -0.0010751034 -0.0012628242 -0.0002101364 -0.0010509006 -0.0010304572 -0.00021437486 -0.0007936602
0.0003372953 0.00018156374 -0.0019312426 -0.0018971732 -0.0015565647 -0.003975815 -0.0008242803 0.0012825339
-0.0015406326 -0.0018180417 0.0009947051 -0.0012701402 -0.0006619444 0.00051608525 -0.0022790304 -0.00038046265
2.8848093e-05 -0.0015794556 0.0013296508 -0.0021458794 -0.0022495 -0.00043114007 -0.0010115289 -0.0007179247
-0.0012532928 -0.0017662264 0.00018412415 -0.0008665355 -0.00042040157 0.0006920019 -0.00026621763 0.0011370302
00000000: 8451 eaba c40d b3ba c213 75ba deaa 1bba
00000010: 6884 d2ba 848d 31ba c7ab 973a 3e6a 1abb
00000020: c568 0c39 263f 8fb9 a0b3 11ba b5b5 cbba
00000030: 9ae0 1aba c16f 3b3a ba51 5aba fd8d c7ba
00000040: 2dd0 753a 0b8e 44ba fe62 bfb9 e70f 89b9
00000050: 2d43 1dba a3b4 8bba 2ec1 873a c0bb 49b9
00000060: 121f f1ba 4191 333b 68d9 b0ba ffe0 31b6
00000070: 66f4 4b3a a4d7 c039 b8a8 b0ba 05b2 663a
00000080: ff42 75b7 70f3 feba 3a6a 42b9 3c68 b7b9
00000090: fa17 ccb9 a3cd d5ba 4f7f a7b9 1f99 2d3a
000000a0: c60a 33ba dff0 b03a 7c85 61b9 f4b3 dfba
000000b0: 8288 373b 53aa f6ba a9e5 97b9 c2fc c1ba
000000c0: 4cfc a738 b77e c9ba 1d20 20ba 5cad 043a
000000d0: fca3 4bba 68eb e839 b41f 70ba 00a6 1738
000000e0: f959 e339 1850 ffb9 67d0 e1ba dc93 12b7
000000f0: 0223 bf38 7cce e9ba 4bd0 e93a a4a3 c9b6
00000100: c38d 32bb b122 66ba 0bf6 90b9 5702 a8b9
00000110: 5c7f 9a38 beb2 d8b9 4479 523b a079 eeba
00000120: 2a52 07ba 491a afb9 2f8d a2b9 3cae c2ba
00000130: ee2f 403a 8ed7 adba bb53 0f3b 71b5 36ba
00000140: efaa 6ebb e4f1 993a d3a0 f2ba bca4 f9ba
00000150: 2754 29ba 3920 3bba 448a 2eba f4da bfba
00000160: e291 64ba 0316 323b b08a a0b9 aa6c aab8
00000170: 9018 8839 0c6c b4ba 25cf c5b9 0655 8039
00000180: c24b 2aba 46be eaba 6bfa 873a 10ff 8cba
00000190: 34ff bfba 5cc0 80b9 9a2d 9db9 62d8 f3b8
000001a0: 2e3d dcba 0652 0bb8 9863 70ba ff0c 2538
000001b0: 3596 d4ba c141 1339 dbd1 37bb 9bc6 b8b9
000001c0: 0260 b43a ff9e 6abb 6722 ac3a d8d5 4fba
000001d0: 137a 0dbb ed14 8939 c0c8 abb8 0bba 12ba
000001e0: b3ad cab9 001c 3f3a 9332 dbb9 9e2c ca38
000001f0: 8f1f 84ba 88a3 c639 287b 3a3a b0ae 4bba
00000200: ac25 ccba 7127 c139 9d76 10bb 1289 a0b9
00000210: 0f5f 3dba 50a4 8dba de09 543b ee79 a2b8
00000220: eaf9 55ba c89c f5ba d631 bdb9 cd34 b4ba
00000230: 6bd8 823a 03f2 a0ba 03aa b339 e572 12ba
00000240: 92cb ad38 ba7e 3937 f016 b6ba 490e a5b8
00000250: 4c9e 0eba f9c5 03b8 e9b4 a23a 4df0 f5ba
00000260: 6dac 87b9 788d bcba 8266 c43a 1b46 ecb9
00000270: c0b8 d6b9 1db8 c23a bd7a 173a f5a1 cfba
00000280: 053c 563a 83b2 0939 edfb 443a 0500 bf38
00000290: 3dbe 1aba 88e2 47ba 3e38 2fba 1c03 093a
000002a0: 1961 84ba 8908 10bb e487 403b 40b6 d8b9
000002b0: a225 103a 59be acba 2508 f5ba 9899 2a3a
000002c0: c40f 4eba 7e62 d3ba e27e e5b8 9b5e 2539
000002d0: 6504 8139 0ba9 1e39 d5be daba ee39 aa39
000002e0: 6b11 50ba ab20 8aba 5029 11bb 106c 1dbb
000002f0: 0e63 9e3a 3c4d 37b9 3568 443a d57f f738
00000300: 087f ecb9 0cc0 7139 23a1 c338 6f14 38ba
00000310: 3b91 743b a146 56bb 9bd8 00bb 1297 07bb
00000320: c1e6 0fbb 7d24 6f3a bdaa a5ba 1692 27bb
00000330: 999e e93a b98b 01b8 0bf8 fdb9 c4e0 6f3a
00000340: 5322 a939 9498 c0ba b9f6 6aba 4a71 a7ba
00000350: 657b 1d3a bec5 feba daac 27bb 0c88 bb3a
00000360: 66bd 0f39 7cea 8cba 5985 a5ba 0f58 5cb9
00000370: 5fbe 89ba 6810 87ba d0c9 60b9 a20d 50ba
00000380: 02d7 b039 2562 3e39 c021 fdba 92aa f8ba
00000390: a505 ccba 8e47 82bb 8414 58ba b21a a83a
000003a0: 0def c9ba 5b4b eeba c460 823a d57a a6ba
000003b0: 5686 2dba e549 073a c95b 15bb d578 c7b9
000003c0: cffe f137 bc05 cfba ad47 ae3a e2a1 0cbb
000003d0: 596c 13bb a40a e2b9 4795 84ba 1c33 3cba
000003e0: 8745 a4ba b980 e7ba 7311 4139 3728 63ba
000003f0: 5869 dcb9 7667 353a 2093 8bb9 6708 953a
