trained_models/step_5_retrain_after_step_4/retrain_4C_after_2nd_pruning_prunratio0.85_2024060419/retrained_4Cmodel_ratio85.0_vaacc93.2367172241211_tracc_80.26315789473685@795epoch_20240604231149.pt (torch, 309156 bytes, 62 tensors)

sfeb.0.weight f4 [8, 1, 1, 9]
0.24335894 0.14110051 0.279075 0.34250024 0.084282376 -0.26077953 -0.47630236 -0.287304
-0.06637675 0.0038474633 0.017436825 -0.059413265 -0.2877985 0.05956978 -0.19369467 -0.29338953
0.35596588 0.5609864 -0.17053327 -0.21798992 0.21258512 0.073397666 -0.1747128 -0.21987978
0.12948084 -0.31634063 -0.41621238 0.685159 0.37115076 -0.039882682 -0.00044217115 -0.16432951
0.012433005 0.11469077 -0.017827678 0.07891765 -0.6099862 -0.3388335 0.061506733 0.08456476
0.2943803 0.19947423 -0.17515147 0.037661813 -0.1318848 -0.30158508 -0.03330359 0.19216816
0.09071478 -0.41051555 0.08910144 0.5865789 -0.034334473 -0.4963806 -0.04764366 -0.2128999
0.22560583 -0.09171333 -0.46319082 0.49289575 0.02533683 -0.43455872 0.41356322 0.044136915
0.013880833 -0.18962897 -0.11906073 0.18017565 0.21548977 -0.022150671 0.31497887 0.5596165
00000000: 1633 793e a77c 103e ebe2 8e3e 315c af3e
00000010: 3d9c ac3d e584 85be e7dd f3be 8319 93be
00000020: 89f0 87bd b925 7c3b acd7 8e3c 535b 73bd
00000030: 535a 93be 71ff 733d e557 46be 2737 96be
00000040: 2941 b63e ce9c 0f3f 46a0 2ebe c038 5fbe
00000050: eaaf 593e 8451 963d eae7 32be 2a28 61be
00000060: a096 043e 66f7 a1be ca19 d5be 9566 2f3f
00000070: 7907 be3e 065c 23bd 35d3 e7b9 ff45 28be
00000080: cdb3 4b3c ffe2 ea3d 5a0b 92bc 949f a13d
00000090: 0e28 1cbf 967b adbe 7cee 7b3d 4a30 ad3d
000000a0: 04b9 963e f942 4c3e e85a 33be 4643 1a3d
000000b0: cf0c 07be 5c69 9abe 5869 08bd bbc7 443e
000000c0: acc8 b93d 182f d2be d17a b63d 092a 163f
000000d0: 4ea2 0cbd 9925 febe 0026 43bd 6e02 5abe
000000e0: 3705 673e 33d4 bbbd 5927 edbe d55c fc3e
000000f0: 2f8f cf3c 7b7e debe 8fbe d33e e9c8 343d
00000100: 6f6c 633c 192e 42be 1dd6 f3bd f77f 383e
00000110: 5aa9 5c3e 5375 b5bc e944 a13e 0743 0f3f

sfeb.1.weight f4 [8]
0.9140725 0.77038723 0.6995035 0.7523117 0.7805004 0.53057486 0.467478 0.6862565
00000000: a800 6a3f 1938 453f a912 333f 8097 403f
00000010: e0ce 473f c1d3 073f 4759 ef3e 82ae 2f3f

sfeb.1.bias f4 [8]
0.038732585 0.026700623 0.06327972 0.23203109 0.07321552 0.19754378 0.05586578 0.0393226
00000000: 0fa6 1e3d 44bb da3c cc98 813d 8f99 6d3e
00000010: 05f2 953d eb48 4a3e 84d3 643d bc10 213d

sfeb.1.running_mean f4 [8]
-2.5583574e-07 1.7028477e-05 -0.000113429574 0.00010741229 -6.0005455e-05 -3.2758442e-05 -9.149376e-06 0.00010287561
00000000: cc59 89b4 60d8 8e37 0ae1 edb8 8942 e138
00000010: 5eae 7bb8 1c66 09b8 4580 19b7 ecbe d738

sfeb.1.running_var f4 [8]
0.023293609 0.012304496 0.0096312165 0.017597204 0.017664136 0.006497844 0.0018105757 0.013604363
00000000: 3dd2 be3c cc98 493c 40cc 1d3c 0328 903c
00000010: 61b4 903c deeb d43b d750 ed3a d6e4 5e3c

sfeb.3.weight f4 [32, 8, 1, 5]
0.05203905 -0.17412087 -0.0114867715 0.049094435 -0.14282702 -0.077770494 -0.11529196 -0.052582268
0.0003146546 -0.011814607 0.2362029 0.20644493 0.24026668 0.13683586 0.085629985 -0.10526675
-0.04754771 -0.25822356 -0.043963507 -0.11205131 0.15897457 0.18264553 0.07074205 0.17481503
0.14960067 0.058606904 -0.016710894 -0.06311394 -0.0063168583 0.028061569 0.0032215954 -0.024250126
0.037996646 0.036618907 -0.009831512 -0.055283446 -0.093699805 -0.14673202 -0.0232467 -0.039955936
-0.17158523 -0.1562699 -0.036919862 0.06326811 0.084852055 -0.010286363 -0.14348057 -0.116280034
-0.03428775 -0.06446707 0.08677558 0.080546126 0.07376773 0.23179993 0.28630885 -0.2233502
-0.11131804 -0.09946606 -0.016076608 -0.03289012 0.14625211 0.1376442 0.016588865 -0.082485445
0.009678828 -0.006247434 0.110513724 -0.022221275 -0.0030826924 0.015931375 -0.009517012 -0.05054167
-0.016488476 -0.103395306 -0.035114132 -0.061369352 -0.066537954 -0.24807914 -0.16998641 -0.105322845
-0.13380685 -0.21030991 -0.032023188 -0.016603349 -0.09109361 -0.11478286 -0.06320711 -0.063176356
-0.17895156 -0.14450277 0.13789488 0.21327865 0.12717342 0.18555826 0.2626436 -0.18638751
-0.08676263 -0.19262542 -0.113965526 -0.095953226 -0.051451292 0.009460255 0.0440079 0.11720212
0.048124876 -0.042117655 0.05963933 -0.05060522 0.097463906 0.03596352 -0.045869168 -0.006495875
-0.054932266 -0.070346236 -0.11911483 -0.1446077 -0.2522803 -0.26017347 -0.12594594 -0.12682809
-0.1019445 0.06376128 -0.11784754 -0.067947485 -0.23244698 -0.12415034 -0.03353216 0.047215376
-0.017996393 -0.076739796 -0.3218157 -0.25769797 -0.224799 -0.22366615 -0.33549592 0.099666476
0.20744699 0.28993657 0.15610479 0.12238191 -0.07076622 -0.12264511 -0.27816013 -0.08989988
-0.11034296 0.03559117 -0.14835113 -0.14209275 -0.18574129 -0.1781535 -0.11262774 -0.18055667
-0.24038477 -0.14282109 -0.11811329 0.18336818 0.19989082 0.2327427 0.35816267 0.32947883
-0.13945934 -0.089092225 -0.13570476 -0.10279612 -0.038232613 0.07776521 0.021421209 0.008838819
0.06332017 0.010673005 -0.12476477 -0.08246386 -0.11170784 -0.18134634 -0.08031599 -0.19878905
-0.13162123 -0.023992775 -0.0053501157 0.07091175 -0.10823291 -0.029826432 0.046652924 -0.03493629
-0.0931757 -0.03549035 -0.031827807 0.026503313 -0.05307799 -0.029834768 -0.038473915 0.009616227
-0.026111461 -0.003146128 -0.044160333 -0.06106766 0.031999253 0.0973065 0.12460646 0.18557712
-0.04860001 -0.16477972 -0.1762421 -0.20451954 -0.09129047 0.09622396 0.23076603 0.10878308
0.06062069 0.1321286 0.09413593 -0.055124316 -0.03343371 -0.08793378 -0.18926129 -0.10096836
-0.22882178 -0.22018608 -0.07419305 0.022872893 -0.02360093 0.009656273 -0.008811768 0.17302884
0.024569526 -0.0008475412 0.040133618 0.01244492 0.051574804 -0.068014815 0.07907238 0.06057214
0.07841035 0.07971979 -0.006220363 -0.04585568 -0.047007333 0.05281997 0.107844725 0.114419386
0.124725565 0.10059687 0.0929577 0.08378932 0.08102465 -0.16433154 -0.19157887 -0.22269277
-0.037194878 -0.01847572 -0.0217883 0.012230015 0.099999785 0.07883004 0.1767791 0.23262459
00000000: e626 553d be4c 32be 0333 3cbc 3f17 493d
00000010: 3f41 12be 2346 9fbd 311e ecbd 8160 57bd
00000020: 3af8 a439 0e92 41bc 2cdf 713e 4d66 533e
00000030: 7808 763e b31e 0c3e c65e af3d 1896 d7bd
00000040: 63c1 42bd e135 84be 1413 34bd 287b e5bd
00000050: 3bca 223e 6e07 3b3e 35e1 903d b602 333e
00000060: eb30 193e cb0d 703d 49e5 88bc e241 81bd
00000070: a6fd cebb 60e1 e53c 6721 533b 33a8 c6bc
00000080: 5fa2 1b3d b5fd 153d 5a14 21bc e570 62bd
00000090: afe5 bfbd eb40 16be dd6f bebc d6a8 23bd
000000a0: 0ab4 2fbe 3705 20be 4839 17bd b692 813d
000000b0: eac6 ad3d 2288 28bc 92ec 12be 3a24 eebd
000000c0: 5071 0cbd 5007 84bd 65b7 b13d 5ef5 a43d
000000d0: 8913 973d f65c 6d3e 1397 923e eab5 64be
000000e0: b6fa e3bd ddb4 cbbd 17b3 83bc cab7 06bd
000000f0: 1dc3 153e 9af2 0c3e 5fe5 873c 21ee a8bd
00000100: f293 1e3c 46b7 ccbb 0555 e23d 6409 b6bc
00000110: ff06 4abb 8482 823c 3eed 1bbc c804 4fbd
00000120: d712 87bc ebc0 d3bd d6d3 0fbd 6e5e 7bbd
00000130: 0d45 88bd 7508 7ebe eb10 2ebe 81b3 d7bd
00000140: aa04 09be 7b5b 57be bf2a 03bd bf03 88bc
00000150: 498f babd 4713 ebbd bb72 81bd 9b62 81bd
00000160: 143f 37be 89f8 13be 5134 0d3e b865 5a3e
00000170: c039 023e fc02 3e3e 3979 863e 5edc 3ebe
00000180: 9bb0 b1bd 993f 45be c266 e9bd 2083 c4bd
00000190: 97be 52bd 2fff 1a3c a141 343d aa07 f03d
000001a0: 971e 453d 9083 2cbd 5f48 743d 6b47 4fbd
000001b0: 289b c73d 7c4e 133d 4fe1 3bbd 59db d4bb
000001c0: a800 61bd b011 90bd 7af2 f3bd 0a14 14be
000001d0: e22a 81be 7535 85be f9f7 00be 39df 01be
000001e0: 47c8 d0bd 4695 823d 0d5a f1bd 0d28 8bbd
000001f0: 9506 6ebe 8942 febd 0559 09bd e964 413d
00000200: 2c6d 93bc c129 9dbd 07c5 a4be fdf0 83be
00000210: b631 66be bd08 65be 1fc6 abbe f01d cc3d
00000220: fc6c 543e 9172 943e efd9 1f3e 5ea3 fa3d
00000230: e1ed 90bd 5c2d fbbd 016b 8ebe 6e1d b8bd
00000240: 7dfb e1bd 0cc8 113d 5ce9 17be c380 11be
00000250: f732 3ebe df6d 36be 5fa9 e6bd d9e3 38be
00000260: 6d27 76be b13f 12be 61e5 f1bd dec4 3b3e
00000270: 2eb0 4c3e 1a54 6e3e 1961 b73e 73b1 a83e
00000280: 6ece 0ebe fc75 b6bd 30f6 0abe c686 d2bd
00000290: cd99 1cbd 5e43 9f3d 887b af3c b2d0 103c
000002a0: 01ae 813d d4dd 2e3c ac84 ffbd d0e2 a8bd
000002b0: 14c7 e4bd dbb2 39be b67c a4bd 5b8f 4bbe
000002c0: b7c7 06be 7f8c c4bc 0650 afbb 2e3a 913d
000002d0: 37a9 ddbd 9056 f4bc 2317 3f3d 5b19 0fbd
000002e0: e7d2 bebd 545e 11bd e05d 02bd 7a1d d93c
000002f0: 4e68 59bd 0b68 f4bc d396 1dbd 618d 1d3c
00000300: b4e7 d5bc 452f 4ebb 77e1 34bd 1522 7abd
00000310: a611 033d a148 c73d ac31 ff3d ee07 3e3e
00000320: ce10 47bd 04bc 28be cf78 34be 926d 51be
00000330: 7ff6 babd 1111 c53d ee4d 6c3e aac9 de3d
00000340: 674d 783d b84c 073e 57ca c03d 09ca 61bd
00000350: c9f1 08bd a016 b4bd b6cd 41be 80c8 cebd
00000360: 4250 6abe 7678 61be 87f2 97bd ef5f bb3c
00000370: bd56 c1bc 5835 1e3c 3c5f 10bc 792e 313e
00000380: 0846 c93c 872d 5eba 2663 243d c7e5 4b3c
00000390: 1a40 533d 5a4b 8bbd b3f0 a13d 7e1a 783d
000003a0: 9b95 a03d 2144 a33d 30d4 cbbb 2ad3 3bbd
000003b0: c38a 40bd c159 583d b2dd dc3d b654 ea3d
000003c0: 1e70 ff3d bb05 ce3d 9b60 be3d bc99 ab3d
000003d0: 40f0 a53d 8746 28be 402d 44be 9309 64be
000003e0: a859 18bd 655a 97bc 607d b2bc 6760 483c
000003f0: b0cc cc3d a571 a13d 9505 353e 2435 6e3e

sfeb.4.weight f4 [32]
0.7433719 0.42504972 0.78653204 1.1537603 0.3312457 0.36686948 0.5763149 0.0005760567
0.4299277 0.52169454 0.013664141 0.62097025 0.5923282 0.7488157 0.898148 -0.000741016
0.5785817 0.41677424 0.5625232 0.00024725232 0.5275041 0.56534696 0.71542454 0.42820054
0.00060627173 0.00075227884 0.3894352 0.52994704 0.35893577 0.54683816 0.42768866 0.39667362
00000000: 9f4d 3e3f 1ea0 d93e 2a5a 493f 6bae 933f
00000010: 0999 a93e 51d6 bb3e 6089 133f 8302 173a
00000020: 7c1f dc3e c68d 053f 90df 5f3c e8f7 1e3f
00000030: d2a2 173f 63b2 3f3f 07ed 653f be40 42ba
00000040: ee1d 143f 6f63 d53e 8501 103f a5a1 8139
00000050: 820a 073f 94ba 103f 1026 373f 1a3d db3e
00000060: 35ee 1e3a 9434 453a 0d64 c73e 9caa 073f
00000070: 6ec6 b73e 96fd 0b3f 02fa da3e ce18 cb3e

sfeb.4.bias f4 [32]
0.16257207 -0.18746729 -0.15455723 -0.052331436 -0.06510386 -0.008832066 0.14115477 -0.06518006
0.041275483 -0.06884846 -0.023056937 0.035336226 0.11491658 0.081903055 0.034723133 -0.038501725
-0.07476323 0.055664357 -0.033415467 -0.021385763 0.013890122 -0.14435068 -0.09048299 0.0450859
-0.017747097 -0.019560568 0.028045377 -0.04818632 -0.11728785 -0.07682731 -0.10172891 0.07573411
00000000: 4b79 263e 6df7 3fbe 4044 1ebe 7d59 56bd
00000010: 2c55 85bd 5fb4 10bc e08a 103e 207d 85bd
00000020: 7b10 293d 6c00 8dbd e7e1 bcbc b8bc 103d
00000030: 6259 eb3d cabc a73d d839 0e3d fcb3 1dbd
00000040: 771d 99bd 4f00 643d a8de 08bd 3231 afbc
00000050: 6593 633c aad0 13be 254f b9bd feab 383d
00000060: 5c62 91bc 7c3d a0bc 6bbf e53c 055f 45bd
00000070: 9d34 f0bd a357 9dbd 3f57 d0bd 7c1a 9b3d

sfeb.4.running_mean f4 [32]
-0.011849611 -0.19227439 -0.38114828 -0.27669108 -0.30966625 -0.17619519 -0.11899624 0.010658247
-0.26061648 -0.12556052 -0.041139983 -0.21543434 -0.060533684 0.11092046 -0.17873135 -0.0022481298
-0.28557533 -0.2552548 -0.28995973 -0.007332348 -0.30983445 -0.47436154 -0.32961872 -0.2299217
-0.016887818 -0.014973827 -0.33142307 -0.150005 -0.33927757 -0.38461882 -0.044823047 -0.044282507
00000000: df24 42bc 94e3 44be de25 c3be 74aa 8dbe
00000010: 938c 9ebe 836c 34be 4db4 f3bd ee9f 2e3c
00000020: 866f 85be f092 00be 6682 28bd d29a 5cbe
00000030: 2bf2 77bd 442a e33d 5a05 37be 5c55 13bb
00000040: ee36 92be c2b0 82be 9a75 94be 3144 f0bb
00000050: 9fa2 9ebe 84df f2be c9c3 a8be 9870 6bbe
00000060: 5258 8abc c854 75bc 49b0 a9be e99a 19be
00000070: cab5 adbe c2ec c4be 5f98 37bd 9361 35bd

sfeb.4.running_var f4 [32]
0.28199905 0.30991337 0.5284259 0.9295685 0.26535752 0.3236894 0.4146205 0.006225245
0.28752378 0.19899663 0.0029999681 0.3591447 0.39699274 0.7035699 0.8166774 0.0021142734
0.51389754 0.60198236 0.80730784 0.0015526733 0.60451776 0.6970299 0.7323747 0.44351295
0.0008681466 0.00078791025 0.4519501 0.43471655 0.3771787 0.41946474 0.19725217 0.15958053
00000000: 2e62 903e f7ac 9e3e eb46 073f 34f8 6d3f
00000010: f1dc 873e 9eba a53e 2349 d43e 24fd cb3b
00000020: 5136 933e c6c5 4b3e 1d9b 443b d0e1 b73e
00000030: a242 cb3e 281d 343f c511 513f 9f8f 0a3b
00000040: ca8e 033f 841b 1a3f baab 4e3f 1283 cb3a
00000050: adc1 1a3f 8d70 323f e97c 3b3f 2114 e33e
00000060: 5594 633a c38b 4e3a 0166 e73e 2b93 de3e
00000070: 911d c13e 15c4 d63e 79fc 493e 1469 233e

tfeb.0.weight f4 [13, 1, 3, 3]
0.03309379 0.0006219425 -0.0054286886 0.004219029 0.0004843235 0.001551089 0.0019397074 0.0060405335
0.0061013554 0.008829279 -0.010057137 0.014269462 0.015389599 -0.011514874 0.013300245 0.015845904
-0.0073169633 0.01636259 0.19490193 0.125626 -0.40341944 0.37796465 0.4614856 -0.6607285
0.19975504 0.1500464 -0.44870773 -0.22023831 -0.02337643 0.12576932 -0.57792693 0.4824752
0.5249476 -0.29826352 0.15093634 0.19159652 0.0314101 0.4120214 -0.4822958 0.09044859
0.115871735 -0.3274748 -0.16522698 -0.056480143 -0.31711882 0.03685674 -0.1552644 -0.17659044
0.023925934 -0.2077771 -0.28848112 0.24293618 -0.17697474 -0.1321038 0.85789424 -0.48369995
-0.49455115 0.903069 -0.5369512 -0.64904934 0.42905483 -0.29775175 -0.45600823 -0.12125793
-0.17325392 -0.13464287 -0.08580406 -0.1519081 -0.1128972 0.10689238 0.22224773 0.1249641
-0.16535856 -0.29162523 -0.11916322 -0.1547454 -0.25786728 -0.062296636 -0.10413003 -0.17230342
-0.107415184 -0.04624805 -0.07654584 0.049629875 -0.11048903 -0.140457 -0.031006832 0.102572866
-0.46164304 0.42384154 0.31277058 0.10936396 0.11424111 0.28684556 0.060352758 0.063485704
-0.06689992 -0.080270134 -0.025312342 -0.07748005 -0.17648537 -0.054096315 -0.18183078 -0.25046694
-0.1284487 0.022863222 -0.11561282 -0.037565053 -0.28085488 -0.22183494 0.31053734 -0.646236
-0.5565134 1.10915 -0.36508593 -0.29139084 0.3226669
00000000: 5b8d 073d db09 233a 24e3 b1bb c83f 8a3b
00000010: cdec fd39 e94d cb3a c83d fe3a abef c53b
00000020: e1ed c73b aea8 103c b1c6 24bc 76ca 693c
00000030: a824 7c3c e2a8 3cbc 45e9 593c 45cf 813c
00000040: 23c3 efbb d70a 863c 5f94 473e 1aa4 003e
00000050: fe8c cebe 9584 c13e d747 ec3e 8125 29bf
00000060: 968c 4c3e c3a5 193e 05bd e5be 2786 61be
00000070: ed7f bfbc acc9 003e 05f3 13bf fd06 f73e
00000080: f762 063f ffb5 98be 0e8f 1a3e e131 443e
00000090: e1a7 003d 78f4 d23e 7aef f6be 1c3d b93d
000000a0: 294e ed3d c7aa a7be 4331 29be b957 67bd
000000b0: 665d a2be 18f7 163d a2fd 1ebe 20d4 34be
000000c0: 5200 c43c 85c3 54be ccb3 93be 43c4 783e
000000d0: de38 35be 3846 07be f59e 5b3f 85a7 f7be
000000e0: cf35 fdbe 882f 673f a275 09bf 1928 26bf
000000f0: 13ad db3e eb72 98be e979 e9be 1456 f8bd
00000100: 7a69 31be d2df 09be 0aba afbd cc8d 1bbe
00000110: a636 e7bd 64ea da3d e994 633e 2eed ff3d
00000120: c153 29be e74f 95be d90b f4bd 9475 1ebe
00000130: 2e07 84be c22a 7fbd 2042 d5bd 4f70 30be
00000140: 7efc dbbd 986e 3dbd 11c4 9cbd b248 4b3d
00000150: 1348 e2bd f6d3 0fbe 0a02 febc b911 d23d
00000160: 7a5c ecbe c201 d93e 7723 a03e 36fa df3d
00000170: 3ef7 e93d 6cdd 923e 7434 773d cb04 823d
00000180: d302 89bd ab64 a4bd d45b cfbc dcad 9ebd
00000190: 95b8 34be 1994 5dbd d931 3abe 343d 80be
000001a0: 0e88 03be a74b bb3c 6ac6 ecbd d0dd 19bd
000001b0: 36cc 8fbe b328 63be c0fe 9e3e b96f 25bf
000001c0: aa77 0ebf a1f8 8d3f 8bec babe 2e31 95be
000001d0: 9934 a53e

tfeb.1.weight f4 [13]
-0.0008187121 -0.002189547 0.28367287 0.27580193 0.35224298 0.3105178 0.5708011 0.30495766
0.91216594 0.3909025 0.26457667 0.496352 0.48556197
00000000: d79e 56ba 817e 0fbb 923d 913e e935 8d3e
00000010: 3159 b43e 30fc 9e3e 0520 123f 6923 9c3e
00000020: b583 693f 5f24 c83e 9876 873e d921 fe3e
00000030: 949b f83e

tfeb.1.bias f4 [13]
-0.0119788395 -0.0141760865 0.15911658 0.23808472 0.29516926 0.36908904 0.028720777 0.058479045
-0.298796 -0.031963192 0.18995184 0.03272994 0.14960285
00000000: e542 44bc d142 68bc 75ef 223e 7bcc 733e
00000010: 6d20 973e 3df9 bc3e d647 eb3c b987 6f3d
00000020: cafb 98be d6eb 02bd bc82 423e d40f 063d
00000030: 7d31 193e

tfeb.1.running_mean f4 [13]
0.01732861 0.0195764 0.0056456896 0.13319185 -0.24375351 -0.30466208 -0.26210916 -0.12852429
-0.5171023 -0.11020276 0.2850638 -0.3654533 -0.22198412
00000000: bbf4 8d3c b05e a03c 7aff b83b 7263 083e
00000010: 859a 79be abfc 9bbe 2c33 86be df9b 03be
00000020: d160 04bf fcb1 e1bd e2f3 913e b21c bbbe
00000030: ce4f 63be

tfeb.1.running_var f4 [13]
0.00071860355 0.0008445874 0.089249015 0.13238493 0.17861736 0.22221942 0.35859275 0.13489258
0.56295276 0.05053609 0.23312612 0.29831547 0.25586316
00000000: ab60 3c3a 4d67 5d3a 30c8 b63d ea8f 073e
00000010: 78e7 363e 7d8d 633e 7899 b73e 4821 0a3e
00000020: ac1d 103f eefe 4e3d 9db8 6e3e cebc 983e
00000030: 7f00 833e

tfeb.4.weight f4 [25, 13, 3, 3]
0.0023247246 -0.0025470655 0.0010659262 -0.000826521 -0.0048024626 -0.0029117577 0.00225801 -0.00140212
-0.00039893267 0.0017144291 -0.0052560144 0.0037565136 0.0021616407 -0.0062807337 0.002955033 0.002869797
-0.0029328177 0.0045911623 0.07310957 -0.0033911883 0.054497592 -0.09478172 -0.1766428 -0.1383022
0.053534713 -0.10163113 -0.037774924 -0.03174929 -0.07193931 -0.01811072 -0.07640123 -0.060929574
-0.0013001016 -0.104752965 -0.03415204 0.010256848 0.0809677 0.049385495 0.091166385 -0.01985282
-0.0533003 -0.06174095 0.02489355 0.011068949 0.020536037 -0.059373412 -0.009764896 -0.048155222
0.029522369 0.026929 -0.03381029 0.044222217 -0.003170746 0.0049406365 0.10352757 0.0903893
-0.041979313 -0.14292791 -0.04047964 -0.27536145 0.030707406 -0.13258262 -0.104697004 -0.053642202
-0.024664665 0.014716226 0.05823008 0.070655845 0.08074073 0.003561343 -0.009459434 -0.013832093
0.0028740973 0.012774166 0.048354674 0.02801726 -0.001886131 -0.001994577 0.08884829 0.034786165
-0.001696077 0.0004093704 -0.11648421 0.023867061 0.0013491146 -0.10478218 0.026495822 -0.02189808
-0.07255636 0.009815778 0.061233386 0.095294535 0.07681225 -0.14787072 -0.080015734 -0.07101376
-0.04802748 -0.028873237 -0.016196396 -0.0397275 -0.011807683 -0.015747247 0.06811818 0.04985855
0.015029741 0.03759102 0.018942764 -0.018396134 0.031215189 -0.1839189 -0.034492224 0.05381028
-0.1791799 -0.008526132 -0.0053462093 -0.053759687 -0.018705683 0.001421138 -0.0013048801 -0.00018483691
-0.0006767804 -0.000725377 -0.00061432744 0.0020620984 0.0010990272 -0.00053064246 -0.0025160343 -0.0025551643
-0.001095123 0.0026142085 0.0011638796 0.0021473693 0.0025599631 0.0019159672 0.00340221 -0.027467532
-0.014676946 -0.07955297 -0.031330988 0.05761988 -0.0367251 0.03995672 0.05049429 0.008172775
0.058644276 0.019725578 -0.036392827 0.027644476 -0.07746881 -0.14404812 0.053648785 -0.017264131
-0.061080858 0.0028423225 -0.08040154 -0.069078684 -0.10053507 -0.1318745 -0.07146245 -0.06678908
-0.062060695 -0.013826882 0.025078064 0.0035201665 -0.021437967 -0.08451374 -0.068935916 -0.040434115
-0.09541911 -0.08470032 -0.020578701 -0.040273845 -0.07330098 -0.175697 -0.19066739 -0.04417435
-0.16350563 -0.06196449 -0.03437335 -0.07639547 0.087989375 0.088484064 0.057045367 -0.077434026
-0.07974937 -0.06291612 -0.0006254577 0.016815178 0.05631004 0.041263405 0.008382935 -0.00532914
-0.0063449205 -0.03447293 -0.0011870258 -0.017991276 -0.032671228 0.016490811 0.031065932 -0.04701182
-0.024599317 -0.041115075 -0.14781997 -0.085192025 -0.037001368 -0.054220032 -0.012445968 -0.039165188
-3.2829834e-05 -0.057784785 0.012646082 0.096758045 -0.016848955 0.0714909 0.1110376 0.017694702
0.07678984 0.06291878 0.04589269 -0.028158737 -0.041369658 -0.013865105 -0.07277332 -0.059884526
-0.004472035 0.03702376 -0.08823908 -0.122005224 -0.0056150854 -0.21454348 -0.19918975 -0.079261735
-0.121391736 -0.10136869 -0.00048597553 0.0011048255 0.0012473204 -0.0022717286 -0.009105405 -0.0032939652
-0.005230568 -0.00095186697 -0.0028461616 -0.0025176436 0.0011879205 -0.000105098385 -0.0064696674 -0.0028576616
-0.0045955693 -0.002975706 -0.001497894 0.0015565543 -0.029182103 -0.07379646 0.07577876 -0.06130644
00000000: 685a 183b abec 26bb 8cb6 8b3a e3aa 58ba
00000010: fa5d 9dbb 30d3 3ebb 1ffb 133b 57c7 b7ba
00000020: d627 d1b9 b2b6 e03a a53a acbb d72f 763b
00000030: 50aa 0d3b 9dce cdbb 3aa9 413b 3413 3c3b
00000040: 8434 40bb 7671 963b 78ba 953d b33e 5ebb
00000050: de38 5f3d eb1c c2bd dae1 34be 189f 0dbe
00000060: 3747 5b3d fb23 d0bd e1b9 1abd 8b0b 02bd
00000070: eb54 93bd ef5c 94bc 4078 9cbd 4a91 79bd
00000080: 2c68 aaba b988 d6bd 02e3 0bbd 570c 283c
00000090: 65d2 a53d 7248 4a3d 71b5 ba3d 62a2 a2bc
000000a0: 6a51 5abd 14e4 7cbd 8fed cb3c 895a 353c
000000b0: 313b a83c 8931 73bd f1fc 1fbc 693e 45bd
000000c0: e5d8 f13c 359a dc3c a97c 0abd 5b22 353d
000000d0: 4acc 4fbb 10e5 a13b 4306 d43d 061e b93d
000000e0: 80f2 2bbd b25b 12be fbcd 25bd 2dfc 8cbe
000000f0: 198e fb3c bdc3 07be 626b d6bd edb7 5bbd
00000100: 8d0d cabc 531c 713c aa82 6e3d 03b4 903d
00000110: 655b a53d 6c65 693b befb 1abc 01a0 62bc
00000120: 5a5b 3c3b bc4a 513c 8d0f 463d 7484 e53c
00000130: 0e38 f7ba 73b7 02bb 18f6 b53d f07b 0e3d
00000140: e64e deba c4a0 d639 468f eebd db84 c33c
00000150: c6d4 b03a 0a98 d6bd c40d d93c 9a63 b3bc
00000160: 6e98 94bd 5bd2 203c dccf 7a3d c829 c33d
00000170: be4f 9d3d 6c6b 17be 4adf a3bd aa6f 91bd
00000180: 76b8 44bd 9187 ecbc 4eae 84bc 4eb9 22bd
00000190: 0375 41bc 5f00 81bc 8b81 8b3d 7b38 4c3d
000001a0: 4e3f 763c 0bf9 193d db2d 9b3c 7db3 96bc
000001b0: ffb6 ff3c 3c55 3cbe b847 0dbd 2b68 5c3d
000001c0: f07a 37be 31b1 0bbc 412f afbb 1e33 5cbd
000001d0: a93c 99bc 7a45 ba3a 8308 abba c8d0 41b9
000001e0: f769 31ba 3a27 3eba d10a 21ba 4524 073b
000001f0: 3c0d 903a d01a 0bba 0de4 24bb 8b74 27bb
00000200: 3b8a 8fba 2453 2b3b 528d 983a e1ba 0c3b
00000210: 0ec5 273b 3121 fb3a 9df7 5e3b 9703 e1bc
00000220: 9377 70bc abec a2bd ec54 00bd d302 6c3d
00000230: 0f6d 16bd a8a9 233d 1ad3 4e3d 1ae7 053c
00000240: fb34 703d 8997 a13c a510 15bd ab76 e23c
00000250: f8a7 9ebd 5a81 13be d4be 5b3d 826d 8dbc
00000260: ec2f 7abd 4246 3a3b 90a9 a4bd 2079 8dbd
00000270: 55e5 cdbd 1c0a 07be e85a 92bd b7c8 88bd
00000280: 5b33 7ebd 258a 62bc 8370 cd3c 98b2 663b
00000290: ad9e afbc 8a15 adbd 462e 8dbd 3e9e 25bd
000002a0: 186b c3bd 5d77 adbd aa94 a8bc 30f6 24bd
000002b0: d31e 96bd eae9 33be 503e 43be 2af0 34bd
000002c0: 056e 27be 7ace 7dbd 12cb 0cbd 3a75 9cbd
000002d0: c633 b43d 2237 b53d 67a8 693d bb95 9ebd
000002e0: a353 a3bd 2bda 80bd c1f5 23ba fcbf 893c
000002f0: 5ba5 663d d103 293d 9458 093c 11a0 aebb
00000300: 0de9 cfbb 7d33 0dbd fa95 9bba 7162 93bc
00000310: 44d2 05bd bd17 873c fb7d fe3c 778f 40bd
00000320: 8284 c9bc 4868 28bd 1e5e 17be 2879 aebd
00000330: bf8e 17bd d315 5ebd 2cea 4bbc ad6b 20bd
00000340: c4b2 09b8 bdaf 6cbd 8331 4f3c 1529 c63d
00000350: d206 8abc d269 923d ae67 e33d 7bf4 903c
00000360: fe43 9d3d 90db 803d f9f9 3b3d 27ad e6bc
00000370: 3b73 29bd 772a 63bc 2e0a 95bd 7a49 75bd
00000380: 268a 92bb 3aa6 173d b1b6 b4bd e0dd f9bd
00000390: c0fe b7bb 49b1 5bbe 66f8 4bbe fa53 a2bd
000003a0: 3b9c f8bd 639a cfbd 88ca feb9 cbcf 903a
000003b0: 217d a33a 48e1 14bb d62e 15bc 91df 57bb
000003c0: 2f65 abbb b686 79ba ab86 3abb 0dff 24bb
000003d0: ffb3 9b3a 4468 dcb8 81ff d3bb 9b47 3bbb
000003e0: 6e96 96bb 1004 43bb fb54 c4ba 4c05 cc3a
000003f0: 4e0f efbc 9922 97bd e531 9b3d 761c 7bbd

tfeb.5.weight f4 [25]
0.43437752 0.1716725 0.33233473 0.27529055 0.4435793 0.36303413 0.23545066 0.27164203
0.6131735 0.32788897 0.22724019 0.58352417 0.47633132 0.59328216 0.1867118 0.24855839
0.32971504 0.23525597 0.46205702 0.2099872 0.44016042 0.19085334 0.21988106 0.08185915
0.2170102
00000000: bb66 de3e eaca 2f3e c727 aa3e e2f2 8c3e
00000010: d31c e33e 9cdf b93e fa19 713e aa14 8b3e
00000020: f0f8 1c3f 10e1 a73e a7b1 683e d761 153f
00000030: b3e1 f33e 57e1 173f 6131 3f3e 1786 7e3e
00000040: 69d0 a83e f1e6 703e bd92 ec3e e206 573e
00000050: b55c e13e 0f6f 433e 8028 613e c5a5 a73d
00000060: ec37 5e3e

tfeb.5.bias f4 [25]
0.035453383 0.23733248 -0.01767359 0.04041488 -0.056245163 0.093709946 0.17083693 0.052027114
-0.07705465 -0.04240663 0.12844323 -0.08084298 -0.18295693 -0.10453659 0.1749187 0.12508364
-0.03313289 -0.036687862 -0.074830286 0.30399546 -0.14244105 0.28878918 0.24603973 0.06255249
-0.055159632
00000000: 9137 113d 4907 733e 34c8 90bc 138a 253d
00000010: 5461 66bd 00eb bf3d e0ef 2e3e 621a 553d
00000020: d4ce 9dbd 93b2 2dbd 9f86 033e 0191 a5bd
00000030: 1059 3bbe 4817 d6bd e31d 333e ed15 003e
00000040: 5ab6 07bd 0346 16bd 9f40 99bd 4ba5 9b3e
00000050: 11dc 11be 2ddc 933e d7f1 7b3e 851b 803d
00000060: 11ef 61bd

tfeb.5.running_mean f4 [25]
-0.45168817 -0.9445472 -0.060042046 0.07742885 -0.6337157 -0.36854196 -0.45687622 -0.3734617
-0.48492688 -0.42013547 -0.43243557 -0.43571508 0.078541726 -0.3070926 -0.3659835 -0.14412159
-0.5982135 -0.099219725 -0.38114017 -0.34134257 -0.07931845 -0.5803536 -0.15117258 -0.21501704
0.11044781
00000000: ac43 e7be d8cd 71bf a6ee 75bd 0493 9e3d
00000010: 313b 22bf 88b1 bcbe aeeb e9be 5f36 bfbe
00000020: 5648 f8be ff1b d7be 3268 ddbe 0c16 dfbe
00000030: 7cda a03d 3e3b 9dbe 3062 bbbe 9c94 13be
00000040: 8524 19bf b633 cbbd ce24 c3be 74c4 aebe
00000050: b671 a2bd 0e92 14bf fccc 1abe 6d2d 5cbe
00000060: 7632 e23d

tfeb.5.running_var f4 [25]
0.16145034 0.1535768 0.11708085 0.03267028 0.17742935 0.099101804 0.0801778 0.054847866
0.21896672 0.060459808 0.13087645 0.2392537 0.08864313 0.097845756 0.074897744 0.09768473
0.07084907 0.023734406 0.104586564 0.07673535 0.10071145 0.2178829 0.11912632 0.013485422
0.027494343
00000000: 3d53 253e 3d43 1d3e 16c8 ef3d 46d1 053d
00000010: 0ab0 353e e3f5 ca3d 4234 a43d 28a8 603d
00000020: d038 603e b4a4 773d 7a04 063e ecfe 743e
00000030: 888a b53d 5b63 c83d fd63 993d ef0e c83d
00000040: 5119 913d a86e c23c 7b31 d63d 6c27 9d3d
00000050: ce41 ce3d b21c 5f3e 80f8 f33d f6f1 5c3c
00000060: d13b e13c

tfeb.7.weight f4 [28, 25, 3, 3]
0.021797804 0.021948896 0.04036231 0.02673999 0.015788678 0.0062380517 0.00810738 0.033398103
0.027981153 0.0054613766 -0.016782131 -0.025933446 0.07301691 0.09692399 0.066876605 0.03243317
0.014785601 -0.018783951 -0.029390646 -0.01200583 -0.031626157 -0.11344088 -0.083341196 -0.06503499
-0.024538867 0.016166475 0.032952216 -0.03628124 -0.026856702 -0.033908304 -0.040834308 -0.05135854
-0.022276241 -0.005870835 -0.020486282 0.07955106 0.0036574407 0.039829213 0.07039751 0.038505714
0.061803006 0.075748816 0.002446693 0.024501838 0.049023714 -0.0715924 -0.051788405 -0.007346233
-0.01634432 0.027628202 0.021736115 -0.036165167 0.017937437 0.0150884455 -0.10811093 -0.035083286
-0.053135592 0.008594289 -0.005529881 -0.049139515 0.0089455675 0.035254538 -0.00516653 -0.01577184
-0.01640574 -0.0010642979 0.009260344 0.054307666 0.030168854 0.0015553046 0.023929995 0.012648696
-0.04529294 -0.013051006 -0.036040887 0.041451346 0.11398876 0.07203364 0.008551409 0.044226896
0.048246965 0.009727968 0.007447523 0.018793484 0.0068664113 0.020437362 0.012297325 0.015914213
0.026367703 0.012263959 -0.033190046 -0.0278272 -0.0633001 0.065216385 0.08408604 0.06471897
0.025683908 0.0032715998 -0.054255128 -0.0037394464 0.04118394 0.040327292 0.022376025 0.08088696
0.037514932 -0.041611917 -0.0020263442 -0.058816023 -0.032862004 -0.0044298214 -0.0057522864 -0.03143439
-0.028584741 -0.009335714 0.0022476858 -0.03474012 0.040951487 -0.019440887 -0.01415864 0.0067097503
0.005396095 -0.008680817 -0.024782926 0.01877924 -0.00010297332 -0.037131555 -0.017990934 -0.021279817
-0.0005683586 -0.025369981 -0.016138447 -0.0213889 0.046396185 0.073920555 0.063763864 0.07366173
0.06267804 0.038922966 -0.006007684 0.00262498 0.042696055 -0.08103162 -0.07853751 -0.034617025
-0.047524452 -0.028898172 -0.01159028 0.0080615925 0.0018074409 -0.0071851998 -0.0022222004 0.02462257
0.034329623 0.0051210555 0.01977533 0.047564276 -0.022379527 -0.026547106 0.0055795573 -0.008357705
-0.01422819 -0.0053037964 -0.008468907 -0.020274844 -0.02688158 -0.0016300066 0.040648893 0.030084547
0.032749243 0.06363679 0.036992893 0.03418711 0.013021771 0.027532287 -0.0033483235 -0.027714232
0.031776045 -0.010092387 -0.030888494 0.012276883 -0.025948424 -0.009584369 0.024561496 -0.040693976
-0.05685203 -0.06092841 0.007725469 -0.008711616 -0.028062973 -0.05762075 -0.029010192 -0.004190031
0.06766995 0.08638321 0.09774688 -0.0315629 -0.0059525007 0.049095012 0.03553225 0.037315007
0.028578203 -0.04514196 -0.06312766 -0.07631591 0.08239518 0.09567225 0.08481266 0.0048145833
-0.0047761113 -0.0052059717 0.027114064 0.024420341 0.037376337 0.011523874 -0.010845504 0.011043534
-0.014670123 -0.027670952 -0.0029948344 0.022733646 0.025202135 0.0685203 -0.023516033 -0.032574553
-0.012544721 0.07929129 -0.044642523 -0.062157866 0.042705297 -0.12270748 -0.12532857 0.16362284
-0.04169288 -0.064984724 0.034765802 0.0144878095 0.05060495 0.08579543 0.053676527 0.005679055
0.04526818 -0.0074439053 -0.026801234 -0.041600578 0.08266587 0.04932165 -0.050676875 -0.05555107
-0.060144935 -0.029209314 -0.0653605 -0.15410177 0.021353222 -0.017474106 -0.08438893 -0.06310041
00000000: 4f91 b23c 2cce b33c f352 253d d30d db3c
00000010: 4257 813c 9268 cc3b d1d4 043c 73cc 083d
00000020: bb38 e53c 59f5 b23b ae7a 89bc 6172 d4bc
00000030: e489 953d 1680 c63d 9af6 883d a5d8 043d
00000040: 4e3f 723c cde0 99bc a7c4 f0bc 1ab4 44bc
00000050: 6e8a 01bd b153 e8bd caae aabd 1131 85bd
00000060: bc05 c9bc 8e6f 843c e7f8 063d a39b 14bd
00000070: 9602 dcbc 6fe3 0abd e041 27bd 555d 52bd
00000080: aa7c b6bc 2260 c0bb d9d2 a7bc abeb a23d
00000090: acb1 6f3b f523 233d 922c 903d 2bb8 1d3d
000000a0: 2625 7d3d 3222 9b3d b258 203b 14b8 c83c
000000b0: 17cd 483d 099f 92bd 1420 54bd abb8 f0bb
000000c0: 86e4 85bc 8a54 e23c f00f b23c ed21 14bd
000000d0: 88f1 923c 8735 773c 4369 ddbd 7eb3 0fbd
000000e0: b5a4 59bd 10cf 0c3c 0134 b5bb 8446 49bd
000000f0: 6e90 123c 1067 103d ff4b a9bb f233 81bc
00000100: 5565 86bc e97f 8bba b3b8 173c b771 5e3d
00000110: ac24 f73c 5ddb cb3a d608 c43c 7a3c 4f3c
00000120: 1785 39bd e3d3 55bc 9c9f 13bd e3c8 293d
00000130: f072 e93d 6086 933d 351b 0c3c 4327 353d
00000140: 9c9e 453d 0e62 1f3c 5a0a f43b cbf4 993c
00000150: a2ff e03b 416c a73c b87a 493c 865e 823c
00000160: 1501 d83c c6ee 483c 49f2 07bd def5 e3bc
00000170: 7ca3 81bd 2b90 853d 4d35 ac3d 618b 843d
00000180: 0f67 d23c 5668 563b a03a 5ebd 8011 75bb
00000190: 7eb0 283d 3b2e 253d ed4d b73c 10a8 a53d
000001a0: 42a9 193d 4271 2abd 6acc 04bb 12e9 70bd
000001b0: 4f9a 06bd 0928 91bb ad7d bcbb 59c1 00bd
000001c0: 8c2a eabc d3f4 18bc e94d 133b a84b 0ebd
000001d0: bfbc 273d 7f42 9fbc a4f9 67bc 77dd db3b
000001e0: bad1 b03b fc39 0ebc 9005 cbbc ecd6 993c
000001f0: 61f3 d7b8 4217 18bd b961 93bc 0353 aebc
00000200: e6fd 14ba b5d4 cfbc c734 84bc c637 afbc
00000210: ed09 3e3d a963 973d a196 823d f6db 963d
00000220: 585d 803d b06d 1f3d 1bdc c4bb db07 2c3b
00000230: 0fe2 2e3d e8f3 a5bd 46d8 a0bd 95ca 0dbd
00000240: 00a9 42bd dcbb ecbc 28e5 3dbc c514 043c
00000250: a7e7 ec3a d371 ebbb 56a2 11bb 46b5 c93c
00000260: 389d 0c3d 87ce a73b dfff a13c c2d2 423d
00000270: 4555 b7bc 5179 d9bc b8d4 b63b c1ee 08bc
00000280: 5b1d 69bc 78cb adbb 2cc1 0abc 6e17 a6bc
00000290: c236 dcbc f2a5 d5ba 747f 263d de73 f63c
000002a0: 1224 063d 0154 823d dc85 173d c807 0c3d
000002b0: 4459 553c 648b e13c 8c6f 5bbb f508 e3bc
000002c0: 9927 023d 8a5a 25bc de09 fdbc fb24 493c
000002d0: ca91 d4bc c207 1dbc 3135 c93c baae 26bd
000002e0: addd 68bd 1290 79bd ee25 fd3b 2abb 0ebc
000002f0: 52e4 e5bc bc03 6cbd c8a6 edbc 874c 89bb
00000300: 8b96 8a3d aee9 b03d 842f c83d 1948 01bd
00000310: 320d c3bb da17 493d 448a 113d 9fd7 183d
00000320: d61c ea3c c7e6 38bd 1349 81bd 844b 9cbd
00000330: cebe a83d d0ef c33d 43b2 ad3d a7c3 9d3b
00000340: ed80 9cbb db96 aabb 501e de3c 2b0d c83c
00000350: ee17 193d a1ce 3c3c 57b1 31bc f0ef 343c
00000360: f55a 70bc 31ae e2bc fc44 44bb e93b ba3c
00000370: b574 ce3c 5f54 8c3d b2a4 c0bc e56c 05bd
00000380: 6088 4dbc 7963 a23d 14db 36bd 3f99 7ebd
00000390: c0eb 2e3d 0f4e fbbd 2256 00be bf8c 273e
000003a0: 27c6 2abd b616 85bd 9666 0e3d 475e 6d3c
000003b0: 2347 4f3d 84b5 af3d ebdb 5b3d 5e17 ba3b
000003c0: 216b 393d 01ec f3bb 438e dbbc 5e65 2abd
000003d0: b94c a93d 8005 4a3d 8e92 4fbd 8589 63bd
000003e0: 895a 76bd 5f48 efbc badb 85bd dbcc 1dbe
000003f0: f4ec ae3c db25 8fbc 1ad4 acbd ca3a 81bd

tfeb.8.weight f4 [28]
0.24835932 0.47119004 0.24318561 0.34125298 0.40864655 0.35626727 0.28945103 0.22991027
0.1691871 0.4136077 0.29015952 0.4193031 0.30559245 0.22978464 0.23138948 0.34548104
0.37968835 0.47878814 0.41642874 0.39871448 0.4984292 0.336186 0.2466935 0.28818068
0.48386636 0.35684952 0.38933957 0.2257701
00000000: e851 7e3e d23f f13e a605 793e b6b8 ae3e
00000010: 1f3a d13e aa68 b63e ed32 943e 996d 6b3e
00000020: 623f 2d3e 63c4 d33e ca8f 943e e5ae d63e
00000030: 9d76 9c3e aa4c 6b3e 5df1 6c3e e4e2 b03e
00000040: 8366 c23e b823 f53e 2636 d53e 4e24 cc3e
00000050: 1d32 ff3e 9220 ac3e 399d 7c3e 6b8c 933e
00000060: 55bd f73e fbb4 b63e 8457 c73e 4730 673e

tfeb.8.bias f4 [28]
0.1369659 -0.09970627 0.025087694 -0.048928034 -0.097318776 0.014657769 0.018284386 0.085132234
0.042056717 -0.062341552 -0.14866424 -0.078200236 -0.028691243 0.09804773 0.17279887 -0.04377597
-0.12287548 -0.09576871 -0.0645824 -0.07092741 -0.18640165 -0.034780666 0.075497776 -0.017430766
-0.034269582 -0.050836135 -0.0158964 0.11734054
00000000: ca40 0c3e cd32 ccbd b584 cd3c c368 48bd
00000010: 114f c7bd 2427 703c 23c9 953c cf59 ae3d
00000020: aa43 2c3d db59 7fbd 703b 18be 7227 a0bd
00000030: e609 ebbc 40cd c83d 30f2 303e 6e4e 33bd
00000040: 24a6 fbbd 6322 c4bd c743 84bd 6442 91bd
00000050: 13e0 3ebe 2c76 0ebd 949e 9a3d f7ca 8ebc
00000060: 435e 0cbd 8d39 50bd 2b39 82bc 3d50 f03d

tfeb.8.running_mean f4 [28]
0.19818115 -0.29037791 -0.14230037 -0.07845175 -0.34083632 0.010476677 -0.27149343 -0.282224
-0.0683898 0.038506687 0.11890216 0.14493036 -0.124227256 0.035614166 0.124035075 -0.43090186
-0.28086275 -0.046654634 -0.16799286 0.04320702 -0.23423074 -0.23575225 -0.65627396 -0.20642479
-0.12842892 -0.081566915 -0.38393652 0.43304574
00000000: 00f0 4a3e 6aac 94be 30b7 11be 50ab a0bd
00000010: 1982 aebe 5ea6 2b3c 3001 8bbe aa7f 90be
00000020: f40f 8cbd 30b9 1d3d fa82 f33d a068 143e
00000030: dc6a febd 29e0 113d 1a06 fe3d 2b9f dcbe
00000040: 3ecd 8fbe ee18 3fbd 5206 2cbe d8f9 303d
00000050: 2fda 6fbe 0a69 71be 9201 28bf 0561 53be
00000060: df82 03be 8e0c a7bd 5493 c4be 2cb8 dd3e

tfeb.8.running_var f4 [28]
0.02925493 0.11695093 0.016412409 0.03407084 0.07109045 0.03464804 0.024553912 0.038115356
0.008130148 0.08553517 0.019729648 0.03143236 0.07321872 0.05355015 0.052055165 0.03462008
0.055791005 0.13324837 0.101808116 0.052908953 0.08102319 0.07154889 0.03509 0.069009006
0.052853413 0.033949867 0.030793201 0.046899166
00000000: 09a8 ef3c f883 ef3d 5173 863c dd8d 0b3d
00000010: df97 913d 1aeb 0d3d 4925 c93c d91e 1c3d
00000020: 5034 053c 102d af3d 12a0 a13c 38bf 003d
00000030: b2f3 953d 6757 5b3d cc37 553d c9cd 0d3d
00000040: 1c85 643d 4372 083e c680 d03d 0fb7 583d
00000050: 7cef a53d 3988 923d 88ba 0f3d 9854 8d3d
00000060: d27c 583d 040f 0b3d 0642 fc3c 5719 403d

tfeb.11.weight f4 [32, 28, 3, 3]
-0.021077149 -0.027822306 -0.030258145 0.034017112 0.037231456 0.021319566 0.07222083 0.059773583
0.051413745 -0.032570757 0.00989071 -0.0041849352 0.0036098433 0.014912737 0.030398997 -0.019969393
-0.0022978082 0.0312984 -0.0166004 -0.031198388 -0.02603918 -0.0173067 -0.025252737 -0.019173466
0.032566495 0.017950747 0.025944293 0.03179144 0.023574386 0.027940502 0.040648162 0.020549031
-0.0049886364 -0.005919255 0.015010511 -0.026373139 0.023540026 0.016032593 0.039112326 0.018366523
0.0030976897 0.019813143 -0.02656107 -0.07722379 -0.023150861 -0.01626209 -0.019731108 -0.010351017
0.02218874 0.015552768 -0.008204839 -0.020786626 -0.02220754 0.009075011 0.008098253 0.01369103
0.011230033 -0.023866042 -0.020341652 -0.01789266 -0.0056421957 -0.01843328 -0.0030936478 -0.03482108
-0.008923866 -0.018059563 -0.060186688 -0.032803375 -0.016445141 -0.026832515 -0.010050423 0.02378596
-0.031415734 -0.030497978 -0.02874014 -0.020617664 -0.02220331 -0.013053042 0.0051139076 0.0038970045
0.010543589 -0.0054350076 0.003896717 0.026953956 0.01617233 0.048141 0.024780164 -0.004048413
0.013668081 0.031447724 0.012202353 0.011589693 0.011619829 0.037892118 0.03705634 0.010053489
0.03100304 0.0400405 0.03241954 0.0065915026 0.043610316 0.022396283 -0.011152471 0.011213528
-0.020107219 0.025711376 0.02211294 0.019818993 -0.04497775 -0.058927894 -0.0538415 -0.072010525
-0.08190234 -0.07220927 0.022947598 0.035231512 0.049393572 -0.025832536 -0.021292126 -0.012689692
0.014176467 0.013629009 0.019065812 0.008890889 0.027107121 0.042258922 -0.07026147 -0.07373878
-0.07814758 0.027293133 0.022937458 0.040716056 0.046052035 0.030486302 0.045649663 0.023842232
0.04303859 0.036416966 0.0035048502 0.013771462 0.02072572 0.020564571 -0.0049331407 0.005252618
-0.039001834 0.031031817 0.00532117 -0.045394845 0.04093272 0.020537429 -0.048805743 0.022829441
0.053245626 -0.04223477 -0.031884212 -0.034528855 -0.04556584 0.051532943 0.036813363 -0.05294572
-0.003233017 0.027630083 0.008153615 0.0068826918 0.017560767 -0.0025141006 -0.026067683 -0.045448627
-0.012477466 -0.033775236 -0.035520297 -0.0047720936 -0.011180829 -0.0058822827 0.027594183 0.034155812
0.044998836 -0.025364079 -0.017192287 -0.012832961 0.012807234 -0.0060335333 0.003950457 -0.0048363176
-0.021911088 -0.028662452 -0.021333037 -0.039364383 -0.04166923 -0.04232761 -0.016762596 -0.017760782
-0.028727047 -0.00268361 0.02445187 -0.040204044 -0.010903771 0.010032793 -0.022102328 0.024453623
0.0068684965 -0.06590737 -0.018521199 -0.034295324 -0.016547052 0.014407566 0.019193323 -0.04841801
-0.030331336 -0.014877754 -0.023771133 -0.004460275 -0.014576678 -0.023588726 -0.0016203462 0.0038253334
0.002820697 -0.0062199603 0.010967022 -0.00083921687 -0.014646824 -0.016996404 -0.106164284 -0.0942551
-0.08699363 -0.009068574 -0.003952819 0.0015906796 -0.0022371057 0.005423262 0.00548249 0.021900188
0.04220219 0.05294739 0.0025149076 0.008046928 0.007137203 0.0047787433 0.013318498 -0.0026025323
-0.009836235 0.010333973 0.009562767 -0.030461505 -0.03517022 -0.047522496 0.05479342 0.060991142
0.06665883 0.063865 0.058579523 0.07106777 -0.13315322 -0.06732122 0.011316435 -0.14752631
00000000: fca9 acbc 9beb e3bc eedf f7bc 8755 0b3d
00000010: 0380 183d 5fa6 ae3c 84e8 933d 25d5 743d
00000020: 3897 523d ea68 05bd a50c 223c c821 89bb
00000030: 1f93 6c3b 8d54 743c 5107 f93c da96 a3bc
00000040: d396 16bb c032 003d 90fd 87bc c393 ffbc
00000050: 1e50 d5bc c8c6 8dbc d4de cebc ac11 9dbc
00000060: 7264 053d 720d 933c 2089 d43c be37 023d
00000070: 121f c13c 7be3 e43c b07e 263d 7156 a83c
00000080: b777 a3bb 4ff6 c1bb a5ee 753c 7b0c d8bc
00000090: 03d7 c03c c956 833c 3f34 203d 6475 963c
000000a0: 9c02 4b3b 2c4f a23c 9a96 d9bc 8227 9ebd
000000b0: e0a6 bdbc 1338 85bc 22a3 a1bc 5097 29bc
000000c0: 29c5 b53c 09d1 7e3c 976d 06bc b748 aabc
000000d0: 96ec b5bc 5baf 143c 89ae 043c 5850 603c
000000e0: 2cfe 373c b882 c3bc 89a3 a6bc a193 92bc
000000f0: 2be2 b8bb 6401 97bc ccbe 4abb 8ca0 0ebd
00000100: 6835 12bc a6f1 93bc 5186 76bd d55c 06bd
00000110: f6b7 86bc ddcf dbbc 88aa 24bc c6da c23c
00000120: c9ad 00bd e5d6 f9bc 7170 ebbc 60e6 a8bc
00000130: b7e3 b5bc 6ddc 55bc 9192 a73b e364 7f3b
00000140: 04bf 2c3c 2618 b2bb 1060 7f3b 8bce dc3c
00000150: d67b 843c 7f2f 453d c5ff ca3c 8da8 84bb
00000160: 16f0 5f3c 54cf 003d 61ec 473c b2e2 3d3c
00000170: 1861 3e3c c434 1b3d 64c8 173d 64b7 243c
00000180: 16fa fd3c 8201 243d 5aca 043d 88fd d73b
00000190: bba0 323d 6978 b73c dbb8 36bc f2b8 373c
000001a0: e5b7 a4bc aaa0 d23c 3226 b53c 715b a23c
000001b0: 973a 38bd 605e 71bd e888 5cbd 417a 93bd
000001c0: 6abc a7bd 74e2 93bd 9afc bb3c eb4e 103d
000001d0: ea50 4a3d c19e d3bc d36c aebc 6de8 4fbc
000001e0: 6a44 683c 354c 5f3c e82f 9c3c 17ab 113c
000001f0: c10f de3c b117 2d3d 3fe5 8fbd 5c04 97bd
00000200: d70b a0bd d995 df3c 56e7 bb3c e1c5 263d
00000210: 0fa1 3c3d 69be f93c 24fb 3a3d c950 c33c
00000220: 3c49 303d f529 153d a1b1 653b b3a1 613c
00000230: fcc8 a93c 0877 a83c 2fa6 a1bb 271e ac3b
00000240: 63c0 1fbd 7036 fe3c 365d ae3b f2ef 39bd
00000250: 11a9 273d 1c3e a83c 88e8 47bd cf04 bb3c
00000260: 1618 5a3d 5efe 2cbd 0599 02bd 216e 0dbd
00000270: 3fa3 3abd 3514 533d 9cc9 163d 9cdd 58bd
00000280: 06e1 53bb 7c58 e23c bd96 053c 3488 e13b
00000290: 99db 8f3c 9cc3 24bb e58b d5bc 5728 3abd
000002a0: 496e 4cbc e757 0abd bb7d 11bd 395f 9cbb
000002b0: cc2f 37bc 2ac0 c0bb 320d e23c f7e6 0b3d
000002c0: b350 383d 54c8 cfbc d7d6 8cbc 5741 52bc
000002d0: 6fd5 513c f2b4 c5bb d672 813b f979 9ebb
000002e0: e27e b3bc 85cd eabc 9fc2 aebc 8c3c 21bd
000002f0: 5bad 2abd b75f 2dbd b651 89bc 0f7f 91bc
00000300: fc54 ebbc 81df 2fbb 4a4f c83c ffac 24bd
00000310: bba5 32bc 9560 243c f10f b5bc f752 c83c
00000320: 2011 e13b 71fa 86bd c5b9 97bc 4179 0cbd
00000330: af8d 87bc b60d 6c3c 513b 9d3c f751 46bd
00000340: 6c79 f8bc d3c1 73bc aebb c2bc 8027 92bb
00000350: 05d3 6ebc 253d c1bc cc61 d4ba 72b2 7a3b
00000360: 71db 383b cfd0 cbbb 06af 333c e4fe 5bba
00000370: 3cf9 6fbc 0b3c 8bbc a96c d9bd d108 c1bd
00000380: b729 b2bd 5b94 14bc a686 81bb 5a7e d03a
00000390: 689c 12bb 9eb5 b13b 76a6 b33b 0668 b33c
000003a0: 34dc 2c3d 5ddf 583d 26d1 243b 43d7 033c
000003b0: 33df e93b 0197 9c3b d435 5a3c 3f8f 2abb
000003c0: 2928 21bc d34f 293c 27ad 1c3c 688a f9bc
000003d0: a60e 10bd f3a6 42bd 116f 603d d9d1 793d
000003e0: 6d84 883d a7cb 823d 15f1 6f3d fb8b 913d
000003f0: 5159 08be b5df 89bd 9268 393c 2311 17be

tfeb.12.weight f4 [32]
0.32459673 0.3534754 0.34077042 0.3015864 0.24785769 0.4485946 0.35998732 0.41462022
0.5777681 0.30745238 0.35397932 0.38441718 0.36794227 0.2898817 0.34733224 0.256469
0.37015647 0.25479642 0.31017342 0.31090924 0.36123508 0.35848007 0.3850923 0.27421743
0.27570856 0.45994544 0.17156482 0.25147524 0.32557917 0.4419518 0.40651128 0.5620202
00000000: 8b31 a63e bafa b43e 7679 ae3e 8869 9a3e
00000010: 68ce 7d3e 31ae e53e 4250 b83e 1a49 d43e
00000020: 9ce8 133f 666a 9d3e c73c b53e 54d2 c43e
00000030: ee62 bc3e 606b 943e 88d5 b13e e84f 833e
00000040: 2685 bd3e ad74 823e 0dcf 9e3e 7f2f 9f3e
00000050: cef3 b83e b38a b73e d12a c53e 3a66 8c3e
00000060: ac29 8d3e f87d eb3e b0ae 2f3e 5dc1 803e
00000070: 50b2 a63e 8247 e23e 3f22 d03e 8ee0 0f3f

tfeb.12.bias f4 [32]
-0.1937968 0.04925268 -0.13969745 -0.047809687 -0.08083825 -0.21177565 -0.086569935 -0.1656606
-0.39854002 0.044287868 -0.12888621 -0.08554765 -0.107345775 -0.003931724 -0.17095335 -0.08919394
-0.18433717 0.1636249 -0.07860689 0.048757475 -0.1090573 -0.123854496 -0.061799575 0.12978384
-0.033013403 -0.06229332 -0.13755319 -0.070005514 -0.07258107 -0.1721016 -0.17648032 -0.19691701
00000000: ab72 46be 2ebd 493d d90c 0fbe 17d4 43bd
00000010: 868e a5bd b7db 58be 944b b1bd efa2 29be
00000020: 700d ccbe 3267 353d bffa 03be 9b33 afbd
00000030: 1ad8 dbbd b1d5 80bb 650e 2fbe 50ab b6bd
00000040: e2c2 3cbe 498d 273e a6fc a0bd ebb5 473d
00000050: 6f59 dfbd 6da7 fdbd 8d21 7dbd 0ee6 043e
00000060: 1039 07bd 4827 7fbd beda 0cbe 0d5f 8fbd
00000070: 62a5 94bd 673b 30be 42b7 34be 9da4 49be

tfeb.12.running_mean f4 [32]
-0.0552896 -0.514721 -0.24907859 0.14777258 -0.1511602 -0.8624406 -0.20175625 -0.4123385
-0.681626 -0.12237012 -0.26057974 -0.57452977 -0.40234032 -0.5448222 -0.09681005 -0.0651672
-0.31281197 -0.12455914 -0.14886755 -0.4410787 -0.3122248 -0.5352725 -0.32885244 -0.44767478
-0.09975315 -0.718423 -0.14569803 -0.045456734 -0.13285309 -0.3584447 -0.2744927 -0.7508794
00000000: 5977 62bd c1c4 03bf 750e 7fbe b251 173e
00000010: bdc9 1abe e8c8 5cbf 3199 4ebe 081e d3be
00000020: 0b7f 2ebf 2f9d fabd b56a 85be 6214 13bf
00000030: 8dff cdbe 7879 0bbf 5944 c6bd 6276 85bd
00000040: e428 a0be dd18 ffbd bc70 18be 11d5 e1be
00000050: eedb 9fbe 9e07 09bf 595f a8be a135 e5be
00000060: 614b ccbd 92ea 37bf dd31 15be d730 3abd
00000070: a40a 08be 1086 b7be 4f8a 8cbe a239 40bf

tfeb.12.running_var f4 [32]
0.050326914 0.32250687 0.12784667 0.10595218 0.02774299 0.3061164 0.19369851 0.1673316
0.26035342 0.13495351 0.20711984 0.2551536 0.14114894 0.13195406 0.1057193 0.11501631
0.09698915 0.31004205 0.09957234 0.16552617 0.08756481 0.1747943 0.2512644 0.29661816
0.0238813 0.5371612 0.013511837 0.11311174 0.06428363 0.2676219 0.15109676 0.4626447
00000000: 9823 4e3d 9f1f a53e 3dea 023e 75fd d83d
00000010: 4445 e33c 4abb 9c3e e758 463e fa58 2b3e
00000020: 0b4d 853e 4131 0a3e 3917 543e 7ea3 823e
00000030: 5989 103e f71e 073e 5c83 d83d ac8d eb3d
00000040: 3fa2 c63d d5bd 9e3e 95ec cb3d b17f 293e
00000050: 2e55 b33d 47fd 323e baa5 803e 56de 973e
00000060: b7a2 c33c 6583 093f c160 5d3c 21a7 e73d
00000070: 23a7 833d bd05 893e 1cb9 1a3e c4df ec3e

tfeb.14.weight f4 [34, 32, 3, 3]
-0.0018070766 -0.0013808628 -0.0009450083 -0.0006002134 -0.0016234906 -0.0006846514 0.0011696772 -0.0023816891
0.00013535407 -0.000276177 -0.0005618351 -0.0015710127 -0.000597186 0.0007227515 -0.0008418176 -0.0015390603
0.00094783446 -0.00075788156 -0.00036897112 -0.00026421942 -0.00060640037 -0.0010774595 0.0010469022 -0.00019447682
-0.0018595161 0.0027695629 -0.0013638425 -2.6793625e-06 0.0007864505 0.0003717816 -0.0013623665 0.000889584
-1.4776891e-05 -0.001966081 -0.00018740256 -0.00035360112 -0.0003934943 -0.0016488213 -0.00032289588 0.00066938804
-0.0006903868 0.0013645539 -0.00021738865 -0.0017251296 0.0028307647 -0.0019022281 -0.00029285057 -0.0014959581
8.0971906e-05 -0.001553968 -0.0006174381 0.0005115955 -0.00078524224 0.0004490838 -0.0009259046 3.6547033e-05
0.00043831056 -0.0004922106 -0.0017413722 -8.8310735e-06 9.21236e-05 -0.0018031368 0.0018031907 -6.074551e-06
-0.002754096 -0.0008874446 -0.00027950507 -0.00032393346 7.446712e-05 -0.00041778127 0.0032463076 -0.0018391324
-0.00052176375 -0.00033761404 -0.00031338315 -0.0015012473 0.00074102444 -0.0013406693 0.0022106427 -0.00070449366
-0.0036812415 0.0011872512 -0.0018711373 -0.0019251772 -0.0006529849 -0.00072154694 -0.0006730444 -0.0014794762
-0.00088130054 0.0027468817 -0.0003095131 -8.2145605e-05 0.0002623766 -0.001391404 -0.00038133856 0.0002473946
-0.0006566745 -0.00181036 0.001048608 -0.001087409 -0.0014805737 -0.00024821336 -0.00030303944 -0.000117531265
-0.0016984252 -3.357877e-05 -0.00092692906 3.9773637e-05 -0.0016394352 0.00014195847 -0.0028352095 -0.00035624573
0.0013910391 -0.0036188315 0.0013275885 -0.0008014182 -0.0021823095 0.00026425684 -8.2804305e-05 -0.00056576956
-0.0003907836 0.00073688437 -0.00042259233 9.7451826e-05 -0.0010188714 0.00038299136 0.000719047 -0.00078540173
-0.0015743914 0.0003723856 -0.002228325 -0.00030950105 -0.0007301796 -0.0010924409 0.0032705055 -7.830925e-05
-0.00082507986 -0.0018941372 -0.00036474742 -0.0013897297 0.0010089832 -0.0012411317 0.0003463808 -0.00056468725
8.376912e-05 1.1175548e-05 -0.0014042566 -7.954972e-05 -0.0005499571 -3.175436e-05 0.0012547389 -0.0018966263
-0.00026156966 -0.0014540299 0.0015145665 -0.00045554727 -0.00041398205 0.0015015417 0.0005841079 -0.0016012674
0.00082607893 0.00013274529 0.00075952685 9.205843e-05 -0.0005966739 -0.00077079935 -0.0006756823 0.0005282482
-0.00102087 -0.0022216244 0.002969424 -0.00041780778 0.0005558489 -0.0013322551 -0.0018896662 0.00065783644
-0.0007945938 -0.0016302052 -0.00011062139 0.0001594042 0.00024873234 0.00015293603 -0.0016868868 0.00032820442
-0.000802319 -0.0010653182 -0.0022390964 -0.0024280385 0.0012213802 -0.0001766983 0.00075730897 0.00011929185
-0.00045597233 0.00023304678 9.428703e-05 -0.000709811 0.0037721558 -0.0033049572 -0.0019871865 -0.0020912555
-0.002219568 0.0009221449 -0.0012775444 -0.0025842863 0.0018017096 -3.1220578e-05 -0.00048963225 0.00092496123
0.00032611814 -0.0014852172 -0.00090603204 -0.0012911657 0.0006072381 -0.0019647193 -0.0025859103 0.0014462388
0.00013856565 -0.0010867824 -0.0012764095 -0.00021240466 -0.0010623236 -0.0010415233 -0.00021668186 -0.00080226175
0.00034094247 0.00018352564 -0.0019520657 -0.0019176686 -0.0015734227 -0.004018664 -0.0008331716 0.0012964729
-0.0015573666 -0.0018377359 0.0010054173 -0.0012838207 -0.0006691076 0.00052163773 -0.0023036045 -0.00038460502
2.9160445e-05 -0.001596543 0.0013440694 -0.0021691434 -0.0022739274 -0.0004357828 -0.0010224613 -0.0007256685
-0.0012667411 -0.0017853841 0.00018610958 -0.0008758785 -0.0004249399 0.00069951185 -0.0002691152 0.0011493172
00000000: 6edb ecba 11fe b4ba 6fba 77ba a457 1dba
00000010: 4ecb d4ba 2d7a 33ba db4f 993a 1d16 1cbb
00000020: d5ed 0d39 d9cb 90b9 1e48 13ba 70ea cdba
00000030: 798c 1cba 0877 3d3a 6cad 5cba 4bba c9ba
00000040: 1878 783a 92ac 46ba 7772 c1b9 ee86 8ab9
00000050: d7f6 1eba 8b39 8dba 3538 893a 79ec 4bb9
00000060: 02bb f3ba 8e81 353b f6c2 b2ba 19cf 33b6
00000070: cd29 4e3a afeb c239 6f91 b2ba f932 693a
00000080: 43ea 77b7 5ed9 00bb 7e81 44b9 8a63 b9b9
00000090: e94d ceb9 431d d8ba 5a4a a9b9 df79 2f3a
000000a0: 13fb 34ba d5da b23a d2f2 63b9 be1d e2ba
000000b0: 5a84 393b 2f54 f9ba bd89 99b9 0614 c4ba
000000c0: 76cf a938 83ae cbba 92db 21ba 981c 063a
000000d0: b7d8 4dba 0273 eb39 68b8 72ba 144a 1938
000000e0: 0ccd e539 b207 01ba c13e e4ba 2c29 14b7
000000f0: 7b32 c138 3b57 ecba 0a59 ec3a ffd3 cbb6
00000100: 107e 34bb 66a3 68ba 898a 92b9 9dd5 a9b9
00000110: 3b2b 9c38 a709 dbb9 01c0 543b 0b0f f1ba
00000120: f9c6 08ba ca01 b1b9 934d a4b9 80c5 c4ba
00000130: 4f41 423a 66b9 afba 6ee0 103b c5ad 38ba
00000140: fc40 71bb 8a9d 9b3a f340 f5ba 3a56 fcba
00000150: 132d 2bba 3226 3dba 3f6f 30ba fcea c1ba
00000160: 1407 67ba 0705 343b 2546 a2b9 9645 acb8
00000170: 978f 8939 c55f b6ba 65ee c7b9 beb4 8139
00000180: ae24 2cba 9a49 edba 7271 893a 6487 8eba
00000190: cf0f c2ba a222 82b9 44e1 9eb9 1e7b f6b8
000001a0: b19d deba eed6 0cb8 28fd 72ba 9ed2 2638
000001b0: 51e2 d6ba b0da 1439 ecce 39bb 7ec6 bab9
000001c0: 8753 b63a eb29 6dbb 7a02 ae3a 4416 52ba
000001d0: 1405 0fbb f48b 8a39 39a7 adb8 2750 14ba
000001e0: 16e2 ccb9 792b 413a 628f ddb9 0d5f cc38
000001f0: a78b 85ba 3bcc c839 6d7e 3c3a 6be3 4dba
00000200: cf5b ceba c03c c339 1709 12bb 8744 a2b9
00000210: 8669 3fba 3c30 8fba fa55 563b f539 a4b8
00000220: 2c4a 58ba b344 f8ba 923b bfb9 9727 b6ba
00000230: dc3f 843a 78ad a2ba 729a b539 8507 14ba
00000240: 34ad af38 9d7e 3b37 080f b8ba eed3 a6b8
00000250: ff2a 10ba fc2f 05b8 0d76 a43a 3898 f8ba
00000260: 4923 89b9 2695 beba 6b84 c63a 85d6 eeb9
00000270: bb0b d9b9 61cf c43a d11e 193a 9ee1 d1ba
00000280: 388d 583a 8b31 0b39 fc1a 473a 7e0f c138
00000290: 1c6a 1cba 780f 4aba 4620 31ba 237a 0a3a
000002a0: b7ce 85ba ac98 11bb ab9a 423b 360d dbb9
000002b0: 63b6 113a 109f aeba adae f7ba a872 2c3a
000002c0: 4a4c 50ba 9cac d5ba 68fd e7b8 bd25 2739
000002d0: 4a68 8239 745d 2039 871a ddba da12 ac39
000002e0: b752 52ba 26a2 8bba cebd 12bb ba1f 1fbb
000002f0: b816 a03a 1748 39b9 2586 463a 532c fa38
00000300: 920f efb9 055e 7439 f7bb c538 9c12 3aba
00000310: 4636 773b fb97 58bb 753b 02bb 720d 09bb
00000320: 2c76 11bb 19bc 713a 4773 a7ba 215d 29bb
00000330: 5827 ec3a d7f2 02b8 aa5a 00ba 1979 723a
00000340: d6fa aa39 9fab c2ba c882 6dba 553c a9ba
00000350: 0f2f 1f3a 85c2 00bb 6078 29bb b98f bd3a
00000360: ef4b 1139 5e72 8eba 324d a7ba f1b8 5eb9
00000370: aa3d 8bba b983 88ba 1835 63b9 e04e 52ba
00000380: 86c0 b239 ca70 4039 75dc ffba 485a fbba
00000390: 4e3b ceba ffae 83bb 3369 5aba 69ee a93a
000003a0: 8d20 ccba 2fe0 f0ba 35c8 833a e045 a8ba
000003b0: 0d67 2fba 84be 083a 12f8 16bb d0a4 c9b9
000003c0: 949d f437 1843 d1ba 7c2b b03a 3028 0ebb
000003d0: 2c06 15bb c779 e4b9 1c04 86ba ca3a 3eba
000003e0: c708 a6ba 8d03 eaba 6926 4339 369b 65ba
000003f0: 78ca deb9 725f 373a 0818 8db9 b0a4 963a
