trained_models/step_5_retrain_after_step_4/retrain_4C_after_2nd_pruning_prunratio0.85_2024060419/retrained_4Cmodel_ratio85.0_vaacc92.75362396240234_tracc_80.92105263157895@646epoch_20240604223320.pt (torch, 309234 bytes, 62 tensors)

sfeb.0.weight f4 [8, 1, 1, 9]
0.26218638 0.16097128 0.29028994 0.34081239 0.07477734 -0.26616555 -0.48063245 -0.27682558
-0.046279307 0.008152833 0.013312026 -0.07378112 -0.29908282 0.060681663 -0.18972701 -0.28906336
0.36592275 0.5665119 -0.18180376 -0.22315735 0.21631768 0.066544116 -0.19175817 -0.24009314
0.12902166 -0.30849445 -0.41142216 0.6945787 0.37063405 -0.04813089 -0.0017751054 -0.17430924
0.01237901 0.115284264 -0.028384244 0.08306788 -0.6235494 -0.3601219 0.048619203 0.06268479
0.27499261 0.19034454 -0.18550247 0.029842999 -0.14232673 -0.3097595 -0.03676617 0.19806182
0.09598465 -0.41317663 0.08747569 0.5889875 -0.045927275 -0.50729054 -0.06739513 -0.22797196
0.22532792 -0.08542737 -0.44535905 0.5078733 0.023463804 -0.4478818 0.42202738 0.036683142
0.00419664 -0.19800076 -0.11335153 0.19312717 0.21562292 -0.033787172 0.31232452 0.5684405
00000000: 4b3d 863e a8d5 243e e2a0 943e f67e ae3e
00000010: dd24 993d da46 88be 7515 f6be 15bc 8dbe
00000020: 5f8f 3dbd 7693 053c af1a 5a3c 8e1a 97bd
00000030: 6221 99be 568d 783d cc47 42be 1d00 94be
00000040: 3a5a bb3e ed06 113f c42a 3abe 5c83 64be
00000050: 6282 5d3e 4848 883d 415c 44be fada 75be
00000060: 411e 043e fcf2 9dbe eda5 d2be e9cf 313f
00000070: bfc3 bd3e e524 45bd a7aa e8ba 1f7e 32be
00000080: 55d1 4a3c 281a ec3d 1386 e8bc 7e1f aa3d
00000090: efa0 1fbf e661 b8be ee24 473d e260 803d
000000a0: d5cb 8c3e aee9 423e 5cf4 3dbe 4e79 f43c
000000b0: 19be 11be cc98 9ebe 2098 16bd b8d0 4a3e
000000c0: 9a93 c43d e38b d3be 7426 b33d e3c7 163f
000000d0: 3d1e 3cbd cbdd 01bf 7506 8abd 7b71 69be
000000e0: 5dbc 663e 8cf4 aebd 1a06 e4be fc03 023f
000000f0: 2a37 c03c c350 e5be f913 d83e 1041 163d
00000100: f883 893b b6c0 4abe d924 e8bd 21c3 453e
00000110: 41cc 5c3e 6b64 0abd 00e9 9f3e 5185 113f

sfeb.1.weight f4 [8]
0.9185998 0.7707665 0.71543217 0.77012396 0.79555255 0.54377794 0.4855053 0.68106556
00000000: 5b29 6b3f f450 453f 9026 373f d826 453f
00000010: 55a9 4b3f 0835 0b3f 2794 f83e 505a 2e3f

sfeb.1.bias f4 [8]
0.05859342 0.030590903 0.06854785 0.22398047 0.06696316 0.2071258 0.0713529 0.04804718
00000000: a7ff 6f3d c699 fa3c d162 8c3d 235b 653e
00000010: fb23 893d c918 543e 7821 923d 1fcd 443d

sfeb.1.running_mean f4 [8]
2.1175845e-05 5.4872784e-05 -0.00038829274 0.00034625575 -0.00023897049 -0.000117172836 -3.215514e-05 0.00033312308
00000000: c8a2 b137 3427 6638 c593 cbb9 a989 b539
00000010: 2794 7ab9 b0ba f5b8 52de 06b8 06a7 ae39

sfeb.1.running_var f4 [8]
0.02610153 0.014261714 0.011024994 0.020597033 0.02170615 0.0067371964 0.001880524 0.014476906
00000000: e0d2 d53c f7a9 693c 2da2 343c 1cbb a83c
00000010: 19d1 b13c b3c3 dc3b ea7b f63a 8b30 6d3c

sfeb.3.weight f4 [32, 8, 1, 5]
0.057138097 -0.17255096 -0.031695455 0.036912773 -0.14755465 -0.082872875 -0.11777259 -0.049672153
-0.0036540485 -0.035514582 0.24402225 0.20133188 0.23238361 0.1339899 0.09155777 -0.10631423
-0.051752698 -0.2643248 -0.04769914 -0.11805813 0.15569222 0.17480366 0.06467462 0.17948985
0.16083924 0.059219018 -0.027859665 -0.06614275 -0.003548116 0.041167565 -0.0010499022 -0.029920787
0.03968638 0.034683276 -0.011796161 -0.061771516 -0.09743926 -0.15024443 -0.02026916 -0.0551567
-0.1705247 -0.16224815 -0.03550123 0.064509615 0.08514251 -0.0065831277 -0.14102301 -0.12009752
-0.034395333 -0.065281436 0.090270706 0.083356746 0.07655305 0.23789105 0.28817078 -0.22454268
-0.11310322 -0.10758986 -0.020276805 -0.03253501 0.15337303 0.13917515 0.02066076 -0.07709054
0.0075794603 -0.006253951 0.118296325 -0.020693583 -3.902526e-07 0.01475901 -0.006094091 -0.04908608
-0.016242918 -0.103552684 -0.033143956 -0.05868564 -0.06591247 -0.25012207 -0.17190833 -0.10557608
-0.13831492 -0.21880572 -0.04230817 -0.023033312 -0.09894517 -0.11850008 -0.06693268 -0.06999833
-0.18035766 -0.14680311 0.13814622 0.20985942 0.12278025 0.17702702 0.25635952 -0.19812573
-0.094458714 -0.19914328 -0.12075608 -0.09949249 -0.05146968 0.0020736537 0.03866666 0.11619956
0.044024937 -0.044584043 0.05951167 -0.0496026 0.0899526 0.038582813 -0.048448976 -0.003965594
-0.05963748 -0.06963337 -0.12142146 -0.1465587 -0.25681326 -0.26490405 -0.12720287 -0.13242063
-0.10583947 0.08236086 -0.1149161 -0.06893632 -0.23495398 -0.13196984 -0.03596046 0.03689518
-0.025953116 -0.070438504 -0.33211225 -0.25517604 -0.22474186 -0.22551885 -0.34376076 0.09218197
0.21001557 0.31145763 0.15240656 0.11643537 -0.05553141 -0.12224958 -0.29116893 -0.09288248
-0.1149804 0.039488308 -0.15001504 -0.14302565 -0.19205141 -0.18174355 -0.11323126 -0.18295336
-0.24822226 -0.14547148 -0.11685325 0.18006153 0.19807427 0.2294935 0.35335973 0.33179814
-0.14318417 -0.09188593 -0.1391781 -0.1052633 -0.042576373 0.076737344 0.017351735 0.009563029
0.057155866 0.006837687 -0.12790243 -0.084914945 -0.11623141 -0.18593754 -0.084188536 -0.20020273
-0.13282585 -0.023306837 -0.003183678 0.06883107 -0.11137498 -0.027675506 0.043394048 -0.03898924
-0.09493958 -0.035232432 -0.033460516 0.026803315 -0.054622706 -0.031882547 -0.041798774 0.007453125
-0.029521884 -0.003835635 -0.045074984 -0.061519004 0.029638126 0.096747056 0.12427719 0.18411161
-0.044281643 -0.17024688 -0.18002969 -0.20649953 -0.087041736 0.09151765 0.23551881 0.113233574
0.056690212 0.13528363 0.09695201 -0.0543533 -0.035171226 -0.08186201 -0.18774086 -0.10057565
-0.22918361 -0.22540975 -0.07726121 0.020019885 -0.023263436 0.010169842 -0.012575321 0.18012403
0.027982973 -0.0020822505 0.041761383 0.00940531 0.058638275 -0.068488345 0.080130346 0.061499313
0.08137245 0.08323105 -0.009575798 -0.04916393 -0.05208051 0.05622126 0.10589202 0.11382891
0.13688397 0.10443304 0.08860665 0.078769594 0.082261205 -0.16538718 -0.1909129 -0.22466531
-0.039103027 -0.023192827 -0.018128775 0.008092675 0.10049985 0.07855694 0.18040441 0.24366987
00000000: a309 6a3d 33b1 30be 18d3 01bd d931 173d
00000010: 9118 17be 41b9 a9bd c132 f1bd 0775 4bbd
00000020: c378 6fbb bd77 11bd f8e0 793e f229 4e3e
00000030: f8f5 6d3e a634 093e a482 bb3d 46bb d9bd
00000040: a3fa 53bd 9555 87be 2c60 43bd 76c8 f1bd
00000050: c86d 1f3e bbff 323e 2174 843d 30cc 373e
00000060: 0bb3 243e a48f 723d f439 e4bc da75 87bd
00000070: 8287 68bb 529f 283d df9c 89ba 701c f5bc
00000080: 308e 223d 0d10 0e3d af44 41bc 2104 7dbd
00000090: 3c8e c7bd add9 19be 820b a6bc feeb 61bd
000000a0: 079e 2ebe 6124 26be bd69 11bd 9e1d 843d
000000b0: 325f ae3d 47b7 d7bb 5668 10be b0f5 f5bd
000000c0: 1fe2 0cbd 46b2 85bd d9df b83d f1b6 aa3d
000000d0: d8c7 9c3d b699 733e 1f8b 933e 84ee 65be
000000e0: a9a2 e7bd 1358 dcbd 8b1b a6bc 6e43 05bd
000000f0: d20d 1d3e ee83 0e3e c140 a93c a5e1 9dbd
00000100: 1f5d f83b f2ed ccbb 5845 f23d 9785 a9bc
00000110: e983 d1b4 c6cf 713c f1b0 c7bb 7c0e 49bd
00000120: de0f 85bc 6e13 d4bd f5c1 07bd 5b60 70bd
00000130: 1efd 86bd 0010 80be bd08 30be 4638 d8bd
00000140: 6da2 0dbe 9b0e 60be 554b 2dbd 5bb0 bcbc
00000150: c4a3 cabd 2cb0 f2bd 0014 89bd 495b 8fbd
00000160: aeaf 38be 8e53 16be 3476 0d3e 63e5 563e
00000170: 3674 fb3d 9246 353e 8e41 833e 79e1 4abe
00000180: 9273 c1bd 37ec 4bbe f74e f7bd b8c2 cbbd
00000190: dfd1 52bd 23e6 073b ef60 1e3d 09fa ed3d
000001a0: 7e53 343d c29d 36bd 82c2 733d 192c 4bbd
000001b0: 1239 b83d 0309 1e3d 6f72 46bd d0f1 81bb
000001c0: 6e46 74bd f19b 8ebd d0ab f8bd 7c13 16be
000001d0: 077d 83be 81a1 87be 7841 02be 4699 07be
000001e0: 5dc2 d8bd d0ac a83d 2259 ebbd 7c2e 8dbd
000001f0: c797 70be 1a23 07be 464b 13bd 661f 173d
00000200: a19b d4bc 1042 90bd 9e0a aabe 6fa6 82be
00000210: bb22 66be 6aee 66be 6901 b0be e7c9 bc3d
00000220: 520e 573e 6077 9f3e 7710 1c3e ab75 ee3d
00000230: e774 63bd fd5d fabd 1814 95be 2b39 bebd
00000240: d87a ebbd 7ebe 213d 8b9d 19be 5175 12be
00000250: 20a9 44be fb1a 3abe cae5 e7bd 2058 3bbe
00000260: fa2d 7ebe 7af6 14be c250 efbd 0d62 383e
00000270: fbd3 4a3e 5800 6b3e 91eb b43e 72e1 a93e
00000280: df9e 12be b12e bcbd b484 0ebe 4994 d7bd
00000290: 9064 2ebd 7828 9d3d 3a25 8e3c 40ae 1c3c
000002a0: 451c 6a3d ad0e e03b dbf8 02be e3e7 adbd
000002b0: bc0a eebd 6966 3ebe 0a6b acbd f201 4dbe
000002c0: 8003 08be fbed bebc 41a5 50bb 4ef7 8c3d
000002d0: 9118 e4bd beb7 e2bc f5bd 313d 2eb3 1fbd
000002e0: af6f c2bd e24f 10bd e50d 09bd a092 db3c
000002f0: 0fbc 5fbd 4697 02bd 3135 2bbd 5839 f43b
00000300: e1d7 f1bc 475f 7bbb 8ca0 38bd 5afb 7bbd
00000310: a8cb f23c 5223 c63d 0a85 fe3d c187 3c3e
00000320: ab60 35bd 3355 2ebe b459 38be 9d74 53be
00000330: f042 b2bd 9b6d bb3d d82b 713e 01e7 e73d
00000340: ff33 683d cb87 0a3e c78e c63d 91a1 5ebd
00000350: b40f 10bd 45a7 a7bd 243f 40be 9bfa cdbd
00000360: 1caf 6abe d0d1 66be 203b 9ebd be00 a43c
00000370: f692 bebc 699f 263c b808 4ebc 6f72 383e
00000380: 8c3c e53c 5e76 08bb fc0d 2b3d bb18 1a3c
00000390: b02e 703d 9e43 8cbd 611b a43d b4e6 7b3d
000003a0: 99a6 a63d 0a75 aa3d cfe3 1cbc 1e60 49bd
000003b0: 5f52 55bd 4448 663d eadd d83d 221f e93d
000003c0: 502b 0c3e fde0 d53d 6777 b53d f451 a13d
000003d0: 9078 a83d 425b 29be ac7e 43be aa0e 66be
000003e0: 7f2a 20bd e2fe bdbc cc82 94bc 2497 043c
000003f0: ded2 cd3d 76e2 a03d efbb 383e 9884 793e

sfeb.4.weight f4 [32]
0.7439116 0.4331193 0.7936569 1.1750243 0.3369896 0.37228188 0.58083737 0.00058429246
0.43509492 0.5119531 0.013858565 0.630174 0.59499085 0.7491344 0.9087159 -0.0007515735
0.59961206 0.42887256 0.571022 0.00025079236 0.5287584 0.5625928 0.7293464 0.43855086
0.0006149115 0.00076299766 0.38997906 0.54480064 0.36626628 0.5536973 0.42973417 0.40195465
00000000: fe70 3e3f d0c1 dd3e 192d 4b3f 3267 963f
00000010: e789 ac3e bb9b be3e c2b1 143f 342b 193a
00000020: c3c4 de3e 5c0f 033f 090f 633c 1553 213f
00000030: 5251 183f 46c7 3f3f 9ba1 683f 3e05 45ba
00000040: 2d80 193f 2f95 db3e 7f2e 123f c87c 8339
00000050: b65c 073f 1506 103f 72b6 3a3f bd89 e03e
00000060: 0332 213a e803 483a 56ab c73e 0e78 0b3f
00000070: 4187 bb3e 1bbf 0d3f 1e06 dc3e 00cd cd3e

sfeb.4.bias f4 [32]
0.1734075 -0.20464855 -0.15103833 -0.04124335 -0.0593216 0.0065748035 0.13628289 -0.06610814
0.04240592 -0.0908567 -0.023385713 0.039996546 0.10736049 0.091597416 0.045847632 -0.039050132
-0.08371291 0.0691318 -0.04148822 -0.021691013 0.0074954634 -0.16081756 -0.087756686 0.035150785
-0.018000208 -0.019840045 0.026879849 -0.05135763 -0.12775593 -0.07509741 -0.11169731 0.07898842
00000000: bc91 313e 648f 51be cba9 1abe c9ee 28bd
00000010: 35fb 72bd 7371 d73b be8d 0b3e b463 87bd
00000020: d4b1 2d3d 1413 babd 6593 bfbc 6bd3 233d
00000030: d1df db3d 6d97 bb3d baca 3b3d 08f3 1fbd
00000040: ad71 abbd f994 8d3d 8def 29bd 5ab1 b1bc
00000050: 819c f53b 5cad 24be c7b9 b3bd 45fa 0f3d
00000060: 2c75 93bc 9787 a2bc 2133 dc3c 615c 52bd
00000070: 73d2 02be accc 99bd 8fc1 e4bd aec4 a13d

sfeb.4.running_mean f4 [32]
-0.033356886 -0.19205846 -0.4308168 -0.32730427 -0.34161294 -0.17966658 -0.11813989 0.012177306
-0.2802009 -0.15717623 -0.043700248 -0.23476228 -0.066825986 0.124491654 -0.20533532 -0.0021972798
-0.31199175 -0.29060072 -0.31838223 -0.0077904053 -0.3523338 -0.4727956 -0.3654786 -0.23897307
-0.01781082 -0.015912931 -0.3639646 -0.16950692 -0.3751891 -0.44060007 -0.09443457 -0.043584146
00000000: 3ba1 08bd f9aa 44be 0594 dcbe 6d94 a7be
00000010: e4e7 aebe 84fa 37be 54f3 f1bd 5383 473c
00000020: 7e76 8fbe cef2 20be 08ff 32bd 8665 70be
00000030: 10dc 88bd 7bf5 fe3d 6c43 52be 3d00 10bb
00000040: 62bd 9fbe 9ec9 94be ff02 a3be a846 ffbb
00000050: 1965 b4be 4412 f2be 0320 bbbe 5bb5 74be
00000060: ffe7 91bc d65b 82bc 9159 babe 3993 2dbe
00000070: c918 c0be 5596 e1be e966 c1bd 4a85 32bd

sfeb.4.running_var f4 [32]
0.34283718 0.34280095 0.6180162 1.0537271 0.2897263 0.33636615 0.41730502 0.0063987966
0.29581025 0.21863578 0.0030841206 0.36712834 0.41637844 0.7115317 0.893314 0.0021158995
0.5179757 0.57729185 0.8061373 0.0015379363 0.620421 0.7037607 0.76622605 0.46428314
0.00093436823 0.0008137434 0.47685596 0.45985398 0.4007666 0.46737605 0.22375382 0.17641763
00000000: 5b88 af3e 9b83 af3e 4f36 1e3f 88e0 863f
00000010: 0157 943e 2f38 ac3e 01a9 d53e ffac d13b
00000020: 7174 973e 0fe2 5f3e f51e 4a3b 3ff8 bb3e
00000030: 8e2f d53e f126 363f 3ab0 643f e7aa 0a3b
00000040: 0e9a 043f 66c9 133f 045f 4e3f 9494 c93a
00000050: e9d3 1e3f a929 343f 6427 443f 85b6 ed3e
00000060: 64f0 743a 6551 553a 7726 f43e fb71 eb3e
00000070: 4831 cd3e ea4b ef3e b91f 653e d3a6 343e

tfeb.0.weight f4 [13, 1, 3, 3]
0.033567015 0.0006308249 -0.0055061346 0.0042792633 0.0004912242 0.0015731946 0.001967339 0.0061266273
0.0061883624 0.008955258 -0.010200535 0.014472883 0.015609064 -0.011679153 0.013489744 0.016072398
-0.007421313 0.016595207 0.20796342 0.1336897 -0.40359834 0.38883176 0.4677328 -0.6633459
0.19849892 0.1524542 -0.4549305 -0.23164614 -0.036598247 0.11952963 -0.58980197 0.47836763
0.5353692 -0.30606762 0.1493137 0.18887025 0.022597171 0.4131421 -0.49765423 0.08509691
0.107748784 -0.33487144 -0.16405931 -0.053510524 -0.31819803 0.038121156 -0.15602334 -0.17385094
0.021363756 -0.21386261 -0.29322338 0.24795942 -0.18088435 -0.13011512 0.8583944 -0.49671605
-0.50709015 0.910424 -0.54894227 -0.66254926 0.44565254 -0.2950794 -0.45989123 -0.11716212
-0.16786234 -0.12948513 -0.10152743 -0.16481622 -0.12514614 0.10413981 0.22094813 0.12567751
-0.1711788 -0.2945522 -0.119905606 -0.14831956 -0.25455514 -0.057215285 -0.11112585 -0.18297866
-0.118265145 -0.05570918 -0.087685466 0.04276394 -0.108357064 -0.1396418 -0.023211394 0.10631189
-0.46149653 0.43363425 0.31746233 0.11719356 0.11071997 0.2904771 0.06000072 0.060467888
-0.06737028 -0.08120244 -0.030171866 -0.07480153 -0.17414084 -0.054748144 -0.18592462 -0.2527286
-0.13158011 0.018264292 -0.122867875 -0.04599661 -0.28498822 -0.22677603 0.319108 -0.66582954
-0.5689196 1.1158097 -0.35582593 -0.28624168 0.34165287
00000000: 917d 093d f15d 253a ce6c b4bb 1039 8c3b
00000010: 7fc5 003a a733 ce3a 79ee 003b e0c1 c83b
00000020: bfc7 ca3b 13b9 123c 2520 27bc ac1f 6d3c
00000030: 29bd 7f3c eb59 3fbc 1604 5d3c 43aa 833c
00000040: 7c2e f3bb acf2 873c 5df4 543e f4e5 083e
00000050: 71a4 cebe f514 c73e ac7a ef3e 09d1 29bf
00000060: 4d43 4b3e f41c 1c3e a7ec e8be a534 6dbe
00000070: 0be8 15bd f3cb f43d 43fd 16bf 9aec f43e
00000080: f50d 093f e5b4 9cbe b1e5 183e 3467 413e
00000090: b41d b93c 5d87 d33e 89cc febe 4a47 ae3d
000000a0: 65ab dc3d 4574 abbe 2aff 27be da2d 5bbd
000000b0: daea a2be ee24 1c3d 95c4 1fbe fb05 32be
000000c0: 0b03 af3c cdfe 5abe 6021 96be 13e9 7d3e
000000d0: bf39 39be e63c 05be bcbf 5b3f 9151 febe
000000e0: a9d0 01bf 8c11 693f 7b87 0cbf d49c 29bf
000000f0: 922c e43e a614 97be dd76 ebbe b2f2 efbd
00000100: 1be4 2bbe c097 04be 9ded cfbd 95c5 28be
00000110: 4f26 00be 4147 d53d 3a40 623e 9bb1 003e
00000120: 7f49 2fbe 8ccf 96be 1291 f5bd 15e1 17be
00000130: 0d55 82be 935a 6abd f395 e3bd c25e 3bbe
00000140: ff34 f2bd 4f2f 64bd 7094 b3bd 3e29 2f3d
00000150: 4fea ddbd 43fe 0ebe d225 bebc 0cba d93d
00000160: 4649 ecbe 4f05 de3e 6c8a a23e 2d03 f03d
00000170: 27c1 e23d 6ab9 943e 51c3 753d 2dad 773d
00000180: 6ef9 89bd 774d a6bd fd2a f7bc 8b31 99bd
00000190: fa51 32be 973f 60bd 0663 3ebe a565 81be
000001a0: f0bc 06be ff9e 953c 27a2 fbbd f166 3cbd
000001b0: fae9 91be fa37 68be 2062 a33e ce73 2abf
000001c0: b7a4 11bf dad2 8e3f d12e b6be 458e 92be
000001d0: 20ed ae3e

tfeb.1.weight f4 [13]
-0.0008303836 -0.0022213494 0.2963765 0.28367284 0.35085523 0.31986085 0.5935775 0.29480729
0.9242648 0.38896865 0.2663947 0.5005401 0.5113019
00000000: 1aae 59ba 0f94 11bb a9be 973e 913d 913e
00000010: 4ca3 b33e cdc4 a33e b2f4 173f fbf0 963e
00000020: 9e9c 6c3f e626 c73e e364 883e 6523 003f
00000030: aee4 023f

tfeb.1.bias f4 [13]
-0.012149675 -0.014378098 0.1632011 0.23431279 0.29500532 0.37520337 0.030933047 0.0604276
-0.27091315 -0.033093475 0.18610586 0.04303703 0.13851827
00000000: 6e0f 47bc 1d92 6bbc 301e 273e b1ef 6f3e
00000010: f00a 973e a81a c03e 4d67 fd3c ee82 773d
00000020: 21b5 8abe 068d 07bd 8992 3e3e 9947 303d
00000030: bcd7 0d3e

tfeb.1.running_mean f4 [13]
0.017941937 0.020272706 0.0132409865 0.120351955 -0.2643319 -0.314927 -0.27931497 -0.14158241
-0.5356488 -0.11095964 0.29309708 -0.38223234 -0.22114411
00000000: f8fa 923c f212 a63c b9f0 583c 167b f63d
00000010: 8356 87be 1d3e a1be 5f02 8fbe fbfa 10be
00000020: 4820 09bf cf3e e3bd d210 963e f5b3 c3be
00000030: 9a73 62be

tfeb.1.running_var f4 [13]
0.00076033827 0.00089345546 0.09022545 0.12984355 0.19592361 0.23564993 0.3761965 0.1467349
0.5981078 0.051005963 0.24576665 0.32191548 0.25175902
00000000: 7051 473a c836 6a3a 1fc8 b83d b5f5 043e
00000010: 33a0 483e 374e 713e d49c c03e ac41 163e
00000020: 981d 193f a1eb 503d 41aa 7b3e 1bd2 a43e
00000030: 8fe6 803e

tfeb.4.weight f4 [25, 13, 3, 3]
0.0023578056 -0.0025833184 0.0010810865 -0.00083830376 -0.0048710136 -0.0029532837 0.0022903008 -0.0014221164
-0.00040461912 0.0017388656 -0.0053310404 0.0038100814 0.00219254 -0.006370295 0.002997182 0.002910671
-0.0029746194 0.0046566958 0.07296234 -0.002571696 0.05838674 -0.09652367 -0.17839096 -0.13735576
0.050092433 -0.10534615 -0.038083132 -0.034857567 -0.07378884 -0.01956079 -0.07659752 -0.057942126
0.001026266 -0.10910213 -0.035863157 0.007942639 0.081590615 0.0511273 0.09620866 -0.02098353
-0.05467521 -0.06253763 0.024677956 0.010702869 0.022097353 -0.057915382 -0.0066132997 -0.045424473
0.027528416 0.025155976 -0.03630886 0.043289583 -0.004706988 0.0033138234 0.10735109 0.09136762
-0.045076944 -0.14531039 -0.043117832 -0.28386596 0.02985626 -0.13600889 -0.109689325 -0.05229
-0.022826387 0.017483324 0.05693185 0.069273435 0.07917767 0.0015844514 -0.011481001 -0.016062655
0.0032517556 0.013136576 0.04825409 0.028115407 -0.002230848 -0.0030510668 0.08916045 0.034151148
-0.0027713908 0.003686235 -0.11557354 0.029822975 0.0017367951 -0.10650329 0.028866762 -0.022129834
-0.074869044 0.00914312 0.057584114 0.09174005 0.07295424 -0.1486877 -0.08057838 -0.071893014
-0.050031878 -0.030183887 -0.017241316 -0.03942811 -0.01086778 -0.014346266 0.06628824 0.047995027
0.012923709 0.037413 0.018246181 -0.019720735 0.030813396 -0.18776055 -0.02995895 0.051997665
-0.18188974 -0.007386315 -0.0073899836 -0.055712372 -0.01770463 0.0014413958 -0.0013234772 -0.00018747349
-0.00068643 -0.00073572324 -0.0006230661 0.0020915323 0.0011147005 -0.0005382226 -0.0025518897 -0.0025915445
-0.0011107 0.0026514952 0.0011804588 0.002177967 0.002596435 0.001943262 0.0034507185 -0.028127693
-0.015597138 -0.07905053 -0.031513646 0.057371445 -0.035017014 0.04062822 0.051150177 0.009804675
0.05938059 0.019841796 -0.037507005 0.030009462 -0.07695427 -0.1455221 0.055274528 -0.016290732
-0.062465858 0.004393872 -0.07930662 -0.06685357 -0.10220935 -0.1347869 -0.072289854 -0.068134286
-0.064093076 -0.013633938 0.026838949 0.004943762 -0.019916857 -0.08557007 -0.07021804 -0.04090681
-0.09694436 -0.085753374 -0.020553024 -0.043494873 -0.074524805 -0.17799722 -0.19562249 -0.045743488
-0.16555884 -0.06605457 -0.035100788 -0.07823207 0.08883966 0.08880354 0.05700263 -0.07709641
-0.079791084 -0.0629067 -0.0021109001 0.015598892 0.055507515 0.04288209 0.009460011 -0.0042122793
-0.005135299 -0.033274136 0.00052463106 -0.01573448 -0.030453607 0.019451343 0.033242494 -0.04549739
-0.022966243 -0.03964186 -0.14863199 -0.08524464 -0.03570648 -0.053481705 -0.011732733 -0.041556627
-0.00183846 -0.059908267 0.012528102 0.097547 -0.01665333 0.07269586 0.11297038 0.018898707
0.07793252 0.0632507 0.046094365 -0.02886943 -0.043009955 -0.015354518 -0.07343308 -0.060844436
-0.004676913 0.038216896 -0.087361656 -0.12217703 -0.0064988383 -0.21719843 -0.20381996 -0.08021202
-0.12424285 -0.106022775 -0.00049289607 0.0011206222 0.0012651173 -0.0023040266 -0.0092349015 -0.0033409253
-0.0053051533 -0.0009654403 -0.0028867412 -0.0025535203 0.0012048298 -0.0001065753 -0.0065619205 -0.0028984323
-0.0046611996 -0.0030181173 -0.0015192576 0.001578741 -0.02681196 -0.07476809 0.0778801 -0.058659688
00000000: 6a85 1a3b e44c 29bb 3eb3 8d3a 9dc1 5bba
00000010: 069d 9fbb e18b 41bb df18 163b 4f66 baba
00000020: 0f23 d4b9 a6ea e33a 02b0 aebb 8fb2 793b
00000030: b8b0 0f3b e8bd d0bb 5f6c 443b f5c0 3e3b
00000040: d5f1 42bb 3297 983b 486d 953d e689 28bb
00000050: ef26 6f3d 34ae c5bd 1fac 36be fda6 0cbe
00000060: b92d 4d3d b9bf d7bd 0ffd 1bbd cfc6 0ebd
00000070: 9a1e 97bd f33d a0bc 29df 9cbd b954 6dbd
00000080: c683 863a f070 dfbd 3fe5 12bd d821 023c
00000090: fb18 a73d dc6a 513d 0c09 c53d a7e5 abbc
000000a0: 1df3 5fbd bb13 80bd 6d29 ca3c 165b 2f3c
000000b0: 8205 b53c ae38 6dbd 61b4 d8bb 030f 3abd
000000c0: 4683 e13c e813 ce3c 99b8 14bd 6b50 313d
000000d0: 143d 9abb bb2c 593b e3da db3d f21e bb3d
000000e0: 9aa2 38bd 3fcc 14be 539c 30bd e156 91be
000000f0: 1e95 f43c ea45 0bbe cca4 e0bd 0a2e 56bd
00000100: 67fe babc 3039 8f3c 5f31 693d 3bdf 8d3d
00000110: e727 a23d 5ead cf3a cf1a 3cbc d495 83bc
00000120: 681b 553b cb3a 573c 15a6 453d 4852 e63c
00000130: 6b33 12bb 68f4 47bb c199 b63d 13e2 0b3d
00000140: 39a0 35bb c394 713b d2b1 ecbd 504f f43c
00000150: 2ca5 e33a 661e dabd fd79 ec3c a049 b5bc
00000160: f154 99bd 06cd 153c 52dd 6b3d 35e2 bb3d
00000170: 0869 953d 9741 18be 4706 a5bd a53c 93bd
00000180: 3aee 4cbd 3344 f7bc a93d 8dbc 5f7f 21bd
00000190: c60e 32bc 9a0c 6bbc 21c2 873d 6f96 443d
000001a0: f7bd 533c 603e 193d 0479 953c 618d a1bc
000001b0: 606c fc3c 4d44 40be 796c f5bc 81fb 543d
000001c0: 4e41 3abe e708 f2bb ad27 f2bb a832 64bd
000001d0: 4d09 91bc 38ed bc3a 8778 adba 8894 44b9
000001e0: 8af1 33ba 8ddd 40ba 4255 23ba 1712 093b
000001f0: 241b 923a 8217 0dba 9b3d 27bb e7d6 29bb
00000200: e894 91ba b5c4 2d3b a0b9 9a3a 39bc 0e3b
00000210: f328 2a3b 0db5 fe3a 7325 623b 0c6c e6bc
00000220: 238b 7fbc 3fe5 a1bd 7414 01bd 52fe 6a3d
00000230: 006e 0fbd c769 263d d982 513d caa3 203c
00000240: 1039 733d 438b a23c f2a0 19bd 67d6 f53c
00000250: 339a 9dbd bf03 15be 8b67 623d 2474 85bc
00000260: 33dc 7fbd 78fa 8f3b 826b a2bd 86ea 88bd
00000270: 2353 d1bd 9405 0abe b40c 94bd fd89 8bbd
00000280: 3b43 83bd e160 5fbc 5bdd db3c 48ff a13b
00000290: ad28 a3bc 5c3f afbd 7ace 8fbd e68d 27bd
000002a0: c48a c6bd 779f afbd d15e a8bc ae27 32bd
000002b0: 76a0 98bd e744 36be 4351 48be 865d 3bbd
000002c0: 4288 29be 9e47 87bd d8c5 0fbd 2338 a0bd
000002d0: 91f1 b53d a1de b53d 977b 693d b9e4 9dbd
000002e0: 8269 a3bd 3ad5 80bd 0757 0abb 7f92 7f3c
000002f0: d95b 633d 21a5 2f3d 29fe 1a3c 2907 8abb
00000300: 0346 a8bb 764a 08bd 6587 093a 99e5 80bc
00000310: d879 f9bc 6c58 9f3c 4829 083d 795b 3abd
00000320: b423 bcbc 815f 22bd fc32 18be be94 aebd
00000330: f540 12bd a20f 5bbd a63a 40bc 4837 2abd
00000340: 7bf8 f0ba 5f62 75bd ab42 4d3c b9c6 c73d
00000350: 906c 88bc 91e1 943d 045d e73d 76d1 9a3c
00000360: 169b 9f3d 9589 813d 72cd 3c3d 957f ecbc
00000370: 352b 30bd 8491 7bbc 1564 96bd 0438 79bd
00000380: ca40 99bb 5289 1c3d abea b2bd f337 fabd
00000390: 35f4 d4bb 4469 5ebe 2eb6 50be 3346 a4bd
000003a0: 0973 febd 7822 d9bd b235 01ba d7e1 923a
000003b0: 4bd2 a53a 27ff 16bb fc4d 17bc 6df3 5abb
000003c0: dad6 adbb 9a15 7dba 7b2f 3dbb f658 27bb
000003d0: 61eb 9d3a 2e81 dfb8 6105 d7bb a0f3 3dbb
000003e0: fabc 98bb 9bcb 45bb d321 c7ba c2ed ce3a
000003f0: c1a4 dbbc 0320 99bd 9a7f 9f3d 2445 70bd

tfeb.5.weight f4 [25]
0.44328034 0.18840744 0.33905077 0.27219343 0.45076716 0.36689904 0.24630082 0.27431545
0.62765765 0.32519725 0.2208522 0.59677416 0.48602703 0.5942453 0.18632224 0.24609002
0.32795423 0.23493917 0.46770048 0.21302357 0.44474527 0.21126877 0.23084301 0.080766656
0.20679173
00000000: a4f5 e23e e1ed 403e 1098 ad3e f05c 8b3e
00000010: f4ca e63e 31da bb3e 4836 7c3e 1373 8c3e
00000020: 2cae 203f 4180 a63e 1427 623e 31c6 183f
00000030: 89d8 f83e 7620 183f 42cb 3e3e 06ff 7b3e
00000040: 9ee9 a73e e593 703e 7076 ef3e da22 5a3e
00000050: a7b5 e33e d756 583e 1c62 6c3e fd68 a53d
00000060: 36c1 533e

tfeb.5.bias f4 [25]
0.041885387 0.23749737 -0.0133591 0.04264202 -0.039570045 0.11035161 0.1638539 0.049655072
-0.068342656 -0.039358664 0.124528535 -0.0779978 -0.19048886 -0.09333855 0.18120211 0.14334267
-0.013095761 -0.031986434 -0.06616521 0.30587605 -0.14278682 0.29235673 0.24509859 0.06440631
-0.0721686
00000000: 0390 2b3d 8332 733e 20e0 5abc 66a9 2e3d
00000010: 3314 22bd 0600 e23d 51c9 273e 1e63 4b3d
00000020: 3cf7 8bbd 8d36 21bd d108 ff3d 50bd 9fbd
00000030: 830f 43be 4828 bfbd 0c8d 393e 6cc8 123e
00000040: 9a8f 56bc 3504 03bd a081 87bd c99b 9c3e
00000050: b536 12be c8af 953e 20fb 7a3e 75e7 833d
00000060: 22cd 93bd

tfeb.5.running_mean f4 [25]
-0.47342297 -0.9603874 -0.07258445 0.04066202 -0.6441491 -0.4071667 -0.48244166 -0.3628415
-0.4989908 -0.42830372 -0.45900264 -0.46230933 0.11532197 -0.29176486 -0.39304355 -0.14608485
-0.6017966 -0.09851116 -0.41762626 -0.35130763 -0.05432593 -0.6295662 -0.15247516 -0.23152332
0.11862321
00000000: 7f64 f2be f3db 75bf 28a7 94bd 388d 263d
00000010: f5e6 24bf 2778 d0be 9802 f7be 5cc6 b9be
00000020: b97b ffbe a04a dbbe 6502 ebbe cfb3 ecbe
00000030: ed2d ec3d 3462 95be 013d c9be 4497 15be
00000040: 580f 1abf 38c0 c9bd 1cd3 d5be 98de b3be
00000050: de84 5ebd 402b 21bf 7322 1cbe 7314 6dbe
00000060: baf0 f23d

tfeb.5.running_var f4 [25]
0.16864887 0.16015118 0.11908947 0.04132203 0.19251795 0.10337847 0.08510979 0.05553595
0.2211164 0.062277626 0.14423805 0.25823113 0.101426505 0.10024102 0.07876057 0.106723495
0.07920248 0.025273444 0.11284986 0.08115687 0.107997864 0.23054717 0.12326981 0.014095278
0.0329656
00000000: 4ab2 2c3e acfe 233e 2ee5 f33d 4a41 293d
00000010: 6d23 453e 17b8 d33d 0b4e ae3d aa79 633d
00000020: 566c 623e d316 7f3d 24b3 133e df36 843e
00000030: b3b8 cf3d 2a4b cd3d 394d a13d d991 da3d
00000040: e934 a23d 410a cf3c d41d e73d 9335 a63d
00000050: fc2d dd3d 8f14 6c3e e274 fc3d e2ef 663c
00000060: f006 073d

tfeb.7.weight f4 [28, 25, 3, 3]
0.022757439 0.021352075 0.042383324 0.02755761 0.016980018 0.00628734 0.009123325 0.034972556
0.029403625 0.007380707 -0.014919569 -0.025656125 0.07522293 0.09925088 0.0662467 0.034745596
0.015923416 -0.020033812 -0.03063141 -0.014331476 -0.032971095 -0.115437314 -0.085940294 -0.06601169
-0.026314711 0.01380206 0.033825267 -0.03701493 -0.026509523 -0.03516466 -0.038307644 -0.048141424
-0.019357815 -0.00782935 -0.02296474 0.08116432 0.0061382493 0.041833885 0.072435826 0.038509768
0.06206212 0.07584026 0.003655802 0.026126554 0.0508469 -0.06919526 -0.051369157 -0.0054911445
-0.015619495 0.027136631 0.019787824 -0.036402397 0.017563649 0.015707463 -0.110953376 -0.03892546
-0.053418968 0.0052467664 -0.008463374 -0.050105024 0.009837726 0.036033913 -0.002023712 -0.011982647
-0.013946855 -0.00063837576 0.011267333 0.0546488 0.028704416 0.004227183 0.025557533 0.013303318
-0.044838462 -0.009544007 -0.034809433 0.041336022 0.11701629 0.074612826 0.008372684 0.04551715
0.051119488 0.010875435 0.0072796075 0.01805528 0.0071417643 0.020177769 0.011563132 0.017256051
0.027091904 0.01278071 -0.033346433 -0.025827333 -0.06390917 0.06451568 0.086161196 0.062791914
0.025384288 0.0057101403 -0.056709748 -0.0021326959 0.045562126 0.04257068 0.02414216 0.08874894
0.040198013 -0.043080293 -0.0013555918 -0.057857793 -0.03465425 -0.00657907 -0.007138478 -0.031792823
-0.028375825 -0.007788338 0.0045027426 -0.032396164 0.044997655 -0.018682249 -0.015005953 0.0052807275
0.009220214 -0.0077923136 -0.023748353 0.022227313 -0.0022036615 -0.037415043 -0.018235607 -0.023539964
-0.0025068726 -0.027159316 -0.019286003 -0.023783037 0.04782368 0.073171854 0.06268201 0.07410944
0.06481116 0.03763973 -0.0049571143 0.0064719017 0.043898396 -0.07963074 -0.076763734 -0.033313975
-0.04695656 -0.02831015 -0.01189245 0.008193515 0.00035847095 -0.008116655 7.0772745e-05 0.02559131
0.03540491 0.005251455 0.020789484 0.04676292 -0.02183167 -0.025572123 0.0059584393 -0.0076177437
-0.013550311 -0.00586327 -0.009970933 -0.019816585 -0.026932307 -0.0051177414 0.04062018 0.028576482
0.03433366 0.06732559 0.039895408 0.03575491 0.016039409 0.029845223 -0.0024682963 -0.025048893
0.035214875 -0.010949537 -0.030334732 0.013702028 -0.027979542 -0.0104770865 0.023590937 -0.039714605
-0.055925902 -0.058601573 0.0073149437 -0.008364129 -0.027557362 -0.05650745 -0.029922293 -0.003443891
0.06881155 0.08495164 0.09866362 -0.03178761 -0.00759061 0.051513404 0.03517362 0.03528705
0.026706517 -0.0476642 -0.066173024 -0.08016781 0.0817197 0.09513656 0.08413595 0.0044007837
-0.0043197353 -0.005835313 0.027583126 0.024682015 0.037648864 0.012194072 -0.010355588 0.011385522
-0.010102827 -0.024203375 -5.756069e-06 0.022176832 0.024498645 0.06689765 -0.022093406 -0.032445133
-0.0113685 0.0803431 -0.048452694 -0.06157184 0.044307336 -0.12786658 -0.12637714 0.16107683
-0.04922161 -0.06921713 0.03794649 0.017235035 0.054469462 0.086345404 0.055051968 0.0076834443
0.047002662 -0.0038643412 -0.024373021 -0.036761325 0.08364738 0.051279437 -0.051289022 -0.05911934
-0.061717663 -0.027189154 -0.06676947 -0.15464722 0.02220685 -0.016919572 -0.08493629 -0.062346462
00000000: cf6d ba3c 8cea ae3c 239a 2d3d 7fc0 e13c
00000010: ae19 8b3c 0806 ce3b 007a 153c 623f 0f3d
00000020: dfdf f03c dcd9 f13b 3571 74bc cb2c d2bc
00000030: 7b0e 9a3d 0c44 cb3d 5aac 873d 6651 0e3d
00000040: d371 823c f31d a4bc b9ee fabc 91ce 6abc
00000050: b30c 07bd 666a ecbd 7701 b0bd 2331 87bd
00000060: f391 d7bc 0922 623c 5d8c 0a3d f89c 17bd
00000070: 802a d9bc d208 10bd 7ae8 1cbd f12f 45bd
00000080: 4894 9ebc ad46 00bc 8d20 bcbc 7b39 a63d
00000090: 5e23 c93b 025a 2b3d 3c59 943d 6bbc 1d3d
000000a0: d934 7e3d 2352 9b3d 2e96 6f3b 5b07 d63c
000000b0: d744 503d 3fb6 8dbd 7768 52bd 0fef b3bb
000000c0: e9e8 7fbc a44d de3c 131a a23c ae1a 15bd
000000d0: a4e1 8f3c f0ac 803c 863b e3bd 4e70 1fbd
000000e0: d9cd 5abd 11ed ab3b f7a9 0abc ed3a 4dbd
000000f0: 6a2e 213c 4c98 133d 41a0 04bb dd52 44bc
00000100: 5a81 64bc ac58 27ba 9f9a 383c 6cd7 5f3d
00000110: 8625 eb3c 2e84 8a3b 085e d13c 29f6 593c
00000120: 89a8 37bd 775e 1cbc 5694 0ebd f64f 293d
00000130: 3da6 ef3d 9cce 983d 952d 093c 3170 3a3d
00000140: ab62 513d e12e 323c c689 ee3b abe8 933c
00000150: 7605 ea3b d94b a53c 4a73 3d3c 905c 8d3c
00000160: d7ef dd3c 2f66 513c 4596 08bd d893 d3bc
00000170: d0e2 82bd cc20 843d 4875 b03d 0c99 803d
00000180: b6f2 cf3c 211c bb3b 7b48 68bd b3c4 0bbb
00000190: 5a9f 3a3d 985e 2e3d c7c5 c53c 01c2 b53d
000001a0: aca6 243d f674 30bd 1dae b1ba 4bfc 6cbd
000001b0: 9df1 0dbd 3d95 d7bb e5e9 e9bb 3139 02bd
000001c0: 6b74 e8bc 5135 ffbb be8b 933b d7b1 04bd
000001d0: 764f 383d 840b 99bc 87db 75bc f409 ad3b
000001e0: 6110 173c aa56 ffbb e88b c2bc 0e16 b63c
000001f0: 4e6b 10bb 8440 19bd d762 95bc e2d6 c0bc
00000200: 584a 24bb 377d debc aefd 9dbc a5d4 c2bc
00000210: c3e2 433d 20db 953d 6d5f 803d b1c6 973d
00000220: b7bb 843d 1e2c 1a3d 4a6f a2bb 3f12 d43b
00000230: cece 333d 7115 a3bd 4e36 9dbd 3c74 08bd
00000240: 8655 40bd b0ea e7bc 8dd8 42bc 183e 063c
00000250: 28f1 bb39 b8fb 04bc d46b 9438 dea4 d13c
00000260: bd04 113d 6614 ac3b b54e aa3c 7a8a 3f3d
00000270: 55d8 b2bc a17c d1bc 033f c33b 449e f9bb
00000280: 2002 5ebc ac20 c0bb 205d 23bc 6456 a2bc
00000290: 24a1 dcbc bab2 a7bb 5961 263d 3a19 ea3c
000002a0: 74a1 0c3d 00e2 893d 5e69 233d be73 123d
000002b0: 1465 833c f87d f43c 24c3 21bb 5633 cdbc
000002c0: 793d 103d b065 33bc 8b80 f8bc 797e 603c
000002d0: 5a35 e5bc 16a8 2bbc c841 c13c c8ab 22bd
000002e0: 8f12 65bd 3408 70bd 32b2 ef3b b309 09bc
000002f0: fabf e1bc 5b74 67bd 991f f5bc e7b2 61bb
00000300: 12ed 8c3d 20fb ad3d 2710 ca3d ba33 02bd
00000310: a7ba f8bb b8ff 523d 3712 103d 2789 103d
00000320: a0c7 da3c 893b 43bd b985 87bd 052f a4bd
00000330: a85c a73d f5d6 c23d 784f ac3d 7334 903b
00000340: 918c 8dbb 2736 bfbb 02f6 e13c f031 ca3c
00000350: b235 1a3d a5c9 473c 7caa 29bc 578a 3a3c
00000360: 5486 25bc 2846 c6bc 4224 c1b6 30ac b53c
00000370: 62b1 c83c a301 893d 3bfd b4bc 30e5 04bd
00000380: f242 3abc ec8a a43d 5576 46bd c132 7cbd
00000390: 9c7b 353d 75ef 02be 0269 01be 53f1 243e
000003a0: 999c 49bd b6c1 8dbd c76d 1b3d 7d30 8d3c
000003b0: 5f1b 5f3d dcd5 b03d 2c7e 613d 67c5 fb3b
000003c0: dd85 403d e340 7dbb eea9 c7bc 0b93 16bd
000003d0: 514f ab3d 630a 523d 7014 52bd 1f27 72bd
000003e0: a9cb 7cbd cabb debc 6fbe 88bd d75b 1ebe
000003f0: 24eb b53c ea9a 8abc 14f3 adbd 015f 7fbd

tfeb.8.weight f4 [28]
0.24503808 0.48615614 0.24256404 0.34489167 0.41696817 0.35411796 0.29101115 0.24275191
0.16904242 0.42316422 0.2958013 0.4194451 0.30859315 0.244817 0.2256232 0.35392097
0.38897216 0.4931787 0.41816577 0.3908431 0.50974995 0.34701592 0.26003122 0.29100507
0.48705822 0.36433795 0.38887253 0.2291848
00000000: 43eb 7a3e 75e9 f83e b562 783e a495 b03e
00000010: da7c d53e f34e b53e 6aff 943e f593 783e
00000020: 7519 2d3e fba8 d83e 4573 973e 82c1 d63e
00000030: ecff 9d3e 4fb1 7a3e c509 673e 2135 b53e
00000040: 5c27 c73e eb81 fc3e d319 d63e 961c c83e
00000050: f97e 023f 12ac b13e d022 853e 9efe 943e
00000060: b25f f93e 818a ba3e 4d1a c73e 6caf 6a3e

tfeb.8.bias f4 [28]
0.14436945 -0.08365209 0.017009756 -0.041360702 -0.08492961 0.017652445 0.017194781 0.0886001
0.045172833 -0.06277808 -0.14659286 -0.073569246 -0.03468555 0.10682253 0.18255916 -0.044400617
-0.11577156 -0.09068597 -0.052725624 -0.07007349 -0.17602377 -0.030574694 0.08277539 -0.027333405
-0.03325381 -0.049570296 -0.018297555 0.11441082
00000000: 96d5 133e c951 abbd 0b58 8b3c d769 29bd
00000010: 93ef adbd dc9b 903c 12dc 8c3c f873 b53d
00000020: 2607 393d cb91 80bd 701c 16be 79ab 96bd
00000030: 6f12 0ebd c5c5 da3d caf0 3a3e 6cdd 35bd
00000040: a419 edbd 91b9 b9bd d3f6 57bd b182 8fbd
00000050: 933f 34be c877 fabc 2586 a93d 4eea dfbc
00000060: 2635 08bd 390a 4bbd c1e4 95bc 3850 ea3d

tfeb.8.running_mean f4 [28]
0.21617302 -0.28662086 -0.14572842 -0.08075788 -0.37163907 0.0049314615 -0.28286523 -0.2965771
-0.070438206 0.06877449 0.108470805 0.17809036 -0.13641657 0.029024513 0.12487937 -0.44840193
-0.2734572 -0.03914472 -0.17792033 0.054368462 -0.24600932 -0.22214493 -0.6881097 -0.23974839
-0.14596719 -0.07434561 -0.4066309 0.43934345
00000000: 765c 5d3e f8bf 92be d539 15be 6364 a5bd
00000010: 7a47 bebe 1998 a13b b6d3 90be f4d8 97be
00000020: e841 90bd a4d9 8c3d f125 de3d 525d 363e
00000030: c9b0 0bbe d1c4 ed3c c1c0 ff3d f094 e5be
00000040: 9502 8cbe 3756 20bd bf30 36be 77b1 5e3d
00000050: dee9 7bbe f679 63be f527 30bf 9a80 75be
00000060: 6c78 15be 8342 98bd ed31 d0be a0f1 e03e

tfeb.8.running_var f4 [28]
0.0338562 0.13733968 0.018007716 0.040823344 0.08189042 0.03779344 0.02744276 0.045944307
0.009663702 0.0964224 0.02549029 0.036593437 0.08374944 0.060383342 0.06260748 0.040731706
0.06310023 0.15125428 0.12592115 0.05980804 0.0936333 0.0823497 0.041282065 0.08078181
0.060218275 0.042510305 0.038328778 0.055467162
00000000: ccac 0a3d c6a2 0c3e eb84 933c 6136 273d
00000010: 2ab6 a73d 4bcd 1a3d a4cf e03c 1930 3c3d
00000020: 8154 1e3c 1b79 c53d 03d1 d03c 00e3 153d
00000030: d484 ab3d 8654 773d 5a38 803d 4ad6 263d
00000040: b23a 813d 67e2 1a3e 79f1 003e 46f9 743d
00000050: d1c2 bf3d f6a6 a83d 6217 293d ef70 a53d
00000060: 70a7 763d 491f 2e3d a3fe 1c3d 8931 633d

tfeb.11.weight f4 [32, 28, 3, 3]
-0.025368009 -0.03137504 -0.034871496 0.031868536 0.037624456 0.021969736 0.07043362 0.059010103
0.050418817 -0.035708103 0.0065141474 -0.007120133 -0.00031373688 0.01056004 0.029361032 -0.024200158
-0.0064003672 0.031877056 -0.01794966 -0.031875014 -0.026268376 -0.015849976 -0.022642866 -0.017189963
0.032358266 0.019601803 0.026896114 0.03252485 0.023382982 0.029071774 0.040513795 0.019205425
-0.0036042258 -0.0059711 0.014286694 -0.024014665 0.023234678 0.0141985 0.035320334 0.022837693
0.010724683 0.026127692 -0.024192927 -0.07427359 -0.02162541 -0.017712267 -0.021445658 -0.013232063
0.022547722 0.01578185 -0.008390152 -0.022986256 -0.024591481 0.005736208 0.00977047 0.015668409
0.012888863 -0.022583451 -0.019151162 -0.016943198 -0.006323927 -0.019709 -0.004986473 -0.03680064
-0.009612605 -0.018125845 -0.06227419 -0.034049403 -0.016613 -0.029328426 -0.011637581 0.025634162
-0.03262228 -0.031131847 -0.029372783 -0.02132504 -0.02216566 -0.013031191 0.0035459585 0.003402131
0.010257426 -0.007363742 0.0026318138 0.028978694 0.015969533 0.050431352 0.027398895 -0.002663396
0.016737517 0.0337416 0.011086332 0.010608847 0.010347276 0.037100058 0.036683757 0.00920477
0.031425625 0.040789776 0.03255122 0.0027322806 0.037937865 0.018889828 -0.012500639 0.010634537
-0.020562928 0.023889516 0.021372642 0.019335387 -0.04847424 -0.06081386 -0.055336054 -0.07003981
-0.07753226 -0.06804413 0.026463984 0.041032564 0.054591157 -0.027646324 -0.02355822 -0.015832635
0.011705479 0.011169125 0.017662633 0.006638957 0.025272163 0.042092036 -0.074266344 -0.07760029
-0.08254602 0.023272278 0.01995409 0.038991746 0.042343166 0.02812489 0.04425301 0.023460539
0.042158805 0.03365114 0.0039699115 0.014422938 0.017467434 0.020800317 -0.005716348 0.0022890216
-0.04044454 0.029532308 0.0053054704 -0.046327136 0.038118053 0.018664334 -0.048325907 0.021330439
0.05343348 -0.044615265 -0.0324483 -0.033672933 -0.046624403 0.052619357 0.03883477 -0.05082608
-0.0007785049 0.029367441 0.0066064633 0.004696862 0.015019005 -0.004823255 -0.02849377 -0.04706344
-0.015456776 -0.036773864 -0.036431707 -0.0036883564 -0.009532035 -0.0054341406 0.029281972 0.0368991
0.049250238 -0.02386453 -0.014335303 -0.009160836 0.013337748 -0.006424355 0.0030760746 -0.005357839
-0.022381743 -0.028773721 -0.021807376 -0.039786514 -0.04095828 -0.04410276 -0.019434342 -0.019381847
-0.031983335 -0.006591739 0.0226841 -0.04273093 -0.013467574 0.009919243 -0.022111509 0.024010409
0.007629467 -0.06448674 -0.016912218 -0.032304835 -0.017343009 0.014249819 0.021358635 -0.049985908
-0.032785397 -0.018190764 -0.026416222 -0.007188363 -0.016078481 -0.025556842 -0.003908631 0.0041329493
0.0017366776 -0.0046114097 0.013521716 -0.0038530175 -0.017966736 -0.019706054 -0.10902032 -0.093810946
-0.08633626 -0.011301456 -0.007038437 0.0032986617 -0.0041409056 0.0037163296 0.007746074 0.021089314
0.041761663 0.054451942 0.0035366896 0.008870771 0.009117928 0.0050726533 0.012311365 -0.0020022849
-0.012770064 0.006138501 0.0070704655 -0.035088256 -0.037931085 -0.050826024 0.05391817 0.061779547
0.06743011 0.06354782 0.060624853 0.07240537 -0.13542652 -0.070064284 0.010055104 -0.1491972
00000000: 92d0 cfbc 1d83 00bd 6ad5 0ebd 9588 023d
00000010: 1a1c 1a3d e0f9 b33c 803f 903d 94b4 713d
00000020: f683 4e3d a942 12bd a174 d53b 0150 e9bb
00000030: 0d7d a4b9 0504 2d3c 8c86 f03c 693f c6bc
00000040: 2cba d1bb 8491 023d 2a0b 93bc 608f 02bd
00000050: c730 d7bc cfd7 81bc 887d b9bc f7d1 8cbc
00000060: 1a8a 043d f693 a03c 3d55 dc3c c738 053d
00000070: ab8d bf3c ee27 ee3c cbf1 253d b254 9d3c
00000080: e034 6cbb 38a9 c3bb bd12 6a3c 67ba c4bc
00000090: a756 be3c d3a0 683c 0eac 103d 1d16 bb3c
000000a0: 95b6 2f3c be09 d63c 3f30 c6bc c11c 98bd
000000b0: c627 b1bc 5119 91bc ceae afbc 4bcb 58bc
000000c0: 00b6 b83c f048 813c d976 09bc ac4d bcbc
000000d0: 1374 c9bc cdf6 bb3b 5214 203c 095b 803c
000000e0: cf2b 533c ee00 b9bc e6e2 9cbc 76cc 8abc
000000f0: f238 cfbb c574 a1bc 9165 a3bb 45bc 16bd
00000100: 307e 1dbc a77c 94bc 3913 7fbd 6377 0bbd
00000110: fc17 88bc 2b42 f0bc 8dab 3ebc bcfe d13c
00000120: f19e 05bd 3708 ffbc 319f f0bc dab1 aebc
00000130: c294 b5bc c780 55bc 5063 683b 49f6 5e3b
00000140: c30e 283c 8c4b f1bb 827a 2c3b ba64 ed3c
00000150: 8ad2 823c 1b91 4e3d a673 e03c 5f8c 2ebb
00000160: 1e1d 893c a234 0a3d 72a3 353c bbd0 2d3c
00000170: 9f87 293c 3bf6 173d b541 163d 9bcf 163c
00000180: 28b8 003d 2e13 273d 6e54 053d 1010 333b
00000190: bc64 1b3d d7be 9a3c 7bcf 4cbc 7b3c 2e3c
000001a0: 9673 a8bc f2b3 c33c ae15 af3c 3f65 9e3c
000001b0: ed8c 46bd f417 79bd 0fa8 62bd 0871 8fbd
000001c0: 3cc9 9ebd b95a 8bbd ffca d83c c311 283d
000001d0: fa9a 5f3d 8b7a e2bc 2bfd c0bc 71b3 81bc
000001e0: 56c8 3f3c b5fe 363c 3ab1 903c 9c8b d93b
000001f0: 9107 cf3c b368 2c3d f418 98bd e7ec 9ebd
00000200: e30d a9bd 81a5 be3c c276 a33c cfb5 1f3d
00000210: 0770 2d3d 2b66 e63c a542 353d 5130 c03c
00000220: b6ae 2c3d c7d5 093d 0816 823b 304e 6c3c
00000230: dd17 8f3c 6d65 aa3c 3450 bbbb 6903 163b
00000240: 2da9 25bd bded f13c 83d9 ad3b 86c1 3dbd
00000250: ad21 1c3d f2e5 983c 63f1 45bd 2cbd ae3c
00000260: 11dd 5a3d 7fbe 36bd 82e8 04bd a1ec 09bd
00000270: 3bf9 3ebd 6587 573d 3511 1f3d 022f 50bd
00000280: 9414 4cba fd93 f03c 087b d83b 22e8 993b
00000290: 4612 763c 650c 9ebb c46b e9bc 98c5 40bd
000002a0: 6b3e 7dbc 31a0 16bd 6a39 15bd 5ab8 71bb
000002b0: 412c 1cbc e010 b2bb bfe0 ef3c 8323 173d
000002c0: 9eba 493d 8c7f c3bc 9ede 6abc 5517 16bc
000002d0: 9286 5a3c 6583 d2bb f897 493b d090 afbb
000002e0: eb59 b7bc deb6 ebbc 62a5 b2bc 2ff7 22bd
000002f0: dfc3 27bd 18a5 34bd c534 9fbc aec6 9ebc
00000300: f500 03bd 84ff d7bb 01d4 b93c a106 2fbd
00000310: 19a7 5cbc 5284 223c 3223 b5bc 7ab1 c43c
00000320: 9c00 fa3b a011 84bd 7e8b 8abc 1352 04bd
00000330: ed12 8ebc 1378 693c 4ef8 ae3c 06be 4cbd
00000340: fb49 06bd cc04 95bc d566 d8bc 5c8c ebbb
00000350: 05b7 83bc 955c d1bc f913 80bb b16d 873b
00000360: 3ba1 e33a 4f1b 97bb 308a 5d3c e882 7cbb
00000370: fa2e 93bc 976e a1bc 0c46 dfbd f41f c0bd
00000380: 11d1 b0bd be29 39bc b0a2 e6bb 5c2e 583b
00000390: 6fb0 87bb aa8d 733b c7d2 fd3b 7fc3 ac3c
000003a0: 470e 2b3d 0009 5f3d cec7 673b b656 113c
000003b0: 5d63 153c 8038 a63b 9cb5 493c c438 03bb
000003c0: 8839 51bc 7b25 c93b 5daf e73b b4b8 0fbd
000003d0: a05d 1bbd f32e 50bd 4dd9 5c3d 8d0c 7d3d
000003e0: cc18 8a3d 5c25 823d c451 783d 4449 943d
000003f0: 40ad 0abe dd7d 8fbd 2abe 243c 27c7 18be

tfeb.12.weight f4 [32]
0.30135366 0.36525503 0.34778214 0.28267854 0.23847005 0.4529199 0.37292588 0.41931364
0.58549416 0.31000376 0.3528728 0.4078847 0.3675699 0.29397082 0.36820975 0.26626152
0.3926245 0.28213754 0.31734568 0.30312002 0.35377502 0.36265907 0.3919724 0.27869317
0.2583043 0.47611293 0.17207414 0.24701764 0.3189371 0.45148513 0.4100307 0.57750386
00000000: 074b 9a3e b502 bb3e 8010 b23e 3ebb 903e
00000010: 7e31 743e 1ee5 e73e 24f0 be3e 47b0 d63e
00000020: f2e2 153f d0b8 9e3e beab b43e 43d6 d03e
00000030: 1f32 bc3e 5883 963e fd85 bc3e 6e53 883e
00000040: 1406 c93e 5574 903e 227b a23e 8c32 9b3e
00000050: 0022 b53e 73ae b93e 9bb0 c83e dfb0 8e3e
00000060: 7640 843e 13c5 f33e 3434 303e 31f2 7c3e
00000070: b94b a33e 0f29 e73e 8bef d13e 4bd7 133f

tfeb.12.bias f4 [32]
-0.21156721 0.06167928 -0.14542337 -0.043762814 -0.085824855 -0.20615108 -0.07426797 -0.1664313
-0.40576836 0.063934356 -0.13502388 -0.07318341 -0.113971576 0.00068875746 -0.1649393 -0.08915609
-0.16970816 0.16725864 -0.06716865 0.05817783 -0.10636476 -0.1295315 -0.05670786 0.14347805
-0.04063836 -0.0635366 -0.13799863 -0.07390702 -0.079176694 -0.173509 -0.17549968 -0.18443163
00000000: 13a5 58be 6aa3 7c3d dde9 14be a340 33bd
00000010: f1c4 afbd 4519 53be ce19 98bd f76c 2abe
00000020: dfc0 cfbe 04f0 823d b343 0abe 2fe1 95bd
00000030: ee69 e9bd bb8d 343a d9e5 28be 7897 b6bd
00000040: fac7 2dbe d945 2b3e b88f 89bd e04b 6e3d
00000050: c4d5 d9bd e8a3 04be 8046 68bd e9eb 123e
00000060: 6974 26bd 7a1f 82bd 834f 0dbe 905c 97bd
00000070: 6427 a2bd 58ac 31be 30b6 33be a5db 3cbe

tfeb.12.running_mean f4 [32]
-0.08905287 -0.5402616 -0.27742672 0.13570139 -0.15456013 -0.89660484 -0.15987553 -0.4442528
-0.71224785 -0.13386872 -0.22943993 -0.5996726 -0.3807941 -0.613172 -0.11982532 -0.032623455
-0.3357609 -0.11601284 -0.14066088 -0.47525117 -0.35046527 -0.61143786 -0.34465468 -0.44745678
-0.094921395 -0.76255333 -0.16740312 -0.08713022 -0.11898259 -0.42267582 -0.27514213 -0.8153198
00000000: 5a61 b6bd 964e 0abf e00a 8ebe 4ef5 0a3e
00000010: 0345 1ebe e587 65bf 69b6 23be 1a75 e3be
00000020: e055 36bf e214 09be 4df2 6abe 2584 19bf
00000030: 72f7 c2be d7f8 1cbf fa66 f5bd 2ca0 05bd
00000040: dae8 abbe 2498 edbd 6809 10be 1f54 f3be
00000050: 2f70 b3be 3187 1cbf 9476 b0be 0e19 e5be
00000060: 2666 c2bd b236 43bf b96b 2bbe 5471 b2bd
00000070: 25ad f3bd f768 d8be 6edf 8cbe ccb8 50bf

tfeb.12.running_var f4 [32]
0.061438803 0.3457899 0.13387528 0.11738594 0.030079124 0.32824287 0.20671357 0.17802313
0.2911363 0.1528628 0.22499701 0.28643617 0.1478033 0.14763923 0.119423695 0.12334564
0.10631863 0.33976287 0.10792273 0.18330462 0.09867449 0.18802619 0.2656838 0.31167513
0.026305376 0.56010973 0.016572446 0.1206325 0.0693585 0.29095542 0.17521831 0.50746095
00000000: 41a7 7b3d 600b b13e 9a16 093e 0a68 f03d
00000010: 7f68 f63c 730f a83e b9ac 533e b24b 363e
00000020: d10f 953e 1188 1c3e 9e65 663e c3a7 923e
00000030: c059 173e bd2e 173e 6994 f43d a49c fc3d
00000040: 95bd d93d 66f5 ad3e 9806 dd3d 35b4 3b3e
00000050: da15 ca3d f089 403e b507 883e e293 9f3e
00000060: 5f7e d73c 5a63 0f3f f0c2 873c 2c0e f73d
00000070: d40b 8e3d 1cf8 943e 6e6c 333e f6e8 013f

tfeb.14.weight f4 [34, 32, 3, 3]
-0.0018328432 -0.0014005596 -0.00095847156 -0.0006087788 -0.0016466324 -0.0006943859 0.0011863641 -0.0024156438
0.00013729719 -0.00028012888 -0.0005698561 -0.001593418 -0.0006056846 0.0007330626 -0.00085382594 -0.0015610026
0.00096134044 -0.00076869363 -0.0003742324 -0.00026799584 -0.0006150447 -0.0010928359 0.0010617862 -0.00019723354
-0.0018860246 0.0028090961 -0.0013832877 -2.7211352e-06 0.00079765415 0.0003770765 -0.0013817761 0.0009023337
-1.4872218e-05 -0.001994117 -0.00019007549 -0.00035863667 -0.0003991034 -0.0016723284 -0.0003275106 0.0006789538
-0.00070021185 0.0013840351 -0.00022048858 -0.0017497212 0.0028711152 -0.0019293565 -0.0002970309 -0.0015172905
8.212286e-05 -0.001576118 -0.00062623667 0.00051886245 -0.00079644413 0.0004554836 -0.00093910657 3.7071106e-05
0.00044455897 -0.0004992339 -0.0017661907 -8.907763e-06 9.3439936e-05 -0.0018288401 0.0018289029 -6.1597434e-06
-0.0027933633 -0.00090009155 -0.00028348455 -0.0003285469 7.55286e-05 -0.00042373745 0.0032925836 -0.00186535
-0.0005291791 -0.000342423 -0.0003178402 -0.0015226633 0.00075158296 -0.0013597787 0.002242253 -0.00071454386
-0.0037337104 0.0012041562 -0.0018978021 -0.0019526342 -0.0006622931 -0.0007318336 -0.00068263226 -0.0015005633
-0.00089386164 0.002786096 -0.00031392623 -8.3319e-05 0.00026610988 -0.0014112219 -0.00038677055 0.00025094734
-0.00066605 -0.001836159 0.0010635819 -0.0011028945 -0.0015016639 -0.00025175628 -0.00030735275 -0.00011916782
-0.0017226401 -3.405526e-05 -0.00094014814 4.03392e-05 -0.0016628058 0.0001439795 -0.0028756072 -0.00036132714
0.0014108502 -0.0036704366 0.0013465169 -0.00081279775 -0.0022133233 0.0002680319 -8.398553e-05 -0.00057384407
-0.000396357 0.00074739254 -0.0004286192 9.884143e-05 -0.0010333714 0.00038844996 0.0007292912 -0.00079659803
-0.0015968267 0.000377695 -0.0022599925 -0.00031391194 -0.0007405799 -0.0011079684 0.003317134 -7.942421e-05
-0.0008368411 -0.001921125 -0.00036994426 -0.0014095171 0.0010234001 -0.0012588479 0.00035132485 -0.0005727583
8.496384e-05 1.1336424e-05 -0.0014242879 -8.0683196e-05 -0.0005578026 -3.2206583e-05 0.0012726027 -0.0019236719
-0.0002652863 -0.001474785 0.0015361535 -0.00046204374 -0.00041988114 0.0015229924 0.00059242896 -0.001624073
0.0008378474 0.00013464654 0.00077035587 9.33678e-05 -0.00060519064 -0.0007817803 -0.00068528595 0.00053581316
-0.0010353688 -0.0022532633 0.0030117722 -0.00042376545 0.00056375575 -0.0013512602 -0.001916596 0.00066722406
-0.000805928 -0.0016534401 -0.00011220042 0.00016166813 0.00025227634 0.00015512152 -0.0017109304 0.00033288886
-0.0008137561 -0.0010804787 -0.002270993 -0.0024626541 0.001238831 -0.00017921743 0.0007681005 0.00012098808
-0.00046244965 0.00023637916 9.5686475e-05 -0.000719926 0.003825922 -0.0033520744 -0.0020155208 -0.0021209586
-0.002251197 0.00093528756 -0.0012957288 -0.0026211822 0.0018273784 -3.16655e-05 -0.0004965945 0.0009381546
0.0003307634 -0.001506386 -0.00091894803 -0.0013096018 0.0006159827 -0.0019927218 -0.0026228158 0.0014668603
0.00014054346 -0.0011022723 -0.0012945797 -0.00021543322 -0.001077484 -0.0010563554 -0.00021977042 -0.0008136991
0.00034580118 0.00018614411 -0.001979763 -0.0019449943 -0.0015958484 -0.0040759123 -0.0008450465 0.0013149263
-0.0015795624 -0.0018639303 0.0010197475 -0.0013021252 -0.000678658 0.00052905304 -0.0023365333 -0.00039008772
2.9575844e-05 -0.0016193006 0.0013632049 -0.0022001143 -0.0023062483 -0.00044199385 -0.001036978 -0.00073601655
-0.0012848207 -0.0018108385 0.00018876608 -0.00088836043 -0.00043100014 0.0007094804 -0.00027295924 0.0011657563
00000000: 033c f0ba fb92 b7ba f041 7bba 7496 1fba
00000010: d1d3 d7ba 7307 36ba c67f 9b3a c74f 1ebb
00000020: 6ff7 0f39 43de 92b9 6562 15ba 3cda d0ba
00000030: cec6 1eba 002b 403a 4ad3 5fba 8e9a ccba
00000040: 7702 7c3a 2882 49ba 9f34 c4b9 cb81 8cb9
00000050: f33a 21ba 7d3d 8fba a22b 8b3a 7ad0 4eb9
00000060: 7c34 f7ba d018 383b 6f4f b5ba bf9c 36b6
00000070: aa19 513a 5ab2 c539 b61c b5ba 978a 6c3a
00000080: b183 79b7 bbaf 02bb 004f 47b9 6607 bcb9
00000090: c03e d1b9 0832 dbba bbb5 abb9 d1fb 313a
000000a0: 6c8e 37ba 8368 b53a f432 67b9 e756 e5ba
000000b0: 5229 3c3b 76e2 fcba d0ba 9bb9 d2df c6ba
000000c0: 6039 ac38 bf95 ceba 082a 24ba 4504 083a
000000d0: 76c8 50ba f9cd ee39 602e 76ba cc7c 1b38
000000e0: b213 e939 05df 02ba 877f e7ba 8d72 15b7
000000f0: 2ff5 c338 b1b5 efba ccb7 ef3a cbaf ceb6
00000100: dc10 37bb 1ff4 6bba a7a0 94b9 d240 acb9
00000110: 1c65 9e38 1429 deb9 63c8 573b c27e f4ba
00000120: 9cb8 0aba 3d87 b3b9 caa3 a6b9 1a94 c7ba
00000130: e105 453a 9a3a b2ba c3f2 123b 3a50 3bba
00000140: 44b1 74bb c7d4 9d3a acbf f8ba 88ef ffba
00000150: bd9d 2dba 86d8 3fba adf2 32ba 8dae c4ba
00000160: 0a52 6aba ef96 363b 7796 a4b9 8cbb aeb8
00000170: aa84 8b39 c0f8 b8ba 77c7 cab9 9591 8339
00000180: dc99 2eba 46ab f0ba e367 8b3a 008f 90ba
00000190: 7bd3 c4ba 28fe 83b9 3024 a1b9 bce9 f9b8
000001a0: 36ca e1ba 8fd6 0eb8 4674 76ba e331 2938
000001b0: 81f2 d9ba 34f9 1639 af74 3cbb 8270 bdb9
000001c0: 47ec b83a b58b 70bb 9c7d b03a ef11 55ba
000001d0: 670d 11bb a286 8c39 6321 b0b8 066e 16ba
000001e0: 23ce cfb9 aaec 433a 4cb8 e0b9 1749 cf38
000001f0: 3172 87ba dfa8 cb39 e72d 3f3a cad2 50ba
00000200: 9d4c d1ba 5d05 c639 621c 14bb 8c94 a4b9
00000210: 7a23 42ba 4039 91ba 4664 593b 8c90 a6b8
00000220: 755f 5bba 42ce fbba 14f5 c1b9 8cbf b8ba
00000230: 9c23 863a edff a4ba 0632 b839 2925 16ba
00000240: 9d2e b238 9231 3e37 2caf baba 7634 a9b8
00000250: 8039 12ba 8e15 07b8 76cd a63a b823 fcba
00000260: 2016 8bb9 934d c1ba c258 c93a 763e f2b9
00000270: 7e23 dcb9 259f c73a 3c4d 1b3a d9de d4ba
00000280: fda2 5b3a e82f 0d39 b5f1 493a 75ce c338
00000290: a8a5 1eba 63f0 4cba c3a4 33ba d075 0c3a
000002a0: 36b5 87ba 7cab 13bb 2761 453b d62c deb9
000002b0: 02c9 133a c51c b1ba 4a36 fbba a6e8 2e3a
000002c0: ea44 53ba 3eb8 d8ba 244d ebb8 7585 2939
000002d0: f543 8439 1ea8 2239 4c41 e0ba 9687 ae39
000002e0: 3f52 55ba d99e 8dba f1d4 14bb 7b64 21bb
000002f0: 4560 a23a 50ec 3bb9 5a5a 493a fbba fd38
00000300: f174 f2b9 8cdc 7739 49ab c838 6bb9 3cba
00000310: 52bc 7a3b 7aae 5bbb d416 04bb c8ff 0abb
00000320: d188 13bb 162e 753a 72d5 a9ba 24c8 2bbb
00000330: a584 ef3a 92d0 04b8 e52d 02ba 7dee 753a
00000340: 506a ad39 ed71 c5ba 8fe5 70ba f2a6 abba
00000350: e679 213a 5398 02bb 8ce3 2bbb aa43 c03a
00000360: d95e 1339 1f7a 90ba e3ae a9ba eae5 61b9
00000370: 5d3a 8dba 6875 8aba 2c72 66b9 6c4e 55ba
00000380: a64c b539 ae2f 4339 e9be 01bb 2eef feba
00000390: c92b d1ba 3b8f 85bb 1c86 5dba 9b59 ac3a
000003a0: 5209 cfba 1f4f f4ba 0ca9 853a 12ac aaba
000003b0: f8e7 31ba 26b0 0a3a 8620 19bb b084 ccb9
000003c0: a419 f837 b63e d4ba 91ad b23a cb2f 10bb
000003d0: 6d24 17bb 69bb e7b9 35eb 87ba 3cf1 40ba
000003e0: 6e67 a8ba a859 edba 82ef 4539 dce0 68ba
000003f0: dcf7 e1b9 6cfc 393a f81b 8fb9 4acc 983a
