trained_models/step_5_retrain_after_step_4/retrain_4C_after_2nd_pruning_prunratio0.85_2024060419/retrained_4Cmodel_ratio85.0_vaacc92.75362396240234_tracc_81.08552631578947@585epoch_20240604221725.pt (torch, 309234 bytes, 62 tensors)

sfeb.0.weight f4 [8, 1, 1, 9]
0	0x3e7e4874	0.24832326
1	0x3e21b1e2	0.15790513
2	0x3e9e6583	0.30936822
3	0x3eb54b91	0.35409215
4	0x3da7a82a	0.081863716
5	0xbe85d9f5	-0.2614285
6	0xbef48ea4	-0.47765076
7	0xbe92fd0d	-0.28708687
8	0xbd819c1a	-0.06328602
9	0x3cdd65e2	0.02702612
10	0x3d233d83	0.039853584
11	0xbd7b77f2	-0.061393686
12	0xbe9eda53	-0.31025943
13	0x3d36b21e	0.04460346
14	0xbe52c214	-0.20581847
15	0xbea3caac	-0.31990564
16	0x3eb39f0a	0.35082275
17	0x3f107c22	0.5643941
18	0xbe478a13	-0.19486265
19	0xbe62788a	-0.22116295
20	0x3e621a8c	0.2208044
21	0x3d9ece71	0.07754219
22	0xbe2aa651	-0.16665007
23	0xbe5c0ddc	-0.21489662
24	0x3e107649	0.14107622
25	0xbea5ca13	-0.32380733
26	0xbed8e1e8	-0.42359853
27	0x3f32b997	0.6981444
28	0x3ec224b1	0.37918618
29	0xbd4b136b	-0.049579065
30	0xbaf39c89	-0.001858608
31	0xbe2fd5f2	-0.17171457
32	0x3be024dd	0.006840332
33	0x3e04fc08	0.12986767
34	0xbc06c148	-0.008224793
35	0x3ddb9b0f	0.107229345
36	0xbf1f561e	-0.6224078
37	0xbeb5e7ef	-0.35528514
38	0x3d4e8d7b	0.050427895
39	0x3d731add	0.05935179
40	0x3e928852	0.2861963
41	0x3e56ccf1	0.20976616
42	0xbe45c8fe	-0.19314954
43	0x3d05356b	0.032521646
44	0xbe1ab9da	-0.15109959
45	0xbea6aac7	-0.32552168
46	0xbd140fbf	-0.03614783
47	0x3e45ef65	0.19329603
48	0x3da76056	0.081726715
49	0xbee147f5	-0.4400021
50	0x3d8398dd	0.06425641
51	0x3f15a8b5	0.5846055
52	0xbd3a12f4	-0.04542823
53	0xbf038ef5	-0.5139001
54	0xbd984561	-0.07435108
55	0xbe5b3c8d	-0.21409817
56	0x3e75b2d4	0.23993999
57	0xbd8e6781	-0.069533356
58	0xbeeff87f	-0.46869275
59	0x3ef06153	0.46949252
60	0xbc2f301d	-0.010692623
61	0xbeee5a4f	-0.46553275
62	0x3ee49f45	0.44652763
63	0x3d42decc	0.047575757
64	0x3c87a3b2	0.016557548
65	0xbe49134b	-0.19636266
66	0xbe014fed	-0.12628146
67	0x3e27c102	0.1638222
68	0x3e4b2044	0.19836527
69	0xbd14c8cf	-0.03632432
70	0x3eaca985	0.33723083
71	0x3f146315	0.5796369

sfeb.1.weight f4 [8]
0	0x3f694bd7	0.9113135
1	0x3f497152	0.7868854
2	0x3f3cb94a	0.7372023
3	0x3f3fe52a	0.7495905
4	0x3f4eb748	0.80748415
5	0x3f0dcd86	0.5539173
6	0x3efbb7bd	0.4916362
7	0x3f36853f	0.7129707

sfeb.1.bias f4 [8]
0	0x3da8e1b8	0.082461774
1	0x3cffc226	0.031220507
2	0x3da93f65	0.08264045
3	0x3e7f49a5	0.24930437
4	0x3d641ed8	0.055693477
5	0x3e320f8d	0.17388745
6	0x3d4a70c8	0.049423963
7	0x3d68c80b	0.0568314

sfeb.1.running_mean f4 [8]
0	0x36be1eda	5.666033e-06
1	0x378fa1df	1.7122306e-05
2	0xb90771ca	-0.00012916993
3	0x390881d0	0.0001301833
4	0xb8aa082e	-8.107755e-05
5	0xb861bba2	-5.3818927e-05
6	0xb77d41be	-1.5095282e-05
7	0x38f729d8	0.00011785672

sfeb.1.running_var f4 [8]
0	0x3cbd8952	0.023136768
1	0x3c4070f4	0.01174568
2	0x3c2161e1	0.009849996
3	0x3c90a991	0.01765898
4	0x3c86436d	0.016389573
5	0x3bdedb3d	0.0068010376
6	0x3af2412b	0.0018482556
7	0x3c6a1fe7	0.014289833

sfeb.3.weight f4 [32, 8, 1, 5]
0	0x3d8065ce	0.06269418
1	0xbe26ea82	-0.16300395
2	0xbc45a032	-0.012062119
3	0x3d5d665e	0.054052703
4	0xbe0ffa54	-0.14060336
5	0xbda6bd89	-0.0814162
6	0xbdfdab84	-0.1238623
7	0xbd2dc6a7	-0.042425778
8	0x3b1bdbe8	0.0023782197
9	0xbcec981c	-0.028881125
10	0x3e76c674	0.24099141
11	0x3e602d7b	0.2189235
12	0x3e814e92	0.25255257
13	0x3e18dfc7	0.14929114
14	0x3dcf28ef	0.10115229
15	0xbdc1e32e	-0.09467159
16	0xbd2a6827	-0.041603234
17	0xbe83c9d7	-0.2573993
18	0xbd127836	-0.035759173
19	0xbddf0802	-0.10890199
20	0x3e39a601	0.18129732
21	0x3e2e4f0d	0.17022343
22	0x3d823a59	0.06358785
23	0x3e3956b8	0.18099487
24	0x3e217542	0.15767387
25	0x3d76a474	0.06021543
26	0xbbdfe9c0	-0.006833285
27	0xbd8e3c00	-0.06945038
28	0x3b4014f7	0.002930937
29	0x3d25a7c8	0.04044321
30	0x3beed59b	0.0072886473
31	0xbd13cc10	-0.03608328
32	0x3d08484d	0.033272076
33	0x3d3fdf7f	0.046844
34	0xbbf51d6f	-0.0074803154
35	0xbd6ccb34	-0.057810977
36	0xbdbc5ff2	-0.091979876
37	0xbe10768d	-0.14107724
38	0xbcb98bee	-0.022649731
39	0xbd69895f	-0.057015773
40	0xbe2ceb72	-0.1688669
41	0xbe25c06c	-0.16186684
42	0xbd1295f5	-0.03578754
43	0x3d88f459	0.066872306
44	0x3d9d20fc	0.07672307
45	0xbc3f39ee	-0.011671526
46	0xbe14fcb5	-0.14549525
47	0xbdebaf5f	-0.11508059
48	0xbd12cbc1	-0.035838846
49	0xbd87d61b	-0.06632634
50	0x3dc30d8b	0.095240675
51	0x3db9ca3b	0.090717755
52	0x3d99c449	0.075081415
53	0x3e743882	0.23849681
54	0x3e91c467	0.28470156
55	0xbe6c6b6b	-0.23087852
56	0xbdf1ac35	-0.11800424
57	0xbddd430a	-0.10803802
58	0xbcb9c703	-0.022677904
59	0xbcdffd63	-0.027342504
60	0x3e3519b0	0.1768558
61	0x3e13131a	0.14362755
62	0x3c5c3968	0.013441421
63	0xbd99cf62	-0.07510258
64	0x3c349a2b	0.011023085
65	0xbb479ac5	-0.003045724
66	0x3e017027	0.12640439
67	0xbcd67b9f	-0.026181994
68	0x3b08eba4	0.0020892406
69	0x3ca94552	0.020662937
70	0xbb70bc5d	-0.0036733367
71	0xbd5797fb	-0.052635174
72	0xbc6dea9e	-0.014521269
73	0xbdd44d83	-0.10366347
74	0xbd0e82a2	-0.03479255
75	0xbd795874	-0.06087537
76	0xbd8a8624	-0.067638665
77	0xbe801178	-0.25013328
78	0xbe343d47	-0.176015
79	0xbde071d4	-0.10959211
80	0xbe122247	-0.14270888
81	0xbe68c0dc	-0.2272982
82	0xbd399311	-0.04530627
83	0xbc3af38d	-0.011410606
84	0xbd989919	-0.07451076
85	0xbe028efc	-0.12749857
86	0xbd6ae0f1	-0.057343427
87	0xbd8575de	-0.06516622
88	0xbe4215fb	-0.18953697
89	0xbe1c98d2	-0.15292671
90	0x3e0816ed	0.13289995
91	0x3e47379b	0.19454806
92	0x3ded2718	0.11579722
93	0x3e3d485b	0.18484633
94	0x3e8fb561	0.2806807
95	0xbe5eb9cf	-0.21750568
96	0xbdca7f75	-0.09887592
97	0xbe529ee0	-0.20568419
98	0xbdefe67d	-0.11713884
99	0xbddf89fb	-0.109149896
100	0xbd4f8f22	-0.05067361
101	0x3c61a426	0.013772046
102	0x3cd4cc95	0.025976459
103	0x3df1255d	0.117747046
104	0x3d2cedf9	0.042219136
105	0xbd0758c3	-0.033043634
106	0x3d56f4fb	0.052479725
107	0xbd1524df	-0.036412116
108	0x3db8a540	0.09015894
109	0x3d295c6f	0.041347917
110	0xbd1fa95a	-0.038979866
111	0xbbe7437c	-0.0070576053
112	0xbd6140f7	-0.054993596
113	0xbdaa859a	-0.08326264
114	0xbe02b5de	-0.1276469
115	0xbe179b70	-0.14805388
116	0xbe816aa0	-0.2527666
117	0xbe835750	-0.25652552
118	0xbdf4defc	-0.119565934
119	0xbe1037cd	-0.14083786
120	0xbde2d778	-0.11076254
121	0x3d669f7c	0.05630444
122	0xbdfd21e5	-0.123599805
123	0xbd6f51ea	-0.05842773
124	0xbe731f36	-0.23742375
125	0xbe06c1ab	-0.13159816
126	0xbd189f3e	-0.03726124
127	0x3d487633	0.04894085
128	0xbd149d4d	-0.036282826
129	0xbdad9c8f	-0.08477127
130	0xbead6f0a	-0.3387378
131	0xbe891097	-0.2677047
132	0xbe52ec43	-0.20597939
133	0xbe61e618	-0.2206043
134	0xbeaf2e35	-0.3421494
135	0x3dba1495	0.09085957
136	0x3e5f7e8c	0.21825618
137	0x3e96d9e0	0.294631
138	0x3e280348	0.16407502
139	0x3de6bfc1	0.11267043
140	0xbdc315ee	-0.09525667
141	0xbe12823d	-0.14307494
142	0xbe919b16	-0.28438634
143	0xbdde71b7	-0.10861533
144	0xbdf5edc7	-0.12008243
145	0x3d192a6a	0.037393965
146	0xbe1e892a	-0.15482011
147	0xbe188a43	-0.14896493
148	0xbe45b9c9	-0.19309153
149	0xbe3814e4	-0.17976719
150	0xbe0904e6	-0.13380775
151	0xbe3161d0	-0.17322469
152	0xbe71c5bd	-0.23610587
153	0xbe1eed23	-0.15520148
154	0xbe0e30bb	-0.13885777
155	0x3e3be7cd	0.18350144
156	0x3e5666d1	0.20937659
157	0x3e81810a	0.25293761
158	0x3eb99f1a	0.36254197
159	0x3ea57a91	0.32320073
160	0xbe1409f9	-0.1445693
161	0xbdb91a4e	-0.0903822
162	0xbe095234	-0.13410264
163	0xbdd256e2	-0.10270478
164	0xbd62c9ba	-0.055368163
165	0x3d8d0fd9	0.06887788
166	0x39c84ac7	0.00038202686
167	0x3b36922b	0.002785812
168	0x3d6d2f42	0.057906397
169	0x3bfde1c0	0.0077478588
170	0xbe0ba079	-0.13635434
171	0xbdb205fe	-0.08692549
172	0xbdef0c01	-0.116722114
173	0xbe3cb9df	-0.18430279
174	0xbdb5c6a2	-0.08875777
175	0xbe57b81f	-0.2106633
176	0xbe02f27b	-0.12787811
177	0xbcae560d	-0.021281267
178	0xb9f30202	-0.00046350068
179	0x3d91d4e7	0.07120686
180	0xbdec9fe9	-0.11553938
181	0xbd25121a	-0.040300466
182	0x3d0f61b9	0.035005305
183	0xbd4c3f1b	-0.04986487
184	0xbdccc1b9	-0.09997887
185	0xbd157ec2	-0.03649784
186	0xbcdef026	-0.027214121
187	0x3c547025	0.01296619
188	0xbd7049da	-0.05866418
189	0xbd0ca0ce	-0.034333043
190	0xbd2f133b	-0.04274295
191	0xbba72630	-0.005100988
192	0xbd1db9ab	-0.038507145
193	0x3aab216b	0.0013056224
194	0xbd606b26	-0.054789685
195	0xbd84071e	-0.0644667
196	0x3c9fb1ab	0.019493898
197	0x3db1bfe0	0.086791754
198	0x3dfa4377	0.12219899
199	0x3e4429b7	0.19156538
200	0xbd018be9	-0.03162757
201	0xbe21b143	-0.15790276
202	0xbe346fd3	-0.17620783
203	0xbe46c4e7	-0.1941105
204	0xbdac9dc1	-0.08428527
205	0x3db2e4fa	0.0873508
206	0x3e7f29cb	0.24918287
207	0x3de8a6a7	0.113599114
208	0x3d8e6a88	0.06953913
209	0x3e218bd2	0.15775993
210	0x3de746df	0.112928145
211	0xbd26e2b4	-0.040743545
212	0xbce75857	-0.028240366
213	0xbd9903a7	-0.074714
214	0xbe403b85	-0.18772705
215	0xbdbd416c	-0.09240994
216	0xbe6d14eb	-0.23152511
217	0xbe58f367	-0.211866
218	0xbda641f6	-0.0811805
219	0x3cc15fe4	0.023605295
220	0xbc222859	-0.009897315
221	0x3c1ebbf8	0.00968837
222	0xbc7bb219	-0.015362286
223	0x3e497006	0.1967164
224	0x3d1f7c6e	0.038937025
225	0x3b040963	0.0020147196
226	0x3d61ec8d	0.055157233
227	0x3ce1c898	0.02756147
228	0x3d51ffd0	0.051269352
229	0xbd8311ac	-0.06399855
230	0x3dae95c5	0.0852466
231	0x3d836d5a	0.064173415
232	0x3db4ebc0	0.08834028
233	0x3dc0a105	0.09405712
234	0x3b94ada7	0.0045373025
235	0xbd4adcce	-0.049526982
236	0xbd61c89d	-0.05512296
237	0x3d54f962	0.051995642
238	0x3de80a8d	0.113301374
239	0x3dfe5c75	0.124199785
240	0x3df3c9ec	0.11903748
241	0x3db13802	0.08653261
242	0x3da78897	0.08180349
243	0x3dacbc07	0.08434301
244	0x3d8c36f6	0.068464205
245	0xbe2c29b6	-0.16812786
246	0xbe52e69b	-0.20595782
247	0xbe75572f	-0.23959039
248	0xbd481295	-0.048845846
249	0xbc8bff71	-0.017089577
250	0xbcb69c35	-0.022291282
251	0xbbb63f08	-0.005561713
252	0x3dd3fea0	0.103513
253	0x3da0efc4	0.07858232
254	0x3e311d76	0.17296395
255	0x3e6159ec	0.22006959

sfeb.4.weight f4 [32]
0	0x3f3d23a4	0.7388251
1	0x3ee8e278	0.45485282
2	0x3f478a09	0.77945
3	0x3f994b88	1.1976175
4	0x3eaba2da	0.33522683
5	0x3ebe804d	0.3720726
6	0x3f14b11c	0.5808275
7	0x3a1c0b5a	0.0005952619
8	0x3edcd81f	0.43133637
9	0x3f0428ea	0.5162493
10	0x3c674fcd	0.014118147
11	0x3f1dd0d5	0.6164678
12	0x3f21f095	0.63257724
13	0x3f419eae	0.7563275
14	0x3f6c12da	0.92216265
15	0xba48ba8a	-0.0007657191
16	0x3f1d0efc	0.6135099
17	0x3ed0bf90	0.4077115
18	0x3f13814d	0.5761917
19	0x3985f4ff	0.00025550273
20	0x3f14ac9f	0.580759
21	0x3f0d9852	0.5531055
22	0x3f3ca6e2	0.7369214
23	0x3ed479e0	0.41499233
24	0x3a243a0f	0.0006264755
25	0x3a4bc7ad	0.00077735895
26	0x3ec96c68	0.3934052
27	0x3f0a879c	0.54113173
28	0x3ecf2b2f	0.40462634
29	0x3f0ec2d9	0.55766064
30	0x3ee7293e	0.45148653
31	0x3ecdea07	0.4021761

sfeb.4.bias f4 [32]
0	0x3e32bc78	0.17454708
1	0xbe4b7196	-0.19867548
2	0xbe0509b1	-0.12991978
3	0xbd64ab4c	-0.055827424
4	0xbd6960b6	-0.056976996
5	0x3b947aa7	0.004531223
6	0x3e0d3d11	0.13792826
7	0xbd89eecb	-0.06734999
8	0x3d060f4c	0.032729432
9	0xbd8b55ac	-0.0680345
10	0xbcc32ef7	-0.023826106
11	0x3d1d1b71	0.03835625
12	0x3da3ab82	0.07991697
13	0x3db9f8d1	0.09080661
14	0x3d2d7539	0.04234812
15	0xbd22f535	-0.03978463
16	0xbd87270c	-0.065992445
17	0x3d8cd68b	0.06876858
18	0xbd6b5b8f	-0.057460364
19	0xbcb5075b	-0.022098234
20	0x3d1e2d3b	0.038617354
21	0xbe118e0a	-0.1421434
22	0xbdc14d76	-0.094386026
23	0xbc4801ee	-0.012207491
24	0xbc9639ec	-0.018338166
25	0xbca59491	-0.020212444
26	0x3d1370f1	0.03599638
27	0x3b5678a6	0.003272572
28	0xbdf27c10	-0.11840069
29	0xbda10095	-0.07861439
30	0xbdf3ea03	-0.119098686
31	0x3d959c19	0.07305164

sfeb.4.running_mean f4 [32]
0	0xba1480ce	-0.00056649453
1	0xbe5a2087	-0.2130147
2	0xbef62371	-0.48073915
3	0xbe9bbef3	-0.3041912
4	0xbec1dca1	-0.3786364
5	0xbe10da02	-0.14145663
6	0xbe241573	-0.16023807
7	0x3c86a8ea	0.016437966
8	0xbe87f698	-0.26555324
9	0xbe5d0393	-0.21583395
10	0xbd398302	-0.045290954
11	0xbea665ea	-0.3249963
12	0xbc6443c7	-0.013932175
13	0x3de7d573	0.11320009
14	0xbe8cc0fd	-0.27490988
15	0xbabc41e3	-0.0014362897
16	0xbeb1ef90	-0.34753084
17	0xbe910613	-0.28324947
18	0xbe9fd2df	-0.3121557
19	0xbc1638ce	-0.009168817
20	0xbea76396	-0.32693166
21	0xbf0a9b60	-0.54143333
22	0xbebb31d2	-0.36561447
23	0xbe882ab0	-0.26595068
24	0xbc9c3119	-0.01906638
25	0xbc879ec9	-0.016555207
26	0xbeaa29bf	-0.33234975
27	0xbe69550d	-0.2278635
28	0xbe9b7e4b	-0.3036979
29	0xbed91465	-0.42398372
30	0xbdc3e97d	-0.09566019
31	0xbd1eab62	-0.038737662

sfeb.4.running_var f4 [32]
0	0x3eb704ca	0.3574584
1	0x3eb8bc79	0.36081293
2	0x3f224cba	0.63398325
3	0x3f995744	1.1979756
4	0x3ea3e251	0.32008603
5	0x3ebdbf10	0.37059832
6	0x3f0340c8	0.51270723
7	0x3be9bddd	0.007133229
8	0x3ea591e6	0.32337874
9	0x3e8c9a60	0.2746153
10	0x3b57aabd	0.0032908164
11	0x3ef4043a	0.47659475
12	0x3edac224	0.42726243
13	0x3f3a5d5f	0.72798723
14	0x3f5cce73	0.86252517
15	0x3b10111d	0.0021982857
16	0x3f0dbabf	0.55363077
17	0x3f0eac13	0.55731314
18	0x3f522238	0.82083464
19	0x3add5279	0.0016885541
20	0x3f23c38a	0.63970244
21	0x3f5313fe	0.8245238
22	0x3f588cfe	0.84590137
23	0x3f0605dc	0.5235269
24	0x3a83b09c	0.001004714
25	0x3a7359df	0.0009283106
26	0x3eefdcb8	0.46848083
27	0x3f0902d2	0.5351993
28	0x3ec8a19f	0.39185807
29	0x3eebdda7	0.46067545
30	0x3e87a347	0.26491758
31	0x3e3b72d3	0.1830552

tfeb.0.weight f4 [13, 1, 3, 3]
0	0x3d0c12c8	0.0341976
1	0x3a2878cd	0.0006426692
2	0xbbb7d04e	-0.0056095487
3	0x3b8edbc9	0.0043596965
4	0x3a033045	0.0005004446
5	0x3ad21514	0.001602801
6	0x3b0359d8	0.0020042565
7	0x3bcc885b	0.006241841
8	0x3bce9889	0.0063048047
9	0x3c157b26	0.009123599
10	0xbc2a4297	-0.010391853
11	0x3c7195a8	0.0147451535
12	0x3c824633	0.015902614
13	0xbc42f2f7	-0.011898748
14	0x3c612c5c	0.013743486
15	0x3c862365	0.0163743
16	0xbbf7c080	-0.0075607896
17	0x3c8a81fd	0.016907686
18	0x3e4c2de0	0.19939375
19	0x3e07d1cd	0.13263626
20	0xbed5afab	-0.41735587
21	0x3ed51b15	0.41622224
22	0x3ef549f5	0.47907987
23	0xbf23e18d	-0.6401604
24	0x3e3fe290	0.1873877
25	0x3e1402f9	0.14454259
26	0xbeeab437	-0.45840618
27	0xbe57ede9	-0.2108685
28	0xbce65fc9	-0.028121846
29	0x3e12c2a2	0.14332059
30	0xbf1b2006	-0.6059574
31	0x3ee7d57b	0.4528006
32	0x3f0fc711	0.56163126
33	0xbe951323	-0.29116163
34	0x3e20bfb5	0.1569813
35	0x3e5a5a87	0.21323596
36	0x3d0c5c90	0.034267962
37	0x3ee13661	0.439868
38	0xbefbe411	-0.49197438
39	0x3db59d97	0.088679485
40	0x3daff4c7	0.085916094
41	0xbeaff166	-0.3436386
42	0xbe23ea2c	-0.16007298
43	0xbd327851	-0.043571774
44	0xbea05e2c	-0.31321847
45	0x3d615794	0.05501516
46	0xbe2475fd	-0.16060634
47	0xbe31cfcb	-0.17364423
48	0x3d12f96e	0.035882406
49	0xbe56c63f	-0.20974062
50	0xbe9789af	-0.29597232
51	0x3e84ec9d	0.25961772
52	0xbe334a6e	-0.17508861
53	0xbe036ea1	-0.1283517
54	0x3f62243d	0.88336545
55	0xbefb9c52	-0.491427
56	0xbf0200c3	-0.5078241
57	0x3f724db5	0.9464982
58	0xbf074a9c	-0.5284822
59	0xbf258374	-0.64653707
60	0x3ee4b778	0.44671226
61	0xbe9a6398	-0.3015411
62	0xbef701db	-0.48243603
63	0xbdf92d07	-0.121667914
64	0xbe2c8d2e	-0.16850731
65	0xbe03fce6	-0.12889442
66	0xbdd65735	-0.10465852
67	0xbe2c3e92	-0.16820744
68	0xbe052634	-0.13002855
69	0x3dd4602b	0.10369905
70	0x3e62122b	0.22077243
71	0x3e031e17	0.12804447
72	0xbe2a430a	-0.16627136
73	0xbe950cd6	-0.29111356
74	0xbdcfa6b4	-0.10139218
75	0xbe27def9	-0.16393651
76	0xbe870fb1	-0.2637916
77	0xbd8dee94	-0.06930271
78	0xbdddfdbf	-0.10839414
79	0xbe414a69	-0.18876041
80	0xbdfa207b	-0.122132264
81	0xbd4452c2	-0.047930487
82	0xbda1c848	-0.07899529
83	0x3d640034	0.055664256
84	0xbde1f404	-0.110328704
85	0xbe18936e	-0.1489999
86	0xbcc0866c	-0.023501597
87	0x3dc844a3	0.097787164
88	0xbee97991	-0.4560056
89	0x3ee12ab7	0.439779
90	0x3ea6a375	0.32546583
91	0x3df778dd	0.120836
92	0x3e026fe7	0.12738
93	0x3e93964c	0.28825605
94	0x3d49c981	0.049264435
95	0x3d812b86	0.063071296
96	0xbd7e4dc4	-0.06208588
97	0xbd976c1b	-0.07393666
98	0xbd0abfca	-0.03387431
99	0xbd840680	-0.06446552
100	0xbe3491a5	-0.17633684
101	0xbd7adbaa	-0.061244644
102	0xbe40bf5f	-0.18823002
103	0xbe823090	-0.25427675
104	0xbe0f06f8	-0.13967502
105	0x3c961973	0.018322682
106	0xbdfc55e1	-0.123210676
107	0xbd35e39e	-0.044406526
108	0xbe89e8b1	-0.26935342
109	0xbe5be6b3	-0.21474724
110	0x3eb3de10	0.35130358
111	0xbf294889	-0.66126305
112	0xbf124d2a	-0.57148993
113	0x3f91142c	1.1334281
114	0xbebc46f5	-0.36772886
115	0xbe9be738	-0.30449843
116	0x3eac66c9	0.3367217

tfeb.1.weight f4 [13]
0	0xba5dc5b5	-0.00084599416
1	0xbb143311	-0.0022613446
2	0x3e9e46fd	0.30913535
3	0x3e98568e	0.29753536
4	0x3ebaa9ae	0.3645758
5	0x3eab09ae	0.33405823
6	0x3f1dd1eb	0.61648434
7	0x3e9f6793	0.31133708
8	0x3f6ada3c	0.9173925
9	0x3ebf99ed	0.37422124
10	0x3e7d0d1e	0.24712035
11	0x3f02a2fc	0.51029944
12	0x3f01f1fc	0.50759864

tfeb.1.bias f4 [13]
0	0xbc4acc6a	-0.012377838
1	0xbc70009f	-0.014648586
2	0x3e21481e	0.15750167
3	0x3e667bc7	0.22508155
4	0x3ea75cfe	0.32688135
5	0x3ebd4487	0.36966345
6	0x3d2a9cd1	0.041653458
7	0x3d3deb14	0.046366766
8	0xbe8e6ba7	-0.27816507
9	0xbc7075b9	-0.014676505
10	0x3e412565	0.18861921
11	0x3d4b6056	0.04965242
12	0x3e0af2f3	0.1356924

tfeb.1.running_mean f4 [13]
0	0x3c98ac3b	0.018636813
1	0x3cac8da7	0.021063639
2	0x3c64e372	0.013970243
3	0x3e12aa38	0.14322746
4	0xbe876f44	-0.26452076
5	0xbe9e5f28	-0.30931973
6	0xbe88efc6	-0.26745433
7	0xbe15776c	-0.14596337
8	0xbf0d421e	-0.5517901
9	0xbde9eb02	-0.11421777
10	0x3e9da67c	0.3079108
11	0xbec9f992	-0.3944822
12	0xbe5df403	-0.21675114

tfeb.1.running_var f4 [13]
0	0x3a4c5c0b	0.0007795698
1	0x3a70e340	0.00091891363
2	0x3dce5e41	0.10076571
3	0x3e0d73f3	0.13813762
4	0x3e443c42	0.19163612
5	0x3e602ab7	0.21891294
6	0x3ec09687	0.37614843
7	0x3e190c9b	0.14946215
8	0x3f1998b9	0.5999866
9	0x3d597d05	0.053097744
10	0x3e832198	0.25611567
11	0x3ea6b868	0.32562566
12	0x3e845144	0.2584325

tfeb.4.weight f4 [25, 13, 3, 3]
0	0x3b1d6e02	0.0024021869
1	0xbb2c7cd1	-0.0026319514
2	0x3a905dbc	0.0011014263
3	0xba5fe2b9	-0.0008540559
4	0xbba29c4b	-0.004962479
5	0xbb452ffc	-0.0030088415
6	0x3b18ea45	0.0023332995
7	0xbabde6b2	-0.0014488308
8	0xb9d8213c	-0.00041223492
9	0x3ae832c9	0.001771533
10	0xbbb1f77c	-0.0054311138
11	0x3b7e64b7	0.0038817355
12	0x3b1263b2	0.0022337255
13	0xbbd4ab00	-0.0064901114
14	0x3b481de7	0.0030535401
15	0x3b425840	0.0029654652
16	0xbb469c03	-0.0030305393
17	0x3b9b750b	0.004744177
18	0x3d99e161	0.07513691
19	0xbb30d2d8	-0.0026981141
20	0x3d8f3a64	0.06993559
21	0xbdcdf08d	-0.10055647
22	0xbe3c3707	-0.18380366
23	0xbe0aa67c	-0.13540071
24	0x3d660e55	0.05616601
25	0xbde10edc	-0.10989162
26	0xbd038b7d	-0.03211545
27	0xbcd8a7db	-0.026447227
28	0xbd839309	-0.06424529
29	0xbc900136	-0.017578702
30	0xbd9c8d9d	-0.07644198
31	0xbd65e4cf	-0.056126412
32	0xbb6f7edc	-0.003654412
33	0xbdd99010	-0.10623181
34	0xbcd2b5e1	-0.025721492
35	0x3c7c30f4	0.015392531
36	0x3da1a6f4	0.07893172
37	0x3d4bccca	0.04975585
38	0x3dd02cbb	0.10164782
39	0xbcb9e26a	-0.02269097
40	0xbd63ffb2	-0.055663772
41	0xbd7f9818	-0.062400907
42	0x3cdbb17f	0.026818035
43	0x3c1199a3	0.0088867275
44	0x3cb73ae0	0.022366941
45	0xbd8283da	-0.06372805
46	0xbc21ccea	-0.0098755155
47	0xbd3cb0a7	-0.046066906
48	0x3cc46423	0.02397353
49	0x3cc8ccb9	0.024511682
50	0xbd12a84e	-0.03580504
51	0x3d407b04	0.046992317
52	0xb91908a2	-0.00014594433
53	0x3bf6fe53	0.007537642
54	0x3dbbd7fb	0.091720544
55	0x3da97ac2	0.08275367
56	0xbd2ff72a	-0.042960323
57	0xbe202b20	-0.15641451
58	0xbd306da0	-0.043073297
59	0xbe940394	-0.2890898
60	0x3d03db5a	0.03219161
61	0xbe0613ee	-0.1309354
62	0xbde0c450	-0.10974944
63	0xbd79c622	-0.06097997
64	0xbcfb47b7	-0.030673845
65	0x3c44cd68	0.012011863
66	0x3d7250d5	0.05915912
67	0x3d92e121	0.07171846
68	0x3da950e6	0.08267383
69	0x3be4887b	0.0069742776
70	0xbbb3c341	-0.0054859226
71	0xbc347209	-0.011013516
72	0xbb90ad8e	-0.0044152206
73	0x3bb40d5e	0.0054947576
74	0x3d2b4f78	0.041823834
75	0x3cf3157b	0.029673329
76	0xba7263f7	-0.00092464633
77	0xba73721c	-0.0009286718
78	0x3db1d754	0.08683649
79	0x3d026cca	0.03184203
80	0xbb8b4bd9	-0.004250985
81	0x3b246a6c	0.0025087846
82	0xbdf13ffb	-0.117797814
83	0x3cfd650f	0.030931978
84	0x3b58883f	0.0033040193
85	0xbddc97a6	-0.10771112
86	0x3d00c9d2	0.03144247
87	0xbc91bb6a	-0.017789561
88	0xbd8f9977	-0.07011693
89	0x3c9fe674	0.019519068
90	0x3d7fa566	0.062413596
91	0x3dcd2256	0.10016315
92	0x3da52e73	0.080655
93	0xbe1a3b8a	-0.15061775
94	0xbda18e1e	-0.07888435
95	0xbd947784	-0.07249358
96	0xbd465f02	-0.04843045
97	0xbcd90f66	-0.0264966
98	0xbc754ad1	-0.014971451
99	0xbd3ac112	-0.045594282
100	0xbc81d8dd	-0.015850479
101	0xbc89c3d4	-0.016817011
102	0x3d8a3be3	0.06749704
103	0x3d49efaf	0.049300846
104	0x3c7f87d7	0.015596352
105	0x3d206933	0.039162826
106	0x3cb1ff2d	0.021728123
107	0xbc858a4f	-0.016301302
108	0x3d12e643	0.035864126
109	0xbe4012c1	-0.18757154
110	0xbd0e3982	-0.034722812
111	0x3d698632	0.057012744
112	0xbe3e4df2	-0.18584421
113	0xbc5bcca4	-0.013415489
114	0xbbdb9eb1	-0.006702267
115	0xbd52072a	-0.051276363
116	0xbc207058	-0.00979241
117	0x3ac07a5f	0.0014684907
118	0xbab0bb8b	-0.0013483627
119	0xb948472f	-0.00019100004
120	0xba37534c	-0.0006993308
121	0xba447ca5	-0.000749538
122	0xba26689e	-0.00063479866
123	0x3b0ba5c4	0.002130852
124	0x3a94da69	0.0011356595
125	0xba0fbd70	-0.00054832455
126	0xbb2a62c6	-0.0025998815
127	0xbb2d0911	-0.002640311
128	0xba945229	-0.001131599
129	0x3b3108d6	0.0027013323
130	0x3a9da2d8	0.0012026681
131	0x3b116bac	0.0022189422
132	0x3b2d5c57	0.0026452744
133	0x3b01bfe3	0.0019798211
134	0x3b6664f7	0.0035155395
135	0xbcfd965a	-0.030955482
136	0xbc92aa00	-0.017903328
137	0xbda82891	-0.082108624
138	0xbd072d1b	-0.033002
139	0x3d5893a1	0.052875165
140	0xbd33d970	-0.043908536
141	0x3d2327c3	0.03983284
142	0x3d4a615c	0.049409255
143	0x3bb4e764	0.005520748
144	0x3d801866	0.06254654
145	0x3cc79ce3	0.024366802
146	0xbcf1d810	-0.029521972
147	0x3cd388c1	0.025822045
148	0xbda2e0b5	-0.07953016
149	0xbe14b635	-0.14522631
150	0x3d5f37ce	0.05449658
151	0xbc66be47	-0.014083452
152	0xbd72b441	-0.059253935
153	0xba704ea5	-0.00091669924
154	0xbdaab135	-0.08334581
155	0xbd942929	-0.07234413
156	0xbddc61d6	-0.10760848
157	0xbe0df4ab	-0.13862865
158	0xbd9d8a4d	-0.076923944
159	0xbd8c293a	-0.06843801
160	0xbd80f54e	-0.06296788
161	0xbc5044eb	-0.012711744
162	0x3cabaed6	0.020957392
163	0x3ab8af21	0.0014090278
164	0xbcc51c34	-0.0240613
165	0xbdb3b4fe	-0.08774756
166	0xbd8efecd	-0.06982193
167	0xbd2be94a	-0.04197053
168	0xbdc8a85e	-0.097977385
169	0xbdac5de0	-0.08416343
170	0xbc9e3522	-0.019312445
171	0xbd442e40	-0.04789567
172	0xbda4a1cc	-0.08038673
173	0xbe3a838b	-0.18214242
174	0xbe4ca508	-0.1998483
175	0xbd498911	-0.049202982
176	0xbe334a8d	-0.17508908
177	0xbd8f181a	-0.06987019
178	0xbd176f4a	-0.036971368
179	0xbdb00a43	-0.08595707
180	0x3db9204a	0.09039362
181	0x3db8bb1d	0.09020064
182	0x3d7528bc	0.0598533
183	0xbd9e1a8c	-0.07719907
184	0xbda37755	-0.07981745
185	0xbd821fba	-0.063537076
186	0xba82d7ed	-0.0009982564
187	0x3c8db030	0.017295927
188	0x3d650672	0.05591435
189	0x3d23f89a	0.040032007
190	0x3c0334cb	0.008008192
191	0xbbae5631	-0.0053203334
192	0xbb4547ce	-0.0030102613
193	0xbcf5d877	-0.030010445
194	0x3b9c0f6b	0.00476258
195	0xbc7226bd	-0.014779744
196	0xbce98df7	-0.028510077
197	0x3cb43201	0.0219965
198	0x3cf56fde	0.029960569
199	0xbd395e7f	-0.045256134
200	0xbcaa8933	-0.020817375
201	0xbd2b5fae	-0.041839294
202	0xbe19b506	-0.15010461
203	0xbdab39a0	-0.083606005
204	0xbd1c3df3	-0.038145017
205	0xbd5c116c	-0.053727552
206	0xbc392b4c	-0.011301827
207	0xbd211107	-0.03932288
208	0x3a0f3ef4	0.0005464398
209	0xbd688b1a	-0.056773283
210	0x3c5b6886	0.01339162
211	0x3dcb4d1c	0.09926817
212	0xbc6ee9b8	-0.01458209
213	0x3da08234	0.07837334
214	0x3df2e96b	0.11860927
215	0x3cc5f960	0.024166763
216	0x3d9d2fde	0.076751456
217	0x3d8167ad	0.06318603
218	0x3d3b42c6	0.045717977
219	0xbcef37aa	-0.029201347
220	0xbd2d6628	-0.042333752
221	0xbc701fef	-0.014656051
222	0xbd99a5e4	-0.07502344
223	0xbd78b21e	-0.06071674
224	0xbb655a65	-0.0034996506
225	0x3d02f509	0.031971965
226	0xbdb22f45	-0.08700422
227	0xbdf09c28	-0.117485344
228	0xbc4a6197	-0.012352369
229	0xbe605720	-0.21908236
230	0xbe4ee8ef	-0.20206045
231	0xbda6c7c5	-0.08143572
232	0xbdfc3b7b	-0.123160325
233	0xbdd3577e	-0.10319422
234	0xba03a28b	-0.0005021474
235	0x3a95a3f6	0.0011416662
236	0x3aa8efe8	0.001288888
237	0xbb19d702	-0.0023474102
238	0xbc1a274a	-0.009408781
239	0xbb5f1190	-0.0034037568
240	0xbbb11b3b	-0.0054048575
241	0xba80eba6	-0.0009835854
242	0xbb40bd96	-0.0029409877
243	0xbb2a7e7e	-0.0026015337
244	0x3aa0e3fa	0.0012274974
245	0xb8e3897a	-0.000108498105
246	0xbbdb10ff	-0.0066853757
247	0xbb418516	-0.0029528788
248	0xbb9b9b2c	-0.0047487225
249	0xbb4983bf	-0.0030748693
250	0xbacae03b	-0.0015478203
251	0x3ad2d138	0.001608408
252	0xbcbc4f6c	-0.02298709
253	0xbd97e38e	-0.074164495
254	0x3db8c3b5	0.09021703
255	0xbd71a071	-0.0589909

tfeb.5.weight f4 [25]
0	0x3ee88c0a	0.4541934
1	0x3e3f929d	0.18708272
2	0x3ea4a572	0.32157475
3	0x3e9335e3	0.2875205
4	0x3eeb19b3	0.45918044
5	0x3ec3d4dc	0.38248336
6	0x3e82574c	0.25457227
7	0x3e8b5420	0.2721262
8	0x3f251e9b	0.64499825
9	0x3ea69769	0.32537392
10	0x3e6adb1f	0.2293515
11	0x3f166f07	0.58763164
12	0x3f0004c3	0.50007266
13	0x3f1527cd	0.58263856
14	0x3e3d8019	0.18505897
15	0x3e762fc0	0.24041653
16	0x3eab1217	0.3341224
17	0x3e6a2112	0.22864178
18	0x3ef189ec	0.4717554
19	0x3e4ed6b1	0.20199086
20	0x3eeaa77d	0.45830908
21	0x3e440162	0.19141153
22	0x3e61a759	0.22036494
23	0x3da8bb70	0.08238876
24	0x3e669f46	0.22521695

tfeb.5.bias f4 [25]
0	0x3d0cbeb6	0.034361564
1	0x3e77ed24	0.24211556
2	0xbbe286a6	-0.006913024
3	0x3d22aa46	0.039713167
4	0xbd4afca2	-0.049557336
5	0x3e0e0632	0.13869551
6	0x3e2b3878	0.1672076
7	0x3d3fa551	0.046788517
8	0xbdaba032	-0.08380164
9	0xbd2cda28	-0.042200238
10	0x3e04d321	0.12971164
11	0xbd7ba088	-0.06143239
12	0xbe36e5e7	-0.17861138
13	0xbdea36b0	-0.11436212
14	0x3e2a63cd	0.16639633
15	0x3e158b88	0.14604008
16	0xbc564fef	-0.013080581
17	0xbb9c1a8b	-0.0047639064
18	0xbd7371d3	-0.059434723
19	0x3e9e94fc	0.3097304
20	0xbdfbbfec	-0.122924656
21	0x3ea40173	0.32032356
22	0x3e76ee03	0.24114232
23	0x3d8b5558	0.068033874
24	0xbdab8bac	-0.0837625

tfeb.5.running_mean f4 [25]
0	0xbef1f133	-0.47254333
1	0xbf856227	-1.0420579
2	0xbd3e3121	-0.04643357
3	0x3d436ea5	0.04771294
4	0xbf2ce182	-0.675316
5	0xbef569d1	-0.47932294
6	0xbf064ed5	-0.5246404
7	0xbecb7dd5	-0.3974444
8	0xbefb5cc3	-0.4909421
9	0xbeef5389	-0.4674342
10	0xbf052e90	-0.52024174
11	0xbef24da5	-0.47324863
12	0x3e2115bf	0.15730952
13	0xbea4d9d9	-0.32197455
14	0xbed1514b	-0.40882334
15	0xbe30e53c	-0.17274946
16	0xbf28d991	-0.6595698
17	0xbe4da0b4	-0.20080835
18	0xbedb7db2	-0.42869335
19	0xbeb29ca4	-0.34885132
20	0xbc708a13	-0.014681357
21	0xbf2fc94c	-0.6866653
22	0xbe11c927	-0.1423689
23	0xbe794b8c	-0.24345225
24	0x3de9a77a	0.11408897

tfeb.5.running_var f4 [25]
0	0x3e40e107	0.18835841
1	0x3e406c92	0.18791416
2	0x3dfedab2	0.124440566
3	0x3d343f44	0.044005647
4	0x3e4e1da6	0.20128497
5	0x3e1279bd	0.14304252
6	0x3dd20392	0.10254587
7	0x3d7f5ecc	0.062346265
8	0x3e84d0a2	0.25940424
9	0x3d9d81e2	0.07690789
10	0x3e1bf6b3	0.15230827
11	0x3e97bd49	0.296366
12	0x3dd0251d	0.10163329
13	0x3e0624fc	0.13100046
14	0x3db5902d	0.0886539
15	0x3deb9dd2	0.11504711
16	0x3db28efd	0.08718679
17	0x3d080c52	0.033214875
18	0x3e06dcb6	0.13170132
19	0x3dbdd28c	0.09268674
20	0x3dfef9b0	0.12449968
21	0x3e8e3720	0.27776432
22	0x3e07b56a	0.13252798
23	0x3c88407b	0.01663231
24	0x3d11c0f2	0.035584398

tfeb.7.weight f4 [28, 25, 3, 3]
0	0x3c90597f	0.0176208
1	0x3c7c28c4	0.015390579
2	0x3d1ca072	0.03823895
3	0x3cdee229	0.027207451
4	0x3cbd9343	0.023141509
5	0x3c1d5875	0.009603609
6	0x3bdc3429	0.006720085
7	0x3d0d359a	0.034474947
8	0x3cf53835	0.029934028
9	0x3c08470e	0.008317722
10	0xbc8accb1	-0.016943308
11	0xbcceb87d	-0.025234455
12	0x3da19ea7	0.07891589
13	0x3dcd5356	0.10025661
14	0x3d8e2d18	0.06942195
15	0x3d353801	0.044242863
16	0x3cd13fc1	0.025543096
17	0xbc172083	-0.00922406
18	0xbcfd2277	-0.030900223
19	0xbc68d261	-0.0142103145
20	0xbce87c57	-0.028379602
21	0xbdebfbfe	-0.11522673
22	0xbdab23ac	-0.08356413
23	0xbd7abc81	-0.061214928
24	0xbce86f52	-0.028373394
25	0x3c726ad5	0.014795979
26	0x3d19c66d	0.03754275
27	0xbd148cf9	-0.036267255
28	0xbcb1edd4	-0.02171985
29	0xbd05be2f	-0.032652076
30	0xbd309005	-0.043106098
31	0xbd426c08	-0.047466308
32	0xbc97f82f	-0.01855096
33	0xbc4a4664	-0.012345884
34	0xbce67b29	-0.0281349
35	0x3d9ec77a	0.07752891
36	0x3ba75d13	0.005107531
37	0x3d2ac947	0.04169586
38	0x3d94f521	0.07273317
39	0x3d05a1b3	0.03262491
40	0x3d6f346a	0.058399595
41	0x3d943ca2	0.07238127
42	0x3b9a0690	0.0047004893
43	0x3cddffbc	0.027099483
44	0x3d663928	0.056206852
45	0xbd6b292a	-0.057412304
46	0xbd403b87	-0.04693177
47	0x3aa6b254	0.0012717941
48	0xbc6230c7	-0.013805575
49	0x3cde5bc9	0.027143376
50	0x3c969228	0.01838024
51	0xbd15c8f9	-0.036568616
52	0x3c7c2d9a	0.015391732
53	0x3c99f866	0.018795203
54	0xbdea5176	-0.11441319
55	0xbd1a61e8	-0.037691027
56	0xbd74ef0c	-0.059798285
57	0x3b4736eb	0.0030397724
58	0xbb803687	-0.00391275
59	0xbd46e3a2	-0.04855693
60	0x3c56a0d1	0.013099865
61	0x3d29411e	0.041321866
62	0x3b11d105	0.002224983
63	0xbc5ecf19	-0.013599181
64	0xbc6e0920	-0.014528543
65	0xbba8cb27	-0.005151171
66	0x3c1796a2	0.009252222
67	0x3d5c3f49	0.05377129
68	0x3cc6b8bb	0.024258008
69	0x3c1ec12a	0.009689609
70	0x3cff9dec	0.031203233
71	0x3c8afc4b	0.016966006
72	0xbd1d7df2	-0.03845019
73	0xbb442ba3	-0.0029933236
74	0xbd043ec5	-0.032286424
75	0x3d1d6281	0.03842402
76	0x3deb5612	0.11491026
77	0x3d931ec1	0.071836
78	0x3c163de3	0.009170028
79	0x3d4d7197	0.050157156
80	0x3d73f232	0.059557147
81	0x3c3d027f	0.01153624
82	0x3bd8a7e1	0.0066118096
83	0x3c9e88aa	0.019352276
84	0x3bdae3b1	0.006679975
85	0x3c99a2ab	0.018754324
86	0x3c3e48a4	0.011613999
87	0x3c9c21f8	0.019059166
88	0x3ceb0389	0.02868821
89	0x3c85bd46	0.016325604
90	0xbd0afda1	-0.033933286
91	0xbd03be7a	-0.032164074
92	0xbd895fa0	-0.06707692
93	0x3d8c4216	0.068485424
94	0x3daff966	0.08592491
95	0x3d82bc68	0.06383592
96	0x3cd78dcc	0.026312731
97	0x3bfe06af	0.0077522616
98	0xbd638e21	-0.055555467
99	0x3c25eea5	0.010127698
100	0x3d376629	0.044775162
101	0x3d452f36	0.048140727
102	0x3cfb5b6a	0.030683238
103	0x3dbe2a12	0.09285368
104	0x3d402f83	0.04692031
105	0xbd1909b5	-0.037362773
106	0x3bbaf4ab	0.005705436
107	0xbd43e664	-0.04782714
108	0xbd24ec70	-0.040264547
109	0xbbe85b63	-0.0070909723
110	0xbc2fcf1d	-0.010730532
111	0xbd1fff69	-0.039061937
112	0xbcc6e7c0	-0.024280429
113	0xbba696f5	-0.0050839134
114	0x3b4a29c3	0.0030847646
115	0xbce0b73f	-0.027431129
116	0x3d5afb46	0.05346229
117	0xbcbbd65f	-0.022929369
118	0xbc8afdde	-0.016966756
119	0x3a21b359	0.00061683875
120	0xb932bbb9	-0.00017045335
121	0xbc035deb	-0.008017997
122	0xbce60a8d	-0.028081203
123	0x3cb2b465	0.021814534
124	0xbb1cff33	-0.0023955822
125	0xbd13998c	-0.036035106
126	0xbcb8087f	-0.022464989
127	0xbcc43a74	-0.023953654
128	0xbbacdf11	-0.005275615
129	0xbcea43a7	-0.028596712
130	0xbc8e9364	-0.017404266
131	0xbcb8d8b8	-0.022564277
132	0x3d53ba36	0.051691256
133	0x3da90b00	0.08254051
134	0x3d9285aa	0.07154401
135	0x3d934ffc	0.0719299
136	0x3d6afa85	0.05736782
137	0x3d10934e	0.03529673
138	0xbc10ca57	-0.008837304
139	0xbadb4b4d	-0.0016730815
140	0x3d1b853d	0.037968863
141	0xbda0c9d8	-0.07850999
142	0xbda2203d	-0.07916305
143	0xbd0ab80b	-0.033866923
144	0xbd3a0ad3	-0.04542048
145	0xbcdf9ea3	-0.027297324
146	0xbc1486ed	-0.009065372
147	0x3ac942a9	0.0015354949
148	0xbb8f6da6	-0.004377085
149	0xbc2853e2	-0.0102739055
150	0x3aa6ffdc	0.0012741047
151	0x3cd002a7	0.02539189
152	0x3d1fb098	0.038986772
153	0x3a84c395	0.0010129089
154	0x3c891a33	0.016736126
155	0x3d2c8c69	0.042126093
156	0xbc9d6ea8	-0.019217804
157	0xbcc03722	-0.02346379
158	0x3bff16fb	0.007784722
159	0xbc2573e7	-0.010098434
160	0xbc5b1888	-0.013372548
161	0xbc0555ac	-0.008138102
162	0xbbc27d15	-0.005935321
163	0xbc994592	-0.018709932
164	0xbcd8a3ed	-0.026445353
165	0xbbcdd781	-0.0062817936
166	0x3d19f6bb	0.037588816
167	0x3ce7e528	0.028307512
168	0x3d1d1f6e	0.03836005
169	0x3d8e36b5	0.06944028
170	0x3d3023fd	0.04300307
171	0x3cf67fe6	0.030090284
172	0x3c2fda82	0.010733249
173	0x3cc64c90	0.02420643
174	0xbb025e02	-0.0019892459
175	0xbcdbaaed	-0.026814902
176	0x3cf89f1c	0.030349307
177	0xbc037210	-0.0080228
178	0xbcce8ea8	-0.025214508
179	0x3c8d254a	0.017229695
180	0xbd13c283	-0.036074173
181	0xbc9055d5	-0.017619053
182	0x3cb67f3c	0.022277467
183	0xbd2332b5	-0.03984328
184	0xbd5c3ced	-0.05376904
185	0xbd698085	-0.05700733
186	0x3b181ef3	0.0023211807
187	0xbbfe3787	-0.007758084
188	0xbcda9abc	-0.026685111
189	0xbd6fad4d	-0.058514882
190	0xbcc9dd68	-0.024641708
191	0xba3b6137	-0.000714797
192	0x3d8ed0d8	0.069734275
193	0x3dbdeada	0.0927331
194	0x3dd5b15a	0.10434218
195	0xbce940f9	-0.028473364
196	0xb997a2ab	-0.0002892216
197	0x3d74e40e	0.059787802
198	0x3d04c876	0.032417737
199	0x3d0be7d5	0.03415664
200	0x3cc8a1ae	0.024491157
201	0xbd2528bc	-0.04032205
202	0xbd78a3f4	-0.060703233
203	0xbd9927e7	-0.07478314
204	0x3da858da	0.08220072
205	0x3dc61e42	0.0967374
206	0x3db4fae1	0.08836914
207	0x3bbe7f14	0.0058134887
208	0xbb84d76a	-0.0040539997
209	0xbb5ccdd5	-0.0033692021
210	0x3cec004c	0.028808735
211	0x3cbef020	0.02330786
212	0x3d2244cb	0.039616387
213	0x3c63524e	0.013874603
214	0xbc133ae2	-0.008986207
215	0x3c6a22b0	0.014290497
216	0xbbde09b5	-0.0067760595
217	0xbc934552	-0.01797739
218	0x3be69956	0.007037322
219	0x3c5a2d37	0.013316444
220	0x3cb3b9e3	0.021939224
221	0x3d87e769	0.06635935
222	0xbcb81023	-0.022468632
223	0xbce4e818	-0.027942702
224	0xbbebc62f	-0.007195256
225	0x3db0fb56	0.086416885
226	0xbd532a88	-0.051554233
227	0xbd7f9295	-0.06239565
228	0x3d4497e8	0.04799643
229	0xbe0323c4	-0.12806612
230	0xbe0018d9	-0.12509479
231	0x3e269b57	0.16270195
232	0xbd64a11a	-0.0558177
233	0xbd909b7f	-0.070609085
234	0x3d182d16	0.037152372
235	0x3c2b3d07	0.010451562
236	0x3d572a99	0.05253086
237	0x3da69d63	0.08135488
238	0x3d4ad68a	0.049521007
239	0x3bb26c07	0.005445007
240	0x3d224a01	0.039621357
241	0xbc52a49b	-0.012856628
242	0xbcef6a3d	-0.029225463
243	0xbd078659	-0.03308711
244	0x3db3d6f3	0.08781233
245	0x3d54e94b	0.051980298
246	0xbd4ee774	-0.0505137
247	0xbd72d8d9	-0.059288833
248	0xbd776b77	-0.06040522
249	0xbcae3f00	-0.021270275
250	0xbd7551bd	-0.059892405
251	0xbe1a6f0b	-0.15081422
252	0x3cbb81ff	0.022889135
253	0xbc31a7fa	-0.010843271
254	0xbdaa4ba3	-0.08315208
255	0xbd7c736f	-0.061633524

tfeb.8.weight f4 [28]
0	0x3e6fcc87	0.23417865
1	0x3efcba43	0.49360856
2	0x3e7d67e9	0.2474667
3	0x3eadbd2b	0.33933386
4	0x3ebceeff	0.3690109
5	0x3ebf26ac	0.37334192
6	0x3e907716	0.28215855
7	0x3e8c4fe6	0.27404708
8	0x3e167b1d	0.14695401
9	0x3ed9aa69	0.42512825
10	0x3ea8b026	0.3294689
11	0x3ee14f73	0.44005927
12	0x3e9f6797	0.3113372
13	0x3e79caf0	0.24393821
14	0x3e51cded	0.2048871
15	0x3eb6ba6a	0.35689098
16	0x3ed0fe2e	0.40818924
17	0x3efb05b1	0.4902778
18	0x3ee28216	0.44239873
19	0x3ec46754	0.38360083
20	0x3f030a25	0.51187354
21	0x3eb7b462	0.3587981
22	0x3e85da74	0.2614323
23	0x3e9b0c05	0.30282608
24	0x3eff3564	0.4984542
25	0x3ebcd9d9	0.36884955
26	0x3ec434cb	0.38321528
27	0x3e6fad70	0.23406005

tfeb.8.bias f4 [28]
0	0x3e1a5b2a	0.15073839
1	0xbdc90b6e	-0.09816633
2	0x3cff0a40	0.031132817
3	0xbd792382	-0.06082488
4	0xbddfe6db	-0.10932704
5	0x3d09096c	0.03345625
6	0x3c54c6b9	0.012986832
7	0x3dace5e1	0.084422834
8	0x3d315197	0.0432907
9	0xbd67a081	-0.056549553
10	0xbdf451ff	-0.11929702
11	0xbd9c4975	-0.07631198
12	0xbd73079c	-0.05933343
13	0x3db2ccd7	0.08730476
14	0x3e3e049d	0.18556447
15	0xbd2d648c	-0.042332217
16	0xbddc271f	-0.10749649
17	0xbdd3633b	-0.10321661
18	0xbd5419e2	-0.051782496
19	0xbdc1552f	-0.094400756
20	0xbe2a287a	-0.16617003
21	0xbc8b624c	-0.017014645
22	0x3dc0f7ee	0.09422289
23	0xbccc5e36	-0.024947267
24	0xbccd19be	-0.025036689
25	0xbd1280f7	-0.03576752
26	0xbced9532	-0.029001806
27	0x3dd9a031	0.10626257

tfeb.8.running_mean f4 [28]
0	0x3e71818f	0.23584579
1	0xbea4df4e	-0.32201618
2	0xbe0fdb3c	-0.14048475
3	0xbde8ad56	-0.11361186
4	0xbebf2cfd	-0.3733901
5	0x3bb8313e	0.0056211045
6	0xbe9c2e7a	-0.3050421
7	0xbea64e4d	-0.32481614
8	0xbd85a62a	-0.06525834
9	0x3d551153	0.052018475
10	0x3e00af19	0.12566794
11	0x3e3184fe	0.17335889
12	0xbdd4f2fc	-0.10397908
13	0x3d178ac1	0.03699756
14	0x3e0f9b1f	0.14024018
15	0xbef05f6b	-0.46947798
16	0xbe86c5e1	-0.26322845
17	0xbca9b843	-0.020717746
18	0xbe478433	-0.19484024
19	0x3d139210	0.036027968
20	0xbe8a82ea	-0.27053005
21	0xbe67fb9b	-0.22654574
22	0xbf3a26e7	-0.7271561
23	0xbe872ddb	-0.26402172
24	0xbdef862d	-0.11695514
25	0xbdb256ef	-0.087079875
26	0xbed23b14	-0.41060698
27	0x3eef2685	0.46709076

tfeb.8.running_var f4 [28]
0	0x3d1323c9	0.0359228
1	0x3dfb0378	0.12256521
2	0x3c8a327f	0.016869782
3	0x3d2c46b0	0.0420596
4	0x3da7bd1d	0.08190367
5	0x3d107c40	0.035274744
6	0x3ccf8bf9	0.025335299
7	0x3d3a2d59	0.045453403
8	0x3c1805fc	0.009278771
9	0x3dba28bc	0.09089801
10	0x3ce74f99	0.028236197
11	0x3d14226e	0.036165647
12	0x3da54361	0.08069492
13	0x3d6a2632	0.057165332
14	0x3d816f79	0.0632009
15	0x3d1abc01	0.03777695
16	0x3d80428e	0.06262694
17	0x3e11a808	0.14224255
18	0x3dd56550	0.104197145
19	0x3d5eab60	0.054362655
20	0x3db25602	0.08707811
21	0x3db11a03	0.086475395
22	0x3d3c5f05	0.045989055
23	0x3da972f7	0.08273881
24	0x3d6b7351	0.05748302
25	0x3d236554	0.039891556
26	0x3d031875	0.032005746
27	0x3d551ab5	0.052027423

tfeb.11.weight f4 [32, 28, 3, 3]
0	0xbc9d427b	-0.01919674
1	0xbcc8f4ff	-0.024530886
2	0xbce28d12	-0.027655158
3	0x3d02313b	0.03178523
4	0x3d1e79df	0.038690444
5	0x3cc9e11e	0.024643477
6	0x3d9c9ae9	0.07646734
7	0x3d8687d9	0.0656888
8	0x3d5b0701	0.053473476
9	0xbd02122a	-0.031755604
10	0x3c0f552c	0.008748334
11	0xbbc4c370	-0.0060047433
12	0x3bc181eb	0.00590538
13	0x3c25daaf	0.010122939
14	0x3cba806f	0.02276632
15	0xbc8dba6b	-0.017300805
16	0xbc0615fe	-0.008183954
17	0x3cbdd72e	0.023173895
18	0xbc77406d	-0.015091044
19	0xbcdef828	-0.02721794
20	0xbcc6ded6	-0.024276178
21	0xbca6edea	-0.020377118
22	0xbcd62657	-0.026141329
23	0xbc84131e	-0.016122397
24	0x3d0ecf8c	0.0348659
25	0x3cb55343	0.022134429
26	0x3cfa6a60	0.030568302
27	0x3cf0006e	0.02929708
28	0x3ccd0632	0.025027368
29	0x3cbe879d	0.023258025
30	0x3d24acc6	0.040203832
31	0x3cc3baee	0.023892846
32	0xbc26e644	-0.010186736
33	0xbb4775ae	-0.0030435133
34	0x3ca45192	0.020058427
35	0xbcc84308	-0.024446025
36	0x3cc3ac83	0.023885971
37	0x3c777c2c	0.0151052885
38	0x3d1f790e	0.038933806
39	0x3c87e9a5	0.016590903
40	0x3b2958e8	0.0025840346
41	0x3cc66ae0	0.024220884
42	0xbcbe93e6	-0.023263883
43	0xbd9844bb	-0.07434984
44	0xbca9e81f	-0.020740567
45	0xbcb35b8f	-0.021894244
46	0xbcc89a31	-0.024487587
47	0xbc4975cb	-0.01229615
48	0x3cda43d5	0.026643673
49	0x3c94082c	0.018070303
50	0xbb2ba3a8	-0.0026190076
51	0xbcfb6dec	-0.030692063
52	0xbcf82d76	-0.030295115
53	0xbb4dd841	-0.0031409415
54	0x3b9009f0	0.004395716
55	0x3c0303db	0.007996525
56	0x3c088e4d	0.008334708
57	0xbcaeca7e	-0.02133679
58	0xbc9c1b43	-0.019055968
59	0xbc7f7f0e	-0.015594257
60	0xbb5ce3e8	-0.0033705179
61	0xbc9efa53	-0.019406473
62	0xbb5e1d48	-0.0033891965
63	0xbd1123ab	-0.035434406
64	0xbc1ab82d	-0.009443325
65	0xbc8c1d98	-0.017103955
66	0xbd800cb0	-0.0625242
67	0xbd1d4ff6	-0.038406335
68	0xbcb0c4be	-0.021578189
69	0xbcdd8da4	-0.027045079
70	0xbc61227f	-0.013741135
71	0x3cb36781	0.02189994
72	0xbd0534ae	-0.032520942
73	0xbceef3c9	-0.02916898
74	0xbcdecca1	-0.027197184
75	0xbcb3b50e	-0.02193692
76	0xbcb3a707	-0.02193023
77	0xbc49b46f	-0.012311085
78	0x3b669a46	0.003518717
79	0x3b704b10	0.0036665834
80	0x3c23e36f	0.010002955
81	0xbbb9e828	-0.005673427
82	0x3c04e2b9	0.0081106955
83	0x3cfac150	0.030609757
84	0x3c532ead	0.012889546
85	0x3d472c1c	0.04862605
86	0x3d07c410	0.033145964
87	0xbb8eb46d	-0.0043550045
88	0x3c717d32	0.014739322
89	0x3d121458	0.035663933
90	0x3c045b43	0.008078399
91	0x3c0cb059	0.008586966
92	0x3bd164d0	0.0063901916
93	0x3d04c816	0.03241738
94	0x3d040020	0.03222668
95	0x3b9d07ed	0.0047922046
96	0x3cffff84	0.031249769
97	0x3d2c8ea9	0.04212824
98	0x3d02ea61	0.031961802
99	0x3bc224d9	0.0059248027
100	0x3d233cb0	0.039852798
101	0x3cc8be20	0.024504721
102	0xbc0d6511	-0.008630053
103	0x3c15694d	0.009119344
104	0xbc57dce7	-0.013175226
105	0x3d18cce0	0.03730476
106	0x3cfab39b	0.03060322
107	0x3ca0a11e	0.019608077
108	0xbd2f0bfc	-0.04273604
109	0xbd5fba0f	-0.0546208
110	0xbd445f89	-0.047942672
111	0xbd90f22d	-0.07077441
112	0xbd9913f0	-0.07474506
113	0xbd5eb73f	-0.054373976
114	0x3d00787f	0.031364914
115	0x3d43fc37	0.047847953
116	0x3d8890e4	0.06668261
117	0xbc8eda52	-0.017438088
118	0xbc4f579a	-0.012655163
119	0xbbe77df7	-0.0070645767
120	0x3caed7cd	0.021343136
121	0x3c9ebae6	0.01937623
122	0x3ca34137	0.019928558
123	0x3c894cc8	0.016760245
124	0x3d09c315	0.03363331
125	0x3d341df7	0.04397389
126	0xbd8a6782	-0.06758024
127	0xbd8fc1e4	-0.070194036
128	0xbd9bc4be	-0.07605885
129	0x3cefd3fb	0.029275885
130	0x3cd90bc9	0.026494877
131	0x3d2be896	0.041969858
132	0x3d4addbe	0.049527876
133	0x3d0876cd	0.033316422
134	0x3d3dccc7	0.04633787
135	0x3cc86750	0.024463326
136	0x3d3b1235	0.04567166
137	0x3d09d13e	0.033646815
138	0x3bd58eff	0.0065172906
139	0x3c8ea4cd	0.017412568
140	0x3ca669eb	0.020314177
141	0x3ccc865a	0.024966408
142	0x3a2d8ba4	0.00066202343
143	0x3bb99fdf	0.00566481
144	0xbd355766	-0.044272803
145	0x3ceed276	0.02915309
146	0x3bb5a3d1	0.00554321
147	0xbd3a220f	-0.045442637
148	0x3d0c23dd	0.03421389
149	0x3cb2095d	0.02173298
150	0xbd301c86	-0.042995952
151	0x3cdf82cf	0.027284054
152	0x3d650a62	0.055918105
153	0xbd31fac8	-0.043452054
154	0xbcfd4c3f	-0.030920146
155	0xbcdae932	-0.026722524
156	0xbd51eba6	-0.051250122
157	0x3d3b79b9	0.04577038
158	0x3d37616f	0.044770654
159	0xbd5a52aa	-0.05330149
160	0xbc1061cb	-0.008812378
161	0x3d02cfd7	0.031936493
162	0x3c06ed53	0.008235293
163	0x3bf0cd68	0.007348705
164	0x3c8644e6	0.016390275
165	0x3aa75f08	0.001276941
166	0xbcb599ad	-0.022168005
167	0xbd4075c8	-0.046987325
168	0xbc150b84	-0.009096984
169	0xbd0d3389	-0.034472976
170	0xbd2a6a33	-0.041605186
171	0xbb1116f4	-0.0022138925
172	0xbc04fa57	-0.008116326
173	0xbbc50f0b	-0.006013756
174	0x3cf5b3b1	0.02999291
175	0x3d15bf07	0.03655913
176	0x3d49929e	0.04921209
177	0xbccc4c93	-0.024938857
178	0xbc924810	-0.017856628
179	0xbc030d25	-0.007998739
180	0x3c19a1bd	0.00937694
181	0xbc1c1d1b	-0.009528424
182	0xb95721de	-0.00020516614
183	0xb9bd96ce	-0.00036161247
184	0xbc817e5d	-0.015807325
185	0xbcd87a22	-0.026425425
186	0xbc992a4f	-0.018696932
187	0xbd1d2059	-0.038360927
188	0xbd392bf0	-0.045207918
189	0xbd247842	-0.04015375
190	0xbc7810df	-0.015140741
191	0xbc97f119	-0.018547582
192	0xbceac09a	-0.028656293
193	0xbab837f7	-0.0014054765
194	0x3c89f369	0.0168397
195	0xbd1acc7f	-0.03779268
196	0xbc043925	-0.008070265
197	0x3be8658e	0.0070921844
198	0xbcc2100b	-0.02368929
199	0x3cb56f63	0.02214784
200	0x3bda1000	0.0066547394
201	0xbd878e6d	-0.066189624
202	0xbcbce0e9	-0.023056464
203	0xbd13b465	-0.03606071
204	0xbc7cd8dc	-0.015432563
205	0x3c80588c	0.015667222
206	0x3ca79ded	0.020461047
207	0xbd33b480	-0.04387331
208	0xbcd5d4a0	-0.026102364
209	0xbc363fa6	-0.011123573
210	0xbcb0f8b9	-0.021602975
211	0xbacf4456	-0.0015813212
212	0xbc66d0b2	-0.014087843
213	0xbc94af3d	-0.018149966
214	0x3b1fe02e	0.0024395096
215	0x3bd4953a	0.0064875158
216	0xbb2ba162	-0.002618872
217	0xbb6d8a79	-0.0036245866
218	0x3bbdacd7	0.0057884264
219	0x3b7462fb	0.0037290442
220	0xbc4a1ca6	-0.012335932
221	0xbcb6e528	-0.022326067
222	0xbdde70d3	-0.10861363
223	0xbdc4d28e	-0.096104726
224	0xbda9b7c5	-0.082870044
225	0xbc274cf5	-0.010211219
226	0xba08b29d	-0.0005214604
227	0x3ae00517	0.0017091361
228	0x3aa3e1ab	0.0012503167
229	0x3c3329f7	0.010935298
230	0x3c2b81c1	0.010467947
231	0x3cd08777	0.02545522
232	0x3d4b6972	0.049661107
233	0x3d58bbdf	0.052913543
234	0xbb1de7f7	-0.002409456
235	0x3b95b60f	0.004568822
236	0x3b2eb54a	0.002665835
237	0x3b8868d7	0.0041628885
238	0x3c7b372b	0.015332977
239	0xbb01c599	-0.0019801615
240	0xbc4a8279	-0.012360209
241	0x3bdde40a	0.006771569
242	0x3c0a9ecc	0.008460712
243	0xbce4a1c4	-0.027909167
244	0xbd01fb6d	-0.03173392
245	0xbd2cfefa	-0.042235352
246	0x3d6bd129	0.057572518
247	0x3d87288a	0.06599529
248	0x3d9edee9	0.077573605
249	0x3d8766d7	0.06611412
250	0x3d7b8a09	0.061410937
251	0x3d9fa719	0.07795543
252	0xbe02d66f	-0.12777112
253	0xbd7194ca	-0.058979787
254	0x3c7686d4	0.015046794
255	0xbe216546	-0.15761289

tfeb.12.weight f4 [32]
0	0x3ea65bea	0.32492
1	0x3eb04854	0.34430182
2	0x3eaff259	0.34364584
3	0x3e9642b2	0.2934776
4	0x3e5d8fb4	0.2163685
5	0x3eecf8c3	0.4628354
6	0x3eb47489	0.3524516
7	0x3ee25205	0.442032
8	0x3f1bb830	0.6082792
9	0x3e9de7e8	0.30840993
10	0x3eb8f2ea	0.3612283
11	0x3ed149c8	0.40876603
12	0x3ec00b6b	0.3750871
13	0x3e920f0d	0.28527108
14	0x3ebfd115	0.37464204
15	0x3e875c43	0.26437578
16	0x3ec27eed	0.37987462
17	0x3e93a422	0.2883616
18	0x3ea8ce15	0.32969728
19	0x3ea8665c	0.32890594
20	0x3eb770a8	0.35828137
21	0x3eb6321a	0.355851
22	0x3ebfa4e2	0.37430483
23	0x3e95d800	0.29266357
24	0x3e83f351	0.25771573
25	0x3efa8a2a	0.48933536
26	0x3e35f2ff	0.17768477
27	0x3e7e77b5	0.24850352
28	0x3ea208d0	0.31647348
29	0x3ef12c40	0.47104073
30	0x3ed63ffc	0.4184569
31	0x3f12358f	0.57112974

tfeb.12.bias f4 [32]
0	0xbe42f792	-0.19039753
1	0x3d8bd45d	0.068276145
2	0xbe09aef4	-0.13445646
3	0xbd239835	-0.039940078
4	0xbdaf42e9	-0.08557684
5	0xbe3eb2cb	-0.18622892
6	0xbdef135e	-0.11673616
7	0xbe1c34fb	-0.15254585
8	0xbecbff8f	-0.39843413
9	0x3d4e985d	0.050438274
10	0xbe13f6ef	-0.14449666
11	0xbdac8e3c	-0.084255666
12	0xbde8793d	-0.11351249
13	0x3abba8d7	0.0014317286
14	0xbe1ee706	-0.15517816
15	0xbdde3728	-0.10850364
16	0xbe37e5a0	-0.17958689
17	0x3e2dd8ca	0.1697723
18	0xbd1b32ac	-0.03789012
19	0x3d816aaf	0.063191764
20	0xbdc43ebb	-0.095822774
21	0xbe1b378b	-0.15157907
22	0xbdd48162	-0.1037624
23	0x3e2f9d75	0.17149909
24	0xbd5cf137	-0.053940978
25	0xbd34745c	-0.04405628
26	0xbe09c839	-0.13455285
27	0xbdbad778	-0.09123129
28	0xbda4e376	-0.08051197
29	0xbe439d3a	-0.19102946
30	0xbe38b8dd	-0.1803927
31	0xbe38ee48	-0.18059647

tfeb.12.running_mean f4 [32]
0	0xbd0ab851	-0.033867184
1	0xbef710ee	-0.48255104
2	0xbe9247f5	-0.28570524
3	0x3d526883	0.0513692
4	0xbe1ea448	-0.15492356
5	0xbf728a47	-0.94742244
6	0xbe7936b0	-0.24337268
7	0xbee03eb4	-0.4379784
8	0xbf1b6f41	-0.60716635
9	0xbdaadc8a	-0.08342846
10	0xbe8554bf	-0.2604122
11	0xbf2b2ade	-0.66862285
12	0xbefcb63b	-0.4935778
13	0xbf23209c	-0.6372163
14	0xbdc729f4	-0.09724799
15	0xbdaca4f8	-0.08429903
16	0xbebeb64b	-0.37248453
17	0xbdf082b1	-0.117436774
18	0xbe448e0a	-0.19194809
19	0xbee2e3ae	-0.4431433
20	0xbe995746	-0.29949397
21	0xbef99d33	-0.48752746
22	0xbec5a1e8	-0.38600087
23	0xbf076648	-0.52890444
24	0xbd4929d4	-0.049112156
25	0xbf3a6380	-0.72808075
26	0xbe31fcc1	-0.17381574
27	0xbdb94944	-0.090471774
28	0xbe434277	-0.19068323
29	0xbec73ff4	-0.3891598
30	0xbea161bb	-0.31519875
31	0xbf7060d1	-0.9389773

tfeb.12.running_var f4 [32]
0	0x3d6c478e	0.057685427
1	0x3ebb628a	0.36598617
2	0x3e194715	0.14968522
3	0x3e12fafc	0.14353555
4	0x3d18563c	0.037191615
5	0x3ec93f51	0.3930612
6	0x3e74ecea	0.239185
7	0x3e42a088	0.1900655
8	0x3e9edbc9	0.31027058
9	0x3e2a2e9a	0.1661934
10	0x3e7ae403	0.24501042
11	0x3eab8fcd	0.3350815
12	0x3e348b9c	0.17631382
13	0x3e2a3168	0.1662041
14	0x3e087840	0.13327122
15	0x3e1268b9	0.14297761
16	0x3e0d538b	0.138014
17	0x3eb0e808	0.34552026
18	0x3e074539	0.1321
19	0x3e403786	0.1877118
20	0x3ddd7a17	0.108143024
21	0x3e4bf044	0.19915873
22	0x3e8d7fb6	0.27636498
23	0x3eba6021	0.36401466
24	0x3cdb745f	0.026788888
25	0x3f13f6a7	0.57798237
26	0x3ca22ac3	0.019795781
27	0x3e06f288	0.13178456
28	0x3db1b235	0.086765684
29	0x3e97e4bd	0.296667
30	0x3e48187d	0.19540592
31	0x3f28880c	0.6583259
