trained_models/step_5_retrain_after_step_4/retrain_4C_after_2nd_pruning_prunratio0.85_2024060419/retrained_4Cmodel_ratio85.0_vaacc93.71980285644531_tracc_81.08552631578947@804epoch_20240604231406.pt (torch, 309234 bytes, 62 tensors)

sfeb.0.weight f4 [8, 1, 1, 9]
0.24467415 0.1424213 0.27875853 0.34227973 0.08454566 -0.25985926 -0.4742584 -0.2874661
-0.070070006 0.005251857 0.018504435 -0.057373814 -0.28679976 0.061733518 -0.19108182 -0.29253218
0.35632893 0.5615848 -0.17252918 -0.21919216 0.21258199 0.07550749 -0.17343105 -0.21856043
0.13081732 -0.31528702 -0.41502446 0.685113 0.36819297 -0.045219593 -0.0063902633 -0.16789058
0.0101953335 0.11374504 -0.01953275 0.0770894 -0.6089696 -0.33739725 0.06350178 0.08680226
0.29566592 0.19929509 -0.17528264 0.039601568 -0.13036326 -0.30009744 -0.032786354 0.19307701
0.09180551 -0.40847954 0.0934934 0.59124416 -0.029217174 -0.49088395 -0.04581431 -0.21215357
0.22515614 -0.090573825 -0.46064368 0.4922351 0.022297177 -0.4376537 0.4133796 0.046305995
0.015794065 -0.18735994 -0.117776304 0.17972061 0.21581776 -0.022162719 0.31545514 0.55937105
00000000: dc8b 7a3e e4d6 113e 70b9 8e3e 4a3f af3e
00000010: 4626 ad3d 460c 85be ffd1 f2be c22e 93be
00000020: dd80 8fbd c517 ac3b 9d96 973c ce00 6bbd
00000030: 6bd7 92be 49dc 7c3d f4aa 43be c7c6 95be
00000040: bf70 b63e 05c4 0f3f 7dab 30be e973 60be
00000050: 18af 593e aca3 9a3d e997 31be 4ece 5fbe
00000060: faf4 053e 4d6d a1be 167e d4be 9163 2f3f
00000070: ca83 bc3e 2e38 39bd 6a65 d1bb 82eb 2bbe
00000080: 540a 273c 29f3 e83d 2503 a0bc 0ce1 9d3d
00000090: 6fe5 1bbf 55bf acbe 390d 823d 62c5 b13d
000000a0: 8661 973e 0314 4c3e 4b7d 33be 4135 223d
000000b0: f27d 05be 5fa6 99be fc4a 06bd fbb5 453e
000000c0: 8704 bc3d 3b24 d1be 7879 bf3d c75b 173f
000000d0: db58 efbc 2455 fbbe c9a7 3bbd c93e 59be
000000e0: 558f 663e c57e b9bd 7dd9 ebbe 3d06 fc3e
000000f0: 92a8 b63c 2514 e0be 7ea6 d33e 5bab 3d3d
00000100: 8e62 813c 49db 3fbe b434 f1bd ae08 383e
00000110: 55ff 5c3e 978e b5bc 5683 a13e f132 0f3f

sfeb.1.weight f4 [8]
0.91106564 0.7703265 0.7011942 0.75282776 0.78015816 0.52684057 0.4686296 0.6837937
00000000: 993b 693f 1e34 453f 7781 333f 52b9 403f
00000010: 72b8 473f 06df 063f 38f0 ef3e 1b0d 2f3f

sfeb.1.bias f4 [8]
0.052628387 0.035360355 0.062468745 0.23082438 0.070960484 0.20171288 0.054512993 0.043578826
00000000: dd90 573d 05d6 103d 3adf 7f3d 3a5d 6c3e
00000010: bb53 913d d28d 4e3e 0449 5f3d b67f 323d

sfeb.1.running_mean f4 [8]
6.018581e-09 4.7035617e-05 -0.0002932132 0.00027138856 -0.00015167314 -7.8542354e-05 -2.5229227e-05 0.00026878575
00000000: 00cc ce31 1c48 4538 69ba 99b9 2849 8e39
00000010: 730a 1fb9 1bb7 a4b8 5aa3 d3b7 d0eb 8c39

sfeb.1.running_var f4 [8]
0.020211108 0.0103256 0.009627668 0.01619505 0.014144656 0.006027696 0.0016510076 0.013745486
00000000: c491 a53c b52c 293c 5ebd 1d3c 7bab 843c
00000010: fdbe 673c fb83 c53b 9f66 d83a bf34 613c

sfeb.3.weight f4 [32, 8, 1, 5]
0.05413451 -0.17446487 -0.01260914 0.047681104 -0.1431728 -0.07845594 -0.11577693 -0.052517608
0.0021276742 -0.01458651 0.2358327 0.2063288 0.24028535 0.13505147 0.0852973 -0.1042066
-0.04607996 -0.25822526 -0.045387108 -0.11216388 0.15834422 0.18099137 0.07009066 0.17570204
0.15054813 0.056539316 -0.017249152 -0.06293023 -0.0064035854 0.029876305 0.0022786679 -0.022657193
0.035820782 0.03615216 -0.008753044 -0.055342633 -0.09424788 -0.14702134 -0.02313207 -0.04077739
-0.1718121 -0.15641226 -0.037435286 0.06298514 0.083776146 -0.010377414 -0.14336374 -0.11619447
-0.03440282 -0.06480119 0.086809024 0.08016883 0.073159076 0.23066951 0.2856835 -0.22349238
-0.11104116 -0.09954682 -0.016071599 -0.032692306 0.1467739 0.13760927 0.016366294 -0.08244157
0.009978758 -0.006366964 0.11019485 -0.022341155 -0.0037387977 0.016198289 -0.00959443 -0.050170347
-0.016127339 -0.10359681 -0.035557296 -0.061689496 -0.06640593 -0.24826045 -0.17010228 -0.10511305
-0.13319178 -0.21004748 -0.032621052 -0.018391792 -0.09244967 -0.11472927 -0.062543906 -0.06265628
-0.1786368 -0.14452446 0.14005029 0.21429978 0.12698033 0.18521808 0.26144788 -0.18643942
-0.086166315 -0.19230677 -0.113934934 -0.09535157 -0.050596263 0.008775631 0.044802107 0.118593335
0.04908726 -0.04221647 0.059589554 -0.051244155 0.09837262 0.036267236 -0.04531648 -0.0064623742
-0.053838883 -0.06969443 -0.11854942 -0.14460407 -0.25155264 -0.25926813 -0.12567091 -0.1261083
-0.10016153 0.061837275 -0.121239536 -0.06810322 -0.23324804 -0.12487898 -0.03350579 0.04685174
-0.019267615 -0.07873944 -0.32153463 -0.25852087 -0.22539149 -0.22349165 -0.33525467 0.09986293
0.20804006 0.2873493 0.15343222 0.12204109 -0.07579582 -0.12363531 -0.27845576 -0.08956959
-0.11028117 0.0326874 -0.14842835 -0.14235613 -0.18619615 -0.17746794 -0.114918254 -0.18041836
-0.23939191 -0.142607 -0.120002024 0.18214554 0.1995386 0.23196255 0.35723433 0.32764095
-0.13933903 -0.08929995 -0.13643084 -0.10308949 -0.038744684 0.07682015 0.0203894 0.009217394
0.063625105 0.009659064 -0.12455865 -0.082640216 -0.111644916 -0.18122222 -0.0801885 -0.19868407
-0.1315666 -0.02424106 -0.005458848 0.07013284 -0.108415775 -0.030821994 0.045827795 -0.035711803
-0.09279115 -0.03553267 -0.032204468 0.025578236 -0.053342264 -0.029177165 -0.03969869 0.008848721
-0.025961852 -0.0030348478 -0.04440446 -0.061604217 0.031130191 0.096821934 0.124776 0.18448175
-0.04951598 -0.16507967 -0.17668389 -0.2042564 -0.09210149 0.09614134 0.23002546 0.10662875
0.060234327 0.13232258 0.093784496 -0.05501037 -0.032947488 -0.087060705 -0.1894572 -0.101434074
-0.22970699 -0.22057554 -0.07507624 0.023151776 -0.023067785 0.008969936 -0.008957401 0.17264166
0.02377081 -0.0010787045 0.039911218 0.0127068665 0.05091278 -0.0682304 0.07936551 0.0598349
0.07857911 0.07899087 -0.0064388006 -0.04615347 -0.047255836 0.051095024 0.10634218 0.11387334
0.12516153 0.103308894 0.094289534 0.0831189 0.082365766 -0.16371654 -0.1907011 -0.22150818
-0.034664463 -0.018473376 -0.019339073 0.0144756455 0.101775594 0.079090565 0.17957173 0.23280725
00000000: 26bc 5d3d eba6 32be 9196 4ebc 434d 433d
00000010: e49b 12be 82ad a0bd 741c edbd b41c 57bd
00000020: 7370 0b3b 42fc 6ebc 217e 713e db47 533e
00000030: 5d0d 763e ef4a 0a3e 5ab0 ae3d 456a d5bd
00000040: 57be 3cbd 1a36 84be d5e7 39bd 2db6 e5bd
00000050: fd24 223e cd55 393e b18b 8f3d 3ceb 333e
00000060: 4a29 1a3e c595 673d 184e 8dbc 90e1 80bd
00000070: 2bd5 d1bb 27bf f43c b455 153b 949b b9bc
00000080: d0b8 123d 4a14 143d ed68 0fbc f5ae 62bd
00000090: 0805 c1bd c38c 16be 787f bdbc 3106 27bd
000000a0: 83ef 2fbe 892a 20be be55 19bd 5afe 803d
000000b0: d492 ab3d 0706 2abc f2cd 12be 5ef7 edbd
000000c0: f9e9 0cbd 7cb6 84bd eec8 b13d 8e2f a43d
000000d0: 6dd4 953d a134 6c3e 1c45 923e 30db 64be
000000e0: 8c69 e3bd 34df cbbd 96a8 83bc 5ee8 05bd
000000f0: e64b 163e 72e9 0c3e 9b12 863c 20d7 a8bd
00000100: f27d 233c f7a1 d0bb d6ad e13d cc04 b7bc
00000110: 9e06 75bb 46b2 843c f531 1dbc 6c7f 4dbd
00000120: 7b1d 84bc 902a d4bd 87a4 11bd 20ae 7cbd
00000130: d5ff 87bd fd37 7ebe 4b2f 2ebe 8345 d7bd
00000140: 6d63 08be b016 57be a79d 05bd 62aa 96bc
00000150: 4156 bdbd 2ef7 eabd 0517 80bd f051 80bd
00000160: 91ec 36be 38fe 13be 5869 0f3e 6771 5b3e
00000170: 2207 023e cfa9 3d3e 7fdc 853e fae9 3ebe
00000180: f777 b0bd 11ec 44be b856 e9bd af47 c3bd
00000190: 073e 4fbd aac7 0f3c 6a82 373d 10e1 f23d
000001a0: b90f 493d 2deb 2cbd 2d14 743d 64e5 51bd
000001b0: 9677 c93d f48c 143d c69d 39bd 53c2 d3bb
000001c0: 2986 5cbd f4bb 8ebd 0aca f2bd 1713 14be
000001d0: 82cb 80be cbbe 84be e0af 00be 8922 01be
000001e0: 7d21 cdbd 1549 7d3d 6f4c f8bd b379 8bbd
000001f0: 93d8 6ebe 8dc0 ffbd 5e3d 09bd 9ce7 3f3d
00000200: 1ed7 9dbc 2542 a1bd 30a0 a4be d95c 84be
00000210: 07cd 66be ffda 64be 80a6 abbe f084 cc3d
00000220: 7408 553e 731f 933e 561d 1d3e aef0 f93d
00000230: d73a 9bbd 8234 fdbd c191 8ebe 4370 b7bd
00000240: 18db e1bd 39e3 053d 9afd 17be cec5 11be
00000250: 34aa 3ebe 28ba 35be 435a ebbd 97bf 38be
00000260: 2723 75be 9207 12be 9fc3 f5bd 5c84 3a3e
00000270: d953 4c3e 9787 6d3e 6be7 b63e 8ec0 a73e
00000280: e4ae 0ebe e4e2 b6bd 87b4 0bbe 9520 d3bd
00000290: bfb2 1ebd e253 9d3d ac07 a73c 8d04 173c
000002a0: e14d 823d 0d41 1e3c 9b18 ffbd 463f a9bd
000002b0: 17a6 e4bd 5192 39be de39 a4bd d673 4bbe
000002c0: 65b9 06be 3095 c6bc 23e0 b2bb cea1 8f3d
000002d0: 1709 debd 687e fcbc edb5 3b3d 8a46 12bd
000002e0: 4909 bebd b48a 11bd d5e8 03bd 7389 d13c
000002f0: 6b7d 5abd f304 efbc 189b 22bd 3afa 103c
00000300: f3ad d4bc 4ce4 46bb 73e1 35bd b454 7cbd
00000310: be04 ff3c 944a c63d 8f8a ff3d c9e8 3c3e
00000320: 45d1 4abd a50a 29be 9fec 34be 9728 51be
00000330: b59f bcbd c0e5 c43d cb8b 6b3e 2d60 da3d
00000340: 45b8 763d 927f 073e 1612 c03d 8e52 61bd
00000350: f2f3 06bd e24c b2bd 1101 42be abbc cfbd
00000360: 4f38 6bbe 8ede 61be 92c1 99bd cba8 bd3c
00000370: a7f8 bcbc a3f6 123c 10c2 12bc fac8 303e
00000380: 00bb c23c 5163 8dba f279 233d 7630 503c
00000390: eb89 503d 61bc 8bbd 628a a23d 7115 753d
000003a0: 16ee a03d f7c5 a13d 93fc d2bb 6c0b 3dbd
000003b0: 568f 41bd 0449 513d eec9 d93d 6d36 e93d
000003c0: 582a 003e 9d93 d33d df1a c13d 3e3a aa3d
000003d0: 62af a83d 4fa5 27be 2647 43be 0ad3 62be
000003e0: 53fc 0dbd 7a55 97bc fa6c 9ebc 422b 6d3c
000003f0: b96f d03d 3cfa a13d a7e1 373e 0665 6e3e

sfeb.4.weight f4 [32]
0.7438913 0.42583293 0.7890839 1.1530852 0.32987863 0.36579624 0.57402605 0.000575569
0.4298164 0.52252364 0.013652516 0.62374055 0.5900823 0.7456101 0.8996834 -0.000740379
0.5806118 0.4194182 0.55898684 0.0002470433 0.5211511 0.56394154 0.71589214 0.42224672
0.00060575415 0.00075163186 0.38941744 0.52958804 0.35960284 0.54722494 0.4276707 0.3975217
00000000: a96f 3e3f c606 da3e 6701 4a3f 4c98 933f
00000010: dae5 a83e a549 bb3e 5ff3 123f c8e1 163a
00000020: e510 dc3e 1cc4 053f cdae 5f3c 76ad 1f3f
00000030: a20f 173f 4ee0 3e3f a751 663f fe15 42ba
00000040: faa2 143f fbbd d63e c319 0f3f 9785 8139
00000050: 296a 053f 795e 103f b544 373f b930 d83e
00000060: 79cb 1e3a 2909 453a b961 c73e 1593 073f
00000070: dd1d b83e ef16 0c3f a7f7 da3e f787 cb3e

sfeb.4.bias f4 [32]
0.16568309 -0.18371388 -0.15199438 -0.047590394 -0.06573449 -0.010502636 0.13403861 -0.065124005
0.035933528 -0.07345876 -0.02303719 0.03304518 0.116147116 0.08559351 0.043400414 -0.0384686
-0.07145331 0.060221046 -0.03779027 -0.021367608 0.0046207113 -0.14193782 -0.089121856 0.036848366
-0.017731808 -0.019543936 0.027356932 -0.06106078 -0.11612291 -0.07644956 -0.099468835 0.07764653
00000000: d4a8 293e 7e1f 3cbe 6aa4 1bbe 25ee 42bd
00000010: ce9f 86bd 4013 2cbc 6b41 093e bc5f 85bd
00000020: 092f 133d 8c71 96bd 7db8 bcbc 625a 073d
00000030: 8ade ed3d a64b af3d a2c4 313d 4091 1dbd
00000040: 1d56 92bd 58aa 763d f8c9 1abd 1f0b afbc
00000050: 5669 973b 2658 11be 8585 b6bd 50ee 163d
00000060: 4c42 91bc 9b1a a0bc a51b e03c de1a 7abd
00000070: d9d1 edbd 9691 9cbd 51b6 cbbd 2505 9f3d

sfeb.4.running_mean f4 [32]
-0.015518103 -0.20084754 -0.39223668 -0.2929246 -0.31869417 -0.18302888 -0.11568155 0.01136833
-0.26325038 -0.12914555 -0.04219252 -0.21989289 -0.057594366 0.10828625 -0.19574186 -0.002615069
-0.29135555 -0.25604916 -0.291879 -0.0075884876 -0.31879798 -0.48446518 -0.33418778 -0.24034788
-0.017059177 -0.015266122 -0.34240335 -0.14759488 -0.34738836 -0.39427233 -0.05160019 -0.0537879
00000000: a43f 7ebc faaa 4dbe 3fd3 c8be 37fa 95be
00000010: e22b a3be ec6b 3bbe 73ea ecbd 3b42 3a3c
00000020: c1c8 86be bb3e 04be 10d2 2cbd 9a2b 61be
00000030: 12e8 6bbd 2ec5 dd3d 8e70 48be 9461 2bbb
00000040: 8e2c 95be e018 83be 2a71 95be d9a8 f8bb
00000050: 7d39 a3be d20b f8be a91a abbe c11d 76be
00000060: b0bf 8bbc c21e 7abc 7e4f afbe 1d23 17be
00000070: e3dc b1be 10de c9be b95a 53bd b350 5cbd

sfeb.4.running_var f4 [32]
0.31815156 0.31788987 0.5506548 0.98074406 0.29011577 0.40261465 0.51040494 0.0073664435
0.30677012 0.206892 0.0029532325 0.3737201 0.38060778 0.6455534 0.73894274 0.0019127352
0.45095286 0.47390163 0.6697264 0.001487661 0.57705134 0.71946406 0.7770663 0.48366424
0.0009770014 0.0008508342 0.46311206 0.5584199 0.40219557 0.47392315 0.2213322 0.16368681
00000000: c3e4 a23e 76c2 a23e b7f7 0c3f 0b12 7b3f
00000010: 0e8a 943e 8223 ce3e e6a9 023f 3562 f13b
00000020: f910 9d3e 7fdb 533e 058b 413b 3e58 bf3e
00000030: 06df c23e fd42 253f 5a2b 3d3f beb4 fa3a
00000040: 4be3 e63e 3ca3 f23e 3073 2b3f 9ffd c23a
00000050: a3b9 133f cc2e 383f d1ed 463f d7a2 f73e
00000060: ba0e 803a 840a 5f3a 061d ed3e 9bf4 0e3f
00000070: 94ec cd3e 0ea6 f23e e9a4 623e 849d 273e

tfeb.0.weight f4 [13, 1, 3, 3]
0.033065762 0.000621415 -0.00542407 0.004215446 0.00048391044 0.0015497552 0.0019380552 0.0060353577
0.0060961577 0.008821779 -0.01004854 0.01425722 0.015376394 -0.011505011 0.013288924 0.015832251
-0.007310716 0.016348576 0.19612288 0.12768933 -0.4002492 0.38062236 0.46372572 -0.6577813
0.20175034 0.1513241 -0.44676363 -0.22114223 -0.023355233 0.12549283 -0.5821485 0.47852233
0.52124864 -0.29238084 0.1570943 0.19760506 0.03046248 0.41016057 -0.48493254 0.09235311
0.11710567 -0.3266905 -0.162791 -0.05467534 -0.31531522 0.037188977 -0.15536544 -0.17704815
0.025747478 -0.20615667 -0.28692377 0.24181291 -0.17858899 -0.13493395 0.85693485 -0.4847332
-0.49515536 0.90331995 -0.5365479 -0.64868087 0.4351638 -0.29166892 -0.44900405 -0.120105565
-0.17216022 -0.1334653 -0.08408467 -0.15024939 -0.11145258 0.10905449 0.22434406 0.1265729
-0.16461098 -0.2907867 -0.11816893 -0.15558597 -0.25932705 -0.06429025 -0.10296257 -0.17155026
-0.10629285 -0.043433595 -0.07345751 0.05116239 -0.10988764 -0.14097382 -0.03127829 0.10476346
-0.46077088 0.42413947 0.31219444 0.110038064 0.115826234 0.28543133 0.060351685 0.06464207
-0.067685716 -0.08054473 -0.025352964 -0.07862395 -0.17726657 -0.05430758 -0.1801775 -0.24972464
-0.12745552 0.022825697 -0.11695738 -0.039729342 -0.28000304 -0.2208418 0.31088212 -0.6464872
-0.5571663 1.1067907 -0.36554042 -0.29220656 0.32262763
00000000: f76f 073d 74e6 223a 66bc b1bb b921 8a3b
00000010: 5cb5 fd39 2821 cb3a 5706 fe3a 40c4 c53b
00000020: 47c2 c73b 3989 103c a2a2 24bc 1d97 693c
00000030: 45ed 7b3c 837f 3cbc c9b9 593c a3b2 813c
00000040: bb8e efbb 73ed 853c 70d4 483e fec0 023e
00000050: 77ed ccbe efe0 c23e 756d ed3e 5b64 28bf
00000060: a497 4e3e b4f4 1a3e 34be e4be 1c73 62be
00000070: 7953 bfbc 3181 003e af07 15bf e100 f53e
00000080: 8d70 053f f1b2 95be 54dd 203e fb58 4a3e
00000090: 738c f93c 9100 d23e 1449 f8be a123 bd3d
000000a0: 19d5 ef3d fa43 a7be afb2 26be 40f3 5fbd
000000b0: ff70 a1be 7853 183d 1e18 1fbe 1c4c 35be
000000c0: 60ec d23c bc1a 53be ace7 92be ce9d 773e
000000d0: 08e0 36be 202c 0abe 1560 5b3f f32e f8be
000000e0: 0185 fdbe fa3f 673f 345b 09bf f30f 26bf
000000f0: cacd de3e a155 95be dce3 e5be e8f9 f5bd
00000100: c54a 30be 21ab 08be 9534 acbd fada 19be
00000110: 4041 e4bd f657 df3d 73ba 653e 549c 013e
00000120: c88f 28be ffe1 94be 8d02 f2bd ee51 1fbe
00000130: 84c6 84be 9baa 83bd 0ade d2bd dfaa 2fbe
00000140: 11b0 d9bd 6de7 31bd e470 96bd a78f 513d
00000150: c50c e1bd 715b 10be aa1d 00bd 3a8e d63d
00000160: 29ea ebbe cf28 d93e f3d7 9f3e a35b e13d
00000170: 4e36 ed3d 0e24 923e 5433 773d 1063 843d
00000180: cf9e 8abd a3f4 a4bd 05b1 cfbc 9805 a1bd
00000190: 5e85 35be a071 5ebd 7380 38be d1b7 7fbe
000001a0: b383 02be f5fc ba3c 5a87 efbd 3cbb 22bd
000001b0: 8f5c 8fbe 5a24 62be f12b 9f3e 2f80 25bf
000001c0: 73a2 0ebf 51ab 8d3f 1d28 bbbe 199c 95be
000001d0: 732f a53e

tfeb.1.weight f4 [13]
-0.00081801537 -0.0021877293 0.27787068 0.28280145 0.34977713 0.310975 0.5714175 0.30551073
0.9094242 0.38919586 0.26929626 0.49576837 0.47954938
00000000: 1570 56ba 0260 0fbb 1145 8e3e 5acb 903e
00000010: fd15 b33e 1d38 9f3e 6b48 123f e76b 9c3e
00000020: 06d0 683f ae44 c73e 33e1 893e 5ad5 fd3e
00000030: 7f87 f53e

tfeb.1.bias f4 [13]
-0.011968647 -0.014163976 0.1584679 0.23943181 0.29706648 0.37077183 0.024126401 0.05939739
-0.30454853 -0.033618603 0.18969865 0.034030095 0.14746697
00000000: 2518 44bc 0510 68bc 6945 223e 9d2d 753e
00000010: 1919 983e ced5 bd3e bba4 c53c ad4a 733d
00000020: c9ed 9bbe a9b3 09bd 5d40 423e 2463 0b3d
00000030: 9501 173e

tfeb.1.running_mean f4 [13]
0.017466672 0.019737203 0.013127921 0.13667035 -0.24461398 -0.3075908 -0.25611228 -0.12370691
-0.5210824 -0.10939988 0.28856188 -0.3690382 -0.22616233
00000000: 4416 8f3c eaaf a13c 7e16 573c 50f3 0b3e
00000010: 167c 7abe 8b7c 9dbe 2621 83be 0c5a fdbd
00000020: a865 05bf 0b0d e0bd 62be 933e 93f2 bcbe
00000030: 1997 67be

tfeb.1.running_var f4 [13]
0.0007537116 0.0008898555 0.08658608 0.13262092 0.18311138 0.23312588 0.35041463 0.13630456
0.5941975 0.05120215 0.24547642 0.31487226 0.25742042
00000000: bb94 453a 3145 693a 0b54 b13d c7cd 073e
00000010: 8d81 3b3e 8db8 6e3e 8c69 b33e 6c93 0b3e
00000020: 541d 183f 58b9 513d 2c5e 7b3e f036 a13e
00000030: 9ccc 833e

tfeb.4.weight f4 [25, 13, 3, 3]
0.0023227339 -0.0025448757 0.0010650104 -0.0008258143 -0.004798322 -0.0029092655 0.002256099 -0.0014009256
-0.00039859096 0.001712956 -0.0052515552 0.0037532882 0.0021598053 -0.0062753987 0.002952517 0.0028673285
-0.0029303094 0.0045872605 0.07229502 -0.0035859204 0.05423606 -0.09465611 -0.17645715 -0.13827877
0.053997837 -0.10160568 -0.037818152 -0.032396324 -0.072531484 -0.01814444 -0.07649239 -0.060959686
-0.0011245086 -0.10520822 -0.034408983 0.010122901 0.08129252 0.050231412 0.09167335 -0.019847775
-0.05319275 -0.061697457 0.025958437 0.011898694 0.021191116 -0.05877816 -0.009192694 -0.047736645
0.029830625 0.027254758 -0.03348797 0.044743758 -0.0026918934 0.005498569 0.10310794 0.090468355
-0.04146671 -0.1432127 -0.040302604 -0.27508807 0.03133232 -0.13221352 -0.104052424 -0.053407714
-0.024447672 0.014718867 0.057938334 0.070326045 0.0804059 0.003368816 -0.009697479 -0.01393807
0.0028684896 0.012737063 0.048268456 0.028151378 -0.0016792878 -0.0019900743 0.08928905 0.035316814
-0.0013872746 0.0008823428 -0.116018675 0.024326462 0.0013751251 -0.10457262 0.026320001 -0.021951247
-0.07193579 0.009716548 0.060951166 0.095139794 0.07696924 -0.14852718 -0.08053144 -0.07142368
-0.048411295 -0.02931985 -0.016523032 -0.03918655 -0.011348724 -0.015509735 0.068294 0.0499786
0.015063831 0.038129255 0.019466314 -0.0179525 0.03175828 -0.18285362 -0.033134468 0.054247078
-0.1784798 -0.007820311 -0.0049529 -0.05233959 -0.01798088 0.0014199236 -0.0013037653 -0.0001846796
-0.0006762031 -0.0007247599 -0.0006137999 0.0020603465 0.0010980916 -0.0005301846 -0.0025138843 -0.002552974
-0.0010941862 0.002611979 0.0011628858 0.002145538 0.0025577734 0.0019143348 0.0033993036 -0.027755097
-0.014731391 -0.07895349 -0.0317208 0.057250775 -0.03636486 0.039594464 0.050027397 0.00809498
0.059696108 0.020733654 -0.03548457 0.028322175 -0.076753035 -0.14311479 0.05401994 -0.016804965
-0.060341407 0.0030850265 -0.08032218 -0.06900627 -0.100225694 -0.13186574 -0.071409434 -0.066434614
-0.062095046 -0.01387075 0.025197392 0.0033875976 -0.021530218 -0.084428966 -0.06915539 -0.04078174
-0.09545817 -0.0849812 -0.021045873 -0.04079814 -0.07395582 -0.17552854 -0.19090895 -0.044950295
-0.16351366 -0.06198131 -0.03493125 -0.07694578 0.088173814 0.08878785 0.05742349 -0.077000864
-0.079365954 -0.062505245 -0.00011417855 0.017262533 0.056748882 0.04192975 0.008894854 -0.0049634795
-0.0057589803 -0.034032445 -0.00093730027 -0.017625688 -0.032401755 0.016581934 0.031412162 -0.046832103
-0.024908492 -0.040548105 -0.14749953 -0.085399136 -0.036760353 -0.054151963 -0.012608198 -0.038683023
0.0008691919 -0.056631073 0.013175884 0.09762374 -0.01561217 0.07203832 0.111847736 0.018878708
0.07715659 0.0631089 0.045982935 -0.027679702 -0.041039355 -0.013723766 -0.07247642 -0.059745472
-0.004527445 0.038606282 -0.08738864 -0.12191465 -0.0043361317 -0.21372354 -0.19900589 -0.07831002
-0.12073903 -0.101058014 -0.00048556246 0.0011038899 0.0012462455 -0.0022697777 -0.009097601 -0.0032911384
-0.0052261087 -0.0009510508 -0.002843733 -0.0025154934 0.0011869059 -0.00010501429 -0.006464157 -0.0028552278
-0.004591668 -0.0029731577 -0.001496619 0.0015552205 -0.029158892 -0.07347799 0.0759609 -0.06085532
00000000: 0239 183b eec7 26bb d297 8b3a 767b 58ba
00000010: 3e3b 9dbb 60a9 3ebb 0fdb 133b 439f b7ba
00000020: f9f9 d0b9 4485 e03a 3d15 acbb baf9 753b
00000030: 858b 0d3b dca1 cdbb 047f 413b cae9 3b3b
00000040: 6f0a 40bb bb50 963b 690f 943d c301 6bbb
00000050: a126 5e3d 10db c1bd 2fb1 34be f398 0dbe
00000060: d62c 5d3d a416 d0bd 35e7 1abd 02b2 04bd
00000070: 638b 94bd a6a3 94bc 0ba8 9cbd ddb0 79bd
00000080: 3f64 93ba 6877 d7bd 6ff0 0cbd 86da 253c
00000090: b17c a63d 74bf 4d3d 3dbf bb3d cd97 a2bc
000000a0: a4e0 59bd 79b6 7cbd caa6 d43c bdf2 423c
000000b0: fe98 ad3c 5ec1 70bd f49c 16bc 8087 43bd
000000c0: 5b5f f43c 5f45 df3c ae2a 09bd 3b45 373d
000000d0: 7a6a 30bb 572d b43b 412a d33d 7947 b93d
000000e0: ffd8 29bd 5aa6 12be 5814 25bd 58d8 8cbe
000000f0: 5256 003d fb62 07be 7019 d5bd 0cc2 5abd
00000100: 7c46 c8bc 6727 713c bf50 6d3d 1a07 903d
00000110: d9ab a43d 5bc7 5c3b 2de2 1ebc 815c 64bc
00000120: 45fd 3b3b 1daf 503c 25b5 453d b89d e63c
00000130: 8c1b dcba e86b 02bb 2ddd b63d 5da8 103d
00000140: 36d5 b5ba 064d 673a 339b edbd 4a48 c73c
00000150: 8b3d b43a 2b2a d6bd 0b9d d73c 1ad3 b3bc
00000160: 1253 93bd 2832 1f3c eea7 793d a7d8 c23d
00000170: 0da2 9d3d 8217 18be abed a4bd 9446 92bd
00000180: ec4a 46bd 2f30 f0bc 4f5b 87bc 1382 20bd
00000190: 00f0 39bc 8b1c 7ebc badd 8b3d 5cb6 4c3d
000001a0: 49ce 763c 6c2d 1c3d d277 9f3c 1f11 93bc
000001b0: f814 023d fb3d 3bbe 02b8 07bd 2f32 5e3d
000001c0: 69c3 36be c320 00bc f04b a2bb 0a62 56bd
000001d0: a34c 93bc bb1c ba3a 1be3 aaba 8da6 41b9
000001e0: 3943 31ba d0fd 3dba 6ae7 20ba e106 073b
000001f0: d7ed 8f3a 16fc 0aba fbbf 24bb cc4f 27bb
00000200: cc6a 8fba bc2d 2b3b f96b 983a 289c 0c3b
00000210: 51a0 273b 6bea fa3a dac6 5e3b a85e e3bc
00000220: ef5b 71bc 5eb2 a1bd abed 01bd ca7f 6a3d
00000230: 52f3 14bd ce2d 223d 87e9 4c3d cfa0 043c
00000240: e883 743d a0d9 a93c 4558 11bd e803 e83c
00000250: b230 9dbd af8c 12be 0344 5d3d 91aa 89bc
00000260: 8d28 77bd 282e 4a3b f57f a4bd 2953 8dbd
00000270: 2143 cdbd d007 07be 1c3f 92bd df0e 88bd
00000280: 6057 7ebd 2442 63bc c36a ce3c 7502 5e3b
00000290: 2460 b0bc 18e9 acbd 57a1 8dbd c10a 27bd
000002a0: 937f c3bd a00a aebd 6568 acbc f31b 27bd
000002b0: 2676 97bd c1bd 33be a37d 43be cd1d 38bd
000002c0: 2070 27be 1de0 7dbd 1214 0fbd c095 9dbd
000002d0: 7994 b43d 68d6 b53d e534 6b3d a1b2 9dbd
000002e0: 9e8a a2bd c002 80bd 2473 efb8 286a 8d3c
000002f0: 8471 683d 88be 2b3d b9bb 113c afa4 a2bb
00000300: d4b5 bcbb 9b65 0bbd 28b5 75ba bf63 90bc
00000310: b4b7 04bd d6d6 873c 0aaa 003d 05d3 3fbd
00000320: e50c ccbc c515 26bd 1e0a 17be bee5 aebd
00000330: 0692 16bd 73ce 5dbd 9e92 4ebc 1772 1ebd
00000340: 7bda 633a fcf5 67bd aadf 573c f5ee c73d
00000350: 30ca 7fbc d488 933d 6d10 e53d 85a7 9a3c
00000360: 4604 9e3d 3d3f 813d 9a58 3c3d 8bc0 e2bc
00000370: e218 28bd a6d9 60bc 846e 94bd abb7 74bd
00000380: f65a 94bb 9f21 1e3d d1f8 b2bd 63ae f9bd
00000390: 1c16 8ebb 58da 5abe 33c8 4bbe 0161 a0bd
000003a0: 0646 f7bd 81f7 cebd 1793 feb9 66b0 903a
000003b0: 0f59 a33a 8dc0 14bb 1b0e 15bc 24b0 57bb
000003c0: c73f abbb f04f 79ba ec5d 3abb fada 24bb
000003d0: f491 9b3a 1e3b dcb8 47d1 d3bb c61e 3bbb
000003e0: b475 96bb 4fd9 42bb 332a c4ba 8ad8 cb3a
000003f0: a1de eebc a17b 96bd 6391 9b3d 6e43 79bd

tfeb.5.weight f4 [25]
0.4343718 0.17193067 0.33276194 0.27321094 0.44502982 0.36124 0.2349798 0.27244297
0.6132884 0.32775757 0.22491352 0.5862136 0.4784991 0.59090847 0.18342091 0.24479353
0.3298752 0.23601383 0.46077597 0.20986205 0.43927312 0.18918586 0.21220843 0.08327986
0.2153
00000000: fb65 de3e 980e 303e c65f aa3e 4ee2 8b3e
00000010: f3da e33e 73f4 b83e 8b9e 703e a57d 8b3e
00000020: 7800 1d3f d7cf a73e bb4f 663e 1812 163f
00000030: d6fd f43e c745 173f b1d2 3b3e 28ab 7a3e
00000040: 67e5 a83e 9cad 713e d4ea eb3e 14e6 563e
00000050: 68e8 e03e f0b9 413e 2b4d 593e a28e aa3d
00000060: 9a77 5c3e

tfeb.5.bias f4 [25]
0.03744339 0.23989847 -0.014560541 0.03687073 -0.0525287 0.09478103 0.17151514 0.055937715
-0.080528826 -0.041999277 0.12916996 -0.07865196 -0.17898081 -0.10778572 0.17510511 0.12707832
-0.03325496 -0.03521361 -0.07830657 0.3036483 -0.14369726 0.28851286 0.2468717 0.06282163
-0.055564914
00000000: 3d5e 193d f2a7 753e 568f 6ebc c305 173d
00000010: 5628 57bd 8f1c c23d aaa1 2f3e f21e 653d
00000020: 4cec a4bd 6f07 2cbd 2145 043e 4714 a1bd
00000030: bf46 37be c2be dcbd c14e 333e d220 023e
00000040: 5a36 08bd 253c 10bd 325f a0bd ca77 9b3e
00000050: 6025 13be f5b7 933e efcb 7c3e a0a8 803d
00000060: 0998 63bd

tfeb.5.running_mean f4 [25]
-0.4451879 -0.93268186 -0.062074102 0.0801811 -0.6269428 -0.37267458 -0.45363176 -0.36282963
-0.4842262 -0.41158596 -0.42460883 -0.41995916 0.08480467 -0.31399012 -0.36472377 -0.13909061
-0.59909374 -0.09408516 -0.37249163 -0.3427558 -0.0749297 -0.57836837 -0.15180866 -0.21293181
0.11199807
00000000: abef e3be 3dc4 6ebf 6a41 7ebd fd35 a43d
00000010: 537f 20bf 34cf bebe 6c42 e8be cec4 b9be
00000020: 7fec f7be 65bb d2be 5466 d9be e304 d7be
00000030: 12ae ad3d 50c3 a0be 13bd babe c56d 0ebe
00000040: 355e 19bf b8af c0bd 39b7 bebe b07d afbe
00000050: be74 99bd f30f 14bf bb73 1bbe cc0a 5abe
00000060: 3e5f e53d

tfeb.5.running_var f4 [25]
0.16146414 0.14572635 0.11717667 0.03138269 0.18143168 0.09780199 0.07796426 0.054459803
0.21850866 0.061001945 0.12430396 0.22995925 0.08537852 0.09987408 0.07314979 0.09246458
0.07289834 0.022380693 0.10485428 0.07404445 0.10097004 0.21658708 0.12051643 0.013115793
0.026407039
00000000: db56 253e 4a39 153e 52fa ef3d 238b 003d
00000010: 3ac9 393e 694c c83d baab 9f3d 3e11 5f3d
00000020: bcc0 5f3e 2ddd 793d 1393 fe3d 707a 6b3e
00000030: efda ae3d c88a cc3d 8fcf 953d 125e bd3d
00000040: ba4b 953d b757 b73c d7bd d63d 9ea4 973d
00000050: 61c9 ce3d 01c9 5d3e 51d1 f63d 9fe3 563c
00000060: 9353 d83c

tfeb.7.weight f4 [28, 25, 3, 3]
0.021621173 0.022289295 0.04046208 0.026615381 0.015712446 0.0057671047 0.008114946 0.033420365
0.028131185 0.0052520884 -0.016738337 -0.025985418 0.07294105 0.0969056 0.06682815 0.032317515
0.014719475 -0.01881472 -0.029295163 -0.012286422 -0.03172796 -0.11326316 -0.08347234 -0.06512445
-0.024464728 0.016220706 0.03278111 -0.036421414 -0.02702219 -0.03348925 -0.04060503 -0.051212344
-0.02230447 -0.0059546325 -0.020957073 0.07910181 0.0039523933 0.040137675 0.07089867 0.03861802
0.061916314 0.075843915 0.0025088412 0.024629878 0.048918687 -0.07115109 -0.0513781 -0.007242411
-0.015412082 0.027676659 0.021110673 -0.036048215 0.017616207 0.014649945 -0.10824069 -0.03527746
-0.05359756 0.008093562 -0.0054896353 -0.049515426 0.009383583 0.036211204 -0.0050760265 -0.015628666
-0.016362973 -0.0009998886 0.0095321 0.054437693 0.030284462 0.0015603419 0.024023587 0.012885267
-0.04508126 -0.012874252 -0.035379972 0.041425295 0.113341376 0.0719858 0.008649276 0.043856744
0.04870989 0.009650367 0.0074810223 0.018866306 0.0067312135 0.020419447 0.012311156 0.015949924
0.026454438 0.012291654 -0.0337077 -0.02815099 -0.06353596 0.06464205 0.08326295 0.06418382
0.025533147 0.002709375 -0.054475565 -0.0044052713 0.040893603 0.040480763 0.022077447 0.07997166
0.037367 -0.04182239 -0.0027382215 -0.058604106 -0.032106403 -0.004092251 -0.0054427623 -0.031125184
-0.028644083 -0.009130945 0.0026280098 -0.034499064 0.041227307 -0.01908768 -0.013975955 0.0072949682
0.005685722 -0.007836037 -0.024282046 0.01882058 0.0002127691 -0.037091248 -0.016911132 -0.020357631
-9.877877e-05 -0.025016878 -0.015697882 -0.021120794 0.047040533 0.0745529 0.06419528 0.072598115
0.061916254 0.03899949 -0.006612047 0.0021647788 0.043015093 -0.08185063 -0.079332754 -0.03457095
-0.047419958 -0.028817838 -0.011515409 0.007871322 0.0016540911 -0.0073597133 -0.0019878328 0.02501707
0.03457396 0.0044371053 0.019280298 0.047673702 -0.022512196 -0.027003037 0.0058135316 -0.008249863
-0.014229319 -0.0047649364 -0.008794231 -0.020325847 -0.026984576 -0.0017613018 0.040541925 0.030073632
0.032839675 0.063283004 0.037250414 0.033306785 0.012859158 0.027427007 -0.003739141 -0.0276048
0.03180435 -0.010710497 -0.031096652 0.012015222 -0.026039548 -0.009428287 0.024134431 -0.040453356
-0.05664252 -0.061034627 0.007892221 -0.008610339 -0.028182274 -0.057877216 -0.028946739 -0.004165507
0.06735323 0.08662149 0.09778876 -0.032087095 -0.005820886 0.048897617 0.035872165 0.037810273
0.02890943 -0.04494808 -0.062784724 -0.0761715 0.082572676 0.09581072 0.084746994 0.004604554
-0.004656289 -0.005109863 0.026832651 0.02443749 0.037333768 0.011335966 -0.01095304 0.010950449
-0.01507884 -0.027914267 -0.0029452122 0.02240193 0.025086679 0.068460576 -0.023554295 -0.032604184
-0.0121590765 0.07966965 -0.043997366 -0.06150673 0.043197945 -0.12188646 -0.12487171 0.16379704
-0.04117024 -0.064642824 0.034906186 0.014416309 0.05048328 0.08512839 0.052774414 0.004761177
0.044553418 -0.008460095 -0.02780717 -0.041760284 0.08288728 0.049872845 -0.050604515 -0.05536615
-0.059895486 -0.029090257 -0.064938456 -0.15367945 0.020425042 -0.01713219 -0.083498284 -0.063179895
00000000: e31e b13c 0a98 b63c 91bb 253d 8008 da3c
00000010: 63b7 803c fbf9 bc3b 8df4 043c cbe3 083d
00000020: 5f73 e63c b619 ac3b d61e 89bc 5fdf d4bc
00000030: 1e62 953d 7176 c63d 32dd 883d 5f5f 043d
00000040: f429 713c 5421 9abc 69fc efbc fd4c 49bc
00000050: 2df5 01bd 84f6 e7bd 8cf3 aabd f85f 85bd
00000060: 416a c8bc 49e1 843c 7c45 063d 9f2e 15bd
00000070: a45d ddbc 062c 09bd 7651 26bd 09c4 51bd
00000080: ddb7 b6bc 141f c3bb 2bae abbc 2100 a23d
00000090: 1483 813b 6767 243d 5233 913d ee2d 1e3d
000000a0: f69b 7d3d 0e54 9b3d 5f6b 243b 99c4 c93c
000000b0: f65e 483d aab7 91bd d871 52bd bf51 edbb
000000c0: f582 7cbc 29ba e23c 4af0 ac3c 4ba7 13bd
000000d0: dd4f 903c 5306 703c 4bad ddbd 197f 10bd
000000e0: 1d89 5bbd dc9a 043c 66e2 b3bb b0d0 4abd
000000f0: 9abd 193c 3352 143d cc54 a6bb b007 80bc
00000100: a40b 86bc b20e 83ba 862c 1c3c 0ffa 5e3d
00000110: 1f17 f83c 6384 cc3a 1dcd c43c ba1c 533c
00000120: 21a7 38bd 87ee 52bc 97ea 10bd 92ad 293d
00000130: 861f e83d 4b6d 933d b1b5 0d3c 21a3 333d
00000140: 0684 473d 931c 1e3c 5d23 f53b 838d 9a3c
00000150: 8391 dc3b af46 a73c bbb4 493c 6aa9 823c
00000160: fab6 d83c ef62 493c 1611 0abd e89c e6bc
00000170: 241f 82bd 0d63 843d c485 aa3d ce72 833d
00000180: e42a d13c c58f 313b c521 5fbd 185a 90bb
00000190: 0d80 273d 28cf 253d c3db b43c 2fc8 a33d
000001a0: 240e 193d f44d 2bbd bc73 33bb dc0a 70bd
000001b0: 0182 03bd 4a18 86bb 3359 b2bb 3efa febc
000001c0: ffa6 eabc f699 15bc b03a 2c3b e44e 0dbd
000001d0: f7dd 283d c45d 9cbc 67fb 64bc a10a ef3b
000001e0: 4b4f ba3b b962 00bc 24eb c6bc 9e2d 9a3c
000001f0: c51a 5f39 feec 17bd 3789 8abc 0cc5 a6bc
00000200: 7327 cfb8 32f0 ccbc d898 80bc 8405 adbc
00000210: 93ad 403d 31af 983d d178 833d 52ae 943d
00000220: e69b 7d3d eebd 1f3d dfa9 d8bb f6de 0d3b
00000230: 9830 303d 4ea1 a7bd 3679 a2bd 459a 0dbd
00000240: 6e3b 42bd 6313 ecbc 20ab 3cbc b8f6 003c
00000250: 16ce d83a c029 f1bb 4d46 02bb 99f0 cc3c
00000260: 6d9d 0d3d 2365 913b b7f1 9d3c 8045 433d
00000270: 7f6b b8bc 7935 ddbc 707f be3b 6f2a 07bc
00000280: 1722 69bc 2f23 9cbb ae15 10bc 6482 a6bc
00000290: c20e ddbc 7bdb e6ba 4a0f 263d fa5c f63c
000002a0: e582 063d 859a 813d e493 183d b26c 083d
000002b0: 38af 523c 9aae e03c 600c 75bb 7623 e2bc
000002c0: 4745 023d 157b 2fbc 68be febc 7edb 443c
000002d0: e450 d5bc 1a79 1abc 92b5 c53c 6bb2 25bd
000002e0: fd01 68bd 72ff 79bd 604e 013c 6112 0dbc
000002f0: 83de e6bc a910 6dbd b621 edbc ce7e 88bb
00000300: 7ef0 893d 9c66 b13d 7945 c83d c26d 03bd
00000310: 22bd bebb de48 483d b1ee 123d f2de 1a3d
00000320: 78d3 ec3c 7a1b 38bd 4795 80bd ceff 9bbd
00000330: dd1b a93d 6938 c43d d58f ad3d cce1 963b
00000340: c893 98bb a370 a7bb 26d0 db3c 2231 c83c
00000350: 4beb 183d 7dba 393c 6174 33bc 8369 333c
00000360: 3d0d 77bc 76ac e4bc 7604 41bb 4184 b73c
00000370: 9482 cd3c 0f35 8c3d f0f4 c0bc f78b 05bd
00000380: dd36 47bc d729 a33d 9536 34bd 7bee 7bbd
00000390: 54f0 303d 9c9f f9bd bdbc ffbd 69ba 273e
000003a0: 20a2 28bd 7563 84bd caf9 0e3d 6232 6c3c
000003b0: 8ec7 4e3d cb57 ae3d fc29 583d a603 9c3b
000003c0: a57d 363d 369c 0abc ddcb e3bc d50c 2bbd
000003d0: cec0 a93d 7847 4c3d ae46 4fbd 9ec7 62bd
000003e0: f854 75bd b14e eebc 74fe 84bd 255e 1dbe
000003f0: 6b52 a73c ce58 8cbc 2601 abbd 7664 81bd

tfeb.8.weight f4 [28]
0.24565348 0.4717698 0.24186362 0.33970872 0.40909168 0.35539493 0.2897488 0.22880308
0.16927898 0.4127139 0.29024127 0.4200349 0.30302998 0.22403713 0.23015481 0.34698138
0.382913 0.48105267 0.41497037 0.39932793 0.49753127 0.33349076 0.24925798 0.28519762
0.48296365 0.35454848 0.3911737 0.22763805
00000000: 968c 7b3e d08b f13e 19ab 773e 4dee ad3e
00000010: 7774 d13e 53f6 b53e f459 943e 5b4b 6a3e
00000020: 7857 2d3e 3c4f d33e 819a 943e d00e d73e
00000030: bf26 9b3e fd69 653e b4ad 6b3e 8ba7 b13e
00000040: 2c0d c43e 894c f63e ff76 d43e b674 cc3e
00000050: 6bbc fe3e 4dbf aa3e 7c3d 7f3e 6c05 923e
00000060: 0347 f73e 6187 b53e eb47 c83e f319 693e

tfeb.8.bias f4 [28]
0.13691972 -0.10391255 0.026899317 -0.049985304 -0.096659005 0.014232964 0.017808186 0.08550236
0.04170276 -0.061957333 -0.14863735 -0.077682234 -0.0309669 0.097058654 0.1697913 -0.045285504
-0.12156458 -0.09118392 -0.066717476 -0.07018125 -0.18983762 -0.038107134 0.07508089 -0.017523386
-0.03417127 -0.052509427 -0.01537849 0.11741096
00000000: af34 0c3e 1ad0 d4bd f55b dc3c 64bd 4cbd
00000010: 28f5 c5bd 6131 693c 79e2 913c dc1b af3d
00000020: 83d0 2a3d f9c6 7dbd 6434 18be dd17 9fbd
00000030: 4cae fdbc b0c6 c63d c5dd 2d3e 4b7d 39bd
00000040: daf6 f8bd a3be babd 2ca3 88bd 30bb 8fbd
00000050: cb64 42be 3a16 1cbd 02c4 993d 348d 8fbc
00000060: 2cf7 0bbd 2014 57bd 10f6 7bbc 2875 f03d

tfeb.8.running_mean f4 [28]
0.20250264 -0.28686985 -0.14978375 -0.08102203 -0.34537062 0.008091712 -0.27525082 -0.28884366
-0.07085058 0.035829917 0.124595836 0.15350796 -0.13628216 0.040842652 0.1271199 -0.43438575
-0.2888095 -0.04949102 -0.16724016 0.04849204 -0.23577353 -0.2373839 -0.66989636 -0.20732953
-0.12732784 -0.08948381 -0.38672456 0.43447524
00000000: da5c 4f3e 9be0 92be e960 19be e1ee a5bd
00000010: 6bd4 b0be 1a93 043c aded 8cbe 51e3 93be
00000020: 1c1a 91bd 64c2 123d 1a2c ff3d 3131 1d3e
00000030: 8d8d 0bbe a04a 273d b82b 023e cf67 debe
00000040: d7de 93be 19b7 4abd 0141 2bbe 979f 463d
00000050: 9e6e 71be c414 73be 547e 2bbf 314e 54be
00000060: 3b62 02be 4a43 b7bd c300 c6be 8a73 de3e

tfeb.8.running_var f4 [28]
0.02771306 0.11323018 0.015549117 0.035079617 0.06865861 0.03504074 0.024290295 0.036587287
0.007976471 0.0864938 0.021273306 0.031551342 0.07307356 0.054553058 0.0525252 0.032768887
0.054353613 0.1341602 0.098597296 0.05402752 0.07938345 0.0695895 0.032989565 0.07253695
0.04993308 0.032961786 0.028500086 0.045357767
00000000: 8006 e33c 3ae5 e73d b9c1 7e3c a5af 0f3d
00000010: e39c 8c3d e186 0f3d 71fc c63c 8ddc 153d
00000020: bfaf 023c a923 b13d 5b45 ae3c fb3b 013d
00000030: 97a7 953d 0773 5f3d aa24 573d ab38 063d
00000040: e5a1 5e3d 4b61 093e 61ed c93d f64b 5d3d
00000050: ca93 a23d f184 8e3d 1120 073d 418e 943d
00000060: a186 4c3d f002 073d 0379 e93c 11c9 393d

tfeb.11.weight f4 [32, 28, 3, 3]
-0.020264164 -0.02670832 -0.029083436 0.033274837 0.036835358 0.020917948 0.07205717 0.059776366
0.051827617 -0.032687854 0.009663275 -0.003878916 0.0026431903 0.013838887 0.029692471 -0.020399828
-0.0033979316 0.030298827 -0.016158294 -0.030576158 -0.025670601 -0.01770643 -0.02547376 -0.019512614
0.032579176 0.018217936 0.026154267 0.031692296 0.023655994 0.02755646 0.041028034 0.020573039
-0.004996421 -0.005700938 0.014688533 -0.026812064 0.023971664 0.016601143 0.039430894 0.01767448
0.002668412 0.019354478 -0.0265174 -0.0769344 -0.023014437 -0.016014706 -0.019550469 -0.0099392375
0.022353634 0.015601575 -0.007908639 -0.0211298 -0.02279743 0.008947769 0.008245067 0.013635088
0.011355292 -0.023803327 -0.020169303 -0.01772841 -0.005989045 -0.018464014 -0.0033377623 -0.03416499
-0.008500838 -0.01763825 -0.06045068 -0.03310841 -0.016818466 -0.027445333 -0.010397603 0.02314772
-0.03112492 -0.030074446 -0.02823669 -0.021146202 -0.02268399 -0.013359629 0.004820415 0.0037354825
0.0106735965 -0.005676033 0.0035362982 0.027050935 0.016174408 0.04760776 0.024877448 -0.0037268563
0.013176886 0.031201014 0.012317727 0.011683579 0.011822298 0.03809059 0.03702552 0.00986829
0.031778857 0.040508144 0.032646716 0.0067828707 0.043218527 0.022592254 -0.0110066375 0.011217474
-0.019848723 0.025650563 0.02224763 0.019693024 -0.04445216 -0.058311913 -0.052891593 -0.07208167
-0.08173996 -0.071499586 0.023787523 0.036194358 0.050635766 -0.025673902 -0.021035058 -0.012338423
0.013679912 0.013209459 0.018982109 0.008659774 0.026549846 0.041888252 -0.06976972 -0.07307239
-0.07727064 0.026408767 0.02234058 0.04033328 0.045517184 0.030233584 0.045671754 0.02409503
0.04323708 0.03637191 0.0030600503 0.013521553 0.020282278 0.020376151 -0.005147721 0.004745912
-0.038849257 0.030552907 0.0052208393 -0.045381024 0.040352043 0.020612689 -0.049005475 0.02268856
0.05318944 -0.04208342 -0.03196575 -0.03471439 -0.045511413 0.051480543 0.03666121 -0.052840073
-0.0032524655 0.027320787 0.0077366713 0.006379917 0.017149916 -0.0027709675 -0.026560144 -0.04556041
-0.012484724 -0.034400117 -0.03600158 -0.0047135046 -0.010971376 -0.0061662253 0.028008373 0.035092577
0.045360953 -0.025288112 -0.01724218 -0.013122563 0.012822878 -0.006347229 0.0037142637 -0.0046312087
-0.021837577 -0.028455151 -0.020923037 -0.039285563 -0.04173025 -0.04221971 -0.016710877 -0.017962364
-0.029244915 -0.0027927028 0.02390669 -0.040970836 -0.011644435 0.009247294 -0.021827657 0.02452019
0.007131671 -0.06657438 -0.019254206 -0.034986783 -0.016787441 0.014098363 0.01847953 -0.04843831
-0.030257 -0.014588059 -0.024465209 -0.0050053676 -0.014725247 -0.024319658 -0.0021487447 0.0036028586
0.00327866 -0.0059845154 0.011109565 -0.001503949 -0.015559653 -0.017457174 -0.106280856 -0.09544538
-0.08776817 -0.009460577 -0.004124104 0.0014145256 -0.0029186618 0.0041092103 0.004768832 0.022049097
0.04156913 0.052755445 0.0025965285 0.0080644 0.0069053886 0.004503672 0.012535808 -0.003322001
-0.009897504 0.010050007 0.009180947 -0.030107686 -0.034677424 -0.04696857 0.054775815 0.061180495
0.06671664 0.06418248 0.059006065 0.07166919 -0.13351491 -0.06788415 0.010627151 -0.14800902
00000000: 0801 a6bc 68cb dabc 6340 eebc 324b 083d
00000010: ace0 163d 1e5c ab3c b692 933d 10d8 743d
00000020: 3249 543d b3e3 05bd b752 1e3c 6935 7ebb
00000030: 6039 2d3b 80bc 623c a03d f33c 8a1d a7bc
00000040: d5af 5ebb 3f35 f83c 665e 84bc da7a fabc
00000050: 274b d2bc 130d 91bc 59ae d0bc ebd8 9fbc
00000060: be71 053d c83d 953c 7941 d63c c8cf 013d
00000070: 37ca c13c 16be e13c 030d 283d ca88 a83c
00000080: 04b9 a3bb efce babb 2ca8 703c f9a4 dbbc
00000090: 3960 c43c 1fff 873c 4a82 213d 12ca 903c
000000a0: 86e0 2e3b 488d 9e3c 053b d9bc c88f 9dbd
000000b0: c688 bcbc 4631 83bc 4e28 a0bc 2fd8 22bc
000000c0: f81e b73c c09d 7f3c 3c93 01bc 6718 adbc
000000d0: adc1 babc aa99 123c 5116 073c b465 5f3c
000000e0: 8c0b 3a3c 32ff c2bc 183a a5bc 2c3b 91bc
000000f0: c03f c4bb d841 97bc 5cbe 5abb 97f0 0bbd
00000100: 1947 0bbc 177e 90bc 229b 77bd af9c 07bd
00000110: e1c6 89bc 09d5 e0bc b55a 2abc 4aa0 bd3c
00000120: b0f9 febc af5e f6bc a250 e7bc cd3a adbc
00000130: c6d3 b9bc 58e2 5abc 92f4 9d3b ffce 743b
00000140: 4fe0 2e3c 04fe b9bb 3dc1 673b ec99 dd3c
00000150: 3180 843c 5b00 433d cacb cb3c 463e 74bb
00000160: dee3 573c 4599 ff3c 4bd0 493c 7b6c 3f3c
00000170: 50b2 413c e104 1c3d 12a8 173d 9cae 213c
00000180: 8c2a 023d deeb 253d 90b8 053d d842 de3b
00000190: e905 313d 6413 b93c 2f55 34bc 7fc9 373c
000001a0: ca99 a2bc 2121 d23c a940 b63c 4453 a13c
000001b0: 7813 36bd 79d8 6ebd dba4 58bd 8e9f 93bd
000001c0: 4867 a7bd 606e 92bd 0dde c23c 8940 143d
000001d0: 7367 4f3d 1352 d2bc b751 acbc 1927 4abc
000001e0: b621 603c 7d6c 583c 5e80 9b3c bae1 0d3c
000001f0: 107f d93c 0493 2b3d 6de3 8ebd faa6 95bd
00000200: 1240 9ebd 3357 d83c 9803 b73c 8234 253d
00000210: 3a70 3a3d 6cac f73c 4e12 3b3d f162 c53c
00000220: 5d19 313d b6fa 143d 208b 483b 8189 5d3c
00000230: 0527 a63c e3eb a63c 37ae a8bb 9883 9b3b
00000240: 6620 1fbd 174a fa3c 9313 ab3b 74e1 39bd
00000250: 2f48 253d f1db a83c f7b9 48bd 5cdd b93c
00000260: 2cdd 593d aa5f 2cbd 85ee 02bd ad30 0ebd
00000270: 2d6a 3abd 43dd 523d 112a 163d d56e 58bd
00000280: 5127 55bb d8cf df3c e783 fd3b 9f0e d13b
00000290: fb7d 8c3c 1f99 35bb a994 d9bc 8d9d 3abd
000002a0: ba8c 4cbc 23e7 0cbd 6576 13bd be73 9abb
000002b0: 49c1 33bc 0c0e cabb d171 e53c 3cbd 0f3d
000002c0: 68cc 393d 0429 cfbc 793f 8dbc 0500 57bc
000002d0: 0c17 523c 6afc cfbb 016b 733b 65c1 97bb
000002e0: b8e4 b2bc c71a e9bc ca66 abbc e6e9 20bd
000002f0: 57ed 2abd 93ee 2cbd 40e5 88bc cf25 93bc
00000300: 0893 efbc c705 37bb f6d7 c33c 09d1 27bd
00000310: 4dc8 3ebc f681 173c eacf b2bc 91de c83c
00000320: cbb0 e93b 2658 88bd ffba 9dbc 4d4e 0fbd
00000330: d185 89bc d2fc 663c 6262 973c 4067 46bd
00000340: 87dd f7bc c102 6fbc 436b c8bc 1104 a4bb
00000350: 2a42 71bc 053a c7bc f4d1 0cbb f01d 6c3b
00000360: c9de 563b c119 c4bb e504 363c 2820 c5ba
00000370: eaed 7ebc 5902 8fbc c7a9 d9bd de78 c3bd
00000380: ccbf b3bd 8900 1bbc 7e23 87bb 9a67 b93a
00000390: 0547 3fbb 8ea6 863b dd43 9c3b 4fa0 b43c
000003a0: 6444 2a3d 1816 583d 852a 2a3b 8c20 043c
000003b0: 9946 e23b 8a93 933b fd62 4d3c eeb5 59bb
000003c0: 2429 22bc c9a8 243c af6b 163c 65a4 f6bc
000003d0: ea09 0ebd 1e62 40bd 9b5c 603d 6698 7a3d
000003e0: bca2 883d 1b72 833d 58b0 713d 4cc7 923d
000003f0: 22b8 08be d806 8bbd 801d 2e3c ad8f 17be

tfeb.12.weight f4 [32]
0.32303914 0.35006207 0.33936605 0.29512465 0.2514095 0.44868737 0.3639797 0.41582236
0.57884437 0.31054208 0.35813323 0.3848353 0.364573 0.28819233 0.34857756 0.25557405
0.36997268 0.25941855 0.3054153 0.31343803 0.36041576 0.35643274 0.37966055 0.2730054
0.27530175 0.46415418 0.171436 0.24997011 0.32652935 0.43798706 0.4068964 0.56105936
00000000: 6365 a53e 563b b33e 63c1 ad3e 941a 973e
00000010: bfb8 803e 5aba e53e 8c5b ba3e abe6 d43e
00000020: 252f 143f 5fff 9e3e 3d5d b73e 2209 c53e
00000030: 50a9 ba3e f28d 933e c278 b23e 9ada 823e
00000040: 0f6d bd3e 82d2 843e 655f 9c3e f37a a03e
00000050: 6a88 b83e 5a7e b63e de62 c23e 5dc7 8b3e
00000060: 5af4 8c3e 9ea5 ed3e eb8c 2f3e 2af8 7f3e
00000070: db2e a73e d73f e03e ba54 d03e 96a1 0f3f

tfeb.12.bias f4 [32]
-0.1949656 0.042931408 -0.13945194 -0.050599776 -0.080467075 -0.21072568 -0.0829342 -0.16419321
-0.39809632 0.044751685 -0.12436308 -0.086387694 -0.11050413 -0.004534087 -0.17091909 -0.086984344
-0.18566838 0.159914 -0.083408915 0.04675791 -0.109910004 -0.12545137 -0.06651146 0.12963973
-0.03414781 -0.05609681 -0.1375864 -0.07106699 -0.073867045 -0.17495532 -0.17629649 -0.19499171
00000000: 10a5 47be d8d8 2f3d 7dcc 0ebe b641 4fbd
00000010: eccb a4bd 79c8 57be 68d9 a9bd 4422 28be
00000020: 48d3 cbbe 8b4d 373d 12b2 febd 08ec b0bd
00000030: fd4f e2bd ae92 94bb 6a05 2fbe d924 b2bd
00000040: da1f 3ebe 7fc0 233e 4bd2 aabd 3985 3f3d
00000050: 7f18 e1bd 5376 00be 2937 88bd 47c0 043e
00000060: 93de 0bbd c5c5 65bd 73e3 0cbe 928b 91bd
00000070: 9b47 97bd 7d27 33be 1187 34be e8ab 47be

tfeb.12.running_mean f4 [32]
-0.06354679 -0.51526743 -0.2538584 0.13935548 -0.15111633 -0.85927755 -0.19228816 -0.3981101
-0.6649267 -0.11964099 -0.25436717 -0.5710953 -0.40175015 -0.5538586 -0.09433032 -0.07401709
-0.30811965 -0.118223995 -0.15663128 -0.43371066 -0.31879866 -0.5415447 -0.350145 -0.43906292
-0.09112542 -0.7190793 -0.14423695 -0.055532835 -0.12787956 -0.361035 -0.2721782 -0.75931275
00000000: d224 82bd 91e8 03bf baf9 81be 34b3 0e3e
00000010: 3dbe 1abe 9df9 5bbf 30e7 44be 16d5 cbbe
00000020: a338 2abf 5606 f5bd 6a3c 82be 4d33 12bf
00000030: 32b2 cdbe adc9 0dbf 4130 c1bd 4696 97bd
00000040: dcc1 9dbe 6c1f f2bd f363 20be 530f debe
00000050: 9439 a3be aca2 0abf 3546 b3be dbcc e0be
00000060: f79f babd 9515 38bf dab2 13be 6676 63bd
00000070: dcf2 02be 94d9 b8be f15a 8bbe 5262 42bf

tfeb.12.running_var f4 [32]
0.05206145 0.31569692 0.12343406 0.11199785 0.027912801 0.33229488 0.19272153 0.16553491
0.25299022 0.1332754 0.2051115 0.25483114 0.14005086 0.13075383 0.10571891 0.11542648
0.10013779 0.3023755 0.09827166 0.15868513 0.09317527 0.17558013 0.25338784 0.2871773
0.02410858 0.5062995 0.01401819 0.111639924 0.06358732 0.2728757 0.14490712 0.46269447
00000000: 633e 553d 07a3 a13e ffca fc3d 215f e53d
00000010: 63a9 e43c 8e22 aa3e cb58 453e fc81 293e
00000020: ef87 813e 5979 083e c008 523e 3a79 823e
00000030: 7e69 0f3e 55e4 053e 2883 d83d b864 ec3d
00000040: 0b15 cd3d f6d0 9a3e a742 c93d 5b7e 223e
00000050: add2 be3d 47cb 333e 0dbc 813e e708 933e
00000060: 5b7f c53c d89c 013f 8dac 653c 79a3 e43d
00000070: 123a 823d 5db6 8b3e 8862 143e 4ae6 ec3e

tfeb.14.weight f4 [34, 32, 3, 3]
-0.0018055239 -0.0013796883 -0.00094420207 -0.00059969584 -0.0016220971 -0.0006840641 0.0011686819 -0.0023796586
0.00013523902 -0.00027594308 -0.00056135736 -0.0015696789 -0.00059667835 0.00072213437 -0.00084110093 -0.0015377464
0.0009470282 -0.0007572346 -0.00036865758 -0.00026399546 -0.0006058828 -0.0010765438 0.0010460063 -0.0001943101
-0.0018579236 0.0027672139 -0.001362668 -2.6770686e-06 0.0007857737 0.0003714631 -0.0013612057 0.00088882755
-1.4764293e-05 -0.001964409 -0.0001872433 -0.00035329754 -0.00039315587 -0.0016474079 -0.00032262216 0.00066882017
-0.00068979955 0.0013633794 -0.00021720202 -0.0017236564 0.002828336 -0.0019005957 -0.00029260173 -0.001494684
8.090223e-05 -0.0015526342 -0.0006169106 0.00051115756 -0.00078457536 0.0004487006 -0.00092511275 3.651593e-05
0.0004379373 -0.00049179257 -0.0017398791 -8.823453e-06 9.2045215e-05 -0.0018016039 0.0018016578 -6.069341e-06
-0.002751747 -0.0008866881 -0.00027926618 -0.00032365476 7.4403666e-05 -0.00041742294 0.0032435206 -0.0018375597
-0.00052131584 -0.0003373254 -0.0003131144 -0.0014999732 0.0007403874 -0.0013395147 0.0022087714 -0.00070389296
-0.0036780962 0.0011862359 -0.0018695447 -0.0019235249 -0.0006524275 -0.0007209298 -0.0006724671 -0.0014782054
-0.0008805441 0.0027445327 -0.00030924933 -8.207593e-05 0.00026215264 -0.0013902095 -0.00038101364 0.00024718506
-0.0006561171 -0.0018088073 0.0010477122 -0.0010864733 -0.0014792996 -0.00024799936 -0.00030278065 -0.000117430485
-0.001696972 -3.3550154e-05 -0.0009261328 3.973942e-05 -0.0016380417 0.00014183654 -0.0028327808 -0.00035594215
0.0013898447 -0.003615726 0.0013264538 -0.0008007314 -0.0021804383 0.0002640329 -8.2733386e-05 -0.00056528184
-0.00039045015 0.0007362573 -0.00042222903 9.7368466e-05 -0.0010179955 0.0003826629 0.00071842986 -0.00078473485
-0.0015730377 0.0003720671 -0.002226414 -0.00030923728 -0.0007295525 -0.0010915053 0.0032677185 -7.824206e-05
-0.00082437316 -0.0018925248 -0.0003644339 -0.0013885353 0.0010081272 -0.0012400766 0.0003460862 -0.0005642075
8.3696956e-05 1.1166061e-05 -0.0014030621 -7.948129e-05 -0.0005494893 -3.1726988e-05 0.0012536639 -0.0018950138
-0.0002613457 -0.0014527957 0.0015132725 -0.00045515908 -0.0004136287 0.0015002677 0.0005836102 -0.0015998938
0.00082537223 0.00013263083 0.0007588799 9.1980044e-05 -0.0005961663 -0.0007701424 -0.000675105 0.0005278003
-0.0010199941 -0.0022197133 0.002966876 -0.00041744945 0.0005553711 -0.0013311204 -0.0018880537 0.00065727695
-0.000793917 -0.0016288117 -0.00011052683 0.00015926734 0.00024851834 0.00015280415 -0.0016854535 0.00032792572
-0.0008016322 -0.0010644025 -0.0022371854 -0.0024259682 0.001220345 -0.00017654651 0.000756662 0.00011918983
-0.00045558414 0.00023284771 9.420616e-05 -0.0007092038 0.003768931 -0.0033021304 -0.0019854745 -0.0020894639
-0.002217657 0.0009213586 -0.0012764495 -0.0025820965 0.0018001768 -3.1193827e-05 -0.0004892142 0.0009241749
0.00032583944 -0.0014839432 -0.00090525567 -0.0012900708 0.0006067205 -0.001963047 -0.0025836919 0.0014450046
0.00013844621 -0.0010858468 -0.0012753146 -0.000212223 -0.0010614078 -0.0010406275 -0.00021649772 -0.00080157496
0.00034064884 0.00018336887 -0.0019503935 -0.0019160362 -0.001572069 -0.00401524 -0.00083245494 0.0012953581
-0.0015560328 -0.0018361632 0.0010045613 -0.0012827258 -0.00066854025 0.0005211898 -0.0023016536 -0.00038427656
2.913556e-05 -0.0015951694 0.0013429148 -0.0021672721 -0.0022719766 -0.00043540954 -0.0010215854 -0.0007250514
-0.0012656661 -0.0017838513 0.00018595032 -0.000875132 -0.0004245766 0.00069891463 -0.00026888627 0.0011483418
00000000: 54a7 ecba a8d6 b4ba 5484 77ba e834 1dba
00000010: 8c9c d4ba c452 33ba 752e 993a 0cf4 1bbb
00000020: f3ce 0d39 74ac 90b9 0e28 13ba afbd cdba
00000030: 686a 1cba 9e4d 3d3a 547d 5cba 358e c9ba
00000040: fd41 783a 2781 46ba 6248 c1b9 df68 8ab9
00000050: 1bd4 1eba d11a 8dba 261a 893a b8bf 4bb9
00000060: 9285 f3ba 255a 353b 8d9b b2ba b0a7 33b6
00000070: 61fc 4d3a efc0 c239 7c6a b2ba 3500 693a
00000080: 28b4 77b7 50bd 00bb be56 44b9 cb3a b9b9
00000090: 7d20 ceb9 d6ed d7ba 9d25 a9b9 c353 2f3a
000000a0: aad3 34ba 6cb3 b23a b9c0 63b9 50ec e1ba
000000b0: 9b5b 393b 691d f9ba 5768 99b9 46e9 c3ba
000000c0: 0eaa a938 c281 cbba 2bb8 21ba 34ff 053a
000000d0: f6ab 4dba 933f eb39 4483 72ba ae28 1938
000000e0: f39a e539 a4eb 00ba a80c e4ba 7108 14b7
000000f0: 6608 c138 cc23 ecba 9b25 ec3a 3ea7 cbb6
00000100: a756 34bb a270 68ba 796a 92b9 35b0 a9b9
00000110: 2a09 9c38 8fd9 dab9 3f91 543b 46da f0ba
00000120: eaa8 08ba 0cdb b0b9 8129 a4b9 c09a c4ba
00000130: 8f16 423a a892 afba 09c1 103b 7585 38ba
00000140: 370c 71bb 797b 9b3a 830b f5ba c91e fcba
00000150: ab07 2bba c8fc 3cba 8148 30ba 58c0 c1ba
00000160: 50d4 66ba 9edd 333b be22 a2b9 2e20 acb8
00000170: 8871 8939 b137 b6ba c9c2 c7b9 9e98 8139
00000180: 46ff 2bba 8015 edba 6353 893a ff67 8eba
00000190: 0fe5 c1ba e905 82b9 88be 9eb9 0345 f6b8
000001a0: ee6c deba 34b8 0cb8 b8c7 72ba e1ad 2638
000001b0: 8fb3 d6ba f5b9 1439 2da6 39bb bf9d bab9
000001c0: 732b b63a d1f5 6cbb 67dc ad3a 2de8 51ba
000001d0: afe5 0ebb e56d 8a39 2681 adb8 6c2f 14ba
000001e0: 55b5 ccb9 6401 413a 9f5e ddb9 4c32 cc38
000001f0: 436e 85ba 25a0 c839 0355 3c3a aab6 4dba
00000200: 632e ceba 0012 c339 07e9 11bb 2021 a2b9
00000210: 713f 3fba d710 8fba 3827 563b e315 a4b8
00000220: bf1a 58ba 980e f8ba 7d11 bfb9 83ff b5ba
00000230: 2323 843a 118a a2ba e772 b539 53e7 13ba
00000240: 7686 af38 de55 3b37 f4e6 b7ba 31af a6b8
00000250: 9a0b 10ba 9812 05b8 fb51 a43a 1d62 f8ba
00000260: 3a05 89b9 bc6b beba 0059 c63a 6ba2 eeb9
00000270: 4edc d8b9 a1a4 c43a 6bfd 183a 87b3 d1ba
00000280: cb5d 583a d112 0b39 91ef 463a 69e5 c038
00000290: 0b48 1cba 62e3 49ba 88f9 30ba 145c 0a3a
000002a0: 53b1 85ba 9c78 11bb eb6f 423b 1edd dab9
000002b0: 5396 113a fd78 aeba 9278 f7ba 1c4d 2c3a
000002c0: de1e 50ba da7d d5ba a4ca e7b8 0001 2739
000002d0: 914b 8239 0d3a 2039 6fea dcba 72ed ab39
000002e0: a024 52ba 6c83 8bba be9d 12bb fefc 1ebb
000002f0: fcf3 9f3a 581f 39b9 ba5a 463a 8df5 f938
00000300: 78db eeb9 9528 7439 8c90 c538 dde9 39ba
00000310: 2b00 773b 8e68 58bb bc1e 02bb 63ef 08bb
00000320: 1c56 11bb 5487 713a 8a4e a7ba 6438 29bb
00000330: e9f3 eb3a 1ed6 02b8 9c3e 00ba 5444 723a
00000340: 6ed5 aa39 df80 c2ba ae4e 6dba 9817 a9ba
00000350: 530c 1f3a 77a6 00bb 2853 29bb 4f66 bd3a
00000360: df2b 1139 f952 8eba 7528 a7ba 2e88 5eb9
00000370: f01e 8bba aa65 88ba aa03 63b9 c920 52ba
00000380: 1d99 b239 b546 4039 59a4 ffba 8223 fbba
00000390: e20d ceba 4692 83bb 1b39 5aba 01c9 a93a
000003a0: ccf3 cbba 6aab f0ba 7cab 833a 2321 a8ba
000003b0: fa40 2fba 75a0 083a 57d7 16bb ba78 c9b9
000003c0: 2468 f437 0115 d1ba be04 b03a cb08 0ebb
000003d0: 71e5 14bb ae47 e4b9 b8e6 85ba 6011 3eba
000003e0: b5e4 a5ba 1ed0 e9ba a9fb 4239 1d69 65ba
000003f0: b599 deb9 5e37 373a 4ef9 8cb9 f583 963a
