trained_models/step_5_retrain_after_step_4/retrain_4C_after_2nd_pruning_prunratio0.85_2024060419/retrained_4Cmodel_ratio85.0_vaacc90.82125091552734_tracc_80.50986842105263@477epoch_20240604214940.pt (torch, 309234 bytes, 62 tensors)

sfeb.0.weight f4 [8, 1, 1, 9]
000000 f7 cf 7b 3e 3a 4c 31 3e 11 d5 a9 3e 4c c4 cb 3e
       0.24591051 0.17314234 0.3317037 0.397982
000010 fa 3e ea 3d f7 6c 66 be 5c 85 05 bf b0 ec 9a be
       0.11437793 -0.22502504 -0.52156615 -0.30258703
000020 08 3c b8 bd 0d b4 6c 3d 46 e1 a7 3d 9a 85 ec bc
       -0.08995825 0.057788897 0.081972644 -0.0288723
000030 ff 36 ab be 86 0e 25 3d 49 3a 59 be 54 14 a6 be
       -0.33440396 0.040297054 -0.2121364 -0.32437384
000040 9c cd c3 3e 80 c2 19 3f a9 8b 52 be bc da 65 be
       0.38242805 0.6006241 -0.20561089 -0.22446722
000050 8b 37 66 3e ba 1a 8b 3d 93 8b 2d be d2 b8 5e be
       0.22482125 0.06792207 -0.16947775 -0.21750191
000060 bf 00 de 3d ba ac b6 be 4f c8 f4 be de da 40 3f
       0.10839986 -0.35678655 -0.47809073 0.75333965
000070 1c 28 c4 3e 58 c9 92 bd 3e 31 6b 3b f6 5d 63 be
       0.3831185 -0.071673095 0.0035887505 -0.22203812
000080 f4 06 c2 3c c5 8f 1a 3e 5c b3 15 bd 7f 3e 94 3d
       0.023684956 0.15093906 -0.036548004 0.07238483
000090 bc 89 26 bf 6d 4d cc be 12 5d eb 3c b4 8c 54 3b
       -0.65053916 -0.3990282 0.028730903 0.0032432498
0000a0 bc b7 9b 3e 22 36 84 3e 6e 5b 1b be 00 7a 90 3d
       0.30413616 0.2582255 -0.15171596 0.0705452
0000b0 7a c0 47 be 7e cd a3 be 24 32 01 bd 1d b2 4f 3e
       -0.19507018 -0.31992716 -0.03154196 0.20282789
0000c0 97 0a 9e 3d ab 79 fe be 05 86 97 3d 48 66 2a 3f
       0.077168636 -0.497022 0.07398609 0.6656232
0000d0 0d eb d5 bb 63 a8 05 bf 42 80 83 bd c9 c4 62 be
       -0.0065282644 -0.5221006 -0.064209476 -0.2214538
0000e0 7e ec 84 3e ca 27 b1 bd 0d d9 0d bf 77 fe fb 3e
       0.2596168 -0.08650167 -0.5540932 0.4921758
0000f0 1f c8 c4 3d 08 87 eb be 23 ba e0 3e 19 07 3f 3d
       0.096084826 -0.46001458 0.4389201 0.04663763
000100 1d b5 38 bb 62 7e 3d be fe c6 df bd 39 24 56 3e
       -0.0028184124 -0.18505242 -0.109266266 0.20912255
000110 f4 24 65 3e a2 dc 7b bb f6 83 bc 3e 3a 01 1e 3f
       0.22377378 -0.0038431068 0.36819428 0.6172062

sfeb.1.weight f4 [8]
000000 66 58 6c 3f 7e c8 58 3f f8 bf 45 3f 1a 54 56 3f
       0.92322385 0.84680927 0.77246046 0.8372208
000010 ce da 57 3f d0 ed 22 3f 25 eb de 3e f8 91 43 3f
       0.84318244 0.63644123 0.43538776 0.76394606

sfeb.1.bias f4 [8]
000000 ba 4a 0d 3c ac 40 9e 3d fb 01 0b 3d 8c b3 43 3e
       0.008623773 0.07727179 0.033937436 0.1911146
000010 47 2a 4a 3d fc 29 f2 3d 0a 41 7e 3e b3 8f 43 3d
       0.049356725 0.11824414 0.24829498 0.047744464

sfeb.1.running_mean f4 [8]
000000 95 3d e4 b4 33 9f b6 b5 e5 f8 1b 37 28 be 28 b7
       -4.2513116e-07 -1.360639e-06 9.29667e-06 -1.00578545e-05
000010 eb b1 a4 36 55 59 90 36 64 b1 a5 35 40 bf 26 b7
       4.9082932e-06 4.301934e-06 1.2345085e-06 -9.9389e-06

sfeb.1.running_var f4 [8]
000000 3b ab f2 3c ff 02 84 3c da 87 6a 3c 97 1a b5 3c
       0.029622665 0.01611471 0.014314616 0.022107406
000010 52 68 bf 3c 16 6c 0a 3c 18 52 19 3b b6 26 99 3c
       0.023365173 0.008448621 0.002339488 0.018695217

sfeb.3.weight f4 [32, 8, 1, 5]
000000 64 a7 57 3d 9d db 49 be 83 4c a1 bc b9 22 e3 3b
       0.05264987 -0.19712682 -0.019689804 0.0069316295
000010 85 57 17 be 55 3e c4 bd 6c b9 e0 bd 70 2a 84 bd
       -0.1477948 -0.095822014 -0.109728664 -0.06453407
000020 66 2a 31 3c fd be 3d bc 1b 5e 8c 3e f7 65 65 3e
       0.010813331 -0.01158118 0.27415547 0.22402178
000030 37 11 66 3e e5 0f 12 3e 41 c1 eb 3d ee 43 2a be
       0.22467504 0.14263876 0.1151147 -0.16627476
000040 2e a9 8c bd 1e 20 8d be 5a 5f fc bc 9c 29 a4 bd
       -0.06868206 -0.27563566 -0.030807186 -0.08015749
000050 7e e6 5c 3e ad ce 35 3e 43 05 fe 3c 39 e6 57 3e
       0.21572301 0.17754622 0.031008368 0.21083917
000060 74 5c f1 3d c1 d9 3b 3d 78 b8 83 3c 90 98 a7 bd
       0.11785212 0.045861963 0.016079172 -0.08183396
000070 e8 04 f9 bb 2e 7a 17 3d 82 6b 13 3d f8 d5 57 bd
       -0.007599462 0.036981754 0.0359912 -0.05269429
000080 30 b9 18 3d bf 61 a0 3d 75 9a a7 3c aa 6a ea bc
       0.037285984 0.078311436 0.020459393 -0.028615315
000090 d7 b1 b6 bd 3d 60 0f be f2 c4 e4 bc c9 7e f2 bc
       -0.08920639 -0.14001556 -0.027925942 -0.029601471
0000a0 39 fe 26 be e5 bb 43 be 8d 78 11 bc e5 75 c3 3d
       -0.16307916 -0.19114645 -0.008878839 0.09543971
0000b0 c8 df aa 3d e7 c9 fa bb 70 a5 0f be fb 5d 0a be
       0.08343464 -0.007653463 -0.14027953 -0.13512413
0000c0 64 ae 0e bd af d5 b4 bd 6b 39 c7 3d f8 04 9f 3d
       -0.03483428 -0.088298194 0.097277485 0.077646196
0000d0 7e 78 d3 3d 03 97 86 3e 03 b7 a9 3e 8a 4f 6d be
       0.103257164 0.26287088 0.3314744 -0.23174873
0000e0 33 b3 e3 bd 19 d4 23 be 6c ea 0e bc 74 db f2 bc
       -0.11118164 -0.15998878 -0.008722883 -0.029645659
0000f0 fa 7d 29 3e 4b ce 10 3e bf 92 a6 3c 98 0b b1 bd
       0.16551962 0.14141195 0.020333646 -0.086447895
000100 cf eb c8 39 33 f9 9a 3a ba ec 06 3e 0d fc 9b bc
       0.00038322664 0.0011823535 0.13176242 -0.019041086
000110 9c 98 2e bc ae af 14 3d 0a 8d 14 bc 55 86 34 bd
       -0.010656502 0.036300354 -0.009066829 -0.04407342
000120 6f ae 5c bc bc 38 de bd 8f 82 d1 bc cd d5 6a bd
       -0.013469323 -0.10850665 -0.02557495 -0.057332803
000130 c7 4f 85 bd 1c 7a 8e be 35 86 47 be e5 6e 09 be
       -0.06509357 -0.27827537 -0.1948479 -0.13421209
000140 5d 84 df bd 95 3d 54 be 3b 1a b9 bc 3d ee e6 3b
       -0.10913918 -0.20726617 -0.022595515 0.007047443
000150 53 5e 93 bd 23 e6 36 be 7c 2b a9 bd 3a 9b 16 bd
       -0.07195725 -0.17861228 -0.08260247 -0.03676913
000160 75 6d 41 be de 2b 14 be 57 c4 24 3e e1 d4 73 3e
       -0.18889411 -0.14469859 0.16090523 0.23811676
000170 37 f9 15 3e 5c 7d 65 3e 95 f1 91 3e 24 90 57 be
       0.14645849 0.22411102 0.28504625 -0.21051079
000180 06 b3 fc bd 55 d4 7d be 92 2c cc bd df 10 07 be
       -0.123388335 -0.2478803 -0.099694386 -0.1319003
000190 fc 4e a6 bd 26 ee 43 3c b1 58 01 3d 04 25 ea 3d
       -0.08120534 0.0119586345 0.031578723 0.114328414
0001a0 ce d3 9f 3d 35 5b b1 bc 3a 20 f2 3c a4 e5 4c bd
       0.078040704 -0.021649936 0.029556382 -0.05002369
0001b0 74 07 e6 3d 28 f2 61 3c 7f 67 20 bd d1 50 80 bd
       0.1123189 0.013790645 -0.0391612 -0.062654145
0001c0 5c f2 44 bd 4c 05 9f bd 36 1c 06 be ad cd 17 be
       -0.048082694 -0.07764682 -0.13096699 -0.14824553
0001d0 67 61 8f be 80 90 87 be 5d 7e 05 be b8 79 1e be
       -0.28004 -0.26477432 -0.13036485 -0.1547612
0001e0 4d 94 04 bd a2 16 49 3d ed e3 60 be 71 53 3b bd
       -0.032367993 0.04909385 -0.21961947 -0.045733873
0001f0 04 8d 80 be c9 21 3c be 45 8e a1 bd fd 18 7f 3d
       -0.25107586 -0.18372263 -0.07888464 0.06227969
000200 68 b1 fd bc ec d3 04 be a9 a4 b5 be 06 93 86 be
       -0.030968383 -0.12971467 -0.35477188 -0.26284045
000210 3e 45 3d be d5 9e 72 be a4 24 ac be 1b 67 eb 3d
       -0.18483445 -0.23693402 -0.33621705 0.11494275
000220 4d 65 8c 3e 0a 96 94 3e 7b ea ef 3d 0a 4e b1 3d
       0.27421036 0.2902072 0.117146455 0.08657463
000230 e7 c9 09 be a6 aa 54 be 0f ed a7 be 3b 93 2b be
       -0.13455926 -0.20768222 -0.3279805 -0.16755383
000240 cf 2b a7 bd 20 ea 5e 3d 65 70 43 be 87 b5 22 be
       -0.08162653 0.054422498 -0.19085844 -0.1588956
000250 fa 0c 74 be 2b 88 24 be 60 87 1e be a8 4a 47 be
       -0.23833075 -0.16067569 -0.15481329 -0.19462073
000260 99 73 66 be cb d4 1e be 56 a0 06 be ff c0 3c 3e
       -0.22505035 -0.15510862 -0.13147101 0.18432997
000270 de 29 67 3e c8 80 87 3e 73 50 d4 3e e8 7b 9d 3e
       0.22574565 0.2646544 0.41467628 0.30758595
000280 8b 4e 1d be 4d 42 c9 bd cb 5c 0c be 3b eb e9 bd
       -0.15361993 -0.09827099 -0.13707273 -0.1142182
000290 65 97 92 bd 1b 3d 97 3d 11 bf 81 bb 0e 4e 8b 3c
       -0.071577825 0.07384702 -0.0039595445 0.017004993
0002a0 10 33 e5 3c cf 41 a6 bc 72 70 19 be 3d 74 ce bd
       0.02797845 -0.020295052 -0.149843 -0.100807644
0002b0 35 86 03 be cf f3 53 be e6 ea ec bd 41 83 6f be
       -0.12844165 -0.20698474 -0.11568241 -0.23389913
0002c0 04 09 f4 bd fe 28 d2 bc fd 79 14 bb 2a e3 90 3d
       -0.11915782 -0.025654312 -0.0022655718 0.07074578
0002d0 23 27 ea bd d3 7d 2a bd b9 21 b9 3c 3a d1 77 bd
       -0.11433246 -0.0416239 0.022599088 -0.06050227
0002e0 80 88 c5 bd 5c 03 4b bd 1b 38 0d bd f6 f1 1a 3b
       -0.09645176 -0.04956375 -0.034477334 0.0023642755
0002f0 f8 b1 7b bd 29 34 5c bd d4 a1 7d bd ca 17 df bb
       -0.06144902 -0.05376068 -0.06192191 -0.006808256
000300 fa 61 59 bd 4e d8 33 bc bf 19 8b bd b7 c2 76 bd
       -0.053071953 -0.010976864 -0.0679202 -0.06024429
000310 cf 3b bd 3c 28 c4 e9 3d 83 fc 0b 3e 94 de 33 3e
       0.023099808 0.11414367 0.13670544 0.17565376
000320 1a a5 61 bd 15 48 3c be 1c e5 46 be c7 15 3a be
       -0.055089094 -0.18386872 -0.19423336 -0.1817237
000330 df 48 dc bd 51 95 f0 3d 6f 24 80 3e 89 cd d7 3d
       -0.107560866 0.1174723 0.25027797 0.105372496
000340 ed 5f 92 3d 8c b3 0d 3e 53 80 c7 3d 58 98 2b bd
       0.07147203 0.13838023 0.09741273 -0.041893333
000350 2e 5a 21 bd 9e ea 89 bd 9a 10 5a be cd b4 b7 bd
       -0.039392643 -0.06734203 -0.21295395 -0.08970032
000360 25 ed 89 be af 14 71 be 7d 42 f5 bd e9 db 17 3d
       -0.2693874 -0.23543046 -0.11975572 0.037074957
000370 99 7e 4a 3c 9d 6a b4 3c 68 6a 6b bb 5b c7 51 3e
       0.012359285 0.022023493 -0.0035921577 0.20486204
000380 a0 03 1e 3d 49 5d 2f bc 6c 4b a1 3d 44 46 83 3c
       0.038577676 -0.010703393 0.07875714 0.016024716
000390 fe e8 1b 3d d2 f5 71 bd 21 85 dc 3d db ba a6 3d
       0.038063996 -0.059072323 0.1076758 0.081411086
0003a0 69 f7 96 3d e1 84 d3 3d b6 d7 c7 bc be 17 4e bd
       0.073714085 0.10328079 -0.024394851 -0.05031561
0003b0 c5 6f 8a bd 79 2c 2b 3d 1e 25 ef 3d e1 93 c4 3d
       -0.067595996 0.04179046 0.116770014 0.09598518
0003c0 d5 ac f9 3d bd 2b c2 3d 08 ea dc 3d 3d 35 06 3e
       0.12191168 0.09480999 0.107868254 0.13106246
0003d0 51 3c 89 3d 08 d2 2e be cb 70 7a be 36 54 81 be
       0.067009576 -0.17072308 -0.2445709 -0.2525956
0003e0 af 45 f1 bc 15 ec 97 bc e7 15 5b bd 2a 0c 78 bc
       -0.029452173 -0.01854519 -0.053487685 -0.015139619
0003f0 73 92 d6 3d 60 a8 ea 3d f7 ab 26 3e 04 70 7e 3e
       0.10477152 0.11457896 0.16276537 0.24847418

sfeb.4.weight f4 [32]
000000 d5 a6 3d 3f f3 16 05 3f 73 96 52 3f 35 d7 9e 3f
       0.7408269 0.5198814 0.8226082 1.2409426
000010 08 2d b9 3e e7 7f b1 3e d7 54 1e 3f 8b e9 2c 3a
       0.3616717 0.34667894 0.61848205 0.000659608
000020 8c 46 f5 3e ec d0 10 3f 37 3a 80 3c c0 92 37 3f
       0.47905385 0.5656879 0.015652759 0.717083
000030 7e 2b 1f 3f a0 c2 45 3f bb b7 7a 3f 40 6d 5e ba
       0.6217574 0.772501 0.979366 -0.00084849074
000040 6e 24 25 3f b5 7e e7 3e 87 48 11 3f f9 6f 94 39
       0.6450871 0.45213857 0.5675129 0.00028312186
000050 3a 09 1f 3f 4c 12 11 3f c7 b4 37 3f 29 c8 fa 3e
       0.62123454 0.56668544 0.7176022 0.48980835
000060 a9 fa 35 3a d8 ce 61 3a 72 57 cd 3e da f7 0b 3f
       0.00069419533 0.0008613891 0.40105778 0.54675066
000070 48 53 ca 3e 72 75 16 3f ea 01 00 3f a8 65 d2 3e
       0.39516664 0.5877296 0.5000292 0.41093183

sfeb.4.bias f4 [32]
000000 3e 03 3d 3e ce 0c 6f be 42 ff e9 bd f5 0e 59 bd
       0.18458268 -0.23344728 -0.1142564 -0.05299278
000010 43 7f 96 bd 0c 60 5c bc a7 4e 32 3e c7 d7 98 bd
       -0.07348492 -0.013450634 0.17412816 -0.07463031
000020 3b 14 0f 3d 45 78 b0 bd 9c 3e d8 bc c9 83 bf 3c
       0.034931403 -0.086166896 -0.026397042 0.02337827
000030 0c 40 00 3e 08 ad 04 3e 63 de 86 3c b3 92 34 bd
       0.12524432 0.12956631 0.016463464 -0.044085216
000040 b0 f5 ea bd 33 a7 a0 3d 20 b5 a0 bc ee 98 c8 bc
       -0.114726424 0.07844391 -0.019617617 -0.024486985
000050 f3 a9 ea bb 9b a1 a6 bd 0f 12 a5 bd ba d4 73 3d
       -0.007161373 -0.081362925 -0.08060085 0.059529044
000060 1e 77 a6 bc 9d 7a b7 bc 51 9a cc bc 50 86 93 3b
       -0.020320471 -0.022397334 -0.024975928 0.0045020953
000070 1d 9c dd bd fb 78 86 bd 79 e3 00 be 7f 83 15 3d
       -0.10820792 -0.06566044 -0.12586774 0.036502358

sfeb.4.running_mean f4 [32]
000000 cc 5a b8 3a a7 80 7e be 5c 97 04 bf e8 f8 f7 be
       0.0014065146 -0.24853764 -0.51793456 -0.48432088
000010 64 20 d5 be 41 23 7e bd 2c 83 52 be 00 cd 81 3c
       -0.41626275 -0.06204534 -0.2055785 0.015844822
000020 11 4c 97 be 2f 07 43 be 36 38 48 bd f8 74 5e be
       -0.29550222 -0.19045709 -0.048881732 -0.21724308
000030 e1 39 c2 3c 48 dc c6 3b e8 b9 80 be e2 7c d7 bb
       0.02370924 0.00606874 -0.25141835 -0.0065761665
000040 14 d6 de be 3a a0 c4 be 0f c6 a0 be e3 f8 28 bc
       -0.43522704 -0.38403493 -0.31401107 -0.0103132455
000050 40 19 c8 be 93 a4 1b bf d9 ef cb be 64 48 cf be
       -0.39081764 -0.60797995 -0.39831427 -0.40484917
000060 8e bd 91 bc 1a 5b a6 bc 95 b9 9f be 7a b8 63 be
       -0.017790582 -0.020307112 -0.31196275 -0.22238341
000070 39 ad d8 be 0a c5 c1 be c3 d1 04 be f1 2d b5 bd
       -0.42319658 -0.3784564 -0.12970643 -0.08846653

sfeb.4.running_var f4 [32]
000000 b0 fe d5 3e f0 a1 e6 3e 94 80 4f 3f c9 37 ad 3f
       0.41795874 0.45045424 0.8105557 1.3532649
000010 1b 39 e4 3e 17 5a d1 3e 74 fa 0e 3f 1e 0b 09 3c
       0.44574818 0.40889046 0.5585091 0.008364467
000020 65 a7 c7 3e 89 95 98 3e 50 67 9a 3b 23 c2 13 3f
       0.389949 0.29801586 0.004712023 0.57718104
000030 a7 c2 20 3f 51 26 83 3f c1 ed 9a 3f 9b 22 47 3b
       0.62797016 1.0246068 1.2103807 0.0030385617
000040 aa 4e 5e 3f 68 1f 6d 3f 17 32 81 3f f5 bc 0f 3b
       0.8683878 0.9262605 1.0093411 0.0021932696
000050 1f c5 41 3f 1c f5 8b 3f 11 45 67 3f 3e 84 18 3f
       0.7569141 1.0934176 0.9033976 0.59576786
000060 81 4f b1 3a 5b 5a 93 3a 18 cf 09 3f 79 58 16 3f
       0.0013527722 0.0011242138 0.53831625 0.5872875
000070 ce 65 02 3f 9d c5 16 3f c6 82 7b 3e 17 35 6e 3e
       0.5093659 0.58895284 0.24561605 0.2326244

tfeb.0.weight f4 [13, 1, 3, 3]
000000 ff 36 1b 3d e5 ae 3a 3a f6 ae cb bb 1a 4d 9e 3b
       0.037894245 0.0007121398 -0.0062159253 0.0048309686
000010 9a 5e 11 3a ab ca e8 3a b7 8c 11 3b 5c a4 e2 3b
       0.0005545408 0.0017760595 0.0022209117 0.006916566
000020 9f ed e4 3b 62 a2 25 3c eb ae 3c bc a8 d8 85 3c
       0.0069863345 0.010109516 -0.011516313 0.016338661
000030 a1 5a 90 3c b4 08 58 bc 96 81 79 3c d5 a2 94 3c
       0.01762134 -0.013185669 0.01522865 0.01814405
000040 fe 4a 09 bc ff 79 99 3c 1c 80 73 3e 8e 06 2a 3e
       -0.008379696 0.01873493 0.23779339 0.16604063
000050 76 c4 e6 be 67 9c c9 3e 75 6e e0 3e 7e 4d 2a bf
       -0.45071763 0.39377138 0.43834272 -0.66524494
000060 a6 6f 67 3e 86 7a 3a 3e 3c 5d fd be 6c 6f 78 be
       0.22601184 0.18210801 -0.49485195 -0.24261254
000070 43 04 06 bd 69 56 26 3e 4a 99 21 bf 7a 13 f9 3e
       -0.032718908 0.162439 -0.63124526 0.48647672
000080 df 4d 19 3f 10 c9 a1 be bb 23 1c 3e 3b f7 68 3e
       0.59884447 -0.3159871 0.15248005 0.22750561
000090 ad 70 e4 3c 65 03 f7 3e 5d 16 06 bf 83 99 c0 3d
       0.02788576 0.48244777 -0.52377874 0.0940428
0000a0 6f 56 77 3d 13 71 b5 be 28 d7 18 be e8 ae 66 bc
       0.060385164 -0.3543783 -0.14925826 -0.014079787
0000b0 a6 ed a7 be c1 31 80 3d 24 8d 37 be 24 85 1b be
       -0.327985 0.0625949 -0.17924935 -0.15187508
0000c0 14 f6 2a 3d bc 79 5f be 3b 8e a8 be ef bd 85 3e
       0.041738585 -0.21823782 -0.32921013 0.2612147
0000d0 19 c2 44 be 2a e5 3b be 84 51 6d 3f 06 c6 0c bf
       -0.19214667 -0.18349138 0.9270251 -0.5498966
0000e0 d0 ce 14 bf dd 0c 82 3f 40 17 06 bf 2c 5f 30 bf
       -0.5812807 1.0160176 -0.52379227 -0.6889522
0000f0 9d d1 05 3f 43 b5 9e be 33 f6 05 bf 30 fc 18 be
       0.5227297 -0.30997667 -0.52328795 -0.14939952
000100 77 f0 49 be 30 71 1a be 8b 9c 9f bd cf 73 16 be
       -0.19720636 -0.1508224 -0.0779353 -0.14692615
000110 b7 01 da bd a8 ff ed 3d cb 45 69 3e cd 8f 1d 3e
       -0.10644858 0.11621028 0.2278053 0.15386887
000120 0d a5 6b be 26 e5 ab be a7 ef 02 be ca a2 3a be
       -0.2301218 -0.33573264 -0.12786733 -0.18226162
000130 ad 87 7f be 77 07 c7 bc d1 47 8f bd 82 43 23 be
       -0.249541 -0.024295552 -0.0699612 -0.15943721
000140 46 8e 05 be ff d3 7b bd d8 b4 d0 bd 20 54 5e 3d
       -0.13042554 -0.061481472 -0.10190743 0.054279447
000150 13 42 dc bd cc 6b 0e be fc f6 c7 3b be b6 39 3d
       -0.1075479 -0.13908309 0.006102441 0.045340292
000160 f0 60 e8 be f1 f2 f7 3e 17 b2 ad 3e c2 29 d5 3d
       -0.45386457 0.48427537 0.33924934 0.10408355
000170 76 bd e7 3d 75 75 ab 3e 81 10 19 3d d2 0c 92 3d
       0.11315434 0.3348805 0.037369255 0.071313515
000180 6f 94 69 bd 88 93 bb bd ba 62 74 bd 38 09 af bd
       -0.057026323 -0.09158999 -0.059664465 -0.0854668
000190 dd 77 43 be d2 f9 9d bd 90 4d 52 be 40 72 8e be
       -0.19088693 -0.07713665 -0.205374 -0.2782154
0001a0 3c 83 0d be 87 49 f4 3c 7d 16 d6 bd 3c a8 2d bd
       -0.13819593 0.029820217 -0.10453508 -0.04239677
0001b0 49 cd b3 be 57 f8 72 be 3c f7 ab 3e b4 bb 34 bf
       -0.35117558 -0.23727547 0.33587062 -0.7059891
0001c0 f6 bb 22 bf 39 f9 99 3f d2 c4 bf be c2 0e 97 be
       -0.63568056 1.2029182 -0.3745485 -0.29503447
0001d0 2a cc b1 3e
       0.34726077

tfeb.1.weight f4 [13]
000000 c6 be 75 ba 3a ab 24 bb 7b 22 a3 3e 1a 03 b2 3e
       -0.0009374436 -0.0025126473 0.31862244 0.3476799
000010 ea 1a ab 3e 6c a2 aa 3e 71 04 24 3f 09 2c ac 3e
       0.3341897 0.33327043 0.6406928 0.33627346
000020 4e ee 79 3f 4a 41 b8 3e b5 c8 91 3e 9f 9a 04 3f
       0.9762925 0.35987312 0.2847344 0.51798433
000030 c3 d0 15 3f
       0.5852167

tfeb.1.bias f4 [13]
000000 68 b8 60 bc a1 f7 84 bc 3e ee 3c 3e f8 ab 91 3e
       -0.013715841 -0.01623136 0.18450257 0.28451514
000010 e5 5f b3 3e e8 f0 ab 3e 30 32 b1 3d 10 a4 b5 3d
       0.350341 0.33582234 0.08652151 0.08869183
000020 27 3d 84 be f8 56 f3 bb a1 f4 62 3e 48 a8 62 3d
       -0.25827906 -0.007426139 0.22163631 0.055336267
000030 ae a3 28 3e
       0.16468689

tfeb.1.running_mean f4 [13]
000000 e7 61 a9 3c 54 0f bf 3c d8 c0 cb 3c 3a fd 24 3e
       0.020676566 0.023322739 0.024872229 0.16112223
000010 68 e3 82 be 24 d2 ae be 3a 08 84 be 0e 03 0b be
       -0.25564122 -0.341447 -0.25787526 -0.13575384
000020 13 d8 10 bf 46 a9 c1 bd 20 91 98 3e f2 de d5 be
       -0.56579703 -0.094561145 0.29798222 -0.41771656
000030 6e c5 88 be
       -0.26713127

tfeb.1.running_var f4 [13]
000000 a7 b8 86 3a c4 65 9f 3a 4b 46 e1 3d 56 49 33 3e
       0.0010278419 0.0012161066 0.109997354 0.17508444
000010 63 fd 4a 3e 89 d5 8e 3e 6b c3 de 3e 08 6a 2a 3e
       0.19823222 0.2789729 0.43508467 0.1664201
000020 1b ee 30 3f a4 39 43 3d b5 b3 89 3e 11 91 ca 3e
       0.6911332 0.047662392 0.26894918 0.39563802
000030 83 8f b3 3e
       0.35070428

tfeb.4.weight f4 [25, 13, 3, 3]
000000 88 72 2e 3b 04 22 3f bb c1 f8 9f 3a 40 16 78 ba
       0.002661856 -0.0029164562 0.0012204872 -0.0009463765
000010 2b 30 b4 bb ba 80 5a bb da 71 29 3b d4 6d d2 ba
       -0.005498906 -0.0033340887 0.0025855214 -0.001605446
000020 2b 7e ef b9 de a4 00 3b db 33 c5 bb eb f2 8c 3b
       -0.00045679635 0.0019629519 -0.0060181445 0.004301419
000030 35 36 22 3b 3c a8 eb bb 08 c0 5d 3b 70 5a 57 3b
       0.0024751548 -0.007191686 0.0033836383 0.0032860301
000040 1c 14 5c bb 0c 43 ac 3b 51 a2 a1 3d 5f 4e 25 bc
       -0.0033581322 0.005257016 0.078922875 -0.010089486
000050 fb 9c a5 3d 16 6b d6 bd 7a 8e 4b be d1 21 0d be
       0.08086582 -0.10469644 -0.19878569 -0.13782431
000060 34 7f 4e 3d e7 d5 01 be 7a 83 c8 bc a3 c7 fb bc
       0.05041428 -0.12679254 -0.024476755 -0.030734843
000070 f5 f9 53 bd a2 0a 6d bc 9c 31 98 bd a9 5c 4a bd
       -0.05175205 -0.014467867 -0.07431337 -0.049404774
000080 28 f8 22 3b f9 88 05 be 1d d5 12 bd 17 cb 66 b9
       0.002486715 -0.13040532 -0.035847772 -0.00022010166
000090 63 f8 99 3d 83 61 37 3d 98 04 cd 3d 22 9a 02 bd
       0.07518079 0.04477073 0.10010642 -0.031885274
0000a0 7d 91 8f bd 98 57 96 bd dc 45 c3 3c 4c 3d 24 3c
       -0.070101716 -0.07340926 0.023837022 0.01002438
0000b0 29 26 06 3d 19 5e 8d bd bc 72 27 bc 6b 26 4d bd
       0.032751236 -0.06902713 -0.010220226 -0.050085466
0000c0 ab 9d 3b 3c 88 2a 70 3c f1 bc 5d bd 31 af 45 3d
       0.011451165 0.014658578 -0.054135267 0.04826278
0000d0 42 47 04 3c eb d2 4a 3c 53 27 b2 3d 3c c7 a2 3d
       0.00807363 0.012379388 0.08698907 0.07948157
0000e0 1b 89 69 bd 8d 5d 28 be 0f 44 6a bd c2 dc ab be
       -0.05701552 -0.16441937 -0.057193812 -0.33566862
0000f0 2e 28 c3 3c bb 65 0b be 1c df 04 be 76 e1 96 bd
       0.02382287 -0.13613026 -0.12975734 -0.07367222
000100 21 64 1c bd ac c4 41 3c 14 35 82 3d 9a 57 9c 3d
       -0.038181428 0.011826675 0.0635778 0.07633896
000110 75 fc b1 3d b7 f5 02 bc 78 c1 81 bc e5 c6 b6 bc
       0.086907305 -0.007993153 -0.015839323 -0.022311637
000120 b1 c8 1f bc 60 cf 7d 3b 6a 3e 25 3d 13 83 f3 3c
       -0.009752438 0.0038728341 0.040342726 0.029725587
000130 02 90 0b bb fe 7d fc bb 16 93 c0 3d 13 15 2b 3d
       -0.0021295552 -0.007705449 0.094030544 0.041768145
000140 ce 6c 3e bb b2 c1 42 3c c8 9b e9 bd 49 57 4c 3d
       -0.0029056552 0.011887001 -0.11406666 0.04988793
000150 4c 8d c3 3b 3c a4 e2 bd 8b 0d 23 3d 70 c9 53 bc
       0.0059677716 -0.110664815 0.039807837 -0.012926444
000160 8a 52 6c bd ab 49 eb 3c 6a 38 86 3d a3 b5 dd 3d
       -0.057695903 0.028721651 0.06553729 0.1082566
000170 c0 50 b8 3d 70 35 22 be f7 f9 a7 bd 0e d6 98 bd
       0.08999777 -0.15840697 -0.08201974 -0.07462703
000180 be 41 6e bd 42 45 03 bd f1 99 a2 bc 9a 28 61 bd
       -0.058168165 -0.03204847 -0.019848796 -0.05497036
000190 e4 69 99 bc 34 e1 9d bc 47 84 67 3d fa e0 20 3d
       -0.01872725 -0.019272424 0.056522634 0.039277054
0001a0 63 71 9c 3a 03 18 36 3d cf 20 06 3d 4a 46 1a bc
       0.0011935647 0.044456493 0.032746132 -0.009416172
0001b0 03 f3 3e 3d c2 80 44 be f7 f5 33 bc fb 7a 6f 3d
       0.046618473 -0.19189742 -0.010983936 0.058466893
0001c0 7a 09 51 be b7 9b e9 b9 73 76 83 bc b5 1c 46 bd
       -0.20413771 -0.0004455724 -0.016047692 -0.04836722
0001d0 51 89 0d bc c5 48 d5 3a 3b d6 c3 ba 70 ed 5d b9
       -0.008638696 0.0016272297 -0.0014941165 -0.00021164655
0001e0 6c 24 4b ba fa b9 59 ba 9f 65 38 ba 33 be 1a 3b
       -0.0007749263 -0.0008305606 -0.00070341857 0.0023611903
0001f0 96 f1 a4 3a 25 47 1f ba 91 cd 3c bb af bc 3f bb
       0.0012584205 -0.000607597 -0.002880905 -0.0029256751
000200 46 58 a4 ba 30 2c 44 3b c6 ae ae 3a 0f 25 21 3b
       -0.0012538515 0.0029933564 0.0013327233 0.002458874
000210 b5 19 40 3b 6e c6 0f 3b c5 4c 7f 3b 03 13 88 bc
       0.0029312198 0.0021938342 0.003895567 -0.016610628
000220 c7 8f e3 bc 36 ee ad bd cb 15 49 bc c5 bd 60 3d
       -0.02777852 -0.08492701 -0.012273262 0.05486848
000230 73 fc 23 bd 98 4e 65 3d cf c2 3d 3d 5c 28 83 ba
       -0.040035676 0.055983156 0.046328362 -0.0010006535
000240 87 c5 8e 3d e0 ea eb 3c c4 d4 ca bc 79 ac 05 3d
       0.06971269 0.02879852 -0.024759658 0.032635186
000250 d9 f9 9c bd 15 78 18 be aa f7 14 3d 97 cc a3 bc
       -0.07664842 -0.14889558 0.036369003 -0.019995017
000260 c8 c3 94 bd 37 13 a0 3b 13 0e b4 bd 15 99 9a bd
       -0.07263905 0.004885103 -0.08791747 -0.07548729
000270 c6 3d db bd 8d 63 13 be 6f ea a2 bd a4 da 85 bd
       -0.10705142 -0.14393444 -0.07954871 -0.06535843
000280 bd d0 7e bd d6 e1 3c bc 12 07 09 3d f1 82 0a 3c
       -0.062210787 -0.011528453 0.03345401 0.00845407
000290 f2 08 b0 bc a7 fe b1 bd 9f 36 95 bd 8f 5b 3a bd
       -0.02148864 -0.08691149 -0.07285809 -0.045497473
0002a0 6d e8 bf bd 2a f3 ac bd 65 40 85 bc 1b 2d 30 bd
       -0.093705036 -0.08444817 -0.016266057 -0.043011766
0002b0 b3 b0 cb bd 54 e4 47 be 34 19 55 be a8 44 55 bd
       -0.09945812 -0.19520694 -0.20810395 -0.05206743
0002c0 cb 9a 3d be 21 6e 95 bd a5 fb e0 bc c8 73 ae bd
       -0.1851608 -0.07296396 -0.027463743 -0.08518177
0002d0 2c 69 cd 3d 41 95 c9 3d 11 8a 87 3d ed b8 aa bd
       0.100298256 0.09842921 0.06618131 -0.08336053
0002e0 81 27 bc bd 9e 26 9b bd 6b 1c 99 3a 18 1b 91 3c
       -0.09187222 -0.07575725 0.0011681443 0.017713115
0002f0 61 b8 76 3d 5b e6 12 3d dc 6f dd 3a 85 68 31 bc
       0.06023443 0.035864215 0.0016894299 -0.010828142
000300 17 59 e5 bb 97 71 05 bd c2 ca bd 3b 66 6e a6 bc
       -0.0069991457 -0.03257903 0.005791993 -0.020316314
000310 f7 f3 0e bd 33 fa 9f 3c 0a 31 01 3d 20 54 35 bd
       -0.03490063 0.019528484 0.031540908 -0.04426968
000320 ab cf b6 bc f7 fa 3e bd 01 3c 21 be 46 8f bb bd
       -0.02231582 -0.046626057 -0.15745546 -0.091581866
000330 b7 bc 21 bd f6 c1 44 bd e3 dc 98 bc 46 3c 47 bd
       -0.039486613 -0.048036538 -0.018660014 -0.048641466
000340 64 9a 38 bc e4 fb 87 bd 81 10 ec 3c 0c 79 ea 3d
       -0.011267278 -0.06639841 0.028816463 0.11448869
000350 82 7f 1e bb f9 b3 c0 3d a7 52 05 3e be 60 05 3d
       -0.0024184887 0.09409327 0.1301981 0.032562964
000360 51 ed aa 3d 59 d1 87 3d 88 bf 3f 3d 12 05 f6 bc
       0.08346046 0.06631727 0.046813518 -0.030031715
000370 45 af 45 bd 98 34 9d bc 8d 60 a3 bd 79 33 8b bd
       -0.048262853 -0.019190118 -0.079774 -0.06796927
000380 d8 6e d8 bb bf d6 06 3d 70 f4 b5 bd fc d8 ec bd
       -0.0066050105 0.03291964 -0.088845134 -0.11564824
000390 34 15 df bc 45 94 7a be a7 4c 6a be e5 37 cd bd
       -0.02723179 -0.24470623 -0.22880803 -0.10020427
0003a0 13 85 00 be 01 3b e9 bd 45 dd 11 ba f0 d0 a5 3a
       -0.12550764 -0.11388207 -0.0005564283 0.0012650769
0003b0 df 32 bb 3a 34 78 2a bb 27 d1 2a bc 81 2e 77 bb
       0.0014282129 -0.0026011588 -0.010425842 -0.0037716927
0003c0 48 40 c4 bb 41 db 8e ba 48 93 55 bb 50 ed 3c bb
       -0.0059891082 -0.0010899083 -0.0032589007 -0.0028827973
0003d0 e6 47 b2 3a 2b e5 fb b8 6f bf f2 bb 3a 73 56 bb
       0.001360175 -0.000120112985 -0.0074080746 -0.003272249
0003e0 42 6c ac bb 6d 4c 5f bb f2 cd e0 ba 50 97 e9 3a
       -0.005261929 -0.0034072653 -0.001715122 0.0017821584
0003f0 8f 32 c8 bc 57 b9 9a bd bb 21 d3 3d 73 15 81 bd
       -0.02443817 -0.07554882 0.10309168 -0.06302919

tfeb.5.weight f4 [25]
000000 25 b1 e8 3e 44 ff 5e 3e 32 fb a7 3e d9 fc 98 3e
       0.4544765 0.21777064 0.32808834 0.29880407
000010 5b ea f2 3e 97 ed cf 3e c8 eb 8e 3e 59 7b 8c 3e
       0.47444424 0.40610954 0.27914262 0.27437857
000020 d0 84 28 3f 09 cd aa 3e 93 e5 82 3e f3 55 20 3f
       0.65827656 0.33359554 0.25565776 0.6263115
000030 b6 4f 08 3f ad ff 1e 3f e6 56 62 3e fe 38 8d 3e
       0.5324663 0.6210888 0.22103462 0.27582544
000040 b3 62 b2 3e 6e 23 41 3e 5b f6 e6 3e aa 86 54 3e
       0.34840927 0.18861172 0.4510983 0.20754495
000050 80 de f6 3e a4 e6 6f 3e be 7b 6c 3e 61 a0 d3 3d
       0.4821663 0.23427826 0.23094079 0.10333324
000060 8a 70 80 3e
       0.2508586

tfeb.5.bias f4 [25]
000000 de a8 5d 3d 6a 1d 8b 3e a7 e2 90 3c 29 ba a6 3c
       0.054116122 0.2717088 0.017686201 0.02035244
000010 20 3f ea bc 26 62 bb 3d 9d b8 58 3e c6 bb 8b 3d
       -0.028594553 0.0914958 0.21164174 0.06822924
000020 36 e7 7f bd 6d 89 fe bc 69 fc 2b 3e b5 4c 16 bd
       -0.06247636 -0.03107139 0.16795506 -0.036694247
000030 d6 58 6a be 0a 6c 87 bd 5e 1f 34 3e ff b7 1a 3e
       -0.2288545 -0.06612404 0.1759009 0.15109251
000040 00 e4 bd b5 4d 2a 1b bd 57 2d 8b bd c4 d0 a2 3e
       -1.4147954e-06 -0.037882138 -0.06795757 0.317999
000050 ca 5a 06 be 33 81 9c 3e 3d b1 9e 3e a2 e6 b1 3d
       -0.13120571 0.3056732 0.30994597 0.08686568
000060 e4 8d a8 bd
       -0.082301885

tfeb.5.running_mean f4 [25]
000000 f8 c5 1b bf 13 ba 90 bf bb a7 a9 bd b0 43 86 3d
       -0.6084895 -1.1306785 -0.08283945 0.06555879
000010 f2 ae 55 bf 7a c2 f5 be 39 d2 27 bf eb 98 fb be
       -0.8347007 -0.47999936 -0.6555515 -0.49140105
000020 40 97 13 bf 48 42 11 bf c7 53 17 bf 25 64 08 bf
       -0.57652664 -0.5674176 -0.5911221 -0.5327781
000030 05 db d0 3d 5e 56 da be ea 15 f8 be 28 e1 52 be
       0.10198025 -0.42644018 -0.4845422 -0.20593703
000040 c3 40 47 bf a2 40 83 be 4c 81 ed be 7c bd b7 be
       -0.77833194 -0.25635248 -0.46387708 -0.35886753
000050 44 ff a9 bd 03 48 2f bf fa cc 66 be 1d 94 91 be
       -0.08300641 -0.68469256 -0.2253913 -0.28433314
000060 6b b7 bc 3d
       0.09214672

tfeb.5.running_var f4 [25]
000000 bc 9d 88 3e ec 7a 7e 3e 88 0d 42 3e 8f 11 62 3d
       0.26682842 0.24851578 0.18950474 0.055192526
000010 13 1e b8 3e 94 e1 45 3e 79 bf 1b 3e 9b 95 c3 3d
       0.35960445 0.19324332 0.1520976 0.09550019
000020 9f a6 b6 3e 33 55 fb 3d 77 85 56 3e 85 fa c3 3e
       0.35673997 0.1227211 0.2094935 0.3827707
000030 5b 91 1d 3e f5 0d 39 3e 15 01 04 3e 75 fe 35 3e
       0.1538748 0.1807173 0.12891038 0.17772849
000040 40 5f 0d 3e 2e 2f 3f 3d d7 11 31 3e fa 32 e6 3d
       0.13805866 0.046675853 0.17291962 0.11240192
000050 eb 91 26 3e dd a4 c0 3e bf e0 49 3e b7 93 b8 3c
       0.16266601 0.3762578 0.1971464 0.022531373
000060 3b 22 2d 3d
       0.042268973

tfeb.7.weight f4 [28, 25, 3, 3]
000000 b5 f9 92 3c a2 90 0d 3c c0 25 1e 3d d1 33 06 3d
       0.017941335 0.00864044 0.03861022 0.03276426
000010 a2 8a 00 3d f3 b1 9f 3c 54 06 8c 3c ec 7b 43 3d
       0.03138221 0.019494032 0.017092861 0.047725603
000020 53 2c 2e 3d da 37 81 3c ea da c9 bb a2 d9 0b bc
       0.04252274 0.015773702 -0.00616013 -0.008535774
000030 dc 35 a4 3d 29 a6 cc 3d 24 53 9d 3d aa 49 68 3d
       0.08018085 0.0999263 0.076818734 0.056710877
000040 5a 79 bc 3c b8 f7 da ba 6a 77 ea bc 13 53 93 bc
       0.023007084 -0.0016705906 -0.028621394 -0.017983949
000050 94 03 97 bc 79 80 03 be 72 05 bb bd 66 03 7e bd
       -0.018434323 -0.12841977 -0.09131898 -0.06201496
000060 f7 f8 d7 bc 0f d9 0b 3c 2b c1 10 3d 6a 72 16 bd
       -0.026363833 0.0085356375 0.03534047 -0.036730208
000070 47 78 f4 bc 1e 96 27 bd 18 c8 57 bd 1e c8 56 bd
       -0.029842509 -0.040914647 -0.05268106 -0.05243694
000080 b3 24 eb bb 89 e3 e0 bc 7b 8f 33 bd 95 ce 77 3d
       -0.0071760057 -0.027452247 -0.043838006 0.060499746
000090 9c 11 29 3c 5c 0b 34 3d d1 01 98 3d 87 94 cb 3c
       0.01031914 0.043956146 0.074222215 0.024851097
0000a0 79 fc 4e 3d 22 4c 8d 3d 01 ff 8e 3b 01 0e 0c 3d
       0.050533745 0.06899287 0.004363895 0.034193043
0000b0 91 d4 87 3d ec 8b 42 bd 82 a1 45 bd 23 09 09 3c
       0.06632341 -0.04749672 -0.04824973 0.008363995
0000c0 96 24 9b 3b e0 83 04 3d 52 a9 a8 3c 25 45 1d bd
       0.004734586 0.03235233 0.02058855 -0.03839602
0000d0 ac c4 9b 3b 5d 3d 03 3d 10 01 fd bd fb fa 19 bd
       0.0047536697 0.032040942 -0.12353718 -0.03759287
0000e0 e9 4b 80 bd 36 ac 15 bb 7f 66 8b 3a e0 91 57 bd
       -0.06264479 -0.0022838241 0.0010635405 -0.05262935
0000f0 9e 47 48 3c ea f1 47 3d 6a 5d 65 bc 07 8a 37 3a
       0.012224106 0.04881469 -0.013999322 0.00070014637
000100 b9 48 58 bb b9 58 29 bb a9 99 99 3c 9d 01 50 3d
       -0.003300233 -0.0025840236 0.018750029 0.05078279
000110 4a 7b 4c 3c 12 00 94 3c 2b f2 fa 3c d3 71 aa 3c
       0.012480566 0.01806644 0.030633053 0.020806229
000120 af be f2 bc f9 15 b3 3b 34 ff bb bc 0d e7 63 3d
       -0.02963194 0.005465266 -0.022948839 0.05564027
000130 b4 15 e8 3d 0f 9f cc 3d 74 55 01 3c 6b 04 19 3d
       0.113322645 0.099912755 0.007893909 0.03735773
000140 7f ad 88 3d 07 de 3d 3c 29 bf d4 3b ee ac 8f 3c
       0.06673717 0.01158858 0.0064925146 0.017538514
000150 ce cf 82 39 86 d0 59 3c 5d d4 0b 3b ba d0 c9 3c
       0.0002495036 0.013294345 0.0021336295 0.024635661
000160 34 26 fc 3c d1 e6 a3 3c c4 d1 ff bc 5e dd b3 bc
       0.030779935 0.020007523 -0.031227954 -0.021956142
000170 a4 b8 56 bd cb 28 56 3d 89 51 97 3d 2c 72 7f 3d
       -0.05242218 0.052284997 0.073885985 0.062364742
000180 be 62 2c 3d 0e d9 03 3c 2f bf 74 bd eb fc ea 3c
       0.042086355 0.008047355 -0.05975264 0.028685054
000190 03 c4 4b 3d 4e 46 73 3d b7 23 d9 3c 50 c0 88 3d
       0.04974748 0.05939322 0.026506288 0.06677306
0001a0 74 a3 85 3d b1 3e c4 bc 80 7d a2 bb db a5 21 bd
       0.06525317 -0.023955675 -0.0049588084 -0.039464813
0001b0 63 15 44 bd 07 86 a2 bc a4 e7 86 bc 9f e5 18 bd
       -0.04787196 -0.0198393 -0.016467877 -0.03732836
0001c0 95 b7 ee bc 2f a1 b5 bb 4b c5 f7 3a 8b d4 fd bc
       -0.029140273 -0.005542896 0.0018903402 -0.030985137
0001d0 75 49 79 3d 0c 72 0a bd 84 5c 8e bc 3b 36 86 bc
       0.06086107 -0.03380017 -0.0173781 -0.016383281
0001e0 d8 57 00 3c 19 cc a3 bb f6 db 14 bd 20 1c 2d 3c
       0.007833444 -0.0049986956 -0.036342584 0.010565788
0001f0 3c c2 e9 bb 33 f9 4f bd 5e 13 19 bc 5b 7c 3c bc
       -0.0071337502 -0.050774764 -0.009342996 -0.011504258
000200 c8 e3 54 3b a4 a6 bc bc 98 f1 04 bc f9 8f d1 bc
       0.00324844 -0.02302868 -0.008114241 -0.025581347
000210 a3 1b 55 3d 60 aa ad 3d 75 4f 81 3d b5 1c b7 3d
       0.05202831 0.08479762 0.06313983 0.08941022
000220 2c 65 99 3d 6c d7 43 3d 08 98 d7 bb e8 76 a5 3a
       0.0749 0.047812864 -0.006579403 0.0012623938
000230 95 98 80 3d a9 5e 9b bd 23 68 be bd 84 08 b3 bc
       0.06279103 -0.07586414 -0.09297206 -0.021854647
000240 a3 1b 1b bd c4 d2 93 bc 9f 2f e9 bb 1f 4f cf ba
       -0.037868153 -0.018044837 -0.0071162726 -0.0015816427
000250 df 78 2c bc 13 90 c1 bc 37 37 c2 3a 36 ea e0 3c
       -0.010526865 -0.02362827 0.0014817481 0.02745543
000260 ba f1 12 3d 75 ad e1 bb d7 c6 38 3c 13 0a 0c 3d
       0.03587506 -0.006887133 0.011277876 0.034189295
000270 97 27 88 bc c1 e6 b2 bc b6 ec 59 3c 6b f3 65 bc
       -0.01662044 -0.021838548 0.013301065 -0.014035086
000280 f5 33 b0 bc 89 93 80 bc 79 93 a0 bb 18 3e 65 bc
       -0.02150915 -0.01569535 -0.0049003926 -0.013991855
000290 69 1a ce bc e9 21 0a bc 14 58 eb 3c bb f9 0f 3d
       -0.025159078 -0.008430936 0.028728522 0.03515027
0002a0 eb 97 1b 3d ab 76 53 3d 6b 59 3e 3d ff 4f 03 3d
       0.037986677 0.051626842 0.046471994 0.032058712
0002b0 be 2c 77 3c 05 4e d6 3c 8e 5a 84 bc de 0e d1 bc
       0.015086351 0.02616025 -0.016156461 -0.025519785
0002c0 d1 7b ef 3c a3 80 38 bc 9a 3d 8e bc 76 77 83 3c
       0.029233845 -0.011261138 -0.017363358 0.016048174
0002d0 e5 c4 46 bd d0 1f a5 bc f4 fa a4 3c ed d5 3d bd
       -0.048527617 -0.020156771 0.020139195 -0.046346594
0002e0 a8 8b 56 bd 60 ae 7d bd 39 20 3c bc cc a8 50 bc
       -0.05237928 -0.061933875 -0.011482292 -0.012735557
0002f0 53 6b fc bc 5f d1 86 bd db 8f 10 bd 9b 1d e3 bb
       -0.030812895 -0.06582903 -0.03529344 -0.0069310195
000300 b3 29 94 3d 8e 0c bd 3d 5b 0c ca 3d 5c b9 b4 bc
       0.07234516 0.0923091 0.09865638 -0.022061042
000310 18 0a df 3b 7a 40 96 3d b0 d9 42 3d 7f 88 2b 3d
       0.006806623 0.07336517 0.047570884 0.04187822
000320 45 91 02 3d a2 99 1f bd 81 29 74 bd 99 37 a0 bd
       0.03187682 -0.038964875 -0.059609894 -0.078231044
000330 22 29 8f 3d 9a 74 b8 3d 59 e0 b0 3d a4 bf 25 3c
       0.06990267 0.09006615 0.08636541 0.0101164915
000340 0e e4 da ba a8 7d 1f 3b 84 84 ef 3c 13 d6 ab 3c
       -0.0016700046 0.0024336372 0.029237993 0.020976102
000350 48 d0 35 3d 37 d8 7d 3c a2 32 01 bc 1a 50 a4 3c
       0.044388086 0.015493444 -0.007885607 0.020057727
000360 67 6e f1 ba 32 7e fb bb 29 11 ef 3b e8 35 95 3b
       -0.0018419743 -0.0076749558 0.007295747 0.0045535453
000370 f4 b3 52 3c 9a 19 48 3d b8 d9 f7 bc 86 45 13 bd
       0.012860287 0.04885254 -0.030255184 -0.035954975
000380 8f be 5c bc b5 00 d9 3d 50 c8 42 bd e7 d6 6c bd
       -0.013473167 0.10595838 -0.047554314 -0.057822134
000390 b0 1e 6d 3d 9b 39 14 be b1 34 03 be 92 6b 26 3e
       0.057890594 -0.144751 -0.12813069 0.16251972
0003a0 bf a3 8b bd 95 c4 a2 bd c1 37 fb 3c af 18 12 3b
       -0.068183415 -0.07947651 0.030666234 0.0022292545
0003b0 1d e7 43 3d 0e 06 a2 3d 88 94 7b 3d e2 09 6f 3c
       0.04782783 0.07911311 0.061420947 0.014589759
0003c0 53 f1 0e 3d ea 99 87 bb f9 75 af bc ab 93 d9 bc
       0.034898113 -0.004138221 -0.021418558 -0.026559671
0003d0 fe 7e a7 3d 84 15 1d 3d cb 4b 2b bd 58 db 93 bd
       0.08178519 0.038350597 -0.04182033 -0.07219571
0003e0 a2 69 8f bd 5e b3 5e bc 6a 99 8e bd 0a 50 20 be
       -0.0700257 -0.013592569 -0.06962855 -0.15655532
0003f0 7e 25 f9 3b e4 44 a7 bc 44 62 bb bd bd ed 74 bd
       0.0076033464 -0.020418592 -0.09149602 -0.059797037

tfeb.8.weight f4 [28]
000000 c0 5b 76 3e b8 37 03 3f 3b 40 41 3e 61 96 c1 3e
       0.24058437 0.51256895 0.18872158 0.37810043
000010 cf f4 d6 3e a9 52 b2 3e 7f a2 91 3e 82 ab 96 3e
       0.4198365 0.3482869 0.28444287 0.29427725
000020 cd d4 23 3e dd ea ce 3e 27 4d a5 3e fb b7 e3 3e
       0.15999146 0.4041356 0.32285425 0.44476303
000030 b5 62 b9 3e 76 b5 8f 3e 73 e3 77 3e 1c c3 b8 3e
       0.3620812 0.2806813 0.24207859 0.36086357
000040 19 3b d0 3e 5e 85 0d 3f 00 91 e1 3e 75 2e e7 3e
       0.40670088 0.5528163 0.4405594 0.4515263
000050 98 f8 0b 3f bd ab c7 3e c5 e3 97 3e 93 d2 a6 3e
       0.546762 0.38998213 0.29665962 0.3258253
000060 8d 38 09 3f 8a dc cc 3e 45 d7 d2 3e 2b ff 82 3e
       0.53601915 0.40012008 0.41179863 0.25585303

tfeb.8.bias f4 [28]
000000 c2 f7 35 3e b1 29 0d be a0 5a 60 3d 89 26 56 bd
       0.17770293 -0.13785435 0.054773927 -0.052282844
000010 aa 6d c4 bd d6 b8 b9 3d 22 3d 04 3d 47 46 ad 3d
       -0.09591229 0.09068458 0.032284863 0.0846067
000020 1d ed 33 3d 23 72 c7 bd 6d 02 04 be 50 23 b1 bd
       0.0439273 -0.09738567 -0.1289155 -0.086493134
000030 8b 58 9c bd 28 c8 e7 3d 94 e6 45 3e 11 96 3b bd
       -0.07634076 0.11317474 0.1932624 -0.04579741
000040 32 fa d4 bd 24 8f e6 bd 22 ef 33 bd 01 48 85 bc
       -0.103992835 -0.11257771 -0.043929227 -0.016269686
000050 c8 61 55 be a6 1e c8 bc 73 e6 e9 3d 61 94 36 bc
       -0.20838082 -0.024428677 0.11420908 -0.011143775
000060 83 74 96 bb de 5f cd bc 5e 55 b6 bb db 9b 04 3e
       -0.004591526 -0.025070127 -0.005564376 0.12950079

tfeb.8.running_mean f4 [28]
000000 be 22 a1 3e c0 6e b8 be 55 41 3c be 1d 3d 1a be
       0.3147182 -0.36021996 -0.18384297 -0.15062375
000010 1e 22 af be 03 a9 d2 bb 8e 42 99 be 35 36 ca be
       -0.34205717 -0.006428839 -0.2993359 -0.39494482
000020 d6 27 6b bd 46 e9 5f 3d a1 ea 4d 3e 71 b4 5e 3e
       -0.057411037 0.054665826 0.20109035 0.2174852
000030 d8 83 1c be 1c b1 a0 3d 2b e8 5f 3e b4 e8 1b bf
       -0.1528467 0.07846281 0.21865909 -0.6090195
000040 64 7b 8c be 1b 25 99 bd 61 e5 36 be cc 1f b4 3d
       -0.2743789 -0.074777804 -0.17860939 0.08795127
000050 d0 d7 95 be cb e6 72 be ae 35 57 bf d8 12 72 be
       -0.29266214 -0.23720853 -0.84066284 -0.23640001
000060 23 54 c3 bd da 1d 0d be fd fe ce be 44 4c f6 3e
       -0.09537532 -0.13780919 -0.40428916 0.4810506

tfeb.8.running_var f4 [28]
000000 32 51 32 3d 43 f2 29 3e 48 7e b6 3c c2 39 46 3d
       0.043534465 0.16596322 0.022277012 0.048394926
000010 d1 b4 c3 3d 06 24 4c 3d 4c 07 04 3d a9 c4 7c 3d
       0.09555972 0.049839042 0.03223352 0.061710987
000020 5e d3 71 3c 79 44 03 3e 23 78 fe 3c 4f 40 3e 3d
       0.0147598665 0.12819089 0.031063145 0.04644805
000030 95 e5 d6 3d a0 76 a9 3d da 12 aa 3d 1e 94 5c 3d
       0.10493008 0.08274579 0.08304377 0.053852193
000040 ac 1c af 3d 42 4e 4c 3e 51 0c 13 3e 96 e1 9a 3d
       0.085503906 0.19951728 0.14360167 0.07562558
000050 08 24 b3 3d 90 4d e0 3d 55 66 68 3d 0d 0d e9 3d
       0.08747107 0.10952294 0.056738216 0.11379442
000060 f5 80 a6 3d ba 8d 5c 3d 66 28 2b 3d 5e 7e 8a 3d
       0.08130065 0.0538461 0.041786574 0.06762384

tfeb.11.weight f4 [32, 28, 3, 3]
000000 16 c9 88 bc 26 c1 bf bc 67 05 da bc 82 1b d7 3c
       -0.016697448 -0.02340753 -0.026613904 0.026258234
000010 0c 0f f6 3c 16 60 b2 3c 90 4e 82 3d 2f 69 56 3d
       0.030036472 0.021774333 0.06362641 0.052346405
000020 0a 4b 30 3d 1f e8 d3 bc d1 e1 56 bb 2d 69 92 bc
       0.043040313 -0.02586752 -0.0032788406 -0.017872417
000030 c0 3b 56 3c 12 01 19 3c 07 5b 2b 3c 42 50 9e bc
       0.013075769 0.009338634 0.010458714 -0.01932538
000040 dd 3c 9d bb 0e 02 a1 3c 89 e7 55 bc 86 df e8 bc
       -0.0047985152 0.0196543 -0.013055691 -0.028426897
000050 00 86 c3 bc cd 06 a7 bc de 04 b7 bc 48 5c 67 bc
       -0.023867607 -0.020388985 -0.022341188 -0.014121123
000060 09 de f0 3c 16 9a a4 3c d4 06 a0 3c 87 ec 0a 3d
       0.02940275 0.020093005 0.019534506 0.033916976
000070 51 62 03 3d f6 78 35 3d e1 3f f7 3c c8 16 cb 3c
       0.032076184 0.04430481 0.030181827 0.024791136
000080 d3 7d ca b9 16 0e 7f bb 96 d1 d8 3c 18 e8 36 bc
       -0.0003862219 -0.0038918308 0.026467126 -0.011163734
000090 20 1a fd 3c a9 ba b2 3c 5c b7 5a 3d 01 96 65 3b
       0.030896246 0.021817522 0.05339752 0.0035032036
0000a0 d4 d0 0f 3a 17 cf 8d 3c 66 dc 2e bc 54 7e 75 bd
       0.0005486135 0.017310662 -0.010672664 -0.05993493
0000b0 d8 b9 98 bc 52 94 94 bc d4 7f a3 bc 81 ff 1e bc
       -0.018643305 -0.01813713 -0.019958414 -0.009704472
0000c0 6a 14 91 3c 22 b4 39 3c 42 af 09 bc 8c 4b 47 bd
       0.01770993 0.011334451 -0.008403601 -0.04865603
0000d0 21 4d 37 bd 1b 4e cc bc db fc 15 3b 37 02 46 3c
       -0.04475129 -0.024939587 0.002288631 0.012085489
0000e0 e8 09 46 3c 82 05 75 bc d9 48 55 bc 1d 88 5f bc
       0.012087323 -0.014954926 -0.0130178565 -0.013643292
0000f0 65 6d 97 bb 87 2d a2 bc 75 cc 45 bc 54 cc 1e bd
       -0.004621195 -0.0197971 -0.012072672 -0.03876908
000100 40 01 69 bc b0 ac 80 bc dd d7 6e bd f0 cc 0b bd
       -0.014221489 -0.015707344 -0.058311332 -0.03413099
000110 b8 24 a5 bc 20 2e b4 bc 17 ec 34 bc c0 57 ba 3c
       -0.02015911 -0.02199465 -0.011042616 0.02274692
000120 1e 72 07 bd 3a 1e f2 bc 7c 70 fb bc e6 74 ab bc
       -0.033067815 -0.029555429 -0.030693285 -0.020929765
000130 29 8a 8d bc f8 7f 17 bc a6 86 4a 3b 08 8a 43 39
       -0.017277794 -0.009246819 0.003090301 0.0001864807
000140 65 92 29 3c 04 64 0b bc 65 0b ce 3b bb 70 d8 3c
       0.010349845 -0.008507732 0.0062879794 0.026420942
000150 f2 74 8a 3c b2 26 50 3d 2d 28 ad 3c 51 96 10 bc
       0.016901467 0.050818153 0.021137321 -0.008824901
000160 51 f7 03 3c 92 af f3 3b 9a b5 1a 3c 0a ab f3 3b
       0.00805457 0.007436701 0.009442711 0.007436161
000170 20 c6 30 3b 71 e6 96 3c 31 01 80 3c 95 99 ac bb
       0.002697356 0.01842043 0.015625568 -0.005267332
000180 51 dd 87 3c 95 8c d1 3c 72 7c 9e 3c 85 80 b6 3b
       0.016585024 0.02557973 0.01934645 0.00556952
000190 70 f5 20 3d 45 a5 e6 3c 4a 46 89 3a 2f 2b c9 3b
       0.039296567 0.028154979 0.0010473218 0.006139181
0001a0 a4 28 92 bc 16 61 05 3d fa 19 c5 3c 9a 6e 69 3c
       -0.017841645 0.03256329 0.024060238 0.014247561
0001b0 c4 66 24 bd 0f d2 64 bd e4 3d 45 bd 8d 81 94 bd
       -0.040137067 -0.05586439 -0.048154727 -0.07251272
0001c0 7f 68 a3 bd c2 69 82 bd a5 29 28 3d 1c 55 5e 3d
       -0.079789154 -0.06367828 0.04105534 0.054280385
0001d0 4e ae 6b 3d 4b 21 87 bc 94 42 84 bc 22 a0 50 bc
       0.057539277 -0.016495368 -0.016145028 -0.012733491
0001e0 d9 e0 80 3c 75 56 40 3c ec 15 8c 3c a5 57 80 3c
       0.015732216 0.011739363 0.017100297 0.015666792
0001f0 92 b9 12 3d 77 35 44 3d 2a ac 85 bd b3 23 92 bd
       0.035821505 0.04790255 -0.06526978 -0.07135715
000200 40 b7 a5 bd 79 ac 98 3c 00 a1 61 3c 0e e2 08 3d
       -0.08091593 0.018636929 0.013771296 0.033418708
000210 c8 89 47 3d 89 79 14 3d a6 1c 54 3d e2 4d d4 3c
       0.048715383 0.036248717 0.051785134 0.025916044
000220 66 49 44 3d c6 dd 28 3d 75 5a 0c b9 28 cd ad 3c
       0.04792156 0.041227125 -0.00013385138 0.02121599
000230 85 fd b7 3c bc 85 12 3c df 0b 18 bc fc 54 3f bb
       0.022459755 0.008943018 -0.009280174 -0.0029194942
000240 43 c9 39 bd be ef d5 3c 89 aa 1a 3c 75 ee 23 bd
       -0.045357954 0.026115295 0.009440073 -0.040022332
000250 aa d0 0a 3d 42 f0 79 3c 98 d7 1f bd ae a7 d0 3c
       0.033890404 0.015255036 -0.039023966 0.02547058
000260 2c 0c 25 3d 18 58 1c bd 80 0e fa bc 80 b0 e5 bc
       0.04029481 -0.03816995 -0.030524492 -0.028038263
000270 6e 55 3f bd be dd 40 3d 85 e7 31 3d 6c 2b 3f bd
       -0.04671233 0.04708647 0.043433685 -0.04667227
000280 99 52 1a bc b1 4c b9 3c 47 76 9c 3c 8f 2d 2e 3c
       -0.009419107 0.022619577 0.019099368 0.010630979
000290 0c 23 5e 3c 1d b4 0f 3c e6 1f 95 bc 4e a8 35 bd
       0.0135581605 0.00877097 -0.018203687 -0.04434996
0002a0 1c 1a 26 bc f0 4d bd bc 32 87 cb bc e9 56 79 3c
       -0.010138061 -0.023108453 -0.02484474 0.015218475
0002b0 d0 4e 5c 39 eb 13 20 bb 58 9e 02 3d 75 7d 42 3d
       0.00021010195 -0.0024425935 0.03188929 0.047482926
0002c0 fa 00 7a 3d a5 91 17 bc 37 a1 16 3b 1c e7 57 3c
       0.061036088 -0.009251033 0.0022984275 0.013177659
0002d0 1d 9f 6a 3c 62 b9 87 bb 1e ac a6 39 76 f4 16 ba
       0.014320162 -0.0041419724 0.00031790225 -0.00057584734
0002e0 d6 f2 67 bc f2 ab a9 bc 38 e9 ab bc d7 e8 14 bd
       -0.014157018 -0.020711873 -0.02098523 -0.036354866
0002f0 5f d6 18 bd dd 3f 35 bd 1f 4d d9 bc 48 50 5c bc
       -0.037313815 -0.044250358 -0.026526032 -0.013446875
000300 c2 f0 28 bd 56 43 0d bc 21 84 c9 3c 5f 0e 41 bd
       -0.04124523 -0.008622011 0.024599137 -0.047132846
000310 22 c5 99 bc 9a 1d f2 3b f9 4f a2 bc 7b 1b d3 3c
       -0.018770758 0.0073887827 -0.019813525 0.02576994
000320 ef 0a 6f 3c e3 47 77 bd 19 8f a8 bc 0c 57 05 bd
       0.014590009 -0.06037129 -0.020576047 -0.032553717
000330 bd 8b 4b bc e6 9c c7 3c e2 2c e4 3c 68 6c 1c bd
       -0.012423453 0.024366807 0.027853433 -0.03818932
000340 db 9f cb bc 60 1a 7e bc 69 19 ed bc 01 e9 3d bc
       -0.024856498 -0.015509218 -0.02894278 -0.011591197
000350 5b 1a 9c bc a8 58 98 bc 8a b4 de 37 d9 10 12 3c
       -0.019055536 -0.018596962 2.6548532e-05 0.00891515
000360 ce f6 63 3b 95 5f 8b bb a5 70 31 3c 02 8b 58 bb
       0.0034784558 -0.0042533376 0.010830079 -0.003304184
000370 b9 ba 46 bc 50 9a a5 bc d7 92 e2 bd 5a 73 af bd
       -0.012129479 -0.020215183 -0.11063164 -0.085669234
000380 26 ee 75 bd 4b a1 4d bc 85 86 98 bb e2 d4 c5 3b
       -0.06004157 -0.012550662 -0.004654708 0.0060373405
000390 a0 93 b8 bb 7b ff c2 3b c1 c0 52 3c f8 2b 80 3c
       -0.0056328326 0.005950866 0.012863339 0.015645966
0003a0 55 58 21 3d 42 56 33 3d be 97 85 3b a6 c8 1c 3c
       0.03939088 0.043783434 0.004076927 0.009569323
0003b0 d0 c2 83 3c d8 4e b1 bb 2a b0 be 3a 09 e2 0d bc
       0.016084105 -0.0054110102 0.0014548351 -0.008659848
0003c0 47 18 ca bc 34 1d 5c 39 c9 32 02 3c e1 a3 e9 bc
       -0.02466978 0.00020991714 0.007946678 -0.028520526
0003d0 9c da 1c bd bd 1f 45 bd dd a5 49 3d f3 d4 5e 3d
       -0.03829442 -0.04812597 0.049230445 0.054402303
0003e0 e8 f7 83 3d 26 e4 85 3d cf 4f 6e 3d 74 f8 94 3d
       0.06443769 0.065376565 0.05818158 0.07273951
0003f0 ee e2 09 be 86 70 7d bd 04 9c ae 3c b6 3e 2f be
       -0.13465473 -0.06187489 0.021314628 -0.17113766

tfeb.12.weight f4 [32]
000000 5c 37 a4 3e b6 6d c0 3e 6f ae b6 3e e1 96 a7 3e
       0.32073486 0.37583703 0.35679957 0.327323
000010 d1 87 5e 3e 48 ee fe 3e ad 94 cb 3e 8b b8 e3 3e
       0.21731497 0.4979117 0.39761868 0.44476733
000020 10 8c 24 3f b8 cd 94 3e 78 93 ba 3e 99 74 e1 3e
       0.6427622 0.290632 0.36440635 0.4403427
000030 54 b7 c3 3e 50 a8 88 3e f4 e7 c6 3e 07 c4 8f 3e
       0.38225806 0.26690912 0.3884884 0.28079244
000040 a2 b6 d5 3e bb d9 9b 3e 9e 2e af 3e a0 4e 9d 3e
       0.417409 0.30439553 0.34215254 0.3072405
000050 57 f3 b1 3e bb 76 bf 3e 2b 4d db 3e 8a 3c 9d 3e
       0.34755966 0.37395272 0.42832312 0.3071025
000060 b9 1f 6d 3e ae fa 07 3f 35 5d 32 3e 0f 45 8d 3e
       0.23156632 0.5311688 0.17418368 0.2759175
000070 d5 bf 9e 3e a7 c6 fe 3e bd c0 f1 3e 11 84 25 3f
       0.3100573 0.49760935 0.4721736 0.6465464

tfeb.12.bias f4 [32]
000000 7e ac 43 be de 6f 87 3d eb c2 fc bd 09 f0 c7 bd
       -0.1910877 0.06613134 -0.12341865 -0.0976258
000010 5e 95 a5 bd 75 08 6d be da 3b 97 bd 48 ab 0b be
       -0.0808513 -0.23147757 -0.07384463 -0.13639557
000020 de ba df be 92 e2 dc 3d 99 52 0f be 8e c6 dd bd
       -0.43697256 0.10785402 -0.13996352 -0.10828887
000030 d5 f8 af bd b8 87 b2 3c 6c 0a 40 be b4 d6 a1 bd
       -0.08592383 0.021793231 -0.18753976 -0.079022795
000040 78 08 20 be 54 5e 51 3e bd d4 95 bd d0 16 5c 3d
       -0.1562823 0.2044614 -0.07315967 0.053732693
000050 91 df c1 bd df c0 1f be c2 eb c6 bd 51 48 53 3e
       -0.0946647 -0.15600918 -0.09712936 0.20633055
000060 89 6b 68 bd ab 1b 07 bd 96 98 0c be 90 9f b0 bd
       -0.05674318 -0.03298537 -0.13730082 -0.08624184
000070 79 86 a1 bd 77 f3 37 be 0f 1d 15 be 85 26 23 be
       -0.07886977 -0.17963968 -0.14561866 -0.15932663

tfeb.12.running_mean f4 [32]
000000 46 d6 65 bd 8c 44 22 bf 9f 5c a4 be 7a 95 82 3e
       -0.05611255 -0.63385844 -0.32101914 0.25504667
000010 aa d8 2f be 15 75 8e bf 51 d6 83 be a7 e4 00 bf
       -0.17172495 -1.1129481 -0.25749448 -0.50348896
000020 3f 44 53 bf be 15 50 bd 1c 04 d4 be fc 13 41 bf
       -0.8252601 -0.050801985 -0.41409385 -0.7542112
000030 80 8e ea be 5e 2d 42 bf 47 09 d0 bd fc 76 ba 3c
       -0.45811844 -0.75850475 -0.101580195 0.022761814
000040 f2 de ac be 70 40 25 be f7 fc 33 be 6c 6e f9 be
       -0.33763844 -0.16137862 -0.17576967 -0.48717058
000050 d9 47 c9 be 14 21 30 bf 6b c0 cf be 22 0d 1c bf
       -0.39312628 -0.68800473 -0.4057649 -0.6095754
000060 90 bb 1b be 37 f1 52 bf 53 e8 69 be cd b8 ca bc
       -0.15208268 -0.82399315 -0.22842531 -0.024746323
000070 df 2c 5b be 41 99 f2 be 83 4b a2 be 6c a5 69 bf
       -0.21403836 -0.47382548 -0.31698236 -0.9126804

tfeb.12.running_var f4 [32]
000000 a2 04 88 3d 92 c3 01 3f 9d 98 6b 3e 20 e0 42 3e
       0.06641509 0.5068904 0.23007436 0.1903081
000010 0f cb 52 3d b4 88 0f 3f 37 4a a3 3e 07 2b 7f 3e
       0.051463183 0.5606797 0.3189256 0.24918757
000020 48 65 db 3e af 29 4b 3e 37 2b b2 3e 58 5e f6 3e
       0.4285071 0.1984012 0.34798595 0.48118854
000030 99 56 56 3e 11 43 85 3e 09 c5 35 3e fc 75 52 3e
       0.20931472 0.2602773 0.17750944 0.2055282
000040 39 43 1e 3e ae c8 f6 3e 17 93 40 3e 84 a9 84 3e
       0.15455331 0.4819998 0.1880611 0.2591058
000050 23 57 2b 3e 6a 4a 9d 3e 09 cb e9 3e ca 8f f6 3e
       0.16732459 0.30720836 0.45662716 0.48156577
000060 31 f8 ff 3c b2 d1 49 3f 0d 78 e6 3c 15 29 3f 3e
       0.031246277 0.78835595 0.028133417 0.18668015
000070 b3 32 d5 3d 78 7c f5 3e 90 6e 7d 3e 87 ad 4a 3f
       0.10410061 0.47946525 0.24749207 0.7917103
