trained_models/step_5_retrain_after_step_4/retrain_4C_after_2nd_pruning_prunratio0.85_2024060419/retrained_4Cmodel_ratio85.0_vaacc92.51207733154297_tracc_80.75657894736842@603epoch_20240604222207.pt (torch, 309234 bytes, 62 tensors)

sfeb.0.weight f4 [8, 1, 1, 9]
0	0x3e853da6	0.26023597
1	0x3e27b58c	0.16377848
2	0x3e97192d	0.29511395
3	0x3ead792f	0.33881518
4	0x3d8d3d4b	0.06896456
5	0xbe8a6366	-0.2702896
6	0xbef8cb3e	-0.4859256
7	0xbe8c0022	-0.2734385
8	0xbd1f67a5	-0.038917203
9	0x3c867d99	0.016417312
10	0x3cad37b1	0.02114472
11	0xbd8fab1d	-0.07015059
12	0xbe982720	-0.2971735
13	0x3d805c24	0.062675744
14	0xbe43355a	-0.19063321
15	0xbe943cc1	-0.28952602
16	0x3ebc730a	0.36806518
17	0x3f11ee9c	0.57004714
18	0xbe418a0d	-0.18900318
19	0xbe6747f8	-0.22586048
20	0x3e622331	0.22083737
21	0x3d8b4333	0.067999266
22	0xbe4b309d	-0.19842763
23	0xbe7a45c1	-0.24440672
24	0x3e0a6c96	0.13517985
25	0xbe9a57a7	-0.30144998
26	0xbed01027	-0.40637323
27	0x3f3259c4	0.6966822
28	0x3ebf7ebf	0.37401387
29	0xbd3f27ad	-0.046668697
30	0xbb119981	-0.002221674
31	0xbe340ad3	-0.17582254
32	0x3c42c6d7	0.011888227
33	0x3de86961	0.113482244
34	0xbcfd12c0	-0.03089273
35	0x3da6ecec	0.08150658
36	0xbf20888f	-0.6270837
37	0xbebaaa9b	-0.36458287
38	0x3d3a4e0f	0.0454846
39	0x3d642001	0.055694584
40	0x3e8a3128	0.26990628
41	0x3e3c5bd7	0.18394409
42	0xbe45330d	-0.19257756
43	0x3cacfc8d	0.02111652
44	0xbe18455f	-0.14870213
45	0xbe9e4ccd	-0.3091797
46	0xbd175369	-0.03694478
47	0x3e4d147d	0.20027347
48	0x3dc60fb1	0.09670962
49	0xbed3dcc1	-0.4137936
50	0x3daa325f	0.08310389
51	0x3f15c931	0.5851012
52	0xbd61175f	-0.05495393
53	0xbf04846d	-0.51764566
54	0xbd8b933f	-0.06815194
55	0xbe6e071b	-0.23244898
56	0x3e6c55d6	0.23079619
57	0xbda3beb2	-0.079953566
58	0xbee0f458	-0.4393642
59	0x3f03ca0a	0.5148016
60	0x3d0336bc	0.03203462
61	0xbee24e60	-0.4420042
62	0x3edc137b	0.42983612
63	0x3d34c755	0.04413541
64	0x3c39b930	0.011335656
65	0xbe415312	-0.18879345
66	0xbdd0bdc0	-0.10192442
67	0x3e4cba6d	0.19992991
68	0x3e60d79f	0.21957253
69	0xbd006051	-0.031341854
70	0x3ea1265b	0.31474575
71	0x3f1266fe	0.57188404

sfeb.1.weight f4 [8]
0	0x3f6d7c16	0.92767465
1	0x3f45c79b	0.772577
2	0x3f39f44a	0.7263838
3	0x3f43a836	0.76428545
4	0x3f4cc9fb	0.799957
5	0x3f0de96d	0.55434304
6	0x3ef9bc13	0.48776302
7	0x3f2bc463	0.6709654

sfeb.1.bias f4 [8]
0	0x3d0acb51	0.033885304
1	0x3ca22e0f	0.019797353
2	0x3d92e17f	0.07171916
3	0x3e6507d5	0.22366269
4	0x3cf44d9c	0.029822163
5	0x3e5ca6de	0.2154803
6	0x3d9e0e56	0.07717578
7	0x3d6adf52	0.05734188

sfeb.1.running_mean f4 [8]
0	0x35bc8142	1.404471e-06
1	0x36de5ab8	6.6266766e-06
2	0xb85c17fa	-5.2474417e-05
3	0x3831b86d	4.237185e-05
4	0xb7fee776	-3.0386942e-05
5	0xb75eefd2	-1.3288069e-05
6	0xb6bad54c	-5.568063e-06
7	0x38412a6a	4.6054287e-05

sfeb.1.running_var f4 [8]
0	0x3cdd1115	0.026985684
1	0x3c716f02	0.014735939
2	0x3c3be168	0.011467315
3	0x3cb21835	0.021740058
4	0x3cb8cb28	0.02255781
5	0x3beb07a6	0.0071725426
6	0x3b0631bd	0.0020476424
7	0x3c8050c0	0.015663505

sfeb.3.weight f4 [32, 8, 1, 5]
0	0x3d66b3b3	0.05632372
1	0xbe31e9ad	-0.17374296
2	0xbcf6aa6f	-0.030110566
3	0x3d0a5965	0.03377666
4	0xbe182dd1	-0.14861228
5	0xbdacaa8d	-0.084309675
6	0xbdf423f9	-0.11920924
7	0xbd57bc9a	-0.0526701
8	0xbb831737	-0.00400057
9	0xbd1cdec5	-0.038298387
10	0x3e7a3190	0.24432969
11	0x3e50531f	0.20344208
12	0x3e6f4ca7	0.23369084
13	0x3e098108	0.13428128
14	0x3dbc40be	0.09192036
15	0xbddaa0cd	-0.106752016
16	0xbd64b46b	-0.055836122
17	0xbe88199c	-0.26582038
18	0xbd40619f	-0.0469681
19	0xbdf80cba	-0.121118024
20	0x3e1dc453	0.15406923
21	0x3e30676f	0.17226957
22	0x3d81ed6e	0.06344114
23	0x3e36ab8d	0.17838879
24	0x3e23bc1b	0.15989725
25	0x3d731993	0.05935056
26	0xbce14b75	-0.027501801
27	0xbd880157	-0.066408806
28	0xbb48520f	-0.003056649
29	0x3d27c9ec	0.040964052
30	0xbb238d66	-0.0024956106
31	0xbd06bcfe	-0.03289508
32	0x3d282fc3	0.041061174
33	0x3d0de4b8	0.03464195
34	0xbc093538	-0.008374505
35	0xbd7e841f	-0.06213772
36	0xbdc7fefa	-0.0976543
37	0xbe1c04db	-0.15236227
38	0xbcb02408	-0.021501556
39	0xbd694dc3	-0.056958925
40	0xbe303a94	-0.17209846
41	0xbe283fc7	-0.16430579
42	0xbd1ec696	-0.038763605
43	0x3d71e4bb	0.059056025
44	0x3daa8e96	0.08327977
45	0xbc03216e	-0.008003576
46	0xbe10de2d	-0.14147253
47	0xbdf787ec	-0.12086472
48	0xbd0abb3a	-0.03386996
49	0xbd8c76e7	-0.06858616
50	0x3db96fb2	0.09054507
51	0x3dadbc4a	0.08483179
52	0x3d9b2b73	0.07576647
53	0x3e714988	0.23563206
54	0x3e940dba	0.28916723
55	0xbe672bf7	-0.22575365
56	0xbded8ca8	-0.11599094
57	0xbde247de	-0.11048864
58	0xbcb84107	-0.022491945
59	0xbd12983a	-0.035789706
60	0x3e1c023a	0.15235224
61	0x3e0ff7c8	0.14059365
62	0x3caddca2	0.02122337
63	0xbd9e7c42	-0.07738544
64	0x3bf54197	0.0074846256
65	0xbba89fbe	-0.005145996
66	0x3df06efd	0.11739919
67	0xbca52cc1	-0.020162942
68	0x3a1cb02a	0.0005977178
69	0x3c873172	0.01650307
70	0xbbb43213	-0.0054991334
71	0xbd452a2b	-0.048135918
72	0xbc80454d	-0.015658045
73	0xbdd3f0e1	-0.103486784
74	0xbd05fa71	-0.032709543
75	0xbd7af59b	-0.061269384
76	0xbd885053	-0.06655946
77	0xbe80b8c5	-0.25140968
78	0xbe30a07a	-0.17248717
79	0xbdda5c92	-0.10662188
80	0xbe0e3e75	-0.13891013
81	0xbe62b179	-0.22138013
82	0xbd33d5d9	-0.043905113
83	0xbcbda212	-0.02314857
84	0xbdd2f6bb	-0.10300966
85	0xbdf34bdc	-0.118797034
86	0xbd8b9e5e	-0.068173155
87	0xbd934901	-0.07191659
88	0xbe38be09	-0.18041243
89	0xbe17737e	-0.1479015
90	0x3e0e49ea	0.13895383
91	0x3e57f3ea	0.2108914
92	0x3dff2a4f	0.124592416
93	0x3e32e760	0.17471075
94	0x3e82a10f	0.25513503
95	0xbe4d4af9	-0.20048131
96	0xbdc3fdb0	-0.095698714
97	0xbe4e8a3e	-0.20169923
98	0xbdf88fff	-0.1213684
99	0xbdcacdc3	-0.09902527
100	0xbd53fbba	-0.051753737
101	0x3b48d29e	0.0030643116
102	0x3d213e1a	0.039365865
103	0x3debb50b	0.115091406
104	0x3d2f94c8	0.0428665
105	0xbd35d352	-0.044390984
106	0x3d7ad3a8	0.061237007
107	0xbd44eadd	-0.048075546
108	0x3daf857c	0.08570382
109	0x3d28e5eb	0.04123489
110	0xbd45d502	-0.048298843
111	0xbb72e93e	-0.0037065293
112	0xbd7a5957	-0.061120357
113	0xbd895b62	-0.06706883
114	0xbdf913a8	-0.12161952
115	0xbe164354	-0.14674121
116	0xbe83ce59	-0.25743368
117	0xbe886d41	-0.26645854
118	0xbe0226c4	-0.127101
119	0xbe08ad8a	-0.1334745
120	0xbde12329	-0.109930344
121	0x3da6c044	0.081421405
122	0xbde3701f	-0.1110537
123	0xbd81faec	-0.06346688
124	0xbe70de83	-0.23522381
125	0xbe072a37	-0.13199697
126	0xbd16f3d7	-0.036853638
127	0x3ce731a7	0.028221918
128	0xbd05c085	-0.032654304
129	0xbd93c58f	-0.07215416
130	0xbeac48ea	-0.3364938
131	0xbe85974e	-0.26092
132	0xbe678194	-0.22608024
133	0xbe68f574	-0.22749883
134	0xbeb1040f	-0.3457341
135	0x3db7843f	0.08960771
136	0x3e562c8e	0.20915434
137	0x3ea0e501	0.31424716
138	0x3e203eda	0.15648976
139	0x3df6b1eb	0.12045654
140	0xbd5318fb	-0.051537495
141	0xbdfb8060	-0.12280345
142	0xbe957d27	-0.29197046
143	0xbdc5a1fe	-0.09650038
144	0xbdf4ef47	-0.11959701
145	0x3d2c5a95	0.042078573
146	0xbe1a5359	-0.15070857
147	0xbe134de9	-0.14385189
148	0xbe493fa5	-0.19653185
149	0xbe3b2a5d	-0.18277879
150	0xbde6f233	-0.112766646
151	0xbe3d54c5	-0.18489368
152	0xbe7db3cb	-0.24775617
153	0xbe1ab175	-0.15106757
154	0xbdf4480e	-0.11927806
155	0x3e3c569d	0.18392415
156	0x3e4bdacc	0.19907683
157	0x3e6772b1	0.22602345
158	0x3eb20ebe	0.34776872
159	0x3ea70c15	0.32626405
160	0xbe1564be	-0.14589211
161	0xbdbe6c97	-0.092980556
162	0xbe0fa779	-0.1402873
163	0xbddc3a5a	-0.10753317
164	0xbd3be905	-0.04587652
165	0x3d93f819	0.07225055
166	0x3c596911	0.013269679
167	0x3be296e9	0.0069149625
168	0x3d5f9c29	0.054592285
169	0x3b8c504c	0.004282033
170	0xbe04fd44	-0.12987238
171	0xbdb0e4fa	-0.08637424
172	0xbdf2fdcc	-0.11864814
173	0xbe3fc3f8	-0.187271
174	0xbdafd4a0	-0.08585477
175	0xbe4f0f08	-0.20220578
176	0xbe080012	-0.13281277
177	0xbcbfb310	-0.023400813
178	0xbb663aeb	-0.0035130333
179	0x3d87238b	0.06598576
180	0xbde77331	-0.11301268
181	0xbcf64929	-0.030064182
182	0x3d1faf9e	0.03898584
183	0xbd29dd50	-0.041470826
184	0xbdc48ee1	-0.095975645
185	0xbd10024c	-0.03515844
186	0xbd0e68ed	-0.034768034
187	0x3ccb9a8c	0.024853967
188	0xbd65b73a	-0.05608294
189	0xbd0a5f77	-0.03378245
190	0xbd37f15b	-0.04490791
191	0x3b70eac6	0.003676103
192	0xbd054ac2	-0.032541998
193	0xbbd53cdf	-0.0065075005
194	0xbd3a42b1	-0.045473758
195	0xbd83ee5a	-0.06441946
196	0x3cce878c	0.025211118
197	0x3dbd450d	0.09241686
198	0x3df79e35	0.120907225
199	0x3e3a8081	0.18213083
200	0xbd3bd129	-0.045853768
201	0xbe2e1baa	-0.1700274
202	0xbe396ac6	-0.18107137
203	0xbe542e27	-0.2072073
204	0xbdbaa876	-0.091141626
205	0x3db72664	0.08942869
206	0x3e72f4a5	0.23726137
207	0x3dea0ff0	0.11428821
208	0x3d6716ee	0.05641835
209	0x3e08c0a2	0.13354734
210	0x3dc75dfa	0.097347215
211	0xbd69beda	-0.057066776
212	0xbd14568f	-0.03621536
213	0xbdacce88	-0.0843783
214	0xbe418576	-0.18898568
215	0xbdcd21bd	-0.10016201
216	0xbe6c2e10	-0.23064446
217	0xbe67cac9	-0.2263595
218	0xbda121f4	-0.07867804
219	0x3c98da61	0.018658819
220	0xbcbd71a8	-0.023125485
221	0x3c07df2e	0.008292956
222	0xbc60543b	-0.013691957
223	0x3e37fcb9	0.179675
224	0x3cee47de	0.029087003
225	0xbb0a8c27	-0.0021140666
226	0x3d1d95a3	0.038472783
227	0x3c17c701	0.009263755
228	0x3d60a2c2	0.054842718
229	0xbd88e983	-0.06685164
230	0x3da3fad7	0.08006828
231	0x3d7587dd	0.059944022
232	0x3dab33b0	0.08359468
233	0x3daad8f7	0.08342164
234	0xbc3df4d0	-0.011594012
235	0xbd52d3c9	-0.051471505
236	0xbd590d05	-0.052990932
237	0x3d6575a5	0.056020398
238	0x3ddbb7ab	0.10728391
239	0x3de7a265	0.11310271
240	0x3e106a7e	0.14103124
241	0x3de085f5	0.1096305
242	0x3dbb141f	0.09134697
243	0x3d9c3f5d	0.07629273
244	0x3da815ed	0.08207307
245	0xbe279391	-0.16364886
246	0xbe43480e	-0.19070455
247	0xbe64c0e7	-0.22339211
248	0xbd14cfd4	-0.036331013
249	0xbcd36a9e	-0.025807675
250	0xbc82f0cd	-0.015983963
251	0x3c183da2	0.009292038
252	0x3dd27361	0.10275913
253	0x3d9f1292	0.07767214
254	0x3e3b8966	0.18314132
255	0x3e7cc288	0.24683583

sfeb.4.weight f4 [32]
0	0x3f3f6ae4	0.7477248
1	0x3edd9e2f	0.43284747
2	0x3f4ac38b	0.79204625
3	0x3f96f7a1	1.179432
4	0x3eb0ea44	0.3455373
5	0x3ec331bc	0.38123882
6	0x3f151fce	0.58251655
7	0x3a19cac6	0.00058667024
8	0x3edbac39	0.42904833
9	0x3f02ccf4	0.51093984
10	0x3c63f8e5	0.013914322
11	0x3f1f93bc	0.623348
12	0x3f176c14	0.5914929
13	0x3f3f23ea	0.74664176
14	0x3f693dcb	0.91109914
15	0xba45d4af	-0.0007546646
16	0x3f1a0885	0.6016925
17	0x3ed91834	0.42401278
18	0x3f11be80	0.56931305
19	0x39840603	0.0002518148
20	0x3f0bf08c	0.5466392
21	0x3f1440cf	0.5791139
22	0x3f3b5a96	0.731851
23	0x3ee5dc76	0.4489476
24	0x3a21db28	0.00061743194
25	0x3a48d68a	0.00076613633
26	0x3ec7b836	0.3900773
27	0x3f0eaffa	0.5573727
28	0x3ebd548d	0.3697857
29	0x3f0de2b1	0.5542403
30	0x3edb1f4f	0.42797324
31	0x3ecc409e	0.3989305

sfeb.4.bias f4 [32]
0	0x3e344dcf	0.17607807
1	0xbe561cbe	-0.20909402
2	0xbe279955	-0.16367085
3	0xbd2933fc	-0.04130934
4	0xbd0c866e	-0.03430789
5	0x3c99b280	0.018761873
6	0x3df7f9f3	0.12108221
7	0xbd87f0f2	-0.066377535
8	0x3d103603	0.03520776
9	0xbdd39706	-0.1033154
10	0xbcc05da8	-0.023482159
11	0x3ce307e8	0.02771373
12	0x3ddbcfe5	0.10733012
13	0x3debb329	0.115087815
14	0x3d84f78a	0.06492527
15	0xbd209ae4	-0.039210215
16	0xbdcd83f4	-0.10034934
17	0x3d51d002	0.051223762
18	0xbd025f73	-0.03182931
19	0xbcb26a74	-0.021779276
20	0x3d3170ea	0.043320574
21	0xbe090375	-0.13380225
22	0xbdb00249	-0.08594186
23	0x3cdfed8d	0.027334953
24	0xbc940ea3	-0.018073386
25	0xbca330bc	-0.0199207
26	0x3ccdd1b4	0.025124408
27	0xbd2583ac	-0.040408775
28	0xbe03b4ad	-0.12861891
29	0xbda037ed	-0.07823167
30	0xbde71f1d	-0.11285231
31	0x3da7c420	0.08191705

sfeb.4.running_mean f4 [32]
0	0xbd49331b	-0.049121004
1	0xbe4ae004	-0.19812018
2	0xbed91c21	-0.42404273
3	0xbe9fdeb5	-0.312246
4	0xbeb0b364	-0.34511864
5	0xbe3aca27	-0.18241177
6	0xbdd970ef	-0.106172435
7	0x3c40c74e	0.011766268
8	0xbe9386db	-0.28813824
9	0xbe1907c3	-0.14944367
10	0xbd2e53de	-0.04256045
11	0xbe6e2ade	-0.2325854
12	0xbdbff89d	-0.09373591
13	0x3dd44a5f	0.10365748
14	0xbe538546	-0.20656309
15	0xbab5c566	-0.0013868033
16	0xbe9b1abe	-0.3029384
17	0xbe924f6c	-0.2857622
18	0xbeaf2997	-0.34211418
19	0xbc005e9e	-0.0078350585
20	0xbec4b5c8	-0.38419938
21	0xbef299f6	-0.47383088
22	0xbeb519d2	-0.35371262
23	0xbe5d9d06	-0.21641931
24	0xbc986247	-0.01860155
25	0xbc849272	-0.016183112
26	0xbeb37d38	-0.35056472
27	0xbe23b74c	-0.15987891
28	0xbeb3a420	-0.35086155
29	0xbee003fa	-0.43753034
30	0xbde3615d	-0.11102555
31	0xbd176d52	-0.03696949

sfeb.4.running_var f4 [32]
0	0x3eb70960	0.3574934
1	0x3eae65c5	0.3406202
2	0x3f23cb1f	0.63981813
3	0x3f8b648b	1.0890058
4	0x3ea19b3f	0.31563756
5	0x3eb055bf	0.3444042
6	0x3ed78833	0.420961
7	0x3bd0faf7	0.0063775736
8	0x3e9cf9b6	0.30659264
9	0x3e567afd	0.20945354
10	0x3b509ca4	0.0031831646
11	0x3ebf98fb	0.37421402
12	0x3eddc819	0.43316725
13	0x3f386a90	0.720376
14	0x3f725c20	0.9467182
15	0x3b0865db	0.0020812664
16	0x3f05d20b	0.52273625
17	0x3f140974	0.57826924
18	0x3f435a29	0.7630945
19	0x3ab94dbf	0.001413755
20	0x3f1cec03	0.61297625
21	0x3f2d8415	0.67779666
22	0x3f3e528f	0.74344724
23	0x3ee3aa05	0.44465652
24	0x3a7652b8	0.00093964813
25	0x3a4da9e0	0.0007845443
26	0x3ef8ee2e	0.48619217
27	0x3ef29c66	0.47384948
28	0x3ecea0d0	0.40357065
29	0x3efde1e1	0.49586394
30	0x3e759023	0.23980765
31	0x3e3af399	0.18256988

tfeb.0.weight f4 [13, 1, 3, 3]
0	0x3d0a0d2e	0.033703975
1	0x3a260a47	0.0006333929
2	0xbbb52919	-0.005528581
3	0x3b8ccbde	0.004296764
4	0x3a014b89	0.0004932215
5	0x3acf0cab	0.0015796622
6	0x3b017483	0.0019753284
7	0x3bc99482	0.0061517367
8	0x3bcb9cfa	0.0062137814
9	0x3c135246	0.0089917835
10	0xbc27cfe0	-0.010242432
11	0x3c6e185b	0.014532174
12	0x3c806495	0.015672961
13	0xbc402321	-0.011727125
14	0x3c5debce	0.01354499
15	0x3c84337f	0.016137837
16	0xbbf42e10	-0.00745178
17	0x3c8881e7	0.016663505
18	0x3e599b9e	0.2125077
19	0x3e0d5d78	0.13805187
20	0xbece0df5	-0.40245023
21	0x3ec3dd41	0.3825474
22	0x3eecade6	0.46226424
23	0xbf2c4721	-0.67296034
24	0x3e4243c8	0.18971169
25	0x3e15b748	0.14620697
26	0xbeee42bb	-0.46535286
27	0xbe6fc0c8	-0.23413384
28	0xbd1dd028	-0.03852859
29	0x3df9ed89	0.12203509
30	0xbf179851	-0.5921679
31	0x3ef40a01	0.47663882
32	0x3f09df09	0.5385595
33	0xbea45b4f	-0.32100913
34	0x3e0c577d	0.13705249
35	0x3e3635bb	0.17793934
36	0x3c9f218d	0.019425178
37	0x3ed29d24	0.41135514
38	0xbf012c77	-0.5045847
39	0x3dac0c21	0.08400751
40	0x3dd4fcca	0.10399778
41	0xbead94fe	-0.33902735
42	0xbe259c70	-0.16172957
43	0xbd533a95	-0.05156954
44	0xbea22f6a	-0.316768
45	0x3d24988b	0.04018454
46	0xbe2001da	-0.15625706
47	0xbe301363	-0.17194895
48	0x3ca70180	0.020386457
49	0xbe5aebfd	-0.21379085
50	0xbe97243d	-0.29519835
51	0x3e7d0475	0.24708731
52	0xbe3e917f	-0.1861019
53	0xbe060b48	-0.13090241
54	0x3f5b0ea6	0.85569227
55	0xbf01d07b	-0.5070874
56	0xbf0414f5	-0.5159448
57	0x3f678b81	0.9044724
58	0xbf0eac91	-0.55732065
59	0xbf2c0a14	-0.6720288
60	0x3ee789aa	0.45222217
61	0xbe95845c	-0.29202545
62	0xbee93bc2	-0.45553404
63	0xbdeeaeac	-0.1165441
64	0xbe2b2139	-0.16711892
65	0xbe036b2b	-0.1283385
66	0xbdd391df	-0.10330557
67	0xbe2b94ee	-0.16756031
68	0xbe02638e	-0.1273329
69	0x3dd534d5	0.104104675
70	0x3e626650	0.22109342
71	0x3e01bd3d	0.12669845
72	0xbe2eba3b	-0.17063229
73	0xbe9658c2	-0.29364592
74	0xbdf08c4e	-0.11745511
75	0xbe1f319c	-0.15546268
76	0xbe8557ae	-0.26043457
77	0xbd828b79	-0.063742585
78	0xbddc154a	-0.10746248
79	0xbe38178f	-0.17977737
80	0xbded3dad	-0.11584029
81	0xbd6f60f1	-0.05844206
82	0xbdbb874f	-0.091566674
83	0x3d22272a	0.03958813
84	0xbde296d0	-0.110639215
85	0xbe11e77f	-0.14248465
86	0xbcc9806d	-0.024597371
87	0x3dcba426	0.09943418
88	0xbef097fa	-0.4699095
89	0x3edadf1b	0.4274834
90	0x3ea2c51f	0.31791016
91	0x3def1bc5	0.116752185
92	0x3de87e54	0.1135222
93	0x3e95e91f	0.2927942
94	0x3d74976a	0.059714712
95	0x3d71cb00	0.059031487
96	0xbd899e85	-0.06719688
97	0xbda4c8c9	-0.08046109
98	0xbcf66e14	-0.030081786
99	0xbd9ed827	-0.077560715
100	0xbe3386c1	-0.17531873
101	0xbd6cdfbf	-0.05783057
102	0xbe3e376d	-0.18575831
103	0xbe806e7f	-0.25084302
104	0xbe050f4f	-0.12994121
105	0x3c751d02	0.014960529
106	0xbe02cdb0	-0.12773776
107	0xbd512834	-0.05106373
108	0xbe9686b8	-0.29399657
109	0xbe70aaa9	-0.23502602
110	0x3ea03fa2	0.31298548
111	0xbf2b544f	-0.6692552
112	0xbf119ae5	-0.56876975
113	0x3f8f1601	1.117859
114	0xbeb96ca9	-0.36215714
115	0xbe960f87	-0.2930872
116	0x3eacdcb7	0.33762142

tfeb.1.weight f4 [13]
0	0xba5a920a	-0.00083378016
1	0xbb123826	-0.00223113
2	0x3e97c0ad	0.29639187
3	0x3e91c699	0.2847183
4	0x3eb73b0e	0.35787243
5	0x3ea971d4	0.33094656
6	0x3f1c5ec0	0.6108208
7	0x3e9592bc	0.29213512
8	0x3f6d8e5b	0.9279534
9	0x3ec4d995	0.38447252
10	0x3e86d150	0.26331568
11	0x3f000109	0.5000158
12	0x3f04adf0	0.5182791

tfeb.1.bias f4 [13]
0	0xbc47dedf	-0.012199133
1	0xbc6c8841	-0.014436782
2	0x3e2a05c7	0.16603766
3	0x3e6957db	0.2278742
4	0x3e945d20	0.289773
5	0x3ec0a275	0.37623945
6	0x3d25a8e1	0.04044426
7	0x3d6ceb6b	0.0578417
8	0xbe80e020	-0.25170994
9	0xbd13b19d	-0.036058057
10	0x3e3c27df	0.18374585
11	0x3d3bd0c1	0.04585338
12	0x3dfb5bab	0.12273344

tfeb.1.running_mean f4 [13]
0	0x3c931e5d	0.017958814
1	0x3ca62d12	0.020285163
2	0x3b03cdb2	0.0020111618
3	0x3dd50e20	0.10403085
4	0xbe89d36e	-0.2691912
5	0xbea1fd17	-0.31638405
6	0xbe956247	-0.29176542
7	0xbe12550e	-0.14290258
8	0xbf095bec	-0.53655887
9	0xbe04028b	-0.12891595
10	0x3e965a2f	0.2936568
11	0xbec5dfc6	-0.38647288
12	0xbe74f64e	-0.23922083

tfeb.1.running_var f4 [13]
0	0x3a414b9d	0.0007373633
1	0x3a638ff7	0.0008680815
2	0x3db7dc3f	0.089775555
3	0x3dfb9c53	0.12285676
4	0x3e46eefe	0.19427106
5	0x3e6a9fd5	0.22912534
6	0x3ec636ba	0.38713628
7	0x3e12f068	0.1434952
8	0x3f140d11	0.5783244
9	0x3d6b64e1	0.057469252
10	0x3e745c89	0.23863424
11	0x3ea1859c	0.31547248
12	0x3e886ce9	0.26645592

tfeb.4.weight f4 [25, 13, 3, 3]
0	0x3b1b282d	0.002367507
1	0xbb29ff4f	-0.002593953
2	0x3a8e481f	0.0010855234
3	0xba5ca765	-0.0008417278
4	0xbba0433b	-0.004890827
5	0xbb425730	-0.0029654019
6	0x3b16b540	0.0022996217
7	0xbabb28fc	-0.0014279182
8	0xb9d50275	-0.00040628357
9	0x3ae4d9f5	0.0017459976
10	0xbbaf65f3	-0.0053527295
11	0x3b7ab843	0.0038256801
12	0x3b1046b8	0.0022014808
13	0xbbd19903	-0.0063964142
14	0x3b453a3b	0.0030094523
15	0x3b3f8a03	0.0029226549
16	0xbb43be16	-0.0029867939
17	0x3b9936c4	0.004675718
18	0x3d98f77c	0.07469079
19	0xbb28e42e	-0.0025770771
20	0x3d7749b7	0.060373034
21	0xbdc74cde	-0.09731458
22	0xbe37d4f6	-0.17952332
23	0xbe0c5e6b	-0.13707893
24	0x3d4b4d19	0.049634073
25	0xbdd9388b	-0.10606488
26	0xbd151bbb	-0.0364034
27	0xbd0413a6	-0.0322453
28	0xbd93c560	-0.07215381
29	0xbc92166d	-0.01783296
30	0xbd9ab0dd	-0.07553265
31	0xbd6af5cf	-0.057363328
32	0x3ab875d6	0.0014073204
33	0xbddb9730	-0.10722196
34	0xbd0900dd	-0.03344809
35	0x3c1346f4	0.0089890845
36	0x3da935d8	0.08262223
37	0x3d51e7cc	0.05124645
38	0x3dc85188	0.09781176
39	0xbcaf6c5c	-0.021413974
40	0xbd6207b3	-0.055183124
41	0xbd7faa05	-0.062418003
42	0x3cbb63d4	0.02287475
43	0x3c1a1cf1	0.009406314
44	0x3cb1ceeb	0.021705111
45	0xbd6df5df	-0.05809581
46	0xbbd04f8d	-0.0063571394
47	0xbd383f14	-0.04498203
48	0x3cd6603f	0.02616894
49	0x3cc4ea06	0.024037372
50	0xbd18ba53	-0.037287068
51	0x3d2d5b54	0.042323425
52	0xbbb90999	-0.005646896
53	0x3b18608e	0.002325091
54	0x3ddcef61	0.107878454
55	0x3db7f62e	0.08982502
56	0xbd41c9c4	-0.04731156
57	0xbe15d30d	-0.1463129
58	0xbd3a89a5	-0.045541424
59	0xbe92832d	-0.28615704
60	0x3cee569f	0.029094039
61	0xbe0e88bc	-0.13919348
62	0xbde478fe	-0.1115589
63	0xbd56f63e	-0.05248093
64	0xbcb74df3	-0.022376036
65	0x3c96819b	0.018372348
66	0x3d6fc40d	0.058536578
67	0x3d919be6	0.071098134
68	0x3da5d90b	0.08098038
69	0x3afb21d7	0.0019159865
70	0xbc315f8d	-0.010826004
71	0xbc8021fa	-0.015641201
72	0x3b89bbbf	0.0042032893
73	0x3c663872	0.014051544
74	0x3d49c6f5	0.049262006
75	0x3ce6c0e4	0.02816815
76	0xbb15c2ae	-0.0022851634
77	0xbb3fb7f5	-0.0029253934
78	0x3db55fd3	0.08856168
79	0x3d094cde	0.033520572
80	0xbb5e8b22	-0.0033957441
81	0x3b7de49e	0.0038741003
82	0xbdecb4dc	-0.11557934
83	0x3cfe578c	0.031047605
84	0x3b0f72b2	0.0021888432
85	0xbddaa553	-0.10676064
86	0x3cf58e66	0.029975127
87	0xbcb0f515	-0.02160124
88	0xbd996008	-0.0748902
89	0x3c251d5b	0.0100778
90	0x3d6f1ed3	0.058379006
91	0x3dbd5154	0.09244028
92	0x3d97626b	0.073918186
93	0xbe16bb65	-0.14719923
94	0xbda17663	-0.078839086
95	0xbd8f6b1c	-0.07002851
96	0xbd48cc36	-0.049022876
97	0xbcece011	-0.028915437
98	0xbc816ce3	-0.015798992
99	0xbd21a3ff	-0.03946304
100	0xbc2dde04	-0.010612015
101	0xbc628b37	-0.013827137
102	0x3d86b9f4	0.065784365
103	0x3d41ff9d	0.047362912
104	0x3c484f2d	0.012225908
105	0x3d15b26e	0.036547117
106	0x3c8dcf6a	0.017310817
107	0xbcab4949	-0.020908969
108	0x3d023c28	0.03179565
109	0xbe412381	-0.188612
110	0xbcf2ba6d	-0.02962991
111	0x3d5556e9	0.052084837
112	0xbe3bcf59	-0.18340816
113	0xbc062359	-0.0081871385
114	0xbc08ed19	-0.00835731
115	0xbd68cfaa	-0.05683867
116	0xbc975e5b	-0.01847761
117	0x3abdb316	0.0014472927
118	0xbaae2e70	-0.0013288986
119	0xb94562f9	-0.00018824254
120	0xba34add5	-0.0006892358
121	0xba41a69c	-0.00073871925
122	0xba240198	-0.0006256341
123	0x3b09a1b4	0.0021000924
124	0x3a92b454	0.0011192658
125	0xba0daa50	-0.00054041017
126	0xbb27ed21	-0.0025623518
127	0xbb2a8999	-0.0026021956
128	0xba922e11	-0.0011152645
129	0x3b2e7a9e	0.0026623379
130	0x3a9b5c58	0.0011853082
131	0x3b0f5237	0.0021869072
132	0x3b2adbab	0.0026070874
133	0x3affc0d0	0.0019512419
134	0x3b6311a2	0.003464796
135	0xbce552f7	-0.027993662
136	0xbc725b20	-0.014792234
137	0xbda05be3	-0.07830026
138	0xbd054e61	-0.03254545
139	0x3d666583	0.056249153
140	0xbd13bc8c	-0.036068484
141	0x3d253ed9	0.04034314
142	0x3d4ea7b7	0.050452914
143	0x3c209ad0	0.009802535
144	0x3d7b6351	0.061374012
145	0x3cb001a5	0.02148516
146	0xbd12982a	-0.035789646
147	0x3cfaecde	0.030630525
148	0xbd9c7e53	-0.07641282
149	0xbe14e7e7	-0.14541589
150	0x3d6016b7	0.054709163
151	0xbc834b4a	-0.016027112
152	0xbd80fb36	-0.06297915
153	0x3b6d413e	0.0036202217
154	0xbda396eb	-0.0798777
155	0xbd89940e	-0.06717692
156	0xbdd3635b	-0.10321685
157	0xbe0b23ad	-0.13587828
158	0xbd955b48	-0.07292801
159	0xbd8c7f1b	-0.06860181
160	0xbd8416ef	-0.06449687
161	0xbc58e7ca	-0.013238857
162	0x3cd40e96	0.025885861
163	0x3b86a896	0.0041094525
164	0xbca9ed0f	-0.020742921
165	0xbdb1fecb	-0.08691176
166	0xbd927e6b	-0.071530186
167	0xbd2c91ee	-0.042131357
168	0xbdc73492	-0.09726824
169	0xbdafd648	-0.08585793
170	0xbca6105f	-0.020271478
171	0xbd3debae	-0.04636734
172	0xbd9a3688	-0.07529932
173	0xbe37f7ce	-0.17965624
174	0xbe4a2c56	-0.19743475
175	0xbd3e97f5	-0.046531636
176	0xbe2b4ca5	-0.16728456
177	0xbd8a392e	-0.067491874
178	0xbd124ad1	-0.03571588
179	0xbda18754	-0.0788714
180	0x3db5e39d	0.088813044
181	0x3db5c7c3	0.08875992
182	0x3d68df22	0.05685342
183	0xbd9f155f	-0.07767748
184	0xbda46b24	-0.08028248
185	0xbd823fe3	-0.06359842
186	0xbb19e5ee	-0.0023482996
187	0x3c7dd334	0.015492249
188	0x3d62c955	0.055367786
189	0x3d2b009b	0.041748624
190	0x3c015301	0.007893325
191	0xbbba1dcf	-0.005679823
192	0xbbd38c99	-0.0064559695
193	0xbd0ed513	-0.034871172
194	0xba6c2089	-0.00090075337
195	0xbc8bfd1e	-0.01708847
196	0xbd037f2b	-0.0321037
197	0x3c9374c9	0.018000023
198	0x3d09e47e	0.033665173
199	0xbd36d040	-0.044632196
200	0xbcb0e488	-0.021593347
201	0xbd219d77	-0.03945681
202	0xbe180c1c	-0.1484837
203	0xbdacc2d2	-0.084355965
204	0xbd0fd155	-0.035111744
205	0xbd583e53	-0.052793812
206	0xbc367f2b	-0.011138718
207	0xbd2d1dcb	-0.04226474
208	0xbb08ace1	-0.0020854997
209	0xbd77052b	-0.060307663
210	0x3c3e8a6b	0.011629681
211	0x3dc72063	0.09722974
212	0xbc8a597b	-0.01688837
213	0x3d938d00	0.07204628
214	0x3de73e10	0.11291134
215	0x3c9b7417	0.018976254
216	0x3d9c8cd0	0.07644045
217	0x3d7b6d67	0.06138363
218	0x3d351024	0.044204846
219	0xbcf8d916	-0.030376952
220	0xbd379fd7	-0.04483017
221	0xbc8bd0a5	-0.017067263
222	0xbd9828cb	-0.07429656
223	0xbd7cd768	-0.061728865
224	0xbbaeca5e	-0.0053341826
225	0x3d242173	0.040070962
226	0xbdb11d4b	-0.08648165
227	0xbdfa0407	-0.122077994
228	0xbbc7eb45	-0.0061010444
229	0xbe5e4fbe	-0.21710107
230	0xbe51fe86	-0.20507249
231	0xbda48567	-0.08033257
232	0xbdfdbbeb	-0.12389358
233	0xbddc2475	-0.10749141
234	0xba01bbf9	-0.00049489696
235	0x3a937b07	0.0011251875
236	0x3aa67f7d	0.0012702789
237	0xbb179e6a	-0.0023135194
238	0xbc17ed8e	-0.009272946
239	0xbb5bd935	-0.0033546214
240	0xbbae8cc3	-0.0053268387
241	0xba7e1e7d	-0.0009693874
242	0xbb3df559	-0.002898535
243	0xbb28087b	-0.002563982
244	0x3a9e9166	0.0012097775
245	0xb8e0654b	-0.000107000196
246	0xbbd7e75a	-0.0065888586
247	0xbb3eb9bd	-0.0029102408
248	0xbb995c8b	-0.0046802214
249	0xbb469b0c	-0.0030304817
250	0xbac7f1bb	-0.0015254536
251	0x3acfc6cb	0.0015852092
252	0xbcda7058	-0.026664898
253	0xbd9a1536	-0.07523577
254	0x3da129b2	0.07869281
255	0xbd6bcee7	-0.057570364

tfeb.5.weight f4 [25]
0	0x3ee49876	0.44647568
1	0x3e45e02c	0.19323796
2	0x3eaf4e4f	0.34239432
3	0x3e8978e6	0.2685005
4	0x3ee5ddd7	0.44895813
5	0x3ebdabd0	0.37045145
6	0x3e75f7a4	0.24020249
7	0x3e8c4222	0.27394205
8	0x3f211b8b	0.6293265
9	0x3ea574a7	0.3231556
10	0x3e669ab7	0.22519957
11	0x3f19ad0f	0.6002969
12	0x3efd8efd	0.49523154
13	0x3f181531	0.59407336
14	0x3e484d12	0.1956065
15	0x3e7c4155	0.24634297
16	0x3ea79ae3	0.32735357
17	0x3e71c752	0.23611191
18	0x3eeea7e8	0.46612477
19	0x3e644c0f	0.22294639
20	0x3ee3a7e7	0.44464037
21	0x3e603057	0.2189344
22	0x3e7130a6	0.23553714
23	0x3d9dbb95	0.07701794
24	0x3e4c1765	0.199308

tfeb.5.bias f4 [25]
0	0x3d2e00a2	0.042481072
1	0x3e73a86f	0.23794721
2	0xbc2b221d	-0.010445145
3	0x3d43d2f0	0.047808588
4	0xbd27cf45	-0.040969152
5	0x3dfe6d18	0.12423152
6	0x3e2984e3	0.16554599
7	0x3d57b6da	0.052664615
8	0xbd8b3d41	-0.06798793
9	0xbd1b9b96	-0.037990175
10	0x3dff1992	0.12456049
11	0xbd8a89c1	-0.06764556
12	0xbe33f00a	-0.17572036
13	0xbdb3e601	-0.08784104
14	0x3e3e6302	0.18592456
15	0x3e18a433	0.14906387
16	0xbc0015db	-0.007817711
17	0xbcbaa6ac	-0.022784553
18	0xbd884e1b	-0.066555224
19	0x3e9de15b	0.30835995
20	0xbe114e8c	-0.1419012
21	0x3e94c39c	0.29055488
22	0x3e7d5182	0.24738124
23	0x3d811e5a	0.06304617
24	0xbda0bdd9	-0.078487106

tfeb.5.running_mean f4 [25]
0	0xbef256ed	-0.47331944
1	0xbf78aa19	-0.9713455
2	0xbd9d44ef	-0.07679164
3	0x3c089157	0.008335433
4	0xbf285b7c	-0.65764594
5	0xbeec3fb7	-0.4614236
6	0xbefba43e	-0.49148744
7	0xbec15873	-0.37762794
8	0xbf030dcc	-0.5119293
9	0xbee0ced7	-0.43907806
10	0xbeea7b3c	-0.45797145
11	0xbee46e9b	-0.44615635
12	0x3e05f01a	0.13079873
13	0xbe921233	-0.2852951
14	0xbed5f87b	-0.41791138
15	0xbe0798a3	-0.1324182
16	0xbf1a7e88	-0.6034932
17	0xbddab0e7	-0.10678273
18	0xbed99544	-0.42496693
19	0xbeab787d	-0.33490363
20	0xbd4bb85c	-0.049736366
21	0xbf2f8b63	-0.6857206
22	0xbe290cba	-0.16508761
23	0xbe7448f5	-0.23855956
24	0x3e028448	0.12745774

tfeb.5.running_var f4 [25]
0	0x3e266665	0.16249998
1	0x3e2d8b5c	0.16947693
2	0x3deaa987	0.11458116
3	0x3d3cea64	0.04612197
4	0x3e3b0b97	0.1826614
5	0x3dde07e4	0.10841349
6	0x3db1b3bf	0.08676862
7	0x3d5e8577	0.0543265
8	0x3e65bf60	0.22436285
9	0x3d79041b	0.06079493
10	0x3e16fd77	0.14745127
11	0x3e82a8d6	0.25519437
12	0x3dd3df32	0.103453055
13	0x3de1263e	0.10993622
14	0x3da97ed0	0.08276141
15	0x3dda2883	0.10652258
16	0x3da10878	0.078629434
17	0x3ce4b0e6	0.027916383
18	0x3de9946b	0.114052616
19	0x3daacafa	0.08339496
20	0x3de54769	0.11195261
21	0x3e6f59c6	0.2337409
22	0x3df461ea	0.11932738
23	0x3c79fa82	0.01525748
24	0x3d1a2fcc	0.03764324

tfeb.7.weight f4 [28, 25, 3, 3]
0	0x3cc2879c	0.023746304
1	0x3cb01e71	0.02149889
2	0x3d31266d	0.043249536
3	0x3ce29c14	0.027662314
4	0x3c92c0da	0.017914224
5	0x3bd0a501	0.0063673262
6	0x3c05f372	0.008175718
7	0x3d0bdb4b	0.03414468
8	0x3ce66ff7	0.02812956
9	0x3be3cf7d	0.0069522248
10	0xbc67e654	-0.014154036
11	0xbcd21615	-0.025645295
12	0x3d990a83	0.07472708
13	0x3dcd3832	0.10020484
14	0x3d87d8a4	0.06633118
15	0x3d07a9ec	0.033121035
16	0x3c799c35	0.015234997
17	0xbcac204a	-0.02101149
18	0xbcfc555d	-0.030802423
19	0xbc6db3c6	-0.014508193
20	0xbd06b920	-0.032891393
21	0xbdf10bf0	-0.11769855
22	0xbdb48ef1	-0.088163264
23	0xbd8b235d	-0.067938544
24	0xbce35e85	-0.027755031
25	0x3c4ee0ab	0.012626807
26	0x3d057916	0.03258618
27	0xbd1910a9	-0.037369404
28	0xbcde06a7	-0.027102781
29	0xbd11aafe	-0.03556346
30	0xbd1a0cdf	-0.03760993
31	0xbd4208b2	-0.047371574
32	0xbc99fe86	-0.018798124
33	0xbc1daff6	-0.009624472
34	0xbccc6ead	-0.024955118
35	0x3da30602	0.0796013
36	0x3bc81769	0.0061063063
37	0x3d2aa485	0.041660804
38	0x3d93794d	0.07200871
39	0x3d1f1550	0.038838685
40	0x3d7f53db	0.06233583
41	0x3d9b179f	0.07572865
42	0x3b5720c3	0.0032825924
43	0x3cd2e72c	0.025744997
44	0x3d4e7b56	0.05041059
45	0xbd8eb9bb	-0.06969019
46	0xbd5361cf	-0.05160695
47	0xbbd2753b	-0.0064226664
48	0xbc93186c	-0.017955981
49	0x3cdb777a	0.02679037
50	0x3c8bc14d	0.017059946
51	0xbd168661	-0.036749247
52	0x3c90944c	0.017648838
53	0x3c659ca6	0.014014399
54	0xbde3d16d	-0.11123929
55	0xbd254eba	-0.040358283
56	0xbd60b0c7	-0.054856088
57	0x3ba0fffe	0.004913329
58	0xbc3049cf	-0.010759785
59	0xbd51993e	-0.051171534
60	0x3c1a4ac3	0.009417239
61	0x3d0dbd37	0.034604277
62	0xbb87f3a7	-0.0041489187
63	0xbc4a1c8e	-0.0123359095
64	0xbc64100a	-0.01391984
65	0xbad2d022	-0.0016083757
66	0x3c3ab2b7	0.011395148
67	0x3d5ff125	0.054673333
68	0x3ce7a5ed	0.028277362
69	0x3b89abc5	0.0042013847
70	0x3ccdc9f4	0.025120713
71	0x3c5a7939	0.013334566
72	0xbd3c0e6c	-0.04591219
73	0xbc1588bf	-0.009126841
74	0xbd0e716b	-0.034776133
75	0x3d2646d1	0.04059488
76	0x3df3ad03	0.11898234
77	0x3d9acd05	0.075586356
78	0x3bec10f2	0.0072041685
79	0x3d37b3bc	0.044849142
80	0x3d53660f	0.051611003
81	0x3c33e861	0.010980696
82	0x3bedd7df	0.0072584
83	0x3c9232cb	0.017846486
84	0x3bdf2663	0.006809996
85	0x3ca20800	0.019779205
86	0x3c32e597	0.010918996
87	0x3c8636fd	0.016383642
88	0x3cd98989	0.02655484
89	0x3c42f80a	0.011899957
90	0xbd0f4de7	-0.034986403
91	0xbcd14f9c	-0.025550656
92	0xbd833cc1	-0.06408072
93	0x3d7cc1f6	0.061708413
94	0x3daedf92	0.085387364
95	0x3d7ddf84	0.06198074
96	0x3cc11cc7	0.023573292
97	0x3bbcbdfe	0.0057599535
98	0xbd68a11a	-0.056794263
99	0xbb956222	-0.0045588175
100	0x3d41602d	0.04721086
101	0x3d32ecf0	0.043682992
102	0x3cb20d13	0.02173475
103	0x3dbaecdb	0.09127208
104	0x3d2a884b	0.041633885
105	0xbd38a66e	-0.045080595
106	0xba9a5993	-0.0011775963
107	0xbd6aa7be	-0.057288878
108	0xbd10a599	-0.035314176
109	0xbbe21a01	-0.0069000726
110	0xbc0280c1	-0.007965268
111	0xbd048b0f	-0.03235918
112	0xbce42808	-0.02785112
113	0xbbe209c3	-0.0068981363
114	0x3b6bf869	0.0036006218
115	0xbd049c4b	-0.032375615
116	0x3d394f39	0.04524157
117	0xbc96a53a	-0.018389333
118	0xbc810e2c	-0.015753828
119	0x3b904e13	0.0044038384
120	0x3c17de2b	0.009269278
121	0xbc039abe	-0.008032499
122	0xbcbd156a	-0.0230815
123	0x3cb5a6a9	0.022174196
124	0xbb7fafb4	-0.003901464
125	0xbd1e3275	-0.03862234
126	0xbc90fa72	-0.017697547
127	0xbcc19bde	-0.023633894
128	0xbb3c5068	-0.002873445
129	0xbce3d1e6	-0.027810048
130	0xbcaa24fc	-0.020769589
131	0xbcd2ebcf	-0.025747208
132	0x3d41ac07	0.0472832
133	0x3d92f6f9	0.071760125
134	0x3d7ae2e1	0.061251525
135	0x3d96734c	0.0734621
136	0x3d8948ea	0.067033604
137	0x3d1fee18	0.039045423
138	0xbbbd2a2e	-0.0057728505
139	0x3c176d9e	0.009242443
140	0x3d3b9738	0.04579851
141	0xbda81b42	-0.08208324
142	0xbd9df451	-0.07712615
143	0xbd07538b	-0.033038657
144	0xbd41acee	-0.04728406
145	0xbceda2a3	-0.029008215
146	0xbc513776	-0.012769571
147	0x3c013e57	0.007888398
148	0xb8774561	-5.8954003e-05
149	0xbc17aabb	-0.009257014
150	0xb91c9998	-0.00014934537
151	0x3cca812f	0.024719803
152	0x3d0c787f	0.0342946
153	0x3b8677e3	0.004103647
154	0x3caf546c	0.02140256
155	0x3d41c951	0.04731113
156	0xbcbb3e32	-0.022856805
157	0xbcd73b4b	-0.02627339
158	0x3bc7340e	0.0060792034
159	0xbc142085	-0.009040956
160	0xbc605bea	-0.013693789
161	0xbbb5d002	-0.005548478
162	0xbc236565	-0.009972905
163	0xbc9585cf	-0.018252281
164	0xbcd17886	-0.025570165
165	0xbc0c3750	-0.008558109
166	0x3d23e19e	0.040010087
167	0x3cde15cd	0.027110005
168	0x3d046066	0.032318495
169	0x3d8c6d28	0.068567574
170	0x3d2452e4	0.040118113
171	0x3d146372	0.03622765
172	0x3c92ce3b	0.017920604
173	0x3d045f18	0.03231725
174	0xbb554448	-0.003254192
175	0xbcc8d52e	-0.024515714
176	0x3d14a0ec	0.03628628
177	0xbc617ab4	-0.013762165
178	0xbd032ca9	-0.032025013
179	0x3c5031be	0.012707172
180	0xbce6f4b5	-0.028192857
181	0xbc251416	-0.01007559
182	0x3ccae2d5	0.024766365
183	0xbd209f63	-0.039214503
184	0xbd631d93	-0.055448126
185	0xbd698dda	-0.057020046
186	0x3bcaa719	0.0061844704
187	0xbc1201f2	-0.008911597
188	0xbce4e439	-0.027940856
189	0xbd65a0f5	-0.056061704
190	0xbcf59a80	-0.029980898
191	0xbb93229b	-0.0044902093
192	0x3d8da3c9	0.06916005
193	0x3dad8975	0.084734835
194	0x3dc836ab	0.09776052
195	0xbd0368f3	-0.03208251
196	0xbc04449c	-0.008072998
197	0x3d4dc18a	0.0502334
198	0x3d184ba8	0.037181526
199	0x3d17d88c	0.03707175
200	0x3ce80b82	0.0283258
201	0xbd46c838	-0.048530787
202	0xbd895244	-0.06705144
203	0xbda71f76	-0.081602976
204	0x3da3a8d2	0.07991184
205	0x3dbedc7b	0.09319397
206	0x3da84f66	0.08218269
207	0x3b8938e0	0.004187688
208	0xbb803184	-0.0039121527
209	0xbbc230a9	-0.005926211
210	0x3cde16e0	0.027110517
211	0x3ccb4351	0.024812372
212	0x3d17d9bb	0.03707288
213	0x3c444130	0.011978433
214	0xbc291fb1	-0.010322497
215	0x3c38e70f	0.011285557
216	0xbc22afde	-0.009929625
217	0xbcc665ff	-0.024218557
218	0xba047e3c	-0.0005054211
219	0x3cb91ceb	0.022596797
220	0x3ccfb366	0.025354099
221	0x3d89c01e	0.067260966
222	0xbcb95350	-0.022622734
223	0xbd07d317	-0.033160295
224	0xbc4251ea	-0.01186035
225	0x3da99aa2	0.08281447
226	0xbd477b90	-0.048701823
227	0xbd797229	-0.060899887
228	0x3d394fbf	0.045242067
229	0xbe043bad	-0.1291339
230	0xbe026458	-0.1273359
231	0x3e25ccac	0.16191357
232	0xbd50cfd4	-0.05097945
233	0xbd8ef0e9	-0.06979544
234	0x3d2a796a	0.041619696
235	0x3c98f4f9	0.0186715
236	0x3d65fcbd	0.056149233
237	0x3db39772	0.0876912
238	0x3d5d70f5	0.054062802
239	0x3be42685	0.0069625997
240	0x3d4f2db2	0.050580688
241	0xbb30ab4c	-0.002695757
242	0xbcbb182b	-0.022838673
243	0xbd229feb	-0.03970329
244	0x3dacba6d	0.084339954
245	0x3d559f6e	0.052153997
246	0xbd61fc10	-0.055172026
247	0xbd73e997	-0.05954894
248	0xbd7d7f57	-0.06188902
249	0xbcf7b653	-0.030238306
250	0xbd88b55c	-0.066752166
251	0xbe1dcd1d	-0.15410276
252	0x3cc11766	0.023570728
253	0xbc6f077a	-0.014589185
254	0xbdab1a46	-0.08354621
255	0xbd81552e	-0.06315075

tfeb.8.weight f4 [28]
0	0x3e749d0e	0.23888037
1	0x3f00a964	0.5025847
2	0x3e777532	0.241658
3	0x3eb3dbd2	0.35128647
4	0x3ed5e6a0	0.41777515
5	0x3eb4c0c8	0.3530333
6	0x3e917673	0.28410682
7	0x3e746c2e	0.23869392
8	0x3e2c8613	0.1684802
9	0x3edcc564	0.43119347
10	0x3e9c85b6	0.30570763
11	0x3ed3b468	0.41348577
12	0x3ea186af	0.31548068
13	0x3e809c43	0.25119218
14	0x3e63534d	0.22199745
15	0x3eb69d49	0.35666874
16	0x3ec6db00	0.3883896
17	0x3efd32cb	0.49452814
18	0x3ed6699a	0.41877443
19	0x3ec72359	0.38894156
20	0x3f038799	0.5137878
21	0x3eb2de38	0.34935164
22	0x3e83b000	0.25720215
23	0x3e9953a1	0.29946616
24	0x3efa4a6a	0.48884898
25	0x3ebc01b3	0.36720046
26	0x3ec7f18c	0.39051473
27	0x3e5a66d9	0.21328296

tfeb.8.bias f4 [28]
0	0x3e145881	0.14486887
1	0xbd90e2a0	-0.07074475
2	0x3c9af886	0.018917333
3	0xbd26ab93	-0.04069097
4	0xbdb46c87	-0.088097624
5	0x3c393ad9	0.011305534
6	0x3c3ac411	0.011399285
7	0x3dad0e08	0.08449942
8	0x3d381740	0.044944048
9	0xbd71b7ff	-0.059013363
10	0xbe0ded04	-0.13859946
11	0xbd94cb78	-0.07265371
12	0xbd032f73	-0.032027673
13	0x3de3ebdf	0.11128973
14	0x3e426394	0.18983299
15	0xbd3112bc	-0.043230757
16	0xbde958fb	-0.11393925
17	0xbdb903e3	-0.090339445
18	0xbd41bf71	-0.047301713
19	0xbd8d19fe	-0.06889723
20	0xbe2f44e3	-0.17116122
21	0xbcf6b5d1	-0.030115994
22	0x3da2573d	0.07926796
23	0xbd0ff199	-0.035142515
24	0xbd03b693	-0.03215654
25	0xbd5eb00c	-0.05436711
26	0xbca84baf	-0.020543901
27	0x3de51736	0.11186068

tfeb.8.running_mean f4 [28]
0	0x3e4ec7f5	0.20193465
1	0xbe8e7551	-0.2782388
2	0xbe1e51d1	-0.15460898
3	0xbd9e05ff	-0.077159874
4	0xbecb24b4	-0.3967644
5	0xb8112ff4	-3.4615354e-05
6	0xbe953119	-0.2913902
7	0xbe9aaeb9	-0.30211428
8	0xbda21ce0	-0.07915664
9	0x3da03e87	0.07824426
10	0x3ddf2d82	0.10897352
11	0x3e2b8144	0.1674853
12	0xbe0d3860	-0.13791037
13	0x3c9a05db	0.01880162
14	0x3dd67f65	0.10473517
15	0xbeec886b	-0.4619783
16	0xbe86e47b	-0.26346192
17	0xbd1eeced	-0.03880017
18	0xbe4c27a4	-0.19936997
19	0x3d70c5b5	0.058782298
20	0xbe70656d	-0.23476191
21	0xbe590ae7	-0.21195565
22	0xbf356a5f	-0.70865434
23	0xbe87d38b	-0.26528582
24	0xbe27ad51	-0.16374709
25	0xbd84fb64	-0.064932615
26	0xbed3b607	-0.41349813
27	0x3ee0a5cb	0.4387649

tfeb.8.running_var f4 [28]
0	0x3d1b31d9	0.037889335
1	0x3e18bf1f	0.14916657
2	0x3c9fe32d	0.019517506
3	0x3d3a96f2	0.04555411
4	0x3dbf588c	0.09343061
5	0x3d1f5a89	0.0389047
6	0x3d03ce95	0.032179434
7	0x3d4027d4	0.046912983
8	0x3c1a6551	0.00942357
9	0x3dced666	0.10099487
10	0x3cd2eef7	0.025748713
11	0x3d1d026c	0.038332388
12	0x3dba67de	0.09101842
13	0x3d824585	0.06360916
14	0x3d8b22a1	0.06793714
15	0x3d32e5bc	0.043676123
16	0x3d8ab7b3	0.06773319
17	0x3e27e4ee	0.16395923
18	0x3e0aa5f8	0.13539875
19	0x3d822cab	0.06356176
20	0x3dd77157	0.10519665
21	0x3daa8272	0.08325662
22	0x3d38ba36	0.04509946
23	0x3da981ee	0.08276735
24	0x3d88fba4	0.06688622
25	0x3d33c5af	0.043889698
26	0x3d2ddff6	0.042449914
27	0x3d87d760	0.066328764

tfeb.11.weight f4 [32, 28, 3, 3]
0	0xbce1edc4	-0.027579196
1	0xbd07edf1	-0.033185903
2	0xbd176c60	-0.03696859
3	0x3d009c07	0.0313988
4	0x3d1a4716	0.03766545
5	0x3cb5b431	0.022180649
6	0x3d8e8c93	0.06960406
7	0x3d700bda	0.058605053
8	0x3d4ba5d5	0.049718697
9	0xbd15a47c	-0.036533818
10	0x3bb662d4	0.0055659804
11	0xbc11660f	-0.00887443
12	0xb9225d92	-0.00015484382
13	0x3c303413	0.010754603
14	0x3cea741f	0.028619824
15	0xbccb0132	-0.024780843
16	0xbbfba32e	-0.0076793646
17	0x3cfed5f7	0.031107886
18	0xbca359f1	-0.019940348
19	0xbd09e8e6	-0.033669375
20	0xbce6bbcf	-0.028165726
21	0xbc81d1f9	-0.015847193
22	0xbcba96f4	-0.022777058
23	0xbc8f7291	-0.017510684
24	0x3cfb5502	0.030680183
25	0x3c94acc7	0.018148793
26	0x3cce93e4	0.025217004
27	0x3d084180	0.03326559
28	0x3ccbebc1	0.02489269
29	0x3cf0e59c	0.029406361
30	0x3d1f65e8	0.038915545
31	0x3c9af2e1	0.018914642
32	0xbb9e7720	-0.004835978
33	0xbbd76765	-0.006573605
34	0x3c6dea35	0.014521171
35	0xbcc6f470	-0.024286479
36	0x3cb434d4	0.021997847
37	0x3c55e6b6	0.013055494
38	0x3d0c371a	0.034232236
39	0x3cc383ad	0.023866499
40	0x3c33f880	0.01098454
41	0x3cdca580	0.026934385
42	0xbccec597	-0.025240703
43	0xbd9b34ed	-0.07578454
44	0xbcbd5e56	-0.023116272
45	0xbca09c04	-0.019605644
46	0xbcbfdb8b	-0.023420116
47	0xbc739776	-0.014867654
48	0x3cac511c	0.02103477
49	0x3c73dc94	0.014884133
50	0xbc0b74d9	-0.008511745
51	0xbcbe0ca2	-0.023199383
52	0xbcc8e493	-0.024523055
53	0x3bb80667	0.0056159976
54	0x3c1a1f2c	0.009406846
55	0x3c784b7a	0.015154714
56	0x3c4ec4ee	0.012620194
57	0xbcb99d19	-0.022657918
58	0xbc9f1f52	-0.019424114
59	0xbc8c16bb	-0.017100682
60	0xbbccc7a9	-0.0062493873
61	0xbca29461	-0.019846143
62	0xbbad8897	-0.005295824
63	0xbd1c8b20	-0.038218617
64	0xbc36bacf	-0.011152937
65	0xbca1f281	-0.019768955
66	0xbd7fc993	-0.062448096
67	0xbd0dac29	-0.034588013
68	0xbc8c8b98	-0.017156407
69	0xbcf2733a	-0.02959596
70	0xbc47326c	-0.012158018
71	0x3ccfa76f	0.025348393
72	0xbd0ad5e5	-0.033895392
73	0xbd0462f5	-0.032320935
74	0xbcfa3e92	-0.030547414
75	0xbcad19a5	-0.021130392
76	0xbcb39473	-0.021921372
77	0xbc57076c	-0.013124328
78	0x3b3c2c68	0.0028712992
79	0x3b36fc48	0.0027921367
80	0x3c1a693e	0.009424506
81	0xbc18b26a	-0.009319881
82	0x3a99a12a	0.0011721004
83	0x3ce37d05	0.027769575
84	0x3c613ca0	0.013747364
85	0x3d44f4d0	0.048085034
86	0x3cd85667	0.026408387
87	0xbba23e5f	-0.004951283
88	0x3c6d8047	0.014495916
89	0x3d03aac0	0.03214526
90	0x3c36517f	0.011127829
91	0x3c321d6d	0.010871273
92	0x3c307caa	0.01077191
93	0x3d17fa46	0.037103914
94	0x3d181e70	0.037138402
95	0x3c265ecd	0.010154438
96	0x3cfd0242	0.030884866
97	0x3d266faa	0.040633835
98	0x3d070edf	0.032973167
99	0x3aea4ad5	0.0017875085
100	0x3d173425	0.036914963
101	0x3c9300e7	0.017944766
102	0xbc5f10d6	-0.013614854
103	0x3c250def	0.010074123
104	0xbca50900	-0.020145893
105	0x3cb172a1	0.021661105
106	0x3ca730d2	0.020409022
107	0x3c953afa	0.018216599
108	0xbd4d5780	-0.050132275
109	0xbd7e5f3f	-0.062102553
110	0xbd684ca8	-0.05671373
111	0xbd8e229c	-0.06940195
112	0xbd9dd5bb	-0.077067815
113	0xbd8a9d06	-0.06768231
114	0x3cd52932	0.02602062
115	0x3d271389	0.040790115
116	0x3d5e3ab7	0.054255214
117	0xbce5fc7d	-0.028074497
118	0xbcc3b61d	-0.02389055
119	0xbc88f416	-0.016717952
120	0x3c368a63	0.011141392
121	0x3c4318f6	0.011907807
122	0x3c9104ad	0.017702425
123	0x3bc6a635	0.006062294
124	0x3cd142d1	0.025544556
125	0x3d2c545e	0.042072646
126	0xbd9bd1a2	-0.07608344
127	0xbda2276e	-0.07917677
128	0xbdacbd4e	-0.084345445
129	0x3cba9fff	0.02278137
130	0x3ca6b989	0.020352142
131	0x3d1f8b0b	0.03895096
132	0x3d2c0f58	0.04200682
133	0x3ce6f540	0.028193116
134	0x3d34ce1d	0.044141877
135	0x3cbd8d26	0.023138594
136	0x3d2c0b6b	0.042003077
137	0x3d08e084	0.03341724
138	0x3b5295e9	0.003213281
139	0x3c6cff3c	0.0144651495
140	0x3c8f421e	0.017487582
141	0x3c9f3f49	0.019439356
142	0xbbc60455	-0.006042997
143	0x3ae90812	0.0017778894
144	0xbd291ddb	-0.041288238
145	0x3ceae090	0.028671533
146	0x3b9c8405	0.00477648
147	0xbd402bad	-0.046916652
148	0x3d16ffa3	0.036864888
149	0x3c9e5d36	0.019331556
150	0xbd490d7c	-0.049085125
151	0x3ca6ec37	0.020376308
152	0x3d5b6ed9	0.05357251
153	0xbd3db4e6	-0.046315096
154	0xbd0e2196	-0.0347
155	0xbd0f75d1	-0.035024468
156	0xbd475a2d	-0.048669983
157	0x3d496350	0.049166977
158	0x3d18638a	0.037204303
159	0xbd571b65	-0.05251636
160	0xbb86f5a6	-0.004118639
161	0x3ce067cd	0.027393246
162	0x3bcacd57	0.006189029
163	0x3b929395	0.0044731596
164	0x3c67a755	0.014139016
165	0xbbbcd3a7	-0.0057625356
166	0xbcea2986	-0.028584253
167	0xbd436bdc	-0.047710285
168	0xbc82084e	-0.0158731
169	0xbd15ed1e	-0.036603086
170	0xbd15b7cf	-0.036552247
171	0xbb838ae5	-0.0040143603
172	0xbc23de16	-0.01000168
173	0xbbbb875f	-0.0057229246
174	0x3ce78c0a	0.028265018
175	0x3d0f549c	0.0349928
176	0x3d453a76	0.048151456
177	0xbcc75f58	-0.024337456
178	0xbc80ad64	-0.01570768
179	0xbc24d421	-0.010060341
180	0x3c5a649a	0.013329649
181	0xbbc5052f	-0.006012581
182	0x3b44cd16	0.0030029467
183	0xbbcab0da	-0.006185633
184	0xbcb6b807	-0.022304548
185	0xbcf1478a	-0.029453058
186	0xbcb6b99c	-0.022305302
187	0xbd22905b	-0.03968845
188	0xbd289fc7	-0.041168
189	0xbd384074	-0.044983342
190	0xbca7162e	-0.020396318
191	0xbcae0c0f	-0.021245984
192	0xbd05afa3	-0.032638203
193	0xbbd08956	-0.006364028
194	0x3cac0eb4	0.021003105
195	0xbd3213b8	-0.043475837
196	0xbc5b7953	-0.013395625
197	0x3c10a392	0.008828061
198	0xbcbcea19	-0.023060845
199	0x3cba7f89	0.022765892
200	0x3bd45891	0.0064802845
201	0xbd81d372	-0.06339158
202	0xbc83e506	-0.016100418
203	0xbcfce031	-0.030868622
204	0xbc9737f0	-0.01845929
205	0x3c5fcb74	0.013659347
206	0x3cab90b2	0.02094302
207	0xbd4f9ef9	-0.050688718
208	0xbd094746	-0.033515237
209	0xbc9b4b98	-0.018956944
210	0xbce022c9	-0.027360337
211	0xbbedbe3b	-0.0072553433
212	0xbc8506c8	-0.016238585
213	0xbcd6f305	-0.026238928
214	0xbb874e30	-0.0041291937
215	0x3b833a1e	0.004004731
216	0x3a3167f9	0.00067675073
217	0xbb9c0bdc	-0.004762156
218	0x3c5bec19	0.013422989
219	0xbbcd27bc	-0.00626084
220	0xbc9c5b43	-0.019086486
221	0xbcb202bb	-0.021729818
222	0xbde07d3f	-0.10961389
223	0xbdc03e3b	-0.093868695
224	0xbdae543a	-0.08512159
225	0xbc4919ef	-0.012274249
226	0xbbf3b4d6	-0.007437329
227	0x3ad1ab43	0.0015996475
228	0xbba55018	-0.0050449483
229	0x3b802857	0.003911059
230	0x3bef480f	0.007302291
231	0x3c9efb75	0.019407013
232	0x3d2ac869	0.041695032
233	0x3d5ba57d	0.05362462
234	0x3b4b8b24	0.0031058276
235	0x3c0ea94f	0.0087073585
236	0x3c0eb280	0.00870955
237	0x3b77da00	0.0037819147
238	0x3c3b579d	0.011434463
239	0xbb36e7ae	-0.0027909088
240	0xbc70cd52	-0.01469739
241	0x3ba1425c	0.0049212407
242	0x3bb9f3f3	0.005674833
243	0xbd174175	-0.03692766
244	0xbd227fc1	-0.039672617
245	0xbd56b576	-0.05241915
246	0x3d5f74be	0.054554693
247	0x3d7f388e	0.062309794
248	0x3d8b4865	0.068009175
249	0x3d8156f6	0.063154146
250	0x3d755c97	0.059902754
251	0x3d9386d3	0.0720345
252	0xbe0a2baa	-0.13493219
253	0xbd8fa052	-0.070130005
254	0x3c31efd6	0.010860404
255	0xbe169ea9	-0.14708962

tfeb.12.weight f4 [32]
0	0x3e97b5e3	0.29630956
1	0x3ebcab7b	0.3684958
2	0x3eb0b6fe	0.34514612
3	0x3e911010	0.28332567
4	0x3e6fbb4f	0.23411296
5	0x3ee89c7c	0.45431888
6	0x3ebd8284	0.37013638
7	0x3ed274a3	0.41104612
8	0x3f178b46	0.5919689
9	0x3ea2e80b	0.3181766
10	0x3eb68db6	0.35654992
11	0x3ed0871c	0.4072808
12	0x3ebcb5d3	0.3685747
13	0x3e9b72c0	0.30360985
14	0x3ebaabfc	0.3645934
15	0x3e8efebc	0.27928722
16	0x3ed2d54e	0.41178364
17	0x3e94b8f6	0.29047364
18	0x3ea331b7	0.31873867
19	0x3e9be8e5	0.30451122
20	0x3eb8ca19	0.36091688
21	0x3eb70e4e	0.357531
22	0x3ecbfcea	0.39841396
23	0x3e93038d	0.28713647
24	0x3e8045fa	0.25053388
25	0x3ef63dbe	0.4809398
26	0x3e3433d7	0.175979
27	0x3e6e14d8	0.23250139
28	0x3ea2e443	0.31814775
29	0x3ee7b5a3	0.45255765
30	0x3ecffa85	0.4062082
31	0x3f143ed4	0.5790837

tfeb.12.bias f4 [32]
0	0xbe5c5ce4	-0.2151981
1	0x3d6e703a	0.058212496
2	0xbe169379	-0.14704694
3	0xbd2672eb	-0.040636938
4	0xbdb45e56	-0.08807056
5	0xbe506209	-0.20349897
6	0xbda75609	-0.08170707
7	0xbe2fb1e6	-0.17157707
8	0xbecdf386	-0.40224856
9	0x3d9dda66	0.07707672
10	0xbe07255f	-0.1319785
11	0xbda0249f	-0.07819485
12	0xbde56da0	-0.1120255
13	0x3c3c0f1d	0.011478213
14	0xbe2a5a8e	-0.16636106
15	0xbdaf4b4e	-0.08559285
16	0xbe1ba001	-0.15197755
17	0x3e328b66	0.17435989
18	0xbd6d5c37	-0.05794927
19	0x3d817781	0.06321622
20	0xbdc36431	-0.09540594
21	0xbe044381	-0.12916376
22	0xbd677c24	-0.056514874
23	0x3e1b811d	0.15185972
24	0xbd3c0d0d	-0.045910884
25	0xbd6b82c2	-0.057497747
26	0xbe09fbcf	-0.13474964
27	0xbd9e75d1	-0.077373154
28	0xbd9c1e8f	-0.07623016
29	0xbe318767	-0.17336808
30	0xbe33bec3	-0.17553239
31	0xbe3a5299	-0.18195571

tfeb.12.running_mean f4 [32]
0	0xbdfc5e4c	-0.12322673
1	0xbf0e662d	-0.5562466
2	0xbe9e5650	-0.30925226
3	0x3dec6efe	0.115446076
4	0xbe244575	-0.16042121
5	0xbf6038d6	-0.87586725
6	0xbdff7b0f	-0.124746434
7	0xbef3f44a	-0.47647315
8	0xbf37b790	-0.7176447
9	0xbe0420d8	-0.12903154
10	0xbe64260e	-0.22280142
11	0xbf17ddcc	-0.5932281
12	0xbecd0187	-0.40040228
13	0xbf19dbc4	-0.6010096
14	0xbe187af7	-0.14890657
15	0xbb2cf3a4	-0.0026390338
16	0xbe9e20f1	-0.30884507
17	0xbdc65ee2	-0.09686066
18	0xbe0d103f	-0.13775729
19	0xbf0102ed	-0.5039509
20	0xbea76e74	-0.32701457
21	0xbf2d529f	-0.67704195
22	0xbeaa9755	-0.33318582
23	0xbeefa720	-0.46807194
24	0xbddb576b	-0.10710033
25	0xbf42f609	-0.7615667
26	0xbe30237e	-0.17201039
27	0xbdf7eced	-0.12105737
28	0xbe119636	-0.14217457
29	0xbedf8dad	-0.43662778
30	0xbe9f7b9a	-0.31148988
31	0xbf58720d	-0.8454903

tfeb.12.running_var f4 [32]
0	0x3d83e083	0.064393066
1	0x3ec998f7	0.39374515
2	0x3e09adf2	0.13445261
3	0x3df43b43	0.11925366
4	0x3cf98334	0.03045807
5	0x3ea38506	0.31937426
6	0x3e584b25	0.21122415
7	0x3e4162e1	0.18885376
8	0x3ea279f3	0.31733665
9	0x3e261f94	0.16222984
10	0x3e760276	0.24024376
11	0x3e9196ca	0.28435355
12	0x3e25620c	0.16150683
13	0x3e1a6788	0.15078557
14	0x3e005b0b	0.1253473
15	0x3e03d667	0.12874757
16	0x3ddf74aa	0.10910924
17	0x3eb3ec3f	0.3514118
18	0x3de667f2	0.11250295
19	0x3e4744a7	0.19459783
20	0x3dc306dc	0.09522793
21	0x3e465378	0.19367778
22	0x3e8b91f1	0.27259782
23	0x3eac14c2	0.33609587
24	0x3cee3367	0.029077245
25	0x3f11739f	0.5681705
26	0x3c92166e	0.017832961
27	0x3dffc581	0.12488843
28	0x3d9920d8	0.074769676
29	0x3e987bf9	0.29782084
30	0x3e3ddf67	0.18542252
31	0x3f05ad1a	0.5221726
