trained_models/step_5_retrain_after_step_4/retrain_4C_after_2nd_pruning_prunratio0.85_2024060419/retrained_4Cmodel_ratio85.0_vaacc93.2367172241211_tracc_82.89473684210526@954epoch_20240604235220.pt (torch, 309156 bytes, 62 tensors)

sfeb.0.weight f4 [8, 1, 1, 9]
000000 fb e5 7a 3e 52 59 11 3e 65 2a 8d 3e 23 9e af 3e
       0.24501793 0.14194229 0.27571407 0.34300336
000010 e2 69 b9 3d 29 da 81 be 39 04 f0 be 3e 92 90 be
       0.09053399 -0.25361755 -0.46878222 -0.28236574
000020 39 7f 88 bd 14 fe ef 3b 9f 39 b2 3c f9 42 62 bd
       -0.06664891 0.0073239896 0.021755992 -0.05523965
000030 15 56 92 be 69 b4 65 3d 1a e4 44 be 2c 04 93 be
       -0.285813 0.056080256 -0.19227639 -0.2871412
000040 ad 0c b6 3e 99 15 0e 3f 30 95 32 be 67 50 65 be
       0.35556546 0.55501705 -0.17439723 -0.22393952
000050 e8 4c 49 3e 39 19 89 3d 03 7f 36 be f4 e8 5f be
       0.19658244 0.06694264 -0.17821889 -0.21866208
000060 89 2c 02 3e 4c 76 a0 be 7a 5a d2 be 8c ae 2d 3f
       0.12712301 -0.31340253 -0.41084653 0.6784446
000070 59 64 ba 3e c6 74 37 bd 93 6b 0b bc 61 fb 25 be
       0.36404684 -0.0447891 -0.008509534 -0.16209175
000080 0a 63 6d 3c 6a 6e fd 3d a7 7f 1a bc 42 15 9c 3d
       0.014488945 0.123745754 -0.009429849 0.07621242
000090 6b 9a 1b bf a1 d8 a9 be b7 11 7b 3d 84 0e ad 3d
       -0.607825 -0.33173087 0.06129619 0.08450034
0000a0 ae 8e 93 3e 1e e9 47 3e c1 64 39 be 54 cf 2a 3d
       0.28819793 0.19522521 -0.18104841 0.04170163
0000b0 43 68 f5 bd b7 1d 9b be 9d 5b 0b bd 42 33 3f 3e
       -0.11982777 -0.30296108 -0.034022916 0.18671897
0000c0 2f b6 aa 3d c2 f2 d3 be 99 7b b6 3d 66 24 14 3f
       0.0833553 -0.41396147 0.08910293 0.5786804
0000d0 f7 08 05 bd 58 57 f9 be 91 01 38 bd 4b ea 51 be
       -0.032479253 -0.4869945 -0.04492337 -0.20499532
0000e0 71 c6 69 3e 82 bb 9f bd 6e 36 e9 be 47 ba f7 3e
       0.22829606 -0.07799436 -0.4554934 0.48384306
0000f0 3e f9 11 3c fe de db be 09 46 d8 3e e6 f9 44 3d
       0.008909522 -0.42943567 0.42240933 0.048089884
000100 ab 4b 65 3c 56 fa 42 be 11 03 fd bd d3 95 31 3e
       0.013995091 -0.19040808 -0.123541005 0.1734231
000110 74 be 5d 3e 95 3f 8e bc 77 07 a1 3e ba e9 0c 3f
       0.21654683 -0.017364303 0.31451008 0.5504414

sfeb.1.weight f4 [8]
000000 50 45 69 3f 2f d4 44 3f 27 b3 30 3f 21 f9 3e 3f
       0.9112139 0.76886266 0.69023365 0.7459889
000010 f9 b9 45 3f c6 e3 03 3f 4a e4 e9 3e d6 05 2f 3f
       0.77236897 0.5151943 0.45681983 0.6836828

sfeb.1.bias f4 [8]
000000 60 c7 0e 3d 40 a3 fa 3c 36 19 58 3d c8 5a 66 3e
       0.034858108 0.030595422 0.052758418 0.22495568
000010 19 9a 6a 3d 99 79 42 3e 5e 63 89 3d 65 92 4a 3d
       0.057275865 0.18991698 0.06708406 0.04945602

sfeb.1.running_mean f4 [8]
000000 30 36 bc 35 3b 1a 0e 36 cc cf 89 36 90 c7 be 34
       1.4022862e-06 2.1174917e-06 4.107109e-06 3.553546e-07
000010 0b 32 43 b6 ce 69 46 b6 2f b2 2d 36 04 87 c0 b5
       -2.9086393e-06 -2.9565886e-06 2.5882725e-06 -1.434441e-06

sfeb.1.running_var f4 [8]
000000 e6 96 bb 3c e5 ad 4d 3c f3 18 19 3c ac 0f 93 3c
       0.022899102 0.012553667 0.009344327 0.017951809
000010 b7 a2 97 3c 88 69 c0 3b 5c 18 dc 3a 68 98 51 3c
       0.018510206 0.0058719553 0.0016791928 0.012792684

sfeb.3.weight f4 [32, 8, 1, 5]
000000 5a 98 55 3d 97 fc 34 be 1a 76 98 bc c8 8b 4a 3d
       0.052147247 -0.1767448 -0.018611003 0.049449712
000010 0e f5 0f be a2 1d a0 bd 85 dc ed bd 95 98 60 bd
       -0.14058325 -0.07818152 -0.116143264 -0.054833014
000020 3c 99 c5 bb 59 26 91 bc 61 04 6f 3e 53 a2 4b 3e
       -0.00603023 -0.01771848 0.23341514 0.1988614
000030 63 32 72 3e c9 28 0c 3e 7d f4 aa 3d a9 77 e2 bd
       0.23652034 0.13687433 0.08347414 -0.110579796
000040 ed 81 22 bd 0d bd 83 be ab 8b 50 bd 7c 1c e1 bd
       -0.039674688 -0.25730172 -0.050914448 -0.10991761
000050 8d b6 24 3e bb 73 32 3e 9e 9e 8c 3d 23 31 32 3e
       0.16085263 0.1742696 0.06866191 0.17401557
000060 3a 8a 15 3e e8 38 66 3d ff 0c 93 bc 41 c6 6e bd
       0.1460351 0.056206614 -0.017950533 -0.05829454
000070 3b 0f 8b bb 49 96 cc 3c ab 5a ec 3b 41 22 ae bc
       -0.004243759 0.024974005 0.007212957 -0.021256568
000080 bb 06 00 3d 70 2a 17 3d 25 08 15 bc 0f 38 70 bd
       0.03125642 0.036905706 -0.00909618 -0.05864721
000090 07 07 c0 bd c3 33 16 be d8 12 e3 bc 9e 11 32 bd
       -0.0937634 -0.14668183 -0.027718946 -0.043473832
0000a0 86 ef 2e be b6 5c 1e be 64 2a 18 bd a0 6d 81 3d
       -0.17083558 -0.15465054 -0.0371498 0.063197374
0000b0 d1 48 b2 3d 97 0d 55 bc 9c 38 14 be b0 0c ea bd
       0.08705295 -0.013003728 -0.1447472 -0.11428201
0000c0 a7 f4 04 bd 9e ed 80 bd ba ad ac 3d 00 8e 9f 3d
       -0.03245988 -0.06295322 0.08431573 0.07790756
0000d0 e9 b6 8d 3d 2c 84 69 3e a6 1a 92 3e 30 b9 62 be
       0.06919653 0.22804326 0.28535956 -0.22140956
0000e0 c9 5a da bd f5 49 bd bd 94 82 55 bc 69 8e eb bc
       -0.10661847 -0.09242622 -0.0130316205 -0.02875443
0000f0 5b f9 16 3e 5c 8b 08 3e 6e 08 3b 3c bf 16 ad bd
       0.14743559 0.13334411 0.011415584 -0.08451604
000100 b6 e7 30 3c c4 d9 06 bc 54 7f de 3d 75 13 d3 bc
       0.010797432 -0.00823063 0.1086413 -0.025766114
000110 56 02 ec ba 4c 8a 93 3c d7 6f 37 bc b9 9a 50 bd
       -0.0018006067 0.018010281 -0.011196098 -0.050928805
000120 5d c4 5e bc c9 14 d2 bd aa 5f 17 bd 2d 12 77 bd
       -0.013596621 -0.10257871 -0.036956467 -0.06032007
000130 55 8f 88 bd 88 5f 7c be cb 3f 2d be 94 19 d3 bd
       -0.066679634 -0.24645817 -0.16918866 -0.10307613
000140 08 43 06 be b2 ad 54 be 1f fe f6 bc 2b b5 a4 bc
       -0.13111508 -0.20769385 -0.030150471 -0.020105919
000150 3f f2 c1 bd ae 08 e1 bd 24 bc 6b bd 2a 04 73 bd
       -0.09470033 -0.10987984 -0.05755247 -0.059330143
000160 03 06 35 be f2 3c 0e be 31 fc 13 3e 5a 75 5d 3e
       -0.17678075 -0.13890436 0.14451672 0.21626797
000170 8d e6 01 3e d0 68 3b 3e c2 6d 84 3e 77 85 3e be
       0.12685604 0.18301702 0.2586499 -0.186056
000180 21 99 ad bd cb 4c 42 be 67 c5 e0 bd 5f 72 ba bd
       -0.08476473 -0.18974607 -0.109751515 -0.09103846
000190 e1 42 3a bd fb 5f 3c 3c 61 4f 45 3d 3e f4 f7 3d
       -0.045473937 0.011497493 0.048171405 0.121071324
0001a0 ad 49 55 3d 80 ec 23 bd 9e 6d 7e 3d cf 36 4b bd
       0.052072216 -0.040020466 0.062116258 -0.049612816
0001b0 28 a3 cc 3d 47 e8 18 3d 26 b6 38 bd 94 b1 a7 bb
       0.09992057 0.037330892 -0.045095585 -0.0051176045
0001c0 d8 38 49 bd f4 fa 82 bd 99 32 f2 bd f4 92 12 be
       -0.049126476 -0.06395522 -0.11826057 -0.1431387
0001d0 da 51 7e be 7b e3 84 be 50 1d fe bd 51 3d fa bd
       -0.24835911 -0.25954804 -0.12407935 -0.122187264
0001e0 60 b7 d1 bd 9a 25 6e 3d e0 79 f7 bd 41 11 8b bd
       -0.10240054 0.05814133 -0.12083793 -0.067904
0001f0 2a ea 67 be b1 29 f7 bd 75 55 e4 bc 58 9c 6d 3d
       -0.2264792 -0.12068499 -0.02787278 0.05801043
000200 10 2d 7e bc 40 ff aa bd 75 16 a2 be a5 48 85 be
       -0.015513673 -0.08349466 -0.31657758 -0.26031986
000210 72 d1 66 be 97 c3 65 be fc 66 a8 be 94 be d2 3d
       -0.22540835 -0.22437893 -0.3289107 0.10290256
000220 93 70 52 3e 68 f5 8e 3e a4 44 23 3e f1 40 f7 3d
       0.20550756 0.27921605 0.15944153 0.120729335
000230 7e 98 a0 bd d2 df ef bd f3 f2 8b be c8 09 bb bd
       -0.078415856 -0.11712612 -0.27333793 -0.09132725
000240 54 02 cf bd 95 1f 17 3d be 73 1c be 50 9f 10 be
       -0.10107866 0.036895353 -0.15278527 -0.14123273
000250 52 de 39 be 92 71 2b be da 19 eb bd 86 6c 34 be
       -0.18151215 -0.16742542 -0.1147954 -0.17619523
000260 37 72 6f be 19 b6 10 be 76 74 f8 bd 12 7b 3a 3e
       -0.23383413 -0.14131965 -0.12131588 0.1821101
000270 1c e4 51 3e 7f 75 72 3e 2a 4a b9 3e 75 18 a2 3e
       0.20497173 0.23677634 0.36189395 0.31659284
000280 ad dd 0b be 4a 2f b3 bd ef 17 08 be e8 85 ca bd
       -0.13658781 -0.08749254 -0.1329038 -0.09888822
000290 14 9a 1a bd c4 7b a3 3d 76 56 be 3c 9a a7 18 3c
       -0.037744597 0.07982591 0.023234587 0.009317303
0002a0 7c 0f 96 3d 38 1a 62 3c 1d f4 f7 bd 58 ca a5 bd
       0.07327172 0.013800196 -0.12107108 -0.08095235
0002b0 03 82 da bd 5e ea 36 be 31 97 9f bd a1 d9 47 be
       -0.10669329 -0.17862841 -0.07792509 -0.19516613
0002c0 15 02 07 be c1 10 dc bc 04 15 c3 bb c5 be 90 3d
       -0.13184388 -0.026863458 -0.005953433 0.070676364
0002d0 6a 68 d9 bd e6 a7 ee bc 9c a1 52 3d 4a dd 0b bd
       -0.106156185 -0.029132795 0.051423654 -0.034146585
0002e0 65 61 b8 bd e8 a8 0b bd 13 d3 fb bc 13 2e e0 3c
       -0.090029515 -0.03409663 -0.030740296 0.02736572
0002f0 58 15 5f bd d7 48 d5 bc f6 54 22 bd b2 88 44 3c
       -0.054463714 -0.02603571 -0.039631806 0.011995481
000300 44 a9 b0 bc 43 bf b4 ba 48 93 2e bd 3b 3c 81 bd
       -0.021565087 -0.0013789911 -0.042620927 -0.06310316
000310 4c a8 00 3d b1 71 c0 3d 19 24 02 3e 3c 78 3f 3e
       0.0314105 0.09396685 0.12709083 0.1869821
000320 91 11 4b bd cd 97 25 be 1f b0 31 be cb bd 4e be
       -0.0495773 -0.16171189 -0.17352341 -0.20189588
000330 cf db bb bd d7 d5 c4 3d 9e f2 67 3e c6 d6 d9 3d
       -0.091727845 0.09611099 0.22651145 0.10636668
000340 dd d5 8b 3d 61 00 07 3e e2 e7 c4 3d 7e fd 4f bd
       0.068279006 0.13183738 0.09614541 -0.05077886
000350 7d 0a 00 bd b6 85 b6 bd dc e0 3f be 1d 32 d4 bd
       -0.031260002 -0.08912222 -0.18738121 -0.10361121
000360 ed 38 6a be d4 58 5f be c8 9b 95 bd 33 32 b7 3c
       -0.22873278 -0.21811229 -0.073051035 0.022362804
000370 13 7b af bc b5 a7 4f 3c 3a e7 0e bc e6 9b 2c 3e
       -0.021420991 0.012674262 -0.008722121 0.16856346
000380 2c 28 db 3c 0c dc 2f 38 a6 96 26 3d 47 53 53 3c
       0.026752554 4.1928186e-05 0.040671013 0.012898273
000390 d5 51 3c 3d 26 c6 82 bd 36 49 9a 3d 7b 33 7d 3d
       0.04597648 -0.0638545 0.07533495 0.061816674
0003a0 57 f6 9a 3d 1f 2e 9f 3d a0 4f 38 bb 1b 16 37 bd
       0.07566517 0.07772469 -0.0028123632 -0.044698816
0003b0 68 46 40 bd ca 4d 40 3d 9e 1a e1 3d 7c 40 ee 3d
       -0.046942145 0.046949185 0.10991405 0.11633393
0003c0 9a 6c fd 3d 97 1e d3 3d 89 7f c2 3d 9f 2d b5 3d
       0.1237423 0.10308569 0.09496982 0.08846592
0003d0 b8 0b af 3d 4b 14 25 be 98 64 40 be e5 0f 62 be
       0.08547157 -0.16121022 -0.18788373 -0.22076376
0003e0 78 1b 0d bd 9f d6 1d bc 84 83 a9 bc b7 25 a1 3c
       -0.034450024 -0.009633689 -0.020692594 0.019671304
0003f0 d1 b8 d7 3d d5 26 b0 3d d1 2b 36 3e 61 13 6e 3e
       0.10533298 0.086011566 0.17790152 0.2324958

sfeb.4.weight f4 [32]
000000 eb 85 3d 3f 10 90 d2 3e 8b b5 49 3f 6e bb 92 3f
       0.7403247 0.41125536 0.7879264 1.1463449
000010 7f 73 a8 3e 1d 49 bb 3e 2e df 12 3f 9e 70 15 3a
       0.32900617 0.36579219 0.57371795 0.000570068
000020 0e fd db 3e 25 63 04 3f 39 90 5d 3c a6 72 1d 3f
       0.42966503 0.5171378 0.013523155 0.61503065
000030 be e1 16 3f cf d6 3e 3f 1a 2a 64 3f d7 3b 40 ba
       0.58938205 0.7454652 0.8912674 -0.00073331356
000040 5a d5 11 3f 73 a7 d9 3e ae 73 0d 3f 4f 4a 80 39
       0.56966174 0.42510566 0.5525464 0.00024469427
000050 0e c6 02 3f 80 21 0f 3f 2c b5 33 3f fd 2c d8 3e
       0.5108346 0.5591049 0.7019832 0.42221823
000060 ef 44 1d 3a 4d 28 43 3a cc bc c5 3e 11 48 05 3f
       0.00059993466 0.0007444665 0.38620603 0.5206309
000070 71 34 b7 3e 50 57 0a 3f c8 11 d5 3e 99 65 ca 3e
       0.35782197 0.5403948 0.4161513 0.39530638

sfeb.4.bias f4 [32]
000000 fe 59 29 3e 40 12 43 be 0f 9e 0b be 25 cd 30 bd
       0.16538236 -0.1904993 -0.13634513 -0.04316439
000010 cb 03 76 bd ff 29 26 bc 06 1b 09 3e ac 19 84 bd
       -0.06006221 -0.010141849 0.13389215 -0.06450209
000020 3c e7 e9 3c d6 c2 95 bd 33 e8 ba bc 6a 60 24 3d
       0.028552644 -0.07312553 -0.0228158 0.04013101
000030 6f 0f eb 3d d6 14 8e 3d 4d 08 06 3d d3 0f 1c bd
       0.11477553 0.06937568 0.03272276 -0.03810103
000040 1f 51 89 bd ed 7b 8f 3d 9e 65 e5 bc f3 5c ad bc
       -0.06704926 0.07006059 -0.028002556 -0.021162486
000050 85 8d b3 3b 79 24 19 be 69 01 bf bd f2 f2 1f 3d
       0.005479517 -0.1495532 -0.09326441 0.03905005
000060 bf dd 8f bc 11 94 9e bc f3 5c 8e 3c cb d5 32 bd
       -0.017561791 -0.019357713 0.017378306 -0.04366092
000070 7f 20 f5 bd 43 ac 99 bd fc e6 dc bd a2 ca 96 3d
       -0.11969089 -0.075035594 -0.10786244 0.07362868

sfeb.4.running_mean f4 [32]
000000 0a f6 21 bd f7 d3 4e be b3 78 bf be c2 e2 77 be
       -0.03954128 -0.20198046 -0.37396774 -0.24207595
000010 d8 b9 8f be 6a 59 26 be 95 56 e0 bd df 72 2d 3c
       -0.28071475 -0.16245046 -0.10954014 0.010586469
000020 71 6b 6f be 55 ef ee bd c8 c4 23 bd fe 7f 58 be
       -0.2338083 -0.11666743 -0.039982587 -0.21142575
000030 4f 2a 71 bd 9f 06 cd 3d d0 91 34 be 5d ce 1a bb
       -0.05887824 0.100110285 -0.17633748 -0.0023621537
000040 77 1e 8d be 82 7c 66 be b3 12 8c be 13 00 f3 bb
       -0.27562305 -0.22508433 -0.27358016 -0.0074157803
000050 48 87 9d be ec 6b e9 be 60 8b 9d be 08 3a 5f be
       -0.30767274 -0.4559015 -0.30770397 -0.21799481
000060 18 25 88 bc 28 a5 73 bc ca ac a0 be 75 5c 1d be
       -0.01661925 -0.014870919 -0.31381828 -0.15367301
000070 c6 d1 a1 be c3 16 bc be 29 13 45 bd 8a f4 8a bd
       -0.31605357 -0.36736116 -0.048113976 -0.067849234

sfeb.4.running_var f4 [32]
000000 4e 59 7f 3e a6 b7 8c 3e 51 b2 f4 3e 7d eb 50 3f
       0.24936411 0.27483863 0.47792295 0.81609327
000010 ce b1 7f 3e 7e b4 a6 3e 32 7c d4 3e af c4 c9 3b
       0.24970171 0.3255958 0.41501004 0.0061574797
000020 f9 3b 8b 3e b5 ed 3a 3e 1f cd 3d 3b 8e f4 b3 3e
       0.27194193 0.1825474 0.0028961373 0.35147518
000030 08 10 d1 3e 8a b2 2f 3f 29 e0 5d 3f ec 68 fc 3a
       0.40832543 0.68631804 0.86670166 0.0019257343
000040 ca 34 ed 3e 89 ef 0f 3f 0c 7f 30 3f b1 97 b6 3a
       0.46329337 0.56224877 0.6894386 0.0013930706
000050 83 ba 0c 3f c0 cc 26 3f 15 ae 2e 3f ce 31 d7 3e
       0.54972094 0.65156174 0.6823438 0.42030185
000060 a3 33 61 3a b1 f7 44 3a ec 13 e1 3e 56 17 e4 3e
       0.00085907633 0.00075137155 0.43960512 0.44549054
000070 f1 16 b6 3e b8 4a d6 3e f6 8f 43 3e e8 69 14 3e
       0.35564378 0.4185388 0.19097885 0.14493525

tfeb.0.weight f4 [13, 1, 3, 3]
000000 6f 26 06 3d ca 58 21 3a 1a 07 b0 bb 11 d1 88 3b
       0.032751497 0.0006154893 -0.0053719403 0.0041753133
000010 09 47 fb 39 1a 2e c9 3a 0a 97 fb 3a 84 e0 c3 3b
       0.00047927376 0.0015348822 0.0019194793 0.005977692
000020 1b db c5 3b 5e 26 0f 3c 14 0e 23 bc 53 59 67 3c
       0.0060380823 0.008737175 -0.009952087 0.014120418
000030 9f 84 79 3c 44 b0 3a bc 2a a4 57 3c 14 77 80 3c
       0.015229373 -0.011394564 0.013161698 0.01568178
000040 ae 40 ed bb bf a4 84 3c ff 11 4d 3e 82 a5 03 3e
       -0.0072403764 0.016191838 0.20026396 0.12856105
000050 d7 f2 c7 be 43 4e c1 3e 05 f6 ed 3e 87 6a 26 bf
       -0.3905246 0.3775502 0.4647676 -0.650063
000060 6a d2 47 3e b3 4a 18 3e f7 94 e4 be 6a be 60 be
       0.1951386 0.14872245 -0.446449 -0.21947637
000070 b8 10 c5 bc b2 fd ec 3d 0a 3e 14 bf 24 05 f3 3e
       -0.024055824 0.11571826 -0.57907164 0.4746486
000080 b1 06 04 3f 68 18 96 be f5 d7 1d 3e 03 86 44 3e
       0.5157271 -0.29315495 0.15414412 0.19191746
000090 08 5e 0b 3d cc ae d0 3e d8 57 f4 be 29 33 c3 3d
       0.034025222 0.4075836 -0.4772327 0.095312424
0000a0 60 c9 fd 3d 75 d6 a3 be fa 1d 28 be 40 3b 68 bd
       0.12391925 -0.31999555 -0.16417685 -0.05669713
0000b0 8d b7 a0 be e9 e5 25 3d 41 c3 18 be c5 85 32 be
       -0.31390038 0.040502463 -0.14918233 -0.17433842
0000c0 a0 68 dc 3c 26 97 50 be 50 e9 91 be 39 c0 75 3e
       0.026905358 -0.20370159 -0.28498316 0.23999108
0000d0 00 dd 34 be f2 a5 0d be 89 1f 57 3f fa 67 f8 be
       -0.1766243 -0.13832834 0.84032494 -0.48516828
0000e0 80 d7 fe be e7 24 64 3f 95 3e 0a bf ee 62 25 bf
       -0.49773788 0.8911881 -0.5400174 -0.6460408
0000f0 3b 07 dd 3e 9c 06 94 be 0a 11 e2 be a0 5b f7 bd
       0.4316958 -0.28911293 -0.44153625 -0.12078023
000100 73 c8 31 be d8 1b 09 be 90 b5 a0 bd 81 73 14 be
       -0.17361622 -0.13389528 -0.0784713 -0.14497186
000110 6a 29 dc bd 98 3f e0 3d 18 fb 64 3e 15 5f 00 3e
       -0.107500866 0.109496295 0.2236141 0.12536271
000120 12 72 23 be 99 34 92 be a4 63 e7 bd 90 50 25 be
       -0.15961483 -0.28555754 -0.11298302 -0.16144013
000130 69 b3 88 be 2f ef 9b bd 1c 58 c8 bd 48 ea 25 be
       -0.2669938 -0.0761398 -0.097824305 -0.16202652
000140 c8 cb c1 bd 0c 9d 3b bd ad 98 9a bd 53 df 3b 3d
       -0.09462696 -0.04580407 -0.07548652 0.045867275
000150 e2 c4 d5 bd 82 77 0a be c0 ac ed bc 09 e9 df 3d
       -0.10437943 -0.13522151 -0.029013038 0.1093312
000160 4e d6 eb be 24 54 d6 3e d3 e0 9a 3e 8e d3 d0 3d
       -0.4606194 0.4186107 0.30249652 0.10196601
000170 90 89 ed 3d b7 80 92 3e 42 f4 82 3d 38 b8 97 3d
       0.115985036 0.28613827 0.06394245 0.07408184
000180 d3 52 94 bd cc 89 ad bd d3 26 da bc 7b 03 a9 bd
       -0.0724236 -0.08473548 -0.026629841 -0.08252617
000190 39 e2 36 be 1e cc 61 bd cd d2 33 be 1d d8 7b be
       -0.17859735 -0.055126302 -0.17560883 -0.2459416
0001a0 77 05 02 be f7 d8 b1 3c eb b5 eb bd 03 bd 1f bd
       -0.12697397 0.021709902 -0.115093075 -0.038998615
0001b0 60 5d 8e be 98 66 5f be 97 52 9f 3e cf 58 24 bf
       -0.27805614 -0.2181648 0.311177 -0.6419801
0001c0 d7 0c 0d bf ec 05 8c 3f 6e 1c bc be 38 0e 95 be
       -0.5509772 1.0939307 -0.3674044 -0.2911241
0001d0 d1 0c a3 3e
       0.31845716

tfeb.1.weight f4 [13]
000000 47 61 54 ba cb e2 0d bb de f7 8b 3e d8 91 8d 3e
       -0.00081016537 -0.0021650072 0.27337545 0.27650332
000010 e3 fe b1 3e 75 9b 99 3e d1 cb 0f 3f 29 39 9f 3e
       0.34764776 0.30001417 0.56170374 0.31098297
000020 19 1e 69 3f 21 e5 c5 3e f2 2c 86 3e 25 5d fb 3e
       0.9106155 0.38651374 0.26206166 0.490945
000030 5a 73 f0 3e
       0.46963006

tfeb.1.bias f4 [13]
000000 19 38 42 bc a8 d5 65 bc 27 17 22 3e 13 31 79 3e
       -0.011854195 -0.01402799 0.15829144 0.24335127
000010 94 d4 94 3e d3 17 bb 3e 22 5a cb 3c 57 85 6c 3d
       0.29068434 0.36541614 0.024823252 0.05774435
000020 9c 4c 99 be 17 5b 02 bd 7c e2 45 3e d4 b3 90 3c
       -0.2994126 -0.03182515 0.19324678 0.017663874
000030 b0 67 17 3e
       0.14785647

tfeb.1.running_mean f4 [13]
000000 ac 65 8a 3c 84 41 9c 3c e0 76 82 3c d1 9b ff 3d
       0.016894184 0.019074209 0.015925825 0.124808915
000010 62 d6 6a be 09 7a 97 be ec 23 86 be 05 5d f1 bd
       -0.22933343 -0.29585293 -0.2619928 -0.1178532
000020 ac fd 00 bf 28 d4 d4 bd 32 2a 8e 3e 9d da b7 be
       -0.5038707 -0.10392028 0.27766567 -0.35908976
000030 fc ae 60 be
       -0.21941751

tfeb.1.running_var f4 [13]
000000 a9 d1 39 3a 65 7d 5a 3a 95 5e a4 3d 11 8b f6 3d
       0.0007088432 0.0008334725 0.080258526 0.120382436
000010 ee 70 2a 3e 91 eb 5d 3e 83 00 ae 3e 48 b5 03 3e
       0.16644642 0.21671893 0.33984765 0.12862122
000020 32 5e 0f 3f a4 65 3b 3d fe a3 6c 3e e5 5f 99 3e
       0.56003106 0.04575123 0.23109433 0.29955974
000030 c1 bd 75 3e
       0.23998167

tfeb.4.weight f4 [25, 13, 3, 3]
000000 de c1 16 3b f7 30 25 bb 04 3f 8a 3a d1 67 56 ba
       0.0023003737 -0.0025206187 0.0010547345 -0.0008178922
000010 78 bb 9b bb 94 d7 3c bb 05 71 12 3b b7 db b5 ba
       -0.0047525726 -0.0028815018 0.0022345197 -0.0013874684
000020 6b f9 ce b9 13 60 de 3a 27 6e aa bb c4 9e 73 3b
       -0.00039477213 0.0016965888 -0.0052011195 0.003717349
000030 b8 2f 0c 3b 65 a8 cb bb 0b a6 3f 3b 34 1e 3a 3b
       0.0021390747 -0.0062151426 0.0029243256 0.002839935
000040 36 33 3e bb 91 df 94 3b 8a f9 8b 3d c4 c6 ab bb
       -0.0029022223 0.0045432528 0.06834705 -0.0052422006
000050 cc 22 55 3d 5e 80 c3 bd 52 3b 33 be 44 58 0c be
       0.052035138 -0.095459685 -0.17503098 -0.13705546
000060 a6 a3 58 3d 98 82 cc bd 98 fa 17 bd 88 b0 0e bd
       0.052890442 -0.09985846 -0.03710422 -0.034836322
000070 a5 a0 94 bd c4 e5 a3 bc f2 c7 9d bd 99 89 7a bd
       -0.07257203 -0.020007022 -0.07704152 -0.06116638
000080 36 89 06 bb 69 cb d6 bd c2 25 15 bd 82 cd 0f 3c
       -0.0020528561 -0.10488016 -0.03641296 0.008777024
000090 52 c6 a2 3d 24 0e 4d 3d 27 96 b8 3d 37 d6 af bc
       0.07947983 0.050062314 0.09013014 -0.02146445
0000a0 ae 25 59 bd a5 50 7e bd f1 09 ca 3c 07 90 3b 3c
       -0.05301445 -0.062088627 0.024662944 0.011447913
0000b0 19 75 a8 3c 13 95 70 bd f1 d6 21 bc 84 e2 45 bd
       0.020563649 -0.05873592 -0.009877906 -0.048311725
0000c0 87 06 f7 3c b2 e1 e3 3c 70 26 08 bd 6e c9 2c 3d
       0.03015448 0.02781758 -0.03323978 0.042184286
0000d0 2a cc 97 bb 60 32 4e 3b b8 36 cf 3d 5e 07 b5 3d
       -0.0046324925 0.0031463131 0.10117859 0.08839296
0000e0 be 43 1c bd b2 15 12 be 9e 22 24 bd 89 b8 8a be
       -0.03815054 -0.14266089 -0.040072076 -0.27093914
0000f0 50 87 f7 3c b8 1d 06 be 97 b1 ce bd 66 96 53 bd
       0.03021589 -0.13097274 -0.10092466 -0.051657103
000100 fe a2 bd bc 3c 99 73 3c 7f 43 68 3d 29 05 8d 3d
       -0.02314901 0.014868077 0.056704994 0.0688575
000110 e3 fb a0 3d f8 22 64 3b 17 ad 2a bc b9 eb 74 bc
       0.078605436 0.0034810882 -0.010417244 -0.014948779
000120 97 84 97 3b fb df 65 3c 01 bb 49 3d 4a 04 ed 3c
       0.0046239602 0.014030452 0.049250606 0.02893271
000130 2c 58 87 ba d8 a8 df ba c7 a7 b5 3d c4 27 0e 3d
       -0.001032596 -0.0017063869 0.088698916 0.034705892
000140 04 68 11 bb 7f 40 ef b7 1b 73 ec bd 89 6f b8 3c
       -0.0022187242 -2.8521054e-05 -0.11545392 0.022514122
000150 34 a1 66 3a 09 4c d4 bd 08 39 cd 3c 81 eb bf bc
       0.0008797825 -0.10366065 0.025051609 -0.023427727
000160 02 af 95 bd 44 33 03 3c d7 5d 7d 3d 18 ea c3 3d
       -0.07308771 0.008007828 0.06185707 0.09566134
000170 95 a9 9e 3d 5f 5a 17 be 5a 74 a4 bd f2 0f 92 bd
       0.07747189 -0.14780568 -0.08030005 -0.071319476
000180 42 24 44 bd aa ff f0 bc 84 c8 8b bc bc d3 1c bd
       -0.04788614 -0.029418785 -0.017063387 -0.038287863
000190 a5 97 33 bc 2e a1 81 bc 46 7a 8d 3d 14 a4 50 3d
       -0.010961448 -0.015823927 0.069080874 0.050937727
0001a0 f8 28 82 3c 4d d1 16 3d 4d f5 96 3c 96 c5 9a bc
       0.015888676 0.0368207 0.018427515 -0.018893044
0001b0 ff 65 e4 3c 71 6e 39 be ee 36 1b bd cd a6 57 3d
       0.027880667 -0.18108536 -0.037894182 0.052649308
0001c0 02 7d 35 be d7 4b 18 bc af fd d9 bb 50 cd 58 bd
       -0.17723468 -0.009295425 -0.006652556 -0.052930176
0001d0 6d 7c 95 bc ef 52 b8 3a 3a 3c a9 ba a1 cd 3f b9
       -0.018247807 0.0014062802 -0.0012911626 -0.00018291782
0001e0 ed 8d 2f ba 04 2c 3c ba 86 5d 1f ba 59 bd 05 3b
       -0.0006696869 -0.00071781897 -0.0006079305 0.002040705
0001f0 ed 8a 8e 3a ab a6 09 ba 71 2b 23 bb 5b b6 25 bb
       0.0010875143 -0.0005250971 -0.002489772 -0.0025285694
000200 f3 07 8e ba b2 86 29 3b 56 f4 96 3a 8a 40 0b 3b
       -0.0010836109 0.0025867638 0.001151691 0.0021248185
000210 5d 05 26 3b 5a 82 f8 3a 74 a4 5c 3b d3 87 cc bc
       0.0025332787 0.0018959746 0.0033667358 -0.02496711
000220 11 51 4b bc 85 35 a0 bd c8 df fb bc 93 6a 68 3d
       -0.012409464 -0.07822708 -0.030746356 0.056742262
000230 59 d1 18 bd 48 db 1d 3d 19 bd 42 3d f2 d0 de 3b
       -0.037309024 0.0385392 0.04754362 0.0067998106
000240 79 e1 72 3d 6e c1 a2 3c 1c c2 0d bd 58 03 d3 3c
       0.05929706 0.019867625 -0.034608945 0.02575843
000250 d6 d5 9f bd c7 92 11 be b0 c1 55 3d 11 1e 93 bc
       -0.07804458 -0.14216147 0.052186668 -0.017958673
000260 31 34 72 bd 3a 08 8c 3b 60 9d a2 bd 30 49 8c bd
       -0.059131805 0.0042734416 -0.07940173 -0.06849897
000270 5c 04 c9 bd 54 99 05 be f4 05 91 bd b1 81 84 bd
       -0.098152846 -0.13046771 -0.070812136 -0.06470049
000280 32 1b 7c bd 6a 6f 5b bc 65 5e d1 3c 08 fc 73 3b
       -0.061549373 -0.013393262 0.025557706 0.003722908
000290 74 9e ad bc c8 93 a8 bd 02 82 8a bd 05 7f 22 bd
       -0.02119372 -0.08231312 -0.06763078 -0.039671917
0002a0 db 81 be bd 3e b7 aa bd d1 c8 a5 bc 32 75 1f bd
       -0.09302112 -0.08335732 -0.020237358 -0.038930126
0002b0 60 40 94 bd e5 59 33 be 7a 09 41 be 25 3b 3c bd
       -0.07238841 -0.17514761 -0.18851271 -0.045954842
0002c0 2e 98 28 be 75 b9 76 bd 47 04 15 bd 29 9e 9f bd
       -0.16464302 -0.06023546 -0.036381032 -0.077938385
0002d0 f8 3e b2 3d a2 5e b3 3d a2 ce 67 3d 64 e0 9d bd
       0.087034166 0.08758284 0.056593545 -0.07708815
0002e0 97 36 a2 bd bb da 7c bd 2a 48 e5 b8 4c 7f 8c 3c
       -0.079205684 -0.061732035 -0.000109330125 0.017150544
0002f0 bc f8 69 3d 15 95 20 3d 44 a1 da 3b 4b ac e5 bb
       0.057121977 0.039204676 0.0066720564 -0.0070090643
000300 15 ec ee bb d2 21 11 bd 22 b1 32 bb 8b fb 97 bc
       -0.0072913268 -0.035432644 -0.0027266224 -0.018552562
000310 ce f3 07 bd 21 86 7e 3c 9a 2a f3 3c d0 29 47 bd
       -0.033191495 0.0155349085 0.0296834 -0.04862386
000320 2d ad d1 bc 94 99 29 bd b1 15 17 be e3 ae ae bd
       -0.025595272 -0.04140623 -0.14754368 -0.08529451
000330 b3 bd 19 bd e3 d2 5d bd 89 5c 5b bc 0c ae 14 bd
       -0.037534427 -0.054156195 -0.013388761 -0.036298797
000340 79 c1 01 3b bb 99 64 bd 73 5a 42 3c e6 5b c2 3d
       0.0019799157 -0.05581067 0.011862385 0.094901845
000350 03 f4 91 bc 5f a5 8f 3d 51 81 df 3d a6 72 8e 3c
       -0.01781655 0.07013964 0.10913337 0.017388653
000360 a3 00 9b 3d 16 97 7d 3d 14 ad 38 3d e9 cc e1 bc
       0.07568481 0.061911665 0.045086935 -0.02756353
000370 2b 89 26 bd 23 51 5d bc 98 35 92 bd 01 1e 70 bd
       -0.040658157 -0.013508114 -0.071391284 -0.058622364
000380 4c 44 80 bb b6 3f 14 3d 9c 33 b7 bd 64 40 f8 bd
       -0.0039143916 0.036193572 -0.089453906 -0.121216565
000390 f5 c5 c2 bb e8 5c 5a be 5b d7 48 be 5b a6 a2 bd
       -0.0059440085 -0.21324503 -0.19613402 -0.07941886
0003a0 67 97 f5 bd 3f 39 cb bd a7 23 fc b9 7c 4d 8f 3a
       -0.11991768 -0.09923028 -0.0004809175 0.0010933126
0003b0 fd ca a1 3a 9a 52 13 bb 93 9e 13 bc 5c 9f 55 bb
       0.001234382 -0.0022479654 -0.009009975 -0.0032596206
0003c0 bb 98 a9 bb dd ec 76 ba 40 93 38 bb 45 46 23 bb
       -0.0051756776 -0.00094194507 -0.002816394 -0.002491371
0003d0 da 12 9a 3a 3d 1f da b8 92 c9 d1 bb 15 54 39 bb
       0.0011754886 -0.000104008686 -0.006402203 -0.0028278877
0003e0 47 04 95 bb 1b fc 40 bb 2f 4a c2 ba d6 e2 c9 3a
       -0.004547629 -0.0029447142 -0.0014823134 0.0015402685
0003f0 62 e5 f0 bc ae 80 91 bd e6 8f 9e 3d b8 3d 76 bd
       -0.029406253 -0.07104622 0.0774229 -0.060117453

tfeb.5.weight f4 [25]
000000 5f 4e dc 3e 50 66 27 3e 7a f8 ac 3e 19 5b 8e 3e
       0.43028542 0.16347623 0.33783323 0.27803877
000010 e5 18 e0 3e 19 58 b5 3e 8a a2 76 3e cc da 89 3e
       0.43768993 0.35418776 0.24085441 0.2692474
000020 0e 26 1b 3f 96 df a7 3e c6 e4 58 3e 28 a3 13 3f
       0.6060494 0.3278777 0.2118102 0.5767083
000030 65 ea f4 3e a7 e1 16 3f 9e fb 32 3e dc d2 76 3e
       0.4783508 0.5893807 0.17478797 0.24103874
000040 34 4b a8 3e 55 20 75 3e ab cd e9 3e 2b db 50 3e
       0.32869875 0.23938115 0.45664725 0.20396106
000050 17 4d df 3e 57 fe 35 3e 9f ce 59 3e 0d 4e a3 3d
       0.43613502 0.17772804 0.21270226 0.079738714
000060 af 4d 5f 3e
       0.21806978

tfeb.5.bias f4 [25]
000000 a3 3a 04 3d 53 56 71 3e ee 32 37 bb 31 31 13 3d
       0.032282483 0.23568086 -0.002795394 0.035935584
000010 54 16 6f bd c9 4b 9e 3d be 29 36 3e 86 9a 64 3d
       -0.058370903 0.077292986 0.17789361 0.055811428
000020 c7 b5 9f bd 8d aa 3a bd fb dc f6 3d 4e ed b0 bd
       -0.07798343 -0.045572806 0.120538674 -0.08639012
000030 be 07 32 be dd 27 de bd cd e0 34 3e 97 00 ef 3d
       -0.17385766 -0.10847447 0.1766388 0.116700344
000040 df 7b 13 bd 17 36 f9 bc c9 87 a1 bd cd 49 9b 3e
       -0.036006805 -0.0304213 -0.07887227 0.30329743
000050 7c c8 1a be aa 3e 93 3e bb 15 7a 3e 8a 16 73 3d
       -0.15115541 0.28758746 0.24422352 0.059347667
000060 c2 3e 50 bd
       -0.0508411

tfeb.5.running_mean f4 [25]
000000 cf 8b e8 be 2e 66 6a bf 0e 0c 51 bd 41 ec 42 3d
       -0.45419165 -0.91562164 -0.051036887 0.04758859
000010 43 24 1c bf c4 81 b1 be 3d 62 ea be c2 35 b7 be
       -0.6099283 -0.34669316 -0.45778075 -0.357832
000020 92 45 ef be 0b f2 d1 be 25 1d d2 be 32 59 d6 be
       -0.46732765 -0.41004977 -0.4103786 -0.41864926
000030 ac 2e a5 3d 8d 4e 9a be 62 39 b5 be d4 5f 06 be
       0.080655426 -0.30138054 -0.35395342 -0.13122493
000040 13 66 16 bf 40 05 8e bd 52 fb bb be 06 44 b0 be
       -0.587495 -0.06934595 -0.3671518 -0.34426898
000050 a1 08 b4 bd 2a 1c 0e bf c6 31 22 be 36 cd 55 be
       -0.08790708 -0.55511725 -0.158393 -0.20879063
000060 36 09 05 3e
       0.12991795

tfeb.5.running_var f4 [25]
000000 cb e1 13 3e 03 88 04 3e 8b f3 de 3d 5a 15 02 3d
       0.14441602 0.1294251 0.10886296 0.031758644
000010 bf b9 2a 3e d2 09 b1 3d 31 89 95 3d 9b 08 43 3d
       0.16672419 0.08644451 0.07301558 0.04761563
000020 f1 b5 42 3e 88 93 61 3d 1f 67 f3 3d 5b e5 53 3e
       0.19014718 0.055072337 0.11884903 0.20692961
000030 8b e5 9b 3d 6d fa ae 3d f4 63 8a 3d 28 b0 b5 3d
       0.07612141 0.08543859 0.06757346 0.0887149
000040 fb 56 84 3d 29 87 a0 3c e8 7a be 3d 4a 9b 8b 3d
       0.06461903 0.0195957 0.09300786 0.068167284
000050 6b 57 ae 3d b7 00 50 3e 3c c9 f2 3d 7f 49 3f 3c
       0.085127674 0.20312773 0.11854789 0.011675238
000060 3e 8b c4 3c
       0.023992177

tfeb.7.weight f4 [28, 25, 3, 3]
000000 bf 77 b6 3c 74 4b b0 3c 76 28 20 3d 7e da e5 3c
       0.022273896 0.021520354 0.039101087 0.028058287
000010 61 b4 84 3c c3 82 af 3b 34 2c 00 3c 46 a5 08 3d
       0.016199293 0.005356164 0.007823039 0.033360742
000020 17 e3 e2 3c 05 fd d9 3b c7 c8 7c bc 0f e0 c3 bc
       0.027696176 0.0066524767 -0.015428728 -0.02391055
000030 9d f6 92 3d 7a 0c c2 3d d6 e0 83 3d ff 82 04 3d
       0.07175944 0.09475036 0.064393684 0.03235149
000040 22 30 5f 3c 55 44 a5 bc f8 11 ed bc 7b de 3e bc
       0.013622316 -0.020174185 -0.028939232 -0.011649723
000050 6e 8a 03 bd c1 96 e7 bd 60 a9 ab bd 86 dc 87 bd
       -0.03211444 -0.11308051 -0.08381915 -0.066338584
000060 3f 4f cc bc 67 42 88 3c 2f 70 02 3d db 15 12 bd
       -0.024940131 0.016633226 0.031845268 -0.035665374
000070 c6 7e da bc bc 61 0d bd 00 b2 28 bd 94 fd 58 bd
       -0.026671778 -0.034517035 -0.04118538 -0.052976206
000080 e9 cf c0 bc f7 37 ef bb b6 93 a6 bc dc 99 9e 3d
       -0.02353664 -0.0073003727 -0.020334106 0.0774419
000090 9f 67 78 3b 7c fb 20 3d 3d c6 8d 3d 24 ae 1d 3d
       0.003790356 0.039302334 0.069225766 0.03849615
0000a0 76 73 7b 3d 84 a3 98 3d 79 11 04 3b 64 fb be 3c
       0.06138941 0.07453063 0.0020152016 0.023313232
0000b0 26 22 3f 3d 48 f4 8e bd ce 08 58 bd bd 63 08 bc
       0.046663426 -0.06980187 -0.05274277 -0.008324561
0000c0 b5 4f a0 bc 57 22 b5 3c d5 44 8d 3c a5 fe 1b bd
       -0.019569257 0.022111101 0.017244736 -0.038084645
0000d0 a7 49 7e 3c 85 6e 2c 3c 1b 59 d8 bd 76 50 05 bd
       0.01552049 0.010524397 -0.105638705 -0.032547437
0000e0 be a7 53 bd fe c1 09 3c 2f da 9c bb f8 ee 4c bd
       -0.051673643 0.008408068 -0.0047867517 -0.050032586
0000f0 3b 77 16 3c 3a 06 17 3d 7a fe 94 bb 42 57 72 bc
       0.0091837 0.036871172 -0.0045469375 -0.014791312
000100 69 36 7c bc 9b b4 51 ba 93 85 1b 3c 05 1e 54 3d
       -0.015393832 -0.00079996296 0.009492296 0.05178644
000110 7d dd ed 3c 61 10 42 3b 13 97 ba 3c 48 e4 4d 3c
       0.029036278 0.0029611813 0.022777116 0.0125666335
000120 0b 4e 3c bd 18 26 64 bc 37 e6 12 bd ba 4f 2c 3d
       -0.045972865 -0.013925098 -0.03586408 0.04206822
000130 b5 07 e9 3d 38 d3 94 3d 6e 50 ed 3b ea 60 3b 3d
       0.11378423 0.07266849 0.007242254 0.04574672
000140 29 46 42 3d 01 cc 2e 3c 02 1d 0b 3c 4c d9 a0 3c
       0.04743019 0.0106687555 0.008490803 0.019634865
000150 8d 1b f4 3b 7a 52 a3 3c bf 19 44 3c 3b 11 80 3c
       0.0074495734 0.019936789 0.011969029 0.015633216
000160 01 e9 cf 3c 87 87 33 3c 21 7f 05 bd f0 4a e0 bc
       0.02537966 0.010957605 -0.032591943 -0.027379483
000170 2a c9 75 bd 1f c0 82 3d d4 4b a7 3d d5 95 80 3d
       -0.060006298 0.063843004 0.0816876 0.06278578
000180 dc 5a e4 3c e4 d0 81 3b 03 ba 57 bd f3 6a a7 bb
       0.027875356 0.0039616693 -0.05266763 -0.005109185
000190 d1 67 1d 3d 6c 8f 21 3d 9b 4d a2 3c 97 7a 9e 3d
       0.038429085 0.03944342 0.019812396 0.07738226
0001a0 1c ae 16 3d ba c4 2d bd 7b 41 a2 ba 39 08 6f bd
       0.036787137 -0.04242394 -0.0012379134 -0.05835745
0001b0 04 8a fd bc 8b de 39 bb f5 37 1f bb 30 b0 05 bd
       -0.0309496 -0.0028361406 -0.0024294828 -0.03263873
0001c0 df 77 e5 bc c7 17 0e bc 95 f2 da 3a 01 5d 0e bd
       -0.02801126 -0.008672661 0.0016704375 -0.034756664
0001d0 be d0 26 3d 2d a6 9f bc 46 17 6c bc 37 0c b0 3b
       0.040726416 -0.019488418 -0.014409846 0.00537255
0001e0 f0 b3 1d 3b 9e 1c 5a bc 6a 1a f1 bc ac 32 89 3c
       0.002406355 -0.013312487 -0.02943154 0.016747795
0001f0 61 87 40 bb 50 65 25 bd fa a5 83 bc bf 83 93 bc
       -0.0029377567 -0.040379822 -0.016070355 -0.018007157
000200 ac 80 12 3a da d8 cf bc 3b 23 86 bc 50 e6 bb bc
       0.00055886316 -0.025371958 -0.016374221 -0.02293697
000210 72 ac 39 3d 94 9a 93 3d 8a a6 7b 3d d9 9f 93 3d
       0.045330472 0.07207218 0.06143812 0.07208223
000220 91 b2 7c 3d e0 1f 22 3d 78 15 c1 bb 5f a9 67 3b
       0.06169373 0.03958118 -0.005892452 0.0035348756
000230 c8 50 35 3d 40 5b aa bd 89 23 a2 bd 34 0b 12 bd
       0.044266492 -0.08318186 -0.07916934 -0.035655215
000240 51 16 40 bd a0 b5 e9 bc ec 0f 3a bc 2e b6 ed 3b
       -0.046896283 -0.028528988 -0.011356335 0.0072543835
000250 87 ff 3c 3a df ea 0a bc b0 09 27 bb e1 f5 c2 3c
       0.00072097074 -0.008478849 -0.0025487952 0.023798885
000260 ee 4e 0a 3d 60 ea 93 3b b8 dc a1 3c 8c 94 4a 3d
       0.03376668 0.0045140237 0.019758567 0.04945807
000270 0a 2e c5 bc cb 7d de bc 14 85 ba 3b 23 80 ef bb
       -0.024069805 -0.027159592 0.0056921337 -0.0073089763
000280 14 41 5b bc a3 3a 85 bb 2d 52 22 bc eb 0a a3 bc
       -0.013382215 -0.004065828 -0.009907288 -0.019902667
000290 46 23 cc bc a8 4b b0 ba 76 8d 23 3d 91 1d f8 3c
       -0.024919163 -0.0013450282 0.03992983 0.030287536
0002a0 0a 4f 0c 3d 4a f3 89 3d fe 31 21 3d 81 dd 0f 3d
       0.034255065 0.06735857 0.039354317 0.035123352
0002b0 d5 13 79 3c 36 d7 f3 3c ea c8 44 bb 6d ff d2 bc
       0.015202482 0.029765707 -0.003002698 -0.025756562
0002c0 d4 bf 08 3d bc 6f 1d bc b9 69 f3 bc 5e 7a 4a 3c
       0.033386067 -0.009609159 -0.029713498 0.012358276
0002d0 4d f6 d7 bc a6 c6 0f bc 6a 84 c6 3c bf b7 2a bd
       -0.026362563 -0.008775389 0.024233062 -0.04167914
0002e0 30 19 67 bd dc 55 7a bd c1 9a cf 3b 8b e8 20 bc
       -0.056420505 -0.061117038 0.006335587 -0.009821068
0002f0 82 d4 f0 bc 6b 5e 69 bd c3 38 df bc 6b bf 8a bb
       -0.029398207 -0.05697481 -0.027248746 -0.0042342446
000300 a7 09 85 3d 73 ad ad 3d 24 47 c1 3d 50 38 05 bd
       0.06495982 0.084803484 0.09437397 -0.032524407
000310 8b 8f b1 bb a4 c0 40 3d f5 ef 19 3d ec 5c 1e 3d
       -0.005418723 0.047058716 0.037582356 0.038662836
000320 b3 61 f7 3c 5b 9e 30 bd d1 6c 7b bd c6 59 98 bd
       0.030197954 -0.04311977 -0.061383072 -0.07438998
000330 1a ed a7 3d 94 f9 c2 3d 00 ca ad 3d 70 aa 86 3b
       0.081995204 0.095202595 0.08485794 0.004109673
000340 4b c6 93 bb 31 01 a3 bb c2 70 d0 3c 16 64 c7 3c
       -0.0045097223 -0.0049745073 0.025444392 0.024339717
000350 03 58 13 3d 96 5d 30 3c 2e 22 2a bc 19 67 26 3c
       0.035972606 0.0107645 -0.010384126 0.010156416
000360 a4 62 97 bc 0e 12 fc bc fe ce d6 bb b1 44 be 3c
       -0.018479653 -0.030770328 -0.006555437 0.023226114
000370 7e 90 d6 3c fd 3f 8a 3d 3e 91 c3 bc 0b 54 09 bd
       0.026191946 0.06750486 -0.023872968 -0.033527415
000380 29 df 4d bc d6 5c a4 3d 99 b7 34 bd 9b 39 7b bd
       -0.012565413 0.080255195 -0.044120405 -0.061334234
000390 fa 07 29 3d b8 a6 f9 bd 16 42 00 be 6b 89 27 3e
       0.041267373 -0.12190002 -0.1252521 0.16361015
0003a0 40 a6 1b bd fe 7b 82 bd ca 77 14 3d 60 23 75 3c
       -0.038000345 -0.06371306 0.036247052 0.014962047
0003b0 a5 e0 59 3d 69 c0 ab 3d ba 40 54 3d b0 87 c9 3b
       0.053192753 0.08386309 0.05181954 0.0061502084
0003c0 55 62 32 3d 05 96 10 bc c8 25 dc bc 87 17 2a bd
       0.043550808 -0.00882483 -0.026873484 -0.041526344
0003d0 65 25 aa 3d 1e da 46 3d d5 cc 44 bd e7 7e 55 bd
       0.08307914 0.048547857 -0.048046906 -0.052122977
0003e0 c2 09 6e bd 63 55 f3 bc 8d 0d 82 bd 22 1a 1e be
       -0.058114775 -0.029703801 -0.06350241 -0.15439656
0003f0 2a e9 a4 3c 5d ef 8c bc 82 65 aa bd 7e 4b 80 bd
       0.020130713 -0.017203981 -0.08320142 -0.06264399

tfeb.8.weight f4 [28]
000000 0e d4 79 3e 66 0a f0 3e 97 28 78 3e 8a 4b ad 3e
       0.24397299 0.46882933 0.24234234 0.33846694
000010 a8 ed cb 3e 3b c7 b4 3e 34 2d 94 3e ab 3a 6e 3e
       0.39829755 0.3530825 0.28940737 0.23264568
000020 8c 1c 31 3e d0 a3 d0 3e ae 03 93 3e 1c 9b d4 3e
       0.17296046 0.4074998 0.28713745 0.4152459
000030 35 bc 97 3e c4 38 61 3e eb 57 6c 3e 04 21 af 3e
       0.29635778 0.2199431 0.23080413 0.34204876
000040 e1 24 c1 3e 2c f9 f0 3e 51 7a d1 3e fb 64 cc 3e
       0.3772345 0.47065103 0.40913633 0.39920792
000050 78 fc fd 3e 24 19 a3 3e f3 1e 7f 3e fa 21 90 3e
       0.4960668 0.31855118 0.2491415 0.28150922
000060 12 8e f3 3e ba 77 b6 3e fe 99 c6 3e c1 99 63 3e
       0.4756933 0.3563822 0.38789362 0.22226621

tfeb.8.bias f4 [28]
000000 cc 52 0d 3e 4c c0 e9 bd 05 81 de 3c 19 85 5b bd
       0.13801116 -0.11413631 0.02716113 -0.05359373
000010 4e 70 dd bd ad e3 4b 3c fc da b4 3c 7b 47 af 3d
       -0.10812436 0.012444419 0.022077076 0.08558556
000020 75 99 23 3d e8 ce 81 bd f6 e5 1f be 26 61 9e bd
       0.03994127 -0.06338292 -0.15615067 -0.07733373
000030 51 84 01 bd 95 85 c9 3d d3 ed 2c 3e 0e 80 35 bd
       -0.031620327 0.09839932 0.16887598 -0.044311576
000040 fd 37 03 be f2 da c8 bd b9 f9 8f bd 21 51 85 bd
       -0.12814327 -0.098073855 -0.07030053 -0.06509615
000050 65 f0 42 be 01 a1 1c bd 8b 88 9b 3d 34 15 7d bc
       -0.19037016 -0.038239483 0.07594403 -0.01544695
000060 64 7d 1d bd 69 06 32 bd d4 35 7a bc ca 19 ea 3d
       -0.03844966 -0.043463144 -0.015271623 0.114307

tfeb.8.running_mean f4 [28]
000000 45 63 42 3e 6f e4 8d be 8e 3a 1d be f1 13 9e bd
       0.18983181 -0.27713344 -0.15354368 -0.07718647
000010 57 ea ae be b1 1e 10 3c 06 7d 84 be ea b3 92 be
       -0.34163162 0.00879638 -0.25876635 -0.2865289
000020 5e 1f 8b bd c5 bb 16 3d fd 2d ef 3d 50 95 08 3e
       -0.06793092 0.036800165 0.116786934 0.13338208
000030 cb 42 e7 bd 9a 02 e3 3c 37 41 ee 3d b9 89 d9 be
       -0.112920366 0.027711201 0.116335325 -0.42487887
000040 d8 4b 8e be 66 c0 33 bd 07 0c 2b be 8c 3d 56 3d
       -0.2779224 -0.043884657 -0.16703807 0.05230479
000050 00 2b 67 be a5 b5 6d be ec c7 23 bf 7c 72 56 be
       -0.22574997 -0.23213823 -0.6397693 -0.2094211
000060 18 1f ed bd 53 45 b8 bd 68 d3 bd be ea 8d d9 3e
       -0.11578196 -0.089975975 -0.37075353 0.42491084

tfeb.8.running_var f4 [28]
000000 d9 f1 dc 3c fa eb d4 3d 5f ea 72 3c d0 aa fc 3c
       0.02697079 0.103965715 0.014826386 0.030843168
000010 85 9e 84 3d 0e 35 02 3d 23 8d b2 3c 05 66 11 3d
       0.06475548 0.03178888 0.021795815 0.035497684
000020 5e 5f fd 3b 40 b8 a4 3d c1 54 a0 3c 8a e6 fc 3c
       0.007732316 0.080429554 0.019571664 0.030871648
000030 9a 7f 88 3d d9 25 50 3d 1b 1a 49 3d 1c bb fa 3c
       0.06664963 0.050817344 0.04909716 0.030606799
000040 b9 6e 51 3d df bd fd 3d 56 8a bc 3d a3 31 46 3d
       0.051130984 0.12389731 0.09206073 0.04838718
000050 96 ae 8f 3d 41 68 88 3d 60 d0 00 3d 18 c4 87 3d
       0.070157215 0.0666051 0.031448722 0.06629199
000060 3e bf 4a 3d 12 48 00 3d 27 3a d5 3c 16 d2 27 3d
       0.04949879 0.03131873 0.026028706 0.040971838

tfeb.11.weight f4 [32, 28, 3, 3]
000000 19 81 8b bc 11 26 ca bc bb 11 e4 bc 81 26 0b 3d
       -0.017029332 -0.024676355 -0.027840486 0.033972267
000010 4e 70 12 3d d0 4c a0 3c 51 f3 9a 3d 30 8d 7b 3d
       0.035751633 0.019567877 0.0756594 0.061413944
000020 51 47 5a 3d 74 02 f2 bc e2 4f 55 3c cc f1 fe b9
       0.05329067 -0.029542185 0.013019534 -0.00048626808
000030 9b 3f be 3b d4 32 84 3c 16 52 fa 3c 5f df 88 bc
       0.005805922 0.016137518 0.03055672 -0.016708074
000040 af 71 b1 ba 00 e1 ef 3c 1c f9 7c bc 75 5c f6 bc
       -0.0013537909 0.029282093 -0.015440252 -0.030073384
000050 5b e4 d5 bc a8 0d 88 bc 53 ea cd bc 3d 0b a2 bc
       -0.026109865 -0.016608074 -0.025136149 -0.01978075
000060 71 b0 07 3d ce fa 8e 3c 34 3a d2 3c b7 00 01 3d
       0.033127252 0.017453577 0.025662519 0.031494822
000070 50 40 ba 3c 52 d1 e7 3c 4d 71 26 3d bb be a0 3c
       0.022735745 0.028298054 0.040635396 0.019622197
000080 7d 83 f2 bb ce f5 d5 bb 47 6d 6a 3c fa 89 f4 bc
       -0.0074009285 -0.0065295463 0.01430828 -0.029850949
000090 11 6b c5 3c 2b 8c 80 3c d0 ab 15 3d b0 57 64 3c
       0.024098905 0.015691837 0.036540806 0.013936922
0000a0 b5 e0 58 bb 2b 72 55 3c fb 12 e0 bc 0d de a0 bd
       -0.003309292 0.013027708 -0.0273528 -0.07854853
0000b0 74 e9 bd bc a6 26 66 bc d7 cc 91 bc 48 36 1a bc
       -0.023182608 -0.0140473 -0.01779787 -0.009412356
0000c0 37 ea c7 3c 19 cc 8c 3c d8 30 fa bb e7 79 a9 bc
       0.024403675 0.017187165 -0.007635217 -0.02068801
0000d0 62 c0 ba bc fd e8 2d 3c f8 2c 1e 3c 4d 1f 7c 3c
       -0.022796813 0.010614631 0.009654276 0.015388322
0000e0 38 f8 48 3c 84 e3 c2 bc d3 02 a4 bc 97 be 8a bc
       0.012266211 -0.023790129 -0.020020878 -0.016936583
0000f0 62 6a 91 bb 21 5e 8d bc 10 10 48 ba a0 45 fe bc
       -0.0044377306 -0.017256798 -0.0007631788 -0.03103906
000100 c2 6f b2 bb fd 36 81 bc 9c dd 71 bd db 11 fd bc
       -0.0054454515 -0.01577329 -0.059049234 -0.030892303
000110 92 f1 78 bc 53 52 df bc cd fb 1f bc 86 53 bc 3c
       -0.015194314 -0.027260935 -0.009764624 0.022989046
000120 7b 2a ed bc e5 88 e9 bc ee 0f e0 bc ea 1a ae bc
       -0.02895092 -0.02850766 -0.027351346 -0.021253068
000130 08 94 ba bc f9 2d 5c bc 68 ae c5 3b bd 4b 6a 3b
       -0.022775665 -0.013438695 0.0060327537 0.003575071
000140 90 a8 35 3c 3d 2a b1 bb f1 55 6c 3b 4c 9c c8 3c
       0.011087552 -0.0054066465 0.0036061967 0.02448859
000150 71 4f 81 3c 07 a3 41 3d ec 90 b3 3c a3 9f c9 bb
       0.01578495 0.047274616 0.02191969 -0.0061530634
000160 92 70 53 3c c5 f6 ee 3c 70 9e 54 3c b8 1e 47 3c
       0.012905257 0.029170403 0.012977228 0.01215332
000170 ab c3 51 3c 7a 7a 1f 3d fd e3 19 3d 18 28 30 3c
       0.012802999 0.038935162 0.037570942 0.010751747
000180 11 ff 04 3d a7 2d 27 3d 9a 8c 07 3d d4 68 29 3c
       0.032469813 0.04081502 0.033093072 0.010339934
000190 36 c0 43 3d 2d f8 d2 3c 11 68 44 bc 5c 6a 50 3c
       0.04779073 0.025753105 -0.011987702 0.012720671
0001a0 07 c9 a2 bc b0 c5 cf 3c 10 c6 b1 3c ea a7 97 3c
       -0.019871248 0.02536282 0.021700889 0.018512685
0001b0 b8 65 31 bd 33 06 69 bd af ec 58 bd ce 15 96 bd
       -0.043309897 -0.056890678 -0.052960094 -0.07328378
0001c0 a2 86 a9 bd fe 99 96 bd 5e 12 ab 3c 28 2e 07 3d
       -0.08277632 -0.073535904 0.020882782 0.033003002
0001d0 d6 b3 3e 3d 8b fc c4 bc f7 40 9c bc 80 49 1e bc
       0.046558224 -0.024046203 -0.019073946 -0.009661078
0001e0 b0 95 60 3c 5e 12 4b 3c b9 47 95 3c fc 40 19 3c
       0.013707563 0.012394516 0.018222677 0.009353872
0001f0 7d 65 d8 3c 7c ad 25 3d 05 1f 88 bd 31 25 8f bd
       0.02641558 0.04044865 -0.066465415 -0.069895156
000200 c6 b7 97 bd 22 5a e6 3c ee 60 bb 3c 63 4c 25 3d
       -0.07408099 0.02811915 0.022873368 0.04035605
000210 fb 38 44 3d 17 55 fe 3c e2 03 3a 3d 2a 4d ce 3c
       0.047905903 0.031046433 0.04541386 0.025183279
000220 8a a8 39 3d 51 78 21 3d 87 85 f0 3a 9e 4a 3b 3c
       0.045326747 0.039421383 0.0018350341 0.011431364
000230 66 51 b1 3c 47 b6 a3 3c eb cd e8 bb 07 06 bd 3b
       0.02164526 0.019984378 -0.0071046255 0.005768541
000240 0e cc 17 bd 19 41 03 3d 5a 73 cf 3b 5f 17 3b bd
       -0.037059836 0.032044504 0.0063308896 -0.045676585
000250 bd f6 2d 3d 41 d1 a3 3c 3e db 4d bd 9a fd c5 3c
       0.042471636 0.019997241 -0.050257914 0.024168778
000260 ff c7 5b 3d 01 b9 27 bd 67 f4 04 bd 4b 56 16 bd
       0.053657528 -0.040947918 -0.032459643 -0.03670339
000270 79 6e 35 bd 89 a0 55 3d 06 5a 10 3d 20 72 5b bd
       -0.044294808 0.05215505 0.035242103 -0.053575635
000280 41 29 a2 bb a1 af d4 3c 87 02 18 3c 80 36 17 3c
       -0.0049487655 0.025962653 0.009277946 0.009229302
000290 92 28 9e 3c 00 e3 c9 39 12 c7 c3 bc 5d 39 34 bd
       0.019306455 0.00038506836 -0.023898635 -0.04400002
0002a0 d1 e5 1f bc 21 b8 04 bd ba c3 14 bd e2 af 2d bb
       -0.009759382 -0.03240216 -0.036319472 -0.002650254
0002b0 3c c6 28 bc 12 03 d4 bb ca 54 e5 3c dc 53 06 3d
       -0.010301169 -0.0064700926 0.027994532 0.03279482
0002c0 fe bc 2a 3d 6f 72 ca bc c0 48 96 bc 3a 92 73 bc
       0.041684143 -0.02471277 -0.018345237 -0.014866406
0002d0 af e6 57 3c cd 06 9f bb e8 b4 bd 3b e4 c6 72 bb
       0.013177558 -0.0048531056 0.005789388 -0.0037044818
0002e0 83 d0 b0 bc ae 09 e4 bc 15 be 9f bc 25 10 1d bd
       -0.021583801 -0.027836647 -0.019499818 -0.038345475
0002f0 86 c3 29 bd 78 eb 27 bd 41 8f 7c bc e3 33 82 bc
       -0.04144623 -0.040996045 -0.015415014 -0.015893882
000300 82 25 e7 bc 9f 4d b8 ba b7 4a cc 3c 7e 73 28 bd
       -0.028216127 -0.0014061219 0.02493797 -0.041125767
000310 eb b5 4b bc 76 b1 0c 3c 6c 5e aa bc 8f 82 dd 3c
       -0.012433509 0.008587232 -0.020796977 0.027039794
000320 2e c1 0f 3c 8c 24 8e bd 12 7a a6 bc 7d db 16 bd
       0.008774085 -0.069405645 -0.02032188 -0.036830414
000330 d2 22 a3 bc 71 50 4f 3c b6 78 87 3c a2 a1 47 bd
       -0.019914065 0.012653456 0.016537052 -0.04873813
000340 c5 75 f3 bc f8 07 62 bc 48 46 c4 bc 1f 2c 9d bb
       -0.029719243 -0.013795845 -0.023959294 -0.0047965194
000350 e6 84 77 bc 00 f8 c9 bc 55 b1 4e bb e7 de fa 3a
       -0.015107369 -0.024654388 -0.0031538804 0.0019139916
000360 eb 28 90 3b a8 b6 da bb 85 1e 22 3c 82 2d b8 b9
       0.004399409 -0.0066746064 0.009894972 -0.0003512912
000370 91 ae 82 bc 08 85 8e bc 7b 0c d5 bd 46 c3 bf bd
       -0.01595238 -0.017397419 -0.10402771 -0.09363417
000380 cf 9d b6 bd 05 89 1d bc 6e 63 43 bb 87 3c 1c 3b
       -0.08916818 -0.0096151875 -0.0029813903 0.0023839788
000390 6c 0f 62 bb 21 3a d2 3b 2e cc 8c 3b 37 55 a2 3c
       -0.0034494055 0.006415621 0.004296801 0.019816024
0003a0 99 b9 32 3d 76 02 4c 3d d0 e2 39 3b 45 40 ff 3b
       0.04363403 0.049807034 0.002836395 0.007789644
0003b0 e5 13 f6 3b 66 9f 8f 3b fb eb 45 3c 8d 08 c0 bb
       0.007509696 0.0043830154 0.012080188 -0.0058603943
0003c0 b9 bb 0f bc 9f 2d 33 3c 8b 15 09 3c 0d a4 d2 bc
       -0.008772784 0.01093617 0.008366953 -0.025712991
0003d0 f3 01 02 bd 6d 8d 3b bd 33 5b 66 3d 26 71 7a 3d
       -0.03174014 -0.04578917 0.056239318 0.061143063
0003e0 52 b4 86 3d 9c cc 83 3d c6 d5 67 3d 08 0a 8d 3d
       0.06577362 0.064355105 0.056600355 0.06886679
0003f0 e6 01 07 be e0 73 88 bd 4a d6 32 3c 11 a8 18 be
       -0.13184318 -0.066627264 0.010915348 -0.14907862

tfeb.12.weight f4 [32]
000000 ea 30 a8 3e af e3 ac 3e 1b f8 ad 3e e1 03 99 3e
       0.32849818 0.3376746 0.33978352 0.29885772
000010 02 06 81 3e 1b d0 df 3e 1d e7 b7 3e 78 34 d1 3e
       0.25199896 0.4371346 0.35918513 0.40860343
000020 ff c7 12 3f a0 48 9c 3e 7b 13 b4 3e be 90 c0 3e
       0.5733642 0.30524158 0.35171112 0.3761043
000030 75 7d bb 3e 6b 10 94 3e 9f 9b ac 3e a1 af 85 3e
       0.36619154 0.28918776 0.3371248 0.26110557
000040 0b af be 3e dc 8c 7d 3e 0f 67 9f 3e a2 6e 9d 3e
       0.37242922 0.24760765 0.31133315 0.3074847
000050 d0 51 bb 3e 66 41 b0 3e 6f ee bf 3e d9 da 89 3e
       0.36585855 0.34424895 0.37486598 0.2692478
000060 06 50 90 3e ec bb ea 3e ef 43 32 3e 02 02 81 3e
       0.28186053 0.45846498 0.17408727 0.25196844
000070 56 86 a4 3e b3 88 dd 3e 7d f7 cd 3e e9 a1 0d 3f
       0.3213374 0.43268356 0.4022788 0.5532518

tfeb.12.bias f4 [32]
000000 83 9c 44 be 1a a5 12 3d 1c 2b 0c be 82 49 4c bd
       -0.1920033 0.035801984 -0.1368832 -0.04987479
000010 31 13 a0 bd 13 2e 65 be 6f 22 a2 bd 30 37 2b be
       -0.078161605 -0.22380857 -0.07916724 -0.16720271
000020 c5 ae c9 be c1 4d 18 3d 0e 1f 02 be 9e e0 b2 bd
       -0.3939115 0.037183527 -0.12707159 -0.087342486
000030 22 ca db bd eb 3f e8 bb c1 f7 35 be 1f 34 a3 bd
       -0.10731913 -0.0070876977 -0.17770292 -0.07968926
000040 f9 aa 3c be 55 79 20 3e b3 34 97 bd 76 5f 02 3d
       -0.18424596 0.15671284 -0.073830985 0.03182932
000050 b8 f6 da bd 0e e0 fb bd e7 d2 93 bd f5 a2 0a 3e
       -0.10691589 -0.122985944 -0.07217961 0.13538726
000060 25 dc 16 bd f9 8b 6e bd 08 d4 0a be c9 33 9c bd
       -0.03683104 -0.058238957 -0.13557446 -0.07627065
000070 c6 72 a8 bd fe 6b 2c be 9b 72 32 be 61 b6 48 be
       -0.08225016 -0.16838071 -0.17426531 -0.19600822

tfeb.12.running_mean f4 [32]
000000 a7 8e 35 bd 19 d5 fd be 69 26 6d be 3c 41 26 3e
       -0.044325497 -0.49576643 -0.23159184 0.16235822
000010 17 d9 22 be 99 0d 57 bf b4 fd 52 be 0b 4c ce be
       -0.15903126 -0.84005123 -0.20604593 -0.4029239
000020 20 02 28 bf 10 54 f0 bd a2 a1 76 be 88 6a 08 bf
       -0.6562824 -0.11734784 -0.24085096 -0.53287554
000030 06 1c cc be 36 36 0a bf ba ae a7 bd 4b 3c 7c bd
       -0.3986513 -0.5398897 -0.08187623 -0.061580937
000040 5c 6f 90 be b6 42 bd bd 33 e2 10 be 51 1d d6 be
       -0.2820996 -0.0924124 -0.14148788 -0.41819242
000050 8c 61 a5 be e1 df 05 bf 45 a3 aa be e4 36 df be
       -0.32300985 -0.5229474 -0.3332769 -0.43596566
000060 a7 df ca bd bb 20 31 bf e8 b4 0d be 2d 85 73 bd
       -0.099059395 -0.6919057 -0.13838542 -0.05945318
000070 64 0f 17 be 00 37 c7 be 48 04 78 be 3f 3f 3c bf
       -0.14751965 -0.3890915 -0.24220383 -0.73534006

tfeb.12.running_var f4 [32]
000000 37 4a 35 3d bd dc 97 3e 40 75 ec 3d 71 c5 d1 3d
       0.04426023 0.29660597 0.11545801 0.10242737
000010 0b 89 c8 3c bb 6a 96 3e 01 95 3c 3e 7b 7c 1c 3e
       0.02447941 0.29378304 0.18416215 0.1528186
000020 a0 5d 6d 3e ee bb 00 3e 60 b2 3f 3e 14 df 66 3e
       0.23180246 0.1257169 0.18720388 0.22546035
000030 d1 1f 06 3e 58 0f 02 3e 5b 08 c7 3d c5 59 d2 3d
       0.13098074 0.12701166 0.097183906 0.102710284
000040 74 be b6 3d 04 b4 96 3e 1e ae be 3d 07 6a 18 3e
       0.08923045 0.29434216 0.09310554 0.14884196
000050 5f 38 af 3d 02 5f 2e 3e ec da 74 3e cd 27 87 3e
       0.08555674 0.1702843 0.23911637 0.26397553
000060 a7 ae c1 3c b7 db f6 3e d7 fc 42 3c 52 16 d6 3d
       0.023642851 0.48214504 0.011901102 0.10453476
000070 86 09 79 3d 59 28 87 3e 63 a6 0b 3e 2e f1 dc 3e
       0.060800098 0.2639797 0.1363769 0.43152755
