trained_models/step_5_retrain_after_step_4/retrain_4C_after_2nd_pruning_prunratio0.85_2024060419/retrained_4Cmodel_ratio85.0_vaacc93.47826385498047_tracc_82.56578947368422@735epoch_20240604225629.pt (torch, 309234 bytes, 62 tensors)

sfeb.0.weight f4 [8, 1, 1, 9]
0	0x3e7c44eb	0.24635665
1	0x3e149486	0.14509782
2	0x3e915a6e	0.28389305
3	0x3eafc6bf	0.3433132
4	0x3da493e8	0.080360234
5	0xbe862147	-0.26197264
6	0xbef4f8d8	-0.47846103
7	0xbe929b7e	-0.28634256
8	0xbd857617	-0.065166645
9	0x3c1031c2	0.008800926
10	0x3c8f6a8f	0.017506866
11	0xbd82b729	-0.06382591
12	0xbe941feb	-0.289306
13	0x3d8173a7	0.06320887
14	0xbe401d42	-0.18761161
15	0xbe938ff9	-0.2882078
16	0x3eba228b	0.3635448
17	0x3f10c6f4	0.5655358
18	0xbe3177f3	-0.17330913
19	0xbe60bb8b	-0.21946542
20	0x3e5a5aaa	0.21323648
21	0x3d8bd2cc	0.06827316
22	0xbe3b04ce	-0.18263552
23	0xbe6a8964	-0.22903973
24	0x3e040380	0.1289196
25	0xbea021e1	-0.31275848
26	0xbed4e359	-0.41579702
27	0x3f303573	0.6883156
28	0x3ebddad5	0.37081018
29	0xbd42cc57	-0.047558155
30	0xbbbe8ef7	-0.0058153826
31	0xbe2eb42b	-0.17060916
32	0x3c300cd7	0.010745249
33	0x3dec4533	0.11536636
34	0xbcb1fef6	-0.02172802
35	0x3da203d1	0.07910884
36	0xbf1bff13	-0.6093609
37	0xbeae0353	-0.3398691
38	0x3d7e6d99	0.06211624
39	0x3da654e2	0.08121659
40	0x3e981379	0.29702356
41	0x3e54caf3	0.20780544
42	0xbe333145	-0.17499264
43	0x3d0262a8	0.031832367
44	0xbe13b8cb	-0.14425962
45	0xbe9b4900	-0.30329132
46	0xbd0bdd65	-0.034146685
47	0x3e43bb70	0.1911447
48	0x3db7df6c	0.08978161
49	0xbed533dd	-0.4164113
50	0x3dace6bd	0.08442447
51	0x3f15b75d	0.58482915
52	0xbd28cb55	-0.041209538
53	0xbf00dcf2	-0.50337136
54	0xbd7008c5	-0.058602113
55	0xbe5def75	-0.21673377
56	0x3e6db706	0.23214349
57	0xbdb0e311	-0.086370595
58	0xbeea362c	-0.45744455
59	0x3efd903b	0.49524102
60	0x3c845dd7	0.016158028
61	0xbee4a1d6	-0.4465472
62	0x3ed27f6f	0.4111285
63	0x3d2e6768	0.042579085
64	0x3c05568a	0.008138308
65	0xbe4aba90	-0.1979773
66	0xbdf8c8b2	-0.121476546
67	0x3e379319	0.17927207
68	0x3e570e1d	0.21001478
69	0xbce18522	-0.027529303
70	0x3ea11ae8	0.3146584
71	0x3f10667a	0.56406367

sfeb.1.weight f4 [8]
0	0x3f6a57fa	0.9154049
1	0x3f4567ce	0.7711152
2	0x3f3548d3	0.70814246
3	0x3f412f78	0.75463057
4	0x3f498d75	0.7873147
5	0x3f095cfc	0.5365751
6	0x3ef3f016	0.4764411
7	0x3f2f99bd	0.6859396

sfeb.1.bias f4 [8]
0	0x3d051aaa	0.032496132
1	0x3cf59ca4	0.029981919
2	0x3d9281c5	0.07153658
3	0x3e6819a9	0.22666039
4	0x3d930a87	0.07179742
5	0x3e47c9e9	0.19510616
6	0x3d7fe8ef	0.062478002
7	0x3d771745	0.060324926

sfeb.1.running_mean f4 [8]
0	0xb55bf754	-8.194377e-07
1	0xb7be9aa6	-2.2721779e-05
2	0x3906cf0c	0.00012856367
3	0xb8f5f655	-0.00011728393
4	0x388f1ef8	6.82454e-05
5	0x382c4935	4.1076175e-05
6	0x37492e47	1.1991308e-05
7	0xb8eb6ce5	-0.000112259564

sfeb.1.running_var f4 [8]
0	0x3cc56f5f	0.024100957
1	0x3c5c072c	0.013429444
2	0x3c37bcb3	0.011214423
3	0x3caedaeb	0.021344623
4	0x3cafccb5	0.021459917
5	0x3bbbec7b	0.005734978
6	0x3acc6a55	0.0015595654
7	0x3c652701	0.01398635

sfeb.3.weight f4 [32, 8, 1, 5]
0	0x3d539646	0.051656984
1	0xbe3729d0	-0.17887044
2	0xbc986b23	-0.018605774
3	0x3d397a6b	0.045282762
4	0xbe1466a5	-0.14492281
5	0xbda1c175	-0.07898227
6	0xbdeb756a	-0.11497004
7	0xbd612bd1	-0.054973427
8	0xbaefb9b9	-0.0018289603
9	0xbc99a2ee	-0.018754449
10	0x3e734796	0.23757777
11	0x3e51709f	0.20453118
12	0x3e75a6e6	0.23989448
13	0x3e095cbd	0.13414283
14	0x3db19404	0.0867081
15	0xbddb8e42	-0.10720493
16	0xbd528407	-0.051395442
17	0xbe860b96	-0.26180714
18	0xbd315bdd	-0.0433005
19	0xbde94065	-0.113892354
20	0x3e1ecef3	0.15508632
21	0x3e3b185e	0.18271014
22	0x3d930d68	0.071802914
23	0x3e33abba	0.17545977
24	0x3e18e321	0.14930393
25	0x3d7276e4	0.059195414
26	0xbc90bcf3	-0.017668223
27	0xbd80c7bb	-0.062880956
28	0xbbb50c13	-0.005525121
29	0x3d03e955	0.032204945
30	0x3b7c811e	0.0038529108
31	0xbcd988d0	-0.026554495
32	0x3d1d1958	0.038354248
33	0x3d090571	0.033452455
34	0xbbe54c46	-0.006997618
35	0xbd64a601	-0.055822376
36	0xbdc21f3e	-0.09478615
37	0xbe17f4fc	-0.14839548
38	0xbcc4fb8c	-0.024045728
39	0xbd3d5aa2	-0.046229012
40	0xbe2ee300	-0.17078781
41	0xbe244529	-0.16042008
42	0xbd2378e3	-0.03991021
43	0x3d7829e9	0.060586844
44	0x3da3f686	0.08006005
45	0xbbfa948c	-0.0076471027
46	0xbe1157a5	-0.1419359
47	0xbdf4170f	-0.119184606
48	0xbd0e04a5	-0.034672398
49	0xbd818fb0	-0.06326234
50	0x3db73717	0.089460544
51	0x3da91c2a	0.08257325
52	0x3d9d2faf	0.076751105
53	0x3e6f7670	0.23385024
54	0x3e916ce1	0.2840338
55	0xbe6551cf	-0.22394489
56	0xbde852b8	-0.11343902
57	0xbddb5d54	-0.1071116
58	0xbcad2930	-0.021137804
59	0xbd0882df	-0.033327933
60	0x3e15bd22	0.1462293
61	0x3e0e30a0	0.13885736
62	0x3ca40741	0.02002299
63	0xbda104ca	-0.078622416
64	0x3c0c4e97	0.008563659
65	0xbbe2849c	-0.006912781
66	0x3debd5fc	0.11515424
67	0xbca5a01f	-0.020217953
68	0xbb410830	-0.0029454343
69	0x3c834c52	0.016027603
70	0xbbcbcc82	-0.0062194476
71	0xbd4b8a4f	-0.04969245
72	0xbc85fb1d	-0.016355092
73	0xbdd2b8da	-0.10289164
74	0xbd0723b3	-0.03299303
75	0xbd7ed411	-0.06221396
76	0xbd89bd02	-0.067255035
77	0xbe7fc7ad	-0.24978514
78	0xbe2fe5db	-0.17177527
79	0xbdd87a2e	-0.10570179
80	0xbe0b720a	-0.13617721
81	0xbe5988c7	-0.21243583
82	0xbd226676	-0.039648496
83	0xbcba765d	-0.022761518
84	0xbdc08489	-0.09400279
85	0xbdf24e52	-0.11831345
86	0xbd84ff9e	-0.064940676
87	0xbd86e1ef	-0.06586062
88	0xbe37de11	-0.17955805
89	0xbe14d498	-0.14534223
90	0x3e0f4335	0.13990481
91	0x3e58adcb	0.21160047
92	0x3dfec2f3	0.12439527
93	0x3e383a29	0.17990936
94	0x3e8517c4	0.25994694
95	0xbe46382e	-0.19357368
96	0xbdba6bca	-0.091025904
97	0xbe47c093	-0.19507055
98	0xbdf0f8ae	-0.11766182
99	0xbdcb2570	-0.0991925
100	0xbd52cc08	-0.05146411
101	0x3bbdcfd2	0.0057925964
102	0x3d23ff13	0.04003818
103	0x3dedf816	0.11619584
104	0x3d45aa5a	0.048258163
105	0xbd2c4f98	-0.042068094
106	0x3d691d9b	0.056913
107	0xbd4c40b5	-0.049866397
108	0x3dbf61b3	0.093448065
109	0x3d1784f5	0.036992032
110	0xbd3de636	-0.046362124
111	0xbbc78139	-0.0060884026
112	0xbd6ddd2c	-0.058072254
113	0xbd8e6efa	-0.06954761
114	0xbdf49d25	-0.119440354
115	0xbe165269	-0.14679874
116	0xbe81b709	-0.25334957
117	0xbe85bc68	-0.26120305
118	0xbe010f89	-0.12603582
119	0xbe04f9f6	-0.12985978
120	0xbdd66314	-0.104681164
121	0x3d832cc2	0.06405021
122	0xbdf8e091	-0.12152208
123	0xbd927779	-0.07151694
124	0xbe7339da	-0.23752537
125	0xbe000e5a	-0.12505475
126	0xbd0a12d9	-0.03370938
127	0x3d3594a9	0.044331226
128	0xbcb6c0c2	-0.022308711
129	0xbda1209c	-0.07867548
130	0xbea6fdc7	-0.32615492
131	0xbe834994	-0.25642073
132	0xbe675847	-0.22592269
133	0xbe65dab5	-0.22446711
134	0xbeae643a	-0.34060842
135	0x3dc5f2bf	0.09665441
136	0x3e55e60b	0.20888536
137	0x3e963e3b	0.29344353
138	0x3e1a8e0f	0.15093254
139	0x3dfb0fbe	0.12258862
140	0xbd8aca87	-0.0677691
141	0xbdff87fe	-0.1247711
142	0xbe8ff806	-0.28118914
143	0xbdb912ae	-0.09036766
144	0xbde7882f	-0.11305272
145	0x3d03f7d1	0.032218758
146	0xbe163140	-0.14667225
147	0xbe14e1a4	-0.145392
148	0xbe3e9bb3	-0.18614082
149	0xbe372090	-0.17883515
150	0xbdee1dfc	-0.11626813
151	0xbe39ca41	-0.1814356
152	0xbe784df3	-0.24248485
153	0xbe14151d	-0.14461179
154	0xbdf72a43	-0.12068608
155	0x3e38de17	0.1805347
156	0x3e4b8ca7	0.19877873
157	0x3e6e4b57	0.23270927
158	0x3eb6299c	0.3557862
159	0x3ea8ef0c	0.32994878
160	0xbe10eb85	-0.14152344
161	0xbdbb6924	-0.09150913
162	0xbe0d38d9	-0.13791217
163	0xbdd29bc7	-0.102836184
164	0xbd2bcda9	-0.04194418
165	0x3d9a136a	0.07523234
166	0x3c91f8fa	0.017818917
167	0x3be43fb2	0.006965601
168	0x3d6f5182	0.05842734
169	0x3c336644	0.010949675
170	0xbe02cc2f	-0.12773202
171	0xbdab6af9	-0.08370013
172	0xbde822b9	-0.11334748
173	0xbe3b6d2e	-0.18303367
174	0xbda99404	-0.08280185
175	0xbe4a7ac8	-0.197734
176	0xbe0840b3	-0.13305931
177	0xbcc68291	-0.02423218
178	0xbb968f04	-0.0045946855
179	0x3d8ea0ae	0.06964241
180	0xbde2dada	-0.11076899
181	0xbcf77b92	-0.03021029
182	0x3d2ff73a	0.042960383
183	0xbd1f2c68	-0.03886071
184	0xbdc1d41e	-0.09464286
185	0xbd150e61	-0.036390666
186	0xbd0781c8	-0.033082753
187	0x3ce168b1	0.027515741
188	0xbd61a892	-0.0550924
189	0xbd01c659	-0.0316833
190	0xbd2e2fe3	-0.042526137
191	0x3beaec25	0.007169264
192	0xbcebd335	-0.028787235
193	0xbb81beaa	-0.0039594965
194	0xbd3c29e6	-0.045938395
195	0xbd7ca816	-0.061683737
196	0x3cf45df3	0.029829955
197	0x3dc10fbd	0.0942683
198	0x3dfa647c	0.12226197
199	0x3e3d2496	0.18470988
200	0xbd4cd6e9	-0.05000964
201	0xbe2ba72d	-0.16762991
202	0xbe3756a5	-0.17904146
203	0xbe5457f3	-0.20736675
204	0xbdc376c7	-0.09544139
205	0x3db8ee4e	0.09029828
206	0x3e69d1a3	0.22833876
207	0x3dddf100	0.10836983
208	0x3d721a6c	0.05910723
209	0x3e075d40	0.13219166
210	0x3dc70b8b	0.097189985
211	0xbd5f5a73	-0.05452962
212	0xbd0c4f8e	-0.034255557
213	0xbdb08fd3	-0.08621182
214	0xbe41a092	-0.18908909
215	0xbdd9119b	-0.10599061
216	0xbe6cb068	-0.23114169
217	0xbe637a54	-0.22214633
218	0xbd9e7179	-0.07736487
219	0x3c94dc20	0.01817137
220	0xbcb120fb	-0.021622172
221	0x3c0e9c98	0.008704327
222	0xbc5c2485	-0.013436441
223	0x3e317416	0.1732944
224	0x3cdc090d	0.026859784
225	0xba4e3a55	-0.00078669685
226	0x3d295bc9	0.0413473
227	0x3c2c5b8a	0.0105198715
228	0x3d5598bd	0.052147616
229	0xbd89da70	-0.06731117
230	0x3da09aee	0.078420505
231	0x3d747683	0.059683334
232	0x3da1de29	0.07903702
233	0x3da36a83	0.079793
234	0xbbefbd67	-0.0073162797
235	0xbd49113f	-0.049088713
236	0xbd5bc565	-0.053655047
237	0x3d4c2348	0.049838334
238	0x3dd8d10a	0.10586746
239	0x3de7d787	0.113204055
240	0x3dfc8532	0.123300925
241	0x3dc1c40d	0.09461222
242	0x3db723bc	0.08942363
243	0x3dae4776	0.08509724
244	0x3da0dba3	0.078543924
245	0xbe28f989	-0.1650144
246	0xbe48052b	-0.19533221
247	0xbe697f07	-0.22802363
248	0xbd2621a7	-0.040559437
249	0xbcaeff01	-0.02136183
250	0xbcc28ae3	-0.023747867
251	0x3c28d0c4	0.01030368
252	0x3dd0ce96	0.10195653
253	0x3da3fa7c	0.080067605
254	0x3e358fc4	0.17730623
255	0x3e711d5f	0.2354636

sfeb.4.weight f4 [32]
0	0x3f3eb9e6	0.7450241
1	0x3ed850ff	0.42249295
2	0x3f4ae04b	0.79248494
3	0x3f958259	1.1680404
4	0x3eaab292	0.33339363
5	0x3ebb4145	0.36573234
6	0x3f11ecdc	0.57002044
7	0x3a17e0ee	0.000579371
8	0x3ee064b8	0.43826842
9	0x3f063863	0.5242979
10	0x3c612711	0.013742224
11	0x3f1ff58c	0.6248405
12	0x3f18004d	0.5937546
13	0x3f3f75ec	0.7478931
14	0x3f6722bc	0.90287375
15	0xba435dbe	-0.00074526283
16	0x3f17367e	0.59067523
17	0x3ed8e59d	0.4236268
18	0x3f0edd1f	0.55806154
19	0x398260bf	0.00024867614
20	0x3f047067	0.5173401
21	0x3f108651	0.5645495
22	0x3f38ef06	0.7223972
23	0x3edd3219	0.43202284
24	0x3a1fd5c5	0.0006097223
25	0x3a465608	0.000756592
26	0x3ec7db60	0.39034557
27	0x3f0a23b2	0.53960717
28	0x3eb897c5	0.3605329
29	0x3f0b1d07	0.5434117
30	0x3edd623c	0.4323901
31	0x3eccc58a	0.3999446

sfeb.4.bias f4 [32]
0	0x3e2bedb0	0.1678989
1	0xbe4d4e06	-0.20049295
2	0xbe12df25	-0.14342935
3	0xbd168900	-0.036751747
4	0xbd64979c	-0.05580865
5	0x3b817170	0.0039502904
6	0x3e08f61f	0.13375138
7	0xbd864110	-0.065553784
8	0x3d3c24e2	0.04593361
9	0xbd8b737f	-0.068091385
10	0xbcbdf626	-0.023188662
11	0x3d390bfe	0.045177452
12	0x3ddcfcb0	0.10790384
13	0x3da1644b	0.078804575
14	0x3d1d1b74	0.03835626
15	0xbd1e9b8c	-0.03872256
16	0xbd92e668	-0.07172853
17	0x3d73393a	0.059380747
18	0xbd44a5f5	-0.04800983
19	0xbcb0323c	-0.021508329
20	0x3994485a	0.00028282666
21	0xbe1c22ab	-0.152476
22	0xbda3f260	-0.08005214
23	0x3d110267	0.03540268
24	0xbc92381c	-0.01784902
25	0xbca12980	-0.019673109
26	0x3cf487c8	0.029849902
27	0xbd377efc	-0.044798836
28	0xbe0210db	-0.12701742
29	0xbdad2053	-0.08453431
30	0xbdde59db	-0.10856982
31	0x3d953380	0.072852135

sfeb.4.running_mean f4 [32]
0	0xbcb7915d	-0.022408182
1	0xbe4fedf3	-0.20305614
2	0xbed26f85	-0.41100708
3	0xbe92e13a	-0.2868746
4	0xbea2aa0e	-0.31770366
5	0xbe36e599	-0.17861022
6	0xbe13e5ec	-0.14443177
7	0x3c3217d8	0.010869943
8	0xbe83a4d3	-0.25711688
9	0xbe0dbd5c	-0.13841766
10	0xbd2c6adf	-0.042094108
11	0xbe5a1b6d	-0.21299525
12	0xbd8e1a98	-0.06938666
13	0x3e0034f8	0.12520206
14	0xbe404d1e	-0.18779418
15	0xbb18f686	-0.0023340299
16	0xbe95bb34	-0.29244387
17	0xbe84655d	-0.25858584
18	0xbe966456	-0.29373425
19	0xbbf16c9d	-0.007367684
20	0xbea9a4f5	-0.33133665
21	0xbef37510	-0.4755025
22	0xbeb4cfb3	-0.35314712
23	0xbe715b68	-0.23570025
24	0xbc8b218a	-0.016983766
25	0xbc7a4b1a	-0.015276695
26	0xbeadf13e	-0.33973116
27	0xbe0927c5	-0.13394077
28	0xbeb96526	-0.36209983
29	0xbecac9f4	-0.39607203
30	0xbd8ec550	-0.06971228
31	0xbd2a922a	-0.0416433

sfeb.4.running_var f4 [32]
0	0x3ea72b15	0.32650056
1	0x3eaa0d60	0.3321333
2	0x3f18ddc0	0.59713364
3	0x3f8c06db	1.0939592
4	0x3e96e98c	0.29475057
5	0x3eb04cd8	0.34433627
6	0x3ede5296	0.43422383
7	0x3bce6b87	0.0062994394
8	0x3e8e1bed	0.2775568
9	0x3e418f33	0.18902282
10	0x3b46f98c	0.0030361144
11	0x3eb847ca	0.3599227
12	0x3ee39a41	0.44453624
13	0x3f3885af	0.72078985
14	0x3f7a7d45	0.97847396
15	0x3ae9e596	0.0017844911
16	0x3ee36057	0.4440944
17	0x3f026721	0.5093861
18	0x3f2771f0	0.6540823
19	0x3aaf53b9	0.0013376392
20	0x3f0dba5b	0.5536248
21	0x3f2ca1d3	0.67434424
22	0x3f3bb334	0.7332032
23	0x3ee6d872	0.4508701
24	0x3a72585f	0.00092447357
25	0x3a4b7b8d	0.0007762246
26	0x3eea5683	0.45769128
27	0x3eeb963a	0.4601305
28	0x3ecb4724	0.39702713
29	0x3eecdcea	0.46262294
30	0x3e58e595	0.21181329
31	0x3e30dc5d	0.17271562

tfeb.0.weight f4 [13, 1, 3, 3]
0	0x3d085452	0.03328354
1	0x3a23f93f	0.0006255097
2	0xbbb2e715	-0.005459676
3	0x3b8b0936	0.0042430414
4	0x39ff6022	0.00048709015
5	0x3acc7845	0.0015599808
6	0x3affb216	0.001950803
7	0x3bc7111f	0.006075039
8	0x3bc913c9	0.006136392
9	0x3c117c63	0.008879754
10	0xbc25b768	-0.010114528
11	0x3c6b2100	0.0143511295
12	0x3c7d9608	0.015477665
13	0xbc3dbd18	-0.011580728
14	0x3c5b2867	0.013376332
15	0x3c828e46	0.015936982
16	0xbbf12229	-0.0073588085
17	0x3c86cee2	0.016456071
18	0x3e4dfe7a	0.20116606
19	0x3e0546f1	0.13015343
20	0xbece093b	-0.40241417
21	0x3ec4e754	0.3845774
22	0x3eedd8ce	0.4645447
23	0xbf2910f8	-0.6604152
24	0x3e4fdd32	0.20299223
25	0x3e1eb1a4	0.15497452
26	0xbee52f7b	-0.44762787
27	0xbe67b7d7	-0.22628723
28	0xbce2ccff	-0.02768564
29	0x3dfd1d65	0.12359122
30	0xbf15629d	-0.58353597
31	0x3ef5ebdb	0.48031506
32	0x3f072833	0.52795714
33	0xbe9a3b7e	-0.30123514
34	0x3e1aa59c	0.15102237
35	0x3e431031	0.19049145
36	0x3d199d12	0.03750331
37	0x3ed86ea8	0.42271924
38	0xbef5b779	-0.4799154
39	0x3db7c099	0.08972282
40	0x3de8883b	0.11354109
41	0xbea95452	-0.33072144
42	0xbe25e69a	-0.16201249
43	0xbd5c34f3	-0.053761434
44	0xbea235f2	-0.31681782
45	0x3d336397	0.04379615
46	0xbe1c037f	-0.15235709
47	0xbe3018c4	-0.17196947
48	0x3cb7dfcc	0.022445582
49	0xbe56c529	-0.20973648
50	0xbe9513a3	-0.29116544
51	0x3e81de83	0.25365075
52	0xbe30a7c7	-0.17251502
53	0xbe037a16	-0.12839541
54	0x3f5eb90f	0.87001127
55	0xbef4ccbb	-0.47812447
56	0xbefae46d	-0.490024
57	0x3f6a8762	0.9161283
58	0xbf0890eb	-0.5334613
59	0xbf253f93	-0.6455013
60	0x3edfa7fc	0.4368285
61	0xbe97a415	-0.29617372
62	0xbeeaa9cd	-0.45832673
63	0xbdf0732b	-0.117407165
64	0xbe2dc09e	-0.16968009
65	0xbe064657	-0.1311277
66	0xbdbe220b	-0.09283837
67	0xbe20ac6e	-0.15690777
68	0xbdf1d5cc	-0.11808357
69	0x3dda700d	0.10665903
70	0x3e6528b9	0.22378816
71	0x3e014199	0.1262268
72	0xbe2ca62c	-0.16860265
73	0xbe963fce	-0.29345554
74	0xbdf84db3	-0.12124195
75	0xbe1e1882	-0.15439036
76	0xbe83d430	-0.25747824
77	0xbd8217cd	-0.06352196
78	0xbdd231de	-0.10263418
79	0xbe310c0a	-0.17289749
80	0xbde121f4	-0.10992804
81	0xbd450834	-0.048103526
82	0xbda367f1	-0.079788096
83	0x3d47a520	0.04874146
84	0xbde03e74	-0.10949412
85	0xbe1006d6	-0.14065108
86	0xbcf12e9c	-0.02944117
87	0x3de30707	0.11085325
88	0xbeea0a04	-0.45710766
89	0x3edc9371	0.4308124
90	0x3ea1aed4	0.31578696
91	0x3dec3a74	0.115345865
92	0x3de996df	0.114057295
93	0x3e924177	0.2856557
94	0x3d76d617	0.060262766
95	0x3d7fd491	0.06245858
96	0xbd87fe56	-0.066403076
97	0xbda51d87	-0.080622725
98	0xbcdac58a	-0.026705522
99	0xbd9e6186	-0.07733445
100	0xbe354e32	-0.1770561
101	0xbd659f75	-0.056060273
102	0xbe3b41eb	-0.18286864
103	0xbe7f7b13	-0.24949293
104	0xbe05e44b	-0.13075368
105	0x3caf5f60	0.021407783
106	0xbdf0de1c	-0.11761114
107	0xbd33a5bb	-0.043859225
108	0xbe90ac3d	-0.28256407
109	0xbe676ba9	-0.22599663
110	0x3e9fae75	0.31187788
111	0xbf26ed6c	-0.6520603
112	0xbf0fd708	-0.56187487
113	0x3f8e67f4	1.1125474
114	0xbeb947e7	-0.3618767
115	0xbe9501fb	-0.29103073
116	0x3ea8d644	0.32975972

tfeb.1.weight f4 [13]
0	0xba57d91d	-0.00082339515
1	0xbb10521d	-0.00220216
2	0x3e9571bb	0.29188332
3	0x3e8f4406	0.27981585
4	0x3eb665dd	0.3562459
5	0x3ea10a0e	0.31452984
6	0x3f137a92	0.576089
7	0x3e9a8a3c	0.3018359
8	0x3f6aeb1a	0.91764987
9	0x3ec6d2b9	0.38832644
10	0x3e8a8b95	0.27059618
11	0x3efec107	0.49756643
12	0x3efd0451	0.49417356

tfeb.1.bias f4 [13]
0	0xbc456213	-0.0120473085
1	0xbc69966b	-0.014257054
2	0x3e24199a	0.16025391
3	0x3e720147	0.236333
4	0x3e95d54e	0.292643
5	0x3ebc30a5	0.36755863
6	0x3d09e09b	0.033661466
7	0x3d61024e	0.05493384
8	0xbe954628	-0.29155087
9	0xbd0450fc	-0.032303795
10	0x3e44568b	0.19173639
11	0x3cfd49ba	0.030918945
12	0x3e1405ec	0.14455384

tfeb.1.running_mean f4 [13]
0	0x3c8ca435	0.017168144
1	0x3c9ee596	0.019396584
2	0x3c48b608	0.012250431
3	0x3dff64e1	0.12470413
4	0xbe7039d9	-0.23459567
5	0xbe95a3b1	-0.2922645
6	0xbe7929db	-0.24332373
7	0xbe036ae0	-0.12833738
8	0xbf033db4	-0.51266026
9	0xbdd3d845	-0.103439845
10	0x3e90e2f1	0.28298143
11	0xbebb0c64	-0.3653289
12	0xbe5f01f0	-0.21778083

tfeb.1.running_var f4 [13]
0	0x3a3cc175	0.0007200458
1	0x3a5dc86f	0.0008460348
2	0x3db63408	0.08896643
3	0x3e04b793	0.12960653
4	0x3e2fde99	0.17174758
5	0x3e5af5ed	0.21382876
6	0x3eaff4e5	0.34366527
7	0x3e0b5dcf	0.13610004
8	0x3f11540b	0.56768864
9	0x3d463419	0.048389528
10	0x3e71ce33	0.23613815
11	0x3e9c221e	0.3049478
12	0x3e813ca5	0.2524158

tfeb.4.weight f4 [25, 13, 3, 3]
0	0x3b193910	0.002337996
1	0xbb27e197	-0.002561664
2	0x3a8c8364	0.001072031
3	0xba59e70f	-0.00083123235
4	0xbb9e458a	-0.004830067
5	0xbb3febbc	-0.0029284796
6	0x3b14d534	0.0022710087
7	0xbab8d360	-0.0014101081
8	0xb9d25b1a	-0.00040122197
9	0x3ae1ffb3	0.0017242342
10	0xbbad377e	-0.005286156
11	0x3b77988a	0.003778013
12	0x3b0e7a47	0.0021740363
13	0xbbcefcbb	-0.006316749
14	0x3b42c59f	0.0029719842
15	0x3b3d274c	0.0028862534
16	0xbb414d12	-0.00294954
17	0x3b974cec	0.004617324
18	0x3d948221	0.072513826
19	0xbb5cc552	-0.0033686948
20	0x3d66f1ed	0.056383062
21	0xbdc3f4e1	-0.09568191
22	0xbe361437	-0.17781149
23	0xbe0d7b15	-0.13816483
24	0x3d5600f6	0.05224701
25	0xbdd379f0	-0.10325992
26	0xbd19afb6	-0.037521087
27	0xbd08bd67	-0.033383753
28	0xbd930a8b	-0.07179745
29	0xbc947ecd	-0.01812687
30	0xbd9dc04f	-0.077026956
31	0xbd730e25	-0.05933966
32	0x3984599c	0.00025243766
33	0xbddbed99	-0.107386775
34	0xbd0e9851	-0.03481323
35	0x3c17e37a	0.009270543
36	0x3da628db	0.08113261
37	0x3d4f05ae	0.050542526
38	0x3dbfc618	0.09363955
39	0xbca5ae5c	-0.020224743
40	0xbd5b588c	-0.05355124
41	0xbd7f08af	-0.06226414
42	0x3cc78179	0.02435373
43	0x3c2eaa1b	0.0106606735
44	0x3cabe1b1	0.020981641
45	0xbd71c39b	-0.059024435
46	0xbc07ebe9	-0.008295991
47	0xbd3ffca1	-0.046871785
48	0x3ce9a07b	0.028518906
49	0x3cd75a26	0.026288103
50	0xbd0f1332	-0.034930415
51	0x3d3473b0	0.04405564
52	0xbb58758d	-0.003302905
53	0x3ba0231f	0.0048869993
54	0x3dd59ff7	0.104309015
55	0x3db6517b	0.0890226
56	0xbd2db308	-0.042407066
57	0xbe13bb5a	-0.14426938
58	0xbd2d3138	-0.042283267
59	0xbe8e9d80	-0.27854538
60	0x3cf5e43d	0.030016059
61	0xbe0a0b9a	-0.13480988
62	0xbddad3eb	-0.106849514
63	0xbd59a2c2	-0.053133734
64	0xbcc31c0c	-0.023817085
65	0x3c845755	0.016154924
66	0x3d6b244f	0.057407673
67	0x3d8f5333	0.06998291
68	0x3da39cdd	0.07988904
69	0x3b3cf3d6	0.002883186
70	0xbc238f88	-0.009982951
71	0xbc6f1477	-0.014592282
72	0x3b3758c4	0.0027976492
73	0x3c5147ec	0.012773495
74	0x3d44cf66	0.048049353
75	0x3ce6d325	0.028176853
76	0xbad0e7cd	-0.0015938223
77	0xbb02d6c7	-0.0019964443
78	0x3db5b9cb	0.08873328
79	0x3d0de4e5	0.03464212
80	0xbb0538f4	-0.0020328136
81	0x3a025b18	0.00049726805
82	0xbded7c30	-0.115959525
83	0x3cd82ae6	0.026387643
84	0x3a4c0f39	0.0007784251
85	0xbdd724c9	-0.10505063
86	0x3cdd9a61	0.027051153
87	0xbcb4ade9	-0.022055583
88	0xbd9590c0	-0.073029995
89	0x3c13def3	0.009025323
90	0x3d7cad22	0.06168855
91	0x3dc49434	0.0959858
92	0x3d9eebde	0.07759832
93	0xbe177e90	-0.14794374
94	0xbda3da99	-0.080006786
95	0xbd912b97	-0.07088392
96	0xbd49a41d	-0.049228776
97	0xbcf5dd3c	-0.03001272
98	0xbc8c315c	-0.01711338
99	0xbd23665a	-0.039892532
100	0xbc3c66a1	-0.011499078
101	0xbc7b3545	-0.015332525
102	0x3d89cba3	0.06728294
103	0x3d49f48f	0.049305495
104	0x3c67b1b5	0.01414149
105	0x3d19aadd	0.037516464
106	0x3c9adf9d	0.018905455
107	0xbc9a2e15	-0.018820802
108	0x3cf22c58	0.02956216
109	0xbe3d86df	-0.1850848
110	0xbd06f4e2	-0.032948382
111	0x3d54b1b4	0.051927283
112	0xbe37e22c	-0.17957371
113	0xbc053122	-0.00812939
114	0xbbf10504	-0.0073553342
115	0xbd59f9a5	-0.053216595
116	0xbc9b2301	-0.01893759
117	0x3abb551e	0.0014292335
118	0xbaac01e3	-0.0013123121
119	0xb942edc8	-0.00018589862
120	0xba326c3f	-0.0006806291
121	0xba3f3d68	-0.0007295222
122	0xba21f6d5	-0.00061784434
123	0x3b07e8d8	0.002073815
124	0x3a90de88	0.0011052648
125	0xba0be7a8	-0.00053369487
126	0xbb25d486	-0.0025303676
127	0xbb28697d	-0.0025697642
128	0xba905b94	-0.001101362
129	0x3b2c4ca5	0.00262908
130	0x3a996bfd	0.0011705157
131	0x3b0d87d6	0.0021595857
132	0x3b28b9fa	0.0025745616
133	0x3afc90bd	0.001926921
134	0x3b603cd1	0.0034215937
135	0xbce9da32	-0.028546426
136	0xbc8521b3	-0.01625142
137	0xbda5655d	-0.08075974
138	0xbd0171e7	-0.031602766
139	0x3d6a7806	0.05724337
140	0xbd153493	-0.03642709
141	0x3d264a86	0.040598415
142	0x3d515e9e	0.051115625
143	0x3c12118d	0.008915317
144	0x3d67df52	0.05660946
145	0x3c909e78	0.017653689
146	0xbd1c98e6	-0.038231753
147	0x3ceba115	0.028763333
148	0xbd9ef395	-0.07761303
149	0xbe134b1b	-0.14384119
150	0x3d5eb50d	0.054371882
151	0xbc8f1b69	-0.017469125
152	0xbd7ad879	-0.0612416
153	0x3b5b853b	0.003349616
154	0xbda40168	-0.08008081
155	0xbd8cb202	-0.0686989
156	0xbdcfe2d2	-0.101506844
157	0xbe08e888	-0.13369954
158	0xbd94d4dc	-0.07267162
159	0xbd891d60	-0.06695056
160	0xbd805ea1	-0.06268049
161	0xbc603a05	-0.013685708
162	0x3cd4d9eb	0.025982818
163	0x3b927eba	0.0044706734
164	0xbcabc6c8	-0.02096881
165	0xbdad7dac	-0.08471236
166	0xbd8d5ad8	-0.06902093
167	0xbd2678d3	-0.04064257
168	0xbdc42f9f	-0.095793955
169	0xbdaddf8b	-0.08489903
170	0xbca93348	-0.020654336
171	0xbd26e784	-0.040748134
172	0xbd95ff3e	-0.07324074
173	0xbe356900	-0.17715836
174	0xbe44ea1a	-0.19229928
175	0xbd34d122	-0.044144757
176	0xbe28ee43	-0.1649714
177	0xbd81528c	-0.06314573
178	0xbd0c6796	-0.034278475
179	0xbd9e3462	-0.07724835
180	0x3db4ec03	0.08834078
181	0x3db5dd04	0.08880046
182	0x3d6a002c	0.05712907
183	0xbd9c9209	-0.076450415
184	0xbda154ad	-0.07877479
185	0xbd7e08ef	-0.06202024
186	0xb9c7a94d	-0.00038082377
187	0x3c8c7681	0.01714635
188	0x3d6863a6	0.056735657
189	0x3d2b6371	0.04184288
190	0x3c12f64e	0.008969856
191	0xbb99822d	-0.0046847076
192	0xbbbf2684	-0.005833449
193	0xbd0a48d8	-0.033760875
194	0xb93c788a	-0.00017973981
195	0xbc915f28	-0.01774557
196	0xbd04b645	-0.03240039
197	0x3c8b92f3	0.017037844
198	0x3d028a62	0.031870253
199	0xbd3d4484	-0.04620792
200	0xbcc24c15	-0.02371792
201	0xbd271387	-0.040790107
202	0xbe1773e8	-0.14790308
203	0xbdadead3	-0.08492055
204	0xbd140208	-0.03613475
205	0xbd57f7d5	-0.052726585
206	0xbc3d5187	-0.011555082
207	0xbd2d4db7	-0.042310443
208	0xbb4f4ce5	-0.0031631526
209	0xbd7b1a65	-0.06130447
210	0x3c428554	0.011872608
211	0x3dc4f7d5	0.09617583
212	0xbc91650a	-0.017748374
213	0x3d95edb8	0.07320732
214	0x3de75d98	0.112971485
215	0x3c9d9c35	0.019239524
216	0x3d9ead6c	0.07747921
217	0x3d81d525	0.06339482
218	0x3d3cefc6	0.046127103
219	0xbce87fc0	-0.028381228
220	0xbd2bcba6	-0.04194226
221	0xbc6ce8aa	-0.014459768
222	0xbd959c2a	-0.073051766
223	0xbd770688	-0.060308963
224	0xbb9dcb75	-0.0048155137
225	0x3d14644c	0.036228463
226	0xbdb3c9d1	-0.08778728
227	0xbdf9ea18	-0.12202853
228	0xbbde9027	-0.0067920866
229	0xbe5c7483	-0.2152882
230	0xbe4d5b07	-0.20054255
231	0xbda41612	-0.08012022
232	0xbdf9d09e	-0.12197994
233	0xbdd31e19	-0.10308475
234	0xba002044	-0.00048876205
235	0x3a91a4c7	0.001111173
236	0x3aa46d99	0.001254487
237	0xbb15bb7c	-0.0022847345
238	0xbc16090a	-0.0091574285
239	0xbb591bbd	-0.0033128106
240	0xbbac5e8f	-0.0052602957
241	0xba7af3de	-0.0009573082
242	0xbb3b964f	-0.0028623526
243	0xbb25ef93	-0.00253198
244	0x3a9c9785	0.0011947012
245	0xb8dd9e46	-0.00010567582
246	0xbbd536fb	-0.0065067983
247	0xbb3c59e5	-0.0028740105
248	0xbb9772cf	-0.0046218405
249	0xbb442113	-0.002992694
250	0xbac5746e	-0.0015064606
251	0x3acd3005	0.001565457
252	0xbce9e73f	-0.02855265
253	0xbd98115e	-0.074251875
254	0x3d9d8587	0.07691484
255	0xbd7ad702	-0.061240204

tfeb.5.weight f4 [25]
0	0x3ee03905	0.43793502
1	0x3e30c29d	0.17261739
2	0x3eac561b	0.33659443
3	0x3e8d383a	0.2758196
4	0x3ee69b34	0.45040286
5	0x3ebb5ac4	0.36592686
6	0x3e7a218f	0.24426864
7	0x3e8bd4ef	0.27310893
8	0x3f1d7b27	0.6151604
9	0x3ea7ebd8	0.32797122
10	0x3e65ce73	0.22442035
11	0x3f170c91	0.5900355
12	0x3ef51488	0.47867227
13	0x3f17fd84	0.5937121
14	0x3e3802bf	0.17969798
15	0x3e7d33d1	0.24726798
16	0x3eaa3a01	0.33247378
17	0x3e6e04ca	0.23244014
18	0x3eebb5c8	0.46037126
19	0x3e586a47	0.21134292
20	0x3ee27c8f	0.44235656
21	0x3e4c1425	0.1992956
22	0x3e69db16	0.22837481
23	0x3da51f58	0.08062619
24	0x3e598d25	0.21245249

tfeb.5.bias f4 [25]
0	0x3d1db562	0.03850306
1	0x3e71bbdd	0.2360682
2	0xbc829ea4	-0.015944786
3	0x3d2314db	0.03981481
4	0xbd3a89e2	-0.04554165
5	0x3dc7f4c1	0.0976348
6	0x3e30af8b	0.17254464
7	0x3d488dcf	0.048963364
8	0xbda4271b	-0.08015271
9	0xbd29361b	-0.041311365
10	0x3dfbf0de	0.12301801
11	0xbda10075	-0.07861415
12	0xbe41abc9	-0.18913187
13	0xbdd29563	-0.102823995
14	0x3e37e5b9	0.17958726
15	0x3e0578fe	0.13034436
16	0xbcb0380d	-0.021511102
17	0xbd19ab98	-0.03751716
18	0xbd97ca66	-0.07411651
19	0x3e99cee6	0.30040663
20	0xbe17352b	-0.14766376
21	0x3e93fff2	0.28906208
22	0x3e7dc547	0.24782287
23	0x3d80af61	0.06283451
24	0xbd77897b	-0.060433846

tfeb.5.running_mean f4 [25]
0	0xbeeb813d	-0.45997038
1	0xbf737e03	-0.95114154
2	0xbd757399	-0.059924696
3	0x3d633ffe	0.05548095
4	0xbf23e54c	-0.64021754
5	0xbecb8c74	-0.39755595
6	0xbeeba972	-0.46027714
7	0xbebf38fb	-0.3734816
8	0xbef6c1a5	-0.48194614
9	0xbedcc22e	-0.43116897
10	0xbedae528	-0.42752957
11	0xbee3ef70	-0.44518614
12	0x3dbdef64	0.09274176
13	0xbe94d23f	-0.29066655
14	0xbebd635c	-0.36989868
15	0xbe071959	-0.13193263
16	0xbf1925c4	-0.5982325
17	0xbdd37c32	-0.10326423
18	0xbed3c694	-0.4136244
19	0xbeb2829f	-0.3486528
20	0xbd98ac26	-0.0745471
21	0xbf1a3931	-0.6024352
22	0xbe118c78	-0.14213741
23	0xbe5cd92c	-0.2156722
24	0x3deccc1e	0.1156237

tfeb.5.running_var f4 [25]
0	0x3e31e7db	0.17373602
1	0x3e258ebb	0.16167729
2	0x3dff2d46	0.12459807
3	0x3d13c591	0.036077086
4	0x3e411494	0.18855506
5	0x3de0d61d	0.10978339
6	0x3db5b6fe	0.088727936
7	0x3d770d85	0.060315628
8	0x3e71d91d	0.23617978
9	0x3d899424	0.06717709
10	0x3e0dc0ab	0.13843028
11	0x3e7f5860	0.24936056
12	0x3dc0d422	0.09415461
13	0x3dd011a5	0.101596154
14	0x3d9f36c3	0.07774117
15	0x3dd6f5ec	0.104961246
16	0x3da326a8	0.079663575
17	0x3ccd8813	0.0250893
18	0x3def3749	0.11680467
19	0x3da13861	0.078720815
20	0x3dd14bda	0.10219546
21	0x3e64118e	0.22272322
22	0x3dfe69d3	0.12422528
23	0x3c611b52	0.013739424
24	0x3cef481f	0.029209195

tfeb.7.weight f4 [28, 25, 3, 3]
0	0x3cb144a7	0.021639181
1	0x3cadce4c	0.021216534
2	0x3d28049a	0.041020013
3	0x3cdcbe0a	0.026946086
4	0x3c813933	0.015774345
5	0x3bd31ab5	0.0064423927
6	0x3c1d6653	0.0096069155
7	0x3d0f4e89	0.034987006
8	0x3cf6079d	0.030032927
9	0x3bd69182	0.0065481076
10	0xbc8303a8	-0.015992954
11	0xbcd0ca53	-0.0254871
12	0x3d95d9e0	0.07316947
13	0x3dc64323	0.09680774
14	0x3d877a18	0.066150844
15	0x3d09e6bc	0.03366731
16	0x3c791f12	0.015205162
17	0xbc98f3b1	-0.018670889
18	0xbcf52522	-0.029924933
19	0xbc519ce0	-0.01279375
20	0xbd0318aa	-0.032005943
21	0xbde99993	-0.11406245
22	0xbda9f630	-0.0829891
23	0xbd8407ae	-0.06446777
24	0xbcd035af	-0.025416223
25	0x3c8592d6	0.016305368
26	0x3d0dd637	0.03462812
27	0xbd177c02	-0.036983497
28	0xbce2ae47	-0.027670993
29	0xbd0b4a46	-0.03400638
30	0xbd20ddc2	-0.039273985
31	0xbd4ca6f0	-0.04996389
32	0xbca8d1d9	-0.020607876
33	0xbb89b580	-0.0042025447
34	0xbca549f4	-0.020176865
35	0x3da86294	0.08221927
36	0x3ba3e3e8	0.005001534
37	0x3d2a6a5e	0.041605346
38	0x3d93ec5f	0.072228186
39	0x3d1a950e	0.037739806
40	0x3d7ca7e7	0.06168356
41	0x3d9b42ae	0.075810775
42	0x3b66f3ef	0.003524061
43	0x3cd5c3ce	0.026094344
44	0x3d509749	0.050925527
45	0xbd906900	-0.07051277
46	0xbd4d5149	-0.050126348
47	0xbb75c5c8	-0.003750192
48	0xbc88c98a	-0.016697664
49	0x3ce77abb	0.028256765
50	0x3cc04e3b	0.023474803
51	0xbd1742ec	-0.036929056
52	0x3c945cba	0.018110622
53	0x3c950bb1	0.018194051
54	0xbde08194	-0.10962215
55	0xbd16bb4d	-0.036799718
56	0xbd59c007	-0.053161647
57	0x3bda9563	0.0066706403
58	0xbbdf77d7	-0.006819706
59	0xbd4aecb7	-0.049542155
60	0x3c1a6b2f	0.009424969
61	0x3d1514b3	0.036396693
62	0xbb37c8e3	-0.0028043322
63	0xbc6d5b8f	-0.014487161
64	0xbc78aa6c	-0.0151773505
65	0x396a0d8c	0.00022321026
66	0x3c19653c	0.009362515
67	0x3d5ad819	0.053428743
68	0x3cf3f40a	0.029779453
69	0x3b266bab	0.0025393765
70	0x3cccca04	0.024998672
71	0x3c66865c	0.01407012
72	0xbd36ab08	-0.0445967
73	0xbc2ea7cb	-0.010660122
74	0xbd0f0c8b	-0.03492407
75	0x3d299ef6	0.041411363
76	0x3de82a8f	0.113362424
77	0x3d9498df	0.0725572
78	0x3c1c61eb	0.00954483
79	0x3d36eda2	0.044660218
80	0x3d4fc621	0.05072606
81	0x3c2cc3e0	0.010544747
82	0x3c00106a	0.007816413
83	0x3c9e8586	0.019350778
84	0x3bdf3263	0.0068114265
85	0x3ca8d8f0	0.020611256
86	0x3c4e388c	0.012586724
87	0x3c8716c7	0.016490353
88	0x3ce02b68	0.027364448
89	0x3c670004	0.014099125
90	0xbd028da5	-0.031873364
91	0xbcd6f3e4	-0.026239343
92	0xbd81d511	-0.06339467
93	0x3d88e2f6	0.06683914
94	0x3db0c4e7	0.08631306
95	0x3d859e0b	0.06524285
96	0x3ccbe869	0.024891095
97	0x3b4c5ffa	0.0031185136
98	0xbd657e06	-0.05602839
99	0xbb0abe55	-0.0021170576
100	0x3d326369	0.043551836
101	0x3d268ec1	0.040663484
102	0x3cca178f	0.024669437
103	0x3dae0fc9	0.084991045
104	0x3d1ef11e	0.038804166
105	0xbd2870c5	-0.04112317
106	0xbaf80a4d	-0.0018923968
107	0xbd706ea4	-0.058699265
108	0xbd077c5f	-0.033077594
109	0xbb954aab	-0.0045560203
110	0xbb9ee318	-0.004848849
111	0xbd00b5fd	-0.031423558
112	0xbce8b69b	-0.028407386
113	0xbc04fee3	-0.00811741
114	0x3b8096d2	0.003924229
115	0xbd083ca8	-0.03326097
116	0x3d347a6e	0.04406207
117	0xbc9979d8	-0.018734857
118	0xbc608862	-0.013704391
119	0x3c05190e	0.008123649
120	0x3bbda127	0.005787033
121	0xbbf6d326	-0.007532495
122	0xbcc49b71	-0.023999901
123	0x3ca6ad35	0.020346263
124	0x3a3a0b93	0.00070970616
125	0xbd112595	-0.03543623
126	0xbc99fe22	-0.018797938
127	0xbcb7da3d	-0.022442931
128	0xba990625	-0.0011674805
129	0xbcdf56bd	-0.02726304
130	0xbc917a27	-0.017758442
131	0xbcb590d6	-0.02216379
132	0x3d40704a	0.046982087
133	0x3d99364f	0.07481062
134	0x3d846de5	0.06466273
135	0x3d9710fb	0.07376286
136	0x3d825655	0.06364123
137	0x3d1927d2	0.03739149
138	0xbbc378dc	-0.0059653353
139	0x3b8235dc	0.0039737057
140	0x3d29ebd1	0.041484658
141	0xbda172c5	-0.07883219
142	0xbd9c8729	-0.07642967
143	0xbd090179	-0.03344867
144	0xbd4174ff	-0.047230717
145	0xbce40170	-0.027832717
146	0xbc2e3a3c	-0.010634001
147	0x3be3097c	0.006928621
148	0x3a98c81c	0.0011656317
149	0xbbea6ba5	-0.0071539455
150	0xbb130f0a	-0.0022439384
151	0x3cd0a85e	0.025470909
152	0x3d1229c5	0.035684366
153	0x3babdc43	0.005244763
154	0x3ca5af2c	0.02022513
155	0x3d3e3b18	0.046443075
156	0xbcaf13c3	-0.021371728
157	0xbccccaa9	-0.02499898
158	0x3bbd0e47	0.0057695243
159	0xbbf2cc29	-0.0074095917
160	0xbc614397	-0.013749025
161	0xbbc6bf5e	-0.006065293
162	0xbc16365b	-0.009168233
163	0xbca722ce	-0.020402338
164	0xbcdb4c33	-0.026769733
165	0xbae3ec3a	-0.0017389127
166	0x3d2a8457	0.041630115
167	0x3cf2c861	0.029636564
168	0x3d080404	0.033206955
169	0x3d85d5f2	0.065349475
170	0x3d1d65d7	0.0384272
171	0x3d0c571d	0.034262765
172	0x3c6b32c2	0.014355363
173	0x3ce07f95	0.027404586
174	0xbb5ac31e	-0.003338046
175	0xbcd9b622	-0.026576106
176	0x3d014722	0.03156198
177	0xbc0d78f1	-0.008634792
178	0xbcec9c6b	-0.02888318
179	0x3c607d52	0.013701754
180	0xbce0a53a	-0.027422536
181	0xbc1dc213	-0.00962879
182	0x3cc67ec7	0.024230374
183	0xbd256533	-0.040379714
184	0xbd666c50	-0.05625564
185	0xbd772ecf	-0.060347375
186	0x3c078b4e	0.008272959
187	0xbbfe2c80	-0.0077567697
188	0xbcded67e	-0.027201887
189	0xbd6e5e21	-0.058195237
190	0xbcedcf3e	-0.029029485
191	0xbb45b928	-0.0030170176
192	0x3d8903a7	0.0669015
193	0x3daf96f1	0.08573712
194	0x3dc978c1	0.09837485
195	0xbd0477eb	-0.032340925
196	0xbbc5de8a	-0.0060384916
197	0x3d501c27	0.0508081
198	0x3d0b2833	0.033973884
199	0x3d102606	0.035192512
200	0x3cde5a28	0.0271426
201	0xbd3e045e	-0.046390884
202	0xbd82995a	-0.06376906
203	0xbd9d9850	-0.07695067
204	0x3dab3923	0.08360507
205	0x3dc7860d	0.09742365
206	0x3db1a2c6	0.08673625
207	0x3b9c1af9	0.0047639576
208	0xbb8f82ab	-0.0043795905
209	0xbbac9854	-0.0052671824
210	0x3ce38f73	0.027778363
211	0x3ccaa94b	0.024738928
212	0x3d1b030a	0.037844695
213	0x3c3f6b35	0.011683275
214	0xbc2e35c5	-0.010632937
215	0x3c3765cc	0.011193704
216	0xbc4c2c7a	-0.012461776
217	0xbcd4000b	-0.025878927
218	0xbab71558	-0.0013968153
219	0x3cb4d3c3	0.022073632
220	0x3cc46a1b	0.023976376
221	0x3d89425c	0.0670211
222	0xbcb0dd1b	-0.021589806
223	0xbd001854	-0.0312732
224	0xbc2dead4	-0.010615069
225	0x3da4dce8	0.08049947
226	0xbd3a5ce5	-0.045498747
227	0xbd7b6960	-0.06137979
228	0x3d37ea0d	0.044900943
229	0xbdfd2a7f	-0.12361621
230	0xbe002bea	-0.12516752
231	0x3e27668b	0.16347711
232	0xbd336ccb	-0.043804925
233	0xbd87edc4	-0.06637147
234	0x3d1145f9	0.03546712
235	0x3c7c80c7	0.015411562
236	0x3d54d715	0.05196293
237	0x3dafad18	0.08577937
238	0x3d622598	0.055211633
239	0x3bf2b31d	0.007406606
240	0x3d3e0f4c	0.046401307
241	0xbb916e24	-0.0044381786
242	0xbcc9c2cf	-0.024629025
243	0xbd20759d	-0.039174665
244	0x3daa32a7	0.083104424
245	0x3d4dca0b	0.05024151
246	0xbd4b63bb	-0.049655657
247	0xbd68abf5	-0.056804616
248	0xbd790fe5	-0.060806174
249	0xbcd71efd	-0.026259894
250	0xbd8688fc	-0.065690964
251	0xbe1dd48d	-0.15413113
252	0x3cbe54b9	0.023233758
253	0xbc8365da	-0.016039778
254	0xbdade708	-0.08491331
255	0xbd7fe634	-0.0624754

tfeb.8.weight f4 [28]
0	0x3e7e0d62	0.24809793
1	0x3ef493d1	0.47769025
2	0x3e7a1205	0.24420936
3	0x3eb06ff1	0.34460405
4	0x3ed262ab	0.41090903
5	0x3eb7091e	0.35749143
6	0x3e945829	0.2897351
7	0x3e718c89	0.23588766
8	0x3e2bef05	0.16790397
9	0x3ed47d61	0.41501907
10	0x3e9615ef	0.2931361
11	0x3ed830ad	0.42224637
12	0x3e9b882d	0.3037733
13	0x3e6e4519	0.23268546
14	0x3e691591	0.22762133
15	0x3eb56b6c	0.3543352
16	0x3ec36c61	0.38168624
17	0x3ef7f192	0.4842649
18	0x3ed67635	0.4188706
19	0x3ec9882d	0.39361706
20	0x3f00ab1f	0.5026111
21	0x3eac616b	0.33668074
22	0x3e85f3f4	0.26162684
23	0x3e94db60	0.2907362
24	0x3ef7ee31	0.48423913
25	0x3eb65727	0.35613367
26	0x3ec603c2	0.38674742
27	0x3e6c24bc	0.23060888

tfeb.8.bias f4 [28]
0	0x3e0ef438	0.1396035
1	0xbdc0a09c	-0.09405634
2	0x3ca9d64f	0.020732073
3	0xbd40626e	-0.04696887
4	0xbdc32a8e	-0.09529601
5	0x3c90275a	0.01759689
6	0x3c875e7f	0.016524551
7	0x3db58bc5	0.088645495
8	0x3d2e6117	0.04257306
9	0xbd809d61	-0.06280018
10	0xbe179e77	-0.14806543
11	0xbd9e2a4b	-0.077229105
12	0xbcf59ac9	-0.029981034
13	0x3dc6638b	0.09686955
14	0x3e311c42	0.17295936
15	0xbd2c5f80	-0.042083263
16	0xbdf869b6	-0.12129538
17	0xbdc85222	-0.097812906
18	0xbd660bdc	-0.056163654
19	0xbd97eb66	-0.074179456
20	0xbe3b2cd0	-0.18278813
21	0xbd01e2ec	-0.03171055
22	0x3da64a01	0.08119584
23	0xbc92a309	-0.017900007
24	0xbd13b9d4	-0.03606589
25	0xbd453614	-0.048147276
26	0xbc9abec6	-0.018889796
27	0x3de1a260	0.11017299

tfeb.8.running_mean f4 [28]
0	0x3e5747d5	0.21023495
1	0xbe91e6dc	-0.28496444
2	0xbe14353b	-0.14473431
3	0xbd96a163	-0.07355001
4	0xbeb0492a	-0.3443082
5	0x3c3a2ece	0.011363698
6	0xbe8a0148	-0.26954103
7	0xbe925343	-0.2857915
8	0xbd8bfe80	-0.068356514
9	0x3d8cc362	0.06873204
10	0x3de5dbab	0.11223539
11	0x3e27220e	0.16321585
12	0xbdf9469c	-0.12171671
13	0x3ca4c7dd	0.020114833
14	0x3df6e964	0.120562345
15	0xbeddd89f	-0.4332933
16	0xbe8d4820	-0.2759409
17	0xbcc62347	-0.024186743
18	0xbe3c04dd	-0.1836123
19	0x3d6daa37	0.058023658
20	0xbe79dd1b	-0.24400751
21	0xbe75baa2	-0.23996976
22	0xbf2ade9c	-0.66745925
23	0xbe68be94	-0.2272895
24	0xbe012efb	-0.12615578
25	0xbdb57e48	-0.08861977
26	0xbeca0b4f	-0.39461753
27	0x3edf1a76	0.43574876

tfeb.8.running_var f4 [28]
0	0x3ce2b6d7	0.027675075
1	0x3ddd2ff7	0.10800164
2	0x3c832223	0.016007489
3	0x3d03a4f8	0.03213975
4	0x3d90bed5	0.07067648
5	0x3d0bd09e	0.0341345
6	0x3cc2d458	0.023782894
7	0x3d206ba5	0.039165158
8	0x3c091f22	0.008369239
9	0x3db51920	0.08842683
10	0x3ca7f5b6	0.020502906
11	0x3cfedaa4	0.031110115
12	0x3d8d2a07	0.06892782
13	0x3d601592	0.05470807
14	0x3d567fac	0.05236785
15	0x3d065387	0.0327945
16	0x3d637ddd	0.055539954
17	0x3e090760	0.1338172
18	0x3dc8bb3c	0.09801337
19	0x3d5d5ac9	0.054041658
20	0x3d96d626	0.07365064
21	0x3d939097	0.07205313
22	0x3d0e72b0	0.034777343
23	0x3d9a30ce	0.0752884
24	0x3d4fc147	0.050721433
25	0x3d104cd1	0.035229508
26	0x3cf1fe75	0.02954028
27	0x3d2be1e6	0.04196348

tfeb.11.weight f4 [32, 28, 3, 3]
0	0xbcb7b93d	-0.022427196
1	0xbcebf00e	-0.02880099
2	0xbd01fd0d	-0.03173547
3	0x3d08cd2c	0.033398792
4	0x3d1ae6c2	0.037817724
5	0x3cb4265d	0.02199095
6	0x3d902d02	0.070398346
7	0x3d6f5dc5	0.058439035
8	0x3d4a19db	0.049341064
9	0xbd08d30e	-0.033404402
10	0x3c170401	0.009217263
11	0xbb890e09	-0.0041825813
12	0x3b14fb8a	0.0022732937
13	0x3c4c9c69	0.012488463
14	0x3cf38c0b	0.029729864
15	0xbcadd808	-0.021221176
16	0xbb7d170d	-0.0038618476
17	0x3d00bb91	0.031428877
18	0xbc8c0377	-0.017091496
19	0xbcfec9b5	-0.03110204
20	0xbcd43943	-0.02590621
21	0xbc874f69	-0.016517358
22	0xbcc0cf5a	-0.023536373
23	0xbc90deb9	-0.017684327
24	0x3d01673b	0.03159259
25	0x3c91597c	0.017742865
26	0x3ccea6fe	0.025226112
27	0x3d0aa67a	0.03385017
28	0x3ccbc7a5	0.024875471
29	0x3cf62fca	0.030052084
30	0x3d2a6f25	0.041609902
31	0x3caf50eb	0.02140089
32	0xbb27384f	-0.002551574
33	0xbb9efbb1	-0.0048517813
34	0x3c804311	0.01565698
35	0xbcc96c6a	-0.024587829
36	0x3cc3009e	0.023804005
37	0x3c834a1e	0.016026553
38	0x3d1c6fce	0.038192563
39	0x3c9b384a	0.01894774
40	0x3ba52e4d	0.00504092
41	0x3cb16c98	0.021658227
42	0xbccd1747	-0.025035514
43	0xbd9aa58f	-0.07551109
44	0xbcb42143	-0.021988517
45	0xbc818f63	-0.015815442
46	0xbc9cc9a1	-0.019139113
47	0xbc29f02e	-0.010372205
48	0x3cbe024b	0.023194453
49	0x3c84f62b	0.016230663
50	0xbbfb21a1	-0.007663921
51	0xbcb38e7c	-0.021918528
52	0xbcbd91b7	-0.023140771
53	0x3be9b63e	0.0071323207
54	0x3c1d875d	0.009614793
55	0x3c7c63c7	0.015404648
56	0x3c536a58	0.012903772
57	0xbcbd6dcd	-0.023123646
58	0xbca323f8	-0.019914612
59	0xbc9000bb	-0.017578473
60	0xbbbf9ac1	-0.0058473055
61	0xbc9cc19e	-0.019135293
62	0xbb899e45	-0.0041997754
63	0xbd10a30f	-0.035311755
64	0xbc0fd775	-0.008779396
65	0xbc8e360a	-0.017359752
66	0xbd7a1a3f	-0.061060186
67	0xbd09d503	-0.03365041
68	0xbc8d5df6	-0.017256718
69	0xbce66850	-0.028125912
70	0xbc38afaf	-0.011272355
71	0x3cc3b314	0.023889102
72	0xbd0218fc	-0.03176211
73	0xbcfa33ca	-0.030542273
74	0xbcea9a4a	-0.028638024
75	0xbca9481f	-0.020664273
76	0xbcb4789c	-0.022030167
77	0xbc531314	-0.012882967
78	0x3b835377	0.0040077525
79	0x3b53c813	0.0032315298
80	0x3c1e7310	0.009670988
81	0xbba9dda2	-0.0051838914
82	0x3ba9267e	0.0051620593
83	0x3cf14fe0	0.029457033
84	0x3c820910	0.015873462
85	0x3d4a390c	0.04937081
86	0x3cdc8d89	0.026922958
87	0xbb61723b	-0.0034400362
88	0x3c806261	0.01567191
89	0x3d097c9c	0.033566102
90	0x3c45619c	0.012047198
91	0x3c3da119	0.011574053
92	0x3c360c5a	0.011111343
93	0x3d1b7c79	0.037960503
94	0x3d191271	0.037371103
95	0x3c2169b1	0.009851859
96	0x3d03d6ca	0.03218726
97	0x3d2a2552	0.041539498
98	0x3d07fbdb	0.033199172
99	0x3b9f4fd4	0.004861811
100	0x3d2ad6ac	0.041708633
101	0x3cab3971	0.020901414
102	0xbc2f7cbb	-0.01071089
103	0x3c44c1ea	0.012009123
104	0xbc9e6d57	-0.019339247
105	0x3ccc614e	0.024948742
106	0x3cbbbd46	0.022917401
107	0x3ca4d023	0.020118779
108	0xbd3c51f2	-0.045976587
109	0xbd71cc3b	-0.05903266
110	0xbd5c7801	-0.053825382
111	0xbd929653	-0.07157578
112	0xbda4c5c9	-0.08045537
113	0xbd8fcff2	-0.07022084
114	0x3cc26753	0.02373091
115	0x3d183d5f	0.037167903
116	0x3d511531	0.0510456
117	0xbcd5caf5	-0.026097754
118	0xbcb1a6d5	-0.021685997
119	0xbc5cf5a0	-0.013486296
120	0x3c659e2f	0.014014765
121	0x3c5af82e	0.013364835
122	0x3c9d2dc3	0.01918686
123	0x3c09b28c	0.008404385
124	0x3cdca719	0.026935147
125	0x3d2fbb0b	0.042902987
126	0xbd92f8a9	-0.071763344
127	0xbd99cf75	-0.075102724
128	0xbda32f80	-0.07968044
129	0x3ccf4390	0.025300771
130	0x3caefab1	0.021359773
131	0x3d21c79c	0.039497003
132	0x3d348f5b	0.044082027
133	0x3cf0c058	0.029388592
134	0x3d38725f	0.045030948
135	0x3cca0fce	0.02466574
136	0x3d346b75	0.04404779
137	0x3d0f8287	0.03503659
138	0x3b702005	0.003664018
139	0x3c6d8122	0.01449612
140	0x3c97041a	0.018434573
141	0x3cacc70c	0.021091007
142	0xbb8e5edc	-0.004344804
143	0x3b88b70e	0.0041722124
144	0xbd1fa689	-0.03897718
145	0x3d00b52e	0.031422786
146	0x3bb75bf6	0.0055956794
147	0xbd3ca334	-0.04605408
148	0x3d24082b	0.040046852
149	0x3c9f12cc	0.019418143
150	0xbd4753e7	-0.048664
151	0x3cbf4ba2	0.023351494
152	0x3d5d5714	0.054038122
153	0xbd2efa9a	-0.04271946
154	0xbcfc9a68	-0.030835345
155	0xbd064eb8	-0.032789916
156	0xbd3d1fd1	-0.04617292
157	0x3d56890e	0.0523768
158	0x3d1cc73a	0.038275935
159	0xbd546e6e	-0.051863126
160	0xbaba6369	-0.00142203
161	0x3ceadcac	0.028669678
162	0x3c0888df	0.008333414
163	0x3bd0e805	0.006375315
164	0x3c8d3273	0.01723597
165	0xbb47e321	-0.003050037
166	0xbcdc45b5	-0.026888708
167	0xbd3b0867	-0.04566231
168	0xbc578086	-0.013153201
169	0xbd0d4805	-0.03449251
170	0xbd0fd6e7	-0.035117056
171	0xbb59649c	-0.003317154
172	0xbc18337a	-0.009289617
173	0xbb8845e7	-0.0041587236
174	0x3cecbe47	0.028899325
175	0x3d13c7a4	0.036079064
176	0x3d45b343	0.04826666
177	0xbcc8dd6d	-0.024519647
178	0xbc7bdc93	-0.015372413
179	0xbc2912e1	-0.0103194425
180	0x3c674a38	0.014116816
181	0xbbae754a	-0.0053240405
182	0x3b8bb5ce	0.004263616
183	0xbb896088	-0.0041924156
184	0xbcaf057e	-0.021364924
185	0xbce42041	-0.027847411
186	0xbcb08a95	-0.021550456
187	0xbd225127	-0.039628174
188	0xbd29e1bd	-0.041475046
189	0xbd2adc9e	-0.041714303
190	0xbc8f9ed5	-0.017531792
191	0xbc942269	-0.018082814
192	0xbcef4f8a	-0.029212732
193	0xbb8efd09	-0.0043636602
194	0x3cc0b6b0	0.023524612
195	0xbd267c33	-0.04064579
196	0xbc4155bd	-0.011800227
197	0x3c2196bc	0.009862598
198	0xbcadf461	-0.021234693
199	0x3ccd4a91	0.02505997
200	0x3bf6fbd5	0.007537345
201	0xbd8689d9	-0.06569261
202	0xbc988b15	-0.018621007
203	0xbd0eeaa6	-0.034891747
204	0xbc81f767	-0.015865041
205	0x3c7d1797	0.015447519
206	0x3cabc7cc	0.020969294
207	0xbd47924e	-0.04872351
208	0xbcff3396	-0.031152528
209	0xbc8346ce	-0.016024973
210	0xbcc50eae	-0.024054851
211	0xbba9bd71	-0.005180054
212	0xbc796a68	-0.015223123
213	0xbcc4070c	-0.023929141
214	0xbaf8ab05	-0.0018971866
215	0x3b95ea76	0.004575069
216	0x3b8d6d10	0.00431598
217	0xbb1b9137	-0.0023737678
218	0x3c78a7d4	0.015176732
219	0xbad7cb13	-0.0016463719
220	0xbc7021bb	-0.0146564795
221	0xbc8b7570	-0.017023772
222	0xbddca4fd	-0.107736565
223	0xbdbfea92	-0.093709126
224	0xbdb1f0b5	-0.08688489
225	0xbc0d3ea1	-0.008620889
226	0xbb77f0ab	-0.0037832658
227	0x3b64a3ee	0.0034887749
228	0xbb3b8197	-0.0028611177
229	0x3bb3acc5	0.005483242
230	0x3c01074f	0.007875278
231	0x3cb31a54	0.02186314
232	0x3d32b3c4	0.04362847
233	0x3d6285d8	0.055303425
234	0x3b9c6ce7	0.0047737244
235	0x3c28060b	0.010255347
236	0x3c22677c	0.009912368
237	0x3bb72a3f	0.005589753
238	0x3c5bd7e6	0.013418173
239	0xbaf32b26	-0.0018552288
240	0xbc23eb02	-0.010004761
241	0x3c2380e1	0.009979458
242	0x3c1d7000	0.009609222
243	0xbd0348fc	-0.032052025
244	0xbd135a2a	-0.03597466
245	0xbd46a0c6	-0.04849317
246	0x3d5d3bc3	0.05401207
247	0x3d798297	0.060915556
248	0x3d89642f	0.06708562
249	0x3d82d525	0.0638831
250	0x3d750334	0.059817508
251	0x3d9353b2	0.07193698
252	0xbe0a383d	-0.13498016
253	0xbd8d1352	-0.06888451
254	0x3c2e9e02	0.010657789
255	0xbe17ecd0	-0.1483643

tfeb.12.weight f4 [32]
0	0x3ea06452	0.31326538
1	0x3eb14f30	0.34630728
2	0x3eb0f6eb	0.34563383
3	0x3e94f975	0.2909657
4	0x3e788557	0.24269615
5	0x3ee842cc	0.45363462
6	0x3ebe5454	0.37173712
7	0x3ed8461a	0.42240983
8	0x3f156ece	0.583722
9	0x3e9d2606	0.30693072
10	0x3eb48ff0	0.35266066
11	0x3ec97ef1	0.3935466
12	0x3eba3267	0.3636658
13	0x3e948e01	0.2901459
14	0x3eb4a014	0.3527838
15	0x3e879a78	0.26485038
16	0x3ebfbfcc	0.37451017
17	0x3e8833d1	0.26602033
18	0x3e9f0ce1	0.31064513
19	0x3e9c1196	0.30482167
20	0x3eb91bdb	0.36154065
21	0x3eb7150a	0.3575824
22	0x3ec55227	0.3853924
23	0x3e8d242e	0.27566665
24	0x3e8c6150	0.27417994
25	0x3ef17c5f	0.471652
26	0x3e316c60	0.17326498
27	0x3e83573e	0.25652498
28	0x3ea5345e	0.32266515
29	0x3ee1698e	0.44025844
30	0x3ed17e54	0.40916693
31	0x3f11c971	0.56948

tfeb.12.bias f4 [32]
0	0xbe5024f0	-0.2032659
1	0x3d3472fd	0.044054974
2	0xbe0d6ec1	-0.1381178
3	0xbd4754a5	-0.048664708
4	0xbdad42d3	-0.08460011
5	0xbe55ec06	-0.20890817
6	0xbda3fcaf	-0.0800718
7	0xbe2679cd	-0.16257401
8	0xbecd02b7	-0.40041134
9	0x3d5087da	0.05091081
10	0xbe03beab	-0.12865703
11	0xbdac3a73	-0.08409586
12	0xbdece38c	-0.115668386
13	0xbb42c00a	-0.0029716515
14	0xbe317a82	-0.1733189
15	0xbdab9838	-0.08378643
16	0xbe3bbb79	-0.18333234
17	0x3e226f63	0.15862803
18	0xbda8ad18	-0.0823614
19	0x3d38993e	0.04506802
20	0xbdddb6ec	-0.10825905
21	0xbe009759	-0.12557735
22	0xbd6b916c	-0.057511732
23	0x3e0b7084	0.1361714
24	0xbd08603f	-0.033294912
25	0xbd5f94d3	-0.05458529
26	0xbe0c52ef	-0.13703512
27	0xbd8358c9	-0.06413419
28	0xbda3e241	-0.08002139
29	0xbe378ac7	-0.17924033
30	0xbe370603	-0.17873387
31	0xbe441374	-0.19148046

tfeb.12.running_mean f4 [32]
0	0xbd59016b	-0.052979868
1	0xbf07ea76	-0.53092134
2	0xbe87426d	-0.26417866
3	0x3e0834cc	0.1330139
4	0xbe2657e8	-0.16244471
5	0xbf5c9b0c	-0.8617408
6	0xbe4f755c	-0.20259613
7	0xbecb6112	-0.39722496
8	0xbf3041f7	-0.68850654
9	0xbdfe6c6b	-0.12423023
10	0xbe84593e	-0.25849336
11	0xbf11f948	-0.57021
12	0xbeca9f57	-0.39574692
13	0xbf0ea19b	-0.5571534
14	0xbdd52844	-0.10408071
15	0xbd71d095	-0.05903681
16	0xbe976095	-0.29565874
17	0xbdd6c815	-0.10487381
18	0xbe15a8a6	-0.14615116
19	0xbee04664	-0.43803704
20	0xbea77688	-0.3270762
21	0xbf0fd6dd	-0.5618723
22	0xbeba2dc6	-0.36363047
23	0xbee354d5	-0.4440066
24	0xbdc0e5bb	-0.094188176
25	0xbf36aa97	-0.7135405
26	0xbe1a8ec8	-0.15093529
27	0xbd73497d	-0.059396256
28	0xbe066f11	-0.13128306
29	0xbec9cdf9	-0.39414957
30	0xbe87cbf9	-0.26522806
31	0xbf43f4ad	-0.7654522

tfeb.12.running_var f4 [32]
0	0x3d60b679	0.05486152
1	0x3eadf8af	0.33978793
2	0x3e04dce9	0.12974896
3	0x3dee9b2b	0.1165069
4	0x3ceade8e	0.028670575
5	0x3eb0f63e	0.34562868
6	0x3e4c4dd2	0.19951561
7	0x3e2a2843	0.16616921
8	0x3e866c54	0.26254523
9	0x3e0c6402	0.13710025
10	0x3e502c37	0.20329367
11	0x3e8d8b57	0.2764537
12	0x3e16f247	0.14740859
13	0x3e1395ad	0.14412566
14	0x3de22224	0.11041668
15	0x3df19e8f	0.11797821
16	0x3dd36daa	0.10323651
17	0x3ea09ab3	0.31368026
18	0x3dd14326	0.10217886
19	0x3e2cd775	0.16879065
20	0x3dc78afc	0.09743306
21	0x3e37f9a4	0.17966324
22	0x3e8857bd	0.2662944
23	0x3e98c289	0.2983592
24	0x3cd54b9c	0.02603703
25	0x3f0242ff	0.5088348
26	0x3c70bb87	0.0146931475
27	0x3de04340	0.10950327
28	0x3d8a3c76	0.06749813
29	0x3e94a945	0.29035392
30	0x3e1c9134	0.15289766
31	0x3ef0152f	0.46891162
