trained_models/step_5_retrain_after_step_4/retrain_4C_after_2nd_pruning_prunratio0.85_2024060419/retrained_4Cmodel_ratio85.0_vaacc93.2367172241211_tracc_82.64802631578947@840epoch_20240604232316.pt (torch, 309156 bytes, 62 tensors)

sfeb.0.weight f4 [8, 1, 1, 9]
0	0x3e7814d8	0.24226701
1	0x3e109e8f	0.14122985
2	0x3e8f1ea9	0.2795308
3	0x3eb06c9b	0.3445786
4	0x3db2a7e8	0.08723432
5	0xbe83f3b6	-0.25771874
6	0xbef20e31	-0.47276452
7	0xbe9103b9	-0.28323153
8	0xbd8c138e	-0.06839667
9	0x3b87ffcf	0.004150368
10	0x3c9f2bf3	0.019430136
11	0xbd69e5a8	-0.057103783
12	0xbe94b683	-0.29045495
13	0x3d6abe59	0.057310436
14	0xbe462a91	-0.19352175
15	0xbe94af74	-0.2904011
16	0x3eb6764d	0.3563713
17	0x3f0e7fdd	0.55663854
18	0xbe333e24	-0.17504174
19	0xbe655c13	-0.22398405
20	0x3e52da38	0.20591056
21	0x3d98365d	0.07432244
22	0xbe342026	-0.17590389
23	0xbe639596	-0.22225031
24	0x3dfe2242	0.12408878
25	0xbea0a839	-0.31378344
26	0xbed29fa9	-0.41137436
27	0x3f2e8de6	0.6818527
28	0x3ebc2a77	0.36751148
29	0xbd2fc45e	-0.04291188
30	0xbbc86ba6	-0.0061163483
31	0xbe281719	-0.16415061
32	0x3c86438e	0.016389634
33	0x3df5e40e	0.120063886
34	0xbc706337	-0.014672092
35	0x3da642d5	0.08118216
36	0xbf1c0670	-0.6094732
37	0xbeac157b	-0.33610138
38	0x3d7b4188	0.061341792
39	0x3dad6ec9	0.08468396
40	0x3e95890b	0.29206118
41	0x3e4902ed	0.19630022
42	0xbe37a0ef	-0.17932485
43	0x3d2479c1	0.040155176
44	0xbdfdd349	-0.12393815
45	0xbe9b5fee	-0.30346626
46	0xbd0516d4	-0.032492474
47	0x3e43cc90	0.19121003
48	0x3dad1706	0.08451657
49	0xbed57462	-0.41690356
50	0x3dafc67f	0.08582782
51	0x3f15b98f	0.58486265
52	0xbcfa5252	-0.030556832
53	0xbef92c6a	-0.48666698
54	0xbd412984	-0.047158733
55	0xbe5590ae	-0.20855972
56	0x3e6af302	0.22944263
57	0xbdae59e8	-0.08513242
58	0xbeeac4a4	-0.4585315
59	0x3ef95317	0.48696205
60	0x3c8c3367	0.017114354
61	0xbee0ca1c	-0.43904197
62	0x3ed3ff2d	0.4140562
63	0x3d3c9581	0.046041016
64	0x3c42044f	0.011841848
65	0xbe44e102	-0.19226459
66	0xbdfc5d77	-0.123225145
67	0x3e361189	0.17780127
68	0x3e5fe302	0.2186394
69	0xbc8fb6bc	-0.01754319
70	0x3ea1020e	0.3144688
71	0x3f0dbf19	0.55369717

sfeb.1.weight f4 [8]
0	0x3f6931cd	0.91091615
1	0x3f458ab6	0.7716478
2	0x3f332348	0.6997571
3	0x3f3f7c08	0.7479863
4	0x3f464b90	0.7745905
5	0x3f065843	0.52478427
6	0x3ef10e44	0.47081196
7	0x3f2e2e11	0.6803904

sfeb.1.bias f4 [8]
0	0x3cedd82a	0.02903374
1	0x3cd2f6d7	0.025752468
2	0x3d71656d	0.058934618
3	0x3e69a787	0.22817813
4	0x3d8f1658	0.069866836
5	0x3e4dd63f	0.2010126
6	0x3d56756e	0.052358083
7	0x3d1ffef3	0.039061498

sfeb.1.running_mean f4 [8]
0	0xb4015cf9	-1.2047884e-07
1	0xb6e29c2a	-6.7535047e-06
2	0x385b655a	5.230806e-05
3	0xb84885a4	-4.780818e-05
4	0x37d7e05c	2.5734473e-05
5	0x37716a39	1.4389451e-05
6	0x36a49483	4.90487e-06
7	0xb83f8b4f	-4.566769e-05

sfeb.1.running_var f4 [8]
0	0x3ca8b183	0.020592457
1	0x3c3c355e	0.011487333
2	0x3c1fe6df	0.009759634
3	0x3c903a2a	0.01760586
4	0x3c883999	0.016629027
5	0x3bf24790	0.007393785
6	0x3ae27037	0.0017275874
7	0x3c54b016	0.012981435

sfeb.3.weight f4 [32, 8, 1, 5]
0	0x3d644d22	0.055737622
1	0xbe34781f	-0.17623948
2	0xbc9f61eb	-0.01945587
3	0x3d45ffc1	0.04833961
4	0xbe11121d	-0.14167066
5	0xbd9f28e3	-0.077714704
6	0xbdea4833	-0.11439552
7	0xbd5ae364	-0.053439513
8	0xbb6f8fbc	-0.0036554178
9	0xbc5a1290	-0.01331009
10	0x3e728c60	0.23686361
11	0x3e4f0408	0.20216382
12	0x3e75e9a6	0.24014911
13	0x3e0d4016	0.13793978
14	0x3db1d192	0.086825505
15	0xbdd541f6	-0.10412972
16	0xbd299aec	-0.04140751
17	0xbe83c4f3	-0.25736198
18	0xbd4ffcd6	-0.050778233
19	0xbde3b667	-0.11118775
20	0x3e2190e6	0.1577793
21	0x3e32d14c	0.17462653
22	0x3d95cc09	0.07314307
23	0x3e34aaf4	0.17643338
24	0x3e177a35	0.14792712
25	0x3d619158	0.05507025
26	0xbc9ac960	-0.018894851
27	0xbd72f227	-0.059312966
28	0xbb6d0c25	-0.0036170569
29	0x3cd29d8d	0.025709892
30	0x3b54dfb1	0.0032481963
31	0xbcb561fe	-0.022141453
32	0x3d1c0fe8	0.038101107
33	0x3d159fa5	0.036529202
34	0xbc377fb0	-0.011199877
35	0xbd6da5a0	-0.05801928
36	0xbdbed4a2	-0.093179
37	0xbe16a93b	-0.14712994
38	0xbcdf2f76	-0.02724431
39	0xbd2c279e	-0.04202997
40	0xbe2ec596	-0.1706756
41	0xbe1d6fb9	-0.1537465
42	0xbd1b010a	-0.037842788
43	0x3d7e5e4f	0.06210166
44	0x3daf3e5d	0.08556817
45	0xbc3d0fb5	-0.011539389
46	0xbe13a30b	-0.14417665
47	0xbdea63f5	-0.114448465
48	0xbd0bf561	-0.03416956
49	0xbd83e5eb	-0.06440338
50	0x3db169e7	0.086627774
51	0x3da3d283	0.07999136
52	0x3d94d879	0.072678514
53	0x3e6c80d9	0.23096026
54	0x3e93067d	0.28715888
55	0xbe63e42c	-0.2225501
56	0xbddfddce	-0.10930978
57	0xbdc47e99	-0.09594459
58	0xbc80e370	-0.01573345
59	0xbd05209b	-0.032501798
60	0x3e155df4	0.14586622
61	0x3e0b4473	0.1360033
62	0x3c769a89	0.0150514925
63	0xbdaa4ae6	-0.08315067
64	0x3c4519fe	0.012030123
65	0xbbd69cf8	-0.006549474
66	0x3dde675b	0.10859557
67	0xbcbe2a5f	-0.023213563
68	0xbaf735e9	-0.0018860671
69	0x3c88fb84	0.016721494
70	0xbc4c6404	-0.012475017
71	0xbd4bbd03	-0.049740802
72	0xbc745b53	-0.0149143515
73	0xbdd36f0d	-0.10323916
74	0xbd112e1b	-0.03544436
75	0xbd80167d	-0.06254289
76	0xbd887900	-0.06663704
77	0xbe7d6b6c	-0.2474801
78	0xbe2d986d	-0.16952677
79	0xbdd5e07c	-0.104432076
80	0xbe072436	-0.13197407
81	0xbe54bc16	-0.20774874
82	0xbcf8a22a	-0.030350763
83	0xbc97c177	-0.018524868
84	0xbdbc1575	-0.0918378
85	0xbde79370	-0.11307418
86	0xbd793c60	-0.060848594
87	0xbd7aa76c	-0.061194822
88	0xbe37803b	-0.1792001
89	0xbe10df7b	-0.14147751
90	0x3e10efa4	0.14153916
91	0x3e5c2797	0.21499477
92	0x3e025321	0.12727024
93	0x3e3f6ca4	0.18693787
94	0x3e85987a	0.26092893
95	0xbe3f5081	-0.18683054
96	0xbdab045d	-0.083504416
97	0xbe43917b	-0.19098465
98	0xbde70581	-0.11280347
99	0xbdbe28bd	-0.09285114
100	0xbd429c65	-0.04751243
101	0x3c1cc878	0.00956928
102	0x3d3ac34f	0.045596417
103	0x3df3e2b5	0.11908475
104	0x3d4ceb82	0.050029285
105	0xbd29787c	-0.04137467
106	0x3d7c4cf3	0.061596822
107	0xbd51ab76	-0.05118891
108	0x3dcf667d	0.1012697
109	0x3d0fb7f4	0.03508754
110	0xbd361985	-0.04445793
111	0xbbf25a28	-0.0073960014
112	0xbd5c358e	-0.05376201
113	0xbd8a0fb1	-0.06741274
114	0xbdf01a9b	-0.117238246
115	0xbe13a1c5	-0.14417179
116	0xbe803f17	-0.25048134
117	0xbe84c456	-0.25931042
118	0xbe00cd2b	-0.12578265
119	0xbdff241b	-0.124580584
120	0xbdd66808	-0.10469061
121	0x3d66786b	0.056267183
122	0xbdff5764	-0.1246784
123	0xbd8fa03e	-0.07012986
124	0xbe6d516a	-0.23175588
125	0xbdff57a7	-0.1246789
126	0xbd0dcb9b	-0.034618
127	0x3d4c6776	0.049903356
128	0xbca81dfc	-0.02052211
129	0xbdb2a41d	-0.087227084
130	0xbea47500	-0.32120514
131	0xbe85ae42	-0.2610951
132	0xbe6853fc	-0.22688287
133	0xbe665c28	-0.22496092
134	0xbeaad6f7	-0.3336713
135	0x3dceae0d	0.10091791
136	0x3e51b1ac	0.20477933
137	0x3e90976a	0.2824052
138	0x3e1df2ff	0.15424727
139	0x3df691c5	0.12039522
140	0xbda3de1f	-0.080013506
141	0xbe008fc3	-0.1255484
142	0xbe8e1931	-0.27753595
143	0xbdbbf54d	-0.09177647
144	0xbddcc51a	-0.10779782
145	0x3d093e99	0.033506963
146	0xbe1aae88	-0.15105641
147	0xbe11b16e	-0.1422784
148	0xbe3c1f45	-0.18371303
149	0xbe315713	-0.17318372
150	0xbded0622	-0.11573435
151	0xbe380c76	-0.17973503
152	0xbe75f933	-0.24020843
153	0xbe12b604	-0.14327246
154	0xbdf6a5f7	-0.12043374
155	0x3e3931f1	0.18085457
156	0x3e4c51c9	0.19953074
157	0x3e6d5398	0.2317642
158	0x3eb60878	0.35553336
159	0x3ea28448	0.31741548
160	0xbe0d529e	-0.13801047
161	0xbdb50495	-0.088387646
162	0xbe09948f	-0.13435577
163	0xbdcddd78	-0.100520074
164	0xbd223a7e	-0.039606564
165	0x3d9e5689	0.07731349
166	0x3ca34e98	0.019934937
167	0x3c0b2bbc	0.008494314
168	0x3d8c9436	0.068642065
169	0x3c55d34e	0.013050867
170	0xbdfd7128	-0.123750985
171	0xbda760db	-0.081727706
172	0xbddec2a2	-0.10876967
173	0xbe385968	-0.18002856
174	0xbda38680	-0.07984638
175	0xbe4a9b81	-0.19785883
176	0xbe0639f4	-0.13108045
177	0xbcc4acb5	-0.024008134
178	0xbb95064f	-0.004547871
179	0x3d914299	0.070927806
180	0xbdde1f3d	-0.10845802
181	0xbcfa7c55	-0.030576864
182	0x3d40cda8	0.04707113
183	0xbd156213	-0.036470484
184	0xbdbc444d	-0.09192715
185	0xbd0e7eca	-0.034788884
186	0xbcff85ae	-0.031191673
187	0x3cd4cf88	0.025977865
188	0xbd607056	-0.054794632
189	0xbce36334	-0.027757265
190	0xbd290262	-0.041262038
191	0x3c18a59f	0.009316831
192	0xbcc9bb71	-0.024625512
193	0xbb25b0f2	-0.002528247
194	0xbd2b4537	-0.041814055
195	0xbd7c47b1	-0.061591808
196	0x3cfd0645	0.030886779
197	0x3dc1d565	0.0946453
198	0x3e00f7ec	0.12594575
199	0x3e3f84af	0.18702959
200	0xbd41bc65	-0.047298808
201	0xbe265e6f	-0.16246961
202	0xbe320a55	-0.17386754
203	0xbe4ea100	-0.20178604
204	0xbdbaf822	-0.09129359
205	0x3dc5bd3d	0.09655235
206	0x3e6b2d3e	0.22966477
207	0x3dda8bb7	0.1067118
208	0x3d845ed4	0.064633995
209	0x3e083656	0.13301978
210	0x3dc7215d	0.097231604
211	0xbd515d6e	-0.051114492
212	0xbcfdddc9	-0.030989544
213	0xbdb1e2f5	-0.08685867
214	0xbe403d1d	-0.18773313
215	0xbdd3dd67	-0.103449635
216	0xbe6980e8	-0.2280308
217	0xbe6086c1	-0.21926405
218	0xbd96f01f	-0.07370018
219	0x3cc23ecd	0.023711586
220	0xbca65597	-0.020304484
221	0x3c32fb19	0.010924124
222	0xbc03cd91	-0.008044616
223	0x3e31f17a	0.17377272
224	0x3cce1cd4	0.02516023
225	0x3a16baaa	0.0005749861
226	0x3d2cdc50	0.042202294
227	0x3c544792	0.012956517
228	0x3d4a561e	0.049398534
229	0xbd877e1e	-0.06615852
230	0x3da4992c	0.08037028
231	0x3d75f3a1	0.060046796
232	0x3da056ba	0.07829042
233	0x3da7a05b	0.08184882
234	0xbb9d3c3c	-0.0047984403
235	0xbd384180	-0.04498434
236	0xbd45183d	-0.04811882
237	0x3d49a8bf	0.049233194
238	0x3ddc6564	0.10761526
239	0x3ded1360	0.11575961
240	0x3dfed98d	0.12443838
241	0x3dce5109	0.1007405
242	0x3dbf2e84	0.09335044
243	0x3dacf383	0.08444884
244	0x3da8c358	0.08240384
245	0xbe27b6d7	-0.16378342
246	0xbe4245a6	-0.18971881
247	0xbe622c2e	-0.22087166
248	0xbd1267a4	-0.03574337
249	0xbc82576a	-0.015910823
250	0xbcb27b09	-0.021787183
251	0x3c647aac	0.013945263
252	0x3dd1908d	0.10232649
253	0x3da59624	0.08085278
254	0x3e364332	0.1779907
255	0x3e703812	0.23458889

sfeb.4.weight f4 [32]
0	0x3f3df055	0.7419484
1	0x3ed96fc7	0.42468092
2	0x3f4a9da0	0.79146767
3	0x3f933ede	1.150356
4	0x3ea98889	0.3311198
5	0x3ebdc907	0.37067434
6	0x3f12e359	0.57378155
7	0x3a165edc	0.0005736181
8	0x3edc336a	0.43007976
9	0x3f058c76	0.5216745
10	0x3c5ef594	0.013608355
11	0x3f1f102b	0.62134045
12	0x3f162be5	0.5866073
13	0x3f3e828c	0.7441795
14	0x3f658968	0.8966279
15	0xba416c6f	-0.00073785236
16	0x3f13fb56	0.57805383
17	0x3ed6fe86	0.4199106
18	0x3f10ca57	0.56558746
19	0x3981155f	0.0002462072
20	0x3f0548c0	0.5206413
21	0x3f0fbbf7	0.56146187
22	0x3f369e4f	0.7133531
23	0x3ed5f4c5	0.41788307
24	0x3a1e4089	0.0006036838
25	0x3a445d59	0.00074907165
26	0x3ec32fa0	0.38122272
27	0x3f05dd1d	0.5229052
28	0x3eb79b42	0.3586064
29	0x3f0af6b4	0.5428269
30	0x3ed82098	0.42212367
31	0x3ec93b9d	0.39303294

sfeb.4.bias f4 [32]
0	0x3e253bb0	0.1613605
1	0xbe3ae475	-0.18251212
2	0xbe12cf5c	-0.14336914
3	0xbd3dbde5	-0.046323676
4	0xbd842140	-0.064516544
5	0xbc4bd4e4	-0.012440894
6	0x3e0f3ac4	0.13987261
7	0xbd84ea2c	-0.06489977
8	0x3d185e1f	0.037199136
9	0xbd941860	-0.07231212
10	0xbcbc1012	-0.022956882
11	0x3d12bee6	0.035826586
12	0x3de4abc3	0.111655734
13	0x3dadee94	0.08492771
14	0x3d2c05d8	0.04199776
15	0xbd1d06f9	-0.038336728
16	0xbd853424	-0.06504086
17	0x3d7fe6f5	0.062476117
18	0xbcc08f6d	-0.02350589
19	0xbcae72d3	-0.021294987
20	0x3ae8b723	0.0017754774
21	0xbe193813	-0.14962797
22	0xbdb31d32	-0.08745803
23	0x3d145680	0.036215305
24	0xbc90c315	-0.017671147
25	0xbc9f8fab	-0.019477686
26	0x3ca84c8e	0.020544317
27	0xbd33c0a0	-0.043884873
28	0xbded4eb5	-0.11587278
29	0xbda1e00a	-0.0790406
30	0xbdda7729	-0.10667259
31	0x3d94b60f	0.072612874

sfeb.4.running_mean f4 [32]
0	0xbca544b3	-0.02017436
1	0xbe468628	-0.19387114
2	0xbebe17d8	-0.37127566
3	0xbe8f07e4	-0.27935708
4	0xbe98aa36	-0.2981736
5	0xbe291d2f	-0.16515039
6	0xbdf61422	-0.12015559
7	0x3c202b53	0.009775954
8	0xbe83bec8	-0.25731492
9	0xbdfb7c2b	-0.122795425
10	0xbd25b080	-0.040451527
11	0xbe598d55	-0.2124532
12	0xbd8203ac	-0.063483566
13	0x3dc1b1f1	0.09457768
14	0xbe409798	-0.18807828
15	0xbb2ad993	-0.0026069626
16	0xbe8bd716	-0.27312535
17	0xbe728a07	-0.23685466
18	0xbe8f3dda	-0.27976876
19	0xbbe9e8ce	-0.007138348
20	0xbe972107	-0.29517385
21	0xbeec6f47	-0.46178648
22	0xbea1230f	-0.3147206
23	0xbe66eb68	-0.22550738
24	0xbc87142f	-0.016489116
25	0xbc71ef72	-0.014766561
26	0xbea9461c	-0.33061302
27	0xbe1a6a23	-0.1507955
28	0xbeaaefa0	-0.33385944
29	0xbec1471d	-0.37749568
30	0xbd31bbc2	-0.04339195
31	0xbd6ece6f	-0.05830234

sfeb.4.running_var f4 [32]
0	0x3e9fab4e	0.31185383
1	0x3ea24b5a	0.31698114
2	0x3f0e7dea	0.5566088
3	0x3f82ee28	1.022893
4	0x3e8577c1	0.26067927
5	0x3ea11027	0.31457636
6	0x3ecff795	0.40618578
7	0x3bc340e7	0.0059586647
8	0x3e8b2f79	0.27184656
9	0x3e42d477	0.19026361
10	0x3b431b95	0.002977108
11	0x3ebe4307	0.37160513
12	0x3ed34bc9	0.41268757
13	0x3f2f6879	0.6851879
14	0x3f5a5c48	0.8529706
15	0x3aee7d29	0.001819526
16	0x3eee137b	0.46499237
17	0x3f00fde2	0.50387394
18	0x3f26a6b3	0.6509811
19	0x3aaf3bb7	0.0013369237
20	0x3f063532	0.5242492
21	0x3f24940a	0.6428839
22	0x3f2c3a2b	0.6727626
23	0x3ed473be	0.41494554
24	0x3a61874f	0.00086032314
25	0x3a42b731	0.00074278103
26	0x3edbd690	0.42937136
27	0x3edd2076	0.43188828
28	0x3ebc8e21	0.36827186
29	0x3ed652ed	0.41860142
30	0x3e483f49	0.19555391
31	0x3e29fa2b	0.16599338

tfeb.0.weight f4 [13, 1, 3, 3]
0	0x3d06fa67	0.032953646
1	0x3a2258d8	0.00061930483
2	0xbbb1216e	-0.0054055965
3	0x3b89a97d	0.004201113
4	0x39fcd798	0.00048225815
5	0x3aca7010	0.0015444774
6	0x3afd2893	0.001931446
7	0x3bc51694	0.0060146544
8	0x3bc7149b	0.0060754544
9	0x3c100bbb	0.008791859
10	0xbc2411b3	-0.010013985
11	0x3c68cbb4	0.014208723
12	0x3c7b11ce	0.015324069
13	0xbc3bd9ce	-0.011465503
14	0x3c58fc24	0.013243709
15	0x3c814238	0.015778646
16	0xbbeebc17	-0.0072856057
17	0x3c857805	0.016292581
18	0x3e481680	0.19539833
19	0x3e023124	0.12714058
20	0xbecadfea	-0.39623958
21	0x3ec09de8	0.37620473
22	0x3eedc368	0.46438146
23	0xbf288823	-0.6583273
24	0x3e4796e1	0.1949115
25	0x3e15fdf9	0.14647664
26	0xbee610f0	-0.44934797
27	0xbe624fa6	-0.22100696
28	0xbcbd7a91	-0.023129733
29	0x3dfd1163	0.12356832
30	0xbf147dc1	-0.58004385
31	0x3ef3c9a2	0.4761477
32	0x3f05677c	0.5211103
33	0xbe939f40	-0.28832436
34	0x3e2341c1	0.15943052
35	0x3e4b7a28	0.19870818
36	0x3ced413e	0.028961774
37	0x3ed13f87	0.4086878
38	0xbef71027	-0.4825451
39	0x3daa98e5	0.083299436
40	0x3de409f1	0.11134709
41	0xbea8efb2	-0.32995373
42	0xbe2778b6	-0.16354641
43	0xbd643402	-0.05571366
44	0xbea14e98	-0.31505275
45	0x3d12776e	0.03575843
46	0xbe1dfbb5	-0.1542805
47	0xbe34e552	-0.17665604
48	0x3cd863ef	0.02641484
49	0xbe526302	-0.20545581
50	0xbe91e82b	-0.28497443
51	0x3e758d7f	0.23979758
52	0xbe38624b	-0.18006246
53	0xbe0c0eb3	-0.13677482
54	0x3f5a1dbc	0.8520162
55	0xbef742ce	-0.48293155
56	0xbefcd201	-0.4937897
57	0x3f6604f6	0.8985132
58	0xbf0a0c8a	-0.53925383
59	0xbf25ff76	-0.6484293
60	0x3edd110c	0.43177068
61	0xbe964057	-0.29345962
62	0xbee54a27	-0.44783136
63	0xbdf31caa	-0.118707016
64	0xbe2f0ef5	-0.1709555
65	0xbe071dcc	-0.1319496
66	0xbdab1ff3	-0.08355703
67	0xbe1912c0	-0.14948559
68	0xbde17909	-0.11009414
69	0x3de18e6d	0.11013494
70	0x3e66863f	0.22512148
71	0x3e01c5a7	0.12673055
72	0xbe278e99	-0.1636299
73	0xbe95040b	-0.29104647
74	0xbdef9a59	-0.11699361
75	0xbe1e8d7f	-0.15483664
76	0xbe856692	-0.26054817
77	0xbd89d6f5	-0.06730453
78	0xbdcdee81	-0.10055257
79	0xbe2c9ae9	-0.16855969
80	0xbdd41c65	-0.10356978
81	0xbd3ee130	-0.046601474
82	0xbd9dbddc	-0.077022284
83	0x3d4285d0	0.047490895
84	0xbddcdf46	-0.107847735
85	0xbe0dca1c	-0.1384663
86	0xbcf2b7cf	-0.029628662
87	0x3dd4bd6b	0.10387691
88	0xbeed48cc	-0.46344602
89	0x3ed6df5d	0.41967288
90	0x3e9eae1e	0.30992216
91	0x3de147bd	0.11000011
92	0x3ded0961	0.115740545
93	0x3e91b180	0.28455734
94	0x3d7a0647	0.061041143
95	0x3d877e00	0.066158295
96	0xbd8de8b9	-0.06929154
97	0xbda5ab5b	-0.08089324
98	0xbcc5af1b	-0.024131348
99	0xbda58e13	-0.08083739
100	0xbe37980a	-0.17929092
101	0xbd618f6c	-0.05506842
102	0xbe356a61	-0.17716362
103	0xbe7db153	-0.24774675
104	0xbe00ffb6	-0.12597546
105	0x3cb19b4d	0.021680498
106	0xbdf10afa	-0.11769672
107	0xbd26e63f	-0.040746924
108	0xbe8fb9bd	-0.28071395
109	0xbe624b20	-0.2209897
110	0x3e9f333d	0.3109378
111	0xbf2528d6	-0.64515436
112	0xbf0e0589	-0.55477196
113	0x3f8d0ea9	1.1020099
114	0xbeba2898	-0.36359096
115	0xbe943a90	-0.2895093
116	0x3ea65923	0.3248988

tfeb.1.weight f4 [13]
0	0xba55b50d	-0.0008152284
1	0xbb0ecb53	-0.002178867
2	0x3e8cc587	0.2749445
3	0x3e9176d9	0.28410986
4	0x3eb52891	0.35382512
5	0x3e9e0e21	0.30870155
6	0x3f0fec29	0.56219727
7	0x3e9bb079	0.30408075
8	0x3f69d949	0.91347176
9	0x3ec6fe29	0.38865784
10	0x3e86f727	0.26360437
11	0x3efd3fd4	0.4946276
12	0x3ef703cc	0.48245084

tfeb.1.bias f4 [13]
0	0xbc436d25	-0.011927878
1	0xbc6745c9	-0.014115759
2	0x3e23125a	0.1592497
3	0x3e7359c1	0.23764707
4	0x3e9556b0	0.291677
5	0x3ebc04d3	0.3672243
6	0x3cd9c965	0.02658529
7	0x3d6c5c8d	0.05770545
8	0xbe95eccc	-0.29282224
9	0xbd0a4637	-0.03375837
10	0x3e450538	0.19240272
11	0x3d09c279	0.03363273
12	0x3e184b47	0.14872466

tfeb.1.running_mean f4 [13]
0	0x3c89f60a	0.016840953
1	0x3c9bcf19	0.01901965
2	0x3be293ec	0.0069146063
3	0x3e086ee8	0.13323557
4	0xbe78904a	-0.24273792
5	0xbe98a112	-0.29810387
6	0xbe81bc2b	-0.25338873
7	0xbdee64d0	-0.11640322
8	0xbf00721d	-0.50174123
9	0xbddbdea1	-0.107358225
10	0x3e8e726e	0.27821678
11	0xbeb6d6ea	-0.3571084
12	0xbe5bce1c	-0.21465343

tfeb.1.running_var f4 [13]
0	0x3a3b2000	0.0007138252
1	0x3a5b1af3	0.0008358203
2	0x3dc1d136	0.09463732
3	0x3e0babf1	0.13639809
4	0x3e3a6cc3	0.18205552
5	0x3e64a09a	0.2232689
6	0x3ebfc27e	0.37453073
7	0x3e02b707	0.12765132
8	0x3f0f2f22	0.55931294
9	0x3d4a8e5c	0.04945217
10	0x3e6da1b2	0.23206213
11	0x3e98db3c	0.29854763
12	0x3e875bee	0.26437324

tfeb.4.weight f4 [25, 13, 3, 3]
0	0x3b17b36a	0.002314771
1	0xbb263579	-0.0025361462
2	0x3a8b1cea	0.0010613475
3	0xba57bdc2	-0.0008229875
4	0xbb9cb29e	-0.004782035
5	0xbb3e03b8	-0.0028993916
6	0x3b135acf	0.0022484546
7	0xbab6fef3	-0.0013961479
8	0xb9d04449	-0.00039723728
9	0x3adfc135	0.001707113
10	0xbbab7f96	-0.0052337153
11	0x3b75230a	0.0037404918
12	0x3b0d1097	0.002152478
13	0xbbcceed1	-0.006254055
14	0x3b40d6a3	0.0029424808
15	0x3b3b45e4	0.0028575594
16	0xbb3f621a	-0.002920276
17	0x3b95cdcf	0.0045716534
18	0x3d91cedc	0.071195334
19	0xbb761077	-0.0037546435
20	0x3d5f40ea	0.054505266
21	0xbdc1a38e	-0.09455024
22	0xbe349a31	-0.17636944
23	0xbe0d1973	-0.1377924
24	0x3d5ddb94	0.054164484
25	0xbdcdeab3	-0.10054531
26	0xbd152da8	-0.036420494
27	0xbd05aa53	-0.032633137
28	0xbd9392c5	-0.072057284
29	0xbc99a463	-0.018755144
30	0xbd9e1989	-0.07719714
31	0xbd7b2651	-0.06131584
32	0xbb0be396	-0.0021345369
33	0xbdd5942a	-0.10428651
34	0xbd0c7407	-0.03429034
35	0x3c2c0c90	0.010501042
36	0x3da724d8	0.08161324
37	0x3d508212	0.050905295
38	0x3dbcf6be	0.0922675
39	0xbc9f9c2a	-0.019483645
40	0xbd580f20	-0.0527488
41	0xbd7a345f	-0.0610851
42	0x3cd8783c	0.02642452
43	0x3c45072f	0.0120256385
44	0x3cb15048	0.021644726
45	0xbd6dc5d2	-0.058049984
46	0xbc12807a	-0.008941764
47	0xbd42efdd	-0.047592033
48	0x3cf9812d	0.030457104
49	0x3ce3c395	0.027803222
50	0xbd0803bb	-0.033206683
51	0x3d387293	0.04503114
52	0xbb204efa	-0.0024461136
53	0x3bb35806	0.0054731397
54	0x3dd1f75f	0.102522604
55	0x3db9deab	0.09075674
56	0xbd23809e	-0.03991758
57	0xbe117476	-0.14204583
58	0xbd2060e1	-0.03915489
59	0xbe8ba44e	-0.27273792
60	0x3d0644b6	0.03278037
61	0xbe05dddf	-0.13072918
62	0xbdd18be9	-0.10231764
63	0xbd5821b5	-0.05276652
64	0xbcc4bfec	-0.024017297
65	0x3c7078a5	0.014677201
66	0x3d6b97f7	0.05751797
67	0x3d8ef6a4	0.06980637
68	0x3da36291	0.079777844
69	0x3b63fd14	0.0034788297
70	0xbc22cc21	-0.009936363
71	0xbc6b11a7	-0.01434747
72	0x3b6358f0	0.0034690462
73	0x3c5947b0	0.013261721
74	0x3d477449	0.048694883
75	0x3ceb90b5	0.028755525
76	0xba748736	-0.00093280093
77	0xbac14d52	-0.0014747775
78	0x3db761a7	0.089541726
79	0x3d128d40	0.035779238
80	0xba72cc33	-0.00092619954
81	0x3a6ae55d	0.00089605694
82	0xbdecb6e3	-0.115583204
83	0x3cc2f6c6	0.023799311
84	0x3a776ec5	0.0009438808
85	0xbdd642de	-0.10461973
86	0x3cd27933	0.025692558
87	0xbcb3f251	-0.021966131
88	0xbd936e19	-0.07198734
89	0x3c197833	0.009367037
90	0x3d7d5599	0.06184921
91	0x3dc4cf68	0.09609872
92	0x3d9f1e82	0.07769491
93	0xbe1823c1	-0.14857389
94	0xbda56e6a	-0.080777004
95	0xbd9368e0	-0.07197738
96	0xbd462a98	-0.048380464
97	0xbcf228d6	-0.029560488
98	0xbc8b5ecf	-0.017012982
99	0xbd1e241a	-0.038608648
100	0xbc336f1a	-0.010951782
101	0xbc7a6ae1	-0.015284271
102	0x3d8d052a	0.068857506
103	0x3d4ff406	0.05076983
104	0x3c8166a7	0.015796019
105	0x3d1e44da	0.03863988
106	0x3ca418c4	0.02003134
107	0xbc8f6e90	-0.017508775
108	0x3cfdde0e	0.030989673
109	0xbe3a7fc8	-0.18212807
110	0xbd0fec06	-0.0351372
111	0x3d5b8eb2	0.05360288
112	0xbe367c89	-0.17820944
113	0xbc13119f	-0.008976369
114	0xbb8b7571	-0.0042559435
115	0xbd521b09	-0.051295314
116	0xbc8a45bf	-0.01687896
117	0x3ab979bf	0.0014150663
118	0xbaaa4d7b	-0.0012993062
119	0xb940fe39	-0.00018405252
120	0xba30a841	-0.0006738939
121	0xba3d5828	-0.0007222914
122	0xba2059ce	-0.00061168976
123	0x3b069151	0.0020533393
124	0x3a8f7043	0.0010943491
125	0xba0a8319	-0.00052838173
126	0xbb242fb2	-0.0025052843
127	0xbb26bcd8	-0.002544215
128	0xba8eed32	-0.001090443
129	0x3b2a981e	0.002603061
130	0x3a97e681	0.0011589081
131	0x3b0c2141	0.0021382126
132	0x3b270d5d	0.0025490143
133	0x3afa0f54	0.0019078054
134	0x3b5e03cf	0.0033876782
135	0xbcc8fa23	-0.024533337
136	0xbc5122b2	-0.01276462
137	0xbd9f8dec	-0.07790741
138	0xbcf96006	-0.030441295
139	0x3d6a1afd	0.057154644
140	0xbd16f030	-0.036850154
141	0x3d24041d	0.040042985
142	0x3d4a8a0a	0.04944805
143	0x3bef212c	0.0072976556
144	0x3d763bfb	0.060115796
145	0x3ca93266	0.020653915
146	0xbd0a22bc	-0.03372453
147	0x3cdc3564	0.026880927
148	0xbd9f2a11	-0.077716954
149	0xbe120599	-0.14259948
150	0x3d5a83b1	0.053348247
151	0xbc8ff4fe	-0.017572876
152	0xbd72e979	-0.059304688
153	0x3b48af50	0.0030622073
154	0xbda512db	-0.08060237
155	0xbd8e3716	-0.069441006
156	0xbdcc5342	-0.09976818
157	0xbe070359	-0.13184871
158	0xbd92bee1	-0.071653135
159	0xbd868e66	-0.06570129
160	0xbd7dcfb9	-0.061965678
161	0xbc65c2da	-0.014023507
162	0x3cc88ec2	0.024482135
163	0x3b2da92b	0.0026498537
164	0xbcb6d826	-0.022319864
165	0xbdac6919	-0.08418483
166	0xbd8d80ee	-0.06909357
167	0xbd274f55	-0.04084714
168	0xbdc185cc	-0.09449348
169	0xbdaca52c	-0.084299415
170	0xbca9aca4	-0.020712204
171	0xbd227b70	-0.0396685
172	0xbd95f5a8	-0.07322246
173	0xbe3480c2	-0.17627242
174	0xbe42ea2a	-0.19034639
175	0xbd39e709	-0.045386348
176	0xbe292a03	-0.16519932
177	0xbd7d7d41	-0.06188703
178	0xbd105bcb	-0.03524379
179	0xbda016b0	-0.07816827
180	0x3db303d9	0.08740968
181	0x3db419f9	0.087940164
182	0x3d685bfd	0.05672835
183	0xbd9e4ac1	-0.07729102
184	0xbda33742	-0.07969524
185	0xbd80330d	-0.06259737
186	0xb9ca545f	-0.00038591304
187	0x3c8b336c	0.016992293
188	0x3d68a032	0.0567934
189	0x3d257ab6	0.04040023
190	0x3bfbc444	0.007683309
191	0xbbc5a2e9	-0.0060313833
192	0xbbd49284	-0.0064871926
193	0xbd0da43b	-0.03458045
194	0xbacc1856	-0.0015571218
195	0xbc983348	-0.01857914
196	0xbd07f240	-0.033190012
197	0x3c80dd06	0.015730392
198	0x3cf7a749	0.030231135
199	0xbd41e0e8	-0.047333628
200	0xbccda5ae	-0.025103416
201	0xbd286ade	-0.04111754
202	0xbe16dc3f	-0.14732455
203	0xbdae9fa9	-0.085265465
204	0xbd17e03e	-0.03707909
205	0xbd5bed2d	-0.053692985
206	0xbc49677e	-0.012292741
207	0xbd16d6d1	-0.03682596
208	0x3accae9a	0.0015616
209	0xbd65b0de	-0.056076877
210	0x3c47028b	0.012146602
211	0x3dc414f9	0.09574313
212	0xbc8c71cf	-0.017144112
213	0x3d91c0d1	0.07116855
214	0x3de25f86	0.11053376
215	0x3c94a3f9	0.018144595
216	0x3d9b2bcc	0.07576713
217	0x3d7d503b	0.06184409
218	0x3d37e83e	0.044899218
219	0xbce4c655	-0.027926603
220	0xbd2881dd	-0.041139472
221	0xbc615736	-0.013753703
222	0xbd940b3c	-0.07228705
223	0xbd7383ac	-0.059451744
224	0xbb8cfeb6	-0.004302825
225	0x3d1647a9	0.036689434
226	0xbdb43108	-0.087984145
227	0xbdf7e920	-0.12105012
228	0xbbbd2dfc	-0.005773304
229	0xbe5a6179	-0.21326245
230	0xbe4adccb	-0.19810788
231	0xbda29387	-0.07938295
232	0xbdf65a3a	-0.12028928
233	0xbdcc4826	-0.09974699
234	0xb9fdb553	-0.00048391017
235	0x3a9032d2	0.0011001474
236	0x3aa2cb0b	0.0012420131
237	0xbb143da1	-0.0022619742
238	0xbc148b2f	-0.009066387
239	0xbb56f322	-0.0032798727
240	0xbbaaaa27	-0.005208272
241	0xba7875a1	-0.00094779773
242	0xbb39baf0	-0.0028340183
243	0xbb244abf	-0.0025068966
244	0x3a9b09b7	0.0011828457
245	0xb8db78be	-0.00010465224
246	0xbbd318e4	-0.006442176
247	0xbb3a7bc7	-0.0028455125
248	0xbb95f284	-0.0045760293
249	0xbb422e50	-0.0029629655
250	0xbac37f35	-0.001491523
251	0x3acb25cd	0.0015498936
252	0xbcf461da	-0.029831816
253	0xbd957ad0	-0.07298815
254	0x3d9a1d31	0.07525099
255	0xbd7b4acb	-0.061350625

tfeb.5.weight f4 [25]
0	0x3eddb2b7	0.4330041
1	0x3e2c617f	0.16834067
2	0x3eabb39d	0.33535472
3	0x3e8e3314	0.27773345
4	0x3ee19d9b	0.44065556
5	0x3eb68968	0.35651708
6	0x3e73e4c0	0.2381773
7	0x3e890d20	0.26767826
8	0x3f1cd064	0.6125548
9	0x3ea6f1e2	0.32606417
10	0x3e616fe9	0.22015347
11	0x3f15438d	0.583062
12	0x3ef4e204	0.47828686
13	0x3f171d26	0.5902885
14	0x3e39ed5b	0.1815695
15	0x3e7d2ab3	0.2472332
16	0x3ea7eaac	0.32796228
17	0x3e7368a4	0.23770386
18	0x3eec55ad	0.46159115
19	0x3e55a4d5	0.2086366
20	0x3ee1eb99	0.4412506
21	0x3e38bf79	0.18041791
22	0x3e5b2579	0.21401013
23	0x3da32e72	0.07967843
24	0x3e5c69b7	0.21524702

tfeb.5.bias f4 [25]
0	0x3d0a9984	0.03383781
1	0x3e759a6d	0.2398469
2	0xbc11e1fe	-0.008903978
3	0x3d266582	0.04062415
4	0xbd72da66	-0.059290312
5	0x3da6461f	0.08118843
6	0x3e2ecfa9	0.17071404
7	0x3d5ce6f7	0.053931203
8	0xbd939dca	-0.0720783
9	0xbd3e4717	-0.046454515
10	0x3dfe43b1	0.12415255
11	0xbda9428b	-0.08264645
12	0xbe35f5d5	-0.17769559
13	0xbdd36f0e	-0.103239164
14	0x3e3139e0	0.17307234
15	0x3dfb684b	0.12275752
16	0xbd0d03c2	-0.03442741
17	0xbd0a543d	-0.033771742
18	0xbd9a6d49	-0.07540376
19	0x3e9d03d1	0.30666974
20	0xbe153a59	-0.14573039
21	0x3e93c061	0.2885771
22	0x3e7a00ec	0.24414414
23	0x3d810910	0.06300557
24	0xbd633dec	-0.055478975

tfeb.5.running_mean f4 [25]
0	0xbedc3a0d	-0.4301304
1	0xbf692caf	-0.91083807
2	0xbd6f0f44	-0.058364168
3	0x3d7e1d14	0.06203945
4	0xbf199dcb	-0.600064
5	0xbeb228d5	-0.34796777
6	0xbedd389b	-0.4320725
7	0xbeb55d30	-0.3542266
8	0xbee5547b	-0.44791016
9	0xbecc0bbc	-0.39852703
10	0xbed49e4e	-0.41527027
11	0xbed10688	-0.40825295
12	0x3da1e6bf	0.079053394
13	0xbe9f457b	-0.31107697
14	0xbeb03502	-0.34415442
15	0xbe1965b9	-0.1498021
16	0xbf14a81a	-0.58069
17	0xbda73735	-0.08164827
18	0xbeb7eaba	-0.3592127
19	0xbeafda01	-0.3434601
20	0xbda2808d	-0.07934675
21	0xbf0eb9dc	-0.5575235
22	0xbe0f2619	-0.13979377
23	0xbe559dd0	-0.20860982
24	0x3dee1318	0.116247356

tfeb.5.running_var f4 [25]
0	0x3e2b6c05	0.16740425
1	0x3e243b34	0.16038209
2	0x3dfbde6d	0.12298284
3	0x3d0baac1	0.03409839
4	0x3e376e8f	0.17913269
5	0x3dd173e7	0.10227185
6	0x3dada1f1	0.084781535
7	0x3d6629fd	0.056192387
8	0x3e6c535d	0.23078676
9	0x3d7a6a49	0.061136518
10	0x3e0d0e73	0.13775043
11	0x3e7a2b2b	0.2443053
12	0x3db5286d	0.08845601
13	0x3dd5e32d	0.10443721
14	0x3d9c1f6d	0.076231815
15	0x3dd3b189	0.103365965
16	0x3d93ddd7	0.07220047
17	0x3cc4d38d	0.024026657
18	0x3de19331	0.11014403
19	0x3daf739b	0.08566972
20	0x3dcd039f	0.10010456
21	0x3e686ce6	0.22697791
22	0x3ded3b14	0.11583534
23	0x3c565858	0.013082586
24	0x3cdbd890	0.026836663

tfeb.7.weight f4 [28, 25, 3, 3]
0	0x3cacb516	0.021082442
1	0x3cac9f95	0.021072188
2	0x3d1df7f6	0.038566552
3	0x3cd83968	0.026394561
4	0x3c762904	0.015024427
5	0x3b8de47f	0.0043302174
6	0x3be80835	0.0070810565
7	0x3d04a4f4	0.032383874
8	0x3cd55987	0.026043667
9	0x3bbd7532	0.005781793
10	0xbc8344d3	-0.016024029
11	0xbccbeebc	-0.02489411
12	0x3d94a366	0.07257728
13	0x3dc4b797	0.096053295
14	0x3d875073	0.06607141
15	0x3d061f68	0.032744795
16	0x3c6c95af	0.014439984
17	0xbc9d841f	-0.01922804
18	0xbcf32f3c	-0.029685609
19	0xbc44181c	-0.011968639
20	0xbd02b8cc	-0.031914517
21	0xbde91ac1	-0.11382056
22	0xbdaae49a	-0.083443835
23	0xbd85cb74	-0.06532946
24	0xbcca07a7	-0.024661852
25	0x3c87eb75	0.016591767
26	0x3d04ebf0	0.03245157
27	0xbd12dc26	-0.03585448
28	0xbcd47985	-0.025936851
29	0xbd08e27b	-0.033419114
30	0xbd26c817	-0.040718164
31	0xbd5289c6	-0.051400922
32	0xbcb95dba	-0.0226277
33	0xbbda5d82	-0.006663979
34	0xbca1ee79	-0.019767033
35	0x3da3881a	0.07984944
36	0x3b43df8c	0.0029887883
37	0x3d20c39c	0.039249048
38	0x3d8dfe07	0.069332175
39	0x3d18ea66	0.037332915
40	0x3d794e9e	0.06086599
41	0x3d977d72	0.07396974
42	0x3ad2d529	0.0016085255
43	0x3cc364f7	0.023851855
44	0x3d422320	0.04739678
45	0xbd8fe478	-0.07025999
46	0xbd532950	-0.05155307
47	0xbc02f477	-0.007992855
48	0xbc8af5c3	-0.016962891
49	0x3cd2c6cc	0.02572956
50	0x3c999083	0.018745666
51	0xbd16e75e	-0.036841743
52	0x3c8bd377	0.017068608
53	0x3c3f5c4c	0.01167972
54	0xbddceda5	-0.107875146
55	0xbd0c2a52	-0.034220047
56	0xbd58fb3a	-0.052973963
57	0x3c01c67e	0.007920859
58	0xbb99beb4	-0.004691923
59	0xbd4bffac	-0.049804375
60	0x3c1cedb3	0.009578156
61	0x3d18db56	0.03731855
62	0xbbaa2a2e	-0.0051930165
63	0xbc80e950	-0.015736252
64	0xbc8791ab	-0.016548952
65	0xbad6573d	-0.0016352903
66	0x3c0d13ee	0.008610709
67	0x3d563aac	0.052302048
68	0x3cecb485	0.028894672
69	0x3aa7b151	0.0012793933
70	0x3cb76a67	0.022389604
71	0x3c3dc28c	0.011582028
72	0xbd38c09e	-0.04510557
73	0xbc58f150	-0.013241127
74	0xbd13dff6	-0.036102258
75	0x3d270f87	0.040786292
76	0x3de68e4f	0.11257612
77	0x3d922612	0.071361676
78	0x3c0baae0	0.0085246265
79	0x3d37b8ee	0.044854097
80	0x3d45ef5d	0.048323978
81	0x3c1db739	0.009626203
82	0x3bfb2a5d	0.007664962
83	0x3c99d3c8	0.018777743
84	0x3bcba5ff	0.0062148566
85	0x3ca05dd9	0.019576
86	0x3c3c5a47	0.011496133
87	0x3c7b17ab	0.015325467
88	0x3cced549	0.025248187
89	0x3c2ced39	0.010554605
90	0xbd098371	-0.033572618
91	0xbcdff69f	-0.027339278
92	0xbd7e50a4	-0.062088624
93	0x3d8453d9	0.06461305
94	0x3daa2230	0.08307302
95	0x3d82d9e3	0.06389215
96	0x3cde199a	0.027111817
97	0x3b63f2d5	0.003478219
98	0xbd5b6db6	-0.053571425
99	0xbb7a2b7d	-0.0038172894
100	0x3d26a036	0.040680133
101	0x3d221635	0.03957196
102	0x3cb3ad99	0.021933364
103	0x3da27081	0.07931615
104	0x3d18962d	0.037252594
105	0xbd28da7a	-0.04122398
106	0xbaff4820	-0.0019476451
107	0xbd6c18b6	-0.057640754
108	0xbd044198	-0.032289118
109	0xbb992706	-0.0046738414
110	0xbba229a3	-0.004948811
111	0xbd02e360	-0.031955123
112	0xbce975e0	-0.02849859
113	0xbc0cb8d8	-0.008588992
114	0x3acaa476	0.001546039
115	0xbd0e3626	-0.03471961
116	0x3d29f7fe	0.04149627
117	0xbca247fd	-0.019809717
118	0xbc6e4b5b	-0.014544333
119	0x3bde3819	0.0067815897
120	0x3b6c54b8	0.0036061238
121	0xbc372c24	-0.011179958
122	0xbce20f32	-0.027595136
123	0x3c8e2e9a	0.017356206
124	0xbb2abfe9	-0.0026054329
125	0xbd1f0296	-0.038820826
126	0xbc873b04	-0.016507633
127	0xbc9e5887	-0.019329323
128	0x3a5c4b9f	0.00084036024
129	0xbcccf260	-0.025017917
130	0xbc8113d4	-0.015756525
131	0xbcaf2241	-0.021378638
132	0x3d41ae87	0.047285583
133	0x3d999b96	0.07500379
134	0x3d83088a	0.06398113
135	0x3d960d6d	0.073267795
136	0x3d80f0ec	0.06295952
137	0x3d238c36	0.039928637
138	0xbbc7d86c	-0.0060987975
139	0x3b426368	0.0029661302
140	0x3d336ead	0.04380672
141	0xbda9aa46	-0.0828443
142	0xbda4729a	-0.08029671
143	0xbd10999e	-0.03530275
144	0xbd42dda1	-0.047574643
145	0xbcead5ca	-0.028666396
146	0xbc3ef1e4	-0.011654351
147	0x3bdbed5e	0.006711646
148	0x3a59074d	0.0008278981
149	0xbc0d569e	-0.008626608
150	0xbb474450	-0.0030405708
151	0x3cc3c8b6	0.023899417
152	0x3d093b1c	0.033503637
153	0x3b95f99d	0.0045768754
154	0x3ca06afa	0.01958226
155	0x3d463bc4	0.04839684
156	0xbcba1421	-0.022714676
157	0xbcdd681c	-0.027027182
158	0x3bc92476	0.0061383797
159	0xbc02ff43	-0.007995429
160	0xbc6fa651	-0.014627055
161	0xbb8f6709	-0.0043762964
162	0xbc157e70	-0.009124383
163	0xbca3a9af	-0.019978372
164	0xbcd5e283	-0.026108986
165	0xbad399a7	-0.0016143814
166	0x3d288374	0.04114099
167	0x3cf50e99	0.029914187
168	0x3d0e2030	0.034698665
169	0x3d856dcc	0.06515083
170	0x3d1e1497	0.038593855
171	0x3d05d06c	0.03266947
172	0x3c4e9390	0.012608424
173	0x3cdf16b7	0.027232511
174	0xbb8d8393	-0.0043186634
175	0xbce2e606	-0.027697574
176	0x3d042ff5	0.032272298
177	0xbc31db52	-0.010855513
178	0xbcfe595f	-0.031048475
179	0x3c3faba3	0.011698636
180	0xbcdaf3c7	-0.02672757
181	0xbc171d4c	-0.0092232935
182	0x3cc38550	0.02386728
183	0xbd2884e9	-0.041142378
184	0xbd68d51d	-0.056843866
185	0xbd7bf18f	-0.061509665
186	0x3be45252	0.006967821
187	0xbc1bea97	-0.00951638
188	0xbceaae55	-0.028647581
189	0xbd6bf756	-0.057608925
190	0xbce5ef86	-0.028068315
191	0xbb6a171c	-0.003571934
192	0x3d885477	0.066567354
193	0x3db1693a	0.086626485
194	0x3dc7b206	0.09750752
195	0xbd023ec5	-0.031798143
196	0xbb92f1c6	-0.004484388
197	0x3d49bf02	0.049254425
198	0x3d131671	0.035910074
199	0x3d1a1b18	0.037623495
200	0x3cebd71f	0.028789101
201	0xbd39e27f	-0.04538202
202	0xbd8141f9	-0.063114114
203	0xbd9c878d	-0.07643042
204	0x3da8d7a0	0.08244252
205	0x3dc42fb0	0.09579408
206	0x3dad39b5	0.08458272
207	0x3b9c56bb	0.0047710813
208	0xbb8a93d8	-0.00422905
209	0xbb9c0a9d	-0.0047620074
210	0x3cd84c44	0.026403554
211	0x3cc8a262	0.024491493
212	0x3d17c257	0.03705057
213	0x3c3ad5d2	0.011403518
214	0xbc2d8621	-0.010591061
215	0x3c354231	0.011063145
216	0xbc794bbd	-0.015215811
217	0xbce79fd0	-0.028274447
218	0xbb86f45e	-0.0041184863
219	0x3cb7cdef	0.022437064
220	0x3cca8caa	0.024725277
221	0x3d8a7752	0.0676104
222	0xbcbe7019	-0.023246812
223	0xbd058858	-0.03260073
224	0xbc36286d	-0.011118037
225	0x3da5c7ab	0.08094724
226	0xbd3380d6	-0.04382404
227	0xbd7a3fd6	-0.061096035
228	0x3d2ccd9c	0.042188272
229	0xbdfa85ee	-0.12232576
230	0xbdff80d1	-0.12475742
231	0x3e263a08	0.16233075
232	0xbd28ad8d	-0.041181136
233	0xbd843ef3	-0.06457319
234	0x3d137e61	0.036009196
235	0x3c7a97b1	0.015294955
236	0x3d55b3c1	0.05217338
237	0x3daf8ad5	0.08571402
238	0x3d5b2093	0.053497862
239	0x3bca5cd2	0.006175616
240	0x3d39955b	0.045308452
241	0xbbf849e0	-0.007577166
242	0xbcda8a67	-0.026677324
243	0xbd2dfaba	-0.04247544
244	0x3da98920	0.08278108
245	0x3d4a6d4c	0.04942064
246	0xbd4e11ba	-0.050309874
247	0xbd5fdffb	-0.054656964
248	0xbd7453bc	-0.059650168
249	0xbcefe378	-0.02928327
250	0xbd83b436	-0.06430857
251	0xbe1d27fc	-0.15347284
252	0x3caef2f5	0.021356085
253	0xbc843557	-0.016138716
254	0xbdab4ef5	-0.08364669
255	0xbd81dc47	-0.06340843

tfeb.8.weight f4 [28]
0	0x3e7ab6dd	0.2448382
1	0x3ef3db5d	0.47628298
2	0x3e767ffa	0.24072257
3	0x3eacb338	0.33730483
4	0x3ece260b	0.402634
5	0x3eb5b849	0.3549216
6	0x3e94d091	0.29065374
7	0x3e6dab9b	0.23209994
8	0x3e2d1321	0.16901828
9	0x3ecf944b	0.40542826
10	0x3e949196	0.29017323
11	0x3ed59c49	0.417208
12	0x3e98e510	0.2986226
13	0x3e64592a	0.22299638
14	0x3e6d5f14	0.231808
15	0x3eb168bc	0.34650218
16	0x3ec37fc1	0.38183406
17	0x3ef19aaa	0.47188312
18	0x3ed4ed6a	0.41587383
19	0x3eca90ea	0.39563686
20	0x3efe28b6	0.49640435
21	0x3eaa8068	0.3330109
22	0x3e7f5cef	0.24937795
23	0x3e91bc82	0.28464133
24	0x3ef67c1e	0.4814157
25	0x3eb61b36	0.35567635
26	0x3ec7625f	0.3894224
27	0x3e693efa	0.2277793

tfeb.8.bias f4 [28]
0	0x3e0dffe2	0.13867143
1	0xbdcacde0	-0.09902549
2	0x3cd2632d	0.025682056
3	0xbd6021cd	-0.054719735
4	0xbdd6acd8	-0.10482186
5	0x3c6c0c6b	0.014407258
6	0x3cb04f69	0.02152224
7	0x3dae752d	0.08518443
8	0x3d299c61	0.0414089
9	0xbd8af723	-0.06785419
10	0xbe1b51a0	-0.15167856
11	0xbda2aca3	-0.07943084
12	0xbd0b74b8	-0.03404686
13	0x3dc9ed7e	0.09859751
14	0x3e2f91b4	0.17145425
15	0xbd2e4f35	-0.042556006
16	0xbdfe0bc5	-0.124045886
17	0xbdca81a7	-0.098880105
18	0xbd87fb43	-0.06639721
19	0xbd8dbdf7	-0.069209985
20	0xbe4139f1	-0.18869759
21	0xbd11b30e	-0.03557115
22	0x3d9c0112	0.07617392
23	0xbc9278b4	-0.017879821
24	0xbd1532bc	-0.036425337
25	0xbd489021	-0.048965577
26	0xbc6fa963	-0.014627787
27	0x3dedb9ee	0.11607729

tfeb.8.running_mean f4 [28]
0	0x3e42906a	0.19000402
1	0xbe8cb737	-0.27483532
2	0xbe184550	-0.1487019
3	0xbda74f13	-0.08169379
4	0xbeae8669	-0.34086922
5	0x3bd01323	0.0063499375
6	0xbe866223	-0.26246747
7	0xbe8fe7c3	-0.28106508
8	0xbd9092ec	-0.07059273
9	0x3d03bd54	0.03216298
10	0x3ddd1dd7	0.10796707
11	0x3e0b9652	0.13631561
12	0xbdf7b4fc	-0.12095067
13	0x3d11a9ee	0.03556245
14	0x3dfc9505	0.12333111
15	0xbeda4b6e	-0.42635673
16	0xbe91b302	-0.28456885
17	0xbd587506	-0.052845977
18	0xbe26caf0	-0.16288352
19	0x3d5063d4	0.050876454
20	0xbe6b07ec	-0.2295224
21	0xbe702ec6	-0.23455343
22	0xbf249bf9	-0.64300495
23	0xbe492489	-0.19642843
24	0xbe00737b	-0.12544052
25	0xbdbad13a	-0.09121938
26	0xbebfcc4c	-0.37460554
27	0x3ed948d5	0.4243838

tfeb.8.running_var f4 [28]
0	0x3cd35613	0.02579788
1	0x3dd5157a	0.10404487
2	0x3c745118	0.014911912
3	0x3cf718d2	0.030163202
4	0x3d7d618a	0.0618606
5	0x3d01e55e	0.031712882
6	0x3cb17341	0.021661403
7	0x3d12257b	0.035680275
8	0x3bf9bbb0	0.007621251
9	0x3da91d51	0.08257545
10	0x3c9222e6	0.017838906
11	0x3cf38d30	0.02973041
12	0x3d8a2a85	0.06746391
13	0x3d509d39	0.05093119
14	0x3d4167b6	0.047218047
15	0x3cf5a7aa	0.029987175
16	0x3d4de311	0.050265376
17	0x3dffc3ea	0.124885395
18	0x3dc010b3	0.09378185
19	0x3d4aa071	0.049469415
20	0x3d90dc56	0.07073276
21	0x3d8cbdec	0.06872162
22	0x3d04c722	0.03241647
23	0x3d83d71f	0.064375155
24	0x3d4674b8	0.048451155
25	0x3d05107a	0.032486416
26	0x3cd9f1ee	0.026604619
27	0x3d279426	0.04091277

tfeb.11.weight f4 [32, 28, 3, 3]
0	0xbc97f796	-0.018550675
1	0xbcd08dcc	-0.025458239
2	0xbce753f1	-0.028238269
3	0x3d0daa5d	0.0345863
4	0x3d19b917	0.03753003
5	0x3cb16a43	0.021657115
6	0x3d96fb5f	0.07372164
7	0x3d79020e	0.060792975
8	0x3d566b91	0.052348677
9	0xbd01651e	-0.031590573
10	0x3c39b6b6	0.011335066
11	0xbaecdbfe	-0.0018070934
12	0x3b4e30e5	0.003146225
13	0x3c70be37	0.014693788
14	0x3cefc7e3	0.029270118
15	0xbca6d32b	-0.020364365
16	0xbb17eb88	-0.002318116
17	0x3cf4a3de	0.029863294
18	0xbc72e632	-0.014825391
19	0xbcf091bb	-0.029366365
20	0xbccf5821	-0.025310578
21	0xbc87e58a	-0.016588945
22	0xbcca61fc	-0.024704926
23	0xbc9cb4ed	-0.01912924
24	0x3d0c0b64	0.03419055
25	0x3c9b9a5e	0.018994506
26	0x3cd6fff2	0.026245091
27	0x3cffe239	0.031235801
28	0x3cba9294	0.022774972
29	0x3cdcac3e	0.0269376
30	0x3d26c1a3	0.04071201
31	0x3ca57e27	0.020201756
32	0xbbcfbc9c	-0.0063396227
33	0xbbd2c204	-0.00643182
34	0x3c69f11b	0.014278675
35	0xbceb7732	-0.02874336
36	0x3ccdc392	0.02511767
37	0x3c888ce9	0.016668754
38	0x3d1f7a6a	0.038935103
39	0x3c95a0bf	0.018265126
40	0x3b01448c	0.0019724695
41	0x3c91ab6b	0.017781934
42	0xbcd8f64b	-0.02648463
43	0xbd9f059a	-0.0776474
44	0xbcbf5a0f	-0.023358373
45	0xbc74ba24	-0.0149369575
46	0xbc956c9b	-0.018240264
47	0xbc10e4b3	-0.008843589
48	0x3cbeaaa7	0.023274733
49	0x3c875aea	0.016522843
50	0xbbfa651e	-0.0076414486
51	0xbca7cae8	-0.020482495
52	0xbcb4a6fe	-0.022052284
53	0x3c34406c	0.0110016875
54	0x3c109d1d	0.008826521
55	0x3c697ec0	0.014251411
56	0x3c4235cc	0.0118536465
57	0xbcc4b5e7	-0.024012519
58	0xbca299af	-0.019848673
59	0xbc8cd304	-0.017190464
60	0xbbaf5675	-0.0053508827
61	0xbc9330f8	-0.017967686
62	0xbafe3227	-0.0019393609
63	0xbd056c06	-0.032573722
64	0xbbef387f	-0.007300436
65	0xbc841b09	-0.016126173
66	0xbd72ee90	-0.059309542
67	0xbd02a3be	-0.031894438
68	0xbc7c6363	-0.015404555
69	0xbcda1c71	-0.02662489
70	0xbc1400b3	-0.00903337
71	0x3cc743bc	0.02432429
72	0xbcf3ce69	-0.02976151
73	0xbced0179	-0.028931366
74	0xbcdf8f82	-0.02729011
75	0xbca4dbcc	-0.020124339
76	0xbcb13c0f	-0.021635083
77	0xbc458792	-0.012056248
78	0x3bbff198	0.0058576576
79	0x3b91e1fb	0.004451988
80	0x3c3bed76	0.011470189
81	0xbba18707	-0.0049294266
82	0x3b8fad56	0.004384677
83	0x3cda0c20	0.02661711
84	0x3c8a518e	0.016884591
85	0x3d47c439	0.048771117
86	0x3cc675ea	0.024226148
87	0xbb7fa242	-0.0039006625
88	0x3c614e74	0.013751615
89	0x3cf9c45b	0.030489137
90	0x3c4b252d	0.012399
91	0x3c3c0ada	0.011477197
92	0x3c3feaab	0.011713664
93	0x3d1aaf38	0.037764758
94	0x3d14b313	0.03630359
95	0x3c12589d	0.00893226
96	0x3d01d47f	0.031696793
97	0x3d24dbb0	0.040248573
98	0x3d0470a2	0.032333978
99	0x3c0f3761	0.008741231
100	0x3d3ab3f1	0.04558176
101	0x3cc8eb11	0.02452615
102	0xbc3da762	-0.011575552
103	0x3c43ae7a	0.011943454
104	0xbca4e6b5	-0.020129541
105	0x3cc830ff	0.024437426
106	0x3caadf40	0.020858407
107	0x3c987f9a	0.018615533
108	0xbd304ede	-0.043043964
109	0xbd6a04ab	-0.057133358
110	0xbd5617cb	-0.052268784
111	0xbd909872	-0.07060327
112	0xbda5e1d8	-0.08099717
113	0xbd917bfb	-0.071037255
114	0x3cc9bf02	0.024627212
115	0x3d1453e3	0.036212813
116	0x3d4c1d7f	0.049832817
117	0xbcd1290c	-0.025532268
118	0xbca71e5f	-0.020400224
119	0xbc3bca1f	-0.011461764
120	0x3c604745	0.013688867
121	0x3c5ad858	0.013357244
122	0x3c9be2cc	0.019029044
123	0x3c0b6075	0.008506884
124	0x3cd907f6	0.026493054
125	0x3d2adb9d	0.041713346
126	0xbd8ce52c	-0.068796486
127	0xbd92e0f1	-0.071718104
128	0xbd9af054	-0.0756537
129	0x3ce33436	0.027734857
130	0x3cc3a7af	0.023883669
131	0x3d2b43f1	0.04181284
132	0x3d3e9ce3	0.046536338
133	0x3cff0102	0.03112841
134	0x3d3ddab2	0.046351142
135	0x3ccaae92	0.024741445
136	0x3d33ece3	0.043927085
137	0x3d1beeda	0.038069583
138	0x3b1634c6	0.002291964
139	0x3c4c7a2a	0.012480298
140	0x3cab5e15	0.020918885
141	0x3ca3f395	0.02001361
142	0xbbcdce0a	-0.0062806653
143	0x3bb23904	0.0054389257
144	0xbd1ad5bd	-0.037801493
145	0x3d011a63	0.031519305
146	0x3bd0d45c	0.0063729715
147	0xbd3a6f90	-0.04551655
148	0x3d285d18	0.041104406
149	0x3ca9dc38	0.020734891
150	0xbd4a9c74	-0.04946561
151	0x3cbfc93e	0.02341139
152	0x3d5ec7e7	0.05438986
153	0xbd272789	-0.040809188
154	0xbd00949c	-0.031391725
155	0xbd0b6414	-0.03403099
156	0xbd33780a	-0.04381565
157	0x3d56cbff	0.05244064
158	0x3d19a571	0.037511293
159	0xbd53e5dc	-0.051732883
160	0xbb3d1fdf	-0.0028858108
161	0x3ce34875	0.027744511
162	0x3bf80a95	0.007569621
163	0x3bf3e5f9	0.0074431864
164	0x3c939116	0.018013518
165	0xbb3ab73e	-0.0028490569
166	0xbcd3485b	-0.025791338
167	0xbd3a3735	-0.045462806
168	0xbc4853b3	-0.012226987
169	0xbd0a1a34	-0.033716395
170	0xbd13a70b	-0.036047976
171	0xbb753818	-0.0037417468
172	0xbc2af26b	-0.0104337735
173	0xbbc6e719	-0.0060700295
174	0x3ceb788f	0.02874401
175	0x3d0eba04	0.034845367
176	0x3d35a3a2	0.044345506
177	0xbccbf7b7	-0.024898393
178	0xbc8be472	-0.017076705
179	0xbc667fb5	-0.014068534
180	0x3c48b666	0.012250518
181	0xbbda2ab4	-0.0066579226
182	0x3b75c163	0.00374993
183	0xbb9e3ce7	-0.0048290375
184	0xbcb741b1	-0.022370191
185	0xbcea603a	-0.028610338
186	0xbca8d0c5	-0.020607362
187	0xbd20f277	-0.039293732
188	0xbd2a74cb	-0.04161529
189	0xbd281611	-0.04103667
190	0xbc81e87d	-0.01585793
191	0xbc83ed49	-0.016104357
192	0xbce906b1	-0.028445574
193	0xbb0ac324	-0.0021173442
194	0x3ccbbeca	0.024871249
195	0xbd2710a8	-0.04078737
196	0xbc3603e8	-0.01110933
197	0x3c26e98e	0.01018752
198	0xbcaad14b	-0.020851752
199	0x3cd472b2	0.025933597
200	0x3c0be067	0.008537388
201	0xbd89c07c	-0.067261666
202	0xbc9b7f63	-0.018981641
203	0xbd0faac8	-0.03507498
204	0xbc906a01	-0.017628672
205	0x3c6ae1cc	0.014336061
206	0x3c9a1004	0.018806465
207	0xbd47ece4	-0.0488099
208	0xbcf2b0c2	-0.0296253
209	0xbc67e6aa	-0.014154116
210	0xbcc593ae	-0.02411827
211	0xbb79ce59	-0.0038117378
212	0xbc68f1d8	-0.014217816
213	0xbcc8417e	-0.024445292
214	0xbadfe631	-0.0017082152
215	0x3b76d9b3	0.003766638
216	0x3b8b8ed4	0.00425897
217	0xbb9f5907	-0.004862908
218	0x3c4d40a3	0.012527618
219	0xb81c079a	-3.7200378e-05
220	0xbc7ae006	-0.0153122
221	0xbc8ceb09	-0.017201917
222	0xbdd76251	-0.10516799
223	0xbdc0f63e	-0.09421967
224	0xbdb3c3de	-0.08777593
225	0xbc1c3bb2	-0.009535717
226	0xbb601a28	-0.0034195278
227	0x3adaa316	0.0016680683
228	0xbb459df0	-0.0030153953
229	0x3bb1dbd5	0.0054278173
230	0x3b9ecfd4	0.0048465524
231	0x3caf6f3b	0.021415344
232	0x3d2e39c6	0.042535566
233	0x3d54b065	0.051926035
234	0x3b152e95	0.002276336
235	0x3c0ad310	0.008473173
236	0x3be0257e	0.006840407
237	0x3b86000f	0.0040893625
238	0x3c4e3f36	0.012588313
239	0xbb5a8550	-0.003334362
240	0xbc227326	-0.009915149
241	0x3c283192	0.010265725
242	0x3c10d269	0.008839228
243	0xbce7c901	-0.028294088
244	0xbd093a07	-0.033502605
245	0xbd3d6eef	-0.046248373
246	0x3d68e47b	0.05685852
247	0x3d7ea78f	0.062171515
248	0x3d8a45c2	0.067515865
249	0x3d860bf7	0.06545251
250	0x3d72ba13	0.059259485
251	0x3d926fbf	0.0715022
252	0xbe078911	-0.1323588
253	0xbd888eec	-0.06667885
254	0x3c446bc5	0.011988585
255	0xbe187daa	-0.14891687

tfeb.12.weight f4 [32]
0	0x3ea87944	0.32905018
1	0x3eaf2d05	0.34214035
2	0x3ead9e50	0.33909845
3	0x3e95637d	0.29177466
4	0x3e805fc2	0.25073057
5	0x3ee326b5	0.4436547
6	0x3eba2ba7	0.3636143
7	0x3ed3a455	0.41336313
8	0x3f13d4d0	0.577466
9	0x3ea1520e	0.31507915
10	0x3eb766b8	0.35820556
11	0x3ec5b9ee	0.38618416
12	0x3eba82cd	0.36427918
13	0x3e95f893	0.2929121
14	0x3eb173b0	0.34658575
15	0x3e840b0c	0.25789678
16	0x3ebfa275	0.37428632
17	0x3e812344	0.25222218
18	0x3e9dea73	0.30842933
19	0x3e9decda	0.30844766
20	0x3eb92b0a	0.3616565
21	0x3eb3f684	0.35149014
22	0x3ec13b90	0.37740755
23	0x3e8a5cc5	0.27023903
24	0x3e8e4ed5	0.2779452
25	0x3eeda794	0.46416914
26	0x3e30da36	0.17270741
27	0x3e815f6e	0.2526812
28	0x3ea489c1	0.32136348
29	0x3edfce2c	0.43711984
30	0x3ed08ad5	0.4073092
31	0x3f0d2a7d	0.55142957

tfeb.12.bias f4 [32]
0	0xbe44a575	-0.19203742
1	0x3d13794c	0.03600435
2	0xbe0e58fd	-0.13901134
3	0xbd54951e	-0.05190002
4	0xbda3f449	-0.08005578
5	0xbe5d515c	-0.21613067
6	0xbda656b0	-0.08122003
7	0xbe2af5e3	-0.16695361
8	0xbeca541f	-0.39517304
9	0x3d3c00b3	0.045899104
10	0xbdf57087	-0.119843535
11	0xbdb5d79d	-0.088790156
12	0xbddfe5ee	-0.109325275
13	0xbb02bade	-0.0019947807
14	0xbe2d9e3d	-0.16954894
15	0xbda73e0a	-0.0816613
16	0xbe3b78dd	-0.18307824
17	0x3e1aa2ef	0.15101217
18	0xbda288ef	-0.07936274
19	0x3d17f9c7	0.03710344
20	0xbde3184f	-0.11088621
21	0xbdff285e	-0.12458871
22	0xbd959e0c	-0.07305536
23	0x3e0a3659	0.13497294
24	0xbd15f247	-0.036608007
25	0xbd55c21e	-0.052187078
26	0xbe0c25b9	-0.13686265
27	0xbd95a6ce	-0.07307206
28	0xbda3a5b3	-0.07990589
29	0xbe2dc33d	-0.16969009
30	0xbe3163f1	-0.17323281
31	0xbe506bcb	-0.2035362

tfeb.12.running_mean f4 [32]
0	0xbd1641fc	-0.03668402
1	0xbf03c7c6	-0.51476705
2	0xbe6e9953	-0.23300676
3	0x3e119d47	0.14220153
4	0xbe0ba92a	-0.1363875
5	0xbf54e1a6	-0.8315681
6	0xbe4c2522	-0.1993604
7	0xbec795a3	-0.3898135
8	0xbf2d6936	-0.67738664
9	0xbddffd71	-0.10937012
10	0xbe888213	-0.2666174
11	0xbf0bedef	-0.5465993
12	0xbec30648	-0.3809073
13	0xbf06fdfe	-0.5273131
14	0xbd984483	-0.074349426
15	0xbd9e147a	-0.07718749
16	0xbe8e4a26	-0.27790946
17	0xbdd9fab7	-0.10643523
18	0xbe1440d9	-0.14477862
19	0xbedd53f8	-0.43228126
20	0xbe993876	-0.2992589
21	0xbf07f4e6	-0.5310806
22	0xbea959ac	-0.33076227
23	0xbedd0cf4	-0.43173945
24	0xbdb9b392	-0.090674534
25	0xbf32383b	-0.6961705
26	0xbe0b39af	-0.13596223
27	0xbd4b2295	-0.049593527
28	0xbdf7d9db	-0.121020995
29	0xbebafda2	-0.3652163
30	0xbe855890	-0.2604413
31	0xbf39190e	-0.72303855

tfeb.12.running_var f4 [32]
0	0x3d3f92ed	0.04677098
1	0x3ea1e0e5	0.31616893
2	0x3dff9be9	0.124809094
3	0x3dd58fa4	0.10427788
4	0x3cd543cc	0.026033305
5	0x3ea31852	0.31854492
6	0x3e45451c	0.19264644
7	0x3e2639b8	0.16232955
8	0x3e822ebc	0.2542628
9	0x3e033421	0.12812854
10	0x3e47d80a	0.19516006
11	0x3e8413bf	0.25796315
12	0x3e0f6dce	0.14006731
13	0x3e08b7a0	0.13351297
14	0x3dd2db33	0.10295715
15	0x3ddfeda0	0.10933995
16	0x3dc7906e	0.09744345
17	0x3e9a7872	0.30170017
18	0x3dc3eaba	0.09566255
19	0x3e24acf4	0.16081601
20	0x3db2626f	0.08710181
21	0x3e31be48	0.17357743
22	0x3e7e445e	0.24830768
23	0x3e97019a	0.2949341
24	0x3cbe1ce2	0.023207132
25	0x3f06d05e	0.52661693
26	0x3c596fdc	0.013271298
27	0x3dda68a0	0.10664487
28	0x3d80eeb0	0.06295526
29	0x3e86e7ae	0.26348633
30	0x3e15b67c	0.14620394
31	0x3eeceb99	0.46273497
